src/training_logs_ppo/initial/ppo_checkpoint_286_1764188770.pt (torch, 480155 bytes, 42 tensors)

move_logstd f4 [2]
0	0x400e3a27	2.2222993
1	0x3ffc99c3	1.9734424

shared.0.weight f4 [128, 17]
0	0x3dd246d5	0.102674164
1	0xbe16c661	-0.14724113
2	0xbe993069	-0.29919747
3	0x3e3e3ca2	0.18577817
4	0x3e472fd5	0.1945184
5	0xbe4c8ee7	-0.19976388
6	0xbe13b248	-0.14423478
7	0x3db5ee2a	0.08883317
8	0x3e6971de	0.22797343
9	0xbe47fcbd	-0.19530006
10	0x3e1b7309	0.15180601
11	0xbe443db0	-0.19164157
12	0xbdb3c334	-0.087774664
13	0xbda87300	-0.082250595
14	0x3cfdbea0	0.030974686
15	0x3e2bf93e	0.16794297
16	0xbda7b8df	-0.08189558
17	0xbdb6d860	-0.08927989
18	0xbdc3693a	-0.09541555
19	0x3c67064b	0.014100621
20	0x3d8152a0	0.063145876
21	0xbe96c9d1	-0.2945085
22	0x3e6a31de	0.22870585
23	0xbe454586	-0.19264802
24	0xbbf1f35b	-0.0073837466
25	0xbd66045a	-0.056156494
26	0xbead1e9f	-0.33812425
27	0xbe20f64b	-0.15718953
28	0xbbe67a1f	-0.007033601
29	0x3e5c87dc	0.21536201
30	0x3c7a37e9	0.015272119
31	0x3dadc7f0	0.08485401
32	0xbd96f725	-0.07371358
33	0xbdf3ee82	-0.11910726
34	0x3e6f2ab4	0.23356134
35	0x3e8504b8	0.25980163
36	0x3d97b453	0.07407441
37	0x3d956c8f	0.072960965
38	0xbec6e3d1	-0.38845685
39	0xbe13b991	-0.14426257
40	0xbce68d57	-0.028143568
41	0xbe31320d	-0.17304249
42	0x3ac2894d	0.0014841944
43	0xbd9dc0ac	-0.07702765
44	0xbdad30a7	-0.08456545
45	0xbd465e00	-0.04842949
46	0x3e39cd84	0.18144804
47	0xbdeeafb2	-0.11654605
48	0x3e3dc80b	0.18533342
49	0x3c6b5f97	0.014366052
50	0x3d860941	0.06544734
51	0x3cae2f1c	0.021262698
52	0xbd93a5c1	-0.072093494
53	0xbeb13a0f	-0.34614608
54	0xbd3efbad	-0.046626735
55	0x3d9e768f	0.07737457
56	0x3e51ed52	0.20500687
57	0x3e1e43a1	0.15455486
58	0x3d812025	0.06304959
59	0x3e2b3e93	0.16723089
60	0xbde79707	-0.11308103
61	0xbc0e89ec	-0.008699875
62	0xbd199c7e	-0.03750276
63	0xbd5722e1	-0.052523497
64	0xbd876c3a	-0.066124395
65	0x3bdd92d2	0.006761887
66	0xbe446221	-0.19178058
67	0x3e353efb	0.17699806
68	0x3daa573d	0.08317421
69	0x3e0eee08	0.13957989
70	0xbea91ec9	-0.330313
71	0x3d95efb0	0.073211074
72	0x3c6d4f23	0.0144842
73	0x3de9ef05	0.114225425
74	0xbd0242c2	-0.031801946
75	0x3ded07c1	0.115737446
76	0xbe3f2891	-0.18667819
77	0x3e268c34	0.16264421
78	0x3d46ffad	0.048583675
79	0x3e0ab0cb	0.13544004
80	0x3de95a34	0.11394158
81	0xbd48dd80	-0.049039364
82	0x3d28ce50	0.04121238
83	0xbd12d5a7	-0.035848286
84	0x3ddf7b4f	0.10912191
85	0xbe081220	-0.13288164
86	0x3ce8f68e	0.028437879
87	0xbe357292	-0.17719486
88	0xbe8e510f	-0.27796218
89	0xbe8eb868	-0.27875066
90	0xbbc19a3b	-0.0059082783
91	0x3e67d51c	0.22639889
92	0xbe472ca6	-0.19450626
93	0x3e797fc6	0.24365148
94	0xbcc3f609	-0.02392103
95	0x3e24f8ab	0.16110484
96	0x3def535e	0.11685823
97	0x3dd05831	0.10173071
98	0xbcbe32ee	-0.023217645
99	0xbe152b1c	-0.14567226
100	0xbd2d3619	-0.04228792
101	0x3aeac720	0.0017912127
102	0x3d4c8a09	0.049936328
103	0xbcb33825	-0.021877358
104	0xbe1ea3d1	-0.15492178
105	0x3dffb4f2	0.124856845
106	0xbd01a3ec	-0.03165047
107	0x3d2dde6c	0.042448446
108	0xbea3b5d1	-0.31974652
109	0xbdd49281	-0.10379506
110	0x3e957ae2	0.29195315
111	0xbc948827	-0.018131329
112	0xbe6becef	-0.23039602
113	0xbe04b8c7	-0.12961112
114	0x3d397a66	0.045282744
115	0xbd636246	-0.055513643
116	0x3d98d2ba	0.07462068
117	0xbe0aa2ee	-0.13538715
118	0x3cd61cd2	0.02613679
119	0xbe1ef363	-0.15522532
120	0xbd1454b7	-0.036213603
121	0x3e033d50	0.12816358
122	0x3d5674fd	0.052357662
123	0x3d3e2244	0.046419397
124	0xbe6364ef	-0.22206472
125	0xbdb4b12a	-0.08822854
126	0x3e3c42c8	0.1838485
127	0xbe15c613	-0.1462634
128	0xbe0532e3	-0.13007693
129	0xbd807b4f	-0.06273519
130	0xbca0bba5	-0.019620726
131	0xbdd3b76b	-0.103377186
132	0xbe050de0	-0.12993574
133	0x3e0ef3d2	0.13960198
134	0x3cc3086f	0.023807732
135	0x3c32a0ea	0.010902623
136	0xbd967af7	-0.073476724
137	0x3da71814	0.081588894
138	0xbd2ff840	-0.04296136
139	0xbdd68826	-0.10475187
140	0xbdde702f	-0.10861241
141	0xbe573fd0	-0.21020436
142	0x3bc29057	0.005937617
143	0x3e464e52	0.19365814
144	0x3de7128c	0.112828344
145	0xbe870f8f	-0.26379058
146	0x3d775020	0.060379148
147	0xbe0027a2	-0.12515119
148	0x3d95228e	0.072819814
149	0xbdc591cf	-0.096469514
150	0xbe455bbb	-0.19273274
151	0x3d0424aa	0.032261528
152	0xbdf41d42	-0.11919643
153	0x3e0908ae	0.13382217
154	0xbc04e4cd	-0.008111191
155	0x3dfd8c44	0.12380269
156	0xbe68170a	-0.22665039
157	0xbeabce48	-0.33555818
158	0xbc23575f	-0.009969561
159	0xbd5c148a	-0.053730525
160	0x3e1976dc	0.14986748
161	0x3e3706db	0.17873709
162	0x3e559638	0.20858085
163	0xbd85a8e7	-0.06526356
164	0x3dc3cf95	0.095610775
165	0xbe41b12d	-0.18915243
166	0xbdef6a2f	-0.11690175
167	0x3d988c1d	0.074485995
168	0x3d295017	0.041336145
169	0x3da29221	0.07938028
170	0xbdc7ccf8	-0.097558916
171	0x3e28928c	0.16462153
172	0xbdc503a2	-0.096198335
173	0x3b2166ec	0.0024627997
174	0xbe852d2d	-0.2601103
175	0x3e65e699	0.22451247
176	0xbd664f81	-0.056228165
177	0xbe7f399a	-0.24924317
178	0xbe3fc4c0	-0.18727398
179	0xbdf9a446	-0.12189536
180	0x3e9144d8	0.28372836
181	0xbde201fb	-0.11035534
182	0xbe566db9	-0.20940293
183	0x3d6f7f22	0.058470853
184	0x3ce94862	0.028476898
185	0x3d5f6023	0.054535042
186	0xbdc30a9b	-0.09523507
187	0xbdb6307d	-0.08895967
188	0xbe42b5f5	-0.19014724
189	0x3d8582be	0.06519078
190	0xbe84f4ac	-0.2596792
191	0x3daa956e	0.08329283
192	0x3e167453	0.14692812
193	0x3e771565	0.24129255
194	0x3e5e9cb7	0.2173947
195	0xbd2efdc8	-0.042722493
196	0xbe1289f5	-0.14310439
197	0xbe8806c7	-0.2656767
198	0x3ddd1bea	0.1079634
199	0xbda96c9c	-0.08272669
200	0xbcaa4e3d	-0.02078926
201	0xbd268195	-0.040650923
202	0xbdac59f4	-0.08415595
203	0xbcb37ebe	-0.021911021
204	0xbc83be76	-0.01608203
205	0xbe312cdd	-0.1730227
206	0xbe1efc33	-0.15525894
207	0xbdc8e86b	-0.09809955
208	0xbd917ab2	-0.071034804
209	0xbe64f2ed	-0.22358294
210	0x3e3e541f	0.18586777
211	0xbcfdfeea	-0.031005342
212	0xbddb1a5c	-0.10698387
213	0x3d8f1b3f	0.06987619
214	0xbe1fd9a2	-0.15610364
215	0xbd5d6dcc	-0.05405979
216	0xbe049b95	-0.12949975
217	0xbbfcf718	-0.0077198856
218	0x3ccbb34e	0.024865773
219	0x3c2f2f00	0.010692358
220	0xbd17f4a1	-0.03709853
221	0x3e368c97	0.17827068
222	0x3d43c450	0.04779464
223	0xbe5b5da8	-0.21422446
224	0x3d994d0e	0.074854
225	0xbdeb1706	-0.11479001
226	0x3e6d642c	0.23182744
227	0xbe22b0f4	-0.15887815
228	0xbd9b7be3	-0.07591989
229	0x3e438a76	0.19095787
230	0xbd8ffb33	-0.07030334
231	0xbdb5c412	-0.08875288
232	0x3d8f711a	0.07003994
233	0x3d613d7b	0.054990273
234	0x3d94051e	0.072275385
235	0xbd91c7df	-0.071182005
236	0x3daaec8c	0.08345899
237	0xbd96d1fd	-0.07364271
238	0xbd5e30d8	-0.0542458
239	0xbd178f39	-0.037001822
240	0xbd10f748	-0.035392076
241	0xbe4e94f8	-0.20174015
242	0xbe1a2a07	-0.15055095
243	0xbe8c59fb	-0.274124
244	0x3d730197	0.059327688
245	0xbe5cccb2	-0.2156246
246	0x3e96566a	0.29362804
247	0x3ded5614	0.11588684
248	0x3dc1e8dc	0.094682425
249	0x3c249f2b	0.010047714
250	0x3ca33664	0.019923396
251	0x3d61de7e	0.055143826
252	0x3e88ae00	0.2669525
253	0xbe2e6e99	-0.17034377
254	0xbdaf527f	-0.08560657
255	0xbccf73c4	-0.025323756

shared.0.bias f4 [128]
0	0xbd585845	-0.052818555
1	0xbeae6e11	-0.3406835
2	0xbdff733d	-0.12473152
3	0xbe4f54db	-0.20247214
4	0xbe179a80	-0.14805031
5	0xbd508db3	-0.050916385
6	0xbd5ca2a1	-0.053866033
7	0x3dfbe695	0.122998394
8	0xbeb7ff96	-0.35937184
9	0xbdf93beb	-0.121696316
10	0x3dce0efc	0.10061452
11	0xbe835071	-0.2564731
12	0xbd1bc47c	-0.03802918
13	0xbe181b90	-0.14854264
14	0x3c86d66a	0.016459662
15	0xbe024835	-0.12722857
16	0xbe2f5a57	-0.17124306
17	0x3e9b122e	0.30287308
18	0x3dab7ef9	0.083738275
19	0xbe9a0edf	-0.3008947
20	0xbe03b19d	-0.12860723
21	0x3afa0c27	0.0019077108
22	0x3b23540c	0.0024921922
23	0x3d8664fa	0.065622285
24	0xbdcac9fe	-0.09901808
25	0xbe48e269	-0.19617619
26	0xbcd1d683	-0.025614982
27	0xbda5b15a	-0.08090468
28	0x3cdfa042	0.027298097
29	0xbe8c8220	-0.27443027
30	0xbd80104d	-0.06253109
31	0xbe8887d2	-0.26666123
32	0xbde91119	-0.11380214
33	0xbdcb70f6	-0.09933655
34	0xbe8938df	-0.26801202
35	0x3c7b598c	0.015341174
36	0xbe804bd8	-0.25057864
37	0xbe986a26	-0.29768485
38	0xbd53eb24	-0.05173792
39	0xbe2957db	-0.1653742
40	0xbec47f85	-0.3837854
41	0xbe61ab24	-0.22037941
42	0xbc0c756c	-0.008572917
43	0xbdacf00e	-0.08444224
44	0x3db19a1f	0.086719744
45	0xbeb9ae92	-0.36266
46	0x3e2c443d	0.16822906
47	0xbe8b0621	-0.27153113
48	0x3e14e485	0.14540298
49	0xbe55791e	-0.20846984
50	0xbe999894	-0.2999922
51	0xbe2d4221	-0.16919757
52	0xbe80dba3	-0.2516757
53	0xbe049dfe	-0.12950894
54	0xbd14cf87	-0.036330726
55	0x3c036b8c	0.008021247
56	0x3d46f97c	0.04857777
57	0xbe5c891e	-0.21536681
58	0xbe2b5f78	-0.16735637
59	0xbd56f838	-0.052482814
60	0xbd90304e	-0.070404634
61	0xbd7ae69a	-0.061255075
62	0xbe1ec3e7	-0.15504418
63	0xbe30e387	-0.17274295
64	0xbea85bad	-0.32882443
65	0xbe176459	-0.14784373
66	0xbe8a97fc	-0.2706908
67	0xbed054ba	-0.4068964
68	0xbe292db9	-0.16521348
69	0xbafc00c3	-0.0019226301
70	0xbeeb1928	-0.4591763
71	0xbe9041e3	-0.28175268
72	0x3d1260f5	0.035736997
73	0x3e5fc0a3	0.21850829
74	0x3d023916	0.031792723
75	0xbdf8a323	-0.12140491
76	0x3e3986b7	0.18117796
77	0xbea8d3ba	-0.32974035
78	0xbe15f3a3	-0.14643721
79	0xbe44777e	-0.19186208
80	0xbe2c1216	-0.16803774
81	0xbe8d3211	-0.2757726
82	0xbf03434b	-0.51274556
83	0xbe336e4b	-0.17522542
84	0xbe7e7453	-0.24849062
85	0xbe241773	-0.1602457
86	0xbd611727	-0.05495372
87	0xbdda4463	-0.10657575
88	0xbd8c8585	-0.06861404
89	0xbe85f215	-0.26161256
90	0x3d6fc611	0.0585385
91	0xbe1c48c8	-0.15262139
92	0xbd9fc4c3	-0.07801201
93	0x3e1c9dbd	0.15294547
94	0xbe81bcd6	-0.25339383
95	0x3e0d171f	0.13778351
96	0xbe8242c0	-0.2544155
97	0xbe9050bd	-0.28186598
98	0x3e36320f	0.17792533
99	0xbe438011	-0.19091822
100	0x3e733dc8	0.23754036
101	0xbe64fb72	-0.22361544
102	0x3d765048	0.060135156
103	0xbd92db51	-0.071707375
104	0x3d54b0b1	0.05192632
105	0xbdf0a32b	-0.11749872
106	0xbe0f5a87	-0.13999377
107	0xbdca4ec0	-0.098783016
108	0xbd8a620f	-0.067569844
109	0xbe4d40a7	-0.20044194
110	0xbd07f346	-0.033190988
111	0xbea37cc2	-0.3193112
112	0xbe501e68	-0.20324099
113	0xbeb02d42	-0.3440953
114	0xbb570f05	-0.0032815349
115	0xbe883ee6	-0.26610488
116	0xbe5c2f15	-0.21502335
117	0xbe2eaedd	-0.17058893
118	0xbe926565	-0.28592983
119	0xbdeb4914	-0.11488548
120	0xbca689c4	-0.020329364
121	0xbeb0cc5b	-0.3453091
122	0xbe1edb94	-0.1551345
123	0xbe782064	-0.24231106
124	0xbe4c0fc1	-0.19927885
125	0x3d944131	0.07238997
126	0xbecfd158	-0.40589404
127	0xbbdf8352	-0.0068210745

shared.2.weight f4 [128, 128]
0	0x3c838043	0.01605237
1	0x3d1b6dad	0.03794639
2	0x3d410b9a	0.047130205
3	0xbccd5bf1	-0.025068255
4	0x3d6f907d	0.058487404
5	0x3d38f418	0.04515466
6	0xbd3484a6	-0.044071816
7	0x3d0d374a	0.034476556
8	0xbceb4389	-0.028718727
9	0x3d82b2cf	0.06381761
10	0xbc8bd834	-0.017070867
11	0xbd9c7860	-0.07640147
12	0xbdbb8936	-0.0915703
13	0x3c85dbb5	0.016340116
14	0x3d151cf6	0.036404572
15	0x3d9ebba1	0.07750631
16	0x3d2aaa86	0.04166653
17	0xbcd831d4	-0.026390947
18	0x3c093b7e	0.008376
19	0x3b31d2be	0.0027133669
20	0x3c41724e	0.0118070375
21	0xbde5264d	-0.11188946
22	0xbd9314ec	-0.07181725
23	0x3c7cd52d	0.015431684
24	0x3da9be49	0.08288247
25	0xbda86118	-0.08221644
26	0xbce04b30	-0.027379602
27	0xbbd427a2	-0.006474451
28	0xbdfdd298	-0.12393683
29	0xbd7aef62	-0.06126345
30	0xbcf98ce4	-0.03046269
31	0x3c13f208	0.009029873
32	0xbd0bc332	-0.0341217
33	0xbba9290a	-0.005162363
34	0x3d818321	0.06323839
35	0xbd01bbb1	-0.031673137
36	0x3d609b9f	0.05483591
37	0xbdda1c81	-0.10649968
38	0x3d41ec65	0.047344584
39	0xbda1c275	-0.07898418
40	0x3ca7f12f	0.020500747
41	0xbe032981	-0.12808801
42	0xbdb5dd64	-0.088801175
43	0x3cf8e14c	0.030380867
44	0xbc9f2d25	-0.019430706
45	0xbda0ce6e	-0.07851873
46	0xbd8b660b	-0.068065725
47	0x3ccae5bc	0.024767749
48	0xbcd11c42	-0.02552617
49	0xbda9e483	-0.08295538
50	0x3c86b589	0.016443985
51	0xbd8de17b	-0.069277726
52	0x3ccd3f34	0.025054552
53	0xba3b8ed3	-0.00071547664
54	0xbcfcd439	-0.030862914
55	0x3d1b47e0	0.037910342
56	0x3d3816f3	0.04494376
57	0xbd82e377	-0.06391042
58	0xbca34bb2	-0.019933555
59	0x3d2bbf72	0.041930623
60	0xbd04131f	-0.032244798
61	0xbd2b98d3	-0.04189379
62	0xbcfd63c1	-0.030931355
63	0xbd96cf83	-0.073637985
64	0x3d60939f	0.054828282
65	0x3d335e08	0.043790847
66	0xbaecf094	-0.0018077069
67	0xbcbdfd2f	-0.023192016
68	0xbdebdd90	-0.11516869
69	0xbb67e7ac	-0.003538589
70	0xbd4a0566	-0.049321555
71	0x3c9dc0d6	0.01925699
72	0xbd1ec1b5	-0.038758952
73	0xbd8e4b51	-0.06947959
74	0xbd70ba4a	-0.05877141
75	0xbd7fb7b8	-0.062431067
76	0xbd3bae04	-0.04582025
77	0xbddd0a65	-0.10792998
78	0xbd8780db	-0.06616374
79	0x3d163e40	0.03668046
80	0xbd09a4f9	-0.033604596
81	0xbd1e899b	-0.03870545
82	0xbe01b141	-0.12665273
83	0xbdb66ac9	-0.089070864
84	0xbd488989	-0.04895929
85	0xbd00b3fa	-0.03142164
86	0xbcc16e88	-0.023612276
87	0xbe2506a6	-0.16115817
88	0xbdb15371	-0.08658493
89	0xbd423d1a	-0.047421552
90	0xbbc74ece	-0.0060823923
91	0xbd7541d8	-0.059877247
92	0x3cb31eb8	0.021865234
93	0x3cd20acd	0.025639916
94	0x3d5c22f0	0.053744256
95	0xbd4fffee	-0.050781183
96	0xbddbaa7b	-0.10725876
97	0xbcac5ce4	-0.021040387
98	0xbd8498a2	-0.06474425
99	0x3d04ddb7	0.032438006
100	0xbdbf0500	-0.093271255
101	0x3c5e99e6	0.013586497
102	0xbe2d8d3d	-0.1694841
103	0xbde86f8e	-0.11349402
104	0xbda766a5	-0.08173875
105	0xbc47894c	-0.01217873
106	0xbdb8e161	-0.090273626
107	0xbbc45236	-0.0059912456
108	0x3d77b2e5	0.06047334
109	0xbd937708	-0.07200438
110	0x3d2060d9	0.03915486
111	0xbd58f290	-0.0529657
112	0xbdc5414c	-0.09631595
113	0x3ccfcad3	0.025365269
114	0xbc24a2ca	-0.010048578
115	0xbc797a9f	-0.015226989
116	0x3c290d07	0.010318047
117	0xbde6107f	-0.11233615
118	0xbdb898c6	-0.09013514
119	0xbcc7a1b1	-0.024369093
120	0xbd46652d	-0.048436332
121	0xbd8c074f	-0.068373315
122	0xbd4b0fd5	-0.049575645
123	0x3c5f64e6	0.013634896
124	0x3cb09637	0.021556003
125	0x3c93fe93	0.018065726
126	0xbd8fba9e	-0.07018016
127	0xbcd27402	-0.025690082
128	0xbd42e346	-0.047580026
129	0xbd017316	-0.031603895
130	0xbdf2d935	-0.11857835
131	0xbe025d24	-0.12730843
132	0x3cc211cb	0.023690125
133	0x3ce2ced2	0.02768651
134	0xbdc15b46	-0.09441237
135	0x3da3ea35	0.08003656
136	0x3d6f65ad	0.058446575
137	0x3cc6d8f7	0.024273379
138	0xbd8bfe64	-0.068356305
139	0xbd087354	-0.03331311
140	0xbddb66c3	-0.107129596
141	0x3d285b56	0.04110273
142	0x3c9507d4	0.01819221
143	0x3d521b52	0.051295586
144	0x3ca50e46	0.020148408
145	0xbd839d0e	-0.0642644
146	0xbd6cb620	-0.057790875
147	0x3d397265	0.04527511
148	0xbdd4336e	-0.10361372
149	0xbd2dfd8b	-0.042478126
150	0xbd904aac	-0.070454925
151	0x3cf49017	0.029853864
152	0x3c1617d8	0.009160958
153	0x3c562714	0.01307084
154	0xbab6f668	-0.0013958933
155	0xbd9c0e3a	-0.07619901
156	0xbd2a2bed	-0.041545797
157	0xbd625760	-0.05525911
158	0xbceff1f9	-0.029290186
159	0xbdbb6c11	-0.091514714
160	0x3b34c756	0.0027584634
161	0xbdcb6e49	-0.099331446
162	0xbd1be577	-0.03806063
163	0x3d441cdb	0.04787908
164	0xbdd67f57	-0.10473507
165	0x3bf6d2e4	0.0075324643
166	0xbd0d6dac	-0.03452842
167	0xbde00563	-0.109385274
168	0xbdccc97c	-0.099993676
169	0xbb600631	-0.0034183378
170	0x3d1b7a32	0.03795833
171	0x3aaabf0a	0.0013026905
172	0x3cebd392	0.028787408
173	0xbd9e783d	-0.077377774
174	0x3d734493	0.05939157
175	0x3d1549f6	0.036447488
176	0xbc71baa2	-0.014753969
177	0xbd371ede	-0.04470717
178	0xbdcdc1e9	-0.10046751
179	0xbda3456d	-0.07972226
180	0x3d262f66	0.040572546
181	0x3cc51079	0.024055706
182	0x3d3a8742	0.04553915
183	0x3d873f24	0.0660384
184	0xbdde1845	-0.10844473
185	0xbccdbfa8	-0.025115803
186	0xbd83a88d	-0.06428633
187	0x3d20555b	0.0391439
188	0xbd219e43	-0.03945757
189	0xbdf3d3a6	-0.11905603
190	0xbd842499	-0.06452293
191	0xbc635557	-0.013875327
192	0xbd3aa0e1	-0.045563582
193	0xbda71109	-0.08157546
194	0x3cd5a05d	0.026077444
195	0xbd8ee667	-0.069775395
196	0x3d81d80c	0.06340036
197	0x3d045086	0.032303356
198	0x3c115251	0.008869723
199	0x3ce34ec9	0.027747529
200	0xbda612b9	-0.0810904
201	0x3cf4c681	0.02987981
202	0xbde11ed4	-0.10992208
203	0xbc05603d	-0.008140621
204	0xbdd5153e	-0.10404442
205	0xbd942a74	-0.0723466
206	0xbd32257b	-0.043492775
207	0xbe0e762e	-0.1391227
208	0x3d30d38b	0.043170493
209	0x3b94054a	0.004517232
210	0x3a2ae867	0.0006519616
211	0x3ca356ae	0.019938793
212	0xbdbfb5a7	-0.09360819
213	0xbcceb047	-0.02523054
214	0x3cbd951a	0.023142386
215	0xbd0975f3	-0.03355975
216	0x3db0d4f2	0.08634366
217	0xbdcee313	-0.10101905
218	0xbced81b0	-0.028992504
219	0x3b6cdd83	0.0036142773
220	0xbdac08a0	-0.084000826
221	0xbdc5c28d	-0.09656248
222	0xbd977c0c	-0.07396707
223	0x3cd785de	0.02630895
224	0x3ad56b9e	0.0016282683
225	0x3c81678f	0.01579645
226	0xbe0bd6f4	-0.13656217
227	0xbe21255c	-0.15736908
228	0xbe05638f	-0.1302626
229	0xbc9a11f9	-0.018807398
230	0x3cd3223b	0.025773158
231	0xbdaa0633	-0.08301964
232	0xbd3e5a86	-0.04647305
233	0xbdcb0d90	-0.09914696
234	0x3d806cca	0.0627075
235	0xbd5c4109	-0.05377296
236	0xbce70bb6	-0.028203826
237	0xbc7a352f	-0.015271469
238	0x3d0489df	0.032358047
239	0xbd4fa1b6	-0.05069133
240	0x3db6e64b	0.08930644
241	0xbb961ce1	-0.0045810794
242	0xbc802ac7	-0.015645398
243	0x3d0066de	0.0313481
244	0xbd760ede	-0.060072772
245	0xbdab6f76	-0.08370869
246	0x3d633792	0.055472918
247	0xbd7801fa	-0.06054876
248	0xbdc68364	-0.096930295
249	0xbd847c4b	-0.064690195
250	0xbdd473b0	-0.10373628
251	0xbd764e51	-0.060133282
252	0xbcc6f871	-0.024288388
253	0xbdcc2ff7	-0.09970086
254	0xbde84de7	-0.11342984
255	0xbcf6f984	-0.030148275

shared.2.bias f4 [128]
0	0xbd84cc05	-0.06484226
1	0xbde0f1d9	-0.10983629
2	0xbe055c98	-0.13023603
3	0x3cbc75ac	0.02300533
4	0xbcecc62c	-0.02890309
5	0x3cc63454	0.024194874
6	0x3d1cad20	0.038251042
7	0x3cd141cf	0.025544075
8	0xbde9fb7a	-0.114249185
9	0x3c8cb018	0.017173812
10	0xbdc81153	-0.09768929
11	0xbd0c53d0	-0.034259617
12	0x3bf830e0	0.0075741857
13	0xbda188f7	-0.07887452
14	0xb9cdabed	-0.00039228742
15	0xbe070ac2	-0.13187698
16	0xbca021d2	-0.019547377
17	0xbdafdf69	-0.08587534
18	0x3c387ceb	0.0112602515
19	0xbdbf0a8f	-0.09328186
20	0xbddd860f	-0.10816585
21	0x3d2d230c	0.04226975
22	0xbda3714d	-0.07980595
23	0x3ca3239b	0.019914439
24	0xbc7acb64	-0.015307281
25	0x3c1b79a4	0.009489451
26	0x3cadea5b	0.021229913
27	0x3cabb68f	0.020961074
28	0xbd99d461	-0.07511211
29	0xbd287adb	-0.04113279
30	0xbdd05fe7	-0.10174542
31	0xbbdce448	-0.0067410804
32	0x3d0e906b	0.034805696
33	0xbcc55b72	-0.024091456
34	0xbd8ab08c	-0.06771955
35	0x3d22e286	0.03976681
36	0xbdc38934	-0.09547654
37	0xbd1c9ae5	-0.038233656
38	0xbdbc1220	-0.091831446
39	0xbd9800c9	-0.07422025
40	0xbdadecb0	-0.0849241
41	0xbc88398f	-0.016629009
42	0x3c83c555	0.016085306
43	0xbdaec993	-0.08534541
44	0xbe0d3eb7	-0.13793455
45	0xbd818186	-0.06323533
46	0xbb0f2bf2	-0.0021846262
47	0x3cfff99a	0.031246949
48	0xbcb040f5	-0.021515349
49	0xbdd026c2	-0.101636425
50	0x39dabca9	0.00041720763
51	0xbd724fbe	-0.05915808
52	0xbe0d595e	-0.13803622
53	0xbcd9de92	-0.026595388
54	0xbc657fd2	-0.0140075255
55	0x3d369db7	0.044584002
56	0x3b59ebae	0.0033252048
57	0xbdf8fa60	-0.1215713
58	0xbbf683a1	-0.0075230156
59	0xbcbbae6d	-0.022910321
60	0xbd8110a8	-0.06302005
61	0xbd2de713	-0.042456698
62	0x3c17e139	0.009270006
63	0xbd407b0e	-0.046992354
64	0xbdd9ed2f	-0.10640942
65	0xbdb27658	-0.087139785
66	0xbcd3fe0f	-0.02587798
67	0xbd7ba5b9	-0.061437342
68	0xbdee36b6	-0.11631529
69	0x3d22614a	0.039643563
70	0xbc10a2ce	-0.008827878
71	0xbd84d005	-0.06484989
72	0x3bd483b1	0.0064854254
73	0x3cca096d	0.024662698
74	0xbe002c64	-0.12516934
75	0x3d1fdc79	0.03902862
76	0x3bc03e00	0.005866766
77	0xbde6f5f2	-0.11277379
78	0xbafd0c16	-0.001930597
79	0x3d0abd36	0.03387185
80	0xbd3e570e	-0.04646974
81	0x3ca51a64	0.020154186
82	0x3d027763	0.031852137
83	0xbdb6775a	-0.08909483
84	0xbcc5b934	-0.024136163
85	0xbd6fa6a0	-0.058508515
86	0x3cc8ed6d	0.024527276
87	0xbdeadbf8	-0.11467737
88	0x3c8842b6	0.016633373
89	0xbdcb7a1a	-0.099353984
90	0xbc370b73	-0.011172163
91	0xbdd5b240	-0.10434389
92	0xbc2f585f	-0.010702222
93	0xbd671d25	-0.05642428
94	0xbd6b7a79	-0.057489846
95	0x3cdf06cd	0.027224923
96	0x3d35921e	0.0443288
97	0xbdb2da14	-0.08733001
98	0xbd8e9da3	-0.069636606
99	0x3d15b9ac	0.036554024
100	0xbdf601ee	-0.12012087
101	0xbc5c663b	-0.013452108
102	0xbd5332ad	-0.051562
103	0x3cab9c76	0.02094863
104	0xbd890973	-0.066912554
105	0xbd436b43	-0.047709715
106	0xbdee16f6	-0.11625473
107	0xbddfa5b6	-0.10920279
108	0xbccc11b6	-0.024910789
109	0x3cdb533f	0.026773093
110	0xbddcf8b5	-0.107896246
111	0x3d042015	0.03225716
112	0xbdcb19bf	-0.0991702
113	0xbcfc9699	-0.03083353
114	0xbd874783	-0.06605437
115	0xbe0a37d1	-0.13497855
116	0xbda3dbb5	-0.0800089
117	0xbd781e16	-0.060575567
118	0xbd697ddf	-0.057004806
119	0xbda0e977	-0.0785703
120	0xbdb68b19	-0.089132495
121	0x3cfd162e	0.030894365
122	0xbca51279	-0.02015041
123	0xbd85421b	-0.06506749
124	0xbdbe207e	-0.09283541
125	0xbda7adae	-0.08187424
126	0x3d37b48f	0.04484993
127	0xbd9a3bbe	-0.07530926

move_mean.weight f4 [2, 128]
0	0xbc005421	-0.007832558
1	0xbd2260d2	-0.039643116
2	0xbbd66429	-0.0065427017
3	0x3cb9614b	0.0226294
4	0x3c252232	0.010078954
5	0x3c108486	0.008820659
6	0x3bd0da1a	0.006373656
7	0x3cbc1731	0.022960277
8	0x3cc309aa	0.02380832
9	0x38d4e043	0.0001015072
10	0xbb1c83ed	-0.0023882345
11	0x3b6e3c61	0.0036351907
12	0xbc1e4212	-0.009659307
13	0x3d478114	0.048707083
14	0x3c76918f	0.015049352
15	0xbcb1f26e	-0.021722045
16	0x3d11caf3	0.035593938
17	0x3c33a308	0.010964163
18	0xbc55af67	-0.013042307
19	0xbcf20386	-0.029542696
20	0x3d43bc12	0.04778678
21	0x3d754b3a	0.059886195
22	0xbce4669c	-0.02788096
23	0x3ca297a4	0.019847699
24	0xbc444665	-0.011979674
25	0x3d1e9642	0.038717516
26	0x3d32d067	0.04365578
27	0xbab5addb	-0.0013861017
28	0x3c5cdc15	0.013480206
29	0xbbbeffba	-0.005828825
30	0x3c3fc476	0.011704555
31	0xbb192b96	-0.0023371927
32	0x3cc612c9	0.02417888
33	0x3b8ff16f	0.004392795
34	0x3d28affc	0.041183457
35	0xbc8ea617	-0.017413182
36	0xbbffe241	-0.007808954
37	0x3d5dc104	0.054139152
38	0xbd8124bc	-0.06305835
39	0x3c8bd48e	0.017069127
40	0x3b5425c5	0.0032371145
41	0x3c2a2887	0.010385639
42	0x3d5b10b5	0.05348273
43	0x3c7fb2aa	0.015606562
44	0xbc5e1790	-0.013555422
45	0xbb0c2abf	-0.0021387783
46	0xbc9b7dc0	-0.01898086
47	0xbd1674b0	-0.036732376
48	0x3ccea63e	0.025225755
49	0xbb14cf75	-0.0022706662
50	0xbaafce5a	-0.0013412938
51	0xbbdf2692	-0.006810018
52	0xbbb6e1f1	-0.0055811335
53	0x3ab0e1da	0.0013495043
54	0x3c7c67f3	0.015405643
55	0xbd19ebb0	-0.037578285
56	0xbd16bea3	-0.0368029
57	0xbce19828	-0.027538374
58	0x3ce7c351	0.028291376
59	0xb89a76cd	-7.3654206e-05
60	0xbb902060	-0.0043983907
61	0x3bf9eed5	0.007627348
62	0xbb78c308	-0.0037958045
63	0xbb51ecb8	-0.0032031965
64	0xbbc58bf7	-0.006028648
65	0x3bef03d3	0.007294157
66	0x3b113ee6	0.0022162735
67	0xbc158539	-0.009126001
68	0xbc1df3b7	-0.009640626
69	0x3d2a9d9a	0.041654207
70	0x3d243e3c	0.040098414
71	0x3d391607	0.045187023
72	0xbca93946	-0.020657193
73	0x3c94b39d	0.018152053
74	0x3bbbfa22	0.0057366053
75	0xbc902fb0	-0.017600864
76	0xbc935262	-0.01798362
77	0xbcd901c8	-0.026490107
78	0x3d437855	0.04772218
79	0xbc454a94	-0.012041707
80	0xbcc63384	-0.024194486
81	0x3d625b37	0.05526277
82	0x3bb254e9	0.005442251
83	0x3c41eb3a	0.011835868
84	0x3ab23083	0.001359478
85	0xba045bc1	-0.0005049073
86	0x3cebdf64	0.028793044
87	0x3b75b4b9	0.0037491752
88	0x3d0651a1	0.03279269
89	0x3c3c205e	0.011482326
90	0xbd530f61	-0.05152834
91	0xbd2ddcd9	-0.042446945
92	0x3c55f2df	0.013058393
93	0xbd613059	-0.05497775
94	0x3c5addb4	0.013358522
95	0x3d90c3ec	0.07068619
96	0x3d586100	0.05282688
97	0xbcce7b97	-0.025205417
98	0x3d8ab335	0.06772462
99	0x3ca07c09	0.019590395
100	0x3bcc0430	0.006226085
101	0x3d1923fc	0.037387833
102	0xbc8985d8	-0.016787454
103	0x3c0c8b62	0.008578153
104	0x3a213900	0.0006150156
105	0xbc0583d2	-0.008149104
106	0x3d2d494a	0.042306222
107	0x3ceb5eb9	0.02873169
108	0xbbfcddbf	-0.007716864
109	0xbaefa22f	-0.0018282587
110	0x3b992a2b	0.0046742163
111	0xbc0bd901	-0.0085356245
112	0xbd412ef5	-0.047163922
113	0x3c088c64	0.008334253
114	0x3ae518f5	0.0017478751
115	0xbc2f50d4	-0.010700423
116	0x3cd179cc	0.025570773
117	0x3be2db9e	0.006923153
118	0x3ccf7217	0.025322957
119	0x3cfb944a	0.030710358
120	0xbd876505	-0.06611065
121	0xbd345107	-0.044022586
122	0x3d71871b	0.058966737
123	0xbccb8e06	-0.024847995
124	0x3a25e72c	0.0006328698
125	0xbc726167	-0.01479373
126	0x3b711d73	0.0036791235
127	0x3c2c8b44	0.01053125
128	0x3cb9ac6f	0.02266523
129	0x3ca33516	0.019922774
130	0x3a638497	0.000867912
131	0xbb386901	-0.002813876
132	0x3d29864f	0.041387852
133	0x3c8d34c7	0.01723708
134	0x3c0cd7a2	0.008596333
135	0xb9402261	-0.00018323354
136	0x3c4f6b08	0.012659796
137	0xbc477897	-0.012174747
138	0xbcf5d809	-0.03001024
139	0x3c0567bd	0.008142409
140	0x3da94195	0.08264462
141	0xbbce6f02	-0.0062998543
142	0xba04b529	-0.00050623954
143	0x3bd52276	0.006504352
144	0xbbc80699	-0.006104302
145	0xba0841ce	-0.0005197794
146	0xbc9893e9	-0.018625217
147	0x3d1c9dab	0.0382363
148	0x3d820f77	0.06350606
149	0x3b18d66d	0.0023321167
150	0x3d41f8df	0.047356483
151	0xbc4f7c00	-0.012663841
152	0xbcaedb33	-0.021344757
153	0xbd115096	-0.035477243
154	0x3d172446	0.036899827
155	0xbb441206	-0.002991797
156	0xbc0cd946	-0.008596724
157	0x3c11aa34	0.008890677
158	0xbc0e7201	-0.008694173
159	0xbc881dde	-0.016615804
160	0xbca42eed	-0.020041907
161	0xbb1f1acb	-0.0024277444
162	0x3ca4c1fa	0.020112026
163	0xbd175acf	-0.036951836
164	0xbc72160b	-0.014775763
165	0xbd3347cf	-0.043769654
166	0x3d3e1488	0.0464063
167	0xbbb6ed00	-0.005582452
168	0x3d04d506	0.032429717
169	0x3b1e4672	0.0024150875
170	0xbc48911f	-0.012241631
171	0x3cba5ccc	0.022749327
172	0xbc172208	-0.009224422
173	0x3cf83de2	0.030302946
174	0xba8da371	-0.0010806156
175	0xbcd7b06a	-0.026329238
176	0x3b9d2f17	0.0047968733
177	0xbbf74c7c	-0.0075469594
178	0xbac0efb9	-0.001471988
179	0xbb390237	-0.002823008
180	0x3cac9696	0.021067899
181	0x3d2d077d	0.04224347
182	0x3c56563e	0.013082085
183	0x3d714d5e	0.058911674
184	0xbd7817ee	-0.060569696
185	0x3b636e6b	0.0034703265
186	0x3d079d7f	0.033109184
187	0xbc7f2d81	-0.015574814
188	0x3cb6426f	0.022248475
189	0xbc0efd6e	-0.0087274145
190	0xbc9899e4	-0.018628068
191	0x3ccf8263	0.025330728
192	0x3c4a8538	0.012360863
193	0xbc271201	-0.010197164
194	0xbcae0524	-0.021242686
195	0xbbb65231	-0.005563997
196	0xbc587130	-0.01321058
197	0x3c4c26ae	0.012460394
198	0x3c9883cc	0.018617533
199	0xbd7597d3	-0.059959244
200	0x3b0e9129	0.0021754003
201	0xbc3d68e9	-0.011560657
202	0xbd181605	-0.037130374
203	0x3c3a382f	0.011365934
204	0xbd147ee7	-0.036253836
205	0xbd028e66	-0.031874083
206	0xbd6a46f3	-0.05719657
207	0x3bc2c010	0.005943306
208	0xbd245957	-0.040124264
209	0xbd62b16a	-0.055344976
210	0xbbffda06	-0.007807973
211	0x3c892db0	0.016745418
212	0xbc3ab1de	-0.011394946
213	0xb9309f0d	-0.00016843919
214	0xbc8a69f5	-0.016896227
215	0xbd1f604f	-0.038910206
216	0xbc2d5ce4	-0.010581229
217	0xbc9d5bee	-0.019208875
218	0x3b4ab4c2	0.0030930494
219	0x3a6d3261	0.00090483396
220	0x3a14b1c5	0.00056722417
221	0x3cc2d049	0.023780959
222	0x3d3b46b5	0.04572173
223	0x3c71b688	0.0147529915
224	0x3c87b0e9	0.01656385
225	0xbd3a4d30	-0.045483768
226	0x3cc92fde	0.024558958
227	0x3c9fe1f8	0.01951693
228	0x3d05de76	0.03268286
229	0x3d743c8b	0.05962805
230	0xbd84b46e	-0.06479727
231	0xbc4d9ccb	-0.012549589
232	0x3d2cf5b3	0.042226505
233	0x3c03622f	0.008019014
234	0xbcaba0a4	-0.020950623
235	0x3c80b902	0.015713219
236	0xbac7448d	-0.0015202925
237	0x3d135779	0.035972092
238	0xbb7d4f4f	-0.0038652008
239	0x39e67cce	0.00043962005
240	0xbd0102eb	-0.031496923
241	0xbc11c970	-0.008898124
242	0x3d238117	0.03991803
243	0xbc8b06b1	-0.016970964
244	0xbb16c29f	-0.0023004187
245	0xbb661cad	-0.0035112307
246	0xbd29a363	-0.041415583
247	0x3c87a032	0.01655588
248	0xbc168684	-0.009187344
249	0x3c36edf8	0.011165135
250	0xbdabd8ec	-0.08390984
251	0x3c9fd8a5	0.019512484
252	0x3af6aba6	0.0018819466
253	0x3bd21353	0.006410995
254	0xbb1e3bfc	-0.002414464
255	0x3d067526	0.032826565

move_mean.bias f4 [2]
0	0x3dbc7d99	0.09203643
1	0xbe7f8c51	-0.2495587

food_logits.weight f4 [3, 128]
0	0xbd0a5b08	-0.03377822
1	0x3ca1e77d	0.019763703
2	0x3cacfddd	0.021117145
3	0xbc1ed1ce	-0.009693576
4	0x3cca6a0a	0.024708766
5	0xbcb8f1bd	-0.022576207
6	0x3c00aca2	0.007853659
7	0x3d33ffa8	0.043944985
8	0xbcae7e76	-0.021300536
9	0xbcd89309	-0.0264373
10	0x3d06f19a	0.032945253
11	0xbd246d56	-0.040143333
12	0xbd842556	-0.06452434
13	0xbcca5708	-0.024699703
14	0x3c236ac7	0.009974188
15	0x3d042567	0.032262232
16	0xbd0257ed	-0.031822134
17	0xbac974f2	-0.0015369935
18	0x3d5c4e37	0.05378553
19	0xbd7e5d50	-0.06210071
20	0x3d559c40	0.052150965
21	0x3c2f8def	0.010714992
22	0xbd58d346	-0.05293586
23	0xbca4d5b0	-0.020121425
24	0xbbef2f3b	-0.0072993315
25	0x3d7cc17a	0.06170795
26	0x3d2a3cf7	0.041562047
27	0xbd2f4467	-0.042789843
28	0x3bed0342	0.0072330544
29	0xbcc374be	-0.023859378
30	0xbd100718	-0.035163015
31	0x3d2106be	0.03931307
32	0x3d694d82	0.056958683
33	0x3d473f6b	0.048644464
34	0x3d2a13a4	0.041522637
35	0xbcccae8a	-0.02498557
36	0x3d70a6f4	0.05875297
37	0xbbb1ed30	-0.0054298863
38	0x3d05c687	0.032660034
39	0xbd50ff17	-0.051024523
40	0xbdad3bd7	-0.08458679
41	0x399d28eb	0.0002997586
42	0x3cbb07fa	0.022830952
43	0xbc91e532	-0.017809484
44	0xbc362263	-0.011116597
45	0x3d1059d3	0.035241913
46	0xbd0a4fb8	-0.033767432
47	0x3d975110	0.07388508
48	0x3d2901cb	0.041261476
49	0xbc35cb4c	-0.011095833
50	0xbda49587	-0.080363326
51	0x3cb69f3a	0.022292722
52	0x3d375521	0.04475892
53	0x3ba3df43	0.00500098
54	0xbd89b4e1	-0.06723953
55	0xbd0bc51c	-0.034123525
56	0x3c1afd37	0.009459785
57	0xbc9509e1	-0.018193187
58	0x3c64c3e6	0.013962721
59	0x3cc37827	0.023861004
60	0x3d2b2a81	0.04178858
61	0xbd3607c8	-0.044441015
62	0x3d81da4a	0.063404635
63	0x3c800672	0.015628073
64	0x3da4ab8f	0.08040535
65	0x3d4d861d	0.05017673
66	0x3d816c03	0.0631943
67	0x3ce8effe	0.02843475
68	0x3bf8d742	0.00759402
69	0x3d320110	0.043458045
70	0x3ce0cfdd	0.027442867
71	0x3d8f683c	0.07002303
72	0xbbb693aa	-0.005571802
73	0x3d04ecd4	0.03245242
74	0x3c42e33a	0.011894995
75	0xbcdc4168	-0.026886657
76	0x3d55491b	0.052071672
77	0x3d381ff7	0.04495236
78	0x3d2c75e2	0.04210461
79	0x3d298e7a	0.041395642
80	0x3d17add8	0.037031025
81	0x3d9fb34f	0.07797872
82	0x3d5c8af7	0.053843465
83	0x3d6b28c7	0.057411935
84	0xbcbc594a	-0.022991795
85	0xbd554534	-0.05206795
86	0x3d08c213	0.03338821
87	0x3d97b2a1	0.07407118
88	0xbcf7c8a4	-0.03024704
89	0x3d083f60	0.033263564
90	0xbcb909d4	-0.022587694
91	0xbca13fac	-0.019683681
92	0x3cfb54aa	0.03068002
93	0x3d0c251c	0.034215078
94	0xbd1cddc8	-0.038297445
95	0xbcdad9ef	-0.026715247
96	0xbb597a39	-0.0033184423
97	0xbcdae430	-0.026720136
98	0xbcef18b5	-0.029186586
99	0xbceb37c0	-0.028713107
100	0xbd5671fc	-0.052354798
101	0xbd27779d	-0.040885556
102	0x3d6bc52e	0.057561092
103	0xbd22bc7d	-0.039730538
104	0xbd93ca72	-0.07216348
105	0xbcb0a8b5	-0.02156482
106	0xbd35686d	-0.04428904
107	0x3d6af3ed	0.057361532
108	0x3c952459	0.018205808
109	0x3d3ea3e7	0.04654303
110	0xbd733a3f	-0.05938172
111	0x3c3c66f9	0.01149916
112	0xbb12e88a	-0.0022416436
113	0xbd57f899	-0.052727316
114	0x3d2ce681	0.042212013
115	0x3ca4f7c0	0.020137668
116	0x3caa68bb	0.020801893
117	0xbaa20248	-0.0012360299
118	0xbcd7fca8	-0.026365593
119	0x3cf0d99c	0.02940064
120	0xbd390e76	-0.045179807
121	0x3c22462a	0.009904424
122	0xbd0e9e40	-0.034818888
123	0xbd464e50	-0.04841453
124	0x3ad5696f	0.0016282032
125	0x3cf0c2e3	0.029389804
126	0xbcafebe2	-0.021474782
127	0x3d3f2a01	0.046670917
128	0xbcc6b221	-0.02425486
129	0x3bc4b6d7	0.0060032415
130	0xbc4a5fea	-0.012351969
131	0xbcf79a6d	-0.030225003
132	0xba67410b	-0.0008821643
133	0x3d0729b5	0.03299876
134	0x3c8368a5	0.01604111
135	0x3da008c7	0.07814174
136	0xbd0e4d08	-0.03474143
137	0xbd002a94	-0.031290606
138	0x3c952096	0.018204015
139	0xbc25fd11	-0.0101311365
140	0xba9dcbc6	-0.0012038879
141	0x3d890d1e	0.06691955
142	0xbb9c89ba	-0.0047771605
143	0x3c8f55d3	0.017496979
144	0x3d412e55	0.047163326
145	0xbc5755c1	-0.013143004
146	0x3ce4b6d3	0.027919209
147	0xbd9614dd	-0.07328198
148	0xbc3333d3	-0.010937649
149	0x3d0a7a5a	0.03380809
150	0xbaf70cfc	-0.0018848474
151	0xbd05baed	-0.03264897
152	0x3b4a3dad	0.0030859516
153	0x3d1f6248	0.038912088
154	0x3bc8fc62	0.006133602
155	0xbd1d7c33	-0.038448524
156	0x3bf31694	0.007418463
157	0xbcb5e08d	-0.0222018
158	0xbc8641f0	-0.016388863
159	0x3d1597a8	0.036521584
160	0x3cee8f3e	0.029121038
161	0x3ceed0d4	0.029152311
162	0x3d33a9d4	0.043863133
163	0xbcca5a7d	-0.024701351
164	0x3da63faa	0.08117612
165	0x3daef3b0	0.085425735
166	0xbc07e774	-0.008294929
167	0xbd2fc75f	-0.042914744
168	0x3c14ad68	0.009074546
169	0x3caad430	0.020853132
170	0xbbf8e940	-0.007596165
171	0xbb062ead	-0.0020474598
172	0x3c259b66	0.010107851
173	0x3d8f7489	0.07004649
174	0xbd145045	-0.036209363
175	0x3d88c7c7	0.066787295
176	0x3b7cc7c1	0.003857121
177	0x3c865d81	0.016402008
178	0xbd8b317c	-0.06796548
179	0xbcbcc1f7	-0.023041708
180	0x3d53323b	0.051561575
181	0x3d844ebd	0.06460331
182	0xbcc69b3b	-0.024243942
183	0xbd96c513	-0.07361808
184	0x3d2e720e	0.04258924
185	0x3b7535e7	0.0037416162
186	0x3d20b8b3	0.039238643
187	0x3d7cb909	0.0616999
188	0x3d072d51	0.0330022
189	0xbc075a2c	-0.008261245
190	0x3d91c81b	0.07118245
191	0x3d15bb43	0.03655554
192	0x3d3faaff	0.046793934
193	0x3d722385	0.059115905
194	0xbd04120a	-0.032243766
195	0x3a622b16	0.0008627636
196	0x3cb2afc3	0.021812325
197	0x3ac42124	0.001496349
198	0x3d461a75	0.048365075
199	0xbda48bda	-0.08034487
200	0x3cbec68c	0.023288034
201	0x3d1cb600	0.038259506
202	0x3d984cd3	0.07436528
203	0xbcb0f578	-0.021601424
204	0xbcbe28a9	-0.023212748
205	0x3ceb3fa4	0.02871687
206	0x3da43439	0.08017773
207	0x3d5bebbe	0.05369162
208	0x3d0533e2	0.032520182
209	0xbd2ebcb4	-0.04266043
210	0x3d941c70	0.072319865
211	0x3d7c4b74	0.061595395
212	0xbc9a5798	-0.018840596
213	0xbd829b32	-0.063772574
214	0x3ce23db7	0.027617319
215	0x3c626f12	0.013820427
216	0xbd6269fd	-0.05527686
217	0xbb3b8c5a	-0.0028617592
218	0xbc32bf92	-0.010909932
219	0xbd84bb0a	-0.06480987
220	0x3ca20e79	0.019782292
221	0x3d79cea3	0.06098808
222	0x3cc30800	0.023807526
223	0x3c1fcc6b	0.009753327
224	0xbd01dc25	-0.031704087
225	0xbd0ddede	-0.03463637
226	0xbaf04f40	-0.0018334165
227	0xbd23e544	-0.040013567
228	0xbd85e9ac	-0.0653871
229	0xbc79dc79	-0.015250319
230	0x3d56c0b6	0.052429877
231	0xbcf1d907	-0.029522432
232	0x3d413dad	0.04717796
233	0xbcb8b48a	-0.022547025
234	0x3c40bf14	0.011764307
235	0x3cbd5243	0.023110515
236	0xbb204017	-0.0024452263
237	0x3ca43815	0.020046273
238	0xbcb7374b	-0.022365233
239	0x3c80766b	0.015681466
240	0xbc908208	-0.017640129
241	0xbcc67951	-0.02422777
242	0xbd321f47	-0.04348686
243	0x3d260ae8	0.040537745
244	0x3d19ca62	0.037546523
245	0x3c7980f8	0.015228502
246	0xbd01a050	-0.031647027
247	0x3d6c09c7	0.057626512
248	0xbce70ade	-0.028203424
249	0x3ce02a07	0.02736379
250	0xbd4c97b8	-0.049949378
251	0xbd4226ce	-0.04740029
252	0x3d43a425	0.047763962
253	0xbcc750b7	-0.02433048
254	0xbcc1ffae	-0.023681488
255	0xbcce72d8	-0.025201246

food_logits.bias f4 [3]
0	0xbe06c510	-0.13161111
1	0x3cea93c7	0.028634919
2	0x3de36d4b	0.1110483

net.0.weight f4 [128, 17]
0	0x3e3b426d	0.18287058
1	0xbe1e94fd	-0.15486522
2	0x3fb7b71a	1.4352753
3	0xc09d501b	-4.9160285
4	0xbe938ff0	-0.28820753
5	0xbe81139d	-0.25210276
6	0xbe2a9924	-0.16659981
7	0x3ddf8629	0.10914261
8	0xbdb13fb9	-0.08654732
9	0x3d5ba27f	0.053621765
10	0x3dfb7595	0.12278286
11	0xbe09a927	-0.13443433
12	0x3e1d4d42	0.15361503
13	0x3ac443ad	0.0014973782
14	0xbd106486	-0.035252117
15	0x3e36f60b	0.17867295
16	0x3e24ddb7	0.16100203
17	0x3ded3586	0.115824744
18	0xbd6ca504	-0.05777456
19	0xc014c9e9	-2.3248236
20	0x406b0e74	3.6727571
21	0x3fbbd8d4	1.4675546
22	0xbe342670	-0.17592788
23	0x3e113098	0.14178693
24	0xbdaecb41	-0.08534861
25	0x3e313674	0.17305928
26	0x3d330de9	0.043714438
27	0xbdbcc190	-0.092166066
28	0xbe13c32a	-0.14429918
29	0xbe7beff8	-0.2460326
30	0xbddc0a75	-0.10744182
31	0x3dee5b83	0.11638548
32	0xbdc47fc7	-0.09594684
33	0x3c666344	0.014061753
34	0xbc6f3dd4	-0.014602143
35	0xbb50bb40	-0.003184989
36	0x3f832601	1.0245973
37	0xbfac8687	-1.3478554
38	0xc01f993d	-2.493728
39	0x3deed4a5	0.116616525
40	0xbb402ac3	-0.0029322363
41	0x3d3286cc	0.043585584
42	0x3d30c88d	0.04316001
43	0x3cd1633f	0.02556002
44	0x3e01db43	0.12681298
45	0x3e0023e7	0.12513696
46	0x3d577b8a	0.05260805
47	0x3da218f9	0.079149194
48	0xbdb90da7	-0.09035807
49	0x3d0d2292	0.034456797
50	0x3c932e52	0.017966423
51	0xbd9e4374	-0.077277094
52	0xbdf723ca	-0.12067373
53	0x3f95b7b3	1.1696686
54	0xc0806fe6	-4.0136595
55	0xbeb7638b	-0.35818133
56	0xbdbd8165	-0.09253196
57	0x3e75147d	0.23933597
58	0xbe241409	-0.16023268
59	0xbd9de4fe	-0.077096924
60	0xbda4392a	-0.08018716
61	0xbe20f916	-0.15720019
62	0xbe3b5552	-0.18294266
63	0xbe3dbe38	-0.18529594
64	0xbe3e48bd	-0.18582435
65	0x3e372b56	0.17887625
66	0x3e456093	0.19275121
67	0x3e0168b2	0.12637594
68	0x3de7dec5	0.11321787
69	0xbe500032	-0.20312575
70	0x3fa94393	1.3223747
71	0x3f1d91e0	0.6155071
72	0xc01acfb5	-2.4189274
73	0x3cd6baf8	0.0262122
74	0xbe594f7e	-0.2122173
75	0xbdc9c416	-0.098518535
76	0xbe2a26b5	-0.16616328
77	0x3db1120f	0.086460225
78	0xbcfdc3eb	-0.03097721
79	0x3da6e388	0.08148867
80	0xbe4ba3f0	-0.19886756
81	0x3e56c8b1	0.20974995
82	0x3dc4e043	0.09613087
83	0xbc9051de	-0.017617162
84	0xbe1a3bff	-0.15061949
85	0xbe0a9a3c	-0.13535398
86	0xbd5b8a58	-0.05359873
87	0x3fdbfd7c	1.7186732
88	0xbfe3424c	-1.7754607
89	0xbfb8e8b9	-1.4446021
90	0xbe9a0342	-0.3008061
91	0xbd069d17	-0.032864656
92	0xbcb15cdb	-0.021650722
93	0xbe39d77c	-0.18148607
94	0xbe410f7b	-0.18853562
95	0x3e4b169f	0.19832848
96	0x3c0c57ce	0.008565856
97	0xbdce044e	-0.10059415
98	0x3d73fb47	0.05956581
99	0xbd94e099	-0.07269401
100	0xbdc735ae	-0.097270355
101	0xbdf3e7e0	-0.11909461
102	0xbd781c76	-0.060574017
103	0xbddff498	-0.109353244
104	0xbff05349	-1.8775417
105	0x40a6dccf	5.214454
106	0x3f330143	0.699238
107	0xbd1efce7	-0.038815405
108	0x3de75af6	0.11296646
109	0x3e6295b9	0.22127427
110	0x3d488999	0.04895935
111	0xbce80f56	-0.028327625
112	0x3e832488	0.2561381
113	0x3b980f7d	0.004640518
114	0x3cc9dca5	0.024641344
115	0xbca6eea5	-0.020377466
116	0xbd37efca	-0.044906415
117	0x3c6a46bc	0.014299091
118	0x3d16e0a5	0.03683533
119	0x3e3a571c	0.18197292
120	0x3dcc26be	0.09968327
121	0x400fa6e8	2.2445621
122	0xc0b585d8	-5.6725883
123	0xbf2abed3	-0.66697425
124	0x3e2d6607	0.16933452
125	0xbd54e8f4	-0.051979974
126	0x3e82dd05	0.2555925
127	0x3e624968	0.22098315
128	0x3e1537b4	0.1457203
129	0xbd615975	-0.055016953
130	0xbcc0c6f8	-0.023532376
131	0xbde73e3e	-0.11291169
132	0xbca1ec3e	-0.01976597
133	0x3e1fa3b2	0.15589789
134	0x3cd57a2c	0.026059233
135	0xbdc693d6	-0.09696166
136	0xbde85b82	-0.11345579
137	0x3cdd4713	0.02701143
138	0x3fadc7c4	1.3576589
139	0xbfa77a64	-1.3084226
140	0xbf23b5a4	-0.63949037
141	0x3e998e4f	0.29991385
142	0x3e8ab381	0.27090076
143	0xbdd4ac6b	-0.103844486
144	0x3d75fe0f	0.060056742
145	0x3d226465	0.039646525
146	0x3d5118a6	0.051048897
147	0xbe47d48b	-0.19514672
148	0x3d4d33e6	0.050098322
149	0x3db93e77	0.09045117
150	0x3da3e4f2	0.08002652
151	0x3d436726	0.047705792
152	0xbe6362bd	-0.22205634
153	0x3d38b75f	0.04509675
154	0x3d19ace0	0.037518382
155	0xbff14993	-1.8850578
156	0x40c0a181	6.019715
157	0x3f1c1f1b	0.60984963
158	0xbdae3379	-0.085059114
159	0x3d380ced	0.044934202
160	0xbd20a936	-0.039223872
161	0x3d377156	0.04478582
162	0x3ca4afdc	0.020103388
163	0x3d1c31a7	0.03813329
164	0x3d59f3b3	0.053210925
165	0xbdf5f399	-0.12009353
166	0xbd8b1370	-0.06790817
167	0x3e7b4018	0.24536169
168	0x3e0d52c6	0.13801107
169	0xba8032a4	-0.0009780717
170	0x3e23330e	0.15937445
171	0xbd88b97a	-0.06676002
172	0xbff8fee6	-1.9452789
173	0x403b07a4	2.9223413
174	0x40365f7d	2.8495781
175	0xbd7cbb82	-0.06170226
176	0xbd2a0e4f	-0.041517552
177	0xbd848bef	-0.06472003
178	0x3d45a5ea	0.04825393
179	0xbe5be242	-0.2147303
180	0xbe869129	-0.26282623
181	0x3d0d4a84	0.03449489
182	0x3d532cb8	0.05155632
183	0x3e5791ef	0.21051763
184	0x3d0acfa1	0.033889417
185	0x3e2210b8	0.1582669
186	0xbe3466aa	-0.17617288
187	0x3e1c4716	0.15261492
188	0xbcb17052	-0.021660004
189	0x3f16a3bc	0.5884359
190	0xc05c47fd	-3.4418938
191	0x3e3e0b2e	0.18558952
192	0x3e412411	0.18861414
193	0x3de5b3d4	0.1121594
194	0xbc033949	-0.008009263
195	0x3d915529	0.07096321
196	0xbd39b884	-0.045341983
197	0xbe81384b	-0.2523826
198	0xbd969164	-0.0735195
199	0x3d3ced91	0.046125
200	0x3d11e589	0.035619292
201	0xbd475d1a	-0.048672773
202	0xbd9fd541	-0.07804347
203	0xbd255e12	-0.040372916
204	0x3d6c3dea	0.057676233
205	0x3dbf7ab4	0.09349576
206	0xbf5d6e43	-0.8649637
207	0x40b8ca0f	5.7746654
208	0xbe51b2f1	-0.20478417
209	0x3d343819	0.04399881
210	0x3e29a7c3	0.16567902
211	0x3d61cddc	0.055127963
212	0xbe336842	-0.1752024
213	0xbcde4671	-0.027133198
214	0x3d90bfde	0.07067846
215	0xbd9e6b7b	-0.07735344
216	0x3dd55603	0.10416796
217	0x3d2a9d12	0.0416537
218	0xbceeb8a8	-0.029140785
219	0x3d98527f	0.0743761
220	0xbc2cf890	-0.010557309
221	0x3cd48b89	0.025945442
222	0x3bd8dbf1	0.006618016
223	0xbf4ed653	-0.8079578
224	0xbff93314	-1.9468713
225	0x40509265	3.2589352
226	0x3cb0cae0	0.021581113
227	0x3c449c35	0.012000133
228	0x3d480e9a	0.04884205
229	0xbe424ceb	-0.18974654
230	0xbe4187f9	-0.18899526
231	0xbe22cea2	-0.15899137
232	0xbe7a475b	-0.24441282
233	0x3e2bd441	0.16780187
234	0xbb895c49	-0.0041919095
235	0x3d8fb3f7	0.070167474
236	0xbccaffad	-0.024780119
237	0x3e366a8a	0.17814079
238	0xbd6af932	-0.057366557
239	0x3dec19ab	0.11528333
240	0xbfb25e22	-1.3934977
241	0x40a7f3d6	5.248515
242	0x3f5dd569	0.86653763
243	0xbcb2c419	-0.021822022
244	0xbe822883	-0.25421533
245	0x3ca24aa5	0.019810984
246	0x3e89f794	0.269467
247	0x3df00bf3	0.11721029
248	0xbca7f9a8	-0.020504788
249	0xbdbb067a	-0.09132095
250	0x3db97741	0.09055949
251	0x3e1bb522	0.15205815
252	0x3e129618	0.14315069
253	0xbd85e1e0	-0.06537223
254	0xbdafcd97	-0.08584135
255	0x3bcbf5ac	0.0062243547

net.0.bias f4 [128]
0	0x3eafbb94	0.34322798
1	0xbd34e5b0	-0.04416436
2	0xbec9e5a0	-0.39433002
3	0xbdfba236	-0.12286799
4	0xbd359eb4	-0.044340804
5	0x3d994204	0.074832946
6	0xbe83586a	-0.25653392
7	0x3e5b8123	0.2143598
8	0xbe955b75	-0.2917134
9	0xbeb8278b	-0.3596767
10	0x3e33f69b	0.17574541
11	0x3ca6ca42	0.020360116
12	0x3d6c36d6	0.057669483
13	0x3e809c65	0.2511932
14	0xbde60a3d	-0.112324215
15	0xbe0b0d93	-0.13579397
16	0xbde56be6	-0.112022206
17	0xbe399d4a	-0.18126407
18	0x3d8d656d	0.06904111
19	0xbe39b2a1	-0.18134548
20	0xbec4b254	-0.38417304
21	0xbdd52c92	-0.10408892
22	0x3e30057d	0.17189594
23	0x3f14dfa1	0.5815373
24	0xbd88052c	-0.066416115
25	0xbdb34cec	-0.08754906
26	0xbc20fbdb	-0.009825672
27	0x3e9f9c9c	0.3117417
28	0xbe318e61	-0.1733947
29	0x3e896879	0.2683752
30	0xbdba6727	-0.09101706
31	0x3e7040ed	0.23462267
32	0xbd62e332	-0.05539245
33	0x3e4f5064	0.2024551
34	0x3e9376e0	0.28801632
35	0x3e8e91cb	0.27845606
36	0xbe517943	-0.20456414
37	0x3e0cfc13	0.13768034
38	0xbe81e8d8	-0.25372958
39	0xbd31dd4c	-0.043423936
40	0x3da61c08	0.08110815
41	0xbe57f860	-0.21090841
42	0x3e08d824	0.13363701
43	0x3e164cb3	0.14677696
44	0xbdb32420	-0.08747125
45	0xbe5af1d7	-0.21381317
46	0xbd966e58	-0.07345265
47	0xba554546	-0.0008135628
48	0x3cb8c1db	0.022553375
49	0x3c5c335f	0.013439982
50	0xbe86078e	-0.2617764
51	0xbea6a502	-0.32547766
52	0x3ebf03bf	0.37307546
53	0x3db0410c	0.08606157
54	0x3efdfdca	0.49607688
55	0xbe96744a	-0.29385597
56	0x3e78565a	0.2425169
57	0x3e99494e	0.2993874
58	0x3d4929c6	0.049112104
59	0xbcd384e6	-0.025820207
60	0x3dbe9ad8	0.09306878
61	0xbdc3a213	-0.095523976
62	0xbefba8dc	-0.49152267
63	0x3e8cd82d	0.2750868
64	0x3e58393e	0.21115586
65	0xbf048f12	-0.5178081
66	0xbe656078	-0.22400081
67	0x3e7938a1	0.24338008
68	0x3e03f0a7	0.1288477
69	0xbe4f98ac	-0.20273083
70	0x3e0653ff	0.1311798
71	0xbf0575a6	-0.5213264
72	0x3b323127	0.0027189942
73	0xbe40fbc5	-0.18846042
74	0x3f1549f9	0.58316
75	0xbd56407f	-0.052307602
76	0x3e800a90	0.2500806
77	0x3ea20b3a	0.3164919
78	0xbdd6e1aa	-0.10492261
79	0x3ec68370	0.38772154
80	0x3e9a357d	0.30118933
81	0x3e2a743f	0.16645907
82	0x3de94a24	0.11391094
83	0x3daaf1e2	0.08346917
84	0x3e58a9ef	0.21158575
85	0x3df21069	0.11819536
86	0xbe418698	-0.18899
87	0xbe36282a	-0.17788759
88	0x3e043d88	0.12914097
89	0x3e05acd0	0.13054204
90	0x3d247ac9	0.04015616
91	0xbe46853d	-0.19386764
92	0x3e160939	0.14651956
93	0x3e3e735b	0.18598692
94	0xbdfb40fa	-0.12268253
95	0x3eaa1071	0.3321567
96	0x3e267112	0.1625407
97	0xbe59c513	-0.21266584
98	0xbe6eb544	-0.23311335
99	0x3e834295	0.25636736
100	0x3eadb336	0.3392579
101	0xbe16df46	-0.1473361
102	0xbe7da32c	-0.24769276
103	0xbd838df3	-0.06423559
104	0x3eb49f34	0.35277712
105	0x3eae0f5f	0.33996102
106	0x3ce92bd4	0.028463282
107	0x3dcda68f	0.10041534
108	0x3e214ca5	0.15751894
109	0x3d1a80fc	0.037720665
110	0x3d3ffb9d	0.046870816
111	0x3e279c74	0.16368276
112	0xbe90a529	-0.28251007
113	0x3e4548d5	0.19266064
114	0xbdef866e	-0.11695562
115	0xbe7a64d7	-0.2445253
116	0xbe064150	-0.13110852
117	0x3e82cf45	0.2554876
118	0x3e432c30	0.19059825
119	0x3e0452c8	0.12922204
120	0xbe309476	-0.17244133
121	0x3cfcc282	0.030854467
122	0xbde1c0e3	-0.11023118
123	0x3e8a2069	0.26977852
124	0xbeb090ab	-0.34485373
125	0x3d0a6567	0.03378811
126	0x3e6bf519	0.23042716
127	0x3d9d91b7	0.076938085
