src/training_logs_ppo/initial/ppo_checkpoint_191_1764187019.pt (torch, 480155 bytes, 42 tensors)

move_logstd f4 [2]
000000 ec 9a e3 3f 7b 10 d7 3f
       1.7781653 1.6801904

shared.0.weight f4 [128, 17]
000000 e1 78 15 3e af 6c 1d be 81 5d 80 be d7 e7 02 3e
       0.14596893 -0.15373491 -0.25071338 0.12783752
000010 98 38 1f 3e 96 97 36 be cc 96 00 be 92 89 ee 3d
       0.15548933 -0.17831263 -0.12557524 0.11647333
000020 c6 c7 39 3e a0 24 4d be 9f f8 03 3e 13 ca 54 be
       0.18142614 -0.20033503 0.1288781 -0.2078021
000030 9b f9 72 bd 8e 79 8c bd 7c ef 0f 3d 0d 5e 8b 3d
       -0.059320074 -0.06859122 0.0351405 0.06805048
000040 52 cf d7 bd fa a7 28 bd c9 8d b4 bd d3 56 aa 3d
       -0.1053759 -0.04117582 -0.08816106 0.08317342
000050 ff 54 bf 3d 3b b2 96 be b7 2a 77 3e 68 f7 37 be
       0.093423836 -0.29432854 0.24137388 -0.17965472
000060 97 94 4d 3c 6b 1e 99 bd 3f ff 8d be dc ac 1c be
       0.012547634 -0.07476505 -0.277338 -0.15300316
000070 27 7f 64 bd 81 be 53 3e 7f bc c5 3b 54 f2 9d 3d
       -0.055785324 0.2067814 0.0060344334 0.07712236
000080 a1 79 ef bd 05 83 fd bd d0 af 1c 3e 6c 45 72 3e
       -0.11693121 -0.123785056 0.15301442 0.23659295
000090 6c f7 6f 3d 5f 41 b4 3d 45 9c b4 be 4e 82 ef bd
       0.05858557 0.08801531 -0.35275474 -0.116947755
0000a0 3e a9 38 bd 53 06 2d be 30 e1 8e bc 2c 25 6c bd
       -0.045083277 -0.16896944 -0.017441362 -0.057652637
0000b0 12 4b d2 bb 02 a1 8e 3c 7d 58 57 3e f9 61 04 be
       -0.0064176405 0.017410759 0.2102985 -0.12927999
0000c0 74 43 60 3e 73 e8 60 3d dd 55 ad 3d 86 48 32 3c
       0.21900731 0.05490918 0.08463643 0.010881549
0000d0 bd c4 86 bd ee ef a8 be a0 52 cb 3c c6 04 ea 3c
       -0.065804936 -0.32995552 0.024819672 0.02856673
0000e0 d2 63 2f 3e 20 36 f5 3d 88 13 0e 3d 6a bc f3 3d
       0.17127922 0.11973214 0.034686595 0.119011715
0000f0 ca cc b5 bd 6e 83 23 3d 90 59 ad 3c 7a af 85 bd
       -0.08876951 0.039920263 0.02116087 -0.0652761
000100 fb 87 e5 bd 29 16 0c 3c f8 a9 32 be 12 69 22 3e
       -0.11207577 0.008550205 -0.1744765 0.15860394
000110 a1 2c 06 3e 1e ea 32 3e 4f 69 60 be c3 2c 08 3e
       0.13102962 0.17472121 -0.21915172 0.13298325
000120 72 19 0f bd 90 46 ea 3d d6 b7 e8 bc 40 fb cd 3d
       -0.034936376 0.1143924 -0.028407972 0.10057688
000130 41 4c 48 be db 98 0e 3e 5d eb 91 3d 06 fd bc 3d
       -0.19560339 0.13925497 0.0712497 0.09227948
000140 c0 53 03 3e 59 1d b1 bc 88 28 0e bd 3e f9 48 bd
       0.12824917 -0.02162044 -0.034706622 -0.04906582
000150 a7 09 89 3d 5f a0 1c be 47 90 03 3d 78 ce 1c be
       0.06691294 -0.15295552 0.032120015 -0.15313137
000160 46 0c 86 be 9e 33 6e be 30 a8 b6 3c 67 1a 45 3e
       -0.2618124 -0.23261878 0.022296995 0.19248353
000170 1e 68 35 be 9a bb 72 3e 16 83 1b 3d 5e 7f c9 3d
       -0.17715499 0.23704377 0.03796681 0.098387465
000180 f8 23 2f 3e 93 34 0c 3e 55 51 82 bd 31 59 b5 bd
       0.17103565 0.1369193 -0.06363169 -0.088549025
000190 f4 13 51 bc 17 69 1f 3c b1 d7 82 3d 43 63 4b bc
       -0.012761105 0.009729645 0.06388796 -0.012413803
0001a0 0b a7 2b be b9 15 df 3d ba 9a f9 3c ed b8 c0 3d
       -0.1676294 0.10892815 0.030469287 0.09410272
0001b0 fe 93 a0 be e6 11 a1 bd b9 1d 95 3e 53 66 70 bc
       -0.3136291 -0.07864742 0.2912424 -0.0146728335
0001c0 06 8b 92 be c8 ee 41 be 38 5a d8 3d 13 f3 ec bb
       -0.2862169 -0.18938744 0.10564083 -0.007231125
0001d0 49 47 73 3d fd c3 01 be 63 60 79 bc c1 27 f2 bd
       0.059394155 -0.1267242 -0.015220734 -0.11823989
0001e0 04 8f 15 3c 0b ec bd 3d f5 ea 0b 3d e2 4f f0 bb
       0.009128336 0.09273537 0.03415962 -0.0073337415
0001f0 e4 1e 45 be b0 b9 24 be b6 e1 36 3e 4a e9 e2 bd
       -0.19250065 -0.16086459 0.1785954 -0.110796526
000200 f8 cf 14 be 48 75 6b 3b 56 e6 59 bd c5 19 1f be
       -0.14532459 0.003592806 -0.05319818 -0.15537174
000210 9e 8a 33 be 9e d5 34 3e e6 03 33 3c e0 0a ad bc
       -0.17533347 0.17659613 0.010926222 -0.02112335
000220 25 a8 9f bd 93 6b a6 3d 86 36 81 bd ba f8 de bb
       -0.07795743 0.08125987 -0.06309228 -0.006804553
000230 ce 34 39 bd 8a 14 28 be 80 7b 73 bb f5 c9 1f 3e
       -0.045216374 -0.16414085 -0.003715247 0.15604384
000240 1c 7c df 3d da e7 60 be 61 a0 af 3d 0b 27 d3 bd
       0.10912344 -0.21963444 0.08575512 -0.10310181
000250 97 ec b9 3d f6 61 cd bd f6 cb 34 be 36 da 73 3d
       0.09078329 -0.1002845 -0.1765593 0.059534274
000260 52 06 1f be 85 02 fd 3d f9 2e 00 bc 76 63 df 3d
       -0.15529755 0.12353996 -0.007823699 0.109076425
000270 21 ba 8a be 98 2f 88 be b1 13 a3 bd 7d 67 af 3c
       -0.2709513 -0.2659881 -0.0796274 0.021411652
000280 c6 a7 11 3e 03 2c 20 3e 91 65 55 3e ee 37 c1 bd
       0.14224157 0.15641789 0.20839526 -0.09434496
000290 51 61 98 3d 77 95 67 be c2 94 ff bd a2 83 b4 3d
       0.07440437 -0.2261561 -0.12479545 0.088141695
0002a0 47 b6 8f 3d ad 96 99 3d 3e 45 f2 bd a9 94 01 3e
       0.070171885 0.07499442 -0.11829613 0.12654366
0002b0 20 9f ce bd 35 52 08 3d df 3f 3d be c5 95 7b 3e
       -0.100889444 0.033281524 -0.18481396 0.24568851
0002c0 98 1a 9b bd fc a5 84 be e1 bc 1e be bf d5 0e be
       -0.07573432 -0.25907886 -0.15501739 -0.13948725
0002d0 dc 92 8a 3e 75 16 b8 bd a8 4f 2a be 08 59 9a 3d
       0.2706517 -0.08988658 -0.16631949 0.075365126
0002e0 48 1c a5 3d 80 2c be 3d 51 92 f7 bd da c6 8a bd
       0.08062035 0.092858315 -0.120884545 -0.06776209
0002f0 52 99 d2 bd 60 80 87 3d 1f f2 79 be 65 13 63 ba
       -0.1028315 0.066162825 -0.24408768 -0.0008662253
000300 1b ff 57 3e 62 a8 51 3e 17 31 45 3e f2 7a 6c bd
       0.21093409 0.20474389 0.19257008 -0.057734437
000310 54 a1 e4 bd dd 6e 76 be de 69 dd 3d cb f2 6a bd
       -0.111635834 -0.24065728 0.10811208 -0.05736045
000320 1b b4 11 bd 3a 79 bb bd 9b 9a aa bd dd da e7 bd
       -0.035572153 -0.091539815 -0.0833027 -0.11321042
000330 24 87 d8 3c d8 20 06 be 61 34 24 be 23 e3 16 bd
       0.026431628 -0.13098466 -0.16035606 -0.03683771
000340 4c 43 9f bd e0 9f 77 be 9a aa 41 3e 6a 82 b2 bd
       -0.07776508 -0.24182081 0.18912736 -0.08716281
000350 e9 b6 12 be b3 c0 85 3d 4e 20 99 bd e2 71 aa bd
       -0.14327587 0.06530895 -0.07476865 -0.08322503
000360 b8 21 ca bd 07 e2 64 bd 6d 78 58 bc 4b 08 ba 3c
       -0.098697126 -0.05587962 -0.0132123055 0.022709033
000370 be a7 a8 bd 67 7f 18 3e 5f 93 58 3d 3f c5 3a be
       -0.08235119 0.1489235 0.05287492 -0.18239306
000380 c2 7d fc 3d 45 84 7a bd 08 46 81 3e 86 67 2d be
       0.12328674 -0.0611613 0.25248742 -0.16934022
000390 0d 78 99 bd 4b 5b 4f 3e 14 77 f8 bc 81 d3 71 bd
       -0.07493601 0.20249669 -0.030330218 -0.059039596
0003a0 7e 24 62 3d 7b b4 76 3d dc 5b 9a 3d 84 8b c0 bc
       0.055210583 0.060230713 0.07537052 -0.023504026
0003b0 ee f8 cd 3d 61 e0 e5 bd 21 1e 90 bd 7b c0 7f 3b
       0.10057245 -0.112244375 -0.07036997 0.003902464
0003c0 12 2f 1a be b9 51 30 be cf a5 60 be 51 66 74 be
       -0.15057018 -0.17218675 -0.21938251 -0.23867156
0003d0 a4 2b aa 3d 6e 92 39 be 45 e1 5a 3e cf d4 40 3d
       0.08309105 -0.18122265 0.21374996 0.04707795
0003e0 9e 77 9f 3d 49 dd 10 bc 25 ea 98 bc cf 7e cd bb
       0.07786487 -0.008841821 -0.018666336 -0.0062712203
0003f0 55 1c 60 3e 1f 36 6e be 7e 61 1d bd 95 b6 fa bc
       0.21885808 -0.23262833 -0.038423054 -0.03060464

shared.0.bias f4 [128]
000000 33 a1 d6 bd e0 38 af be b4 05 eb bd 0f ff 6b be
       -0.10479965 -0.3422308 -0.11475697 -0.23046516
000010 db 4e fa bd bd 9c bf bb aa b5 89 bc 63 d4 fb 3d
       -0.12222072 -0.005847542 -0.016810257 0.12296369
000020 00 15 a5 be fc 31 dc bd f7 33 fe 3d de 01 93 be
       -0.32242584 -0.10751721 0.12412255 -0.28712362
000030 17 f0 24 bb 79 d3 98 bd 54 fe 09 bd 89 42 39 be
       -0.0025167519 -0.0746221 -0.03368981 -0.18091787
000040 11 55 26 be 3b 00 6d 3e 84 e4 0c 3e 68 77 8e be
       -0.16243388 0.23144619 0.13759047 -0.27825475
000050 ee c3 f2 bd fe f5 6b 3b 6a 5d db 3b bf ab 53 3d
       -0.11853777 0.0036004777 0.0066944854 0.05167746
000060 1c 00 7c bd 1f 65 1a be 11 10 81 3c 0e 6b be bd
       -0.06152354 -0.15077637 0.015754731 -0.09297763
000070 16 ac 01 3e e5 91 83 be a9 c8 29 bd 5e 67 87 be
       0.12663302 -0.25697246 -0.04145113 -0.2644605
000080 b2 a4 e6 bd ab 73 84 bd 9d 2a 85 be 9c b7 cd 3c
       -0.11261882 -0.064673744 -0.26009074 0.025111966
000090 ed 02 60 be 4e 14 8a be cf d0 8b b9 41 40 12 be
       -0.21876116 -0.26968616 -0.0002666772 -0.14282323
0000a0 fd 72 ac be e7 af 78 be 77 af 31 bb 5a 33 10 be
       -0.3368148 -0.24285851 -0.0027112642 -0.14082089
0000b0 66 56 16 3e 8a b4 9a be 45 ff 58 3e 8c bd 8e be
       0.14681396 -0.30215865 0.21191128 -0.27878988
0000c0 0e 70 06 3e 52 cd 02 be bc 41 92 be 57 5e 13 be
       0.13128683 -0.12773636 -0.28565776 -0.14391457
0000d0 d2 38 31 be 9a bf bc bd 8a 3a 7c bc 76 bb d8 bc
       -0.17306831 -0.092162326 -0.015394816 -0.026456576
0000e0 b4 54 86 3d a2 eb 81 be 18 67 f3 bd 3e f5 df bd
       0.065591246 -0.25375086 -0.11884898 -0.10935448
0000f0 86 a4 67 bd 32 d6 9d bd 71 02 cf bd 8f ea 0e be
       -0.056553386 -0.0770687 -0.101078875 -0.13956665
000100 c2 4a 8c be 56 55 03 be 64 96 77 be ce 2a bf be
       -0.27400786 -0.12825522 -0.24178463 -0.37337345
000110 62 bc 00 be 23 e8 df 3a ec 19 c7 be d6 26 6d be
       -0.12571862 0.0017082732 -0.38886964 -0.23159346
000120 60 99 7e 3d 87 ff 53 3e 5b e4 82 bc 6b ba bb bd
       0.06215799 0.20702945 -0.015978029 -0.09166416
000130 73 af 40 3e 9a 60 90 be 3a 97 1d be 62 9a 26 be
       0.18816929 -0.281987 -0.1538972 -0.1626983
000140 dd 91 0c be f6 f9 82 be 31 58 de be 77 28 39 be
       -0.13727517 -0.2558133 -0.4342666 -0.18081842
000150 43 c7 51 be e8 e9 0b be 59 db 1e bd 1b 76 9c bd
       -0.20486169 -0.13663447 -0.038783405 -0.07639714
000160 b6 e5 96 bd f9 88 47 be e3 79 00 3d 19 22 8d bd
       -0.07368033 -0.19485845 0.03136624 -0.06891269
000170 68 76 04 be aa f9 43 3e 99 ff 6b be e8 8a 0d 3e
       -0.12935793 0.19138208 -0.23046722 0.1382252
000180 9a 4f 66 be 53 ef 99 be 79 b8 63 3e b7 56 30 be
       -0.22491303 -0.30065402 0.2223834 -0.17220579
000190 b3 fc 61 3e 08 6c 45 be 66 a2 ef 3d 51 3a 2c bd
       0.22069053 -0.19279492 0.11700897 -0.042047802
0001a0 58 62 59 3d 46 21 88 bd d6 6d da bd 18 97 f9 bd
       0.053072304 -0.066469714 -0.10665481 -0.12187022
0001b0 13 75 24 bd 6a 2e 44 be 0d 6e 8e bc 8c 49 6b be
       -0.040150713 -0.1915833 -0.01738646 -0.22977275
0001c0 7c e9 48 be b8 fd 96 be 5a 14 2e bc 9a 73 42 be
       -0.19620317 -0.29490447 -0.010624969 -0.18989411
0001d0 5c c2 3f be 8a 59 0d be c1 a1 96 be 58 db 1f bd
       -0.18726486 -0.13803688 -0.29420283 -0.039027542
0001e0 58 69 88 bd 76 d0 a2 be f0 94 3b be 7a 1b 84 be
       -0.06660718 -0.31799668 -0.18318534 -0.25802213
0001f0 c7 6f 5a be 20 7b cf 3d 06 c7 a8 be c1 10 23 3b
       -0.21331702 0.10130906 -0.32964343 0.0024881812

shared.2.weight f4 [128, 128]
000000 1a 56 d1 3c 5e 7d 46 3d 9d 02 68 3d 3c 03 b2 bc
       0.025553752 0.048459403 0.056643117 -0.021730058
000010 ad cb 86 3d 48 90 59 3d a6 84 34 bd 4a 37 0d 3d
       0.06581817 0.053116113 -0.044071816 0.034476556
000020 f2 b9 78 bc cf b2 82 3d 74 bc 09 bb ef 19 a4 bd
       -0.015181052 0.06381761 -0.0021016868 -0.08012759
000030 a2 52 a8 bd 42 c2 0f 3d f3 3f dc 3c 8f 81 aa 3d
       -0.08218886 0.035097368 0.026885962 0.083254926
000040 4e 99 13 3d 3c 2b 13 bd fb d7 96 ba be d2 31 3b
       0.036034875 -0.035929903 -0.0011508459 0.0027133669
000050 4e 72 41 3c 34 8a bc bd ca 5c 8c bd 8a 71 cc 3c
       0.0118070375 -0.09206048 -0.068536356 0.024956483
000060 49 be a9 3d 18 61 a8 bd 57 e5 c2 bc 24 fa e1 bb
       0.08288247 -0.08221644 -0.023790998 -0.006896274
000070 98 d2 fd bd e3 a1 80 bd 09 8c a1 bc 74 81 62 3c
       -0.12393683 -0.062808774 -0.019720094 0.013824809
000080 68 d7 4c bc 0a 29 a9 bb 21 83 81 3d b1 bb 01 bd
       -0.012502529 -0.005162363 0.06323839 -0.031673137
000090 73 3c 84 3d d5 9f c6 bd 65 ec 41 3d 96 ee 95 bd
       0.06456842 -0.09698454 0.047344584 -0.07320897
0000a0 2f f1 a7 3c d6 ac cd bd dc 6c ab bd 70 d7 36 3d
       0.020500747 -0.100427315 -0.08370373 0.04463905
0000b0 ed c4 24 bb 6e ce a0 bd fe ae 85 bd 81 13 34 3d
       -0.002514179 -0.07851873 -0.06527518 0.043963913
0000c0 42 1c d1 bc 83 e4 a9 bd 30 b6 d4 3c e1 2f 75 bd
       -0.02552617 -0.08295538 0.02596578 -0.059860114
0000d0 05 f2 1a 3d 0c ad ee 3b c3 0e e7 bc 83 00 52 3d
       0.037828464 0.0072838124 -0.028205281 0.05127002
0000e0 f3 16 38 3d 3d 8d 80 bd c1 ba 03 bc 51 36 14 3d
       0.04494376 -0.06276939 -0.008040131 0.036184613
0000f0 b4 48 16 bd 57 80 54 bd 70 7f 0b bd 6a 01 5b bd
       -0.03669043 -0.051880207 -0.03405708 -0.053468145
000100 e6 47 80 3d 96 60 48 3d 66 ab 93 3b 52 c0 a2 bc
       0.062637135 0.048920237 0.0045065163 -0.019867096
000110 f2 f9 cb bd 00 a0 91 3b ba 78 4f bd 7c 85 c1 3c
       -0.09959783 0.0044441223 -0.050652243 0.02362322
000120 80 2a c1 bc 77 aa 90 bd 6b eb 80 bd d8 bf 58 bd
       -0.023579836 -0.070637636 -0.062949024 -0.05291733
000130 e1 92 45 bd 2c 1f 97 bd b4 ba 20 bd 40 3e 16 3d
       -0.048235778 -0.073789924 -0.039240554 0.03668046
000140 f9 a4 09 bd 9b 89 1e bd 41 b1 01 be 04 07 c6 bd
       -0.033604596 -0.03870545 -0.12665273 -0.09669307
000150 10 5f b9 bc 11 66 15 bd 06 e1 78 bc c8 ab 0d be
       -0.022628337 -0.03647429 -0.0151903685 -0.1383506
000160 bb 54 b9 bd 6a 9d 01 bd 0c 59 9f 3c 80 5c 57 bd
       -0.09049364 -0.031644262 0.01945164 -0.05257845
000170 fa d3 c3 3c a4 0a 10 3d 61 81 50 3d f4 c2 3f bd
       0.02390479 0.035166398 0.050904635 -0.04681678
000180 e0 15 c2 bd b6 ae 98 3b d6 a8 85 bd 01 7d 14 3d
       -0.094768286 0.004659499 -0.065263435 0.036252026
000190 db a8 aa bd 71 33 00 3d 47 c4 17 be 8e 6f e8 bd
       -0.08332988 0.03129906 -0.14820968 -0.11349402
0001a0 7b 46 9f bd d1 3d 00 bb 74 4a c4 bd 19 2f 41 3c
       -0.07777115 -0.0019568095 -0.09584513 0.011791014
0001b0 34 20 95 3d 95 de 82 bd 4a 0a 18 3d 67 fe 0c bd
       0.07281533 -0.063901104 0.037119187 -0.034422304
0001c0 4c 41 c5 bd 3c f1 0a 3d a3 09 21 3a 9f 7a 79 bc
       -0.09631595 0.033921465 0.00061430986 -0.015226989
0001d0 36 f0 10 3d 3c 58 c6 bd 61 7b 86 bd 26 05 6a bc
       0.035385333 -0.09684798 -0.065665014 -0.014283454
0001e0 46 55 35 bd e3 42 4f bd a1 70 62 bd e6 64 5f 3c
       -0.044270776 -0.050600898 -0.055283193 0.013634896
0001f0 53 a7 f7 3c 93 fe 93 3c fa b8 89 bd 02 74 d2 bc
       0.030231154 0.018065726 -0.067247346 -0.025690082
000200 ab 0c 2e bd 9c 35 53 bb 3e 5d bd bd ae 5e ee bd
       -0.04249255 -0.0032227999 -0.092463 -0.116391525
000210 21 2c 6a 3c 58 27 37 3d a7 58 a5 bd 4e f1 82 3d
       0.014292748 0.044715255 -0.0807355 0.063936815
000220 5b 2c 7f 3d cf e1 ef 3b 3c 82 8d bd 44 a2 b6 bc
       0.06229816 0.0073206197 -0.06909606 -0.022294171
000230 5a ab ef bd 94 35 15 3d d4 07 95 3c ff 83 56 3d
       -0.117026046 0.03642805 0.01819221 0.052371975
000240 36 9a e1 3c 6c a2 94 bd f6 28 1a bd d5 f2 b6 3c
       0.027539354 -0.07257542 -0.03763672 0.022332588
000250 cc a1 cf bd 93 40 ca bc 0a 20 86 bd 9f a2 5e 3c
       -0.10138282 -0.024688995 -0.0654908 0.013588577
000260 bd dd 0f bc 6d 8f 0d bc 47 33 03 3d f3 a1 9d bd
       -0.008780894 -0.008640152 0.032031324 -0.07696905
000270 29 18 3b bd 61 29 53 bd 7f 94 65 bd 52 c4 c0 bd
       -0.045677338 -0.051553134 -0.05604982 -0.09412445
000280 34 95 48 bc 39 f4 88 bd b9 c3 24 bd d2 60 21 3d
       -0.012242604 -0.06687207 -0.04022572 0.039398976
000290 d8 6d dc bd 46 c9 8d 3c 80 9e 52 bd 73 9d f1 bd
       -0.107631385 0.017307889 -0.05142069 -0.11797609
0002a0 3d 79 d5 bd e1 0b a4 bb 53 a9 56 3d 1e ad 08 bc
       -0.10423515 -0.005006299 0.052407574 -0.008342056
0002b0 a6 3a 22 3d a2 40 9f bd c8 be 76 3d 98 f7 6d 3d
       0.039606713 -0.077759996 0.060240537 0.058097452
0002c0 4b e0 b0 3a cf a1 6a bd 79 53 9b bd 4e 47 92 bd
       0.0013494579 -0.05728322 -0.075842805 -0.071425065
0002d0 15 e3 5c 3d b7 09 ca 3c e2 9c 38 3d c5 fd 68 3d
       0.0539275 0.024662836 0.04507149 0.05688264
0002e0 a2 96 cf bd 18 c7 33 b9 6a c4 96 bd 0d 60 24 3d
       -0.10136153 -0.00017144938 -0.07361682 0.040130664
0002f0 1a bc 65 bd fd c7 e3 bd 79 ea 6c bd 95 b3 c2 bb
       -0.05608759 -0.11122129 -0.057840798 -0.005941818
000300 b0 cc 16 bd 76 5c 88 bd 98 07 00 3d f4 b8 8b bd
       -0.0368163 -0.066582605 0.031257242 -0.068223864
000310 c9 c4 9a 3d af c8 5e 3d b0 e8 91 3b 68 a6 57 3d
       0.07557065 0.054390606 0.0044527873 0.05264893
000320 c9 ae 89 bd 2d ed f8 3c 47 8d fd bd 21 d8 ac bc
       -0.06722791 0.030386532 -0.12380462 -0.021099152
000330 50 48 94 bd 2c 82 36 bd cb f2 3f bd 31 9e 1b be
       -0.07240355 -0.044557735 -0.046862405 -0.15197064
000340 4b 09 ed 3c 9c 72 b7 ba 08 a5 a7 bb ba 4d cc 3c
       0.028935095 -0.0013995948 -0.005116109 0.024939407
000350 d3 40 a3 bd a6 b3 e0 bb 72 a3 09 3d 31 78 33 bd
       -0.079713486 -0.0068573533 0.03360314 -0.043815795
000360 ba 76 87 3d 1b 1d 87 bd 85 49 dd bc b8 bd e2 3a
       0.06614442 -0.06597348 -0.027012596 0.0017298972
000370 02 a0 af bd 6d a9 b3 bd 5a 7e 96 bd c7 9c 01 3d
       -0.08575441 -0.0877255 -0.073483184 0.031643655
000380 44 a7 8d bc 1b f8 07 bb 47 d1 c9 bd dc 24 1c be
       -0.017291673 -0.0020747248 -0.098543696 -0.15248436
000390 22 fd 02 be 7a 51 13 bb 12 4f 33 3d 86 47 7e bd
       -0.12791875 -0.0022478984 0.04377658 -0.06207993
0003a0 a5 0a 4d bd 2c 7d 8c bd 14 41 56 3d 99 aa 06 bd
       -0.05005898 -0.06859812 0.052308157 -0.03287754
0003b0 f3 64 3a 3b 58 f4 58 bc 05 b4 7c 3d 6c 48 7c bd
       0.0028441518 -0.01324185 0.061695118 -0.061592504
0003c0 fe b3 8f 3d cd cf 1a bb 4a b4 be bb ca 91 9f 3b
       0.07016753 -0.0023622394 -0.005819832 0.0048696743
0003d0 0e b1 f3 bc 50 61 9f bd ad 1b 16 3d ed 0c 15 bd
       -0.029747512 -0.07782233 0.036647487 -0.03638928
0003e0 78 a5 d6 bd 04 bf 25 bd ff a8 c5 bd b9 53 82 bd
       -0.104807794 -0.04046537 -0.09651374 -0.06363625
0003f0 56 bd 4f bc 4d af cd bd b2 df f2 bd fb 32 f4 bc
       -0.012679419 -0.100432016 -0.11859073 -0.029809466

shared.2.bias f4 [128]
000000 7f c3 5f bd ca dd cf bd 6e 1d 02 be ac 75 bc 3c
       -0.0546298 -0.10149725 -0.12706539 0.02300533
000010 23 66 83 bc 54 34 c6 3c 20 ad 1c 3d 69 7b ea 3c
       -0.016039914 0.024194874 0.038251042 0.0286233
000020 7a fb e9 bd 18 b0 8c 3c 53 11 c8 bd 0c aa ca bc
       -0.114249185 0.017173812 -0.09768929 -0.024739288
000030 e0 30 f8 3b 98 ec 8f bd ed ab cd b9 c2 0a 07 be
       0.0075741857 -0.070275486 -0.00039228742 -0.13187698
000040 d2 21 a0 bc 69 df af bd c7 2f 99 3c 8f 0a bf bd
       -0.019547377 -0.08587534 0.01869954 -0.09328186
000050 0f 86 dd bd 0c 23 2d 3d 4d 71 a3 bd 97 39 7f bb
       -0.10816585 0.04226975 -0.07980595 -0.0038944238
000060 64 cb 7a bc a4 79 1b 3c 5b ea ad 3c 8f b6 ab 3c
       -0.015307281 0.009489451 0.021229913 0.020961074
000070 61 d4 99 bd a3 0c f1 bc e7 5f d0 bd b9 87 2e 3b
       -0.07511211 -0.029424971 -0.10174542 0.002663119
000080 6b 90 0e 3d 72 5b c5 bc 6f fa de bc 93 c0 fe 3c
       0.034805696 -0.024091456 -0.027219025 0.031097686
000090 34 89 c3 bd e5 9a 1c bd 20 12 bc bd c9 00 98 bd
       -0.09547654 -0.038233656 -0.091831446 -0.07422025
0000a0 b0 ec ad bd 8f 39 88 bc 05 9f fc 3c 93 c9 ae bd
       -0.0849241 -0.016629009 0.030837545 -0.08534541
0000b0 cb 84 e6 bd 86 81 81 bd f2 2b 0f bb 9a f9 ff 3c
       -0.11255797 -0.06323533 -0.0021846262 0.031246949
0000c0 f5 40 b0 bc c2 26 d0 bd a9 bc da 39 e3 b7 4b bd
       -0.021515349 -0.101636425 0.00041720763 -0.049735915
0000d0 5e 59 0d be c6 26 8d bc d2 7f 65 bc b7 9d 36 3d
       -0.13803622 -0.017230403 -0.0140075255 0.044584002
0000e0 37 1b 9e 3b 60 fa f8 bd a1 83 f6 bb 6d ae bb bc
       0.0048250216 -0.1215713 -0.0075230156 -0.022910321
0000f0 a8 10 81 bd 13 e7 2d bd 39 e1 17 3c 0e 7b 40 bd
       -0.06302005 -0.042456698 0.009270006 -0.046992354
000100 16 40 c2 bd 58 76 b2 bd 0f fe d3 bc b9 a5 7b bd
       -0.0948488 -0.087139785 -0.02587798 -0.061437342
000110 b6 36 ee bd 4a 61 22 3d 57 b4 93 bc 05 d0 84 bd
       -0.11631529 0.039643563 -0.018030329 -0.06484989
000120 b1 83 d4 3b 6d 09 ca 3c 11 a3 f9 bd 79 dc 1f 3d
       0.0064854254 0.024662698 -0.121893056 0.03902862
000130 00 3e c0 3b f2 f5 e6 bd 16 0c fd ba 36 bd 0a 3d
       0.005866766 -0.11277379 -0.001930597 0.03387185
000140 0e 57 3e bd a3 93 e1 3c 63 77 02 3d 34 df a4 bd
       -0.04646974 0.027536219 0.031852137 -0.08050385
000150 c8 4d 74 bc a0 a6 6f bd 6d ed c8 3c f8 db ea bd
       -0.014911123 -0.058508515 0.024527276 -0.11467737
000160 79 52 ce 3c 1a 7a cb bd e9 a3 1f 3c 40 b2 d5 bd
       0.02518581 -0.099353984 0.009743669 -0.10434389
000170 5f 58 2f bc 25 1d 67 bd 79 7a 6b bd cd 06 df 3c
       -0.010702222 -0.05642428 -0.057489846 0.027224923
000180 1e 92 35 3d 14 da b2 bd b9 9c 84 bd 14 6c 35 3d
       0.0443288 -0.08733001 -0.06475205 0.044292524
000190 ee 01 f6 bd 3b 66 5c bc 17 a2 2c bd 9c fe 15 3d
       -0.12012087 -0.013452108 -0.04214677 0.036619768
0001a0 53 88 82 bd 43 6b 43 bd f6 16 ee bd b6 a5 df bd
       -0.06373658 -0.047709715 -0.11625473 -0.10920279
0001b0 b6 11 cc bc 3f 53 db 3c b5 f8 dc bd 15 20 04 3d
       -0.024910789 0.026773093 -0.107896246 0.03225716
0001c0 d1 6d ac bd 0b c5 ab bc 83 47 87 bd d1 37 0a be
       -0.08419383 -0.02096798 -0.06605437 -0.13497855
0001d0 b5 db a3 bd 16 1e 78 bd df 7d 69 bd 77 e9 a0 bd
       -0.0800089 -0.060575567 -0.057004806 -0.0785703
0001e0 f7 55 88 bd 2e 16 fd 3c 79 12 a5 bc 1b 42 85 bd
       -0.066570215 0.030894365 -0.02015041 -0.06506749
0001f0 75 63 b3 bd ae ad a7 bd 8f b4 37 3d be 3b 9a bd
       -0.08759204 -0.08187424 0.04484993 -0.07530926

move_mean.weight f4 [2, 128]
000000 88 1d c0 3b 05 bc a2 bc 16 60 8a bc 4b 61 b9 3c
       0.0058628954 -0.019865045 -0.01689152 0.0226294
000010 57 1b ca 3b 86 84 10 3c 1a da d0 3b ba 0a 9a 3c
       0.00616781 0.008820659 0.006373656 0.018803943
000020 aa 09 c3 3c 43 e0 d4 38 ed 83 1c bb 7e ea bc bb
       0.02380832 0.0001015072 -0.0023882345 -0.0057652583
000030 12 42 1e bc 14 81 47 3d 8f 91 76 3c 6e f2 b1 bc
       -0.009659307 0.048707083 0.015049352 -0.021722045
000040 f3 ca 11 3d 08 a3 33 3c 5f 9f c1 bc 86 03 f2 bc
       0.035593938 0.010964163 -0.023635564 -0.029542696
000050 12 bc 43 3d 3a 4b 75 3d 9c 66 e4 bc e1 ac 8e ba
       0.04778678 0.059886195 -0.02788096 -0.0010885262
000060 65 46 44 bc 42 96 1e 3d 67 d0 32 3d db ad b5 ba
       -0.011979674 0.038717516 0.04365578 -0.0013861017
000070 15 dc 5c 3c f5 d5 32 3b 76 c4 3f 3c da 3b 3d bc
       0.013480206 0.0027288173 0.011704555 -0.011549914
000080 c9 12 c6 3c 6f f1 8f 3b 8c a4 3d 3c 23 ef 87 3b
       0.02417888 0.004392795 0.011574876 0.0041483804
000090 41 e2 ff bb 04 c1 5d 3d bc 24 81 bd 8e d4 8b 3c
       -0.007808954 0.054139152 -0.06305835 0.017069127
0000a0 c5 25 54 3b 87 28 2a 3c f2 56 26 3d aa b2 7f 3c
       0.0032371145 0.010385639 0.04061026 0.015606562
0000b0 1f 63 9b 3c bf 2a 0c bb c0 7d 9b bc b0 74 16 bd
       0.018968163 -0.0021387783 -0.01898086 -0.036732376
0000c0 3e a6 ce 3c 75 cf 14 bb 5a ce af ba 91 18 30 3b
       0.025225755 -0.0022706662 -0.0013412938 0.0026870111
0000d0 f1 e1 b6 bb 5c 08 cd bb f3 67 7c 3c b0 eb 19 bd
       -0.0055811335 -0.0062571 0.015405643 -0.037578285
0000e0 90 0d 45 bd 28 98 e1 bc 51 c3 e7 3c cd 76 9a b8
       -0.048108637 -0.027538374 0.028291376 -7.3654206e-05
0000f0 60 20 90 bb d5 ee f9 3b 08 c3 78 bb b8 ec 51 bb
       -0.0043983907 0.007627348 -0.0037958045 -0.0032031965
000100 1f 15 d3 bb d3 03 ef 3b e6 3e 11 3b 39 85 15 bc
       -0.006441727 0.007294157 0.0022162735 -0.009126001
000110 b7 f3 1d bc 9a 9d 2a 3d 3a d4 c3 3c 07 16 39 3d
       -0.009640626 0.041654207 0.023904908 0.045187023
000120 46 39 a9 bc 9d b3 94 3c a7 24 ee 3b b0 2f 90 bc
       -0.020657193 0.018152053 0.007267553 -0.017600864
000130 62 52 93 bc c8 01 d9 bc 55 78 43 3d 94 4a 45 bc
       -0.01798362 -0.026490107 0.04772218 -0.012041707
000140 84 33 c6 bc 4b 37 86 3d e9 54 b2 3b b0 61 40 3c
       -0.024194486 0.06553515 0.005442251 0.0117420405
000150 a7 98 31 3c c1 5b 04 ba 64 df eb 3c b9 b4 75 3b
       0.010839618 -0.0005049073 0.028793044 0.0037491752
000160 b2 42 05 3d 5e 20 3c 3c 9a 72 b6 3c d9 dc 2d bd
       0.03253431 0.011482326 0.022271443 -0.042446945
000170 df f2 55 3c 59 30 61 bd b4 dd 5a 3c ec c3 90 3d
       0.013058393 -0.05497775 0.013358522 0.07068619
000180 00 61 58 3d 97 7b ce bc ca 45 9c 3d 94 b7 e6 3c
       0.05282688 -0.025205417 0.07630499 0.028163709
000190 30 04 cc 3b fc 23 19 3d 01 d8 ef bb d5 f5 21 3c
       0.006226085 0.037387833 -0.007319451 0.009885271
0001a0 c2 f3 b8 bb d2 83 05 bc 4a 49 2d 3d b9 5e eb 3c
       -0.0056442926 -0.008149104 0.042306222 0.02873169
0001b0 bf dd fc bb 2f a2 ef ba 2b 2a 99 3b 01 d9 0b bc
       -0.007716864 -0.0018282587 0.0046742163 -0.0085356245
0001c0 0c 4e 39 bd 55 18 50 3c f5 18 e5 3a d4 50 2f bc
       -0.045240447 0.012701114 0.0017478751 -0.010700423
0001d0 cc 79 d1 3c 9e db e2 3b 17 72 cf 3c 4a 94 fb 3c
       0.025570773 0.006923153 0.025322957 0.030710358
0001e0 4f af 80 3c 07 51 34 bd 1b 87 71 3d 06 8e cb bc
       0.015708594 -0.044022586 0.058966737 -0.024847995
0001f0 44 b4 81 ba 67 61 72 bc 73 1d 71 3b 44 8b 2c 3c
       -0.0009895642 -0.01479373 0.0036791235 0.01053125
000200 9a ca 16 3c 31 fb db bb b5 69 a6 3b 01 69 38 bb
       0.009203577 -0.006713294 0.005078519 -0.002813876
000210 73 0a e1 3c c7 34 8d 3c a2 d7 0c 3c 73 d2 66 bd
       0.027470803 0.01723708 0.008596333 -0.056353044
000220 08 6b 4f 3c 97 78 47 bc 09 d8 f5 bc 87 4b b5 ba
       0.012659796 -0.012174747 -0.03001024 -0.0013831713
000230 95 41 a9 3d 02 6f ce bb 29 b5 04 ba 76 22 d5 3b
       0.08264462 -0.0062998543 -0.00050623954 0.006504352
000240 99 06 c8 bb ce 41 08 ba 8f 95 24 bc ab 9d 1c 3d
       -0.006104302 -0.0005197794 -0.010045423 0.0382363
000250 77 0f 82 3d 6d d6 18 3b df f8 41 3d f6 88 34 3c
       0.06350606 0.0023321167 0.047356483 0.011018982
000260 33 db ae bc 96 50 11 bd 46 24 17 3d 06 12 44 bb
       -0.021344757 -0.035477243 0.036899827 -0.002991797
000270 46 d9 0c bc 07 01 20 ba 01 72 0e bc bc 94 ed bb
       -0.008596724 -0.0006103669 -0.008694173 -0.0072503965
000280 ed 2e a4 bc cb 1a 1f bb 3e 24 60 ba d8 a4 4d bc
       -0.020041907 -0.0024277444 -0.00085503224 -0.012551509
000290 0b 16 72 bc cf 47 33 bd 88 14 3e 3d 00 ed b6 bb
       -0.014775763 -0.043769654 0.0464063 -0.005582452
0002a0 06 d5 04 3d 72 46 1e 3b c1 14 50 bc cc 5c ba 3c
       0.032429717 0.0024150875 -0.012700261 0.022749327
0002b0 aa e5 1a bd e2 3d f8 3c 71 a3 8d ba 6a b0 d7 bc
       -0.03781668 0.030302946 -0.0010806156 -0.026329238
0002c0 17 2f 9d 3b 7c 4c f7 bb b9 ef c0 ba 06 66 48 bc
       0.0047968733 -0.0075469594 -0.001471988 -0.0122313555
0002d0 96 96 ac 3c fd 96 09 3d 3e 56 56 3c 5e 4d 71 3d
       0.021067899 0.03359126 0.013082085 0.058911674
0002e0 58 02 4c bd 6b 6e 63 3b 7f 9d 07 3d 81 2d 7f bc
       -0.049806923 0.0034703265 0.033109184 -0.015574814
0002f0 6f 42 b6 3c 6e fd 0e bc e4 99 98 bc 63 82 cf 3c
       0.022248475 -0.0087274145 -0.018628068 0.025330728
000300 11 eb 44 3c 01 12 27 bc 24 05 ae bc 31 52 b6 bb
       0.012018935 -0.010197164 -0.021242686 -0.005563997
000310 30 71 58 bc ae 26 4c 3c 81 7b 1b bc d3 97 75 bd
       -0.01321058 0.012460394 -0.009489895 -0.059959244
000320 29 91 0e 3b e9 68 3d bc c6 66 97 bc 2f 38 3a 3c
       0.0021754003 -0.011560657 -0.018481623 0.011365934
000330 e7 7e 14 bd 66 8e 02 bd f3 46 6a bd 10 c0 c2 3b
       -0.036253836 -0.031874083 -0.05719657 0.005943306
000340 57 59 24 bd b8 93 85 bd 06 da ff bb 4c e4 ba 3c
       -0.040124264 -0.06522316 -0.007807973 0.022813939
000350 a8 6b f7 ba 0d 9f 30 b9 f5 69 8a bc 4f 60 1f bd
       -0.0018876689 -0.00016843919 -0.016896227 -0.038910206
000360 37 76 0a bc ee 5b 9d bc 0f e1 40 3c 61 32 6d 3a
       -0.008451036 -0.019208875 0.011772408 0.00090483396
000370 c5 b1 14 3a 49 d0 c2 3c b5 46 3b 3d 88 b6 71 3c
       0.00056722417 0.023780959 0.04572173 0.0147529915
000380 e9 b0 87 3c 30 4d 3a bd 99 77 77 bc 58 cc 2c 3c
       0.01656385 -0.045483768 -0.015104198 0.010546766
000390 76 de 05 3d 8b 3c 74 3d 42 67 62 bd 2e c9 b7 bb
       0.03268286 0.05962805 -0.055274256 -0.0056086993
0003a0 e6 9e 46 3d 2f 62 03 3c a4 a0 ab bc 02 b9 80 3c
       0.04849138 0.008019014 -0.020950623 0.015713219
0003b0 8d 44 c7 ba 79 57 13 3d 4f 4f 7d bb ce 7c e6 39
       -0.0015202925 0.035972092 -0.0038652008 0.00043962005
0003c0 05 ca 67 bd 52 5d 69 bc 17 81 23 3d b1 06 8b bc
       -0.056589145 -0.014243441 0.03991803 -0.016970964
0003d0 9f c2 16 bb ad 1c 66 bb 63 a3 29 bd 32 a0 87 3c
       -0.0023004187 -0.0035112307 -0.041415583 0.01655588
0003e0 3c b7 75 bd f8 ed 36 3c ec d8 ab bd a5 d8 9f 3c
       -0.0599892 0.011165135 -0.08390984 0.019512484
0003f0 94 ff 26 3a 53 13 d2 3b fc 3b 1e bb 26 75 06 3d
       0.00063704816 0.006410995 -0.002414464 0.032826565

move_mean.bias f4 [2]
000000 7f a9 a0 3d 9c 71 32 be
       0.07844829 -0.17426151

food_logits.weight f4 [3, 128]
000000 9e 87 31 bd d2 6c 66 3b c1 38 dc 3c ce d1 1e bc
       -0.043342225 0.0035160077 0.026882531 -0.009693576
000010 4f 8c 19 3d bd f1 b8 bc a2 ac 00 3c a1 3e 15 3d
       0.037487324 -0.022576207 0.007853659 0.03643668
000020 76 7e ae bc 09 93 d8 bc 9a f1 06 3d 28 d2 fa bc
       -0.021300536 -0.0264373 0.032945253 -0.030617788
000030 56 25 84 bd 7c 1f 0b bd c7 6a 23 3c 67 25 04 3d
       -0.06452434 -0.033965573 0.009974188 0.032262232
000040 ed 57 02 bd f2 74 c9 ba c7 8e 83 3d 50 5d 7e bd
       -0.031822134 -0.0015369935 0.06423717 -0.06210071
000050 40 9c 55 3d ef 8d 2f 3c 46 d3 58 bd f0 18 ce bc
       0.052150965 0.010714992 -0.05293586 -0.025158376
000060 3b 2f ef bb 7a c1 7c 3d f7 3c 2a 3d 67 44 2f bd
       -0.0072993315 0.06170795 0.041562047 -0.042789843
000070 42 03 ed 3b 28 32 d7 bc 18 07 10 bd b7 54 f6 3c
       0.0072330544 -0.026269034 -0.035163015 0.030069692
000080 82 4d 69 3d 6b 3f 47 3d 0f 4e f6 bb a5 2f c6 bc
       0.056958683 0.048644464 -0.0075166295 -0.02419264
000090 f4 a6 70 3d 30 ed b1 bb 87 c6 05 3d 17 ff 50 bd
       0.05875297 -0.0054298863 0.032660034 -0.051024523
0000a0 d7 3b ad bd eb 28 9d 39 2f 59 1d 3d 32 e5 91 bc
       -0.08458679 0.0002997586 0.03841513 -0.017809484
0000b0 62 3d 10 bc d3 59 10 3d b8 4f 0a bd 10 51 97 3d
       -0.008803697 0.035241913 -0.033767432 0.07388508
0000c0 cb 01 29 3d 4c cb 35 bc 87 95 a4 bd 82 50 02 3d
       0.041261476 -0.011095833 -0.080363326 0.03181506
0000d0 21 55 37 3d 6e 01 86 bb e1 b4 89 bd 1c c5 0b bd
       0.04475892 -0.004089526 -0.06723953 -0.034123525
0000e0 ad 45 fe 3a e1 09 95 bc e6 c3 64 3c 27 78 c3 3c
       0.0019399427 -0.018193187 0.013962721 0.023861004
0000f0 81 2a 2b 3d c8 07 36 bd 4a da 81 3d 72 06 80 3c
       0.04178858 -0.044441015 0.063404635 0.015628073
000100 c8 0b b7 3d 1d 86 4d 3d 03 6c 81 3d fe ef e8 3c
       0.08937794 0.05017673 0.0631943 0.02843475
000110 42 d7 f8 3b 10 01 32 3d b5 43 03 3d 3c 68 8f 3d
       0.00759402 0.043458045 0.032046992 0.07002303
000120 aa 93 b6 bb d4 ec 04 3d 92 1d 95 3b 68 41 dc bc
       -0.005571802 0.03245242 0.004550644 -0.026886657
000130 1b 49 55 3d f7 1f 38 3d e2 75 2c 3d 7a 8e 29 3d
       0.052071672 0.04495236 0.04210461 0.041395642
000140 d8 ad 17 3d 33 5f b1 3d f7 8a 5c 3d 91 b0 5b 3d
       0.037031025 0.08660736 0.053843465 0.053635184
000150 91 a6 5c bc 34 45 55 bd 13 c2 08 3d a1 b2 97 3d
       -0.013467447 -0.05206795 0.03338821 0.07407118
000160 ec 49 da bc 60 3f 08 3d 13 89 09 bd ac 3f a1 bc
       -0.026646577 0.033263564 -0.03357799 -0.019683681
000170 aa 54 fb 3c 1c 25 0c 3d c8 dd 1c bd ef d9 da bc
       0.03068002 0.034215078 -0.038297445 -0.026715247
000180 39 7a 59 bb 30 e4 da bc 9e 3a 0f 3c 93 78 1a bd
       -0.0033184423 -0.026720136 0.008742003 -0.037712645
000190 fc 71 56 bd 9d 77 27 bd 7e be 44 3d a7 08 db bc
       -0.052354798 -0.040885556 0.04803323 -0.026737524
0001a0 65 47 80 bd b5 a8 b0 bc 6d 68 35 bd ed f3 6a 3d
       -0.062636174 -0.02156482 -0.04428904 0.057361532
0001b0 59 24 95 3c e7 a3 3e 3d 3f 3a 73 bd f9 66 3c 3c
       0.018205808 0.04654303 -0.05938172 0.01149916
0001c0 91 29 c5 bb 98 a5 1d bd 81 e6 2c 3d c0 f7 a4 3c
       -0.006016918 -0.038488 0.042212013 0.020137668
0001d0 bb 68 aa 3c 48 02 a2 ba a8 fc d7 bc 9c d9 f0 3c
       0.020801893 -0.0012360299 -0.026365593 0.02940064
0001e0 76 25 80 bd 2a 46 22 3c 40 9e 0e bd 50 4e 46 bd
       -0.06257145 0.009904424 -0.034818888 -0.04841453
0001f0 42 cb 32 3c e3 c2 f0 3c e2 eb af bc 01 2a 3f 3d
       0.010912718 0.029389804 -0.021474782 0.046670917
000200 c0 d8 13 bd 65 cb 02 3c f3 e0 5b bc 6d 9a f7 bc
       -0.03609538 0.007983063 -0.013420331 -0.030225003
000210 17 ea 8b bc b5 29 07 3d a5 68 83 3c 34 b5 4d 3d
       -0.017079396 0.03299876 0.01604111 0.050221637
000220 08 4d 0e bd 94 2a 00 bd 96 20 95 3c 5e a0 1e ba
       -0.03474143 -0.031290606 0.018204015 -0.0006051118
000230 c6 cb 9d ba cf 4d 9c 3d ba 89 9c bb d3 55 8f 3c
       -0.0012038879 0.07632028 -0.0047771605 0.017496979
000240 55 2e 41 3d c1 55 57 bc 11 4e 9e 3c dd 14 96 bd
       0.047163326 -0.013143004 0.019324334 -0.07328198
000250 d3 33 33 bc 5a 7a 0a 3d fc 0c f7 ba 9b c7 1e bd
       -0.010937649 0.03380809 -0.0018848474 -0.038764577
000260 ad 3d 4a 3b 48 62 1f 3d 62 fc c8 3b 33 7c 1d bd
       0.0030859516 0.038912088 0.006133602 -0.038448524
000270 94 16 f3 3b 47 5c e8 bc f0 41 86 bc 7b 94 dd 3c
       0.007418463 -0.028364314 -0.016388863 0.02704834
000280 3e 8f ee 3c d4 d0 ee 3c 5f fc 53 3d b5 fb f0 bc
       0.029121038 0.029152311 0.05175435 -0.029416898
000290 aa 3f a6 3d b0 f3 ae 3d 74 e7 07 bc 5f c7 2f bd
       0.08117612 0.085425735 -0.008294929 -0.042914744
0002a0 68 ad 14 3c 30 d4 aa 3c fd 9e dd bc ad 2e 06 bb
       0.009074546 0.020853132 -0.02705335 -0.0020474598
0002b0 aa 23 02 3c 89 74 8f 3d 45 50 14 bd c7 c7 88 3d
       0.007943073 0.07004649 -0.036209363 0.066787295
0002c0 c1 c7 7c 3b 81 5d 86 3c 7c 31 8b bd 17 5c 05 bd
       0.003857121 0.016402008 -0.06796548 -0.032558527
0002d0 3b 32 53 3d 46 5d 97 3d 3b 9b c6 bc 13 c5 96 bd
       0.051561575 0.07390837 -0.024243942 -0.07361808
0002e0 35 e3 49 3d e7 35 75 3b b3 b8 20 3d 09 b9 7c 3d
       0.049288947 0.0037416162 0.039238643 0.0616999
0002f0 51 2d 07 3d 2c 5a 07 bc 1b c8 91 3d 43 bb 15 3d
       0.0330022 -0.008261245 0.07118245 0.03655554
000300 40 37 c7 3c 85 23 72 3d 0a 12 04 bd 16 2b 62 3a
       0.024318337 0.059115905 -0.032243766 0.0008627636
000310 c3 af b2 3c 24 21 c4 3a ff 0e 21 3d da 8b a4 bd
       0.021812325 0.001496349 0.039320942 -0.08034487
000320 8c c6 be 3c 00 b6 1c 3d ac b0 c3 3d 78 f5 b0 bc
       0.023288034 0.038259506 0.09555182 -0.021601424
000330 a9 28 be bc a4 3f eb 3c 39 34 a4 3d be eb 5b 3d
       -0.023212748 0.02871687 0.08017773 0.05369162
000340 e2 33 05 3d 25 ab 04 bd 70 1c 94 3d 13 c7 89 3d
       0.032520182 -0.03238978 0.072319865 0.067274235
000350 9d 61 e8 bc 32 9b 82 bd b7 3d e2 3c 12 6f 62 3c
       -0.028366858 -0.063772574 0.027617319 0.013820427
000360 90 fb 6c bd 5a 8c 3b bb b7 20 9f bb 0a bb 84 bd
       -0.057857096 -0.0028617592 -0.004856195 -0.06480987
000370 79 0e a2 3c a3 ce 79 3d 00 08 c3 3c 6b cc 1f 3c
       0.019782292 0.06098808 0.023807526 0.009753327
000380 25 dc 01 bd de de 0d bd 10 1d c5 bb 48 c6 fe bc
       -0.031704087 -0.03463637 -0.0060154274 -0.031100407
000390 ac e9 85 bd 79 dc 79 bc 7d c8 7d 3d ad 2e fc bc
       -0.0653871 -0.015250319 0.06195878 -0.030783975
0003a0 cc 83 5f 3d 8a b4 b8 bc 14 bf 40 3c 43 52 bd 3c
       0.05456905 -0.022547025 0.011764307 0.023110515
0003b0 17 40 20 bb 15 38 a4 3c 4b 37 b7 bc 6b 76 80 3c
       -0.0024452263 0.020046273 -0.022365233 0.015681466
0003c0 b2 cf b4 bc 2b 19 17 bd 47 1f 32 bd e8 0a 26 3d
       -0.022071693 -0.036889236 -0.04348686 0.040537745
0003d0 62 ca 19 3d f8 80 79 3c 50 a0 01 bd c7 09 6c 3d
       0.037546523 0.015228502 -0.031647027 0.057626512
0003e0 94 0b e5 bc 07 2a e0 3c b8 97 4c bd ce 26 42 bd
       -0.027959622 0.02736379 -0.049949378 -0.04740029
0003f0 62 50 45 3d b7 50 c7 bc ae ff c1 bc d8 72 ce bc
       0.048172362 -0.02433048 -0.023681488 -0.025201246

food_logits.bias f4 [3]
000000 59 65 8c bd 02 1e ae bd e1 b0 25 3e
       -0.06855268 -0.08501817 0.16180755

net.0.weight f4 [128, 17]
000000 55 85 23 3e d3 59 48 be 46 da b0 3f f3 a3 6d c0
       0.15968831 -0.19565515 1.3816612 -3.7131317
000010 7d 7d 99 be 56 f1 5f be 89 5c ff bd da 85 73 3d
       -0.29978552 -0.21869406 -0.124688216 0.059453823
000020 01 f3 9c bd 37 3a c4 3d a6 c0 1b 3e 0e e2 2d be
       -0.07663537 0.09581416 0.15210208 -0.16980764
000030 02 fc 58 3e 11 7a 31 bc 54 bd 96 bc c4 11 36 3e
       0.21189883 -0.010832326 -0.018400826 0.17780215
000040 c1 f0 ff 3d 11 32 c6 3d 15 2d 85 bd a1 57 06 c0
       0.12497092 0.09677518 -0.06502739 -2.0990984
000050 0c be 37 40 b3 4f 7d 3f fc ed 38 be 42 0c 33 3e
       2.8709745 0.98949736 -0.18059534 0.17485145
000060 78 c0 00 be ec 72 0a 3e b6 6d 01 3d 2e 2f 16 be
       -0.12573421 0.13520402 0.03159877 -0.14666435
000070 8d dd 08 be 53 d6 84 be 04 bb bd bd a8 75 0b 3e
       -0.13365765 -0.25944766 -0.09264186 0.13619101
000080 35 6b c5 bd 57 af 27 bd fb 1a d5 bc 12 62 2f bd
       -0.09639589 -0.0409387 -0.026013842 -0.042818137
000090 14 74 49 3f 24 ec 67 bf 23 f8 bc bf fe a5 0b 3e
       0.78692746 -0.90594697 -1.4763225 0.1363754
0000a0 a2 7c d2 3c ba 59 c5 3c 84 a4 47 3d 3f a6 ec 3c
       0.025694195 0.024090637 0.04874088 0.028887866
0000b0 55 8c 23 3e f0 2d 1a 3e 21 23 7f 3d 5c e4 c1 3d
       0.15971501 0.15056586 0.06228936 0.09467384
0000c0 4c 0e 80 bd da 22 ee 3c 62 75 5c 3d 3e 07 75 bd
       -0.06252727 0.029069353 0.053822882 -0.05982136
0000d0 f7 61 b1 bd 3e f6 b1 3f 75 ab 31 c0 50 fe 3e bf
       -0.086612634 1.3903272 -2.77609 -0.746068
0000e0 79 c5 b4 bd d0 6b 84 3e d7 ac 27 be 6c ae da bb
       -0.088267274 0.25863504 -0.16374527 -0.0066736247
0000f0 5b d7 1f bd 8b 50 46 be 7d 39 3f be 42 68 6c be
       -0.03902374 -0.19366662 -0.18674274 -0.23086646
000100 95 4d 28 be a0 05 fc 3d 93 b9 01 3e a2 81 ea 3d
       -0.16435845 0.123057604 0.12668447 0.11450507
000110 9a 92 3f 3e be 57 23 be d7 5f 67 3f cc 42 8e be
       0.18708268 -0.1595144 0.90380615 -0.27785337
000120 2b 0c cf bf 21 bc bc 3d 5e 74 55 be b7 7d 01 be
       -1.6175588 0.0921557 -0.20845172 -0.12645613
000130 64 72 3b be cd b3 07 3d b2 41 23 bd 01 92 4f 3d
       -0.18305355 0.033130456 -0.039857574 0.05067635
000140 56 10 89 be 31 a6 70 3e 90 3a cf 3d d3 e0 13 bc
       -0.26770276 0.23500897 0.10118592 -0.00902577
000150 b6 cc 62 be e4 01 39 be 02 a2 a1 bc 42 07 c1 3f
       -0.22148404 -0.18067127 -0.019730572 1.508034
000160 78 bc a9 bf 57 58 52 bf cf 6c b4 be d6 18 17 be
       -1.3260641 -0.82166046 -0.35239264 -0.14755568
000170 d7 8a 48 bd aa 7e 8f be 6e 25 14 be 9b ee 38 3e
       -0.048960533 -0.28026325 -0.14467403 0.18059771
000180 e2 44 b1 bb dc e4 0a be c4 21 87 3d dc 17 0a be
       -0.005409823 -0.13563865 0.06598237 -0.13485664
000190 f1 17 a0 bd 3e 7d 32 be 08 24 00 be a9 16 ab bd
       -0.078170665 -0.17430589 -0.12513745 -0.083539315
0001a0 1f b5 e1 bf 90 7f 7e 40 71 cb 1b 3f b2 12 96 bb
       -1.7633399 3.9765358 0.608573 -0.0045798654
0001b0 de 3e ef 3d a1 78 4d 3e de 5d 74 3c 2a 7d 77 bd
       0.11681913 0.20065548 0.014914958 -0.0604221
0001c0 65 c3 62 3e 57 bc 61 3d 48 84 72 3c 27 f5 74 bc
       0.2214485 0.055111255 0.014802046 -0.014951027
0001d0 43 87 8c bd e9 ce 2a 3d b7 b3 5f 3d 7e ed 42 3e
       -0.068617366 0.04170123 0.05461475 0.19035909
0001e0 ab eb 1b 3e 34 6d 08 40 57 ae 8f c0 59 a8 32 bf
       0.15226619 2.1316652 -4.4900317 -0.6978813
0001f0 a8 36 3a 3e 1b da b2 bc 0f 0a 74 3e 87 83 24 3e
       0.18184912 -0.021832516 0.23831962 0.16065799
000200 f3 fa 06 3e 63 76 77 bc 3d ff 95 bc 81 f6 f9 bd
       0.13181667 -0.015103909 -0.018310184 -0.1220522
000210 64 7a 08 bd 6e 54 eb 3d e5 2c b2 3c 47 b8 ec bd
       -0.033319846 0.11490713 0.021749923 -0.115585856
000220 17 4b a3 bd 8d c4 ca 3c 13 8d 91 3f 21 3a b8 bf
       -0.079733066 0.024751926 1.1371177 -1.439274
000230 c0 1c cc be d5 51 9e 3e 12 32 a7 3e 37 0b b4 bd
       -0.39865685 0.30921808 0.32655388 -0.087912016
000240 71 7d 83 bc c6 0a f0 3d e2 b1 42 3d 07 dc 35 be
       -0.016051026 0.11720805 0.047532924 -0.17759715
000250 56 5f 23 bc c0 72 d7 3d 21 75 ec 3d e7 74 8a 3a
       -0.00997146 0.10519934 0.11545778 0.0010563404
000260 b5 84 87 be 34 10 07 3d ec d1 6b 3d 43 d5 e8 bf
       -0.26468435 0.032974437 0.057573244 -1.8190082
000270 7a be 98 40 a7 aa 2e 3f b3 fc 94 bd 1f b9 82 3d
       4.7732515 0.68229145 -0.07274761 0.06382965
000280 8e a7 56 3c 1f 04 3e bd dd c9 85 ba b5 c5 80 3d
       0.013101472 -0.04639065 -0.0010207255 0.062877096
000290 a9 4a be 3d da 09 ed bd 58 07 79 bd be b1 95 3e
       0.09291584 -0.11574145 -0.06079802 0.2923717
0002a0 88 24 11 3e 6e 63 14 3d 6d cf 22 3e b7 21 8b bd
       0.14174092 0.036227636 0.15899439 -0.0679354
0002b0 be 8e c9 bf 0e 13 4c 40 32 a4 f1 3f cb e2 aa bd
       -1.5746686 3.188663 1.8878233 -0.083440386
0002c0 bf ca ec 3b d2 43 55 bd 91 cc 8b 3d e8 8e 46 be
       0.0072263177 -0.05206663 0.06826127 -0.19390452
0002d0 ee d6 73 be c0 b0 41 3d ee 03 a7 3d c9 1a 65 3e
       -0.23812458 0.047287703 0.081550464 0.22373499
0002e0 19 0b 94 3c af 74 2f 3e 76 c8 2f be e2 7f 00 3e
       0.018071698 0.17134355 -0.17166314 0.12548783
0002f0 7d 56 a0 bc e7 b1 81 3f 98 50 08 c0 62 ec db bd
       -0.01957249 1.0132416 -2.129919 -0.10738446
000300 2f d2 c9 3d c0 28 12 3e 30 3a bd 3d 72 8a 0d bd
       0.098545425 0.14273357 0.09239614 -0.03455586
000310 61 fe 5a 3c 02 6b 84 be e4 2b 43 bc 05 0a 30 3e
       0.013366313 -0.2586289 -0.01191232 0.17191322
000320 e1 a5 2f 3d 31 a4 a9 ba d1 51 cf bd 02 52 75 bd
       0.042882804 -0.001294261 -0.10123027 -0.059892662
000330 19 03 00 3e 20 cf 51 3d e3 fc a2 bf 77 01 8b 40
       0.12501182 0.05122292 -1.2733425 4.343929
000340 c8 de 87 bc 42 c7 72 bd b4 da 8c 3d 94 2b 60 3d
       -0.016585723 -0.05927206 0.06877652 0.05472906
000350 4a 67 40 be a4 e3 33 3d 96 5c d2 3d 2e cc ec bd
       -0.18789402 0.043918267 0.102715656 -0.11562382
000360 3f 5b da 3d 68 b1 34 3d 73 dd 04 bd a0 a4 cb 3d
       0.10661935 0.0441145 -0.032437753 0.09943509
000370 93 8b 53 3d 2d 43 8b bb ee ed 3c 3c 9b a0 d2 be
       0.05164678 -0.0042499513 0.011531336 -0.41138157
000380 06 63 30 bf 96 06 04 40 71 45 7d 3d 20 ff 10 3d
       -0.689011 2.062902 0.061833803 0.035399556
000390 88 e4 8e 3d 72 04 7c be 9c 65 cd bd c4 72 fe bd
       0.069771826 -0.24611071 -0.10029146 -0.124242336
0003a0 fd 5e a7 be 2a 5d 70 3e 35 93 3a 3d eb 37 9b 3d
       -0.32689658 0.2347304 0.045550544 0.07579025
0003b0 04 6a 21 3c 1b ba e8 3d 9e a8 35 bd 59 b3 12 3e
       0.009851936 0.11363622 -0.04435026 0.14326228
0003c0 94 4a a2 bf 07 87 7a 40 9c c1 65 3f ed 35 f5 3b
       -1.267901 3.9144914 0.8974855 0.007483235
0003d0 b6 a0 90 be c2 81 82 3d 8e ce 87 3e a9 43 1d 3e
       -0.28247613 0.063724056 0.26524776 0.15357842
0003e0 ca ff a2 bc f2 e8 e9 bd 13 ef d2 3d 9b f7 1c 3e
       -0.01989736 -0.11421384 0.10299506 0.15328829
0003f0 1d 7f b1 3d 81 43 90 bd 2f 20 a7 bd 13 a6 e3 bb
       0.08666823 -0.07044125 -0.081604354 -0.006947288

net.0.bias f4 [128]
000000 86 1f 93 3e 91 30 41 bd 7c 76 ae be cd 96 59 be
       0.28734988 -0.047165457 -0.3407477 -0.21248932
000010 c2 0b 12 bd 03 58 fe 3d b3 db 7b be 7f ec ed 3d
       -0.035655744 0.12419131 -0.24595527 0.11617374
000020 7a 4a 72 be d6 c0 97 be ba c3 25 3e ce 64 83 bd
       -0.23661223 -0.2963931 0.16187945 -0.06415711
000030 d4 95 be 3d e6 8e 24 3e e3 df a3 bd 5b cc f9 bd
       0.09305921 0.16070136 -0.080016874 -0.12197181
000040 66 25 28 be 6d b3 2d be c2 f8 89 bd ad bc ee bd
       -0.16420516 -0.16962977 -0.067369 -0.11657081
000050 c4 61 a1 be bf 73 de bd 1f 0e 22 3e e2 06 02 3f
       -0.31519902 -0.108619206 0.158257 0.5079175
000060 06 43 b9 bd a7 9e b9 bd 6c 50 1c be 0f 70 8a 3e
       -0.09045987 -0.09063464 -0.15265054 0.2703862
000070 40 c8 33 be 43 59 74 3e 49 27 58 bd 32 c5 59 3e
       -0.17556858 0.23862176 -0.05277184 0.2126663
000080 c4 d5 3b 3d 1b 82 0d 3e d8 a8 a4 3e 22 ce 0e 3e
       0.04585816 0.13819163 0.32160068 0.13945821
000090 03 cd 4b be 71 dd 69 3d bd 82 78 be d7 f8 1c bd
       -0.19902425 0.05709595 -0.24268623 -0.03832325
0000a0 79 49 05 be 2c d8 60 be 1d b5 cb 3d 50 2f 21 3e
       -0.13016309 -0.21957463 0.09946654 0.15740705
0000b0 39 e8 15 bd fe fd 56 be c9 5f 26 be f1 d7 cc bc
       -0.036598418 -0.20995328 -0.16247477 -0.025005313
0000c0 24 32 cf bc 40 3b cf 3d 4e 6b 83 be 30 59 44 be
       -0.025292464 0.10118723 -0.25667804 -0.19174647
0000d0 48 54 b7 3e ed 32 ed 3d 5a 31 d7 3e 46 0b 8c be
       0.3580649 0.11581979 0.4202984 -0.2735235
0000e0 fb 8d 58 3e 2a c7 3d 3e 4b 12 9e bc 27 53 b1 bb
       0.21147911 0.18533006 -0.019295832 -0.005411524
0000f0 96 a2 c4 3c ea 5a 67 bd e5 9c c5 be ea 4c 69 3e
       0.024003308 -0.056483187 -0.38596264 0.22783247
000100 e2 30 2f 3e 77 a3 e8 be 6d 70 72 be 12 cd 7a 3e
       0.17108491 -0.45437214 -0.236757 0.2449229
000110 5c 68 1b 3e 67 e8 6c be 59 cc ec 3d 0a 4d d8 be
       0.15176529 -0.2313553 0.11562414 -0.42246276
000120 63 02 29 3c 09 8b 20 be 3b ab f4 3e d5 8f cf bc
       0.01031551 -0.15678038 0.47786888 -0.02533714
000130 08 18 88 3e 0d c2 59 3e 18 1d 97 bd c1 2d 9e 3e
       0.26580834 0.21265431 -0.07378596 0.30894282
000140 f0 2a 86 3e e3 7d 42 3e 3f 43 fc 3d 52 a3 12 3d
       0.26204634 0.18993334 0.12317514 0.035800286
000150 82 eb 20 3e bb 37 13 3e 16 4d 3f be 93 e3 13 be
       0.15714839 0.14376728 -0.1868175 -0.14442281
000160 c0 79 56 3d 30 1b ff 3d 33 d1 52 3d 39 d1 10 be
       0.052362204 0.124563575 0.05146904 -0.14142312
000170 9c bc dc 3d 57 de 1a 3e 74 3f b0 bd 3b 4e 96 3e
       0.10778162 0.15123878 -0.08605853 0.2935656
000180 4f 75 0e 3e dd e9 79 be 35 7f 8b be 4a 46 41 3e
       0.13911937 -0.24405618 -0.2724549 0.1887447
000190 dc 7b 2a 3e 6d ed 85 be 82 17 60 be 15 91 14 bd
       0.16648811 -0.26157704 -0.21883968 -0.036271174
0001a0 60 d4 93 3e b9 a4 21 3e 16 cc b5 bd 6e dc 32 3d
       0.28872967 0.15785493 -0.08876817 0.04366725
0001b0 2d f1 ae bb 3a fd 13 3d 8a 90 84 3c d0 f8 59 3e
       -0.005338809 0.036130168 0.016182203 0.2128632
0001c0 da f0 65 be 0e 70 54 3e 8a dc cf bd c4 42 8b be
       -0.22455159 0.2074587 -0.10149486 -0.27199376
0001d0 ed c6 d4 bd e4 1d 30 3e 04 22 f7 3d 1e 58 07 3e
       -0.103895046 0.17198902 0.12067035 0.13217208
0001e0 f2 2d e8 bd 33 50 98 3d 7c 7e f9 bd 91 6f 54 3e
       -0.113368884 0.07437172 -0.12182328 0.20745684
0001f0 c7 36 9e be d3 c9 ed 3c c8 51 71 3e db 9b ed 3d
       -0.30901167 0.029026901 0.23566353 0.11601993
