src/training_logs_ppo/initial/ppo_checkpoint_42_1764183817.pt (torch, 480089 bytes, 42 tensors)

move_logstd f4 [2]
000000 b3 59 52 3f 42 99 4e 3f
       0.8216812 0.807026

shared.0.weight f4 [128, 17]
000000 00 e1 ea 3d 29 41 10 be 7a 6d 1f be 92 22 3b 3e
       0.114686966 -0.14087357 -0.15569106 0.18274906
000010 fb 61 4f 3e 28 ef 4f be ab 96 00 be fd 61 f3 3d
       0.2025222 -0.20306075 -0.12557475 0.11883924
000020 ed 35 59 3e 34 3d 32 be 4b b9 26 3e 65 50 0e be
       0.21211977 -0.1740616 0.16281621 -0.13897856
000030 1f 6b 33 bd 02 54 3d 3c 80 78 4a 3d c2 d6 2d 3e
       -0.04380333 0.011555674 0.049431324 0.16976455
000040 6a 06 29 be 59 e8 07 be df 37 bc bd b0 02 82 3d
       -0.16506353 -0.13272227 -0.09190344 0.06348169
000050 d4 ce 3e 3d 9a 4b 57 be 97 af 7b 3e 90 a0 1e be
       0.046583965 -0.21024933 0.24578701 -0.15490937
000060 63 5b eb 3c 16 88 22 be c2 4f 62 be 95 52 e0 bd
       0.0287301 -0.15872225 -0.22100738 -0.10953251
000070 f0 da 3b 3c cd a6 33 3e 5e 16 90 3d 7f 98 94 3d
       0.011465773 0.17544098 0.07035516 0.07255649
000080 9a 6c c5 bd 74 ce 27 be d8 5f 2c 3e 86 5f 79 3e
       -0.09639855 -0.1638735 0.16833436 0.24352846
000090 1b a0 00 3e 24 f5 68 3d 0c cd 8d be 18 cc 53 be
       0.12561075 0.05687441 -0.276955 -0.20683324
0000a0 04 64 80 bd 74 4f b7 bd bd 4a a4 3b f3 7b 73 bd
       -0.062690765 -0.08950701 0.0050137923 -0.05944438
0000b0 83 db 1e be c0 4c e6 3c 71 eb 6e 3e e2 df 3d be
       -0.15513425 0.02811277 0.23332001 -0.18542436
0000c0 c8 29 39 3e ab e3 78 3d 94 37 94 3d 5b f9 65 3d
       0.18082345 0.060763996 0.07237163 0.056146007
0000d0 23 f7 09 be 54 0c 48 be 09 68 6a 3d 09 67 c5 3d
       -0.13473181 -0.19535953 0.057228122 0.09638793
0000e0 5b d8 da 3d ce 5d fb 3d 7f 63 db 3c 67 df 33 3e
       0.10685798 0.12273751 0.026780842 0.1756569
0000f0 6a 34 3f bd 24 03 89 3d e6 4d d1 bc 37 50 85 bd
       -0.046680845 0.06690052 -0.02554984 -0.065094404
000100 e1 03 0c be d3 a4 0e 3d 82 11 19 be 46 18 68 3e
       -0.13673355 0.034825157 -0.14948085 0.2266551
000110 fe 28 25 3e bb 9a 2e 3e e5 b9 4a be a4 09 60 3e
       0.16128919 0.17051212 -0.19797476 0.21878678
000120 a8 53 13 3d 64 9b 52 3e fa 1a e2 bc c4 28 a1 3c
       0.035968453 0.2056709 -0.027600754 0.019672759
000130 47 6b 19 be 8a 68 03 3e e8 ce 6c 3d 70 ef df 3d
       -0.1498233 0.12832847 0.05781451 0.10934341
000140 ec a7 d2 3d b1 e7 50 3d b7 f2 50 3c 9e 9a 9a bd
       0.10285935 0.05100221 0.01275318 -0.07549022
000150 10 e1 ca 3d d1 b0 b0 bc 40 7b e0 3d a4 cc 40 bd
       0.099062085 -0.021568688 0.10961008 -0.04707016
000160 ac d4 7b be 06 99 17 be 7e 1c d5 3d e8 d1 2f 3e
       -0.24592847 -0.14804468 0.10405825 0.17169917
000170 43 4d 19 be 10 e1 4a 3e 53 96 82 bc b8 57 91 3d
       -0.1497088 0.19812417 -0.01594082 0.07096809
000180 43 d8 ca 3d 2c 75 df 3d 4a 76 21 be 36 98 30 be
       0.0990453 0.10911021 -0.1576778 -0.17245564
000190 d7 91 f8 bd 0e f5 aa bd fc 51 f2 3c 96 dd f3 3b
       -0.12137192 -0.08347522 0.029580109 0.0074421866
0001a0 55 28 aa bd 15 8c ef 3d 84 84 95 3d 27 2e cb 3d
       -0.08308474 0.116966404 0.07300666 0.09920912
0001b0 5a 4a 5f be b0 0a ce bd c3 eb 5d 3e 04 9b 7d 3c
       -0.21805707 -0.10060632 0.21671967 0.015478853
0001c0 62 28 69 be 18 95 3f be db e3 25 3d 8a 53 ce bd
       -0.22769311 -0.18709219 0.040500503 -0.100745276
0001d0 88 3e 5f 3d 41 35 ea bd 0a 9a 9f bd f3 67 10 be
       0.054502994 -0.114359386 -0.077930525 -0.14102153
0001e0 30 8b 9c 3b 77 9c 04 3c 6b b4 06 3e 52 ff ba 3c
       0.0047773346 0.008093945 0.13154761 0.022826824
0001f0 19 c5 52 be 3d 24 5d be 19 58 2e 3e 4f 3b 9e bd
       -0.20583 -0.21595855 0.17025794 -0.07726156
000200 d0 64 33 be 44 9d 6e 3d b4 e7 bc bc ac 0f 3c be
       -0.17518926 0.05825545 -0.023059703 -0.18365353
000210 28 a6 5d be 6d 20 52 3e 2b ec 03 bb 5b 05 49 3c
       -0.21645415 0.20520182 -0.002012978 0.012269343
000220 99 61 c4 bd 32 64 c9 3d 4a 22 00 bd 60 34 83 3d
       -0.09588928 0.09833564 -0.0312827 0.06406474
000230 39 df ad bc c0 b0 49 be 8e 6f 7a 39 1a 0c 7a 3e
       -0.021224605 -0.19696331 0.00023883415 0.24418679
000240 e7 83 aa 3c 4e 1d 69 be a3 23 a8 3d b3 8b f7 bd
       0.020814849 -0.22765085 0.08209922 -0.120871924
000250 c9 da de 3d 94 cb 17 be c1 a6 6b be a1 ad 90 3d
       0.10881574 -0.14823753 -0.2301283 0.07064367
000260 42 d9 30 be d8 c0 47 3e 5e 7b d8 bc 94 49 00 3d
       -0.17270377 0.19507158 -0.026426014 0.03132017
000270 04 dd 45 be 36 b0 da bd f4 81 5f bd 9c 0b e4 bc
       -0.19322592 -0.10678141 -0.054567292 -0.027837567
000280 9d c0 96 3d 78 b9 3b 3e 7b c1 64 3e 24 c1 05 be
       0.07360957 0.1833247 0.22339432 -0.13061959
000290 6d b2 98 3d 49 8d 57 be bd cf 30 be 88 ec 3d 3e
       0.07455907 -0.2104999 -0.17266746 0.18547261
0002a0 de 20 7a 3d 3c 7c 68 3d 33 6f 07 be 79 5a a2 3d
       0.0610665 0.056759104 -0.13226013 0.079274125
0002b0 10 f8 d0 bd 65 f4 df 3d 40 4c 89 be 7c 8f 15 3e
       -0.10203564 0.109352864 -0.26815987 0.14605516
0002c0 ef 32 05 be 2d 1d ff bd 4b 50 59 be 55 a9 2b be
       -0.13007711 -0.12456737 -0.21222036 -0.16763814
0002d0 2a 4b 6c 3e 40 d9 1f be d9 98 45 be 23 01 e2 3c
       0.23075548 -0.15610218 -0.19296588 0.027588433
0002e0 fb 2a cf 3d 42 ba bc 3d 05 75 01 be d6 13 17 be
       0.1011562 0.09215213 -0.12642296 -0.1475366
0002f0 46 fb 23 be 1c 7a 3f 3e 08 cb 3f be 1c 8f a9 3d
       -0.16013822 0.18698925 -0.18729794 0.08279249
000300 8a 72 04 3e 1a 0e 75 3e 31 5e 6b 3e 08 31 44 bd
       0.12934318 0.2393116 0.2298515 -0.047898322
000310 f7 21 e2 bc a1 a7 47 be 68 ab c2 3d f5 a8 e2 bd
       -0.027604086 -0.19497539 0.095053494 -0.11067382
000320 cb 9c cc bc 1a d0 a1 bd 81 26 11 bd 13 2a 64 bd
       -0.024977108 -0.0790102 -0.03543711 -0.055704188
000330 fc 32 58 bc a8 91 43 be 7a d6 28 be 4d b8 13 3e
       -0.013195749 -0.19098532 -0.16488066 0.14425774
000340 04 1e 38 bc 35 27 5b be ef c9 e8 3d b3 71 cd bd
       -0.011237625 -0.21401675 0.11366641 -0.10031452
000350 ef 94 c5 bd e6 2e db bc 1b f1 c4 bd 4b dc d6 bc
       -0.096475475 -0.026755761 -0.096163 -0.02622809
000360 8d 75 20 be 44 74 b2 bc ef 46 4c 3c 47 27 b6 3d
       -0.15669842 -0.021783955 0.012468084 0.0889421
000370 8f 4f 90 bd ea 94 33 3e cb 1d 8a 3c 8d dd 53 be
       -0.070464246 0.17537275 0.01685991 -0.20689984
000380 97 13 20 3e 7b e3 05 bd cb c8 18 3e ef eb 47 be
       0.15632473 -0.032687645 0.14920346 -0.19523595
000390 12 40 ed ba f0 f3 94 3d 47 af 13 bd 0a 6f 87 bd
       -0.001810076 0.0727309 -0.03605583 -0.06612976
0003a0 8f b2 55 3d d4 34 79 3d 51 bb 47 bb 0c ec d5 bd
       0.05217224 0.060841396 -0.003047664 -0.10445413
0003b0 75 45 0c 3e 8e cf b2 bd 91 3b 10 be 2e f9 d1 3d
       0.13698371 -0.08730994 -0.14085223 0.102526054
0003c0 37 9b 8a bd ce b7 33 be 25 82 ee bd 89 64 3f be
       -0.06767886 -0.17550585 -0.11645917 -0.18690695
0003d0 29 08 43 3e bb 49 54 be 85 51 3c 3e f9 6d ab 3d
       0.19046082 -0.20731251 0.18390472 0.08370585
0003e0 59 25 1d 3d d1 98 56 bc 4c f7 ab bd 37 76 89 3d
       0.038365696 -0.013097958 -0.083967775 0.06712001
0003f0 56 ff 35 3e 5d 9d 55 be 3b b0 ba bd 48 7f 05 bb
       0.17773184 -0.2086081 -0.091156445 -0.0020370055

shared.0.bias f4 [128]
000000 bd f7 91 bc 88 9c 75 be 05 d4 20 bd e8 ad 2b be
       -0.017818326 -0.23985493 -0.039264698 -0.16765559
000010 d2 27 8e bd 94 28 4a 3d 4b bd af 3c 72 3e 59 3e
       -0.06941189 0.049355105 0.021452567 0.21215227
000020 a2 91 80 be 4c 69 67 3b d5 35 14 3e dc 3b 33 be
       -0.2511111 0.0035310565 0.1447366 -0.17503303
000030 ab d2 07 3e 8d b3 63 bd 73 91 f6 3c b5 65 1b be
       0.13263957 -0.055591155 0.030098652 -0.15175517
000040 71 67 64 bd 63 d1 49 3e e0 24 0e 3e a2 0b 2e be
       -0.055762712 0.19708781 0.13881254 -0.16996625
000050 05 3d c8 3c 6a 69 a7 3c 49 ca 5c 3d f1 a9 8c 3d
       0.024443159 0.020436008 0.05390385 0.06868351
000060 8c d0 cf ba f5 d7 ef bd 0f d5 d3 bb ae e1 55 3d
       -0.0015854998 -0.117111124 -0.0064646075 0.052217178
000070 fd 93 4b 3e 4d 8d 5c be 18 ea 45 bc 5e ce 6b be
       0.19880672 -0.21538277 -0.012079738 -0.23027942
000080 95 42 b3 bd 32 5c 1a 3d 36 81 57 be c7 d2 47 3d
       -0.08752934 0.03768558 -0.21045384 0.048784997
000090 82 21 3b be da 18 51 be ff 98 a1 bd da 7e 49 bc
       -0.18274501 -0.20419636 -0.0789051 -0.01229831
0000a0 5a aa 6f be 59 69 7a be 47 cd 76 3d 5f f1 b4 bd
       -0.23404828 -0.2445425 0.06025436 -0.088351004
0000b0 c0 2d 49 3e a7 af 81 be 4d 63 5e 3e 31 71 8a be
       0.19646358 -0.25329325 0.21717568 -0.27039483
0000c0 0e f3 3b 3e 0e 77 af bd fe 22 65 be b6 85 d8 bd
       0.18354437 -0.0856763 -0.2237663 -0.10572378
0000d0 ed 80 15 be ac ba 30 3d 43 66 a4 3b cc da 39 3d
       -0.14599963 0.043146774 0.0050170734 0.045374677
0000e0 4c eb 26 3e 8a d6 45 be 80 82 45 3c 58 cf 65 bd
       0.16300696 -0.19320121 0.012055039 -0.05610594
0000f0 f8 35 00 bd f9 6a e4 3a 95 d7 6b bd d5 ee 11 be
       -0.03130147 0.00174269 -0.057578642 -0.14251263
000100 83 af 62 be bd 23 9a bd 25 ef 78 be dc 0c 92 be
       -0.22137265 -0.07526348 -0.24309976 -0.28525436
000110 a6 82 b9 ba 2e 39 bd 3d 61 24 6a be 13 35 01 be
       -0.0014153316 0.09239422 -0.2286544 -0.12617902
000120 ad de 80 3d d9 7e 3d 3e 80 d7 88 3d 60 77 88 bd
       0.06292472 0.1850542 0.06681728 -0.06663394
000130 e9 dc 4c 3e 7a e5 73 be ae ae f0 bd 84 cc e3 bd
       0.20006146 -0.23818007 -0.117520675 -0.11122993
000140 aa 0e 87 bd ea cf 43 be 72 66 8b be 25 80 45 be
       -0.06594594 -0.19122282 -0.27226597 -0.19287165
000150 54 67 fa bd 45 67 a0 bd bc 4d a6 3d 0c f1 42 3d
       -0.122267395 -0.07832197 0.081202954 0.04759316
000160 a6 00 ab 3c cd b0 4d be 9f 21 8e 3d 2f f6 26 bd
       0.020874333 -0.20086975 0.069400065 -0.040762123
000170 99 33 d1 bd 0d da 4a 3e b1 63 48 be 39 a9 20 3e
       -0.102149196 0.19809742 -0.19569279 0.15689553
000180 42 92 69 be 2a fa 4b be d2 f3 54 3e dc 20 d6 bd
       -0.22809699 -0.19919649 0.20796135 -0.10455486
000190 57 c6 60 3e 7a e0 eb bd 5b 86 50 3e a5 47 85 3d
       0.2195066 -0.11517425 0.20363753 0.06507806
0001a0 dc 76 f4 3d 16 45 4a bc aa 67 3e bc a1 ca b8 bc
       0.11936733 -0.012345573 -0.011621395 -0.022557558
0001b0 95 25 2a 3d 5d 21 0e be 09 6d a1 3d 61 7b 1f be
       0.041539747 -0.13879915 0.07882125 -0.15574409
0001c0 a4 c6 fc bd 7a 56 86 be e7 9f eb 3a 2d 56 35 be
       -0.12342575 -0.2623785 0.0017976732 -0.17708655
0001d0 78 39 b0 bd 2b 8d f1 bc b4 e1 85 be b9 40 8e 3d
       -0.08604711 -0.02948626 -0.2614876 0.069459386
0001e0 64 85 90 3c 2e 46 7d be da 13 54 be 03 81 45 be
       0.01764173 -0.24733803 -0.20710698 -0.19287495
0001f0 fc 32 ff bd bc 46 b2 3d ed 09 8b be 32 c6 15 3c
       -0.124608964 0.08704898 -0.2715601 0.009141492

shared.2.weight f4 [128, 128]
000000 dd 82 18 3d 86 e9 65 3d ef 22 8c 3d 3c 03 b2 bc
       0.037234176 0.05613091 0.068426006 -0.021730058
000010 61 1e 92 3d a6 9a 49 3d 73 9f 5b bd 80 30 3e 3d
       0.071347006 0.04921975 -0.05361886 0.046432972
000020 e9 c6 82 3b a1 a9 87 3d 6e 65 32 3c 94 0c 86 bd
       0.003990997 0.06624151 0.010888441 -0.06545368
000030 90 aa 9e bd 5c 93 50 3d fa fc b5 3c 6f 02 a1 3d
       -0.07747376 0.050921783 0.022215355 0.07861792
000040 5e f2 92 3b 3f fb bf bc 46 ea ee ba cf 80 90 3c
       0.004484459 -0.023435233 -0.0018227778 0.017639546
000050 7e 8b ad 3c 6b 6f 94 bd fc fc 68 bd c4 95 e5 3c
       0.02118468 -0.07247814 -0.05688189 0.028025515
000060 20 59 b2 3d 0a 05 84 bd 18 10 d0 bc d4 8d 29 bd
       0.087084055 -0.064462736 -0.0253983 -0.041395023
000070 13 04 eb bd 4b 84 50 bd 15 3e b3 bc a7 e2 cb 3b
       -0.114753865 -0.050907414 -0.021880189 0.0062220874
000080 78 37 0b 3c 7f 98 80 3b ce bf 40 3d 38 10 ad bc
       0.0084971115 0.003924429 0.04705792 -0.021125898
000090 e6 4b 69 3d 40 b9 ba bd 6d 23 68 3d 4d 5d a7 bd
       0.056957148 -0.09117365 0.05667441 -0.081720926
0000a0 62 2f 09 3d f2 4e c5 bd 70 9e a3 bd 0c 5e 49 3d
       0.033492453 -0.09634198 -0.07989204 0.049161956
0000b0 ea a1 42 3b 98 b6 9b bd 49 16 53 bd 7f d2 4e 3d
       0.002969856 -0.07603186 -0.051534925 0.050493713
0000c0 5f 44 ad bc 13 a9 97 bd bd 46 f1 3c 1e 52 0f bd
       -0.021150766 -0.07405295 0.029452676 -0.034990422
0000d0 0c 65 3d 3d 80 69 8c 3c 02 0b 63 bd c1 c7 7e 3d
       0.046238944 0.01714015 -0.05543042 0.06220222
0000e0 e1 53 54 3d 70 1f 95 bd 80 de e3 ba 57 da fe 3c
       0.051837806 -0.07281387 -0.0017385036 0.031109972
0000f0 c8 70 00 bd 45 49 27 bd 5e da 21 bd 65 b5 b1 bd
       -0.031357557 -0.04084136 -0.03951489 -0.086771764
000100 65 17 89 3d ad 89 59 3d 27 9a dc 3c f3 09 19 bc
       0.06693915 0.053109813 0.026928974 -0.009340751
000110 49 52 a4 bd ae ea eb 3c 38 d0 29 bd 11 d2 dc 3c
       -0.08023507 0.028798427 -0.04145834 0.026955636
000120 62 59 c0 bc 01 28 89 bd 24 9b 82 bd b6 0e 57 bd
       -0.023480121 -0.06697083 -0.06377247 -0.052504264
000130 db 1a 04 bd 1a 73 71 bd d7 97 b0 bc 36 6e 05 3d
       -0.032252174 -0.05894766 -0.021556778 0.03257581
000140 61 aa 39 bd ec 4c 13 bd 41 b1 01 be df 18 ca bd
       -0.0453285 -0.03596203 -0.12665273 -0.09868025
000150 20 7e b1 bb 5d be da bc 94 b2 2e 3a 3e 69 ed bd
       -0.0054166466 -0.0267021 0.00066641835 -0.11592339
000160 07 38 be bd d5 dc 03 bd e3 6e cd 3c 83 73 71 bd
       -0.0928803 -0.032193024 0.025077289 -0.05894805
000170 2d f8 16 3d 7b 36 4a 3d e7 1b 5e 3d 41 6b 2d bd
       0.036857773 0.049368363 0.05422583 -0.042338613
000180 c9 03 b2 bd 5d 6e eb 3c 07 66 69 bd 83 d5 de 3c
       -0.08692128 0.028739149 -0.056982066 0.02720142
000190 40 a2 ae bd 0d 29 ee 3c 09 7f e2 bd 2e 9c dc bd
       -0.085270405 0.029072309 -0.11059386 -0.107719764
0001a0 3d 16 b9 bd 25 d9 ad 3c 36 6c a2 bd 55 49 cc 3c
       -0.09037445 0.021221707 -0.07930796 0.024937311
0001b0 ed a8 be 3c 1b af 37 bd 94 9f 49 3c de 4b cb bc
       0.02327391 -0.044844728 0.012306113 -0.02481645
0001c0 a6 78 ac bd ef b3 27 3d 7a 3f cb 3b 88 5e b1 3a
       -0.08421449 0.040943082 0.0062026354 0.0013532201
0001d0 0e d1 1a 3d 78 f1 a6 bd 5f eb 62 bd cc f7 0b bc
       0.037797026 -0.08151525 -0.05540025 -0.008542966
0001e0 94 0d 60 bd c1 3c 0e bd 93 82 8e bd 8d d9 68 3c
       -0.05470045 -0.03472591 -0.06958499 0.014212024
0001f0 f6 0f 2c 3d a3 df 5b 3c 34 10 71 bd 1f 94 c8 bc
       0.04200741 0.013420018 -0.058853343 -0.024484692
000200 22 b8 1f bc 27 61 ef 3c a1 85 66 bd 1a c5 c2 bd
       -0.0097484905 0.02922113 -0.056279782 -0.095102504
000210 a8 f4 05 3d 00 09 70 3d ef 8e 2d bd 8a 29 be 3d
       0.032704026 0.058602333 -0.04237264 0.09285267
000220 30 04 a8 3d d1 e7 c7 3c c3 a9 e3 bc f6 4f 3f bc
       0.08203924 0.02440253 -0.02779091 -0.011676779
000230 22 87 78 bd df 70 97 3d 5e 9e f4 3c 2a e0 91 3d
       -0.060675748 0.07394575 0.029860672 0.07122834
000240 66 fd 06 3d 1a 90 79 bd 3c b4 00 bd aa 18 3f 3d
       0.032956503 -0.06092844 -0.031421885 0.04665438
000250 2f eb be bd dd 76 83 bb b2 11 00 bd 98 1d 9c 3c
       -0.093222015 -0.0040119723 -0.031266876 0.01905708
000260 34 65 c8 bb ea 2b 52 3c 50 37 66 3d cb c6 43 bd
       -0.00611558 0.012827853 0.056205094 -0.047797006
000270 81 38 3f bb 6f f8 c4 bc 97 72 3b 3b 02 6b 7c bd
       -0.0029177966 -0.024044244 0.0028602236 -0.061625488
000280 8e 09 76 3c 37 b3 f9 bc 59 e4 23 3c 8d 8d 95 3d
       0.015016926 -0.030480964 0.010003173 0.07302389
000290 ca c8 a4 bd 52 18 28 3d 94 8a da bc b4 7c e3 bd
       -0.0804611 0.04103882 -0.026677407 -0.111077696
0002a0 6c 4f 88 bd 0f 8c 00 3d b2 df 97 3d c6 85 8b 3c
       -0.066557735 0.03138357 0.07415713 0.017031562
0002b0 72 87 73 3d 72 be 51 bd e6 f9 60 3d 84 67 ae 3d
       0.059455343 -0.051207013 0.05492582 0.08515838
0002c0 9b 8c 09 3d 93 0d 1c bd 7a b4 c4 bc 76 13 69 bd
       0.033581357 -0.038098883 -0.02401184 -0.056903325
0002d0 42 8c 94 3d 29 f8 39 3d 04 45 77 3d 9c 3a a4 3d
       0.072533146 0.04540268 0.060368553 0.08018991
0002e0 f1 29 b3 bd 20 4b 2f 3c 8d b8 78 bd 3d c1 a7 3d
       -0.08748234 0.010699064 -0.060722876 0.08191154
0002f0 01 b6 cc bc 4f af bb bd 38 b9 03 bd 7e 5a 8b 3b
       -0.02498913 -0.09164297 -0.03215906 0.004252731
000300 fa e5 9e bb 57 fe dd bc b4 f7 64 3d b5 52 4b bd
       -0.0048491927 -0.027098818 0.05590029 -0.049639422
000310 ff 2b b7 3d ff ce a2 3d 16 b1 5d 3c f6 58 5c 3d
       0.089439385 0.079496376 0.01353099 0.053795777
000320 be b2 5b bc 23 22 7c 3d e3 58 bb bd 4a c0 8b 3c
       -0.013409315 0.061555993 -0.09147813 0.017059464
000330 4b 05 31 bd cd f6 9f bc cd 65 5e 3b 06 44 e3 bd
       -0.04321794 -0.019526863 0.003393519 -0.11096959
000340 ad 36 48 3d d0 ba 4d 3d 7e 87 bc 3b 67 e5 7b 3d
       0.048880268 0.050226986 0.0057534566 0.061498072
000350 c5 84 82 bd 4e 6c ef 3c 86 ae 75 3d 52 19 f3 bc
       -0.0637298 0.029226448 0.05998089 -0.02967516
000360 25 54 b3 3d 7e 0d 33 bd 89 d9 2c bc 67 fb f8 3c
       0.08756284 -0.04371404 -0.010549911 0.030393315
000370 a4 30 82 bd 7a 92 81 bd 6c db 82 bd 4b e7 8c 3d
       -0.06356934 -0.06326766 -0.06389508 0.06880053
000380 e5 ac 6d bb 12 9e 73 3c ea ea b5 bd b8 67 01 be
       -0.0036266383 0.01486923 -0.08882697 -0.12637222
000390 b8 d0 ca bd 40 ab d8 3c 19 a5 75 3d 40 c6 40 bd
       -0.09903091 0.026448846 0.059971903 -0.047064066
0003a0 de bb cb bc d1 a3 53 bd 2f 24 a6 3d f5 9c bd bc
       -0.024869855 -0.0516699 0.0811237 -0.023146132
0003b0 2e b5 9e 3c 73 ca 3c 3c a4 b8 bb 3d 57 1a 1a bc
       0.019373503 0.011522877 0.09166077 -0.009405694
0003c0 a3 68 af 3d a6 05 e3 3c e5 68 b8 3c 1d 04 2a 3d
       0.0856488 0.027712654 0.022510955 0.04150783
0003d0 6a 63 d4 bc 39 4a 75 bd f7 5a 94 3d b6 57 4c bc
       -0.02592631 -0.059885237 0.07243913 -0.012472084
0003e0 b2 eb 98 bd cb 11 d2 bc 4d 25 92 bd 2a bf a5 bc
       -0.0746683 -0.02564325 -0.07136021 -0.020232756
0003f0 ff d5 67 3c b1 41 c9 bd 30 2a b3 bd 47 6b 92 3c
       0.014150142 -0.09826983 -0.08748281 0.01787342

shared.2.bias f4 [128]
000000 2d 26 42 bd e5 f1 84 bd 51 c4 c5 bd a4 e7 44 3d
       -0.04739969 -0.0649145 -0.09656585 0.048072472
000010 75 f9 2d 3b eb 5b f5 3c 0f 69 3d 3d 5a 0f 14 3d
       0.0026546393 0.029951056 0.04624277 0.036147453
000020 c3 c1 bd bd a9 76 06 3d 18 a4 49 bd 69 f1 9d bb
       -0.09265473 0.032828007 -0.049228758 -0.004820038
000030 00 80 cf 3c 00 ae 68 bd 1f 39 18 3c 71 c2 b9 bd
       0.02532959 -0.056806564 0.0092909625 -0.0907029
000040 7c 83 91 bc 48 c3 4d bd 7c ed 84 3d 49 6a 85 bd
       -0.017762892 -0.050235063 0.06490609 -0.06514413
000050 43 cd c2 bd 49 79 6d 3d 37 fe 50 bd 6d 1c ee 3b
       -0.09511807 0.057976995 -0.05102369 0.007266572
000060 5b 1a 06 3c 0d aa 90 3c e9 ad 2a 3d fb 5c 1e 3d
       0.008184995 0.017659212 0.04166976 0.03866289
000070 12 81 88 bd 1b 5f a4 3c b8 eb b5 bd 0e 12 3c 3c
       -0.06665243 0.020064881 -0.088828504 0.011478914
000080 a4 9f 7a 3d ee 16 51 bc 5b c6 03 bd fa aa 37 3d
       0.0611874 -0.0127618145 -0.03217159 0.04484079
000090 67 4e 97 bd 6f 56 ee bc 74 49 a9 bd d3 2a 75 bd
       -0.07388001 -0.02909395 -0.08265963 -0.059855293
0000a0 68 a0 95 bd 95 f5 9d 3c e3 e4 17 3d f9 89 84 bd
       -0.07305986 0.019282142 0.037083518 -0.06471629
0000b0 56 23 af bd e7 be 2f bd 24 c3 d4 3c 0f d3 1e 3d
       -0.08551662 -0.042906668 0.025971957 0.0387755
0000c0 65 46 88 ba 41 29 87 bd 79 9e 37 3c e1 9c 4d bd
       -0.0010396956 -0.065996654 0.011207216 -0.05019844
0000d0 71 30 d5 bd c6 26 8d bc 2d 5c 28 3b 92 fc 77 3d
       -0.1040963 -0.017230403 0.0025689707 0.060543604
0000e0 a4 97 69 3c b5 41 d3 bd 6b 48 4d 3c 78 dc 05 ba
       0.014257345 -0.10315267 0.012529473 -0.00051064
0000f0 89 7a 55 bc dd 85 74 bc 3f 3a 99 3d 42 09 e9 bc
       -0.013029703 -0.014924494 0.07481813 -0.028446797
000100 7a 60 bb bd b6 f2 45 bd 15 61 ac bc 07 4b e3 bc
       -0.09149261 -0.04832717 -0.021042386 -0.027745737
000110 44 7f ca bd c5 ba 57 3d f1 bb 0d b8 05 d0 84 bd
       -0.09887555 0.05266835 -3.3792054e-05 -0.06484989
000120 c5 cb cf 3c af 2e 3a 3d 58 bc eb bd bc d1 75 3d
       0.02536572 0.045454677 -0.11510533 0.06001447
000130 b8 85 79 3c 27 5d ce bd a7 d0 99 3b 01 67 9d 3d
       0.015229635 -0.10076361 0.0046940628 0.07685662
000140 17 96 99 bc e7 6e 10 3d 0f 0f 1d 3d d8 cc 73 bd
       -0.018748326 0.035262015 0.03834444 -0.059521526
000150 de 55 d9 3c ac ab 99 bc 12 b0 0c 3d a4 70 d7 bd
       0.026530202 -0.018758617 0.0343476 -0.10519531
000160 f1 d2 85 3d b4 1b c3 bd 36 f3 e8 3c e1 a6 b4 bd
       0.065343745 -0.09526768 0.028436285 -0.08820892
000170 db cb 55 3c 25 1d 67 bd 90 5f 26 bd 94 76 22 3d
       0.013049091 -0.05642428 -0.04061848 0.039663866
000180 ff ea 6f 3d 24 de 8d bd 9d cf ac bc 87 d1 92 3d
       0.05857372 -0.069271356 -0.021095091 0.071688704
000190 42 69 8b bd 3b 66 5c bc 6f de ac bc 51 b8 38 3d
       -0.06807186 -0.013452108 -0.021102158 0.045097653
0001a0 5b 74 5d bd bd 31 3a bd 4a f0 bf bd dc 42 ba bd
       -0.054066043 -0.04545759 -0.093720034 -0.09094784
0001b0 98 c1 5c bc 55 ac 21 3d b0 4a cf bd 47 4f 3c 3d
       -0.013473891 0.03947099 -0.101216674 0.045974042
0001c0 23 60 4d bd 57 26 f9 3c 80 3e 69 bd ff 6c e4 bd
       -0.05014051 0.03041379 -0.05694437 -0.11153602
0001d0 b9 89 50 bd b5 f6 6b bd a2 4e 0a bd 23 67 91 bd
       -0.050912593 -0.057608325 -0.033766396 -0.0709975
0001e0 fa 56 72 bd 69 a1 4d 3d 2e 7b fb bb a7 d3 41 bd
       -0.05916498 0.05020276 -0.0076745963 -0.047320988
0001f0 00 e8 9a bd fd 1d 8e bd 45 ed 6b 3d 23 f9 6c bd
       -0.07563782 -0.069393136 0.057599325 -0.057854783

move_mean.weight f4 [2, 128]
000000 80 6b e2 b9 3b 87 f2 bb 82 37 48 3d 59 52 51 bb
       -0.00043186173 -0.0074013746 0.04888106 -0.0031939952
000010 ef 29 dc 3c c8 c3 e9 3c 34 44 e0 3b 8c ed 11 bd
       0.026875464 0.028535739 0.006844068 -0.035626933
000020 02 03 d1 3c 89 ff 7a 3c 4c 3d a7 bc c7 65 ff 3b
       0.02551413 0.015319713 -0.02041497 0.007794115
000030 67 f1 0d 3c a3 25 7d 3d 6e a4 d7 3b 9c 63 10 3c
       0.008663512 0.06180347 0.006580881 0.008812811
000040 0f 64 30 3d 97 4b d0 bb eb 47 fd bc d2 55 8d 3c
       0.043064173 -0.0063566673 -0.030918082 0.017252836
000050 19 e7 51 3d b3 da 46 3d 40 05 8f bd c3 c7 38 bc
       0.051245783 0.04854841 -0.06983423 -0.011278096
000060 bd aa dc bb 59 61 33 3d 54 bf 8d 3d b8 c5 f2 ba
       -0.006734221 0.04379401 0.069212586 -0.001852206
000070 01 d7 5c 3b a3 54 cd 3b 1f 5e 7c 3b 48 6e 8d bb
       0.0033697488 0.006266193 0.003850825 -0.004316125
000080 62 1c a9 3c 65 e9 9a ba 5f 06 26 3d ce c8 03 3c
       0.020643417 -0.0011818825 0.04053342 0.008043481
000090 5c f2 5d bc 97 5c 82 3d 19 0f 5c bd 60 ab 05 3c
       -0.0135465525 0.06365316 -0.053725336 0.008158535
0000a0 95 5d 08 bd d4 4e 1f 3d a7 bb 0b 39 7f fa 0a 3c
       -0.03329237 0.038893536 0.00013325979 0.0084825745
0000b0 5b a1 46 bc c5 85 2d bc 5e 86 29 bc 70 1c 41 bc
       -0.012123431 -0.010590975 -0.010346977 -0.011786565
0000c0 09 2e c4 ba 35 3c b6 bb c4 40 0c 3b 1f c3 cc bc
       -0.0014967333 -0.0055613765 0.0021400908 -0.024995385
0000d0 a3 5b 30 3d 5c 08 cd bb c1 32 f0 3c 0d d7 f6 bc
       0.04305614 -0.0062571 0.029321076 -0.030131841
0000e0 ce ed 6b bd 4c bb 07 bd 60 98 03 3d 5c 63 83 3c
       -0.057599835 -0.033137605 0.032127738 0.01603859
0000f0 08 7c 5c 3d c8 87 b2 3c d1 17 b2 bc 62 43 55 bb
       0.053829223 0.021793261 -0.021739872 -0.0032541384
000100 81 5a de bc 1b 50 aa ba e7 d9 c2 3a 66 35 02 bd
       -0.027142765 -0.0012993844 0.0014865965 -0.031789206
000110 c6 03 a0 bb 43 ab 44 3d cc d6 c5 bc 07 16 39 3d
       -0.0048832623 0.04801489 -0.024150275 0.045187023
000120 6e e8 ba bb c5 4a 25 3c 16 22 24 3c 03 98 20 3c
       -0.0057039773 0.010088627 0.010017892 0.009801867
000130 6f 19 0d bc 5f a1 b1 bc a4 0c 7d 3d f5 aa db 3c
       -0.008612021 -0.021683393 0.061779633 0.026814917
000140 46 ab 2e 3c 62 ad 99 3d 39 9f 09 3c 91 78 a3 3c
       0.010660952 0.07503773 0.008399778 0.019954951
000150 7e 32 45 3d 7a 28 16 3c b2 28 10 3d 40 87 b9 bb
       0.048143856 0.009164924 0.03519506 -0.005661875
000160 bd ad 11 3d 5b 0d 69 3c d5 c2 69 3d f1 bf 0f bd
       0.03556608 0.014224376 0.057070572 -0.03509516
000170 f9 42 46 3c 59 30 61 bd 2c 85 ff 3c e1 05 52 3d
       0.012100928 -0.05497775 0.031191431 0.051275138
000180 bb 15 6e 3d a9 32 b3 bc 76 40 78 3d 62 5b 56 3d
       0.058126193 -0.021874743 0.06060835 0.052333243
000190 5a 2c 37 3d fc 23 19 3d bf 27 c7 bc a3 ce a2 3c
       0.04472003 0.037387833 -0.024310945 0.019873923
0001a0 57 1d f0 bb 7d f6 45 bb 8a fd 3c 3d 30 e6 04 3d
       -0.0073277163 -0.0030206733 0.04614023 0.032446086
0001b0 1a ce 96 bc 3b 77 63 bc 23 3a a2 3b 22 2b 3c bc
       -0.018408824 -0.013883407 0.004950778 -0.011484893
0001c0 a8 52 1f bd 92 a5 d3 bc c0 9b 4a 3c 79 43 2f bd
       -0.038897187 -0.025835786 0.012366235 -0.042788956
0001d0 52 8e a8 3c 41 67 1c 3c 84 7f ff bc a6 b9 00 bb
       0.020575676 0.009546102 -0.031188734 -0.0019641905
0001e0 2f da 33 bc ff ac a6 bc ca 40 48 3d ae 4d cc bc
       -0.010977312 -0.020346163 0.048889913 -0.024939384
0001f0 0b 94 1d bb 29 fe 2d bc 17 97 ed ba bf 78 3c 3b
       -0.002404454 -0.010619679 -0.0018126693 0.0028758494
000200 8b 6f 97 3b 56 66 20 bd f0 05 6f 3d 51 85 1a bd
       0.0046214513 -0.039160095 0.05835527 -0.037724797
000210 da df 20 3d b7 d5 33 3c 7d 2a 2b bc 58 7f 86 bd
       0.03927598 0.010976247 -0.010447142 -0.06567258
000220 e7 5f 15 bc 5d ac 31 bc 23 f0 5a bd 1d e3 69 3b
       -0.009117103 -0.010844317 -0.05345167 0.0035688349
000230 89 5b 83 3d f7 32 3f bc 02 a6 58 bc e5 e0 b9 bc
       0.06413943 -0.011669866 -0.013223173 -0.022690246
000240 d5 3a 66 3c 74 32 16 3d 94 b7 ca bc fd 37 02 3d
       0.014052113 0.03666921 -0.02474574 0.031791676
000250 fd c3 67 3d ca 3a 30 bc 5d 6e 51 3d 1b ad c5 3c
       0.056583393 -0.010756204 0.05113064 0.024130395
000260 b7 10 8b bc f7 d9 1e bd d5 c6 ed 3c 85 7c 11 3a
       -0.016975744 -0.038782086 0.029025475 0.0005549866
000270 72 ee 85 3c 3b 94 cb bc b6 e4 0a bb 79 b4 39 3b
       0.016349051 -0.024850955 -0.0021193451 0.002833633
000280 b2 05 a8 3b 37 d8 85 bc 4b bf 0d 3d 10 07 87 39
       0.005127632 -0.01633845 0.03460626 0.00025754469
000290 e9 7c f3 bb 2b 48 5a bd d0 8e 18 3d de 04 56 3b
       -0.007430662 -0.05329148 0.03724557 0.003265671
0002a0 93 1f 74 3c 7a 3c f4 3c 46 3a 3c 3c 33 f8 1c 3d
       0.014900106 0.029813994 0.011488503 0.03832264
0002b0 cc f5 07 bd 24 61 3c 3c cb 72 c0 bb 93 76 10 bd
       -0.033193395 0.0114977695 -0.0058730594 -0.03526933
0002c0 9e 46 00 3d e1 2e ce bc 38 99 36 3b c5 27 93 3b
       0.031317346 -0.025168838 0.0027862322 0.004490825
0002d0 3b 0f b3 3c fd 96 09 3d f8 34 08 3d ec 74 97 3d
       0.021857848 0.03359126 0.03325364 0.07395348
0002e0 3e 94 25 bd 08 58 5a bc 1b 8d 12 3d 80 68 9e 3b
       -0.040424578 -0.013326652 0.0357791 0.0048342347
0002f0 55 cd ff 3c e3 b2 55 bc e1 93 d9 bc a0 94 dc ba
       0.03122584 -0.013043138 -0.026559772 -0.0016828962
000300 1a 7a 1f 3d f1 78 46 bc 1f db ad bc 6e f9 c9 bc
       0.038934804 -0.012113796 -0.02122265 -0.02465507
000310 a1 52 1f bc 11 7c 00 3c ff 4c 72 bd d3 97 75 bd
       -0.00972429 0.00784208 -0.05915546 -0.059959244
000320 56 4d e3 bc d3 39 12 3d 58 83 bf bb 72 7b 58 bb
       -0.027746838 0.035699677 -0.005844515 -0.0033032564
000330 ed 31 dd bc 66 e7 b1 bc 8d 0b 70 bd e5 79 9f bc
       -0.027001346 -0.021716785 -0.058604766 -0.019467304
000340 b5 e8 58 bc 58 2e 64 bd 87 db 3a bb 71 cb fd bc
       -0.013239075 -0.05570826 -0.0028512196 -0.030980797
000350 65 e9 bb 3c b0 94 a8 bc a1 b8 c8 bc 53 d8 f0 bc
       0.02293844 -0.020578712 -0.0245021 -0.029400026
000360 3b 36 ec 3b b6 6f 5b bc 93 25 95 bb 4b 9a 23 3c
       0.007208613 -0.013393333 -0.0045515983 0.009985517
000370 34 87 83 3a 49 d0 c2 3c e2 93 22 3d 22 3b d8 3c
       0.00100348 0.023780959 0.039691813 0.026395384
000380 79 14 19 3d f0 c3 ea bc d2 63 f5 3c 1d 51 a8 3c
       0.03737304 -0.028657883 0.029954825 0.02054649
000390 56 5c 46 3d 8b 3c 74 3d 80 b8 bb bc 0f 1d 24 3c
       0.048427902 0.05962805 -0.022915125 0.010016694
0003a0 5b 83 51 3d 6c 9c f3 bb 66 7b 92 bc c7 18 d1 3c
       0.05115066 -0.0074344184 -0.017881107 0.02552451
0003b0 ca 6a d2 bb 1b d0 e5 3c f8 45 d1 3c 4f 08 63 bb
       -0.0064214217 0.028053334 0.025546059 -0.0034642403
0003c0 29 bf 4f bd 74 d3 4b bd c8 83 4e 3d 11 5b 25 3c
       -0.050719414 -0.049762204 0.050418645 0.010092513
0003d0 2d 54 6e 3b 25 8e 87 bb d1 ab e3 bc d8 25 28 bc
       0.003636609 -0.004136818 -0.02779189 -0.010262929
0003e0 65 55 57 bd d5 9d 9b 3c e1 dc a6 bd 0a 3d 5c 3c
       -0.052571673 0.018996159 -0.08147598 0.013442287
0003f0 08 d1 c2 ba 54 5a 96 3c d2 0e c0 3b 92 a3 34 3d
       -0.0014863322 0.018353619 0.0058611417 0.044101305

move_mean.bias f4 [2]
000000 c3 b0 3a bd de a7 39 bd
       -0.04557873 -0.045326106

food_logits.weight f4 [3, 128]
000000 92 04 75 bd c3 6e da 3c 11 9b 86 3d 87 bf 03 bd
       -0.05981881 0.026664143 0.06572545 -0.032165077
000010 b6 45 69 3d 67 be ea bc df 16 53 3c c5 35 32 3d
       0.056951247 -0.028655244 0.012883871 0.04350831
000020 78 0b e2 bc 03 e7 fb bc 42 05 35 3d 21 f2 d4 bc
       -0.02759336 -0.030749803 0.044194467 -0.025994362
000030 82 56 84 bd 76 4f 56 bd 25 18 97 3b 88 c3 2e 3d
       -0.064618126 -0.052321874 0.0046110325 0.042666942
000040 72 5f 00 bd ba 1f 53 3d 27 53 80 3d 63 6f 99 bd
       -0.031341024 0.05154393 0.0626586 -0.074919485
000050 35 6a 87 3d ce cc c6 3c 98 f3 62 bd 9d 4b 70 b9
       0.06612054 0.02426758 -0.05540809 -0.00022916352
000060 5e 8e f6 bc 24 ad 48 3d 4d ac 88 3d 99 65 5d bd
       -0.030097183 0.048993245 0.06673489 -0.05405197
000070 fc a5 f0 3b 6b 07 87 bc 0e 4a 2d bd e1 66 0c 3c
       0.0073440056 -0.01648303 -0.042306952 0.00856945
000080 10 02 33 3d 82 15 fc 3c 5a 67 91 3c 98 8f 09 bd
       0.04370314 0.030771974 0.017749477 -0.033584207
000090 76 aa a2 3d 1a d0 84 3b d2 5d 2c 3d 1d 35 78 bd
       0.07942669 0.004053128 0.04208166 -0.060597528
0000a0 c2 a6 8e bd 68 01 e8 3c 87 01 80 3d 2b 74 50 bb
       -0.069654 0.028320983 0.06250291 -0.0031807523
0000b0 09 a7 1d 3d cf b3 49 3d cf 70 05 bd 28 ba ab 3d
       0.038489375 0.049243744 -0.032578286 0.08385116
0000c0 da 5e 5f 3d 28 63 e2 bc f1 f4 92 bd 8e 40 73 3d
       0.054533817 -0.027635172 -0.07175625 0.059387736
0000d0 38 84 82 3d 6e 01 86 bb 89 50 8a bd 31 4b 2a bd
       0.06372875 -0.004089526 -0.06753642 -0.041575614
0000e0 75 5c f8 bb 56 12 4a bb e0 2d 52 bb b1 db 42 3d
       -0.007579381 -0.0030833683 -0.00320708 0.047572795
0000f0 12 b7 64 bc d3 9c b6 bc 64 7a 4d 3d 71 da f7 bb
       -0.013959663 -0.022291576 0.05016555 -0.007563882
000100 bb 51 9d 3d a2 28 1d 3d 8f 24 89 3d c2 cb 23 3d
       0.076816045 0.03836883 0.06696426 0.03998924
000110 0b 5d f8 bb 9c d7 67 3d 0b 5d 81 3c 3c 68 8f 3d
       -0.007579451 0.056602105 0.015791437 0.07002303
000120 01 2e df bb a9 56 af 3c 08 40 9d 3c bc e9 5b bb
       -0.006810904 0.021403627 0.019195572 -0.0033556065
000130 55 88 7d 3d 0e 1a 6c 3d 28 db 6e 3d 25 e8 8e 3d
       0.061897594 0.057642035 0.058314472 0.06977872
000140 a5 bb 4a 3d a8 e7 9d 3d 0c d5 81 3d eb a4 4d 3d
       0.049495358 0.077102005 0.063394636 0.050206106
000150 01 2b 24 3b 0c e3 5a bd 67 56 2f 3d 8c 35 ab 3d
       0.0025050046 -0.053439185 0.04280701 0.08359823
000160 eb 06 04 bd 74 45 24 3d ed ab fc bc 38 29 9c bc
       -0.03223316 0.0401053 -0.0308437 -0.019062623
000170 e3 56 62 3d 1c 25 0c 3d 64 63 54 bd 69 a4 e9 bc
       0.055258643 0.034215078 -0.0518526 -0.02852078
000180 bc c1 d7 bb ba ab 00 3c 76 d2 7a bd b8 c6 f2 bc
       -0.0065843742 0.007853443 -0.061235867 -0.029635772
000190 23 90 9b bd 9d 77 27 bd a2 9f d7 3c 2a 6d 98 bc
       -0.07595851 -0.040885556 0.026321236 -0.018606741
0001a0 32 79 9a bd f7 b8 52 bd 8f f7 8c bd b1 19 94 3d
       -0.075426474 -0.051445927 -0.068831556 0.07231463
0001b0 f1 8d 7c bb 5a 68 70 3d 9f b5 8a bd 4c 08 f5 3b
       -0.0038536752 0.058693267 -0.06772923 0.0074777957
0001c0 a5 ec 8d bd c1 47 e0 bc 5d 86 4a 3d f2 11 88 3b
       -0.06929902 -0.027377965 0.049444545 0.00415253
0001d0 72 6a c4 3c 68 4c 63 39 ce 2c a6 bc 82 ce b4 3c
       0.023976538 0.0002167687 -0.020285036 0.022071127
0001e0 c4 78 96 bd ab 4a e4 3c 29 d2 b5 bc a6 9b 7b bd
       -0.07347253 0.027867636 -0.022194939 -0.061427735
0001f0 90 56 72 3c a7 38 20 3d b9 a7 b8 3c e4 6c 6b 3d
       0.014791146 0.039116528 0.022540914 0.057476893
000200 87 4d 35 bd 76 1d 41 bb f1 f3 29 bd ca a3 0c bd
       -0.04426339 -0.0029467023 -0.041492406 -0.03433589
000210 9a d4 dd bc 10 a5 1e 3d 5b 89 82 3c ac af 79 3d
       -0.027078915 0.038731635 0.015934637 0.06095855
000220 d9 d7 52 bc dc 84 d3 bc 1b 15 e1 bc 75 c1 25 ba
       -0.012868845 -0.025820188 -0.027475884 -0.0006323078
000230 6f 1d 91 3c 19 0b c0 3d b8 69 ed bb a4 5c e3 b9
       0.01771423 0.09377117 -0.0072452687 -0.00043365837
000240 2d 4f 1e 3d 03 1f 42 bd c9 fc 9a bc 37 6f a8 bd
       0.038649727 -0.047392856 -0.018919365 -0.082243375
000250 de e0 b0 bc 89 c2 4d 3d d9 4b 02 bc b1 16 5e bd
       -0.0215916 0.05023435 -0.007952654 -0.05422086
000260 7b 64 aa 3c 45 01 86 3d 2a 51 a6 bb 03 8e 41 bd
       0.020799866 0.06543211 -0.0050755935 -0.047254574
000270 6d ee f4 3a 32 31 8f bc 03 b9 b8 bc 4a b4 25 3c
       0.0018686779 -0.017479513 -0.022549158 0.010113785
000280 ec b2 38 3d f2 1e 2a 3d f8 cb 4b 3d 8e 4a 35 bd
       0.04509251 0.041533418 0.049755067 -0.044260554
000290 c5 d6 59 3d e3 94 9b 3d 23 c1 7c 3a 37 88 57 bd
       0.053183336 0.07596757 0.0009641817 -0.05262014
0002a0 11 9d 84 3c 95 ad 9d 3c 0b cf e6 bc d1 07 33 bc
       0.016188176 0.01924781 -0.028174898 -0.010927157
0002b0 9a a4 ca bc 77 a8 9c 3d 30 73 d5 bc 7b 00 7f 3d
       -0.024736691 0.076493196 -0.026055902 0.062256318
0002c0 67 b5 dd bc 06 f8 9a 3c df 7d 9e bd db 99 d6 bc
       -0.027064038 0.018917095 -0.07738852 -0.02619641
0002d0 33 89 90 3c 46 5d 97 3d 3c c2 b7 bc 3d 8c 93 bd
       0.017643547 0.07390837 -0.022431485 -0.07204483
0002e0 52 e1 70 3d c9 ea b0 3c 95 bc 61 3d 8a 2b 46 3d
       0.058808632 0.02159633 0.055111486 0.048381366
0002f0 9a 04 5c 3d 08 8d f1 3a 7b 4a 49 3d f7 06 ed 3c
       0.053715326 0.0018428871 0.049143296 0.028933985
000300 e3 94 83 3d 02 aa 8a 3d 60 67 65 ba f5 93 c3 39
       0.06424882 0.06770708 -0.0008751061 0.00037303535
000310 f4 5d 0b 3d a1 02 62 3b 0a 71 40 bb da 8b a4 bd
       0.034025148 0.003448643 -0.0029364252 -0.08034487
000320 19 a8 5c bd fe 4a d3 3c 9d 48 b5 3d 90 28 48 bd
       -0.053871248 0.025792595 0.088517405 -0.04886681
000330 4c c0 09 bd b2 5b fa 3a 31 ba aa 3d f6 69 47 3d
       -0.033630654 0.0019100814 0.083362944 0.048685037
000340 7c 8a 79 3c 34 96 2b bd 81 e7 80 3d ae ee 94 3d
       0.015230771 -0.04189129 0.06294156 0.07272087
000350 7f b2 7b bd 79 3a 76 bd 02 6d 96 3c bf bc 8c 3b
       -0.061449524 -0.060114358 0.018362526 0.004294961
000360 f0 94 79 bd 26 7f ab bc d7 27 9a bc 49 33 a3 bd
       -0.060933053 -0.020934653 -0.018817825 -0.07968766
000370 b9 bc b4 3c a3 ce 79 3d a9 ce f7 3b 27 69 10 3d
       0.022062646 0.06098808 0.0075624776 0.03525653
000380 34 db 87 bd b7 b8 1f bd fd 92 6f 3d 04 53 16 bd
       -0.066336066 -0.038994517 0.05848979 -0.036700264
000390 2c 26 ba bd 79 dc 79 bc 25 58 c3 3d 3a d8 31 bd
       -0.09089312 -0.015250319 0.095382966 -0.0434191
0003a0 4b d9 94 3d 22 5c 44 bd 32 03 69 3c 54 bb 6a 3a
       0.07268008 -0.047939427 0.014221953 0.00089543057
0003b0 96 5e f8 b9 8c f5 06 3d b3 31 b9 bc 6c b5 81 3c
       -0.00047372718 0.032949015 -0.022606706 0.015833579
0003c0 62 85 e7 bc eb 51 5b bd e4 bb 23 bd c2 a3 1c 3d
       -0.028261844 -0.05354492 -0.03997411 0.03824211
0003d0 c6 e3 35 3d 03 1a 6e 3c 7c 41 3f bd 75 29 6f 3d
       0.044406675 0.014532569 -0.04669331 0.058389146
0003e0 98 cf a1 bc c8 1a 4e 3d 72 41 7f bd 19 98 27 bd
       -0.019752309 0.05031851 -0.062318273 -0.040916536
0003f0 9b 04 4a 3d 9c 24 ed bc 8e 43 8f bc b4 d2 9a bc
       0.0493208 -0.02894812 -0.017488267 -0.0188993

food_logits.bias f4 [3]
000000 5c 49 d4 bb 81 38 35 bd fa 6f 46 3d
       -0.0064784717 -0.04424334 0.048446633

net.0.weight f4 [128, 17]
000000 50 6b 86 3d 37 7d da bd 2e eb 0b be ac 0d 77 bf
       0.06563437 -0.10668414 -0.13663933 -0.96505237
000010 87 e2 ac 3e 0c ad 79 be 10 42 af be 7e fe c5 3d
       0.33766577 -0.24382418 -0.3423009 0.09667681
000020 83 9b 0c be a7 f1 05 3e 26 3c 66 3d 6a 47 b1 bd
       -0.13731198 0.13080464 0.056209706 -0.08656199
000030 f1 ee 54 3e 9a 45 e9 3c 70 23 0b bd cc 40 37 3e
       0.20794274 0.028475571 -0.033969343 0.17895812
000040 e1 27 54 3d d8 6f 28 3d b5 89 10 be d2 77 46 be
       0.051795844 0.041122288 -0.14115031 -0.19381645
000050 b1 30 93 3e c7 31 05 bd 6e d4 6e be 33 a1 cc 3d
       0.28748086 -0.032518174 -0.23323223 0.09991684
000060 80 3d 51 3d 75 1e 9c 3e f3 68 81 3c b8 15 4b be
       0.05108404 0.30491987 0.015797114 -0.19832504
000070 2a 47 2c be ef b5 61 be a5 6f 00 bd 64 9d 47 3e
       -0.16824022 -0.22042058 -0.031356473 0.19493634
000080 ea 96 55 bd 8c 49 b6 3d bf 7c a8 bd 77 4f fd 3d
       -0.052145876 0.08900747 -0.082269184 0.12368672
000090 29 2c 1c bd a7 95 17 3e 2e 8d cd be ce 5a f3 3d
       -0.038128052 0.14803182 -0.40146774 0.11882554
0000a0 9b 2d f8 3d 5a a4 8b 3d 90 8d 43 bd 82 1e 3b 3e
       0.121180736 0.06818457 -0.047742426 0.18273357
0000b0 2d a3 77 3e 04 33 f9 3d e5 32 0e 3e 38 c0 46 3e
       0.2418334 0.121679336 0.13886602 0.19409263
0000c0 cc 48 48 be 43 9e 4a bd 7f b7 42 3d 1f 0b cb bc
       -0.1955902 -0.049467336 0.047538277 -0.024785576
0000d0 0b f3 da bd 7d 6f a5 3e 5f b3 a0 be 6c 73 12 be
       -0.10690888 0.3231162 -0.3138685 -0.14301842
0000e0 cd b3 b9 bd 95 e3 5f 3e 1c 69 3b be 45 10 60 3e
       -0.090674974 0.2186416 -0.18301815 0.21881206
0000f0 ad 20 bf 3c d9 5d 80 be bd 74 85 be 70 bc 8a be
       0.02333101 -0.250716 -0.26065627 -0.2709689
000100 3a a1 32 be 22 80 99 3d ff 99 a4 bd ee 97 61 3e
       -0.17444316 0.074951425 -0.08037185 0.22030613
000110 f8 47 79 3e 6c 4c b4 bd 1c 80 3e 3b 98 d2 0b bf
       0.2434386 -0.08803639 0.0029068058 -0.54618216
000120 b3 38 33 be 72 52 9b 3d 8d 33 1f be a8 70 46 be
       -0.17502098 0.075840846 -0.15547009 -0.19378912
000130 f0 48 88 be f4 77 0c be be 69 2c be 20 cb d2 3d
       -0.26618147 -0.13717633 -0.16837212 0.10292649
000140 e8 49 3a be 76 2d 40 3e 60 ff 16 bc bd e7 89 bd
       -0.18192255 0.18767342 -0.00921616 -0.06733654
000150 9e 4b 61 be 6e ba 49 be 63 ec 4c bd 43 67 01 3e
       -0.22001502 -0.19700024 -0.050030123 0.12637047
000160 75 40 74 3d 7c 30 18 3d f2 5a 97 be 6b e2 80 be
       0.059631784 0.037155613 -0.29561573 -0.25172743
000170 72 7b b9 bd 99 5d 65 be 79 2b 3c be 8d 55 24 3e
       -0.090567484 -0.22398986 -0.18375959 0.1604826
000180 41 44 df bc a7 23 64 be 36 02 a2 3d 30 bb e9 bd
       -0.027254226 -0.22279225 0.07910578 -0.11412656
000190 04 1f 14 be bd 75 97 bc 04 d3 44 bd d1 fc fe bd
       -0.14464957 -0.01848876 -0.048052803 -0.12450565
0001a0 56 4c 20 be e8 49 af 3f 68 4a bd be 8a b6 9a bd
       -0.1565412 1.3694429 -0.3697083 -0.07554348
0001b0 11 70 3b 3e 06 b5 2c 3e ec ec 14 3e dd 4b c7 bb
       0.18304469 0.1686593 0.14543504 -0.0060820417
0001c0 01 de 2d 3e 4a bc bb 3b f8 78 82 bc c4 97 6d bd
       0.16979219 0.005729233 -0.015926823 -0.058006063
0001d0 c9 b3 41 be 93 c5 ea bd d8 54 09 3e f5 8d 65 3e
       -0.18916239 -0.114634655 0.13411272 0.22417434
0001e0 af 61 7e 3d 58 82 4e be 78 36 9e bf 55 f2 19 3e
       0.062104877 -0.2016691 -1.2360373 0.15033849
0001f0 c3 97 68 3e df 0c de 3b 2a 19 99 3e 99 ed 2d 3e
       0.22714143 0.0067764367 0.2990201 0.16985168
000200 c0 08 1a 3e d2 4a 38 bc 72 df 12 bc 05 1b 63 be
       0.150424 -0.011248307 -0.008964406 -0.22178276
000210 46 2a 8f bd 4a 42 e2 3d cc 83 a2 3d f0 03 ba bd
       -0.06990485 0.110478 0.079352945 -0.09082782
000220 86 64 70 bc 53 4b ce bd 4d 72 be bc b5 1e b8 be
       -0.014672404 -0.10072961 -0.023247862 -0.35960928
000230 01 2f 28 3d dc 47 64 3e ea 88 4b 3e 05 06 4b 3d
       0.04106045 0.22293037 0.19876447 0.049566288
000240 2d 39 12 3d 68 a3 f0 3d e0 50 00 3e a4 b7 39 be
       0.03569906 0.11749917 0.12530851 -0.1813646
000250 e3 fc 09 3d 17 ad 08 3e e1 4b 6f 3e 77 3f 08 be
       0.033688437 0.13347279 0.2336879 -0.1330546
000260 5f 80 3c be 72 bd 54 bc ed b2 29 3e 91 57 64 3d
       -0.18408345 -0.01298462 0.16572161 0.055747572
000270 c6 c8 9d 3f a4 0d 46 3e 07 92 38 be fc f1 88 3c
       1.2326896 0.19341141 -0.18024455 0.01671695
000280 d4 e9 2c bc 82 37 4a bc 3e e5 45 3d 35 49 5e 3d
       -0.010553796 -0.012342336 0.048314326 0.054269034
000290 6a 87 0f 3e 82 7d 2b be 84 46 87 bd a7 71 73 3e
       0.140165 -0.16747096 -0.06605247 0.23773824
0002a0 db d8 28 3e a7 9f d1 bc c1 a3 57 3e d3 b2 f4 bd
       0.16488974 -0.025588823 0.21058561 -0.119481705
0002b0 eb ae a2 bd 9b bd 79 3f 6f 27 43 3e 77 a6 a0 bd
       -0.07943519 0.9755494 0.19058011 -0.07844251
0002c0 3a ca f0 3b bd 00 56 bd 4c cc e9 3d a0 10 40 be
       0.007348326 -0.052246798 0.1141592 -0.18756342
0002d0 35 21 4b be ef 58 da 3c 93 31 07 3e 27 aa 79 3e
       -0.19836886 0.026653735 0.13202505 0.24381314
0002e0 9d 7c 07 3e 10 54 92 3d 72 e6 32 be 3c 04 18 3e
       0.1323113 0.0714494 -0.1747072 0.14845365
0002f0 43 26 36 be 75 d8 ae 3e 06 32 91 3d a8 13 44 be
       -0.17788033 0.3414952 0.07089619 -0.19148123
000300 0b bf ab 3d 09 4d c3 3d ef 3d 05 3e c9 1c 36 3d
       0.08386048 0.09536178 0.13011907 0.044461045
000310 60 95 a9 3c d7 e6 4a be 41 ec 8b bd f5 80 3c 3e
       0.02070111 -0.19814621 -0.06832171 0.18408568
000320 3d f5 d2 3d 7f fd eb 3c ed 9e e3 bd 6c db 51 bd
       0.10300682 0.0288074 -0.11114297 -0.051234648
000330 f7 1a 23 3d ab ea f4 3d 1e 84 5c 3b 6d d9 97 3f
       0.039820638 0.11958822 0.0033648084 1.1863228
000340 dc c5 0d be c3 6a af 3d c2 32 aa bb 8c 5d 01 3e
       -0.13845009 0.08565285 -0.005194039 0.12633342
000350 51 2a 3b be 30 a3 8d 3c 77 2e 6f 3e 93 55 00 be
       -0.18277861 0.017289728 0.23357569 -0.12532644
000360 cf 8c f8 3d 37 6b 05 3d f5 0c ef bd e1 1b 0e 3e
       0.12136232 0.03257295 -0.11672393 0.13877822
000370 cf c4 3f bd 9e 59 bc bd 5a 26 d4 3c 82 fa f9 3d
       -0.04681855 -0.091967806 0.025897194 0.12205984
000380 ca 2a 29 be 22 57 c8 3e 66 ac 8b bc f1 d3 b3 3c
       -0.16520229 0.39128977 -0.01704998 0.021951647
000390 83 a5 7c 3e 29 16 07 bd f8 de 06 bd df 3c 5b bd
       0.24672513 -0.032980118 -0.032927483 -0.053524848
0003a0 05 cb f1 bd 34 d5 08 3e 03 34 e0 3d 23 5d 5a 3d
       -0.11806301 0.1336258 0.109474204 0.05331148
0003b0 ca 44 f2 3c 7c c8 0a be 2a 26 42 be e2 e4 bb 3d
       0.029573817 -0.13553041 -0.18959871 0.09174515
0003c0 18 35 2c bd 43 e0 cc 3f 1e c7 25 3e 49 c2 52 bb
       -0.04204282 1.6005939 0.16189238 -0.003215926
0003d0 86 53 6e be a3 d0 9b 3d cb c4 79 3e 37 e6 dc 3d
       -0.23274049 0.07608154 0.24391477 0.107860975
0003e0 c7 ea 70 be 8d 00 e4 bd 31 44 68 3d 62 97 bb 3d
       -0.2352706 -0.111329176 0.056705657 0.09159733
0003f0 f5 21 2f 3e 60 cb 01 be af 54 7e bd 75 2a 29 be
       0.17102797 -0.12675238 -0.06209248 -0.16520102

net.0.bias f4 [128]
000000 07 ee 6a 3e 99 48 ea bb 1b 7b d2 bd 0b 91 05 be
       0.22942363 -0.0071497676 -0.10277387 -0.13043611
000010 0b 47 e0 bc 1f 73 36 3e dc c3 7f be 0a 7c 80 3d
       -0.027377626 0.17817353 -0.24977058 0.062736586
000020 11 06 5a be ff d3 7f be b4 ad b8 3d 00 e2 68 3c
       -0.21291377 -0.24983214 0.09017506 0.014214039
000030 28 5a ac 3d 52 89 d9 3c 4c 43 b0 bd d4 18 b0 3d
       0.084156334 0.026554737 -0.08606586 0.085984856
000040 47 19 fa bd 4e 65 07 3d b5 6a d5 bd 52 3b f7 bd
       -0.122118525 0.033055596 -0.104207434 -0.12071861
000050 71 45 80 be 5b 11 35 be 8b ab 11 3e 66 be 74 3e
       -0.2505298 -0.17682402 0.14225595 0.23900756
000060 3f 15 16 be 96 0e 61 bc 2f 8a 50 be 9a 4a dc 3d
       -0.14656542 -0.013736388 -0.20365213 0.107564166
000070 6f d5 1b be cb 12 2e 3e bb 11 e4 bc 47 95 16 3e
       -0.15218137 0.16999356 -0.027840486 0.14705382
000080 0d 25 1d 3d fb 4d cf 3d b7 5b 25 3e 92 b1 bf 3c
       0.038365413 0.101222955 0.16148268 0.023400102
000090 e5 cb 80 bd a9 20 13 be 67 3d 56 be d6 5d 85 bb
       -0.0628889 -0.14367928 -0.2092186 -0.004070024
0000a0 9e 31 0e be 47 c4 67 be 1e c0 8e bd 30 df 45 3c
       -0.13886115 -0.22633468 -0.06970237 0.012077138
0000b0 5f 7e 01 3d 2a 89 22 be 40 8b 6c be 6b d3 83 bd
       0.031614657 -0.15872636 -0.23099995 -0.06436809
0000c0 07 f2 a2 bd e9 30 14 3e e7 48 19 be f1 f5 77 be
       -0.07956319 0.14471783 -0.14969216 -0.24214913
0000d0 30 98 85 3e af 55 b8 3d db 3e 5e 3e 02 ce 70 be
       0.26092672 0.09000718 0.21703665 -0.23516086
0000e0 5f ac d8 3d 20 a1 5f 3c 27 5e 66 3c 4f 42 16 3d
       0.10579752 0.013649255 0.014060534 0.03668433
0000f0 a1 5f a0 3d 8c 8d 94 3c a0 bc 4f be 44 d5 33 3e
       0.0783074 0.018133901 -0.20286798 0.17561823
000100 fe a7 ac 3d 6e 64 7b be 52 6c 65 be e9 10 48 3e
       0.084304795 -0.2455003 -0.22404602 0.195377
000110 7e bc 0f 3e 97 ec 73 be 75 fe 1d 3c ed 3f 87 be
       0.14036748 -0.2382072 0.009643187 -0.2641596
000120 de 69 27 3d ef 65 96 be 79 fe 66 3e 94 d6 0f bd
       0.040872447 -0.29374644 0.22558011 -0.035116747
000130 de 8f 20 3e 10 cb 86 3c b5 b6 6c 3d 6c b2 21 3e
       0.15679881 0.01645425 0.05779143 0.15790719
000140 b1 53 85 3d e0 1e 2d 3e 86 c3 ff 3d 1c 2f 59 3e
       0.065101035 0.16906309 0.12488465 0.21209377
000150 1b 97 53 3d 8b 0f af 3d 28 9c 3f be c7 c1 47 be
       0.051657777 0.085478865 -0.18711913 -0.19507514
000160 e3 4a 16 be fb 20 c4 3d a2 06 ae 3d cd 4a 3b bd
       -0.14677005 0.09576603 0.08497359 -0.045725632
000170 bf 4c 0c 3e d9 86 86 3d 99 76 eb bd 1f 3d 73 3e
       0.13701151 0.06568689 -0.1149723 0.23753785
000180 7d 40 33 3e 05 e4 7a be 84 96 34 be 72 09 36 3d
       0.17505069 -0.24501045 -0.17635542 0.0444426
000190 86 d8 3c 3d 18 fc 29 be b7 7e d9 bc 40 07 af 3d
       0.04610493 -0.16600072 -0.02654968 0.08546305
0001a0 61 cd 16 3e 53 b7 ba bd 53 a0 07 be 7f 4a cf bd
       0.14726783 -0.091169976 -0.13244753 -0.10121631
0001b0 25 6d 89 be dd de f7 3d 7c 5a 90 bd f8 d6 80 3e
       -0.26841083 0.12103055 -0.070485085 0.25164008
0001c0 71 b6 25 bc 9e 8c a2 3d 39 8a ff bd b1 8c 91 be
       -0.010114298 0.07936977 -0.12477536 -0.28427652
0001d0 1c 5d 26 be 29 70 89 3d 85 ef e8 bd 8b 22 4a 3e
       -0.16246456 0.06710846 -0.1137381 0.1973974
0001e0 e0 7f 03 bd ef 28 c1 bc 29 55 49 be 45 59 3f 3e
       -0.032104373 -0.023579089 -0.19661392 0.18686397
0001f0 fc 62 04 be 83 dd 13 3b 76 b1 2e 3e cf 2a d3 3d
       -0.12928385 0.0022562451 0.17059883 0.103108995
