src/training_logs_ppo/initial/ppo_checkpoint_272_1764188535.pt (torch, 480155 bytes, 42 tensors)

move_logstd f4 [2]
2.1919713 1.9526099
00000000: 4249 0c40 1fef f93f

shared.0.weight f4 [128, 17]
0.14212634 -0.15237798 -0.31782365 0.16112447 0.1648843 -0.18747127 -0.14785092 0.097983435
0.2188117 -0.19549476 0.1336534 -0.1899396 -0.07533521 -0.10085823 0.0124943275 0.11922313
-0.079810694 -0.07420667 -0.07786731 -0.0020550825 0.07299096 -0.31290844 0.21212058 -0.1942223
-0.021215066 -0.06922801 -0.33842352 -0.14735521 -0.020854095 0.20936014 0.012678663 0.064018466
-0.0846129 -0.14078616 0.22633216 0.24602881 0.064388216 0.058144107 -0.3587231 -0.14064032
-0.023938216 -0.16982946 0.015343007 -0.069093056 -0.0694887 -0.04226805 0.18397473 -0.11412612
0.21313207 0.022871327 0.084149145 0.039424825 -0.06226977 -0.3565033 -0.0019442259 0.052256107
0.2132027 0.12831387 0.05745041 0.14330429 -0.1373285 0.0049489657 -0.03235528 -0.05151305
-0.094483525 -0.009641866 -0.19968794 0.16633627 0.08243262 0.13521826 -0.3169078 0.1223052
-0.017609788 0.11884719 -0.034731057 0.11791247 -0.21798535 0.16138504 0.056269616 0.1312217
0.095308356 -0.047049552 0.021971853 -0.028958857 0.11225266 -0.13883395 0.03318493 -0.15165545
-0.2647243 -0.2506397 -0.0058142343 0.2414667 -0.17469442 0.26110342 -0.017531736 0.13101596
0.123818785 0.107972026 -0.03285897 -0.11897867 -0.032501306 -0.019508258 0.041939594 -0.012198379
-0.14017695 0.122030266 -0.0022606235 0.028580986 -0.3179747 -0.09784437 0.29008415 -0.0035810927
-0.2627947 -0.121029526 0.049548116 -0.052278265 0.07821426 -0.14131977 0.011529351 -0.17092678
-0.00881548 0.123917244 0.039255966 0.011290723 -0.22765602 -0.098267354 0.17680414 -0.18226698
-0.117016524 -0.06623727 0.0030172786 -0.11117476 -0.13603678 0.15017588 0.039723072 0.007940888
-0.08139816 0.08272445 -0.05503133 -0.085752204 -0.056556866 -0.19170392 0.02005803 0.1510318
0.14577374 -0.24515316 0.06753188 -0.11374212 0.07341628 -0.10245672 -0.19104418 0.048758272
-0.115650915 0.123675235 -0.0136626735 0.13619383 -0.23332742 -0.35682 -0.006992897 -0.062431112
0.15903898 0.17005889 0.20126875 -0.039032493 0.095590495 -0.19804561 -0.08858787 0.09600581
0.052557223 0.07970222 -0.10651589 0.159287 -0.11576481 -0.018533217 -0.21676455 0.25646752
-0.058153864 -0.28668672 -0.1645864 -0.119985804 0.27953556 -0.11108962 -0.19954348 0.06673973
0.03305939 0.06507597 -0.10135755 -0.080533855 -0.16562614 0.04010628 -0.28950533 0.0608403
0.14131284 0.24273682 0.2046545 -0.054177497 -0.13137344 -0.26022533 0.11349754 -0.089485906
-0.033101827 -0.059530653 -0.10474655 -0.037977133 -0.016979484 -0.16666548 -0.17877151 -0.11173437
-0.08593723 -0.22898366 0.17964078 -0.050409418 -0.12742628 0.08056718 -0.14097223 -0.056076866
-0.13101888 -0.023590308 0.02595726 0.003943501 -0.034817807 0.1644638 0.046024393 -0.22928888
0.066127926 -0.07580875 0.23187323 -0.14184111 -0.12542723 0.21135838 -0.046398703 -0.092947856
0.07652751 0.059181765 0.06908353 -0.053638916 0.10215725 -0.06779825 -0.05274599 -0.013460031
-0.065011375 -0.18491581 -0.13879386 -0.2760606 0.079030916 -0.19502117 0.3100007 0.12473829
0.059380036 0.01168763 0.012619153 0.045221087 0.25508642 -0.17616524 -0.08781725 -0.025255242
00000000: 9189 113e f908 1cbe c8b9 a2be d0fd 243e
00000010: 6ed7 283e 78f8 3fbe 3b66 17be 8aab c83d
00000020: 2d10 603e c72f 48be 70dc 083e 877f 42be
00000030: 5949 9abd c28e cebd 02b5 4c3c 422b f43d
00000040: ca73 a3bd abf9 97bd e578 9fbd 90ae 06bb
00000050: 497c 953d 8935 a0be 2336 593e 36e2 46be
00000060: 38cb adbc 6ac7 8dbd d945 adbe 49e4 16be
00000070: 35d6 aabc 8162 563e 2bba 4f3c 1d1c 833d
00000080: 8749 adbd 3f2a 10be 9ec3 673e faee 7b3e
00000090: f8dd 833d 8428 6e3d 8eaa b7be 0404 10be
000000a0: 141a c4bc c6e7 2dbe 3c61 7b3c a980 8dbd
000000b0: 1750 8ebd 4321 2dbd df63 3c3e f5ba e9bd
000000c0: 4b3f 5a3e a65c bb3c 6356 ac3d ed7b 213d
000000d0: 960e 7fbd 9a87 b6be 65d5 feba 800a 563d
000000e0: cf51 5a3e b664 033e 1f51 6b3d 5cbe 123e
000000f0: d89f 0cbe ef2a a23b f886 04bd 59ff 52bd
00000100: 9480 c1bd ebf8 1dbc ff7a 4cbe 0e54 2a3e
00000110: 6fd2 a83d a876 0a3e bd41 a2be 267b fa3d
00000120: 6742 90bc 2866 f33d 2742 0ebd 187c f13d
00000130: 8d37 5fbe 1f42 253e f87a 663d fb5e 063e
00000140: 0731 c33d 08b7 40bd 51fe b33c 203b edbc
00000150: b9e4 e53d 7d2a 0ebe ecec 073d 914b 1bbe
00000160: f289 87be d953 80be 5585 bebb 0c43 773e
00000170: 18e3 32be 59af 853e b79e 8fbc 0c29 063e
00000180: b494 fd3d 7020 dd3d 2197 06bd 17ab f3bd
00000190: 1720 05bd c8cf 9fbc dac8 2b3d b6db 47bc
000001a0: 8c8a 0fbe 01eb f93d f826 14bb ac22 ea3c
000001b0: 94cd a2be a162 c8bd e985 943e c4b0 6abb
000001c0: 078d 86be 54de f7bd f7f2 4a3d bc21 56bd
000001d0: cc2e a03d 21b6 10be 9ae5 3c3c 6e07 2fbe
000001e0: ce6e 10bc 53c8 fd3d ddca 203d bafc 383c
000001f0: a91e 69be 6540 c9bd 250c 353e 32a4 3abe
00000200: 5ca6 efbd 68a7 87bd 89bd 453b 98af e3bd
00000210: 3a4d 0bbe b5c7 193e a9b4 223d 801a 023c
00000220: 14b4 a6bd 706b a93d 8868 61bd da9e afbd
00000230: 2ca8 67bd 084e 44be bd50 a43c 15a8 1a3e
00000240: b645 153e 6e09 7bbe 284e 8a3d a1f1 e8bd
00000250: 465b 963d d4d4 d1bd 16a1 43be c1b6 473d
00000260: 63da ecbd 7149 fd3d 68d9 5fbc 6576 0b3e
00000270: 62ed 6ebe 1cb1 b6be ac24 e5bb c4b7 7fbd
00000280: 1ddb 223e eb23 2e3e 6519 4e3e 89e0 1fbd
00000290: f3c4 c33d 78cc 4abe 8f6d b5bd b29e c43d
000002a0: 3e46 573d eb3a a33d 0125 dabd 221c 233e
000002b0: 1a16 edbd f9d2 97bc 87f7 5dbe b64f 833e
000002c0: bf32 6ebd 9ac8 92be 5689 28be 1ebb f5bd
000002d0: 491f 8f3e f482 e3bd 2055 4cbe d7ae 883d
000002e0: 4869 073d 8d46 853d 8c94 cfbd efee a4bd
000002f0: e699 29be 7c46 243d 0b3a 94be ae33 793d
00000300: 50b4 103e 0090 783e f390 513e 39e9 5dbd
00000310: c286 06be 413c 85be 6671 e83d 6344 b7bd
00000320: c895 07bd 6ad6 73bd 5c85 d6bd e98d 1bbd
00000330: 8f18 8bbc 5baa 2abe e10f 37be fdd4 e4bd
00000340: dcff afbd b17a 6abe c1f3 373e 1b7a 4ebd
00000350: 097c 02be 6800 a53d 065b 10be dbb0 65bd
00000360: d029 06be 7640 c1bc 52a4 d43c 7c38 813b
00000370: 1e9d 0ebd 3369 283e 1384 3c3d b4ca 6abe
00000380: 146e 873d 9e41 9bbd 2d70 6d3e cc3e 11be
00000390: ff6f 00be 556e 583e 910c 3ebd 725b bebd
000003a0: 75ba 9c3d 9468 723d aa7b 8d3d 7bb4 5bbd
000003b0: d237 d13d cfd9 8abd 2e0c 58bd 7687 5cbc
000003c0: af24 85bd 925a 3dbe fa1f 0ebe d157 8dbe
000003d0: f6da a13d a1b3 47be 69b8 9e3e ca76 ff3d
000003e0: 7b38 733d 797d 3f3c 90c0 4e3c bf39 393d
000003f0: b09a 823e a964 34be 88d9 b3bd 15e4 cebc

shared.0.bias f4 [128]
-0.089379855 -0.3550121 -0.13325481 -0.22255524 -0.13555251 -0.04241043 -0.052420046 0.14337516
-0.34433502 -0.1331055 0.102488175 -0.27064553 -0.03706952 -0.13938217 0.015636783 -0.12980972
-0.16353263 0.2915487 0.09250759 -0.29012257 -0.13143782 0.00025508302 -0.0013000546 0.07196114
-0.088692956 -0.17969686 -0.027136957 -0.08484459 0.032721315 -0.2691888 -0.07610021 -0.26354164
-0.0917355 -0.09422556 -0.25932628 0.025925718 -0.2530826 -0.29701847 -0.04413585 -0.16482285
-0.36808294 -0.24345016 -0.022946544 -0.13311331 0.08700194 -0.36428335 0.17540917 -0.2676127
0.13435303 -0.1711503 -0.30219415 -0.17791319 -0.23916936 -0.12272529 -0.04886787 -0.008297431
0.038493644 -0.22018625 -0.1536992 -0.06299585 -0.06734036 -0.074817315 -0.15536672 -0.15542872
-0.3204492 -0.16687061 -0.26376468 -0.40935373 -0.16930635 0.0039593615 -0.450684 -0.25484696
0.04729477 0.20187674 0.027417488 -0.14020273 0.18492602 -0.31497914 -0.15354629 -0.19348034
-0.18248603 -0.27753726 -0.4996338 -0.17651342 -0.24509971 -0.14907171 -0.056575283 -0.10386742
-0.069361515 -0.23559229 0.034322653 -0.13060637 -0.09428166 0.15380785 -0.2568043 0.10277333
-0.24261265 -0.28319567 0.19752072 -0.18346597 0.23878475 -0.2001064 0.07398123 -0.06118543
0.05916534 -0.12772368 -0.12462015 -0.1157765 -0.04426028 -0.20397387 -0.025492156 -0.2946352
-0.20549275 -0.34185004 -0.0074499915 -0.2588673 -0.19924365 -0.14318393 -0.27439722 -0.100765534
-0.027870584 -0.32208318 -0.12797567 -0.23528464 -0.19353326 0.056398433 -0.39431736 0.0026639323
00000000: c90c b7bd 25c4 b5be f373 08be 85e5 63be
00000010: 47ce 0abe 8fb6 2dbd 67b6 56bd f0d0 123e
00000020: ae4c b0be cf4c 08be 52e5 d13d 0d92 8abe
00000030: 36d6 17bd 33ba 0ebe b618 803c d7ec 04be
00000040: 1975 27be df45 953e 9f74 bd3d f28a 94be
00000050: a397 06be aabc 8539 9866 aaba 5d60 933d
00000060: a7a4 b5bd 7402 38be 534e debc 00c3 adbd
00000070: c906 063d 1dd3 89be 6dda 9bbd eeee 86be
00000080: d2df bbbd 55f9 c0bd 6ac6 84be 2c62 d43c
00000090: 0b94 81be ce12 98be cbc7 34bd 52c7 28be
000000a0: 5e75 bcbe 004b 79be 64fa bbbc db4e 08be
000000b0: 132e b23d 5983 babe 769e 333e 8804 89be
000000c0: d793 093e 0642 2fbe 31b9 9abe e02e 36be
000000d0: d0e8 74be 6657 fbbd ad29 48bd f3f1 07bc
000000e0: 83ab 1d3d 8178 61be 5363 1dbe f803 81bd
000000f0: bee9 89bd d239 99bd 7418 1fbe b528 1fbe
00000100: eb11 a4be 21e0 2abe 2a0c 87be d096 d1be
00000110: a55e 2dbe 88bd 813b 0ec0 e6be 4d7b 82be
00000120: 29b8 413d c7b8 4e3e a49a e03c 4e91 0fbe
00000130: 3f5d 3d3e f244 a1be 3d3b 1dbe b61f 46be
00000140: 9edd 3abe 5d19 8ebe 00d0 ffbe efbf 34be
00000150: 6bfb 7abe 41a6 18be 7cbb 67bd 71b8 d4bd
00000160: 690d 8ebd 1b3f 71be e995 0c3d adbd 05be
00000170: be16 c1bd ce7f 1d3e da7b 83be d37a d23d
00000180: 736f 78be 06ff 90be df42 4a3e 81de 3bbe
00000190: fd83 743e b1e8 4cbe 7983 973d 939d 7abd
000001a0: 5b57 723d ffc9 02be d938 ffbd 3b1c edbd
000001b0: 444a 35bd 87de 50be edd4 d0bc 6dda 96be
000001c0: b16c 52be f806 afbe 0f1f f4bb 418a 84be
000001d0: 8706 4cbe cf9e 12be cb7d 8cbe 295e cebd
000001e0: da50 e4bc 16e8 a4be 0e0c 03be 75ee 70be
000001f0: 952d 46be 0b02 673d f7e3 c9be 5e95 2e3b

shared.2.weight f4 [128, 128]
0.01605237 0.03794639 0.047130205 -0.025068255 0.058487404 0.04515466 -0.044071816 0.034476556
-0.028718727 0.06381761 -0.017070867 -0.07640147 -0.0915703 0.016340116 0.036404572 0.07750631
0.04166653 -0.026390947 0.008376 0.0027133669 0.0118070375 -0.11188946 -0.07181725 0.015431684
0.08288247 -0.08221644 -0.027379602 -0.006474451 -0.12393683 -0.06126345 -0.03046269 0.009029873
-0.0341217 -0.005162363 0.06323839 -0.031673137 0.05483591 -0.10649968 0.047344584 -0.07898418
0.020500747 -0.12808801 -0.088801175 0.030380867 -0.019430706 -0.07851873 -0.068065725 0.024767749
-0.02552617 -0.08295538 0.016443985 -0.069277726 0.025054552 -0.00071547664 -0.030862914 0.037910342
0.04494376 -0.06391042 -0.019933555 0.041930623 -0.032244798 -0.04189379 -0.030931355 -0.073637985
0.054828282 0.043790847 -0.0018077069 -0.023192016 -0.11516869 -0.003538589 -0.049321555 0.01925699
-0.038758952 -0.06947959 -0.05877141 -0.062431067 -0.04582025 -0.10792998 -0.06616374 0.03668046
-0.033604596 -0.03870545 -0.12665273 -0.089070864 -0.04895929 -0.03142164 -0.023612276 -0.16115817
-0.08658493 -0.047421552 -0.0060823923 -0.059877247 0.021865234 0.025639916 0.053744256 -0.050781183
-0.10725876 -0.021040387 -0.06474425 0.032438006 -0.093271255 0.013586497 -0.1694841 -0.11349402
-0.08173875 -0.01217873 -0.090273626 -0.0059912456 0.06047334 -0.07200438 0.03915486 -0.0529657
-0.09631595 0.025365269 -0.010048578 -0.015226989 0.010318047 -0.11233615 -0.09013514 -0.024369093
-0.048436332 -0.068373315 -0.049575645 0.013634896 0.021556003 0.018065726 -0.07018016 -0.025690082
-0.047580026 -0.031603895 -0.11857835 -0.12730843 0.023690125 0.02768651 -0.09441237 0.08003656
0.058446575 0.024273379 -0.068356305 -0.03331311 -0.107129596 0.04110273 0.01819221 0.051295586
0.020148408 -0.0642644 -0.057790875 0.04527511 -0.10361372 -0.042478126 -0.070454925 0.029853864
0.009160958 0.01307084 -0.0013958933 -0.07619901 -0.041545797 -0.05525911 -0.029290186 -0.091514714
0.0027584634 -0.099331446 -0.03806063 0.04787908 -0.10473507 0.0075324643 -0.03452842 -0.109385274
-0.099993676 -0.0034183378 0.03795833 0.0013026905 0.028787408 -0.077377774 0.05939157 0.036447488
-0.014753969 -0.04470717 -0.10046751 -0.07972226 0.040572546 0.024055706 0.04553915 0.0660384
-0.10844473 -0.025115803 -0.06428633 0.0391439 -0.03945757 -0.11905603 -0.06452293 -0.013875327
-0.045563582 -0.08157546 0.026077444 -0.069775395 0.06340036 0.032303356 0.008869723 0.027747529
-0.0810904 0.02987981 -0.10992208 -0.008140621 -0.10404442 -0.0723466 -0.043492775 -0.1391227
0.043170493 0.004517232 0.0006519616 0.019938793 -0.09360819 -0.02523054 0.023142386 -0.03355975
0.08634366 -0.10101905 -0.028992504 0.0036142773 -0.084000826 -0.09656248 -0.07396707 0.02630895
0.0016282683 0.01579645 -0.13656217 -0.15736908 -0.1302626 -0.018807398 0.025773158 -0.08301964
-0.04647305 -0.09914696 0.0627075 -0.05377296 -0.028203826 -0.015271469 0.032358047 -0.05069133
0.08930644 -0.0045810794 -0.015645398 0.0313481 -0.060072772 -0.08370869 0.055472918 -0.06054876
-0.096930295 -0.064690195 -0.10373628 -0.060133282 -0.024288388 -0.09970086 -0.11342984 -0.030148275
00000000: 4380 833c ad6d 1b3d 9a0b 413d f15b cdbc
00000010: 7d90 6f3d 18f4 383d a684 34bd 4a37 0d3d
00000020: 8943 ebbc cfb2 823d 34d8 8bbc 6078 9cbd
00000030: 3689 bbbd b5db 853c f61c 153d a1bb 9e3d
00000040: 86aa 2a3d d431 d8bc 7e3b 093c bed2 313b
00000050: 4e72 413c 4d26 e5bd ec14 93bd 2dd5 7c3c
00000060: 49be a93d 1861 a8bd 304b e0bc a227 d4bb
00000070: 98d2 fdbd 62ef 7abd e48c f9bc 08f2 133c
00000080: 32c3 0bbd 0a29 a9bb 2183 813d b1bb 01bd
00000090: 9f9b 603d 811c dabd 65ec 413d 75c2 a1bd
000000a0: 2ff1 a73c 8129 03be 64dd b5bd 4ce1 f83c
000000b0: 252d 9fbc 6ece a0bd 0b66 8bbd bce5 ca3c
000000c0: 421c d1bc 83e4 a9bd 89b5 863c 7be1 8dbd
000000d0: 343f cd3c d38e 3bba 39d4 fcbc e047 1b3d
000000e0: f316 383d 77e3 82bd b24b a3bc 72bf 2b3d
000000f0: 1f13 04bd d398 2bbd c163 fdbc 83cf 96bd
00000100: 9f93 603d 085e 333d 94f0 ecba 2ffd bdbc
00000110: 90dd ebbd ace7 67bb 6605 4abd d6c0 9d3c
00000120: b5c1 1ebd 514b 8ebd 4aba 70bd b8b7 7fbd
00000130: 04ae 3bbd 650a ddbd db80 87bd 403e 163d
00000140: f9a4 09bd 9b89 1ebd 41b1 01be c96a b6bd
00000150: 8989 48bd fab3 00bd 886e c1bc a606 25be
00000160: 7153 b1bd 1a3d 42bd ce4e c7bb d841 75bd
00000170: b81e b33c cd0a d23c f022 5c3d eeff 4fbd
00000180: 7baa dbbd e45c acbc a298 84bd b7dd 043d
00000190: 0005 bfbd e699 5e3c 3d8d 2dbe 8e6f e8bd
000001a0: a566 a7bd 4c89 47bc 61e1 b8bd 3652 c4bb
000001b0: e5b2 773d 0877 93bd d960 203d 90f2 58bd
000001c0: 4c41 c5bd d3ca cf3c caa2 24bc 9f7a 79bc
000001d0: 070d 293c 7f10 e6bd c698 b8bd b1a1 c7bc
000001e0: 2d65 46bd 4f07 8cbd d50f 4bbd e664 5f3c
000001f0: 3796 b03c 93fe 933c 9eba 8fbd 0274 d2bc
00000200: 46e3 42bd 1673 01bd 35d9 f2bd 245d 02be
00000210: cb11 c23c d2ce e23c 465b c1bd 35ea a33d
00000220: ad65 6f3d f7d8 c63c 64fe 8bbd 5473 08bd
00000230: c366 dbbd 565b 283d d407 953c 521b 523d
00000240: 460e a53c 0e9d 83bd 20b6 6cbd 6572 393d
00000250: 6e33 d4bd 8bfd 2dbd ac4a 90bd 1790 f43c
00000260: d817 163c 1427 563c 68f6 b6ba 3a0e 9cbd
00000270: ed2b 2abd 6057 62bd f9f1 efbc 116c bbbd
00000280: 56c7 343b 496e cbbd 77e5 1bbd db1c 443d
00000290: 577f d6bd e4d2 f63b ac6d 0dbd 6305 e0bd
000002a0: 7cc9 ccbd 3106 60bb 327a 1b3d 0abf aa3a
000002b0: 92d3 eb3c 3d78 9ebd 9344 733d f649 153d
000002c0: a2ba 71bc de1e 37bd e9c1 cdbd 6d45 a3bd
000002d0: 662f 263d 7910 c53c 4287 3a3d 243f 873d
000002e0: 4518 debd a8bf cdbc 8da8 83bd 5b55 203d
000002f0: 439e 21bd a6d3 f3bd 9924 84bd 5755 63bc
00000300: e1a0 3abd 0911 a7bd 5da0 d53c 67e6 8ebd
00000310: 0cd8 813d 8650 043d 5152 113c c94e e33c
00000320: b912 a6bd 81c6 f43c d41e e1bd 3d60 05bc
00000330: 3e15 d5bd 742a 94bd 7b25 32bd 2e76 0ebe
00000340: 8bd3 303d 4a05 943b 67e8 2a3a ae56 a33c
00000350: a7b5 bfbd 47b0 cebc 1a95 bd3c f375 09bd
00000360: f2d4 b03d 13e3 cebd b081 edbc 83dd 6c3b
00000370: a008 acbd 8dc2 c5bd 0c7c 97bd de85 d73c
00000380: 9e6b d53a 8f67 813c f4d6 0bbe 5c25 21be
00000390: 8f63 05be f911 9abc 3b22 d33c 3306 aabd
000003a0: 865a 3ebd 900d cbbd ca6c 803d 0941 5cbd
000003b0: b60b e7bc 2f35 7abc df89 043d b6a1 4fbd
000003c0: 4be6 b63d e11c 96bb c72a 80bc de66 003d
000003d0: de0e 76bd 766f abbd 9237 633d fa01 78bd
000003e0: 6483 c6bd 4b7c 84bd b073 d4bd 514e 76bd
000003f0: 71f8 c6bc f72f ccbd e74d e8bd 84f9 f6bc

shared.2.bias f4 [128]
-0.06484226 -0.10983629 -0.12706539 0.02300533 -0.02890309 0.024194874 0.038251042 0.02909629
-0.114249185 0.017173812 -0.09768929 -0.034259617 0.0075741857 -0.07887452 -0.00039228742 -0.13187698
-0.019547377 -0.08587534 0.0112602515 -0.09328186 -0.10816585 0.04226975 -0.07980595 0.0062174583
-0.015307281 0.009489451 0.021229913 0.020961074 -0.07511211 -0.04113279 -0.10174542 -0.0067410804
0.034805696 -0.024091456 -0.055162113 0.031097686 -0.09547654 -0.038233656 -0.091831446 -0.07422025
-0.0849241 -0.016629009 0.016085306 -0.08534541 -0.13793455 -0.06323533 -0.0021846262 0.031246949
-0.021515349 -0.101636425 0.00041720763 -0.05915808 -0.13803622 -0.026595388 -0.0140075255 0.044584002
0.0033252048 -0.1215713 -0.0075230156 -0.022910321 -0.06302005 -0.042456698 0.009270006 -0.046992354
-0.09718752 -0.087139785 -0.02587798 -0.061437342 -0.11631529 0.039643563 -0.0065431 -0.06484989
0.0064854254 0.024662698 -0.12516934 0.03902862 0.005866766 -0.11277379 -0.001930597 0.03387185
-0.04646974 0.020154186 0.031852137 -0.08909483 -0.024136163 -0.058508515 0.024527276 -0.11467737
0.016633373 -0.099353984 -0.0075611984 -0.10434389 -0.010702222 -0.05642428 -0.057489846 0.027224923
0.0443288 -0.08733001 -0.069636606 0.036554024 -0.12012087 -0.013452108 -0.04214677 0.02094863
-0.066912554 -0.047709715 -0.11625473 -0.10920279 -0.024910789 0.026773093 -0.107896246 0.03225716
-0.080087826 -0.03083353 -0.06605437 -0.13497855 -0.0800089 -0.060575567 -0.057004806 -0.0785703
-0.0826005 0.030894365 -0.02015041 -0.06506749 -0.09283541 -0.08187424 0.04484993 -0.07530926
00000000: 05cc 84bd d9f1 e0bd 6e1d 02be ac75 bc3c
00000010: 2cc6 ecbc 5434 c63c 20ad 1c3d 585b ee3c
00000020: 7afb e9bd 18b0 8c3c 5311 c8bd d053 0cbd
00000030: e030 f83b f788 a1bd edab cdb9 c20a 07be
00000040: d221 a0bc 69df afbd eb7c 383c 8f0a bfbd
00000050: 0f86 ddbd 0c23 2d3d 4d71 a3bd d2bb cb3b
00000060: 64cb 7abc a479 1b3c 5bea ad3c 8fb6 ab3c
00000070: 61d4 99bd db7a 28bd e75f d0bd 48e4 dcbb
00000080: 6b90 0e3d 725b c5bc abf1 61bd 93c0 fe3c
00000090: 3489 c3bd e59a 1cbd 2012 bcbd c900 98bd
000000a0: b0ec adbd 8f39 88bc 55c5 833c 93c9 aebd
000000b0: b73e 0dbe 8681 81bd f22b 0fbb 9af9 ff3c
000000c0: f540 b0bc c226 d0bd a9bc da39 be4f 72bd
000000d0: 5e59 0dbe 92de d9bc d27f 65bc b79d 363d
000000e0: aeeb 593b 60fa f8bd a183 f6bb 6dae bbbc
000000f0: a810 81bd 13e7 2dbd 39e1 173c 0e7b 40bd
00000100: 400a c7bd 5876 b2bd 0ffe d3bc b9a5 7bbd
00000110: b636 eebd 4a61 223d 8067 d6bb 05d0 84bd
00000120: b183 d43b 6d09 ca3c 642c 00be 79dc 1f3d
00000130: 003e c03b f2f5 e6bd 160c fdba 36bd 0a3d
00000140: 0e57 3ebd 641a a53c 6377 023d 5a77 b6bd
00000150: 34b9 c5bc a0a6 6fbd 6ded c83c f8db eabd
00000160: b642 883c 1a7a cbbd eec3 f7bb 40b2 d5bd
00000170: 5f58 2fbc 251d 67bd 797a 6bbd cd06 df3c
00000180: 1e92 353d 14da b2bd a39d 8ebd acb9 153d
00000190: ee01 f6bd 3b66 5cbc 17a2 2cbd 769c ab3c
000001a0: 7309 89bd 436b 43bd f616 eebd b6a5 dfbd
000001b0: b611 ccbc 3f53 db3c b5f8 dcbd 1520 043d
000001c0: 1605 a4bd 9996 fcbc 8347 87bd d137 0abe
000001d0: b5db a3bd 161e 78bd df7d 69bd 77e9 a0bd
000001e0: 732a a9bd 2e16 fd3c 7912 a5bc 1b42 85bd
000001f0: 7e20 bebd aead a7bd 8fb4 373d be3b 9abd

move_mean.weight f4 [2, 128]
-0.007832558 -0.039643116 -0.01689152 0.0226294 0.010078954 0.008820659 0.006373656 0.009053484
0.02380832 0.0001015072 -0.0023882345 0.0036351907 -0.009659307 0.048707083 0.015049352 -0.021722045
0.035593938 0.010964163 -0.013042307 -0.029542696 0.04778678 0.059886195 -0.02788096 -0.010277612
-0.011979674 0.038717516 0.04365578 -0.0013861017 0.013480206 -0.005828825 0.011704555 -0.0023371927
0.02417888 0.004392795 0.034858767 0.0041483804 -0.007808954 0.054139152 -0.06305835 0.017069127
0.0032371145 0.010385639 0.05348273 0.015606562 -0.013555422 -0.0021387783 -0.01898086 -0.036732376
0.025225755 -0.0022706662 -0.0013412938 -0.006810018 -0.0055811335 0.0013495043 0.015405643 -0.037578285
-0.0368029 -0.027538374 0.028291376 -7.3654206e-05 -0.0043983907 0.007627348 -0.0037958045 -0.0032031965
0.0037930366 0.007294157 0.0022162735 -0.009126001 -0.009640626 0.041654207 0.0724 0.045187023
-0.020657193 0.018152053 0.0057366053 -0.017600864 -0.01798362 -0.026490107 0.04772218 -0.012041707
-0.024194486 0.05526277 0.005442251 0.011835868 0.001359478 -0.0005049073 0.028793044 0.0037491752
0.03279269 0.011482326 -0.034703884 -0.042446945 0.013058393 -0.05497775 0.013358522 0.07068619
0.05282688 -0.025205417 0.06772462 0.019590395 0.006226085 0.037387833 -0.007319451 0.008578153
0.0006150156 -0.008149104 0.042306222 0.02873169 -0.007716864 -0.0018282587 0.0046742163 -0.0085356245
-0.03469509 0.008334253 0.0017478751 -0.010700423 0.025570773 0.006923153 0.025322957 0.030710358
-0.0274772 -0.044022586 0.058966737 -0.024847995 0.0006328698 -0.01479373 0.0036791235 0.01053125
0.02266523 0.019922774 0.005078519 -0.002813876 0.041387852 0.01723708 0.008596333 -0.0061316662
0.012659796 -0.012174747 -0.03001024 0.008142409 0.08264462 -0.0062998543 -0.00050623954 0.006504352
-0.006104302 -0.0005197794 -0.018625217 0.0382363 0.06350606 0.0023321167 0.047356483 0.0062067076
-0.021344757 -0.035477243 0.036899827 -0.002991797 -0.008596724 0.008890677 -0.008694173 -0.016615804
-0.020041907 -0.0024277444 0.009503372 -0.012551509 -0.014775763 -0.043769654 0.0464063 -0.005582452
0.032429717 0.0024150875 -0.012241631 0.022749327 -0.009224422 0.030302946 -0.0010806156 -0.026329238
0.0047968733 -0.0075469594 -0.001471988 -0.002823008 0.021067899 0.04224347 0.013082085 0.058911674
-0.060569696 0.0034703265 0.033109184 -0.015574814 0.022248475 -0.0087274145 -0.018628068 0.025330728
0.021162493 -0.010197164 -0.021242686 -0.005563997 -0.01321058 0.012460394 0.0032212979 -0.059959244
0.0021754003 -0.011560657 -0.037130374 0.011365934 -0.036253836 -0.031874083 -0.05719657 0.005943306
-0.040124264 -0.055344976 -0.007807973 0.016745418 -0.011394946 -0.00016843919 -0.016896227 -0.038910206
-0.010581229 -0.019208875 -0.0033841867 0.00090483396 0.00056722417 0.023780959 0.04572173 0.0147529915
0.01656385 -0.045483768 0.024558958 0.01951693 0.03268286 0.05962805 -0.055274256 -0.012549589
0.042226505 0.008019014 -0.020950623 0.015713219 -0.0015202925 0.035972092 -0.0038652008 0.00043962005
-0.027070932 -0.008898124 0.03991803 -0.016970964 -0.0023004187 -0.0035112307 -0.041415583 0.01655588
-0.049845483 0.011165135 -0.08390984 0.019512484 0.0018819466 0.006410995 -0.002414464 0.032826565
00000000: 2154 00bc d260 22bd 1660 8abc 4b61 b93c
00000010: 3222 253c 8684 103c 1ada d03b 1055 143c
00000020: aa09 c33c 43e0 d438 ed83 1cbb 613c 6e3b
00000030: 1242 1ebc 1481 473d 8f91 763c 6ef2 b1bc
00000040: f3ca 113d 08a3 333c 67af 55bc 8603 f2bc
00000050: 12bc 433d 3a4b 753d 9c66 e4bc 6e63 28bc
00000060: 6546 44bc 4296 1e3d 67d0 323d dbad b5ba
00000070: 15dc 5c3c baff bebb 76c4 3f3c 962b 19bb
00000080: c912 c63c 6ff1 8f3b 11c8 0e3d 23ef 873b
00000090: 41e2 ffbb 04c1 5d3d bc24 81bd 8ed4 8b3c
000000a0: c525 543b 8728 2a3c b510 5b3d aab2 7f3c
000000b0: 9017 5ebc bf2a 0cbb c07d 9bbc b074 16bd
000000c0: 3ea6 ce3c 75cf 14bb 5ace afba 9226 dfbb
000000d0: f1e1 b6bb dae1 b03a f367 7c3c b0eb 19bd
000000e0: a3be 16bd 2898 e1bc 51c3 e73c cd76 9ab8
000000f0: 6020 90bb d5ee f93b 08c3 78bb b8ec 51bb
00000100: 9894 783b d303 ef3b e63e 113b 3985 15bc
00000110: b7f3 1dbc 9a9d 2a3d 7446 943d 0716 393d
00000120: 4639 a9bc 9db3 943c 22fa bb3b b02f 90bc
00000130: 6252 93bc c801 d9bc 5578 433d 944a 45bc
00000140: 8433 c6bc 375b 623d e954 b23b 3aeb 413c
00000150: 8330 b23a c15b 04ba 64df eb3c b9b4 753b
00000160: a151 063d 5e20 3c3c a925 0ebd d9dc 2dbd
00000170: dff2 553c 5930 61bd b4dd 5a3c ecc3 903d
00000180: 0061 583d 977b cebc 35b3 8a3d 097c a03c
00000190: 3004 cc3b fc23 193d 01d8 efbb 628b 0c3c
000001a0: 0039 213a d283 05bc 4a49 2d3d b95e eb3c
000001b0: bfdd fcbb 2fa2 efba 2b2a 993b 01d9 0bbc
000001c0: 701c 0ebd 648c 083c f518 e53a d450 2fbc
000001d0: cc79 d13c 9edb e23b 1772 cf3c 4a94 fb3c
000001e0: dd17 e1bc 0751 34bd 1b87 713d 068e cbbc
000001f0: 2ce7 253a 6761 72bc 731d 713b 448b 2c3c
00000200: 6fac b93c 1635 a33c b569 a63b 0169 38bb
00000210: 4f86 293d c734 8d3c a2d7 0c3c 25ec c8bb
00000220: 086b 4f3c 9778 47bc 09d8 f5bc bd67 053c
00000230: 9541 a93d 026f cebb 29b5 04ba 7622 d53b
00000240: 9906 c8bb ce41 08ba e993 98bc ab9d 1c3d
00000250: 770f 823d 6dd6 183b dff8 413d a361 cb3b
00000260: 33db aebc 9650 11bd 4624 173d 0612 44bb
00000270: 46d9 0cbc 34aa 113c 0172 0ebc de1d 88bc
00000280: ed2e a4bc cb1a 1fbb 08b4 1b3c d8a4 4dbc
00000290: 0b16 72bc cf47 33bd 8814 3e3d 00ed b6bb
000002a0: 06d5 043d 7246 1e3b 1f91 48bc cc5c ba3c
000002b0: 0822 17bc e23d f83c 71a3 8dba 6ab0 d7bc
000002c0: 172f 9d3b 7c4c f7bb b9ef c0ba 3702 39bb
000002d0: 9696 ac3c 7d07 2d3d 3e56 563c 5e4d 713d
000002e0: ee17 78bd 6b6e 633b 7f9d 073d 812d 7fbc
000002f0: 6f42 b63c 6efd 0ebc e499 98bc 6382 cf3c
00000300: f75c ad3c 0112 27bc 2405 aebc 3152 b6bb
00000310: 3071 58bc ae26 4c3c 691c 533b d397 75bd
00000320: 2991 0e3b e968 3dbc 0516 18bd 2f38 3a3c
00000330: e77e 14bd 668e 02bd f346 6abd 10c0 c23b
00000340: 5759 24bd 6ab1 62bd 06da ffbb b02d 893c
00000350: deb1 3abc 0d9f 30b9 f569 8abc 4f60 1fbd
00000360: e45c 2dbc ee5b 9dbc 3bc9 5dbb 6132 6d3a
00000370: c5b1 143a 49d0 c23c b546 3b3d 88b6 713c
00000380: e9b0 873c 304d 3abd de2f c93c f8e1 9f3c
00000390: 76de 053d 8b3c 743d 4267 62bd cb9c 4dbc
000003a0: b3f5 2c3d 2f62 033c a4a0 abbc 02b9 803c
000003b0: 8d44 c7ba 7957 133d 4f4f 7dbb ce7c e639
000003c0: dcc3 ddbc 70c9 11bc 1781 233d b106 8bbc
000003d0: 9fc2 16bb ad1c 66bb 63a3 29bd 32a0 873c
000003e0: c72a 4cbd f8ed 363c ecd8 abbd a5d8 9f3c
000003f0: a6ab f63a 5313 d23b fc3b 1ebb 2675 063d

move_mean.bias f4 [2]
0.103548124 -0.24469233
00000000: 0a11 d43d a090 7abe

food_logits.weight f4 [3, 128]
-0.03377822 0.019763703 0.026882531 -0.009693576 0.024708766 -0.022576207 0.007853659 0.027306234
-0.021300536 -0.0264373 0.032945253 -0.040143333 -0.06452434 -0.024699703 0.009974188 0.032262232
-0.031822134 -0.0015369935 0.05378553 -0.06210071 0.052150965 0.010714992 -0.05293586 -0.032097038
-0.0072993315 0.06170795 0.041562047 -0.042789843 0.0072330544 -0.023859378 -0.035163015 0.03931307
0.056958683 0.048644464 0.04319996 -0.02419264 0.05875297 -0.0054298863 0.032660034 -0.051024523
-0.08458679 0.0002997586 0.022830952 -0.017809484 -0.011116597 0.035241913 -0.033767432 0.07388508
0.041261476 -0.011095833 -0.080363326 0.022292722 0.04475892 0.00500098 -0.06723953 -0.034123525
0.009459785 -0.018193187 0.013962721 0.023861004 0.04178858 -0.044441015 0.063404635 0.015628073
0.077154025 0.05017673 0.0631943 0.02843475 0.00759402 0.043458045 0.007047032 0.07002303
-0.005571802 0.03245242 0.011894995 -0.026886657 0.052071672 0.04495236 0.04210461 0.041395642
0.037031025 0.07797872 0.053843465 0.057411935 -0.022991795 -0.05206795 0.03338821 0.07407118
-0.03024704 0.033263564 -0.03252156 -0.019683681 0.03068002 0.034215078 -0.038297445 -0.026715247
-0.0033184423 -0.026720136 -0.029186586 -0.028713107 -0.052354798 -0.040885556 0.04803323 -0.039730538
-0.07216348 -0.02156482 -0.04428904 0.057361532 0.018205808 0.04654303 -0.05938172 0.01149916
-0.00046285614 -0.052727316 0.042212013 0.020137668 0.020801893 -0.0012360299 -0.026365593 0.02940064
-0.0409622 0.009904424 -0.034818888 -0.04841453 0.0016282032 0.029389804 -0.021474782 0.046670917
-0.02425486 0.0060032415 -0.013420331 -0.030225003 -0.0008821643 0.03299876 0.01604111 0.058255922
-0.03474143 -0.031290606 0.018204015 -0.0101311365 -0.0012038879 0.06691955 -0.0047771605 0.017496979
0.047163326 -0.013143004 0.027919209 -0.07328198 -0.010937649 0.03380809 -0.0018848474 -0.014784828
0.0030859516 0.038912088 0.006133602 -0.038448524 0.007418463 -0.0222018 -0.016388863 0.036521584
0.029121038 0.029152311 0.03854297 -0.029416898 0.08117612 0.085425735 -0.008294929 -0.042914744
0.009074546 0.020853132 -0.007596165 -0.0020474598 0.010107851 0.07004649 -0.036209363 0.066787295
0.003857121 0.016402008 -0.06796548 -0.023041708 0.051561575 0.06460331 -0.024243942 -0.07361808
0.04258924 0.0037416162 0.039238643 0.0616999 0.0330022 -0.008261245 0.07118245 0.03655554
0.03633386 0.059115905 -0.032243766 0.0008627636 0.021812325 0.001496349 0.04540712 -0.08034487
0.023288034 0.038259506 0.07436528 -0.021601424 -0.023212748 0.02871687 0.08017773 0.05369162
0.032520182 -0.04266043 0.072319865 0.061595395 -0.018840596 -0.063772574 0.027617319 0.013820427
-0.05527686 -0.0028617592 -0.008833186 -0.06480987 0.019782292 0.06098808 0.023807526 0.009753327
-0.031704087 -0.03463637 -0.0018334165 -0.040013567 -0.0653871 -0.015250319 0.06195878 -0.029522432
0.04717796 -0.022547025 0.011764307 0.023110515 -0.0024452263 0.020046273 -0.022365233 0.015681466
-0.028472884 -0.02422777 -0.04348686 0.040537745 0.037546523 0.015228502 -0.031647027 0.057626512
-0.027094197 0.02736379 -0.049949378 -0.04740029 0.047763962 -0.02433048 -0.023681488 -0.025201246
00000000: 085b 0abd 7de7 a13c c138 dc3c ced1 1ebc
00000010: 0a6a ca3c bdf1 b8bc a2ac 003c 53b1 df3c
00000020: 767e aebc 0993 d8bc 9af1 063d 566d 24bd
00000030: 5625 84bd 0857 cabc c76a 233c 6725 043d
00000040: ed57 02bd f274 c9ba 374e 5c3d 505d 7ebd
00000050: 409c 553d ef8d 2f3c 46d3 58bd 2f78 03bd
00000060: 3b2f efbb 7ac1 7c3d f73c 2a3d 6744 2fbd
00000070: 4203 ed3b be74 c3bc 1807 10bd be06 213d
00000080: 824d 693d 6b3f 473d 71f2 303d a52f c6bc
00000090: f4a6 703d 30ed b1bb 87c6 053d 17ff 50bd
000000a0: d73b adbd eb28 9d39 fa07 bb3c 32e5 91bc
000000b0: 6322 36bc d359 103d b84f 0abd 1051 973d
000000c0: cb01 293d 4ccb 35bc 8795 a4bd 3a9f b63c
000000d0: 2155 373d 43df a33b e1b4 89bd 1cc5 0bbd
000000e0: 37fd 1a3c e109 95bc e6c3 643c 2778 c33c
000000f0: 812a 2b3d c807 36bd 4ada 813d 7206 803c
00000100: ee02 9e3d 1d86 4d3d 036c 813d feef e83c
00000110: 42d7 f83b 1001 323d caea e63b 3c68 8f3d
00000120: aa93 b6bb d4ec 043d 3ae3 423c 6841 dcbc
00000130: 1b49 553d f71f 383d e275 2c3d 7a8e 293d
00000140: d8ad 173d 4fb3 9f3d f78a 5c3d c728 6b3d
00000150: 4a59 bcbc 3445 55bd 13c2 083d a1b2 973d
00000160: a4c8 f7bc 603f 083d 5435 05bd ac3f a1bc
00000170: aa54 fb3c 1c25 0c3d c8dd 1cbd efd9 dabc
00000180: 397a 59bb 30e4 dabc b518 efbc c037 ebbc
00000190: fc71 56bd 9d77 27bd 7ebe 443d 7dbc 22bd
000001a0: 72ca 93bd b5a8 b0bc 6d68 35bd edf3 6a3d
000001b0: 5924 953c e7a3 3e3d 3f3a 73bd f966 3c3c
000001c0: 80ab f2b9 99f8 57bd 81e6 2c3d c0f7 a43c
000001d0: bb68 aa3c 4802 a2ba a8fc d7bc 9cd9 f03c
000001e0: fbc7 27bd 2a46 223c 409e 0ebd 504e 46bd
000001f0: 6f69 d53a e3c2 f03c e2eb afbc 012a 3f3d
00000200: 21b2 c6bc d7b6 c43b f3e0 5bbc 6d9a f7bc
00000210: 0b41 67ba b529 073d a568 833c c39d 6e3d
00000220: 084d 0ebd 942a 00bd 9620 953c 11fd 25bc
00000230: c6cb 9dba 1e0d 893d ba89 9cbb d355 8f3c
00000240: 552e 413d c155 57bc d3b6 e43c dd14 96bd
00000250: d333 33bc 5a7a 0a3d fc0c f7ba 103c 72bc
00000260: ad3d 4a3b 4862 1f3d 62fc c83b 337c 1dbd
00000270: 9416 f33b 8de0 b5bc f041 86bc a897 153d
00000280: 3e8f ee3c d4d0 ee3c 3cdf 1d3d b5fb f0bc
00000290: aa3f a63d b0f3 ae3d 74e7 07bc 5fc7 2fbd
000002a0: 68ad 143c 30d4 aa3c 40e9 f8bb ad2e 06bb
000002b0: 669b 253c 8974 8f3d 4550 14bd c7c7 883d
000002c0: c1c7 7c3b 815d 863c 7c31 8bbd f7c1 bcbc
000002d0: 3b32 533d bd4e 843d 3b9b c6bc 13c5 96bd
000002e0: 0e72 2e3d e735 753b b3b8 203d 09b9 7c3d
000002f0: 512d 073d 2c5a 07bc 1bc8 913d 43bb 153d
00000300: d0d2 143d 8523 723d 0a12 04bd 162b 623a
00000310: c3af b23c 2421 c43a d1fc 393d da8b a4bd
00000320: 8cc6 be3c 00b6 1c3d d34c 983d 78f5 b0bc
00000330: a928 bebc a43f eb3c 3934 a43d beeb 5b3d
00000340: e233 053d b4bc 2ebd 701c 943d 744b 7c3d
00000350: 9857 9abc 329b 82bd b73d e23c 126f 623c
00000360: fd69 62bd 5a8c 3bbb 11b9 10bc 0abb 84bd
00000370: 790e a23c a3ce 793d 0008 c33c 6bcc 1f3c
00000380: 25dc 01bd dede 0dbd 404f f0ba 44e5 23bd
00000390: ace9 85bd 79dc 79bc 7dc8 7d3d 07d9 f1bc
000003a0: ad3d 413d 8ab4 b8bc 14bf 403c 4352 bd3c
000003b0: 1740 20bb 1538 a43c 4b37 b7bc 6b76 803c
000003c0: f73f e9bc 5179 c6bc 471f 32bd e80a 263d
000003d0: 62ca 193d f880 793c 50a0 01bd c709 6c3d
000003e0: a6f4 ddbc 072a e03c b897 4cbd ce26 42bd
000003f0: 25a4 433d b750 c7bc aeff c1bc d872 cebc

food_logits.bias f4 [3]
-0.1309691 0.017849367 0.11642962
00000000: c41c 06be d638 923c a772 ee3d

net.0.weight f4 [128, 17]
0.18289314 -0.17067264 1.4163152 -4.812368 -0.23010527 -0.2572823 -0.14902304 0.097640894
-0.073862806 0.049745057 0.10298109 -0.14261946 0.1770257 -0.005791664 -0.008105146 0.17769401
0.14492525 0.09034673 -0.069747075 -2.3079972 3.59493 1.3441318 -0.18254822 0.120576255
-0.089518115 0.16104099 0.050380632 -0.06547648 -0.1545522 -0.24578013 -0.11504649 0.13321532
-0.092721015 0.027121106 -0.026556415 0.0039042714 1.0110278 -1.3314534 -2.3201826 0.102200195
-0.0015434428 0.0725521 0.0511287 0.036614966 0.11716594 0.116711006 0.038592245 0.0692074
-0.07182779 0.022648014 -0.0033905348 -0.10116309 -0.10298589 1.1763809 -3.9396372 -0.41231364
-0.0957146 0.24650778 -0.13833123 -0.084928036 -0.060606647 -0.16286844 -0.21042342 -0.19182195
-0.16219741 0.16507189 0.21123725 0.09792223 0.11035054 -0.19154596 1.2958986 0.51353645
-2.3595793 0.041401144 -0.2058903 -0.09382321 -0.17131387 0.088935025 -0.027487136 0.08782585
-0.19983491 0.21612717 0.107303984 -0.0020031831 -0.15223467 -0.13197057 -0.02657296 1.7138101
-1.6930847 -1.3678313 -0.32251087 -0.05552555 -0.046340298 -0.21241744 -0.17293333 0.193671
0.009553418 -0.12915145 0.033768203 -0.08227312 -0.0720409 -0.14711758 -0.07482636 -0.1056159
-1.8667243 5.121256 0.6746926 -0.02297421 0.07781823 0.20534807 0.06906592 -0.041491322
0.2612564 -0.0055247988 0.022269297 -0.0087628 -0.05143793 0.007949107 0.054317906 0.1723278
0.10594943 2.2223957 -5.598434 -0.586707 0.17071792 -0.06331116 0.26220042 0.1929926
0.14948389 -0.022934534 -0.008588792 -0.11852097 -0.026491657 0.18188626 0.03517846 -0.09318277
-0.12805994 0.03318535 1.3567542 -1.3291345 -0.633178 0.30526462 0.29136854 -0.10524871
0.056727268 0.098720215 0.06378269 -0.20126717 0.037797228 0.09054565 0.08263609 0.0804843
-0.20909801 0.02667783 0.056247227 -1.8701236 5.977814 0.55318594 -0.087398194 0.06920052
-0.055921223 0.051068723 0.016866108 0.029707035 0.08857018 -0.11380108 -0.07061733 0.21681806
0.15427153 -0.003987722 0.15811326 -0.07424115 -1.9151723 2.960583 2.6422882 -0.04129775
-0.07432048 -0.058996808 0.042306986 -0.21756756 -0.2583721 0.035594497 0.061556753 0.21071436
0.03904316 0.13474962 -0.1935684 0.15699717 -0.0366847 0.63453794 -3.3114944 0.15897931
0.21489613 0.111925595 0.02085158 0.025456857 -0.022525826 -0.23884416 -0.09861019 0.06911005
0.048983436 -0.07272431 -0.0893725 -0.055345587 0.056464087 0.112059586 -0.9098036 5.6496105
-0.23111129 0.040326897 0.13491707 0.025275394 -0.17127775 -0.0366989 0.07315312 -0.110566214
0.088364206 0.04279387 -0.045399167 0.07290462 -0.01777023 0.024221085 0.008448326 -0.7686256
-1.8007224 3.115334 0.04364575 -0.02906232 0.035975486 -0.2198046 -0.16898084 -0.1461641
-0.2854893 0.18506116 -0.016805265 0.056165993 -0.038551517 0.14549078 -0.051730283 0.113882735
-1.3849815 5.1339827 0.7890238 -0.004455239 -0.2958852 0.023658205 0.24860623 0.06477491
-0.011173296 -0.12277316 0.112205245 0.14710738 0.121463306 -0.08608037 -0.10541129 0.017242381
00000000: 5748 3b3e cfc4 2ebe d149 b53f ebfe 99c0
00000010: b7a0 6bbe 81ba 83be 7f99 18be f3f7 c73d
00000020: 6245 97bd 79c1 4b3d c0e7 d23d d60a 12be
00000030: 3a46 353e 00c8 bdbb 72cb 04bc 6bf5 353e
00000040: 4967 143e b507 b93d 8ed7 8ebd 3ab6 13c0
00000050: 5513 6640 830c ac3f eced 3abe aff0 f63d
00000060: 4655 b7bd eee7 243e ec5b 4e3d 8818 86bd
00000070: ef42 1ebe c9ad 7bbe 7f9d ebbd 9969 083e
00000080: 84e4 bdbd 152d de3c d78c d9bc cede 7f3b
00000090: 5c69 813f 116d aabf df7d 14c0 564e d13d
000000a0: 594d caba 3296 943d 546c 513d 93f9 153d
000000b0: b2f4 ef3d 2e06 ef3d e712 1e3d 9cbc 8d3d
000000c0: 731a 93bd 5488 b93c bc33 5ebb 982e cfbd
000000d0: 44ea d2bd a693 963f 0423 7cc0 c61a d3be
000000e0: 0406 c4bd 896c 7c3e b4a6 0dbe c0ee adbd
000000f0: ad3e 78bd fcc6 26be 3d79 57be f96c 44be
00000100: 1417 26be 9b08 293e 944e 583e 738b c83d
00000110: 77ff e13d a024 44be 01e0 a53f 2077 033f
00000120: 5903 17c0 3f94 293d e8d4 52be 6226 c0bd
00000130: e76c 2fbe 9123 b63d b42c e1bc 0ade b33d
00000140: 86a1 4cbe 7150 5d3e 31c2 db3d d647 03bb
00000150: 68e3 1bbe 4b23 07be 89af d9bc 215e db3f
00000160: 00b7 d8bf 1915 afbf 2520 a5be c26e 63bd
00000170: 53cf 3dbd f583 59be 6f15 31be b151 463e
00000180: f085 1c3c 4740 04be 8750 0a3d cf7e a8bd
00000190: 2e8a 93bd fea5 16be 903e 99bd 264d d8bd
000001a0: d2f0 eebf 54e1 a340 a7b8 2c3f 6934 bcbc
000001b0: 2a5f 9f3d c446 523e 6f72 8d3d cef2 29bd
000001c0: 66c3 853e 5f09 b5bb 1a6e b63c d991 0fbc
000001d0: 94b0 52bd f93c 023c 747c 5e3d b376 303e
000001e0: 04fc d83d bb3b 0e40 5f26 b3c0 6e32 16bf
000001f0: aed0 2e3e 48a9 81bd 223f 863e da9f 453e
00000200: 4e12 193e 34e1 bbbc 01b8 0cbc 1fbb f2bd
00000210: 0805 d9bc 6440 3a3e 4a17 103d 9cd6 bebd
00000220: 2522 03be 5ded 073d 1faa ad3f 1421 aabf
00000230: f417 22bf a54b 9c3e 422e 953e a38c d7bd
00000240: da5a 683d d32d ca3d 80a0 823d fb18 4ebe
00000250: 44d1 1a3d ff6f b93d 1c3d a93d f4d4 a43d
00000260: ca1d 56be 778b da3c 7e63 663d 3660 efbf
00000270: 414a bf40 989d 0d3f d3fd b2bd 01b9 8d3d
00000280: a70d 65bd 702d 513d cb2a 8a3c 2b5c f33c
00000290: 4864 b53d 8a10 e9bd d29f 90bd 8e05 5e3e
000002a0: 5bf9 1d3e 70ab 82bb 71e8 213e be0b 98bd
000002b0: 5e24 f5bf 317a 3d40 401b 2940 d427 29bd
000002c0: 5635 98bd a3a6 71bd 174a 2d3d 08ca 5ebe
000002d0: 5949 84be 89cb 113d ef22 7c3d 81c5 573e
000002e0: b8eb 1f3d cefb 093e cb36 46be dec3 203e
000002f0: b242 16bd 1471 223f 86ef 53c0 79cb 223e
00000300: bb0d 5c3e 3f39 e53d efd0 aa3c e68a d03c
00000310: 1588 b8bc 9093 74be 24f4 c9bd 9289 8d3d
00000320: dba2 483d 7cf0 94bd ee08 b7bd 0eb2 62bd
00000330: e346 673d 7f7f e53d e4e8 68bf 9cc9 b440
00000340: 70a8 6cbe d12d 253d b327 0a3e 580e cf3c
00000350: 6f63 2fbe 9651 16bd 4ed1 953d 8a70 e2bd
00000360: 4bf8 b43d a048 2f3d 7af4 39bd 044f 953d
00000370: e092 91bc 4c6b c63c d96a 0a3c a6c4 44bf
00000380: 127e e6bf a261 4740 e3c5 323d 1a14 eebc
00000390: 085b 133d 7514 61be 5009 2dbe 0bac 15be
000003a0: a72b 92be ac80 3d3e 32ab 89bc 500e 663d
000003b0: 32e8 1dbd 89fb 143e 22e3 53bd 5a3b e93d
000003c0: 1347 b1bf 9649 a440 77fd 493f 41fd 91bb
000003d0: 447e 97be dace c13c a292 7e3e b5a8 843d
000003e0: 3310 37bc 7f70 fbbd ddcb e53d 51a3 163e
000003f0: c1c1 f83d e84a b0bd e0e1 d7bd e53f 8d3c

net.0.bias f4 [128]
0.3435513 -0.05135173 -0.37864548 -0.12899034 -0.045212753 0.07183994 -0.2563402 0.20356435
-0.27466288 -0.35674813 0.17247973 0.01262498 0.06974387 0.24596268 -0.11652954 -0.09906358
-0.12017203 -0.18152685 0.06525406 -0.16732945 -0.379889 -0.10744968 0.16026558 0.57503045
-0.09266204 -0.10359015 -0.015630947 0.32390863 -0.16015112 0.2800294 -0.103893824 0.22831722
-0.052009735 0.20320693 0.2976451 0.2458729 -0.19786923 0.12621814 -0.24043576 -0.03085528
0.0686162 -0.21872209 0.14018027 0.12974101 -0.07285695 -0.20324014 -0.081838705 -0.025932841
0.013094856 0.017123362 -0.24216394 -0.31715232 0.37978694 0.088390715 0.48482576 -0.2835044
0.24121797 0.2862729 0.04199385 -0.018449299 0.094031215 -0.11049474 -0.47455463 0.28566036
0.20452698 -0.4994654 -0.21985087 0.21980043 0.12091202 -0.18385167 0.11625801 -0.5119963
0.0030183825 -0.17878683 0.5583183 -0.05077527 0.25096992 0.30120236 -0.09355834 0.38392258
0.29666302 0.16306292 0.11249413 0.06394001 0.19055209 0.13033111 -0.19600971 -0.1523812
0.13503169 0.12529536 0.03436457 -0.19782804 0.149502 0.14390506 -0.11164145 0.3308642
0.16084889 -0.23160419 -0.20450212 0.22541098 0.31046265 -0.1710542 -0.25815448 -0.05027557
0.32839087 0.33699647 0.002493172 0.11305335 0.1509644 0.025332196 0.032561067 0.15294477
-0.28279868 0.1914813 -0.12283666 -0.25498322 -0.1517126 0.25434262 0.1716608 0.12501748
-0.1576094 0.047494806 -0.11803369 0.25690904 -0.3617129 0.023457864 0.23006615 0.09106335
00000000: f5e5 af3e 3156 52bd d2dd c1be 0b16 04be
00000010: 0231 39bd d220 933d 063f 83be 2c73 503e
00000020: 9da0 8cbe b1a7 b6be 879e 303e 01d9 4e3c
00000030: e0d5 8e3d a4dd 7b3e 0aa7 eebd d9e1 cabd
00000040: c11c f6bd 2de2 39be eca3 853d 6958 2bbe
00000050: d080 c2be 940e dcbd a91c 243e 3235 133f
00000060: 98c5 bdbd 1327 d4bd 790c 80bc 5ad7 a53e
00000070: a8fe 23be 0360 8f3e 49c6 d4bd fdcb 693e
00000080: 2908 55bd 7a15 503e f064 983e 1bc6 7b3e
00000090: 3b9e 4abe 543f 013e cb34 76be 36c4 fcbc
000000a0: a686 8c3d aff8 5fbe 6b8b 0f3e d4da 043e
000000b0: 0636 95bd 2f1e 50be 0d9b a7bd 1c71 d4bc
000000c0: cf8b 563c 4b46 8c3c d3f9 77be ca61 a2be
000000d0: 6f73 c23e 3106 b53d 153b f83e 7d27 91be
000000e0: d801 773e 5d92 923e be01 2c3d fc22 97bc
000000f0: 7093 c03d 114b e2bd d3f8 f2be 1342 923e
00000100: 856f 513e eeb9 ffbe 9620 61be 5d13 613e
00000110: b9a0 f73d 9d43 3cbe ae18 ee3d 3112 03bf
00000120: 0ed0 453b e513 37be f3ed 0e3f bbf9 4fbd
00000130: 217f 803e 3237 9a3e 849b bfbd 8091 c43e
00000140: 37e4 973e f7f9 263e 5363 e63d fbf2 823d
00000150: 1620 433e 8575 053e c5b6 48be d109 1cbe
00000160: bf45 0a3e 6d4d 003e ddc1 0c3d 6f93 4abe
00000170: 0d17 193e d95b 133e 46a4 e4bd 0867 a93e
00000180: 92b5 243e a629 6dbe 0169 51be 23d2 663e
00000190: f6f4 9e3e d528 2fbe d32c 84be c2ed 4dbd
000001a0: d922 a83e cd8a ac3e 7c64 233b 8488 e73d
000001b0: 6996 1a3e 7785 cf3c c15e 053d 8e9d 1c3e
000001c0: fdca 90be ad13 443e c991 fbbd 298d 82be
000001d0: 8c5a 1bbe 3239 823e d9c7 2f3e 9504 003e
000001e0: 5c64 21be ea89 423d a6bb f1bd 9589 833e
000001f0: 6f32 b9be b52a c03c 7696 6b3e 6c7f ba3d

net.2.weight f4 [128, 128]
-0.13180241 0.0015894097 -0.03454141 0.07122942 -0.012056168 0.12806599 -0.0636694 0.047580555
-0.01861412 -0.15049374 -0.16714327 0.110355034 0.015754767 -0.014818966 -0.107931025 -0.17057815
0.054640427 -0.102357805 -0.03353934 -0.16874275 -0.09589702 0.07797597 0.09214315 0.08832163
-0.05366792 -0.08654213 -0.020662103 0.058927532 -0.07578711 0.19213125 -0.23678833 0.13643222
-0.1654138 -0.013646019 -0.36417624 0.06778923 -0.043970544 0.0027037947 0.06325771 0.08043211
0.02374436 0.039685234 -0.06657607 -0.0972378 -0.11516538 0.0012275334 -0.06104661 -0.03250678
0.013060743 0.0655544 0.07149559 -0.23914722 -0.01731346 -0.15907177 0.093881086 0.07247339
-0.10937938 -0.009538795 -0.16816139 -0.08103256 0.0061424403 -0.03057634 -0.053671632 0.011453527
-0.018220834 -0.037382994 0.13533455 -0.031322718 -0.06664278 -0.02314045 0.07333717 0.018969
-0.06149577 -0.069971584 -0.10589969 -0.11027687 -0.08298322 0.107713215 -0.30985582 0.13616185
0.10084643 0.01957508 -0.0013008217 -0.0021997583 0.12158643 -0.10686352 -0.14817211 0.1258456
-0.1181825 -0.018982012 -0.17758475 -0.058330324 -0.051997896 -0.08514635 0.058963686 -0.3967031
0.036909673 0.049847286 -0.0129785305 0.011217646 0.015093229 -0.007908801 -0.08985554 -0.039504983
-0.46967885 0.17705376 -0.06890086 0.11834939 0.010606429 0.07386032 0.10406419 -0.28945264
0.11786324 0.08869424 0.012294031 -0.080707535 -0.053615876 -0.06168033 0.00794465 -0.029893305
-0.037556853 -0.15714313 -0.02652491 0.14488019 -0.14649059 0.07188042 -0.15440609 -0.093734205
-0.14188047 -0.088495106 -0.072572 -0.01828169 -0.11280772 0.092614606 0.188812 0.009396234
-0.3389381 0.08841812 0.1093615 -0.038880084 0.10573935 -0.1576005 -0.1771859 -0.010090355
0.00627975 0.17033443 -0.18766768 0.026038742 0.011684805 -0.030282432 0.112992115 -0.029217875
0.09993979 0.0967105 -0.16131769 -0.0525397 0.055174716 -0.027310655 -0.031322706 -0.22729556
-0.09833996 -0.09733394 0.040540338 -0.24413879 -0.031240214 -0.14166003 -0.057321377 0.034940526
-0.1273733 -0.013136633 0.031731527 -0.0032533796 -0.067201436 -0.017827239 0.03506225 0.029256877
-0.10046259 0.13724767 -0.021262195 0.12322931 -0.10253274 -0.046259336 0.052297644 -0.14778388
0.17805752 -0.22232415 0.053978503 -0.08730535 -0.044245385 0.14255771 0.09143345 -0.112771675
-0.028427219 0.008234852 -0.1142374 0.024963727 -0.021532139 0.037813254 0.063775204 -0.00042581552
-0.10566032 0.07440803 -0.10062623 -0.096888304 0.0742872 -0.14303619 -0.0130297905 -0.07603318
-0.13440342 -0.08053515 0.1328183 0.020951983 -0.11594404 0.05642706 0.118700765 -0.0087559465
-0.19964333 0.06462171 -0.016824223 0.059225712 0.02125716 -0.021639796 -0.11995196 -0.045899484
-0.045425557 -0.047408067 0.18096706 -0.17604877 -0.13506454 -0.41751188 0.021737132 0.009802124
-0.020837635 -0.38815796 -0.095684946 -0.077311836 -0.13271804 -0.004360243 -0.12636667 0.15093116
0.061978593 0.025993092 -0.40884423 0.14679943 0.06028689 -0.05289305 -0.09550535 -0.08012103
-0.017887495 0.13900396 0.068484984 -0.18934156 0.059277695 0.15719955 0.1131342 0.11523419
00000000: 36f7 06be bd53 d03a 4b7b 0dbd bbe0 913d
00000010: 3c87 45bc bb23 033e 1a65 82bd d4e3 423d
00000020: a47c 98bc 081b 1abe 9b27 2bbe d201 e23d
00000030: 2410 813c 40cb 72bc f10a ddbd 0aac 2ebe
00000040: a4ce 5f3d f8a0 d1bd 8c60 09bd e6ca 2cbe
00000050: a865 c4bd deb1 9f3d 8cb5 bc3d f9e1 b43d
00000060: e5d2 5bbd 003d b1bd 9243 a9bc ff5d 713d
00000070: 4636 9bbd 0ebe 443e a478 72be e3b4 0b3e
00000080: 3c62 29be 8d93 5fbc 4f75 babe 14d5 8a3d
00000090: 751a 34bd 2632 313b 428d 813d 97b9 a43d
000000a0: 8883 c23c fc8c 223d 0959 88bd 9d24 c7bd
000000b0: d4db ebbd 30e5 a03a 030c 7abd d425 05bd
000000c0: bafc 553c 6341 863d 486c 923d 02e3 74be
000000d0: f5d4 8dbc b6e3 22be ba44 c03d ee6c 943d
000000e0: 4c02 e0bd 9b48 1cbc 8032 2cbe 66f4 a5bd
000000f0: 8646 c93b 3c7b fabc c9d6 5bbd 93a7 3b3c
00000100: dc43 95bc e91e 19bd 2495 0a3e 404c 00bd
00000110: 037c 88bd 0a91 bdbc cc31 963d e064 9b3c
00000120: fde2 7bbd 434d 8fbd f0e1 d8bd d7d8 e1bd
00000130: 1bf3 a9bd bf98 dc3d 6ca5 9ebe 036e 0b3e
00000140: 9388 ce3d eb5b a03c 5580 aaba d229 10bb
00000150: 4e02 f93d 43db dabd 6eba 17be abdd 003e
00000160: ab09 f2bd 2a80 9bbc c7d8 35be c7eb 6ebd
00000170: bffb 54bd 3661 aebd e883 713d ab1c cbbe
00000180: 992e 173d ab2c 4c3d e7a3 54bc 38ca 373c
00000190: 9749 773c ea93 01bc 2e06 b8bd facf 21bd
000001a0: bf79 f0be 954d 353e e51b 8dbd 2a61 f23d
000001b0: 96c6 2d3c 1444 973d 9b1f d53d 2333 94be
000001c0: 4862 f13d 53a5 b53d e76c 493c fe49 a5bd
000001d0: 529c 5bbd 84a4 7cbd 472a 023c cee2 f4bc
000001e0: 37d5 19bd 21ea 20be c54a d9bc 795b 143e
000001f0: a101 16be 0b36 933d a11c 1ebe b8f7 bfbd
00000200: 1d49 11be ec3c b5bd a1a0 94bd 7cc3 95bc
00000210: bc07 e7bd baac bd3d ef57 413e a9f2 193c
00000220: 4b89 adbe 8f14 b53d ecf8 df3d b940 1fbd
00000230: df8d d83d 0762 21be 3870 35be 0452 25bc
00000240: 5cc6 cd3b 266c 2e3e f52b 40be 334f d53c
00000250: a071 3f3c dd12 f8bc 6968 e73d 535a efbc
00000260: 3cad cc3d 2810 c63d 7730 25be de33 57bd
00000270: e2fe 613d 98ba dfbc 3d4c 00bd 2bc0 68be
00000280: 7666 c9bd 0457 c7bd a00d 263d 85ff 79be
00000290: 7aeb ffbc 540f 11be d2c9 6abd cc1d 0f3d
000002a0: 256e 02be 083b 57bc ebf8 013d a736 55bb
000002b0: e8a0 89bd 6e0a 92bc 6f9d 0f3d 1eac ef3c
000002c0: 55bf cdbd a78a 0c3e 0e2e aebc a65f fc3d
000002d0: affc d1bd 6e7a 3dbd 0e36 563d a854 17be
000002e0: b654 363e f1a8 63be 9018 5d3d 26cd b2bd
000002f0: a63a 35bd a6fa 113e 7641 bb3d d6f4 e6bd
00000300: 33e0 e8bc 79eb 063c 4cf5 e9bd bb80 cc3c
00000310: 2b64 b0bc 12e2 1a3d 939c 823d fe3f dfb9
00000320: 7064 d8bd 3d63 983d 2015 cebd 606d c6bd
00000330: e323 983d 1478 12be e77a 55bc 49b7 9bbd
00000340: 0da1 09be 9def a4bd 8501 083e 7ea3 ab3c
00000350: 1274 edbd 1020 673d 6319 f33d 1a75 0fbc
00000360: 4d6f 4cbe 6358 843d f4d2 89bc a996 723d
00000370: 7f23 ae3c f145 b1bc 60a9 f5bd 1901 3cbd
00000380: 2610 3abd f62e 42bd 6e4f 393e 2146 34be
00000390: 5c4e 0abe 1ec4 d5be 1212 b23c 1799 203c
000003a0: b0b3 aabc a4bc c6be 78f6 c3bd ab55 9ebd
000003b0: 3de7 07be 5fe0 8ebb 4466 01be b38d 1a3e
000003c0: 44dd 7d3d 77ef d43c 0854 d1be 9752 163e
000003d0: 63ef 763d 62a6 58bd 4f98 c3bd 7f16 a4bd
000003e0: cc88 92bc 0e57 0e3e db41 8c3d c1e2 41be
000003f0: 2bcd 723d ebf8 203e e7b2 e73d e7ff eb3d
