src/training_logs_ppo/initial/ppo_checkpoint_131_1764185828.pt (torch, 480155 bytes, 42 tensors)

move_logstd f4 [2]
000000 60 b7 b9 3f b4 6a ba 3f
       1.4509087 1.4563813

shared.0.weight f4 [128, 17]
000000 4f aa 2f 3e 98 b6 d0 bd 54 c2 72 be d1 f1 45 3e
       0.17154811 -0.10191077 -0.23706943 0.19330527
000010 25 c9 10 3e 0e b7 1c be 3c 9b bb bd 40 a0 e8 3d
       0.1413923 -0.15304205 -0.09160468 0.1135869
000020 fa 0d 5a 3e d1 fe 35 be bf 03 de 3d e0 38 38 be
       0.21294394 -0.17772986 0.10840558 -0.17990446
000030 d3 5f 03 be 26 88 48 bd 06 7c eb 3c 7b a1 9e 3d
       -0.12829523 -0.048957966 0.028745662 0.07745644
000040 4e dd 07 be f7 e6 98 bd b7 b2 be bd 42 d1 89 3d
       -0.13268015 -0.07465928 -0.09311431 0.06729366
000050 2d a9 0f 3e 9d 0a 8b be 56 41 80 3e b8 a3 1d be
       0.14029379 -0.27156535 0.25049847 -0.15394485
000060 8a b2 dc ba 9a 2c ce bd 65 d9 47 be 83 6e 11 be
       -0.0016837877 -0.10067101 -0.19516523 -0.14202313
000070 08 c3 2d bd a7 95 50 3e ff 9a 45 3d d2 11 82 3d
       -0.042422324 0.20369588 0.04824352 0.06351055
000080 8a 49 0d be 5f 08 f8 bd 10 73 0b 3e 6f 5c 83 3e
       -0.13797584 -0.12110972 0.13618112 0.2565646
000090 a0 38 ef 3d 63 9d 8f 3c ac 70 ae be 39 84 dc bd
       0.11680722 0.017531103 -0.34070337 -0.10767407
0000a0 a6 12 87 bd a2 f4 cd bd 25 8e df bd cd db 9c bd
       -0.06595354 -0.10056426 -0.10915784 -0.07659111
0000b0 9b 56 eb bd 4c af 4c 3d 2d 9e 4c 3e 44 98 1c be
       -0.11491128 0.049971864 0.19982214 -0.1529246
0000c0 0d 6e 07 3e 45 37 70 3d 1c c3 82 3d 8a 5f 37 bb
       0.13225575 0.05864646 0.063848704 -0.002798053
0000d0 e9 8e dc bd ae 7f 9f be 50 93 9f 3d 92 38 1a 3d
       -0.107694454 -0.311521 0.077917695 0.037651606
0000e0 6e 90 2f 3e 60 a5 33 3e 9e be e7 3c d9 a5 36 3e
       0.1714494 0.17543554 0.028289136 0.17836703
0000f0 1a 02 e5 bc 6e 0e ba 3d 0c f8 d4 bc 87 d3 3b bd
       -0.027955104 0.090847835 -0.025997184 -0.045856025
000100 9a 48 b4 bd 2d 0d 53 3c fd cd e9 bd c3 3f 36 3e
       -0.0880291 0.012881559 -0.11416242 0.1779776
000110 f0 dd 1d 3e 12 fd 1e 3e 7a b6 63 be ec 4e 75 3e
       0.15416694 0.15526226 -0.22237578 0.23955888
000120 da 78 37 3c 64 17 32 3e 02 78 5b bd ad c2 b4 3d
       0.011198247 0.17391735 -0.053581245 0.08826194
000130 81 9d 08 be ce 77 24 3e 84 4c 8d 3d e0 ed a9 3d
       -0.13341333 0.16061327 0.0689936 0.08297324
000140 cd 05 fe 3d 02 7d c2 3c ce 27 40 bc 29 e3 49 bd
       0.1240345 0.023741249 -0.01172824 -0.049288902
000150 c3 18 b5 3d 6c 15 cb bd 59 f8 a5 3d 6f 6c d3 bd
       0.088426135 -0.09916195 0.08104009 -0.103234164
000160 e5 32 92 be 7b 6c 87 be 36 ef 71 3d f9 a6 75 3e
       -0.28554454 -0.26449952 0.05906602 0.23989476
000170 a2 42 29 be b9 62 53 3e 18 ce a4 3c d9 d4 85 3d
       -0.16529325 0.20643128 0.020117804 0.06534738
000180 73 8b e2 3d 70 9c ba 3d 68 a5 13 be 8b 49 e4 bd
       0.11061754 0.09111869 -0.14418566 -0.1114684
000190 c2 ce 35 bd 15 6c 8c 3c 87 2f 14 3d 59 e8 b8 bc
       -0.044386633 0.017141381 0.036178138 -0.02257173
0001a0 68 94 dd bd 19 e8 86 3d c5 cb 98 bc 70 c2 db 3d
       -0.10819322 0.06587238 -0.018651852 0.107304454
0001b0 8d 2e 94 be fb ad 67 bd 0d 8f 92 3e 3b b8 9f bc
       -0.28941765 -0.056562405 0.28624764 -0.019497028
0001c0 ed 85 80 be a8 e4 4a be a1 6a 7a 3d 52 0b 47 bd
       -0.25102177 -0.19813788 0.061136845 -0.04859478
0001d0 85 96 a8 3b 88 77 dc bd f1 07 9a bc 09 76 38 be
       0.0051448965 -0.10764986 -0.018802615 -0.18013777
0001e0 e8 7e 42 3d 7e 18 7a 3d 14 6a b7 3d 7d bd 4f 3d
       0.04748431 0.061058514 0.0895578 0.05071782
0001f0 f7 3b 69 be c7 68 4a be 1b 1d 5b 3e 2a 5c 86 bd
       -0.22776781 -0.19766532 0.21397822 -0.06560548
000200 3c 76 20 be 4b 71 a6 3c e6 a2 7d 3b c8 93 25 be
       -0.15670103 0.020317694 0.0038701831 -0.16169655
000210 fc b3 34 be 44 84 36 3e d7 65 87 3c d8 f2 33 bd
       -0.17646784 0.17823893 0.016528053 -0.043932766
000220 b8 ae fd bd fd d5 69 3d c2 aa a3 bc 77 89 6f bd
       -0.123868406 0.05708884 -0.019978885 -0.058480706
000230 c0 a8 25 bd 8e 60 56 be 06 51 05 3c 6b 29 72 3e
       -0.040444136 -0.2093527 0.008136993 0.23648612
000240 94 89 a8 3d dc c1 8a be 38 81 27 3d 46 9e a9 bd
       0.08229366 -0.27101028 0.040894717 -0.082821414
000250 db 67 01 3e 82 8e 0a be 1c b0 47 be 86 e2 8b 3d
       0.12637274 -0.13530925 -0.19500774 0.06830315
000260 a2 bc 27 be 43 d2 21 3e 08 c9 8d 3c 1b b1 76 3d
       -0.16380551 0.15802865 0.017307773 0.060227495
000270 a3 3e a5 be e2 d1 54 be ef aa d4 bd f4 59 31 bc
       -0.3227435 -0.20783189 -0.103841655 -0.010824669
000280 ed f4 c2 3d 50 57 0f 3e d7 b6 69 3e 17 a8 cb bd
       0.09519372 0.13998151 0.22823654 -0.0994417
000290 cd 7d a9 3d bc 2c 60 be 75 77 ff bd 94 3d e5 3d
       0.08275948 -0.21892065 -0.124739565 0.11193386
0002a0 8c 0d 8e 3d e4 4b 4e 3d a8 e9 01 be f0 bc ab 3d
       0.069361776 0.050365344 -0.12686789 0.08385646
0002b0 8b f3 c6 bd 7e f5 70 bc 9f 08 3a be c8 d8 2b 3e
       -0.09714421 -0.014706967 -0.18167351 0.16781914
0002c0 cc 50 08 be 93 c1 41 be a7 a5 42 be f0 05 35 be
       -0.13312072 -0.18921499 -0.19008504 -0.17678046
0002d0 66 90 5b 3e fa a7 bf bd 53 1b 26 be 41 52 5a 3d
       0.21441802 -0.09358211 -0.16221361 0.0533011
0002e0 7a de e5 3d 35 77 ca 3d 63 8c ed bd 8d 06 e0 bd
       0.11224075 0.09886018 -0.11599042 -0.109387495
0002f0 0a e7 0b be 56 86 d6 3d 73 20 02 be c4 30 fb 3c
       -0.13662353 0.10474841 -0.12707691 0.030662902
000300 9f 8b 66 3e 4d 35 84 3e 36 8a 5b 3e 6d 60 44 bd
       0.22514199 0.25821915 0.21439442 -0.04794352
000310 b7 77 79 bd 2a e8 77 be 46 3b dc 3d 1d 43 9e bd
       -0.060905185 -0.24209657 0.10753493 -0.077276446
000320 47 af 72 bd 5e 1c c8 bd 68 2c a6 bd a2 c5 b7 bd
       -0.05924919 -0.097710356 -0.081139386 -0.08973242
000330 3a 37 a6 3b 8b 3e 10 be 08 32 53 be ea 7a a9 3d
       0.0050725015 -0.14086358 -0.20624554 0.08275397
000340 a3 b6 54 bd cd 1b 83 be ab 87 2c 3e a1 91 4e bd
       -0.05193199 -0.25607148 0.16848628 -0.05043185
000350 ed fd c8 bd 6f 23 5b 3d ff c3 a9 bd 55 1c e4 bc
       -0.098140575 0.05350059 -0.082893364 -0.027845541
000360 85 72 07 be 2a 17 0a bd 36 97 99 bb 4b 68 1b 3d
       -0.1322728 -0.033713497 -0.004687215 0.03794126
000370 2c 55 bd bd 6b 0a e1 3d 1a aa 68 3c ce f6 21 be
       -0.09244761 0.10988315 0.014200712 -0.15816805
000380 31 72 b9 3d 9d da 2b bd f1 9d 58 3e b6 ac 57 be
       0.090549834 -0.041956533 0.21154 -0.21061978
000390 4e c2 84 3d 80 63 22 3e 3c 87 80 bd 9d 3d d2 bd
       0.06482373 0.15858269 -0.06275794 -0.10265658
0003a0 a4 29 88 3d a2 4a 97 3d bd 34 21 3d ed 22 22 bd
       0.06648567 0.07387282 0.039356936 -0.03958409
0003b0 fe 0e 24 3e 88 b0 b0 bd 18 31 ae bd 7f 09 71 3d
       0.16021344 -0.08627421 -0.08505458 0.058846947
0003c0 17 ee e6 bd 94 f1 ce bd 6b bb 53 be c3 d6 66 be
       -0.11275881 -0.10104671 -0.20676963 -0.22542863
0003d0 34 09 1f 3e 8f da 40 be 9e 57 5a 3e 49 00 a5 3d
       0.15530854 -0.18833373 0.21322486 0.08056695
0003e0 82 53 5b 3d 86 17 71 bd 99 64 96 bd 98 d9 2b 3b
       0.053546436 -0.058860324 -0.07343406 0.0026222225
0003f0 bf 74 47 3e f5 fb 53 be 02 00 aa bd a8 99 9a 3c
       0.19478129 -0.20701583 -0.08300783 0.018872097

shared.0.bias f4 [128]
000000 44 06 f1 bd 86 d3 a6 be fc 08 f3 bd fb 34 4a be
       -0.11768773 -0.32583255 -0.11866948 -0.19746773
000010 fb a1 de bd b6 1f 7c ba 23 48 93 bb aa ec 49 3e
       -0.10870739 -0.00096177624 -0.0044946834 0.19719186
000020 49 3c 91 be bb 33 af bd c4 ad 04 3e 05 79 5c be
       -0.28366306 -0.08554789 0.12956911 -0.2153054
000030 6b 71 dd 3c 1b 57 3e bd e1 bc ad ba 94 df 3c be
       0.027031621 -0.04646979 -0.0013255143 -0.18444663
000040 39 52 e5 bd b7 f8 48 3e 76 9f f8 3d f1 e1 65 be
       -0.11197323 0.19626127 0.1213979 -0.22449471
000050 8e 02 d1 bd c5 89 a2 3b 15 90 d4 bc 89 0f bb 3c
       -0.102055654 0.004960271 -0.02594761 0.022834556
000060 f4 06 2c bd e1 64 1b be 94 fb 02 3d 77 5e 0e bc
       -0.04199882 -0.15175201 0.031978205 -0.008689514
000070 9c 5a 1b 3e da 2a 72 be e4 a1 5c bb bf d7 91 be
       0.15171283 -0.23649159 -0.003366583 -0.28484914
000080 ba df 9e bd 79 44 c8 bc c9 09 6d be 6d ec 99 3c
       -0.07757516 -0.024446713 -0.23148264 0.018789494
000090 b7 72 2d be ec ac 84 be 8d bd cb bc b2 00 78 bd
       -0.16938291 -0.2591318 -0.024870658 -0.060547538
0000a0 8c b0 94 be a5 9f 8a be 54 35 f2 bb 45 b1 16 be
       -0.29040945 -0.27074924 -0.007391611 -0.1471606
0000b0 b0 14 1f 3e c5 40 89 be 5d aa 70 3e bd 14 85 be
       0.15535235 -0.26807228 0.23502488 -0.25992385
0000c0 c0 8e 19 3e 77 7a d0 bd 39 fa 91 be 56 d6 fe bd
       0.14995861 -0.10179608 -0.28511217 -0.12443225
0000d0 c6 6d 4e be 8a a1 57 bd e4 f2 9a bc a1 e8 df bc
       -0.20159063 -0.05264429 -0.018914647 -0.027332606
0000e0 42 7c 91 3d 62 b1 82 be 07 d4 94 bd 40 af da bd
       0.071037784 -0.25525957 -0.072670035 -0.106779575
0000f0 a0 98 8e bd 1a 5a 46 bd 08 66 f8 bd 0a fa fb bd
       -0.06962705 -0.04842577 -0.12128836 -0.123035505
000100 dd 31 62 be 9b 16 03 be 80 b4 92 be 46 61 d0 be
       -0.22089334 -0.12801592 -0.28653336 -0.40699214
000110 f8 5d bf bd 0a f4 ef 3c 53 41 b3 be 8b 23 5f be
       -0.09344095 0.029291172 -0.35010776 -0.21790902
000120 6b dd 69 3d d0 50 1d 3e 6e c8 91 3c 59 a1 09 be
       0.057095926 0.15362859 0.017795768 -0.13440455
000130 72 35 4d 3e 8d d1 6c be b8 7e 20 be 68 c6 de bd
       0.20039919 -0.23126812 -0.1567334 -0.10877687
000140 d5 4e c2 bd 6b f6 7a be 87 0f bf be 7f 41 53 be
       -0.09487692 -0.24508063 -0.37316534 -0.20630454
000150 02 6f 08 be 1c 6f 08 be cc ea 64 3b 40 a4 a9 bb
       -0.13323596 -0.13323635 0.003492999 -0.005177051
000160 b9 5b 16 bd 4d 25 51 be b9 4a 26 3d 10 b5 7d bd
       -0.036708567 -0.20424385 0.040598605 -0.061940253
000170 43 41 15 be f0 ed 43 3e 67 38 84 be e8 84 1e 3e
       -0.14575677 0.19133735 -0.25824282 0.15480387
000180 7f 35 75 be b3 4d 88 be 6e 27 6b 3e e5 e2 e6 bd
       -0.23946188 -0.2662178 0.2296426 -0.112737454
000190 cd 55 47 3e 5b 3b 11 be ab bd 28 3e 0c e5 13 3c
       0.19466324 -0.14182799 0.16478603 0.009026777
0001a0 69 45 b8 3d a4 94 c8 bc 9b 6c 45 bd 65 17 7d bd
       0.08997614 -0.02448494 -0.048199277 -0.06178989
0001b0 db 47 ce bc 91 35 30 be 5f 9b 0f bc 04 73 5f be
       -0.025180748 -0.17207934 -0.008765071 -0.21821219
0001c0 f9 8c 4d be 33 c8 91 be 48 a0 f3 bc 5b de 40 be
       -0.20073308 -0.28473052 -0.029739514 -0.18834822
0001d0 00 e6 2a be 73 1f 8c bd 1e 0c 86 be a6 cf e5 3c
       -0.166893 -0.06841936 -0.2618112 0.028053116
0001e0 b2 a8 0f bd ab bb 9a be c4 24 36 be a3 6d 51 be
       -0.03507299 -0.30221304 -0.17787462 -0.2045198
0001f0 b8 ce 2d be a4 de b2 3d 11 69 a0 be 89 20 e9 3b
       -0.16973388 0.087338716 -0.3133016 0.007114474

shared.2.weight f4 [128, 128]
000000 1a 56 d1 3c 5e 7d 46 3d 9d 02 68 3d 3c 03 b2 bc
       0.025553752 0.048459403 0.056643117 -0.021730058
000010 ad cb 86 3d 48 90 59 3d a6 84 34 bd 4a 37 0d 3d
       0.06581817 0.053116113 -0.044071816 0.034476556
000020 f2 b9 78 bc cf b2 82 3d 74 bc 09 bb ef 19 a4 bd
       -0.015181052 0.06381761 -0.0021016868 -0.08012759
000030 a2 52 a8 bd 42 c2 0f 3d f3 3f dc 3c 8f 81 aa 3d
       -0.08218886 0.035097368 0.026885962 0.083254926
000040 4e 99 13 3d 3c 2b 13 bd fb d7 96 ba be d2 31 3b
       0.036034875 -0.035929903 -0.0011508459 0.0027133669
000050 4e 72 41 3c 34 8a bc bd ca 5c 8c bd 8a 71 cc 3c
       0.0118070375 -0.09206048 -0.068536356 0.024956483
000060 49 be a9 3d 18 61 a8 bd 57 e5 c2 bc 24 fa e1 bb
       0.08288247 -0.08221644 -0.023790998 -0.006896274
000070 98 d2 fd bd e3 a1 80 bd 09 8c a1 bc 74 81 62 3c
       -0.12393683 -0.062808774 -0.019720094 0.013824809
000080 68 d7 4c bc 0a 29 a9 bb 21 83 81 3d b1 bb 01 bd
       -0.012502529 -0.005162363 0.06323839 -0.031673137
000090 73 3c 84 3d d5 9f c6 bd 65 ec 41 3d 96 ee 95 bd
       0.06456842 -0.09698454 0.047344584 -0.07320897
0000a0 2f f1 a7 3c d6 ac cd bd dc 6c ab bd 70 d7 36 3d
       0.020500747 -0.100427315 -0.08370373 0.04463905
0000b0 ed c4 24 bb 6e ce a0 bd fe ae 85 bd 81 13 34 3d
       -0.002514179 -0.07851873 -0.06527518 0.043963913
0000c0 42 1c d1 bc 83 e4 a9 bd 30 b6 d4 3c e1 2f 75 bd
       -0.02552617 -0.08295538 0.02596578 -0.059860114
0000d0 05 f2 1a 3d 0c ad ee 3b c3 0e e7 bc 83 00 52 3d
       0.037828464 0.0072838124 -0.028205281 0.05127002
0000e0 f3 16 38 3d 3d 8d 80 bd c1 ba 03 bc 51 36 14 3d
       0.04494376 -0.06276939 -0.008040131 0.036184613
0000f0 b4 48 16 bd 57 80 54 bd 70 7f 0b bd 6a 01 5b bd
       -0.03669043 -0.051880207 -0.03405708 -0.053468145
000100 e6 47 80 3d 96 60 48 3d 66 ab 93 3b 52 c0 a2 bc
       0.062637135 0.048920237 0.0045065163 -0.019867096
000110 f2 f9 cb bd 00 a0 91 3b ba 78 4f bd 7c 85 c1 3c
       -0.09959783 0.0044441223 -0.050652243 0.02362322
000120 80 2a c1 bc 77 aa 90 bd 6b eb 80 bd d8 bf 58 bd
       -0.023579836 -0.070637636 -0.062949024 -0.05291733
000130 e1 92 45 bd 2c 1f 97 bd b4 ba 20 bd 40 3e 16 3d
       -0.048235778 -0.073789924 -0.039240554 0.03668046
000140 f9 a4 09 bd 9b 89 1e bd 41 b1 01 be 04 07 c6 bd
       -0.033604596 -0.03870545 -0.12665273 -0.09669307
000150 10 5f b9 bc 11 66 15 bd 06 e1 78 bc c8 ab 0d be
       -0.022628337 -0.03647429 -0.0151903685 -0.1383506
000160 bb 54 b9 bd 6a 9d 01 bd 0c 59 9f 3c 80 5c 57 bd
       -0.09049364 -0.031644262 0.01945164 -0.05257845
000170 fa d3 c3 3c a4 0a 10 3d 61 81 50 3d f4 c2 3f bd
       0.02390479 0.035166398 0.050904635 -0.04681678
000180 e0 15 c2 bd b6 ae 98 3b d6 a8 85 bd 01 7d 14 3d
       -0.094768286 0.004659499 -0.065263435 0.036252026
000190 db a8 aa bd 71 33 00 3d 47 c4 17 be 8e 6f e8 bd
       -0.08332988 0.03129906 -0.14820968 -0.11349402
0001a0 7b 46 9f bd d1 3d 00 bb 74 4a c4 bd 19 2f 41 3c
       -0.07777115 -0.0019568095 -0.09584513 0.011791014
0001b0 34 20 95 3d 95 de 82 bd 4a 0a 18 3d 67 fe 0c bd
       0.07281533 -0.063901104 0.037119187 -0.034422304
0001c0 4c 41 c5 bd 3c f1 0a 3d a3 09 21 3a 9f 7a 79 bc
       -0.09631595 0.033921465 0.00061430986 -0.015226989
0001d0 36 f0 10 3d 3c 58 c6 bd 61 7b 86 bd 26 05 6a bc
       0.035385333 -0.09684798 -0.065665014 -0.014283454
0001e0 46 55 35 bd e3 42 4f bd a1 70 62 bd e6 64 5f 3c
       -0.044270776 -0.050600898 -0.055283193 0.013634896
0001f0 53 a7 f7 3c 93 fe 93 3c fa b8 89 bd 02 74 d2 bc
       0.030231154 0.018065726 -0.067247346 -0.025690082
000200 ab 0c 2e bd 9c 35 53 bb 51 af b6 bd ae 5e ee bd
       -0.04249255 -0.0032227999 -0.08920158 -0.116391525
000210 3b 80 8a 3c 76 d7 41 3d a7 58 a5 bd 4e f1 82 3d
       0.016906848 0.04732462 -0.0807355 0.063936815
000220 fc 26 85 3d cf e1 ef 3b 3c 82 8d bd 44 a2 b6 bc
       0.06501576 0.0073206197 -0.06909606 -0.022294171
000230 5a ab ef bd 4c b5 1f 3d d4 07 95 3c ff 83 56 3d
       -0.117026046 0.038991258 0.01819221 0.052371975
000240 36 9a e1 3c 6c a2 94 bd f6 28 1a bd b3 de c6 3c
       0.027539354 -0.07257542 -0.03763672 0.024276113
000250 cc a1 cf bd 93 40 ca bc a8 89 81 bd ae 88 84 3c
       -0.10138282 -0.024688995 -0.06325084 0.016178455
000260 31 ae c1 bb 6d 8f 0d bc c3 a6 12 3d f3 a1 9d bd
       -0.005910658 -0.008640152 0.035803568 -0.07696905
000270 29 18 3b bd 61 29 53 bd 0d 02 5b bd 60 d5 bb bd
       -0.045677338 -0.051553134 -0.053468753 -0.091715574
000280 34 95 48 bc 39 f4 88 bd b9 c3 24 bd d2 60 21 3d
       -0.012242604 -0.06687207 -0.04022572 0.039398976
000290 d8 6d dc bd a6 89 a4 3c 80 9e 52 bd 73 9d f1 bd
       -0.107631385 0.020085167 -0.05142069 -0.11797609
0002a0 d6 7e d0 bd e1 0b a4 bb c0 fb 61 3d 1e ad 08 bc
       -0.10180442 -0.005006299 0.055171728 -0.008342056
0002b0 a8 07 2d 3d a2 40 9f bd f2 8f 7c 3d 61 e2 7a 3d
       0.04224363 -0.077759996 0.061660714 0.061251048
0002c0 c8 49 83 3b cf a1 6a bd 79 53 9b bd 0e b6 8c bd
       0.004006598 -0.05728322 -0.075842805 -0.06870662
0002d0 88 83 65 3d 17 10 df 3c e2 9c 38 3d c5 81 74 3d
       0.05603364 0.027229352 0.04507149 0.05969407
0002e0 87 bf c0 bd 18 c7 33 b9 6a c4 96 bd b6 7a 34 3d
       -0.09411531 -0.00017144938 -0.07361682 0.04406234
0002f0 1a bc 65 bd fd c7 e3 bd 79 ea 6c bd 95 b3 c2 bb
       -0.05608759 -0.11122129 -0.057840798 -0.005941818
000300 b0 cc 16 bd 76 5c 88 bd 98 07 00 3d f4 b8 8b bd
       -0.0368163 -0.066582605 0.031257242 -0.068223864
000310 c9 c4 9a 3d 1b c2 67 3d b0 e8 91 3b 97 6e 62 3d
       0.07557065 0.056581598 0.0044527873 0.055281248
000320 de 60 84 bd 2d ed f8 3c 47 8d fd bd 21 d8 ac bc
       -0.064637884 0.030386532 -0.12380462 -0.021099152
000330 50 48 94 bd 5a da 2b bd c6 17 35 bd 31 9e 1b be
       -0.07240355 -0.041956283 -0.044212125 -0.15197064
000340 4b 09 ed 3c 9c 72 b7 ba 08 a5 a7 bb ba 4d cc 3c
       0.028935095 -0.0013995948 -0.005116109 0.024939407
000350 cb fc 9d bd a6 b3 e0 bb 2e 8f 15 3d 31 78 33 bd
       -0.07714232 -0.0068573533 0.0365135 -0.043815795
000360 ba 76 87 3d 56 50 82 bd 85 49 dd bc 05 a7 6f 3b
       0.06614442 -0.06362979 -0.027012596 0.0036568057
000370 02 a0 af bd f7 22 af bd 5a 7e 96 bd c7 9c 01 3d
       -0.08575441 -0.08551591 -0.073483184 0.031643655
000380 ea 67 e0 bc fe 04 35 39 47 d1 c9 bd dc 24 1c be
       -0.0273933 0.00017263365 -0.098543696 -0.15248436
000390 22 fd 02 be d1 b8 70 3a 14 ef 3d 3d 8f 97 72 bd
       -0.12791875 0.0009182813 0.04637058 -0.05922657
0003a0 a5 0a 4d bd 7a 6b 87 bd 91 8e 60 3d 03 7d f6 bc
       -0.05005898 -0.066122964 0.054823462 -0.030088907
0003b0 f3 64 3a 3b 58 f4 58 bc 05 b4 7c 3d 6c 48 7c bd
       0.0028441518 -0.01324185 0.061695118 -0.061592504
0003c0 15 b7 92 3d 24 85 fc 39 4a b4 be bb ca 91 9f 3b
       0.071638264 0.00048164383 -0.005819832 0.0048696743
0003d0 6d 09 0a bd d1 aa 99 bd 05 de 1f 3d ed 0c 15 bd
       -0.033700395 -0.07503284 0.039030094 -0.03638928
0003e0 78 a5 d6 bd c6 3b 19 bd ff a8 c5 bd b9 53 82 bd
       -0.104807794 -0.03741052 -0.09651374 -0.06363625
0003f0 28 ce 25 bc 4d af cd bd b2 df f2 bd 71 26 de bc
       -0.010119952 -0.100432016 -0.11859073 -0.02711794

shared.2.bias f4 [128]
000000 7f c3 5f bd e4 48 ca bd 5a e7 e9 bd ac 75 bc 3c
       -0.0546298 -0.09877184 -0.1142108 0.02300533
000010 23 66 83 bc 54 34 c6 3c 0f 69 3d 3d af 9f 1e 3d
       -0.016039914 0.024194874 0.04624277 0.038726505
000020 7a fb e9 bd 18 b0 8c 3c b2 b7 b4 bd 0c aa ca bc
       -0.114249185 0.017173812 -0.088240996 -0.024739288
000030 8a 37 82 3c 89 ea 78 bd ed ab cd b9 c2 0a 07 be
       0.015895624 -0.060770545 -0.00039228742 -0.13187698
000040 d2 21 a0 bc 69 df af bd b9 e0 cf 3c 94 7e ab bd
       -0.019547377 -0.08587534 0.02537571 -0.08373752
000050 c1 9d c5 bd f2 f7 5f 3d 4d 71 a3 bd 17 e6 d9 ba
       -0.0964923 0.05467982 -0.07980595 -0.0016624358
000060 64 cb 7a bc a4 79 1b 3c 5b ea ad 3c 8f b6 ab 3c
       -0.015307281 0.009489451 0.021229913 0.020961074
000070 61 d4 99 bd a3 0c f1 bc e7 5f d0 bd b9 87 2e 3b
       -0.07511211 -0.029424971 -0.10174542 0.002663119
000080 e7 03 2b 3d 72 5b c5 bc 40 57 6b bd 93 c0 fe 3c
       0.04175177 -0.024091456 -0.057456255 0.031097686
000090 bb eb b1 bd 6f 56 ee bc 20 12 bc bd c9 00 98 bd
       -0.0868754 -0.02909395 -0.091831446 -0.07422025
0000a0 68 a0 95 bd 8b cc 08 bc e3 e4 17 3d 93 c9 ae bd
       -0.07305986 -0.008349548 0.037083518 -0.08534541
0000b0 2c 9a ee bd 86 81 81 bd e6 9f f6 3b 9a f9 ff 3c
       -0.116505 -0.06323533 0.0075263856 0.031246949
0000c0 f5 40 b0 bc c2 26 d0 bd a9 bc da 39 e3 b7 4b bd
       -0.021515349 -0.101636425 0.00041720763 -0.049735915
0000d0 0a 50 e3 bd c6 26 8d bc d2 7f 65 bc 6e 2d 54 3d
       -0.110992506 -0.017230403 -0.0140075255 0.051801138
0000e0 37 1b 9e 3b 60 fa f8 bd a1 83 f6 bb 6d ae bb bc
       0.0048250216 -0.1215713 -0.0075230156 -0.022910321
0000f0 93 f4 34 bd 13 e7 2d bd 5c 32 0e 3d 0e 7b 40 bd
       -0.044178557 -0.042456698 0.034715995 -0.046992354
000100 16 40 c2 bd 58 76 b2 bd 0f fe d3 bc b9 a5 7b bd
       -0.0948488 -0.087139785 -0.02587798 -0.061437342
000110 b6 36 ee bd 4a 61 22 3d 90 ce f9 ba 05 d0 84 bd
       -0.11631529 0.039643563 -0.0019058753 -0.06484989
000120 5d 8a 84 3c 6d 09 ca 3c 11 a3 f9 bd 79 dc 1f 3d
       0.016179258 0.024662698 -0.121893056 0.03902862
000130 00 3e c0 3b f2 f5 e6 bd a7 d0 99 3b 36 bd 0a 3d
       0.005866766 -0.11277379 0.0046940628 0.03387185
000140 9b dd 84 bb a3 93 e1 3c 63 77 02 3d 39 dc ad bd
       -0.0040547377 0.027536219 0.031852137 -0.0848927
000150 0f 93 24 bc a0 a6 6f bd 6d ed c8 3c f8 db ea bd
       -0.010044827 -0.058508515 0.024527276 -0.11467737
000160 79 52 ce 3c 1a 7a cb bd d2 7a ac ba 12 5a c2 bd
       0.02518581 -0.099353984 -0.0013159162 -0.09489836
000170 34 17 24 bc 25 1d 67 bd 79 7a 6b bd 03 17 16 3d
       -0.010015298 -0.05642428 -0.057489846 0.03664304
000180 1e 92 35 3d 75 22 a1 bd 13 40 8e bd 14 6c 35 3d
       0.0443288 -0.078679 -0.06945815 0.044292524
000190 9a 7b db bd 3b 66 5c bc 17 a2 2c bd 9c fe 15 3d
       -0.107169345 -0.013452108 -0.04214677 0.036619768
0001a0 53 88 82 bd 43 6b 43 bd 96 dd da bd 82 74 c3 bd
       -0.06373658 -0.047709715 -0.106867954 -0.095437065
0001b0 b6 11 cc bc 55 ac 21 3d b0 4a cf bd 15 20 04 3d
       -0.024910789 0.03947099 -0.101216674 0.03225716
0001c0 04 94 6a bd c4 40 1d bc 83 47 87 bd 9d 01 f4 bd
       -0.057270065 -0.009597961 -0.06605437 -0.1191437
0001d0 ac ff 8d bd 16 1e 78 bd dc a0 71 bd 77 e9 a0 bd
       -0.06933531 -0.060575567 -0.058991298 -0.0785703
0001e0 6b bc 4e bd 2e 16 fd 3c 2e 7b fb bb 1b 42 85 bd
       -0.050472658 0.030894365 -0.0076745963 -0.06506749
0001f0 75 63 b3 bd ae ad a7 bd 8f b4 37 3d 2f da 86 bd
       -0.08759204 -0.08187424 0.04484993 -0.06584584

move_mean.weight f4 [2, 128]
000000 88 1d c0 3b b6 73 56 bc c2 52 d7 bc 4b 61 b9 3c
       0.0058628954 -0.013089111 -0.02628458 0.0226294
000010 57 1b ca 3b 86 84 10 3c 34 44 e0 3b af 16 83 ba
       0.00616781 0.008820659 0.006844068 -0.0010001267
000020 aa 09 c3 3c 43 e0 d4 38 bd 2d 19 bc 7e ea bc bb
       0.02380832 0.0001015072 -0.009349284 -0.0057652583
000030 5f ab 15 ba 5d da 66 3d 8f 91 76 3c 6e f2 b1 bc
       -0.0005709435 0.05636059 0.015049352 -0.021722045
000040 f3 ca 11 3d 08 a3 33 3c 2d 51 07 bd 46 e2 b9 bc
       0.035593938 0.010964163 -0.0330364 -0.022690903
000050 df bb cf 3c c6 2f 3e 3d 9c 66 e4 bc 54 cd 5c bc
       0.025358139 0.04643228 -0.02788096 -0.013476688
000060 65 46 44 bc 42 96 1e 3d 67 d0 32 3d db ad b5 ba
       -0.011979674 0.038717516 0.04365578 -0.0013861017
000070 15 dc 5c 3c f5 d5 32 3b 76 c4 3f 3c da 3b 3d bc
       0.013480206 0.0027288173 0.011704555 -0.011549914
000080 80 83 4d 3c 6f f1 8f 3b 4c 29 1a 3d 23 ef 87 3b
       0.012543559 0.004392795 0.03763704 0.0041483804
000090 c9 44 8d bc 97 5c 82 3d bc 24 81 bd 8e d4 8b 3c
       -0.017244713 0.06365316 -0.06305835 0.017069127
0000a0 95 5d 08 bd 58 cf f0 3b a7 bb 0b 39 aa b2 7f 3c
       -0.03329237 0.007348936 0.00013325979 0.015606562
0000b0 69 ea ad 3c bf 2a 0c bb 2a a2 5e bc b0 74 16 bd
       0.02122994 -0.0021387783 -0.013588468 -0.036732376
0000c0 3e a6 ce 3c 75 cf 14 bb 5a ce af ba 91 18 30 3b
       0.025225755 -0.0022706662 -0.0013412938 0.0026870111
0000d0 07 c8 e4 3a 5c 08 cd bb f3 67 7c 3c b5 66 f3 bc
       0.0017454632 -0.0062571 0.015405643 -0.02971206
0000e0 90 0d 45 bd 28 98 e1 bc 51 c3 e7 3c cd 76 9a b8
       -0.048108637 -0.027538374 0.028291376 -7.3654206e-05
0000f0 bc 02 b6 bc d5 ee f9 3b ce 86 8a 3c b8 ec 51 bb
       -0.0222181 0.007627348 0.016909983 -0.0032031965
000100 1f 15 d3 bb d3 03 ef 3b e6 3e 11 3b 39 85 15 bc
       -0.006441727 0.007294157 0.0022162735 -0.009126001
000110 b7 f3 1d bc 9a 9d 2a 3d 66 df 18 3c 07 16 39 3d
       -0.009640626 0.041654207 0.009330606 0.045187023
000120 c5 3a 90 bc 9d b3 94 3c a7 24 ee 3b b0 2f 90 bc
       -0.017606148 0.018152053 0.007267553 -0.017600864
000130 62 52 93 bc c8 01 d9 bc a4 0c 7d 3d 94 4a 45 bc
       -0.01798362 -0.026490107 0.061779633 -0.012041707
000140 9c c8 77 bc 4b 37 86 3d e9 54 b2 3b b9 4b c5 3b
       -0.015123513 0.06553515 0.005442251 0.0060209897
000150 63 00 4e bb c1 5b 04 ba 64 df eb 3c b9 b4 75 3b
       -0.0031433336 -0.0005049073 0.028793044 0.0037491752
000160 b2 42 05 3d 5e 20 3c 3c 7e 6a b4 3c 75 39 0d bd
       0.03253431 0.011482326 0.022023436 -0.034478623
000170 df f2 55 3c 59 30 61 bd b4 dd 5a 3c 50 a2 7a 3d
       0.013058393 -0.05497775 0.013358522 0.06118995
000180 00 61 58 3d 26 00 87 bc 3d e8 81 3c 94 b7 e6 3c
       0.05282688 -0.016479563 0.01585781 0.028163709
000190 57 0b 3a 3c fc 23 19 3d 01 d8 ef bb d5 f5 21 3c
       0.011355243 0.037387833 -0.007319451 0.009885271
0001a0 c2 f3 b8 bb d2 83 05 bc 7c 84 50 3d 02 6a f7 3c
       -0.0056442926 -0.008149104 0.050907597 0.030201916
0001b0 bf dd fc bb 3b 77 63 bc 23 3a a2 3b 01 d9 0b bc
       -0.007716864 -0.013883407 0.004950778 -0.0085356245
0001c0 e3 b6 63 bd 8e 86 9d 3c f5 18 e5 3a 90 78 9a bb
       -0.055594336 0.0192292 0.0017478751 -0.004714079
0001d0 94 4a bf 3c 9e db e2 3b 89 f7 7f 3b 4a 94 fb 3c
       0.023350991 0.006923153 0.0039057455 0.030710358
0001e0 e5 5d 60 ba 07 51 34 bd ca 40 48 3d 06 8e cb bc
       -0.0008558913 -0.044022586 0.048889913 -0.024847995
0001f0 44 b4 81 ba 67 61 72 bc 73 1d 71 3b 27 44 89 3a
       -0.0009895642 -0.01479373 0.0036791235 0.0010472581
000200 9a ca 16 3c 92 27 33 3b ad f8 7b 3c 01 69 38 bb
       0.009203577 0.0027336818 0.015379113 -0.002813876
000210 73 0a e1 3c c7 34 8d 3c 7d 2a 2b bc 9e db 9b bd
       0.027470803 0.01723708 -0.010447142 -0.07610248
000220 08 6b 4f 3c 97 78 47 bc bb fb cd bc 87 4b b5 ba
       0.012659796 -0.012174747 -0.025144449 -0.0013831713
000230 fd dc 96 3d 3f 09 6e bc 29 b5 04 ba 76 22 d5 3b
       0.07366369 -0.014528572 -0.00050623954 0.006504352
000240 99 06 c8 bb ce 41 08 ba 5f 32 9f bc 74 5e 42 3d
       -0.006104302 -0.0005197794 -0.019433198 0.04745336
000250 e6 ef 53 3d 3a d8 3e 3c df f8 41 3d 03 4c dd 3c
       0.051742457 0.011648232 0.047356483 0.027013784
000260 33 db ae bc 96 50 11 bd 46 24 17 3d 06 12 44 bb
       -0.021344757 -0.035477243 0.036899827 -0.002991797
000270 46 d9 0c bc 07 01 20 ba 01 72 0e bc bc 94 ed bb
       -0.008596724 -0.0006103669 -0.008694173 -0.0072503965
000280 55 6a fe bb cb 1a 1f bb d5 81 2d 3d d8 a4 4d bc
       -0.0077641406 -0.0024277444 0.042360146 -0.012551509
000290 4f 7c ad bb 2b 48 5a bd 88 14 3e 3d 00 ed b6 bb
       -0.0052943598 -0.05329148 0.0464063 -0.005582452
0002a0 93 1f 74 3c 72 a0 13 3c 46 3a 3c 3c cc 5c ba 3c
       0.014900106 0.009010421 0.011488503 0.022749327
0002b0 f6 71 d3 3b e2 3d f8 3c 5d 52 22 bc 6a b0 d7 bc
       0.006452794 0.030302946 -0.009907332 -0.026329238
0002c0 17 2f 9d 3b 7c 4c f7 bb b9 ef c0 ba 06 66 48 bc
       0.0047968733 -0.0075469594 -0.001471988 -0.0122313555
0002d0 be eb c2 3b fd 96 09 3d 3e 56 56 3c 82 c0 92 3d
       0.005948513 0.03359126 0.013082085 0.07165624
0002e0 58 02 4c bd 6b 6e 63 3b 7f 9d 07 3d 81 2d 7f bc
       -0.049806923 0.0034703265 0.033109184 -0.015574814
0002f0 b4 22 75 3b 6e fd 0e bc 0b ec d6 3b 63 82 cf 3c
       0.0037404718 -0.0087274145 0.0065589002 0.025330728
000300 11 eb 44 3c 01 12 27 bc 24 05 ae bc 31 52 b6 bb
       0.012018935 -0.010197164 -0.021242686 -0.005563997
000310 30 71 58 bc ae 26 4c 3c 6a 5b 3c bc d3 97 75 bd
       -0.01321058 0.012460394 -0.011496404 -0.059959244
000320 42 c6 8e 3b e9 68 3d bc c6 66 97 bc 2f 38 3a 3c
       0.0043571303 -0.011560657 -0.018481623 0.011365934
000330 e7 7e 14 bd 66 8e 02 bd 8d 0b 70 bd 10 c0 c2 3b
       -0.036253836 -0.031874083 -0.058604766 0.005943306
000340 6d c5 fb bc b8 93 85 bd 06 da ff bb 5f 5b 81 39
       -0.030733788 -0.06522316 -0.007807973 0.00024672874
000350 1d 70 36 bc 0d 9f 30 b9 f5 69 8a bc 4f 60 1f bd
       -0.011135128 -0.00016843919 -0.016896227 -0.038910206
000360 37 76 0a bc ee 5b 9d bc 8d 94 a7 3c 84 96 34 bb
       -0.008451036 -0.019208875 0.020456577 -0.0027555535
000370 c5 b1 14 3a 49 d0 c2 3c b5 46 3b 3d 66 65 c6 3c
       0.00056722417 0.023780959 0.04572173 0.024218272
000380 e9 b0 87 3c 55 ef 9c bc 14 a5 d3 bc 58 cc 2c 3c
       0.01656385 -0.019157091 -0.025835551 0.010546766
000390 2b 86 29 3d 8b 3c 74 3d 42 67 62 bd 2e c9 b7 bb
       0.04138772 0.05962805 -0.055274256 -0.0056086993
0003a0 e6 9e 46 3d 2f 62 03 3c d7 c5 3b bc 70 c8 9c 3c
       0.04849138 0.008019014 -0.011460743 0.019138545
0003b0 8d 44 c7 ba 1b d0 e5 3c f8 45 d1 3c ce 7c e6 39
       -0.0015202925 0.028053334 0.025546059 0.00043962005
0003c0 6e f5 11 bd 37 88 72 bc 17 81 23 3d 59 c7 19 bc
       -0.03563445 -0.014802984 0.03991803 -0.009385907
0003d0 5a 90 d5 3b ad 1c 66 bb 1d 4b 12 bd 32 a0 87 3c
       0.006517452 -0.0035112307 -0.035716165 0.01655588
0003e0 40 69 5d bd f8 ed 36 3c e1 dc a6 bd a5 d8 9f 3c
       -0.054055452 0.011165135 -0.08147598 0.019512484
0003f0 94 ff 26 3a 53 13 d2 3b fc 3b 1e bb 3f 70 2d 3d
       0.00063704816 0.006410995 -0.002414464 0.042343374

move_mean.bias f4 [2]
000000 90 cb 62 ba 20 bf 03 be
       -0.0008651549 -0.12865877

food_logits.weight f4 [3, 128]
000000 9e 87 31 bd 5a b3 12 3c 6d 6c 1b 3d ce d1 1e bc
       -0.043342225 0.008953894 0.0379452 -0.009693576
000010 4f 8c 19 3d bd f1 b8 bc df 16 53 3c 44 2e 5c 3d
       0.037487324 -0.022576207 0.012883871 0.05375506
000020 76 7e ae bc 09 93 d8 bc 91 61 2b 3d 28 d2 fa bc
       -0.021300536 -0.0264373 0.041841093 -0.030617788
000030 61 a8 61 bd 61 19 2c bd c7 6a 23 3c 67 25 04 3d
       -0.05509222 -0.04201639 0.009974188 0.032262232
000040 ed 57 02 bd f2 74 c9 ba 14 19 60 3d 48 2e 8e bd
       -0.031822134 -0.0015369935 0.054711416 -0.06942421
000050 cb 80 85 3d 99 e9 c5 3c 46 d3 58 bd b5 12 8e bb
       0.06518706 0.02415924 -0.05293586 -0.004335726
000060 3b 2f ef bb 7a c1 7c 3d f7 3c 2a 3d 67 44 2f bd
       -0.0072993315 0.06170795 0.041562047 -0.042789843
000070 42 03 ed 3b 28 32 d7 bc 18 07 10 bd b7 54 f6 3c
       0.0072330544 -0.026269034 -0.035163015 0.030069692
000080 2a 93 82 3d 6b 3f 47 3d 0d ea 02 3d a5 2f c6 bc
       0.063757256 0.048644464 0.03196149 -0.02419264
000090 86 c9 8b 3d 1a d0 84 3b 87 c6 05 3d 17 ff 50 bd
       0.06825547 0.004053128 0.032660034 -0.051024523
0000a0 c2 a6 8e bd b5 5b 1f 3c 87 01 80 3d 32 e5 91 bc
       -0.069654 0.0097264545 0.06250291 -0.017809484
0000b0 7d 4a 0e bb d3 59 10 3d 9d 7f 20 bd 10 51 97 3d
       -0.002171188 0.035241913 -0.0391842 0.07388508
0000c0 cb 01 29 3d 4c cb 35 bc 87 95 a4 bd 82 50 02 3d
       0.041261476 -0.011095833 -0.080363326 0.03181506
0000d0 e2 b3 16 3d 6e 01 86 bb e1 b4 89 bd d5 63 41 bd
       0.036792643 -0.004089526 -0.06723953 -0.047214348
0000e0 ad 45 fe 3a e1 09 95 bc e6 c3 64 3c 27 78 c3 3c
       0.0019399427 -0.018193187 0.013962721 0.023861004
0000f0 a3 23 5a 3b c8 07 36 bd 67 00 71 3d 72 06 80 3c
       0.0033285401 -0.044441015 0.058838274 0.015628073
000100 c8 0b b7 3d 1d 86 4d 3d 03 6c 81 3d fe ef e8 3c
       0.08937794 0.05017673 0.0631943 0.02843475
000110 42 d7 f8 3b 10 01 32 3d 97 bb 65 3c 3c 68 8f 3d
       0.00759402 0.043458045 0.014021776 0.07002303
000120 0c f9 9b bc d4 ec 04 3d 92 1d 95 3b 68 41 dc bc
       -0.019039653 0.03245242 0.004550644 -0.026886657
000130 1b 49 55 3d f7 1f 38 3d 28 db 6e 3d 7a 8e 29 3d
       0.052071672 0.04495236 0.058314472 0.041395642
000140 f4 ec 87 3c 33 5f b1 3d f7 8a 5c 3d 66 56 46 3d
       0.01659248 0.08660736 0.053843465 0.04842224
000150 81 da cb bb 34 45 55 bd 13 c2 08 3d a1 b2 97 3d
       -0.006221116 -0.05206795 0.03338821 0.07407118
000160 ec 49 da bc 60 3f 08 3d 65 56 1d bd a2 8d d0 bc
       -0.026646577 0.033263564 -0.03841247 -0.02545816
000170 d2 33 b6 3c 1c 25 0c 3d c8 dd 1c bd e6 ce 8c bc
       0.022241507 0.034215078 -0.038297445 -0.0171885
000180 39 7a 59 bb 7d b4 d9 ba fe af ab 3c 93 78 1a bd
       -0.0033184423 -0.0016609576 0.020957943 -0.037712645
000190 a8 ce 6e bd 9d 77 27 bd 7e be 44 3d a7 08 db bc
       -0.05830255 -0.040885556 0.04803323 -0.026737524
0001a0 65 47 80 bd b5 a8 b0 bc 9d 61 5c bd e2 a4 93 3d
       -0.062636174 -0.02156482 -0.05380403 0.07209183
0001b0 59 24 95 3c 5a 68 70 3d 9f b5 8a bd f9 66 3c 3c
       0.018205808 0.058693267 -0.06772923 0.01149916
0001c0 cb ba e7 bb ed b0 05 bd 81 e6 2c 3d fb 49 ee 3c
       -0.007071828 -0.032639433 0.042212013 0.029088011
0001d0 b0 a9 04 3d 48 02 a2 ba bf 3f ca bc 9c d9 f0 3c
       0.03238839 -0.0012360299 -0.0246886 0.02940064
0001e0 76 e7 45 bd 2a 46 22 3c 29 d2 b5 bc 50 4e 46 bd
       -0.04831644 0.009904424 -0.022194939 -0.04841453
0001f0 42 cb 32 3c e3 c2 f0 3c e2 eb af bc a5 15 66 3d
       0.010912718 0.029389804 -0.021474782 0.056172986
000200 c0 d8 13 bd f6 75 8a 3a 1e a6 27 bc 6d 9a f7 bc
       -0.03609538 0.001056372 -0.0102324765 -0.030225003
000210 17 ea 8b bc b5 29 07 3d 5b 89 82 3c 5e 85 40 3d
       -0.017079396 0.03299876 0.015934637 0.04700219
000220 08 4d 0e bd 94 2a 00 bd 4b f0 d8 3c 5e a0 1e ba
       -0.03474143 -0.031290606 0.026481768 -0.0006051118
000230 7a ac 06 3c 65 fd ad 3d ba 89 9c bb d3 55 8f 3c
       0.008219833 0.08495597 -0.0047771605 0.017496979
000240 55 2e 41 3d c1 55 57 bc 44 09 ec 3c af a1 85 bd
       0.047163326 -0.013143004 0.028813012 -0.06524979
000250 b2 83 bb bc 1d 45 43 3d fc 0c f7 ba 17 76 33 bd
       -0.022889946 0.047673333 -0.0018848474 -0.04381379
000260 ad 3d 4a 3b 48 62 1f 3d 62 fc c8 3b 33 7c 1d bd
       0.0030859516 0.038912088 0.006133602 -0.038448524
000270 94 16 f3 3b 47 5c e8 bc f0 41 86 bc 7b 94 dd 3c
       0.007418463 -0.028364314 -0.016388863 0.02704834
000280 89 ef 12 3d d4 d0 ee 3c 68 95 2e 3d b5 fb f0 bc
       0.03587297 0.029152311 0.042622954 -0.029416898
000290 b2 e3 92 3d e3 94 9b 3d 74 e7 07 bc 5f c7 2f bd
       0.07172336 0.07596757 -0.008294929 -0.042914744
0002a0 11 9d 84 3c c3 03 e8 3c 0b cf e6 bc ad 2e 06 bb
       0.016188176 0.028322106 -0.028174898 -0.0020474598
0002b0 bb d6 82 bb 89 74 8f 3d dd 79 d2 bc c7 c7 88 3d
       -0.003992883 0.07004649 -0.025692875 0.066787295
0002c0 c1 c7 7c 3b 81 5d 86 3c 7c 31 8b bd 17 5c 05 bd
       0.003857121 0.016402008 -0.06796548 -0.032558527
0002d0 35 60 88 3d 46 5d 97 3d 3b 9b c6 bc 86 1e 94 bd
       0.06658975 0.07390837 -0.024243942 -0.072323844
0002e0 35 e3 49 3d e7 35 75 3b b3 b8 20 3d 09 b9 7c 3d
       0.049288947 0.0037416162 0.039238643 0.0616999
0002f0 a9 46 9a 3c 2c 5a 07 bc c4 10 9e 3d 43 bb 15 3d
       0.018832522 -0.008261245 0.077180415 0.03655554
000300 40 37 c7 3c 85 23 72 3d 0a 12 04 bd 16 2b 62 3a
       0.024318337 0.059115905 -0.032243766 0.0008627636
000310 c3 af b2 3c 24 21 c4 3a 28 79 5c 3d da 8b a4 bd
       0.021812325 0.001496349 0.05382648 -0.08034487
000320 e2 78 60 3c 00 b6 1c 3d ac b0 c3 3d 78 f5 b0 bc
       0.013700696 0.038259506 0.09555182 -0.021601424
000330 a9 28 be bc a4 3f eb 3c 31 ba aa 3d be eb 5b 3d
       -0.023212748 0.02871687 0.083362944 0.05369162
000340 26 aa 76 3d 25 ab 04 bd 70 1c 94 3d 87 59 85 3d
       0.06022086 -0.03238978 0.072319865 0.065112166
000350 a1 40 01 bd 32 9b 82 bd b7 3d e2 3c 12 6f 62 3c
       -0.031555776 -0.063772574 0.027617319 0.013820427
000360 90 fb 6c bd 5a 8c 3b bb 5a 12 97 bc 50 67 97 bd
       -0.057857096 -0.0028617592 -0.018441368 -0.07392752
000370 5b e9 e9 3c a3 ce 79 3d 00 08 c3 3c c7 f1 9d 3c
       0.028553655 0.06098808 0.023807526 0.019280327
000380 25 dc 01 bd 37 79 f1 bc 24 ab 0b 3b 48 c6 fe bc
       -0.031704087 -0.029476745 0.0021311725 -0.031100407
000390 da ff 58 bd 79 dc 79 bc 7d c8 7d 3d ad 2e fc bc
       -0.052978374 -0.015250319 0.06195878 -0.030783975
0003a0 cc 83 5f 3d 8a b4 b8 bc 8b 63 ae 3c 00 0a 06 3c
       0.05456905 -0.022547025 0.0212877 0.008181095
0003b0 17 40 20 bb 8c f5 06 3d b3 31 b9 bc 6b 76 80 3c
       -0.0024452263 0.032949015 -0.022606706 0.015681466
0003c0 cb ba a2 bc 88 14 e8 bc 47 1f 32 bd 65 ad 52 3d
       -0.01986446 -0.028330103 -0.04348686 0.051434893
0003d0 47 0c db 3c f8 80 79 3c 4c e4 73 bc c7 09 6c 3d
       0.026739253 0.015228502 -0.014885973 0.057626512
0003e0 c9 22 87 bd 07 2a e0 3c 72 41 7f bd ce 26 42 bd
       -0.065984316 0.02736379 -0.062318273 -0.04740029
0003f0 62 50 45 3d b7 50 c7 bc ae ff c1 bc fd 77 80 bc
       0.048172362 -0.02433048 -0.023681488 -0.015682215

food_logits.bias f4 [3]
000000 b9 70 30 bd 74 cb be bd c8 e2 0c 3e
       -0.04307625 -0.09316149 0.13758385

net.0.weight f4 [128, 17]
000000 f8 c6 3b 3e 1d 60 34 be e9 5c 5b 3f 67 3f 25 c0
       0.1833762 -0.1761479 0.85688645 -2.5819948
000010 b1 61 55 bd c1 75 42 be ed 7c 11 be 43 cc 4f 3d
       -0.05209512 -0.18990232 -0.14207812 0.05073191
000020 04 9b 35 bd 1e 32 de 3d 94 fb 14 3e 48 e8 30 be
       -0.044337288 0.10849403 0.14549094 -0.17276108
000030 86 fc 8a 3e bd e6 ec 3c 72 f0 cf bc f9 51 22 3e
       0.27145785 0.028918618 -0.025383208 0.15851583
000040 3f f6 9a 3d c5 a3 8c 3d 70 c2 e2 bd 55 a3 b0 bf
       0.07566499 0.06867174 -0.11072242 -1.3799845
000050 29 6e 0e 40 97 aa e9 3e 7d 01 f4 bd 2a 2f b5 3d
       2.2254736 0.45637962 -0.11914346 0.088468865
000060 d6 bb c2 bd 52 0f 44 3e 54 52 d9 3b 4b 1a 2f be
       -0.09508483 0.19146469 0.0066321287 -0.17099874
000070 7c 1b c4 bd 5b 45 5e be e3 89 c0 bd 65 0e 3c 3e
       -0.09575555 -0.21706145 -0.094013 0.18364866
000080 f1 e0 87 bd 3e 62 44 bd ad 39 53 bc 87 b8 11 3d
       -0.06634701 -0.047945254 -0.012892169 0.03557637
000090 19 b1 a5 3e 55 85 01 bf d6 a8 3c bf d9 80 2d 3e
       0.32361677 -0.50594074 -0.73695123 0.16943683
0000a0 88 c1 10 bc d7 ff 9a 3d 14 2e 21 3d e1 d3 52 3e
       -0.008835204 0.07568329 0.039350584 0.20588638
0000b0 c0 90 71 3e 08 18 de 3d ec 2f c1 3d be c6 e5 3d
       0.23590374 0.10844427 0.094329685 0.11219548
0000c0 2f 87 08 be 4b d4 87 bc 7e b0 56 3c 33 45 6b bd
       -0.13332818 -0.016580721 0.013103602 -0.05743904
0000d0 8b e5 02 be 97 c5 8b 3f 7b 19 e8 bf f2 97 3f bf
       -0.12782876 1.0919675 -1.8132776 -0.74841225
0000e0 b8 c3 f0 bd 0d 07 88 3e a7 1e c6 bd 2f df 08 3d
       -0.117560804 0.2656788 -0.09673815 0.03341597
0000f0 38 0d 26 bd 23 b0 8b be ca 79 75 be 1d 0a 33 be
       -0.04053995 -0.2728282 -0.2397224 -0.17484327
000100 ef e5 6e be c1 57 db 3d 5d 7e f0 3b 0e a3 e3 3d
       -0.233299 0.10710097 0.0073392824 0.111150846
000110 82 b0 4e 3e d9 51 47 be d3 04 b6 3e 9c d1 f9 be
       0.2018452 -0.19464816 0.35550556 -0.48792732
000120 0a 21 52 bf 95 3c 75 3d 68 ff 6a be 33 d0 4d bd
       -0.82081664 0.05987223 -0.22948992 -0.050247382
000130 7f f5 34 be 69 09 a6 bb 55 ab e5 bd 48 3e 03 3d
       -0.17671774 -0.0050670397 -0.112143196 0.032041818
000140 92 a6 56 be 82 cd 57 3e c7 b2 86 3d 2f de 08 3d
       -0.20961979 0.21074489 0.06577068 0.033415016
000150 bf ac 1b be ae 5d 31 be fc 8f ea 3c e8 3b 69 3f
       -0.15202616 -0.17320892 0.02863311 0.91107035
000160 b3 ab 84 bf 5c 11 ce be 19 92 9e be 9e 6d 2b be
       -1.0364898 -0.4024762 -0.3097084 -0.16741034
000170 0e 6b 98 bd c4 14 a7 be 52 3a 1a be bf 4c 11 3e
       -0.07442294 -0.3263303 -0.1506131 0.14189433
000180 80 9a 72 bd 7a 51 16 be ff 5b 27 3d 52 5e 05 be
       -0.059229374 -0.14679518 0.04085922 -0.13024262
000190 3d 85 b2 bd 5c a2 c5 bd 70 cc cd bd 5c fa e2 bd
       -0.087168194 -0.09650108 -0.10048759 -0.110829085
0001a0 db 2b 94 bf 41 cb 48 40 26 f5 07 3d 98 1b 93 bd
       -1.1575884 3.1374056 0.033192776 -0.071829975
0001b0 f1 e6 58 3e 81 cb 2f 3e d9 a4 16 3c 9e e9 dc bc
       0.21181847 0.17167474 0.009194576 -0.026966866
0001c0 2d 20 56 3e cd 3e 11 3d 40 9f 83 bc 4d 79 77 bb
       0.20910712 0.035460282 -0.016067147 -0.003776151
0001d0 70 02 d2 bd 8a ce 44 bc 81 33 70 3d c9 62 37 3e
       -0.10254371 -0.012012133 0.058642868 0.17908777
0001e0 bc 77 00 3e 44 43 a7 3f 89 87 62 c0 19 14 0f bf
       0.12545675 1.3067403 -3.5395224 -0.5589004
0001f0 04 4f 5b 3e bc 7c c1 bb d4 81 70 3e b7 80 f1 3d
       0.21416861 -0.005904762 0.23487025 0.117921285
000200 eb 56 29 3e 54 db 92 3c d1 35 4d bc f4 d0 51 be
       0.16537063 0.01792685 -0.012525038 -0.20489866
000210 d4 af 53 bd 5d 5b ed 3d 80 8f 57 3d 69 99 e3 bd
       -0.051681355 0.11589692 0.052627087 -0.11113245
000220 df eb 0a be a9 8e 07 bc b0 71 14 3f 14 28 70 bf
       -0.1356654 -0.008273759 0.57985973 -0.93811154
000230 95 3a 4c be 32 8d 94 3e f3 b5 b3 3e cd fb 16 3d
       -0.19944222 0.29013973 0.35099754 0.03686123
000240 70 55 2f 3c 5b 5c 16 3e de 23 be 3d 39 bb 2d be
       0.010701522 0.14683668 0.09284185 -0.16965951
000250 3b 7f df 3c 43 39 19 3e 26 62 13 3e 98 1b 1c 3c
       0.027282348 0.1496325 0.1439291 0.009528063
000260 6e 2d 67 be 52 4d 51 bc a1 43 b3 3d 7f 23 b2 bf
       -0.22575924 -0.012774782 0.087531336 -1.3917083
000270 7f fc 61 40 9d 61 37 3f e4 e9 15 be e9 a2 ae 3b
       3.5310361 0.7163332 -0.14640003 0.005329479
000280 62 ea 57 3c 1e 00 5c bd c8 bf 84 3c 1e 27 8e 3d
       0.01317844 -0.05371105 0.01620473 0.06941055
000290 19 6e c3 3d c1 f0 f3 bd ed b6 27 bd 8a c8 69 3e
       0.09542484 -0.119111545 -0.040945936 0.22830406
0002a0 a2 01 65 3e 1a 6b d0 bc d5 1d 16 3e 6c 43 9e bd
       0.22363904 -0.025441695 0.14659818 -0.077277035
0002b0 b8 ce 7d bf 84 31 2b 40 11 6b 7e 3f 2c 3f 02 be
       -0.9914355 2.6748972 0.9938212 -0.1271941
0002c0 43 4c 2c 3c c2 12 cf bd 11 4b 93 3d db b3 95 be
       0.010516229 -0.10111 0.07192052 -0.2923878
0002d0 d2 7e 1b be 18 e2 3d 3d 01 c6 6a 3d 90 e7 80 3e
       -0.15185097 0.046358198 0.057317737 0.25176668
0002e0 30 da 84 3d ea 16 11 3e a1 60 44 be 48 8a 4f 3e
       0.064869285 0.14168897 -0.19177486 0.20267594
0002f0 82 89 9f bd aa 85 50 3f 78 8d 92 bf d4 f1 93 be
       -0.077898994 0.81453955 -1.1449423 -0.28895438
000300 e1 ae a0 3d 0e 9b db 3d 93 f6 82 3b ba 47 66 bd
       0.078458555 0.10722934 0.003996679 -0.056220748
000310 8c eb 28 bd 6c 94 84 be f2 b8 9b bc a2 10 d3 3d
       -0.04124026 -0.25894487 -0.019009087 0.10305907
000320 4f 9d 22 3b a9 61 85 bc d3 6c 1a be ae 63 e9 bd
       0.0024813002 -0.01628192 -0.15080576 -0.113959655
000330 6a a1 db 3d 0c 2a 8b 3d 58 c5 85 bf 7d 5e 4e 40
       0.10724147 0.06795129 -1.045085 3.224517
000340 20 e5 1c 3e cc a0 29 be 12 2c 06 3e 1e 5e 84 3d
       0.15321779 -0.16565245 0.13102749 0.06463264
000350 29 ff 86 be 39 0a fc bc e6 69 4c 3e c3 58 dc bd
       -0.26366547 -0.030766593 0.19962272 -0.107591175
000360 6f 42 a0 3d 83 97 c3 3c c7 ea 7f bd 15 33 8e 3d
       0.07825171 0.023875957 -0.06247976 0.06943337
000370 3b ce e7 bb 4f 4b 49 3b a2 d7 6d bc ff 18 5d 3e
       -0.007074145 0.0030715053 -0.014516743 0.21591567
000380 b3 56 3a bf 42 24 37 3f a4 69 b3 3d 69 24 63 3d
       -0.7278854 0.715397 0.08760384 0.055454645
000390 a8 e1 9b 3d d3 f2 3d be 83 65 3f be 78 83 d8 bd
       0.076114 -0.18549661 -0.18691067 -0.10571951
0003a0 00 8b 92 be da b4 8a 3e 62 07 0e 3d 67 49 2a 3e
       -0.28621674 0.27091104 0.03467501 0.16629563
0003b0 1d 77 a3 bc ba 93 99 3c 86 3c 2c bd fc a5 09 3e
       -0.019954259 0.0187472 -0.042049907 0.13442224
0003c0 67 e9 24 bf 01 56 3e 40 56 2a fc 3e 03 64 53 bc
       -0.64418644 2.9739993 0.4925105 -0.012902263
0003d0 5c 3e 98 be 03 1f fc 3c f3 f7 89 3e a0 8f 1b 3e
       -0.29735076 0.030776506 0.26946983 0.15191507
0003e0 b3 82 d9 bd 75 b0 8f bd 3a 46 c1 3d 18 dd d8 3d
       -0.10620632 -0.070160784 0.09437223 0.10589045
0003f0 b1 c6 3b 3e 52 dd 08 be d8 40 c0 bd e0 40 95 bd
       0.18337514 -0.13365677 -0.09387368 -0.072877645

net.0.bias f4 [128]
000000 e6 0c 91 3e e5 24 df bc f0 b9 73 be 3d 57 5d be
       0.28330153 -0.027239272 -0.23801398 -0.2161531
000010 84 ca ab bc 46 d9 9d 3d e2 f2 98 be e2 41 92 bc
       -0.02097059 0.07707457 -0.29872805 -0.017853681
000020 7e 3e 8e be 5c c9 7c be e7 21 2f 3e b0 ff 75 bd
       -0.27782053 -0.24686188 0.17102776 -0.060058296
000030 84 77 5d 3d 0a 31 27 3e d4 35 a4 bd e6 95 88 bd
       0.054069057 0.163273 -0.080180794 -0.06669216
000040 16 a3 16 be 10 eb 25 bd 4c 8c 36 bd c6 a2 27 be
       -0.1471065 -0.040507376 -0.04456739 -0.16370687
000050 e7 4c 9d be 40 dc 43 be 10 6c a0 3d ae 0e b9 3e
       -0.30722734 -0.19126987 0.07833111 0.36144012
000060 5c 5a a1 bd 15 1e 9d bd ef 91 76 be c6 51 3f 3e
       -0.07878563 -0.07671753 -0.24079107 0.18683538
000070 5e cc 15 be d1 e5 35 3e 28 db 98 bd 32 63 28 3e
       -0.14628741 0.17763449 -0.07463676 0.1644409
000080 a3 53 63 3c e3 f1 a7 3d 13 93 79 3e 34 67 4a 3d
       0.013874921 0.08200433 0.2437251 0.04941483
000090 9f dc 1b be 33 98 02 bd 82 01 a3 be b9 3a ae bd
       -0.15220879 -0.03188343 -0.31837088 -0.08507294
0000a0 ea 67 eb bd f6 55 8d be 73 27 2e bd cd 54 fb 3d
       -0.114944294 -0.27604645 -0.04251809 0.12272034
0000b0 83 04 a1 bd ab 4f 4a be 38 7c 2b be fe e2 92 bd
       -0.07862189 -0.19756953 -0.16746604 -0.071722016
0000c0 9b 36 07 bd e1 6b cd 3d 55 86 98 be 35 f3 56 be
       -0.03301106 0.10030342 -0.29789987 -0.20991214
0000d0 e4 a4 9f 3e e7 5e b6 3d 9e 6b b3 3e 26 e6 79 be
       0.3118049 0.0890482 0.35043043 -0.24404201
0000e0 b1 e9 48 3e 12 c5 08 3e 2f af 52 bd 31 48 91 bc
       0.19620396 0.13356426 -0.0514366 -0.017734619
0000f0 e4 4d 4a 3d cb 96 e8 bd 33 e0 8a be e9 23 bc 3d
       0.04939069 -0.113568865 -0.27124175 0.09186537
000100 59 0a 0d 3e ac 85 b8 be d4 5d a9 be 21 4d 89 3e
       0.13773479 -0.36039484 -0.33079398 0.26816657
000110 36 32 13 3e 1c 6f 96 be 2d 63 a1 3d f9 af c6 be
       0.14374623 -0.29381645 0.078802444 -0.3880613
000120 b5 04 5a 3d 62 46 7e be 0e 67 a7 3e 2d c5 d9 bc
       0.053227145 -0.24831536 0.32695812 -0.026583279
000130 fd 6a 7f 3e dd 1d b8 3d 64 ab 2e 3a 42 26 80 3e
       0.24943157 0.08990071 0.00066631124 0.25029188
000140 56 44 39 3e aa ab 10 3e 27 f8 11 3e 54 8e b3 3d
       0.18092474 0.14127985 0.14254819 0.08767381
000150 ff db 3c 3d 6d 3f d2 3d 5d e9 44 be 79 68 2c be
       0.046108242 0.10266004 -0.19229646 -0.16836728
000160 d1 a1 66 bd 99 be 4a 3d 8a aa e8 3c e1 b2 d5 bd
       -0.056306664 0.049498174 0.028401632 -0.10434509
000170 72 4b 0e 3c 78 ca 99 3d 07 2f bd bd 10 39 a0 3e
       0.00868498 0.07509321 -0.092374854 0.31293535
000180 be 44 29 3e e0 e0 02 be 2e e8 b7 be c7 a8 94 3d
       0.1653013 -0.12781096 -0.35919327 0.07258754
000190 8d 5f 98 3d 63 ad 3e be 88 70 30 be 28 42 84 3c
       0.074401 -0.1862083 -0.17230427 0.016144827
0001a0 c7 14 84 3e 85 fc 9a bd 46 27 cf bd f7 01 4c bd
       0.25797102 -0.075676955 -0.10114913 -0.04980656
0001b0 b9 c0 15 be b0 a6 68 3d ac 41 8d bd d9 9c 7f 3e
       -0.14624299 0.05679959 -0.068972915 0.24962176
0001c0 aa b9 e6 bd a3 3b 8d 3d 82 35 3c be d7 af 80 be
       -0.11265881 0.068961404 -0.18379787 -0.25134155
0001d0 ab 17 19 be 3b 13 05 3e 60 61 c7 3d a3 28 35 3e
       -0.14950435 0.12995617 0.0973537 0.17691283
0001e0 be 0e c4 bd 3e bb 46 3d 6b 79 24 be c8 a7 d4 3d
       -0.09573124 0.04851841 -0.16061942 0.10383564
0001f0 96 ab 87 be 8d a9 1d 3d d1 2c 74 3e 79 7d 1b 3e
       -0.26498097 0.038491774 0.23845221 0.15184583
