src/training_logs_ppo/initial/ppo_checkpoint_338_1764189698.pt (torch, 480155 bytes, 42 tensors)

move_logstd f4 [2]
0	0x4016f3ef	2.3586385
1	0x400b2dab	2.1746624

shared.0.weight f4 [128, 17]
0	0x3df3ff88	0.11913973
1	0xbde04631	-0.10950888
2	0xbe6cd3c7	-0.23127662
3	0x3e66074f	0.22463726
4	0x3e3e9864	0.1861282
5	0xbe55213a	-0.20813456
6	0xbde55ea2	-0.111996904
7	0x3d96aa5e	0.07356714
8	0x3e69352f	0.22774194
9	0xbe34cf88	-0.17657292
10	0x3e3bd4b0	0.18342853
11	0xbe1cf10e	-0.1532633
12	0xbdf58351	-0.11987937
13	0xbda68bbe	-0.081321225
14	0x3d06f056	0.032944046
15	0x3e371f54	0.17883044
16	0xbe10866a	-0.14113775
17	0xbd69d4c4	-0.057087675
18	0xbdca78df	-0.098863356
19	0x3d146269	0.036226664
20	0x3d7435aa	0.05962149
21	0xbea50652	-0.32231385
22	0x3e6ba525	0.23012216
23	0xbe29794a	-0.16550174
24	0xbcb3712c	-0.02190455
25	0xbcf89a5b	-0.03034704
26	0xbeb11be9	-0.34591606
27	0xbdfee404	-0.12445834
28	0xbcc5903a	-0.024116624
29	0x3e1d3a87	0.15354358
30	0x3b828c16	0.0039839847
31	0x3dd4d5da	0.103923514
32	0xbe05da50	-0.13071561
33	0xbe0cbb2b	-0.13743274
34	0x3e6a7ae8	0.22898448
35	0x3e96474e	0.29351276
36	0x3cb7d0c4	0.022438414
37	0x3da2d782	0.07951261
38	0xbeb82ced	-0.35971776
39	0xbe258e05	-0.16167457
40	0xbc75f6bf	-0.015012442
41	0xbe4470c3	-0.1918364
42	0xbbe9eeb7	-0.0071390527
43	0xbda691d5	-0.08133284
44	0xbdaed962	-0.08537556
45	0xbd116282	-0.035494335
46	0x3dda9579	0.10673041
47	0xbe0791ad	-0.13239165
48	0x3e1afa55	0.15134557
49	0x3d2dc08e	0.042419963
50	0x3c3f32b0	0.0116698
51	0x3c090a17	0.008364222
52	0xbdd63f3d	-0.104612805
53	0xbe8fb711	-0.28069356
54	0xbd849316	-0.06473367
55	0x3dfe3ef3	0.1241435
56	0x3e3cd9f2	0.18442515
57	0x3e27b400	0.16377258
58	0x3d169335	0.03676148
59	0x3e362495	0.17787392
60	0xbe01a9ca	-0.12662426
61	0x3d006b47	0.031352308
62	0xbd4364b2	-0.047703452
63	0xbccf9c27	-0.025343014
64	0xbd9773e8	-0.07395154
65	0x3d2137a6	0.03935971
66	0xbe3ae258	-0.18250406
67	0x3e5488a6	0.20755252
68	0x3e01d8a5	0.126803
69	0x3e051ace	0.12998506
70	0xbe96ac16	-0.29428166
71	0x3d7a6691	0.06113297
72	0xbd3b8530	-0.045781314
73	0x3d6c60de	0.057709567
74	0xbc10bd57	-0.008834205
75	0x3dc74b48	0.09731156
76	0xbe2cf598	-0.16890562
77	0x3e4bddee	0.19908878
78	0x3ddcf863	0.107895635
79	0x3de7b27e	0.113133416
80	0x3dffba28	0.12486678
81	0xbd49b375	-0.04924341
82	0x3ce6d93f	0.028179763
83	0xbdb6a3ae	-0.08917938
84	0x3db9422e	0.09045826
85	0xbdf4d085	-0.119538344
86	0xbc9c6c28	-0.019094542
87	0xbe52bd4f	-0.20580028
88	0xbe90da0e	-0.28291363
89	0xbe9f4b28	-0.31112027
90	0x3d0929a3	0.033486973
91	0x3e727669	0.23677982
92	0xbe3a53c2	-0.18196014
93	0x3e802a41	0.25032237
94	0xbd9f1389	-0.07767398
95	0x3de8b4e9	0.11362631
96	0x3dd0693d	0.101763226
97	0x3e1795f1	0.14803292
98	0xbcf9f455	-0.030512014
99	0xbdeca3d5	-0.11554686
100	0xbcfe0310	-0.03100732
101	0xbc162e68	-0.009166338
102	0x3d5e8b26	0.05433192
103	0x3b393a0c	0.0028263358
104	0xbe40037c	-0.18751329
105	0x3deb6eae	0.1149572
106	0xbc97e0c2	-0.01853979
107	0x3d9d6443	0.07685139
108	0xbea52241	-0.32252696
109	0xbdab6556	-0.08368938
110	0x3ea31e0f	0.3185887
111	0xbb8269b7	-0.0039798873
112	0xbe71083e	-0.235383
113	0xbdef8a01	-0.11696244
114	0x3d5cbe07	0.05389216
115	0xbd10a150	-0.03531009
116	0x3d798f72	0.060927816
117	0xbde155e2	-0.11002709
118	0x3cd6f833	0.026241397
119	0xbe0cc6f7	-0.13747774
120	0xbd97d406	-0.07413487
121	0x3e297746	0.16549405
122	0x3d502379	0.05081508
123	0x3c5aa285	0.013344412
124	0xbe863ea2	-0.2621966
125	0xbd69253d	-0.05692028
126	0x3e37a20d	0.17932911
127	0xbdf7a51f	-0.12092041
128	0xbe121a7b	-0.14267914
129	0xbd84500a	-0.06460579
130	0xbd0f3423	-0.03496183
131	0xbdb12211	-0.08649076
132	0xbde4adaf	-0.1116594
133	0x3e2a9f2d	0.16662283
134	0x3bc19458	0.0059075765
135	0x3987e52c	0.00025919953
136	0xbde93524	-0.11387089
137	0x3da3f77a	0.08006187
138	0xbd4fe85b	-0.0507587
139	0xbe106218	-0.1409992
140	0xbdf8620d	-0.12128077
141	0xbe3ef093	-0.1864646
142	0xbd93fc36	-0.0722584
143	0x3e704fa6	0.23467883
144	0x3df6916b	0.12039455
145	0xbe91f5eb	-0.28507933
146	0x3d770bf7	0.060314145
147	0xbdee91c7	-0.116488986
148	0x3de5b102	0.11215402
149	0xbdb3c1e9	-0.0877722
150	0xbe277038	-0.16351402
151	0x3ce30cd5	0.02771608
152	0xbe04aad6	-0.12955794
153	0x3de70a32	0.112812415
154	0x3c8d6017	0.017257733
155	0x3d9c9761	0.07646061
156	0xbe600cc5	-0.21879871
157	0xbe90ecb7	-0.283056
158	0xbcfded8e	-0.030997064
159	0xbd7fdbcd	-0.062465478
160	0x3e3e3861	0.18576194
161	0x3e370055	0.1787122
162	0x3e6ae889	0.22940268
163	0xbce4479b	-0.027866175
164	0x3dc5e938	0.096636236
165	0xbe4114e3	-0.18855624
166	0xbdec608e	-0.11541854
167	0x3dfc2f98	0.12313765
168	0x3d52fbf1	0.0515098
169	0x3da9d572	0.082926646
170	0xbe0fd2be	-0.14045236
171	0x3e1341d3	0.14380579
172	0xbe0ab743	-0.13546471
173	0xbc9b7646	-0.018977296
174	0xbe834b52	-0.25643402
175	0x3e837baa	0.25680286
176	0xbdd1e315	-0.102483906
177	0xbe5d4f40	-0.21612263
178	0xbe455b49	-0.19273104
179	0xbe030039	-0.12793054
180	0x3e88c25f	0.26710793
181	0xbdb93aa8	-0.09044391
182	0xbe25c03e	-0.16186616
183	0x3d549ab4	0.05190535
184	0x3d1029b4	0.03519602
185	0x3d874f0d	0.066068746
186	0xbda7b391	-0.081885464
187	0xbda911cc	-0.082553476
188	0xbe49b596	-0.19698176
189	0x3df9ee1e	0.122036204
190	0xbe944a4f	-0.28962943
191	0x3d4b0e0e	0.04957395
192	0x3dead7a3	0.11466911
193	0x3e96a6e6	0.29424208
194	0x3e493d0c	0.19652194
195	0xbce0abad	-0.027425611
196	0xbdce0e10	-0.10061276
197	0xbe55344a	-0.20820728
198	0x3de21bf8	0.11040491
199	0xbd8b4e78	-0.06802076
200	0xbd06e3a4	-0.03293194
201	0xbd25924c	-0.040422723
202	0xbdddccf0	-0.10830104
203	0xbd51694e	-0.051125817
204	0xbbb86a53	-0.005627909
205	0xbe3f29a7	-0.18668233
206	0xbddd86fb	-0.10816761
207	0xbddb6119	-0.10711879
208	0xbdc1ffa7	-0.0947259
209	0xbe887fc8	-0.2665999
210	0x3e44e647	0.19228469
211	0xbc801d0a	-0.015638847
212	0xbe166d73	-0.14690189
213	0x3d3309ca	0.043710507
214	0xbdfc2380	-0.123114586
215	0xbd2d67f7	-0.042335477
216	0xbdc772fc	-0.097387284
217	0x3c1de5dc	0.009637322
218	0x3d0ca8d1	0.034340683
219	0xbcaab9ae	-0.020840492
220	0xbd455305	-0.048174877
221	0x3e1bdb94	0.15220481
222	0x3d4348ec	0.047676966
223	0xbe8cc688	-0.27495217
224	0x3d654be1	0.055980567
225	0xbe20cd2a	-0.15703264
226	0x3e746076	0.23864922
227	0xbe6c90f9	-0.23102178
228	0xbce07f85	-0.027404556
229	0x3e378a45	0.1792384
230	0xbdd5a042	-0.104309574
231	0xbdb901b8	-0.09033531
232	0x3d6ef58f	0.05833965
233	0x3d88416f	0.066531055
234	0x3d8e0d5d	0.069361426
235	0xbd7e88d1	-0.062142197
236	0x3d8e053f	0.06934594
237	0xbd96fda1	-0.073725946
238	0xbcd245d8	-0.02566807
239	0xbd943454	-0.07236543
240	0xbd93f473	-0.07224359
241	0xbe5a0815	-0.21292146
242	0xbe6010a9	-0.21881355
243	0xbe8704e6	-0.26370925
244	0x3c5176f7	0.012784711
245	0xbe65a9a3	-0.22427993
246	0x3e956c99	0.29184416
247	0x3de5ca6f	0.11220252
248	0x3dbe8f75	0.09304706
249	0x3b5022ea	0.0031759092
250	0x3d274c8f	0.040844496
251	0x3d218a19	0.03943834
252	0x3e812c5e	0.25229162
253	0xbe4684c1	-0.19386579
254	0xbd689d18	-0.05679044
255	0xbd8979e4	-0.06712702

shared.0.bias f4 [128]
0	0xbc563726	-0.013074672
1	0xbeb51e0a	-0.3537448
2	0xbdeb26b3	-0.11481991
3	0xbe325000	-0.1741333
4	0xbe350d19	-0.17680778
5	0xbd92c428	-0.0716632
6	0xbd8c141a	-0.068397716
7	0x3dc2edda	0.09518023
8	0xbec3c38d	-0.3823513
9	0xbe081360	-0.13288641
10	0x3d9a7a3d	0.07542846
11	0xbe79423d	-0.24341674
12	0xbd1ffb18	-0.03905782
13	0xbe5080ac	-0.20361584
14	0xbccda1e5	-0.025101611
15	0xbdbd1d48	-0.092341006
16	0xbe528295	-0.20557626
17	0x3e9a0b96	0.30086964
18	0x3e0a44e7	0.13502847
19	0xbe8f7f30	-0.28026724
20	0xbe02c247	-0.12769423
21	0x3abb57ea	0.0014293168
22	0xbd3a29b8	-0.045449942
23	0x3d4fe5f7	0.05075642
24	0xbe0ac88d	-0.13553067
25	0xbe6a91fe	-0.22907254
26	0xbcb21d4f	-0.021742491
27	0xbda2cf99	-0.07949752
28	0xbba4f04e	-0.0050335294
29	0xbe94a228	-0.29029965
30	0xbd910417	-0.07080858
31	0xbe926a42	-0.28596693
32	0xbe0cb3f7	-0.13740526
33	0xbdc1905c	-0.094513625
34	0xbe9e321a	-0.308976
35	0x3cd194db	0.025583675
36	0xbe87be1e	-0.26512235
37	0xbeb175f7	-0.34660313
38	0xbcbb9805	-0.022899637
39	0xbe0d77e1	-0.13815261
40	0xbeb2e01e	-0.34936613
41	0xbe689220	-0.22711992
42	0xbc0868e4	-0.008325789
43	0xbd0daa0a	-0.03458599
44	0x3d9d5320	0.076818705
45	0xbec7960d	-0.38981667
46	0x3e0dc351	0.13844039
47	0xbe91e519	-0.284951
48	0x3e1516c4	0.14559466
49	0xbe598e34	-0.21245652
50	0xbea9e7d5	-0.33184686
51	0xbe242110	-0.16028237
52	0xbe88441e	-0.2661447
53	0xbe322513	-0.17396955
54	0x3d27da64	0.040979758
55	0xbc9bdfd8	-0.019027635
56	0x3d31cff3	0.043411206
57	0xbe83fb60	-0.2577772
58	0xbe2d5119	-0.16925468
59	0xbd08ae7e	-0.033369534
60	0xbd29455a	-0.041325904
61	0xbceea23e	-0.029130097
62	0xbdbe0a20	-0.09279275
63	0xbe41df0d	-0.18932743
64	0xbed3ccbf	-0.41367146
65	0xbe512998	-0.20426023
66	0xbe959e9f	-0.2922258
67	0xbedbeee1	-0.42955688
68	0xbe32354c	-0.17403144
69	0xbbec903c	-0.0072193425
70	0xbee3fc74	-0.44528544
71	0xbe8fc4a3	-0.2807971
72	0x3c86298a	0.01637723
73	0x3e8106eb	0.2520059
74	0xbc0fe996	-0.008783719
75	0xbdecc270	-0.115605235
76	0x3e304cf5	0.17216857
77	0xbeaef6cc	-0.34172666
78	0xbe0b0197	-0.13574825
79	0xbe36166e	-0.17781994
80	0xbdcde91e	-0.10054229
81	0xbe8ec2c0	-0.27882957
82	0xbf063b03	-0.52433795
83	0xbdcee12e	-0.10101543
84	0xbea1895f	-0.31550118
85	0xbde9c5ba	-0.114146665
86	0xbd43bf95	-0.04779013
87	0xbdff4304	-0.12463954
88	0xbdb46bf9	-0.08809657
89	0xbe9253bc	-0.2857951
90	0x3d3d1fa7	0.046172764
91	0xbe0ee943	-0.1395617
92	0xbdfecc3d	-0.12441299
93	0x3e20c0a2	0.15698484
94	0xbe60d5d6	-0.21956572
95	0x3e476748	0.19472992
96	0xbe928278	-0.28615165
97	0xbea18fcf	-0.3155503
98	0x3e2aeb75	0.16691382
99	0xbe48dbb9	-0.19615068
100	0x3e59798e	0.21237776
101	0xbe93149c	-0.2872666
102	0x3c58acb7	0.013224772
103	0xbd892960	-0.06697345
104	0x3cffac9c	0.031210236
105	0xbe3986d4	-0.18117839
106	0xbe1c8406	-0.15284738
107	0xbdfa7d7f	-0.12230968
108	0xbd8789bd	-0.06618068
109	0xbe77545c	-0.24153274
110	0xbd566118	-0.05233869
111	0xbeb0315f	-0.34412667
112	0xbe6fe728	-0.23428023
113	0xbec14dc1	-0.37754634
114	0x3c170506	0.009217506
115	0xbe9065c9	-0.28202656
116	0xbe899942	-0.2687474
117	0xbe2e0edf	-0.1699786
118	0xbea52d25	-0.32261005
119	0xbe04cfef	-0.12969945
120	0xbd1918a6	-0.037377022
121	0xbeca31d0	-0.3949113
122	0xbe2e57a6	-0.17025623
123	0xbe8b4f44	-0.27208912
124	0xbe686573	-0.2269495
125	0x3e0a6234	0.13514024
126	0xbecdd65b	-0.40202603
127	0x3c3a38ab	0.01136605

shared.2.weight f4 [128, 128]
0	0x3c838043	0.01605237
1	0x3d02c1ed	0.031923223
2	0x3d410b9a	0.047130205
3	0xbccd5bf1	-0.025068255
4	0x3d6f907d	0.058487404
5	0x3ced7443	0.028986102
6	0xbd3484a6	-0.044071816
7	0x3d0d374a	0.034476556
8	0xbd107245	-0.035265226
9	0x3d82b2cf	0.06381761
10	0xbd0b2cef	-0.0339784
11	0xbd9c7860	-0.07640147
12	0xbdbb8936	-0.0915703
13	0x3c33c34b	0.010971854
14	0x3cfa5b5b	0.03056114
15	0x3d9139ce	0.070911035
16	0x3d2aaa86	0.04166653
17	0xbcd831d4	-0.026390947
18	0x3c093b7e	0.008376
19	0x3b31d2be	0.0027133669
20	0x3babbd88	0.0052410997
21	0xbdf2c329	-0.1185363
22	0xbd9e4381	-0.07727719
23	0x3c7cd52d	0.015431684
24	0x3da9be49	0.08288247
25	0xbd9facc2	-0.07796623
26	0xbd23efaa	-0.040023483
27	0xbbd427a2	-0.006474451
28	0xbdfdd298	-0.12393683
29	0xbd7aef62	-0.06126345
30	0xbcf98ce4	-0.03046269
31	0xbbf1c84d	-0.007378614
32	0xbd0bc332	-0.0341217
33	0xbba9290a	-0.005162363
34	0x3d818321	0.06323839
35	0xbd01bbb1	-0.031673137
36	0x3d609b9f	0.05483591
37	0xbdda1c81	-0.10649968
38	0x3d41ec65	0.047344584
39	0xbdaec309	-0.08533294
40	0x3ca7f12f	0.020500747
41	0xbe032981	-0.12808801
42	0xbdbe04c7	-0.09278255
43	0x3cf8e14c	0.030380867
44	0xbcbcbb3d	-0.0230385
45	0xbda0ce6e	-0.07851873
46	0xbd8b660b	-0.068065725
47	0x3c06b7f8	0.0082225725
48	0xbd03da25	-0.03219046
49	0xbda9e483	-0.08295538
50	0x3c86b589	0.016443985
51	0xbd8de17b	-0.069277726
52	0x3c0bfb2a	0.008543769
53	0xbc8d3f11	-0.017241986
54	0xbcfcd439	-0.030862914
55	0x3d1b47e0	0.037910342
56	0x3d2e3a00	0.04253578
57	0xbd82e377	-0.06391042
58	0xbca34bb2	-0.019933555
59	0x3d2bbf72	0.041930623
60	0xbd04131f	-0.032244798
61	0xbd2b98d3	-0.04189379
62	0xbcfd63c1	-0.030931355
63	0xbd96cf83	-0.073637985
64	0x3d227f45	0.039672155
65	0x3cf0688d	0.029346729
66	0xbc82d40f	-0.015970258
67	0xbcea733a	-0.028619397
68	0xbe064fba	-0.13116351
69	0xbc1ff285	-0.009762411
70	0xbd4a0566	-0.049321555
71	0x3b499487	0.0030758695
72	0xbd368972	-0.04456467
73	0xbd9ca8f7	-0.07649415
74	0xbd70ba4a	-0.05877141
75	0xbd8a64a9	-0.06757481
76	0xbd3bae04	-0.04582025
77	0xbdfda37f	-0.123847
78	0xbd8780db	-0.06616374
79	0x3cf3dd40	0.029768586
80	0xbd09a4f9	-0.033604596
81	0xbd1e899b	-0.03870545
82	0xbe01b141	-0.12665273
83	0xbdb66ac9	-0.089070864
84	0xbd66313d	-0.0561993
85	0xbd00b3fa	-0.03142164
86	0xbcf31a7e	-0.029675718
87	0xbe2506a6	-0.16115817
88	0xbdbf2aee	-0.0933436
89	0xbd423d1a	-0.047421552
90	0xbca99935	-0.020702938
91	0xbd7541d8	-0.059877247
92	0x3bb1a0f0	0.0054207966
93	0x3cd20acd	0.025639916
94	0x3d5c22f0	0.053744256
95	0xbd4fffee	-0.050781183
96	0xbde81e93	-0.113339566
97	0xbcdc2799	-0.02687435
98	0xbd8498a2	-0.06474425
99	0x3d04ddb7	0.032438006
100	0xbdbf0500	-0.093271255
101	0x3bda50ce	0.0066624647
102	0xbe2d8d3d	-0.1694841
103	0xbde86f8e	-0.11349402
104	0xbdb62cd2	-0.088952675
105	0xbc920987	-0.017826809
106	0xbdb8e161	-0.090273626
107	0xbc4dd665	-0.012563323
108	0x3d36d454	0.044636086
109	0xbda1a493	-0.07892718
110	0x3d04d0fc	0.032425866
111	0xbd58f290	-0.0529657
112	0xbdd36dc4	-0.103236705
113	0x3ccfcad3	0.025365269
114	0xbc24a2ca	-0.010048578
115	0xbc797a9f	-0.015226989
116	0x3c290d07	0.010318047
117	0xbdf38842	-0.118912235
118	0xbdb898c6	-0.09013514
119	0xbd102f94	-0.035201624
120	0xbd46652d	-0.048436332
121	0xbd9c5e11	-0.07635129
122	0xbd4b0fd5	-0.049575645
123	0x3c5f64e6	0.013634896
124	0x3bb15636	0.0054118885
125	0x3c93fe93	0.018065726
126	0xbd8fba9e	-0.07018016
127	0xbcd27402	-0.025690082
128	0xbd42e346	-0.047580026
129	0xbd017316	-0.031603895
130	0xbdf2d935	-0.11857835
131	0xbe025d24	-0.12730843
132	0x3cc211cb	0.023690125
133	0x3ce2ced2	0.02768651
134	0xbdc15b46	-0.09441237
135	0x3da3ea35	0.08003656
136	0x3d6f65ad	0.058446575
137	0x3cc6d8f7	0.024273379
138	0xbd8bfe64	-0.068356305
139	0xbd087354	-0.03331311
140	0xbddb66c3	-0.107129596
141	0x3d285b56	0.04110273
142	0x3c9507d4	0.01819221
143	0x3d521b52	0.051295586
144	0x3ca50e46	0.020148408
145	0xbd839d0e	-0.0642644
146	0xbd6cb620	-0.057790875
147	0x3d397265	0.04527511
148	0xbdd4336e	-0.10361372
149	0xbd2dfd8b	-0.042478126
150	0xbd904aac	-0.070454925
151	0x3cf49017	0.029853864
152	0x3c1617d8	0.009160958
153	0x3c562714	0.01307084
154	0xbab6f668	-0.0013958933
155	0xbd9c0e3a	-0.07619901
156	0xbd2a2bed	-0.041545797
157	0xbd625760	-0.05525911
158	0xbceff1f9	-0.029290186
159	0xbdbb6c11	-0.091514714
160	0x3b34c756	0.0027584634
161	0xbdcb6e49	-0.099331446
162	0xbd1be577	-0.03806063
163	0x3d441cdb	0.04787908
164	0xbdd67f57	-0.10473507
165	0x3bf6d2e4	0.0075324643
166	0xbd0d6dac	-0.03452842
167	0xbde00563	-0.109385274
168	0xbdccc97c	-0.099993676
169	0xbb600631	-0.0034183378
170	0x3d1b7a32	0.03795833
171	0x3aaabf0a	0.0013026905
172	0x3cebd392	0.028787408
173	0xbd9e783d	-0.077377774
174	0x3d734493	0.05939157
175	0x3d1549f6	0.036447488
176	0xbc71baa2	-0.014753969
177	0xbd371ede	-0.04470717
178	0xbdcdc1e9	-0.10046751
179	0xbda3456d	-0.07972226
180	0x3d262f66	0.040572546
181	0x3cc51079	0.024055706
182	0x3d3a8742	0.04553915
183	0x3d873f24	0.0660384
184	0xbdde1845	-0.10844473
185	0xbccdbfa8	-0.025115803
186	0xbd83a88d	-0.06428633
187	0x3d20555b	0.0391439
188	0xbd219e43	-0.03945757
189	0xbdf3d3a6	-0.11905603
190	0xbd842499	-0.06452293
191	0xbc635557	-0.013875327
192	0xbd3aa0e1	-0.045563582
193	0xbda71109	-0.08157546
194	0x3cd5a05d	0.026077444
195	0xbd8ee667	-0.069775395
196	0x3d81d80c	0.06340036
197	0x3d045086	0.032303356
198	0x3c115251	0.008869723
199	0x3ce34ec9	0.027747529
200	0xbda612b9	-0.0810904
201	0x3cf4c681	0.02987981
202	0xbde11ed4	-0.10992208
203	0xbc05603d	-0.008140621
204	0xbdd5153e	-0.10404442
205	0xbd942a74	-0.0723466
206	0xbd32257b	-0.043492775
207	0xbe0e762e	-0.1391227
208	0x3d30d38b	0.043170493
209	0x3b94054a	0.004517232
210	0x3a2ae867	0.0006519616
211	0x3ca356ae	0.019938793
212	0xbdbfb5a7	-0.09360819
213	0xbcceb047	-0.02523054
214	0x3cbd951a	0.023142386
215	0xbd0975f3	-0.03355975
216	0x3db0d4f2	0.08634366
217	0xbdcee313	-0.10101905
218	0xbced81b0	-0.028992504
219	0x3b6cdd83	0.0036142773
220	0xbdac08a0	-0.084000826
221	0xbdc5c28d	-0.09656248
222	0xbd977c0c	-0.07396707
223	0x3cd785de	0.02630895
224	0x3ad56b9e	0.0016282683
225	0x3c81678f	0.01579645
226	0xbe0bd6f4	-0.13656217
227	0xbe21255c	-0.15736908
228	0xbe05638f	-0.1302626
229	0xbc9a11f9	-0.018807398
230	0x3cd3223b	0.025773158
231	0xbdaa0633	-0.08301964
232	0xbd3e5a86	-0.04647305
233	0xbdcb0d90	-0.09914696
234	0x3d806cca	0.0627075
235	0xbd5c4109	-0.05377296
236	0xbce70bb6	-0.028203826
237	0xbc7a352f	-0.015271469
238	0x3d0489df	0.032358047
239	0xbd4fa1b6	-0.05069133
240	0x3db6e64b	0.08930644
241	0xbb961ce1	-0.0045810794
242	0xbc802ac7	-0.015645398
243	0x3d0066de	0.0313481
244	0xbd760ede	-0.060072772
245	0xbdab6f76	-0.08370869
246	0x3d633792	0.055472918
247	0xbd7801fa	-0.06054876
248	0xbdc68364	-0.096930295
249	0xbd847c4b	-0.064690195
250	0xbdd473b0	-0.10373628
251	0xbd764e51	-0.060133282
252	0xbcc6f871	-0.024288388
253	0xbdcc2ff7	-0.09970086
254	0xbde84de7	-0.11342984
255	0xbcf6f984	-0.030148275

shared.2.bias f4 [128]
0	0xbda6a57c	-0.081370324
1	0xbde0f1d9	-0.10983629
2	0xbe055c98	-0.13023603
3	0x3c5fd5b5	0.013661792
4	0xbcecc62c	-0.02890309
5	0x3cc63454	0.024194874
6	0x3d1cad20	0.038251042
7	0x3c8c6fce	0.017143156
8	0xbde9fb7a	-0.114249185
9	0x3c8cb018	0.017173812
10	0xbdc81153	-0.09768929
11	0xbd0c53d0	-0.034259617
12	0x3b1315e3	0.0022443465
13	0xbda188f7	-0.07887452
14	0xb9cdabed	-0.00039228742
15	0xbe128224	-0.14307457
16	0xbca021d2	-0.019547377
17	0xbdc2fca5	-0.09520844
18	0x3c387ceb	0.0112602515
19	0xbdbf0a8f	-0.09328186
20	0xbde500d9	-0.11181802
21	0x3d2d230c	0.04226975
22	0xbda3714d	-0.07980595
23	0xbc1ba6b0	-0.009500191
24	0xbc7acb64	-0.015307281
25	0x38ae8655	8.321988e-05
26	0x3cadea5b	0.021229913
27	0x3c3b8194	0.011444468
28	0xbd99d461	-0.07511211
29	0xbd287adb	-0.04113279
30	0xbdd05fe7	-0.10174542
31	0xbc84b66a	-0.016200263
32	0x3d0e906b	0.034805696
33	0xbcc55b72	-0.024091456
34	0xbd99cbb5	-0.07509557
35	0x3d06d9df	0.03292262
36	0xbdbbd4ba	-0.09171434
37	0xbd436ef6	-0.047713242
38	0xbdbc1220	-0.091831446
39	0xbd9800c9	-0.07422025
40	0xbdadecb0	-0.0849241
41	0xbc88398f	-0.016629009
42	0x3c83c555	0.016085306
43	0xbdaec993	-0.08534541
44	0xbe16e945	-0.14737423
45	0xbd818186	-0.06323533
46	0xbb782826	-0.0037865727
47	0x3cfff99a	0.031246949
48	0xbcb040f5	-0.021515349
49	0xbde3a192	-0.111148015
50	0x39dabca9	0.00041720763
51	0xbd724fbe	-0.05915808
52	0xbe0d595e	-0.13803622
53	0xbcd9de92	-0.026595388
54	0xbc657fd2	-0.0140075255
55	0x3d13f77a	0.036124684
56	0xbb81b06b	-0.0039577982
57	0xbdf8fa60	-0.1215713
58	0xbbf683a1	-0.0075230156
59	0xbcf0d197	-0.029396815
60	0xbd8110a8	-0.06302005
61	0xbd2de713	-0.042456698
62	0x3c17e139	0.009270006
63	0xbd45ea0e	-0.048318915
64	0xbdd9ed2f	-0.10640942
65	0xbdb27658	-0.087139785
66	0xbcd3fe0f	-0.02587798
67	0xbd7ba5b9	-0.061437342
68	0xbdf3130a	-0.11868866
69	0x3cf6f72b	0.030147156
70	0xbbbc4e70	-0.005746655
71	0xbd84d005	-0.06484989
72	0xbb375f80	-0.0027980506
73	0x3cca096d	0.024662698
74	0xbe002c64	-0.12516934
75	0x3d1fdc79	0.03902862
76	0x3bc03e00	0.005866766
77	0xbde6f5f2	-0.11277379
78	0xbafd0c16	-0.001930597
79	0x3d0abd36	0.03387185
80	0xbd5b93c8	-0.053607732
81	0x3ca51a64	0.020154186
82	0x3d027763	0.031852137
83	0xbdb6775a	-0.08909483
84	0xbcc5b934	-0.024136163
85	0xbd6fa6a0	-0.058508515
86	0x3cbed2e1	0.023293914
87	0xbdeadbf8	-0.11467737
88	0x3c8842b6	0.016633373
89	0xbdcb4636	-0.09925501
90	0xbcab5d13	-0.020918405
91	0xbdd5b240	-0.10434389
92	0xbc2f585f	-0.010702222
93	0xbd671d25	-0.05642428
94	0xbd6b7a79	-0.057489846
95	0x3cdf06cd	0.027224923
96	0x3d35921e	0.0443288
97	0xbdb2da14	-0.08733001
98	0xbd8e9da3	-0.069636606
99	0x3d037e4a	0.03210286
100	0xbdf601ee	-0.12012087
101	0xbc5c663b	-0.013452108
102	0xbd5332ad	-0.051562
103	0x3cab9c76	0.02094863
104	0xbd890973	-0.066912554
105	0xbd436b43	-0.047709715
106	0xbdee16f6	-0.11625473
107	0xbddfa5b6	-0.10920279
108	0xbd1a7458	-0.03770861
109	0x3cdb533f	0.026773093
110	0xbddcf8b5	-0.107896246
111	0x3d042015	0.03225716
112	0xbdc96915	-0.09834496
113	0xbcfc9699	-0.03083353
114	0xbd874783	-0.06605437
115	0xbe0a37d1	-0.13497855
116	0xbda3dbb5	-0.0800089
117	0xbd8541bf	-0.06506681
118	0xbd511456	-0.051044784
119	0xbda3b6ee	-0.079938754
120	0xbdcc0994	-0.099627644
121	0x3cfd162e	0.030894365
122	0xbca51279	-0.02015041
123	0xbd85421b	-0.06506749
124	0xbdbe207e	-0.09283541
125	0xbda7adae	-0.08187424
126	0x3d37b48f	0.04484993
127	0xbda6ca4a	-0.08144052

move_mean.weight f4 [2, 128]
0	0x3b7c59d2	0.0038505686
1	0xbd2260d2	-0.039643116
2	0xbbd66429	-0.0065427017
3	0x3d0315cc	0.03200321
4	0x3c252232	0.010078954
5	0x3c108486	0.008820659
6	0x3bd0da1a	0.006373656
7	0x3d6dc368	0.058047682
8	0x3cc309aa	0.02380832
9	0x38d4e043	0.0001015072
10	0xbb1c83ed	-0.0023882345
11	0x3b6e3c61	0.0036351907
12	0xbad36b0a	-0.0016129923
13	0x3d478114	0.048707083
14	0x3c76918f	0.015049352
15	0xbbf6c671	-0.0075309803
16	0x3d11caf3	0.035593938
17	0x3ca7a9b0	0.020466655
18	0xbc55af67	-0.013042307
19	0xbcf20386	-0.029542696
20	0x3d0d1984	0.03444816
21	0x3d754b3a	0.059886195
22	0xbce4669c	-0.02788096
23	0x3c85af83	0.016319042
24	0xbc444665	-0.011979674
25	0x3d453780	0.048148632
26	0x3d32d067	0.04365578
27	0x3c054529	0.008134165
28	0x3c5cdc15	0.013480206
29	0xbbbeffba	-0.005828825
30	0x3c3fc476	0.011704555
31	0xbc40fcad	-0.011778993
32	0x3cc612c9	0.02417888
33	0x3b8ff16f	0.004392795
34	0x3d195e53	0.03744347
35	0xbcd86afa	-0.026418198
36	0x3ca73d03	0.020414835
37	0x3d80272f	0.06257474
38	0xbd8124bc	-0.06305835
39	0x3c8bd48e	0.017069127
40	0x3b5425c5	0.0032371145
41	0x3c2a2887	0.010385639
42	0x3d5b10b5	0.05348273
43	0x3c7fb2aa	0.015606562
44	0xbb85df44	-0.004085453
45	0xbb0c2abf	-0.0021387783
46	0xbcc402c9	-0.02392711
47	0xbd1674b0	-0.036732376
48	0x3ccea63e	0.025225755
49	0xbc3f8437	-0.011689237
50	0xbaafce5a	-0.0013412938
51	0xbbdf2692	-0.006810018
52	0xbbb6e1f1	-0.0055811335
53	0x3ab0e1da	0.0013495043
54	0x3c7c67f3	0.015405643
55	0xbcf4a7f9	-0.029865252
56	0xbd2e3f40	-0.04254079
57	0xbce19828	-0.027538374
58	0x3ce7c351	0.028291376
59	0xbbce98bb	-0.006304828
60	0xbb902060	-0.0043983907
61	0x3bf9eed5	0.007627348
62	0xbb78c308	-0.0037958045
63	0xbbfe9c92	-0.0077701295
64	0xbbc58bf7	-0.006028648
65	0x3bef03d3	0.007294157
66	0x3b113ee6	0.0022162735
67	0xbc158539	-0.009126001
68	0xbb78b1be	-0.003794774
69	0x3d51a0ae	0.051178627
70	0x3c99a90f	0.018757371
71	0x3d391607	0.045187023
72	0xbc367787	-0.011136896
73	0x3c94b39d	0.018152053
74	0x3bbbfa22	0.0057366053
75	0xbc902fb0	-0.017600864
76	0xbc935262	-0.01798362
77	0xbcd901c8	-0.026490107
78	0x3d437855	0.04772218
79	0xbc454a94	-0.012041707
80	0xbc4c8f61	-0.012485356
81	0x3d625b37	0.05526277
82	0x3bb254e9	0.005442251
83	0x3c41eb3a	0.011835868
84	0x3ab23083	0.001359478
85	0xba045bc1	-0.0005049073
86	0x3d204aa4	0.039133683
87	0x3b75b4b9	0.0037491752
88	0x3d0651a1	0.03279269
89	0x3d319df2	0.04336352
90	0xbd3b71a2	-0.045762666
91	0xbd2ddcd9	-0.042446945
92	0x3c55f2df	0.013058393
93	0xbd613059	-0.05497775
94	0x3c5addb4	0.013358522
95	0x3d90c3ec	0.07068619
96	0x3d586100	0.05282688
97	0xbcce7b97	-0.025205417
98	0x3d8ab335	0.06772462
99	0x3cd6064b	0.026126048
100	0x3bcc0430	0.006226085
101	0x3d1923fc	0.037387833
102	0xbc8985d8	-0.016787454
103	0x3c0c8b62	0.008578153
104	0x3a213900	0.0006150156
105	0xbc0583d2	-0.008149104
106	0x3d2d494a	0.042306222
107	0x3ceb5eb9	0.02873169
108	0x3c13d147	0.009022064
109	0xbaefa22f	-0.0018282587
110	0x3b992a2b	0.0046742163
111	0xbc0bd901	-0.0085356245
112	0xbd6ebef2	-0.05828757
113	0x3c088c64	0.008334253
114	0x3ae518f5	0.0017478751
115	0xbc2f50d4	-0.010700423
116	0x3cd179cc	0.025570773
117	0x3c63d8ae	0.013906641
118	0x3cfa69a9	0.03056796
119	0x3ceacae3	0.028661197
120	0xbd237909	-0.03991035
121	0xbd345107	-0.044022586
122	0x3d71871b	0.058966737
123	0xbccb8e06	-0.024847995
124	0x3a25e72c	0.0006328698
125	0xbc726167	-0.01479373
126	0x3b711d73	0.0036791235
127	0x3ca7f04e	0.020500328
128	0x3cdf7da3	0.027281588
129	0x3ca33516	0.019922774
130	0x3a638497	0.000867912
131	0x3bd9f292	0.006651231
132	0x3d29864f	0.041387852
133	0x3c8d34c7	0.01723708
134	0x3c0cd7a2	0.008596333
135	0xbc39daab	-0.011343638
136	0x3c4f6b08	0.012659796
137	0xbc477897	-0.012174747
138	0xbcf5d809	-0.03001024
139	0x3c0567bd	0.008142409
140	0x3da645e4	0.08118799
141	0xbbce6f02	-0.0062998543
142	0xba04b529	-0.00050623954
143	0xbc054a38	-0.008135371
144	0xbbc80699	-0.006104302
145	0xbc24278d	-0.010019195
146	0xbc9893e9	-0.018625217
147	0x3d1c9dab	0.0382363
148	0x3d5272d1	0.05137903
149	0x3b18d66d	0.0023321167
150	0x3d41f8df	0.047356483
151	0xbce5e22b	-0.028061947
152	0xbcaedb33	-0.021344757
153	0xbcd49720	-0.025950968
154	0x3d172446	0.036899827
155	0x3bd54065	0.0065079206
156	0xbc0cd946	-0.008596724
157	0x3c11aa34	0.008890677
158	0xbc0e7201	-0.008694173
159	0xbbeb7e31	-0.007186674
160	0xbca42eed	-0.020041907
161	0xbb1f1acb	-0.0024277444
162	0x3cab6c53	0.020925676
163	0xbcf85425	-0.03031356
164	0xbcdf6130	-0.027268022
165	0xbd57c4a4	-0.052677765
166	0x3d3e1488	0.0464063
167	0xbbb6ed00	-0.005582452
168	0x3d04d506	0.032429717
169	0x3b1e4672	0.0024150875
170	0xbc48911f	-0.012241631
171	0x3cba5ccc	0.022749327
172	0x397eec50	0.00024311361
173	0x3cf83de2	0.030302946
174	0x3bfcaeda	0.0077112736
175	0xbcd7b06a	-0.026329238
176	0x3b9d2f17	0.0047968733
177	0xbc8a5693	-0.016886985
178	0xbac0efb9	-0.001471988
179	0xbb390237	-0.002823008
180	0x3cac9696	0.021067899
181	0x3d2d077d	0.04224347
182	0x3c56563e	0.013082085
183	0x3d473c26	0.048641346
184	0xbd509b9b	-0.050929647
185	0x3b636e6b	0.0034703265
186	0x3d079d7f	0.033109184
187	0x3ba2c1ff	0.004966974
188	0x3cb6426f	0.022248475
189	0xbc0efd6e	-0.0087274145
190	0xbc9899e4	-0.018628068
191	0x3d0fd0dd	0.035111297
192	0x3c4a8538	0.012360863
193	0xbc271201	-0.010197164
194	0xbcae0524	-0.021242686
195	0xbbb65231	-0.005563997
196	0xbcd32531	-0.02577457
197	0x3cb3d04b	0.021949908
198	0x3aa4221c	0.0012522372
199	0xbd7597d3	-0.059959244
200	0x3c3f7775	0.011686196
201	0xbc3d68e9	-0.011560657
202	0xbd181605	-0.037130374
203	0x3c3a382f	0.011365934
204	0xbd147ee7	-0.036253836
205	0xbd028e66	-0.031874083
206	0xbd6a46f3	-0.05719657
207	0x3bc2c010	0.005943306
208	0xbd55373f	-0.05205464
209	0xbd62b16a	-0.055344976
210	0xbbffda06	-0.007807973
211	0x3c892db0	0.016745418
212	0xbc3ab1de	-0.011394946
213	0xb9309f0d	-0.00016843919
214	0xbb081814	-0.0020766305
215	0xbd1f604f	-0.038910206
216	0xbc2d5ce4	-0.010581229
217	0xbc673d61	-0.014113755
218	0x3c30943e	0.010777531
219	0x3a6d3261	0.00090483396
220	0x3a14b1c5	0.00056722417
221	0x3cc2d049	0.023780959
222	0x3d3b46b5	0.04572173
223	0x3c71b688	0.0147529915
224	0x3c87b0e9	0.01656385
225	0xbd3a4d30	-0.045483768
226	0x3cc92fde	0.024558958
227	0x3d1ab2bd	0.037768114
228	0x3d05de76	0.03268286
229	0x3d743c8b	0.05962805
230	0xbd84b46e	-0.06479727
231	0xbc4d9ccb	-0.012549589
232	0x3d2cf5b3	0.042226505
233	0x3c03622f	0.008019014
234	0xbcaba0a4	-0.020950623
235	0x3c80b902	0.015713219
236	0x3cbd74be	0.023126956
237	0x3d135779	0.035972092
238	0xbb7d4f4f	-0.0038652008
239	0x39e67cce	0.00043962005
240	0x3d209102	0.03920079
241	0xbc11c970	-0.008898124
242	0x3d238117	0.03991803
243	0xbc8b06b1	-0.016970964
244	0xbb16c29f	-0.0023004187
245	0x3a91e117	0.0011129704
246	0xbcf75f56	-0.030196827
247	0x3c5f50a5	0.013630067
248	0x3d8e02d4	0.06934133
249	0x3c36edf8	0.011165135
250	0xbdabd8ec	-0.08390984
251	0x3c9fd8a5	0.019512484
252	0x3af6aba6	0.0018819466
253	0x3bd21353	0.006410995
254	0xbb1e3bfc	-0.002414464
255	0x3cb7007e	0.022339102

move_mean.bias f4 [2]
0	0x3e76c50d	0.24098606
1	0xbea45d3a	-0.32102376

food_logits.weight f4 [3, 128]
0	0xbd0e1ccf	-0.034695443
1	0x3ca1e77d	0.019763703
2	0x3cacfddd	0.021117145
3	0xbc9d6160	-0.019211471
4	0x3cca6a0a	0.024708766
5	0xbcb8f1bd	-0.022576207
6	0x3c00aca2	0.007853659
7	0x3d86e5d2	0.065868035
8	0xbcae7e76	-0.021300536
9	0xbcd89309	-0.0264373
10	0x3d06f19a	0.032945253
11	0xbd246d56	-0.040143333
12	0xbd677bc2	-0.05651451
13	0xbcca5708	-0.024699703
14	0x3c236ac7	0.009974188
15	0x3d3655b4	0.044515327
16	0xbd0257ed	-0.031822134
17	0xbc3543db	-0.011063541
18	0x3d5c4e37	0.05378553
19	0xbd7e5d50	-0.06210071
20	0x3d4effbe	0.050536864
21	0x3c2f8def	0.010714992
22	0xbd58d346	-0.05293586
23	0xbc8d88c9	-0.017277138
24	0xbbef2f3b	-0.0072993315
25	0x3d55c8b6	0.052193366
26	0x3d2a3cf7	0.041562047
27	0xbd083cf2	-0.033261247
28	0x3bed0342	0.0072330544
29	0xbcc374be	-0.023859378
30	0xbd100718	-0.035163015
31	0x3d47f0a7	0.04881349
32	0x3d694d82	0.056958683
33	0x3d473f6b	0.048644464
34	0x3d330c8b	0.043713134
35	0xbcc1e407	-0.023668302
36	0x3d88600d	0.06658945
37	0x3b64522d	0.003483902
38	0x3d05c687	0.032660034
39	0xbd50ff17	-0.051024523
40	0xbdad3bd7	-0.08458679
41	0x399d28eb	0.0002997586
42	0x3cbb07fa	0.022830952
43	0xbc91e532	-0.017809484
44	0xbca9187e	-0.020641562
45	0x3d1059d3	0.035241913
46	0xbd1a39fc	-0.037652954
47	0x3d975110	0.07388508
48	0x3d2901cb	0.041261476
49	0xbad8174c	-0.0016486435
50	0xbda49587	-0.080363326
51	0x3cb69f3a	0.022292722
52	0x3d375521	0.04475892
53	0x3ba3df43	0.00500098
54	0xbd89b4e1	-0.06723953
55	0xbd420ac3	-0.047373544
56	0x3cb4ea37	0.022084339
57	0xbc9509e1	-0.018193187
58	0x3c64c3e6	0.013962721
59	0x3ce31b06	0.027722847
60	0x3d2b2a81	0.04178858
61	0xbd3607c8	-0.044441015
62	0x3d81da4a	0.063404635
63	0xbc1bb903	-0.009504559
64	0x3da4ab8f	0.08040535
65	0x3d4d861d	0.05017673
66	0x3d816c03	0.0631943
67	0x3ce8effe	0.02843475
68	0xbbdba1f6	-0.006702657
69	0x3d0af910	0.03392893
70	0x3c83371f	0.016017495
71	0x3d8f683c	0.07002303
72	0x3b819df3	0.0039555966
73	0x3d04ecd4	0.03245242
74	0x3c42e33a	0.011894995
75	0xbcdc4168	-0.026886657
76	0x3d55491b	0.052071672
77	0x3d381ff7	0.04495236
78	0x3d2c75e2	0.04210461
79	0x3d298e7a	0.041395642
80	0x3d3dff07	0.04638579
81	0x3d9fb34f	0.07797872
82	0x3d5c8af7	0.053843465
83	0x3d6b28c7	0.057411935
84	0xbcbc594a	-0.022991795
85	0xbd554534	-0.05206795
86	0x3cd57b47	0.02605976
87	0x3d97b2a1	0.07407118
88	0xbcf7c8a4	-0.03024704
89	0x3d04def0	0.032439172
90	0xbcec534a	-0.02884831
91	0xbca13fac	-0.019683681
92	0x3cfb54aa	0.03068002
93	0x3d0c251c	0.034215078
94	0xbd1cddc8	-0.038297445
95	0xbcdad9ef	-0.026715247
96	0xbb597a39	-0.0033184423
97	0xbcdae430	-0.026720136
98	0xbcef18b5	-0.029186586
99	0xbccc2cd6	-0.024923723
100	0xbd5671fc	-0.052354798
101	0xbd27779d	-0.040885556
102	0x3d6bc52e	0.057561092
103	0xbd22bc7d	-0.039730538
104	0xbd93ca72	-0.07216348
105	0xbcb0a8b5	-0.02156482
106	0xbd35686d	-0.04428904
107	0x3d6af3ed	0.057361532
108	0x3d285991	0.041101042
109	0x3d3ea3e7	0.04654303
110	0xbd733a3f	-0.05938172
111	0x3c3c66f9	0.01149916
112	0xbbae6fc3	-0.0053233816
113	0xbd57f899	-0.052727316
114	0x3d2ce681	0.042212013
115	0x3ca4f7c0	0.020137668
116	0x3caa68bb	0.020801893
117	0x3ba2e5a7	0.0049712243
118	0x3cb55ab7	0.022137983
119	0x3cd4f2ee	0.025994744
120	0xbccb91c2	-0.024849776
121	0x3c22462a	0.009904424
122	0xbd0e9e40	-0.034818888
123	0xbd464e50	-0.04841453
124	0x3ad5696f	0.0016282032
125	0x3cf0c2e3	0.029389804
126	0xbcafebe2	-0.021474782
127	0x3d1a12de	0.03761565
128	0xbd29f9f0	-0.041498125
129	0x3bc4b6d7	0.0060032415
130	0xbc4a5fea	-0.012351969
131	0xbca9b7cd	-0.020717526
132	0xba67410b	-0.0008821643
133	0x3d0729b5	0.03299876
134	0x3c8368a5	0.01604111
135	0x3d46407c	0.04840134
136	0xbd0e4d08	-0.03474143
137	0xbd002a94	-0.031290606
138	0x3c952096	0.018204015
139	0xbc25fd11	-0.0101311365
140	0x3b08a7d7	0.0020851993
141	0x3d890d1e	0.06691955
142	0xbb9c89ba	-0.0047771605
143	0x3c1b2369	0.009468892
144	0x3d412e55	0.047163326
145	0xbb6d1ca0	-0.0036180392
146	0x3ce4b6d3	0.027919209
147	0xbd9614dd	-0.07328198
148	0xbc34af5e	-0.011028139
149	0x3d0a7a5a	0.03380809
150	0xbaf70cfc	-0.0018848474
151	0xbbce05c8	-0.0062873103
152	0x3b4a3dad	0.0030859516
153	0x3d464b69	0.04841176
154	0x3bc8fc62	0.006133602
155	0xbcecf2d8	-0.02892439
156	0x3bf31694	0.007418463
157	0xbcb5e08d	-0.0222018
158	0xbc8641f0	-0.016388863
159	0x3cdd7bcf	0.027036576
160	0x3cee8f3e	0.029121038
161	0x3ceed0d4	0.029152311
162	0x3d2caa73	0.04215474
163	0xbcd759fc	-0.026288025
164	0x3d814012	0.063110486
165	0x3d9c05e2	0.076183096
166	0xbc07e774	-0.008294929
167	0xbd2fc75f	-0.042914744
168	0x3c14ad68	0.009074546
169	0x3caad430	0.020853132
170	0xbbf8e940	-0.007596165
171	0xbb062ead	-0.0020474598
172	0x3ca0c88e	0.019626882
173	0x3d8f7489	0.07004649
174	0xbcfb0424	-0.030641623
175	0x3d88c7c7	0.066787295
176	0x3b7cc7c1	0.003857121
177	0x3be279ac	0.006911477
178	0xbd8b317c	-0.06796548
179	0xbcbcc1f7	-0.023041708
180	0x3d53323b	0.051561575
181	0x3d844ebd	0.06460331
182	0xbcc69b3b	-0.024243942
183	0xbd82f84d	-0.06395016
184	0x3d0065a2	0.031346925
185	0x3b7535e7	0.0037416162
186	0x3d20b8b3	0.039238643
187	0x3d74e976	0.05979296
188	0x3d072d51	0.0330022
189	0xbc075a2c	-0.008261245
190	0x3d91c81b	0.07118245
191	0x3d3e3b6e	0.046443395
192	0x3d3faaff	0.046793934
193	0x3d722385	0.059115905
194	0xbd04120a	-0.032243766
195	0x3a622b16	0.0008627636
196	0xbc609ff6	-0.013710013
197	0x3c3496ad	0.011022252
198	0x3d15568e	0.036459498
199	0xbda48bda	-0.08034487
200	0x3c617ee8	0.013763167
201	0x3d1cb600	0.038259506
202	0x3d984cd3	0.07436528
203	0xbcb0f578	-0.021601424
204	0xbcbe28a9	-0.023212748
205	0x3ceb3fa4	0.02871687
206	0x3da43439	0.08017773
207	0x3d5bebbe	0.05369162
208	0x3d050f7b	0.032485466
209	0xbd2ebcb4	-0.04266043
210	0x3d941c70	0.072319865
211	0x3d7c4b74	0.061595395
212	0xbc9a5798	-0.018840596
213	0xbd829b32	-0.063772574
214	0x3caf3da9	0.021391707
215	0x3c626f12	0.013820427
216	0xbd6269fd	-0.05527686
217	0x3bc1c405	0.00591326
218	0xbc5f4ee1	-0.013629646
219	0xbd84bb0a	-0.06480987
220	0x3ca20e79	0.019782292
221	0x3d79cea3	0.06098808
222	0x3cc30800	0.023807526
223	0x3c1fcc6b	0.009753327
224	0xbd01dc25	-0.031704087
225	0xbd0ddede	-0.03463637
226	0xbaf04f40	-0.0018334165
227	0xbd574d3d	-0.052563895
228	0xbd85e9ac	-0.0653871
229	0xbc79dc79	-0.015250319
230	0x3d56c0b6	0.052429877
231	0xbcf1d907	-0.029522432
232	0x3d413dad	0.04717796
233	0xbcb8b48a	-0.022547025
234	0x3c40bf14	0.011764307
235	0x3cbd5243	0.023110515
236	0xbc34f253	-0.011044103
237	0x3ca43815	0.020046273
238	0xbcb7374b	-0.022365233
239	0x3c80766b	0.015681466
240	0xbb33b154	-0.0027418928
241	0xbcc67951	-0.02422777
242	0xbd321f47	-0.04348686
243	0x3d260ae8	0.040537745
244	0x3d19ca62	0.037546523
245	0x3c93f941	0.01806319
246	0xbd38aae3	-0.045084845
247	0x3d742151	0.059602086
248	0xbd48d343	-0.0490296
249	0x3ce02a07	0.02736379
250	0xbd4c97b8	-0.049949378
251	0xbd4226ce	-0.04740029
252	0x3d43a425	0.047763962
253	0xbcc750b7	-0.02433048
254	0xbcc1ffae	-0.023681488
255	0xbbcc2239	-0.0062296656

food_logits.bias f4 [3]
0	0xbdfd5357	-0.123694114
1	0x3d8ce09b	0.068787776
2	0x3d80db34	0.0629181

net.0.weight f4 [128, 17]
0	0x3e1a23ba	0.15052691
1	0xbe21f5e1	-0.15816452
2	0x3fb48611	1.4103414
3	0xc0a45a5e	-5.136031
4	0xbf07bcbb	-0.53022355
5	0xbe941649	-0.28923252
6	0xbe16e992	-0.14737538
7	0x3e13bddf	0.14427899
8	0xbd6c3f2c	-0.057677433
9	0x3d64052e	0.055669002
10	0x3e0a8586	0.13527498
11	0xbe09a56a	-0.13442007
12	0x3e2bb36f	0.16767667
13	0xb9dd4c0f	-0.00042209073
14	0xbd260878	-0.04053542
15	0x3e3ae393	0.18250875
16	0x3ddf74d0	0.10910952
17	0x3dc40ac4	0.09572366
18	0xbdb309a1	-0.08742071
19	0xc014148d	-2.3137543
20	0x407059f7	3.755491
21	0x4003aedd	2.0575478
22	0xbe3069f5	-0.1722792
23	0x3df962f6	0.121770784
24	0xbda21d1f	-0.07915711
25	0x3e3f3774	0.18673497
26	0x3d906192	0.0704986
27	0xbe11f6de	-0.14254329
28	0xbe2cf292	-0.16889408
29	0xbe7c1dc1	-0.24620725
30	0xbdbf95fc	-0.09354779
31	0x3dd69ad7	0.10478752
32	0xbda924a7	-0.08258944
33	0xba7017c1	-0.0009158813
34	0xbca1a986	-0.019734155
35	0x3be3a44f	0.0069470773
36	0x3f8b6edc	1.0893207
37	0xbfb64f24	-1.4242902
38	0xc04909a8	-3.1412144
39	0x3dadfc2c	0.084953636
40	0xbae37da6	-0.0017356172
41	0x3d265a01	0.04061318
42	0x3db11177	0.08645909
43	0xbc8905aa	-0.016726334
44	0x3e05ffbf	0.1308584
45	0x3d80f449	0.06296594
46	0x3d9a9be9	0.07549269
47	0x3d6051d1	0.054765526
48	0xbddb916f	-0.10721099
49	0x3c369715	0.011144419
50	0xbd94bdd8	-0.07262772
51	0xbded6e33	-0.115932845
52	0xbdcb9b27	-0.09941702
53	0x3f8fdab7	1.1238621
54	0xc08bfacd	-4.3743653
55	0xbe8e0a06	-0.27742022
56	0xbca91b7c	-0.020642988
57	0x3e6c14e5	0.23054846
58	0xbe32d520	-0.17464113
59	0xbe08942d	-0.13337775
60	0xbd4f3944	-0.050591722
61	0xbe23bf7e	-0.15991017
62	0xbe3adae6	-0.18247566
63	0xbe28d0c7	-0.16485892
64	0xbdfc2d2c	-0.12313303
65	0x3e2f2e81	0.17107584
66	0x3e54b036	0.20770344
67	0x3da13b1a	0.07872601
68	0x3db72b1d	0.0894377
69	0xbe515e67	-0.20446168
70	0x3fad17f6	1.3522937
71	0x3f7ae3b9	0.9800373
72	0xc0338b22	-2.805367
73	0xbbd926f2	-0.006626957
74	0xbe46c7c9	-0.1941215
75	0xbdc6df66	-0.097105786
76	0xbe0847a4	-0.13308579
77	0x3e1d20a1	0.15344478
78	0xbc8574cc	-0.016291045
79	0x3d9ebe64	0.07751158
80	0xbe50fc0e	-0.20408651
81	0x3e4aef3c	0.19817823
82	0x3dc4ca15	0.096088566
83	0x3c608e25	0.013705765
84	0xbe00c7a4	-0.12576157
85	0xbdc6d69e	-0.09708904
86	0xbd554106	-0.052063964
87	0x3fdea4de	1.7394063
88	0xbfdeab30	-1.7395992
89	0xc004bc80	-2.0740051
90	0xbea1482a	-0.3150037
91	0xbd142792	-0.03617055
92	0xbd3aacfc	-0.045575127
93	0xbe160bc5	-0.14652927
94	0xbe31d545	-0.17366512
95	0x3e4dff59	0.20116939
96	0xbcc46262	-0.023972694
97	0xbda2977d	-0.0793905
98	0x3c3322f4	0.010933626
99	0xbb9e645b	-0.0048337406
100	0xbda22de9	-0.07918913
101	0xbdebdac0	-0.115163326
102	0xbd4d4daf	-0.050122913
103	0xbdcbc9b7	-0.099505834
104	0xbfed7e1f	-1.8554114
105	0x40b0f23e	5.5295706
106	0x3f5bd654	0.85873914
107	0xbd0b9b3e	-0.034083597
108	0x3dc1278b	0.0943137
109	0x3e3e9b23	0.18613867
110	0x3be0e925	0.0068637305
111	0xbcfdc241	-0.030976417
112	0x3e67495d	0.2258658
113	0xbc2c7223	-0.010525259
114	0x3c8611a7	0.01636584
115	0xbc7ba3e6	-0.015358901
116	0xbd71bc42	-0.059017427
117	0x3c91121c	0.01770883
118	0x3da96131	0.08270491
119	0x3e3960b3	0.18103294
120	0x3da73eb7	0.08166259
121	0x400dd302	2.216004
122	0xc0bc2916	-5.8800154
123	0xbf642fbf	-0.89135355
124	0x3e387d1f	0.1801648
125	0xbc44d349	-0.012013265
126	0x3e9b1876	0.302921
127	0x3e5a1dca	0.21300426
128	0x3dd241df	0.1026647
129	0xbd6e2799	-0.058143232
130	0x38e0df01	0.0001072269
131	0xbd73586b	-0.059410494
132	0xbc8d9407	-0.017282499
133	0x3e402148	0.18762696
134	0x3d43a6a4	0.047766343
135	0xbd8bd0f1	-0.06826962
136	0xbdd93ce6	-0.106073186
137	0x3bae81c1	0.0053255265
138	0x3faa372a	1.3298085
139	0xbfd1b979	-1.6384727
140	0xbec9108b	-0.39270434
141	0x3e7e8088	0.24853718
142	0x3e46b348	0.19404328
143	0xbd9123df	-0.0708692
144	0xbc1217eb	-0.008916835
145	0x3d42406b	0.047424715
146	0x3cbdbb8b	0.023160717
147	0xbe34bc61	-0.17649986
148	0x3d347048	0.044052392
149	0x3ded96b6	0.116010115
150	0x3dd413cf	0.10355341
151	0x3d032093	0.032013487
152	0xbe5f78f7	-0.21823488
153	0x3db50a94	0.08839908
154	0x3d45f3f4	0.048328355
155	0xbfeb9e69	-1.8407718
156	0x40c90faa	6.283162
157	0x3f6d254b	0.9263503
158	0xbda951d9	-0.08267564
159	0x3d27dbb8	0.040981025
160	0xbd60caf3	-0.054881047
161	0x3cdf0119	0.027222203
162	0x3d967241	0.07346011
163	0x3d06d468	0.03291741
164	0x3d2a2cc3	0.041546594
165	0xbe20b94c	-0.15695685
166	0xbdb3469f	-0.08753704
167	0x3e547cea	0.20750776
168	0x3e107781	0.14108087
169	0x3d0c5018	0.03425607
170	0x3e13fc67	0.14451753
171	0xbdae0540	-0.08497095
172	0xbfff9056	-1.9965923
173	0x40324784	2.785615
174	0x40686f9a	3.6318116
175	0xbd3bdca2	-0.04586471
176	0x3ccc8841	0.024967315
177	0xbd44e147	-0.048066404
178	0x3dd688e7	0.10475331
179	0xbe4f1ac4	-0.20225054
180	0xbe9d2e95	-0.30699602
181	0x3c879d04	0.016554363
182	0x3d769f81	0.06021071
183	0x3e6671f1	0.22504403
184	0x3cfd126b	0.030892571
185	0x3e33fe5b	0.17577498
186	0xbe1382c2	-0.14405349
187	0x3e20f14a	0.15717044
188	0xbcbe75b0	-0.023249477
189	0x3edc6c50	0.43051386
190	0xc074458d	-3.816745
191	0x3ec722c7	0.3889372
192	0x3e2306a8	0.15920508
193	0x3dc1ad73	0.09456911
194	0xbd9dcfe6	-0.07705669
195	0x3dcfdd43	0.10149624
196	0xbcec9948	-0.028881684
197	0xbe80de19	-0.25169447
198	0xbdf5423d	-0.119755246
199	0x3d5dcd0a	0.05415062
200	0x3d8121f6	0.06305306
201	0xbd287763	-0.04112948
202	0xbd307623	-0.043081414
203	0x3c4ceaad	0.012507123
204	0x3cd06612	0.025439296
205	0x3d762f51	0.06010372
206	0xbf379243	-0.7170755
207	0x40c3b239	6.1155057
208	0xbe416206	-0.18885049
209	0x3d9d971e	0.07694839
210	0x3e121b37	0.14268194
211	0x3d3e2b63	0.046428096
212	0xbe1d936a	-0.15388265
213	0xbabe9d2f	-0.0014542694
214	0x3db38f89	0.087676115
215	0xbd9dfb0a	-0.077138975
216	0x3dd4a489	0.10382945
217	0x3ca71c6a	0.020399291
218	0xbcded67d	-0.027201885
219	0x3da6d2c8	0.08145672
220	0xbbfa23fd	-0.0076336847
221	0x3cc62c5c	0.024191074
222	0xba7ac62d	-0.00095662737
223	0xbf603c11	-0.87591654
224	0xc01ad761	-2.4193957
225	0x40763a74	3.8473177
226	0x3d8ce7d2	0.06880154
227	0x3b065208	0.0020495672
228	0x3afaddf0	0.0019139629
229	0xbe85e212	-0.2614904
230	0xbe5796c4	-0.21053606
231	0xbe33626f	-0.17518018
232	0xbe74ca0f	-0.23905204
233	0x3e02e94c	0.12784308
234	0x3cc726a3	0.024310416
235	0x3d792821	0.060829286
236	0xbd8bcfc0	-0.068267345
237	0x3e3b3c8a	0.18284813
238	0xbcb5129f	-0.022103606
239	0x3dcd396a	0.100207165
240	0xbfb7b66a	-1.4352543
241	0x40af5265	5.478808
242	0x3f99768f	1.1989306
243	0xbd1ffff5	-0.03906246
244	0xbe728577	-0.23683725
245	0x3d03ccdf	0.032177802
246	0x3e8f02f2	0.27931935
247	0x3dd57608	0.10422903
248	0xbd655068	-0.055984885
249	0xbdd2e02e	-0.10296665
250	0x3e0d1b82	0.13780025
251	0x3e05e712	0.13076428
252	0x3e1ad0c5	0.15118702
253	0xbd99fceb	-0.075189434
254	0xbd1ebe4a	-0.038755693
255	0x3bb9b6c1	0.005667538

net.0.bias f4 [128]
0	0x3ea6b82e	0.32562393
1	0xbc4ad3e8	-0.012379624
2	0xbebb5d70	-0.36594725
3	0xbddce886	-0.10786538
4	0xbdbac4d3	-0.091195725
5	0x3d3f5fff	0.04672241
6	0xbe80888f	-0.25104186
7	0x3e73c727	0.2380644
8	0xbea549d3	-0.32282886
9	0xbeb25d4f	-0.34836814
10	0x3e54e006	0.20788583
11	0x3d0f112a	0.03492848
12	0x3d001929	0.031273995
13	0x3ea476dd	0.32121935
14	0xbdfccba5	-0.123435296
15	0xbe0a71d0	-0.13519979
16	0xbdf1ad5d	-0.118006445
17	0xbe20adbc	-0.15691274
18	0x3dde7049	0.108612604
19	0xbe496061	-0.19665672
20	0xbed856d1	-0.42253736
21	0xbdbf0fa9	-0.09329159
22	0x3e3acb39	0.18241586
23	0x3f1f3b46	0.6219982
24	0xbd8a8d4f	-0.06765234
25	0xbd4809e6	-0.048837565
26	0x3d53d08b	0.051712554
27	0x3eb13cbe	0.34616655
28	0xbe49f13c	-0.1972093
29	0x3e951cc3	0.29123506
30	0xbda6d65f	-0.08146357
31	0x3e83137a	0.25600797
32	0xbdafbd11	-0.085809834
33	0x3e5719cc	0.21005934
34	0x3e8e5f7e	0.2780723
35	0x3e9e6ac4	0.3094083
36	0xbe4d4a0f	-0.20047782
37	0x3d9cc589	0.07654864
38	0xbe7ed98a	-0.24887672
39	0xbd309cf0	-0.043118417
40	0x3e12e368	0.14344561
41	0xbe5601a2	-0.2089906
42	0x3e2230f4	0.15838987
43	0x3e29705b	0.16546766
44	0xbda769e7	-0.08174496
45	0xbe54b4ff	-0.2077217
46	0x3aa49338	0.0012556082
47	0x3ccc217d	0.024918312
48	0x3b6ef5a5	0.0036462334
49	0x3c833858	0.016018078
50	0xbe86458c	-0.26224935
51	0xbeaac885	-0.3335611
52	0x3eb2adc4	0.34898198
53	0x3d79a08e	0.060944133
54	0x3ee8a582	0.45438772
55	0xbe7d7d4b	-0.24754827
56	0x3e7178b6	0.23581204
57	0x3ea182b6	0.31545037
58	0x3d920a4d	0.07130871
59	0xbc15e7b5	-0.009149482
60	0x3d7cef44	0.06175162
61	0xbe08f1df	-0.13373516
62	0xbf07f6a9	-0.5311075
63	0x3e9398f6	0.28827637
64	0x3e5dc163	0.21655802
65	0xbf0150e2	-0.5051404
66	0xbe5c1f8a	-0.21496406
67	0x3e98f553	0.29874668
68	0x3e080ccb	0.1328613
69	0xbe822a30	-0.25422812
70	0x3dbba1dd	0.09161732
71	0xbef69008	-0.48156762
72	0xbc4e8e33	-0.012607145
73	0xbe390d93	-0.18071584
74	0x3f19feaf	0.6015424
75	0xbd93e83b	-0.07222029
76	0x3e83650a	0.25663024
77	0x3ea39814	0.31951964
78	0xbdb53128	-0.088472664
79	0x3eccbba7	0.39986917
80	0x3e9e05e2	0.30863863
81	0x3e43e9e6	0.19132194
82	0x3dd011da	0.10159655
83	0x3dcceedc	0.10006496
84	0x3e5255f0	0.20540595
85	0x3e1e0435	0.15431292
86	0xbe669667	-0.22518311
87	0xbe41d01b	-0.18927042
88	0x3e21583d	0.15756316
89	0x3e0245d6	0.12721953
90	0x3d75e322	0.060031064
91	0xbe245b0c	-0.16050357
92	0x3e1a8d73	0.15093021
93	0x3e3bcaf8	0.18339145
94	0xbe0b14bc	-0.13582128
95	0x3eb6c258	0.35695148
96	0x3e71bae7	0.23606454
97	0xbe1a3134	-0.15057832
98	0xbe69dca4	-0.22838074
99	0x3e74d187	0.23908053
100	0x3ec8aa80	0.3919258
101	0xbd877814	-0.066147
102	0xbe940a32	-0.28914028
103	0xbda76b70	-0.08174789
104	0x3ebc47ff	0.3677368
105	0x3ec16277	0.37770435
106	0x3d9e304b	0.07724055
107	0x3dcc1a54	0.09965959
108	0x3e13f25c	0.14447922
109	0x3cc3d8d2	0.023907099
110	0x3c555977	0.013021818
111	0x3dff33b7	0.12461036
112	0xbe9c9149	-0.30579594
113	0x3e3512c0	0.17682934
114	0xbdc10cbd	-0.09426258
115	0xbe803320	-0.25039005
116	0xbe07393b	-0.13205425
117	0x3e893114	0.26795256
118	0x3e3b278f	0.18276809
119	0x3e27329a	0.16327897
120	0xbe435d50	-0.19078565
121	0xb9864420	-0.0002560923
122	0xbd9e6719	-0.07734508
123	0x3e8a1aeb	0.26973662
124	0xbece91a4	-0.4034549
125	0x3d22103e	0.03956627
126	0x3e5e6de0	0.21721601
127	0x3dcbc0f1	0.0994891
