src/training_logs_ppo/initial/ppo_checkpoint_40_1764183757.pt (torch, 480089 bytes, 42 tensors)

move_logstd f4 [2]
0	0x3f44e11f	0.7690601
1	0x3f48e9cb	0.7848174

shared.0.weight f4 [128, 17]
0	0x3dd7b8bf	0.105332844
1	0xbe0e122e	-0.13874123
2	0xbe22c75e	-0.15896365
3	0x3e42ccef	0.19023488
4	0x3e498a19	0.19681586
5	0xbe53894a	-0.2065784
6	0xbe0d7e8b	-0.13817804
7	0x3e008669	0.12551273
8	0x3e5c2fbd	0.21502586
9	0xbe2ce4fd	-0.16884227
10	0x3e24f0ff	0.16107558
11	0xbe09a891	-0.13443209
12	0xbd3dc3c1	-0.046329264
13	0x3c357d46	0.011077231
14	0x3d3befc0	0.04588294
15	0x3e357e22	0.17723897
16	0xbe281898	-0.16415632
17	0xbe0ba64c	-0.13637656
18	0xbdbe85a9	-0.093028374
19	0x3d7c8d2a	0.061658062
20	0x3d2113c9	0.03932551
21	0xbe528bac	-0.20561093
22	0x3e7d5f25	0.24743326
23	0xbe19dbd7	-0.15025268
24	0x3d1f5dad	0.038907696
25	0xbe180aec	-0.14847916
26	0xbe61871a	-0.22024193
27	0xbdd0ac88	-0.10189158
28	0x3c49bf29	0.012313643
29	0x3e30f7b5	0.17281993
30	0x3d959374	0.07303515
31	0x3d9dd6df	0.07706999
32	0xbdc517c6	-0.09623675
33	0xbe2c68e4	-0.16836888
34	0x3e2c7a91	0.1684363
35	0x3e75c546	0.24001035
36	0x3df905bb	0.12159296
37	0x3d758c85	0.059948463
38	0xbe8c13a0	-0.27358723
39	0xbe5acff8	-0.21368396
40	0xbd62a4d2	-0.055332966
41	0xbdbda94e	-0.09260808
42	0x3bd40ea2	0.006471471
43	0xbd6868a1	-0.056740407
44	0xbe1d3111	-0.15350749
45	0x3cfeccbf	0.03110349
46	0x3e6c782f	0.23092721
47	0xbe43cb72	-0.19120577
48	0x3e3a594f	0.18198131
49	0x3d7111d1	0.05885488
50	0x3d9204f7	0.07129853
51	0x3d7ee44f	0.06222945
52	0xbe0dee69	-0.13860478
53	0xbe4afc88	-0.19822896
54	0x3d647758	0.055777878
55	0x3ddce77a	0.10786338
56	0x3dec4bbd	0.115378834
57	0x3dfd22e3	0.1236017
58	0x3cb508c7	0.022098912
59	0x3e390b00	0.18070602
60	0xbd578c90	-0.052624285
61	0x3d902234	0.07037774
62	0xbcede734	-0.02904091
63	0xbd82bc83	-0.06383612
64	0xbe0eeb59	-0.13956966
65	0x3d0aadb1	0.03385705
66	0xbe20d554	-0.15706378
67	0x3e6733bf	0.22578333
68	0x3e284635	0.16433032
69	0x3e2ec5b2	0.17067602
70	0xbe506e5d	-0.203546
71	0x3e631703	0.22176747
72	0x3d2f8e1a	0.042860128
73	0x3e457eaa	0.192866
74	0xbccbaf95	-0.024863997
75	0x3d0d9477	0.034565415
76	0xbe19a38d	-0.15003796
77	0x3e05dc77	0.13072382
78	0x3d8ca7b9	0.06867928
79	0x3dd10192	0.10205378
80	0x3dc7e270	0.097599864
81	0x3d65d274	0.056108907
82	0x3c25b074	0.0101128705
83	0xbd97b6b9	-0.074078985
84	0x3dcc4b31	0.09975279
85	0xbc43da5b	-0.0119539155
86	0x3dce2d6f	0.100672595
87	0xbd0e4079	-0.034729455
88	0xbe8686b9	-0.2627466
89	0xbe14e031	-0.14538647
90	0x3dd11436	0.10208933
91	0x3e40c3af	0.18824647
92	0xbe1462a3	-0.14490752
93	0x3e531ca5	0.20616396
94	0xbc97652f	-0.018480865
95	0x3d9a577f	0.0753622
96	0x3dcb0f65	0.09915046
97	0x3de4c1ea	0.11169799
98	0xbe28a7c4	-0.16470248
99	0xbe2a37b3	-0.1662281
100	0xbe027b38	-0.12742317
101	0xbda50886	-0.08058266
102	0x3d08bc54	0.03338273
103	0x3b9d5232	0.004801058
104	0xbdb66c72	-0.08907403
105	0x3dcc3b65	0.09972266
106	0x3d9a8404	0.07544711
107	0x3de28023	0.110595964
108	0xbe530f81	-0.20611383
109	0xbddedd2a	-0.108820274
110	0x3e6957fe	0.22787473
111	0x3c853eb9	0.01626526
112	0xbe67ae6f	-0.22625135
113	0xbe41ff26	-0.18944988
114	0x3d22d438	0.03975317
115	0xbdc88b5b	-0.09792205
116	0x3d7ef708	0.062247306
117	0xbdf9df8a	-0.1220084
118	0xbda323b5	-0.07965795
119	0xbe121bab	-0.14268367
120	0x3ba791f2	0.0051138336
121	0xbb7d1fdc	-0.0038623726
122	0x3e056eca	0.13030544
123	0x3cb05aab	0.021527609
124	0xbe48c212	-0.19605282
125	0xbe61c8f3	-0.22049312
126	0x3e260d0f	0.16215919
127	0xbd9491bf	-0.07254361
128	0xbe3ac28c	-0.18238276
129	0x3d70b740	0.05876851
130	0xbce103ff	-0.027467726
131	0xbe3b18db	-0.182712
132	0xbe5b291d	-0.21402402
133	0x3e54b006	0.20770273
134	0xbb1cb63d	-0.0023912333
135	0x3bdf63ae	0.0068173027
136	0xbdc099b5	-0.09404317
137	0x3dc1c43f	0.09461259
138	0xbc24f3a7	-0.010067857
139	0x3d37517d	0.044755448
140	0xbcb3877f	-0.021915196
141	0xbe3bc92b	-0.18338458
142	0x3b759b19	0.0037476479
143	0x3e785b87	0.24253665
144	0x3cdcc50d	0.02694943
145	0xbe6d5b52	-0.23179367
146	0x3d99944d	0.07498989
147	0xbdfa8571	-0.12232483
148	0x3dddf0f3	0.10836973
149	0xbe1ac86d	-0.15115519
150	0xbe692362	-0.22767404
151	0x3d8cf86c	0.0688332
152	0xbe342c79	-0.1759509
153	0x3e4bfd9c	0.19920963
154	0xbcd48a5b	-0.02594488
155	0x3cdbdf13	0.026839769
156	0xbe424449	-0.18971361
157	0xbdd6b265	-0.10483245
158	0xbd31339e	-0.043262117
159	0xbcdd6789	-0.027026908
160	0x3d965796	0.073409244
161	0x3e38fb93	0.18064718
162	0x3e5dcbe2	0.21659806
163	0xbe08e03a	-0.13366786
164	0x3da3b34b	0.07993182
165	0xbe56041e	-0.20900008
166	0xbe3960f8	-0.18103397
167	0x3e3d931a	0.18513146
168	0x3d6f5dbe	0.05843901
169	0x3d639a09	0.05556682
170	0xbe07a979	-0.13248242
171	0x3da1b150	0.07895148
172	0xbdb641ef	-0.088992946
173	0x3dd26b03	0.10274317
174	0xbe8718d4	-0.2638613
175	0x3e2163f6	0.15760788
176	0xbe030f03	-0.12798695
177	0xbe095b1b	-0.1341366
178	0xbe4d4dfe	-0.20049283
179	0xbe2c4dbd	-0.1682653
180	0x3e5da910	0.21646523
181	0xbe2a6cbc	-0.16643041
182	0xbe441c45	-0.19151409
183	0x3cf8a48b	0.030351898
184	0x3dd3cfcc	0.103423685
185	0x3dc318f3	0.09526243
186	0xbe0053cf	-0.1253197
187	0xbe1e9cae	-0.15489456
188	0xbe275f12	-0.1634486
189	0x3e450b63	0.19242625
190	0xbe48439c	-0.19557041
191	0x3db55ca1	0.08855558
192	0x3e09a55a	0.13441983
193	0x3e74d689	0.23909964
194	0x3e61457a	0.2199916
195	0xbd593e45	-0.0530379
196	0xbd0038a0	-0.031304
197	0xbe37197c	-0.17880815
198	0x3dd0439a	0.10169144
199	0xbdeb3c1f	-0.114860766
200	0xbcade76a	-0.02122851
201	0xbd9986f0	-0.074964404
202	0xbcf45df5	-0.029829958
203	0xbd4c6864	-0.049904242
204	0xbc708dee	-0.014682276
205	0xbe42d1a2	-0.19025281
206	0xbe28ad58	-0.16472375
207	0x3e0872c3	0.13325028
208	0xbc2082ef	-0.009796842
209	0xbe4c93be	-0.19978234
210	0x3dd78080	0.10522556
211	0xbdc0701e	-0.09396385
212	0xbdb9c86c	-0.090714306
213	0xbd0289ad	-0.03186958
214	0xbdd8ea11	-0.105915196
215	0xbcd20375	-0.025636414
216	0xbe1ebe1e	-0.15502211
217	0xbcc25df8	-0.023726448
218	0x3c470a81	0.0121485
219	0x3db671ff	0.08908462
220	0xbd933c75	-0.07189266
221	0x3e38ebd2	0.18058708
222	0x3c50c7be	0.012742935
223	0xbe5e7744	-0.21725184
224	0x3e22b5ca	0.1588966
225	0xbcc5256a	-0.024065692
226	0x3e236656	0.15957007
227	0xbe451cfe	-0.19249341
228	0xbbdf9cbd	-0.0068241046
229	0x3d8c650b	0.0685521
230	0xbd129394	-0.035785273
231	0xbd8dd190	-0.069247365
232	0x3d3678c1	0.044548754
233	0x3d89edf9	0.06734843
234	0xbb8d3509	-0.004309301
235	0xbdcee925	-0.101030625
236	0x3e099521	0.13435794
237	0xbdb18359	-0.08667631
238	0xbe16ec2e	-0.14738533
239	0x3dcb4c5d	0.099266745
240	0xbd89d6ca	-0.06730421
241	0xbe4dca58	-0.2009672
242	0xbe037de5	-0.12840994
243	0xbe4aa90b	-0.19791047
244	0x3e4510c6	0.1924468
245	0xbe3fcee1	-0.18731262
246	0x3e40575b	0.18783323
247	0x3db2bdde	0.087276205
248	0x3d585198	0.05281219
249	0xbc215c0e	-0.009848608
250	0xbdad61fb	-0.08465954
251	0x3d9197b8	0.07109016
252	0x3e333daf	0.17503999
253	0xbe52f9a7	-0.20603047
254	0xbdbd6b91	-0.09249032
255	0x3a98ea75	0.0011666553

shared.0.bias f4 [128]
0	0xbc914b8d	-0.01773622
1	0xbe736189	-0.23767675
2	0xbd24f8d0	-0.04027635
3	0xbe279471	-0.1636522
4	0xbd87555b	-0.06608077
5	0x3d6a5129	0.057206307
6	0x3cbb81f2	0.022889111
7	0x3e5903c3	0.21192841
8	0xbe807a1c	-0.25093162
9	0x3b6dd7c1	0.003629193
10	0x3e1b5892	0.15170506
11	0xbe31a8b1	-0.17349507
12	0x3e03802c	0.12841862
13	0xbd665fef	-0.056243833
14	0x3cf220cd	0.029556656
15	0xbe1373b4	-0.14399606
16	0xbd5eadd6	-0.054365
17	0x3e4cee9c	0.20012897
18	0x3e128fae	0.14312622
19	0xbe2bce88	-0.16778004
20	0x3ce1bec2	0.02755678
21	0x3cd5f5f2	0.026118252
22	0x3d7d5725	0.061850686
23	0x3d94e05d	0.072693564
24	0xbbe054aa	-0.0068460302
25	0xbdef1606	-0.116741225
26	0xbbcc3b62	-0.006232665
27	0x3d53aa1a	0.051675893
28	0x3e50a5dd	0.20375772
29	0xbe591a9b	-0.21201555
30	0xbc458e9b	-0.012057926
31	0xbe6583f0	-0.22413611
32	0xbdaf63a4	-0.08563927
33	0x3d26b734	0.04070206
34	0xbe545343	-0.20734887
35	0x3d3e9823	0.046531808
36	0xbe3aed16	-0.18254504
37	0xbe49b2c2	-0.19697097
38	0xbd9f305f	-0.07772898
39	0xbc0901a3	-0.008362207
40	0xbe6baee9	-0.23015942
41	0xbe7c7c4d	-0.24656792
42	0x3d875cc2	0.06609489
43	0xbda75546	-0.081705615
44	0x3e4a7593	0.19771414
45	0xbe7ebe8b	-0.24877374
46	0x3e5f0c56	0.2178205
47	0xbe895b6a	-0.26827556
48	0x3e3e0274	0.18555623
49	0xbdaa5509	-0.083170004
50	0xbe62abed	-0.22135897
51	0xbdce531a	-0.10074444
52	0xbe122e74	-0.14275533
53	0x3d3fead0	0.046854794
54	0xbaa0f46c	-0.0012279875
55	0x3d4a42a7	0.04937997
56	0x3e28c69b	0.16482012
57	0xbe482cb7	-0.19548307
58	0x3c675cf4	0.014121283
59	0xbd600645	-0.05469348
60	0xbcffc291	-0.031220706
61	0x3a8219ea	0.0009925936
62	0xbd5d6de4	-0.054059878
63	0xbe14dae8	-0.14536631
64	0xbe62ba8b	-0.22141473
65	0xbd90331b	-0.070409976
66	0xbe78805c	-0.24267715
67	0xbe9107fe	-0.2832641
68	0x3c2a12a7	0.010380424
69	0x3db900c9	0.09033353
70	0xbe658c64	-0.22416836
71	0xbdfa5eec	-0.12225136
72	0x3d80d7f3	0.06291189
73	0x3e3ce085	0.18445022
74	0x3d8c39d1	0.06846965
75	0xbd8f25ce	-0.069896325
76	0x3e51567d	0.20443149
77	0xbe712045	-0.23547466
78	0xbdf5c25a	-0.1199996
79	0xbdea14de	-0.11429761
80	0xbd8ca99c	-0.06868288
81	0xbe4efd9c	-0.20213932
82	0xbe88b25b	-0.26698574
83	0xbe3fc954	-0.18729144
84	0xbdf9303e	-0.121674046
85	0xbd99fe2e	-0.07519184
86	0x3da89b04	0.08232692
87	0x3d3e3c38	0.046444148
88	0x3ccb6526	0.024828505
89	0xbe4fe635	-0.20302661
90	0x3d97653e	0.07392357
91	0xbd199648	-0.037496835
92	0xbdc444fa	-0.09583469
93	0x3e4ce29e	0.20008323
94	0xbe46b618	-0.19405401
95	0x3e2813e8	0.16413844
96	0xbe63bc12	-0.22239712
97	0xbe4fe8dc	-0.20303673
98	0x3e46ebe9	0.1942593
99	0xbdc9b78b	-0.09849461
100	0x3e52cb6b	0.2058541
101	0xbdf0aedd	-0.117521025
102	0x3e4f6af0	0.20255637
103	0x3d8ae17e	0.067812905
104	0x3dea0e43	0.114285015
105	0xbc467c11	-0.012114541
106	0xbbd22f61	-0.0064143394
107	0xbc777643	-0.015103879
108	0x3d3aabb1	0.045573894
109	0xbe0bdced	-0.13658495
110	0x3da6f3a5	0.0815194
111	0xbe197e82	-0.14989665
112	0xbdf24559	-0.11829633
113	0xbe867141	-0.2625828
114	0xbb0d74ca	-0.0021584504
115	0xbe3820ae	-0.17981216
116	0xbdb52271	-0.0884446
117	0xbceef0fe	-0.029167648
118	0xbe82f8d0	-0.25580454
119	0x3d93579c	0.071944445
120	0x3c4e32da	0.012585366
121	0xbe7e115f	-0.24811314
122	0xbe506a77	-0.20353113
123	0xbe418a2f	-0.18900369
124	0xbdf6f92c	-0.120592445
125	0x3dae29f5	0.085040964
126	0xbe895f96	-0.2683074
127	0x3ba6c4c1	0.005089373

shared.2.weight f4 [128, 128]
0	0x3d1882dd	0.037234176
1	0x3d65e986	0.05613091
2	0x3d8c22ef	0.068426006
3	0xbcb2033c	-0.021730058
4	0x3d921e61	0.071347006
5	0x3d499aa6	0.04921975
6	0xbd5b9f73	-0.05361886
7	0x3d3e3080	0.046432972
8	0x3b82c6e9	0.003990997
9	0x3d87a9a1	0.06624151
10	0x3c32656e	0.010888441
11	0xbd860c94	-0.06545368
12	0xbd9eaa90	-0.07747376
13	0x3d50935c	0.050921783
14	0x3cb5fcfa	0.022215355
15	0x3da1026f	0.07861792
16	0x3b92f25e	0.004484459
17	0xbcbffb3f	-0.023435233
18	0xbaeeea46	-0.0018227778
19	0x3c9080cf	0.017639546
20	0x3cad8b7e	0.02118468
21	0xbd946f6b	-0.07247814
22	0xbd68fcfc	-0.05688189
23	0x3ce595c4	0.028025515
24	0x3db25920	0.087084055
25	0xbd84050a	-0.064462736
26	0xbcd01018	-0.0253983
27	0xbd298dd4	-0.041395023
28	0xbdeb0413	-0.114753865
29	0xbd50844b	-0.050907414
30	0xbcb33e15	-0.021880189
31	0x3bcbe2a7	0.0062220874
32	0x3c0b3778	0.0084971115
33	0x3b80987f	0.003924429
34	0x3d40bfce	0.04705792
35	0xbcad1038	-0.021125898
36	0x3d694be6	0.056957148
37	0xbdbab940	-0.09117365
38	0x3d68236d	0.05667441
39	0xbda75d4d	-0.081720926
40	0x3d092f62	0.033492453
41	0xbdc54ef2	-0.09634198
42	0xbda39e70	-0.07989204
43	0x3d495e0c	0.049161956
44	0x3b42a1ea	0.002969856
45	0xbd9bb698	-0.07603186
46	0xbd531649	-0.051534925
47	0x3d4ed27f	0.050493713
48	0xbcad445f	-0.021150766
49	0xbd97a913	-0.07405295
50	0x3cf146bd	0.029452676
51	0xbd0f521e	-0.034990422
52	0x3d3d650c	0.046238944
53	0x3c8c6980	0.01714015
54	0xbd630b02	-0.05543042
55	0x3d7ec7c1	0.06220222
56	0x3d5453e1	0.051837806
57	0xbd951f70	-0.07281387
58	0xbae3de80	-0.0017385036
59	0x3cfeda57	0.031109972
60	0xbd0070c8	-0.031357557
61	0xbd274945	-0.04084136
62	0xbd21da5e	-0.03951489
63	0xbdb1b565	-0.086771764
64	0x3d891765	0.06693915
65	0x3d5989ad	0.053109813
66	0x3cdc9a27	0.026928974
67	0xbc1909f3	-0.009340751
68	0xbda45249	-0.08023507
69	0x3cebeaae	0.028798427
70	0xbd29d038	-0.04145834
71	0x3cdcd211	0.026955636
72	0xbcc05962	-0.023480121
73	0xbd892801	-0.06697083
74	0xbd829b24	-0.06377247
75	0xbd570eb6	-0.052504264
76	0xbd041adb	-0.032252174
77	0xbd71731a	-0.05894766
78	0xbcb097d7	-0.021556778
79	0x3d056e36	0.03257581
80	0xbd39aa61	-0.0453285
81	0xbd134cec	-0.03596203
82	0xbe01b141	-0.12665273
83	0xbdca18df	-0.09868025
84	0xbbb17e20	-0.0054166466
85	0xbcdabe5d	-0.0267021
86	0x3a2eb294	0.00066641835
87	0xbded693e	-0.11592339
88	0xbdbe3807	-0.0928803
89	0xbd03dcd5	-0.032193024
90	0x3ccd6ee3	0.025077289
91	0xbd717383	-0.05894805
92	0x3d16f82d	0.036857773
93	0x3d4a367b	0.049368363
94	0x3d5e1be7	0.05422583
95	0xbd2d6b41	-0.042338613
96	0xbdb203c9	-0.08692128
97	0x3ceb6e5d	0.028739149
98	0xbd696607	-0.056982066
99	0x3cded583	0.02720142
100	0xbdaea240	-0.085270405
101	0x3cee290d	0.029072309
102	0xbde27f09	-0.11059386
103	0xbddc9c2e	-0.107719764
104	0xbdb9163d	-0.09037445
105	0x3cadd925	0.021221707
106	0xbda26c36	-0.07930796
107	0x3ccc4955	0.024937311
108	0x3cbea8ed	0.02327391
109	0xbd37af1b	-0.044844728
110	0x3c499f94	0.012306113
111	0xbccb4bde	-0.02481645
112	0xbdac78a6	-0.08421449
113	0x3d27b3ef	0.040943082
114	0x3bcb3f7a	0.0062026354
115	0x3ab15e88	0.0013532201
116	0x3d1ad10e	0.037797026
117	0xbda6f178	-0.08151525
118	0xbd62eb5f	-0.05540025
119	0xbc0bf7cc	-0.008542966
120	0xbd600d94	-0.05470045
121	0xbd0e3cc1	-0.03472591
122	0xbd8e8293	-0.06958499
123	0x3c68d98d	0.014212024
124	0x3d2c0ff6	0.04200741
125	0x3c5bdfa3	0.013420018
126	0xbd711034	-0.058853343
127	0xbcc8941f	-0.024484692
128	0xbc1524dd	-0.009103027
129	0x3d0b38d2	0.033989735
130	0xbd6478ae	-0.05577915
131	0xbdbbbcd2	-0.09166874
132	0x3d02c233	0.031923484
133	0x3d6d169d	0.057882894
134	0xbd3ae9f1	-0.04563326
135	0x3dc961f7	0.098331384
136	0x3da248c3	0.079240344
137	0x3cf7dcb2	0.030256603
138	0xbcce2338	-0.025163278
139	0xba2fd5f8	-0.0006707604
140	0xbd6be5cd	-0.057592202
141	0x3d8d7ac3	0.069081806
142	0x3cd70421	0.026247086
143	0x3d900749	0.070326395
144	0x3ce2a313	0.02766565
145	0xbd6887f5	-0.056770284
146	0xbd0e16c8	-0.034689695
147	0x3d5fca5a	0.054636337
148	0xbdb2f35d	-0.08737824
149	0xbaf4b6b2	-0.001867017
150	0xbd100ab0	-0.035166442
151	0x3ca905b8	0.02063261
152	0xbb3d4d04	-0.0028885016
153	0x3c640d1f	0.013919144
154	0x3d601a7b	0.054712754
155	0xbd6d8b35	-0.057994086
156	0x3a033ec9	0.0005006609
157	0xbcc81140	-0.024422288
158	0x3b2c2ed9	0.002627304
159	0xbd884b71	-0.06655014
160	0x3c75ba84	0.014998082
161	0xbd00f35d	-0.03148209
162	0x3bba4a3c	0.005685119
163	0x3d8a85b9	0.06763787
164	0xbdacb2fe	-0.084325776
165	0x3d2e6203	0.04257394
166	0xbca9a0d7	-0.020706577
167	0xbde6864f	-0.11256086
168	0xbd8c48c5	-0.06849817
169	0x3cb5f2ce	0.022210505
170	0x3d942d74	0.07235232
171	0x3c7b93d3	0.015355068
172	0x3d6bcd1b	0.05756865
173	0xbd3d8e0b	-0.04627804
174	0x3d798382	0.06091643
175	0x3da8acdc	0.08236095
176	0x3cf4d1c6	0.029885184
177	0xbd1471ad	-0.036241222
178	0xbc9de83c	-0.019275777
179	0xbd701d3f	-0.05862164
180	0x3d990190	0.07471001
181	0x3d3cff8b	0.046142142
182	0x3d5bb3e7	0.053638365
183	0x3da06b6a	0.078329876
184	0xbdb70264	-0.08936003
185	0x3c38c8e4	0.011278365
186	0xbd6f99c3	-0.058496248
187	0x3dabee6d	0.083950855
188	0xbce355d4	-0.027750887
189	0xbdc1ae8f	-0.094571225
190	0xbcd3e5e2	-0.025866453
191	0x3b84d088	0.004053179
192	0xba97e91e	-0.001158986
193	0xbcc2c62f	-0.023776142
194	0x3d6c5bc8	0.057704717
195	0xbd339409	-0.04384235
196	0x3dc46796	0.0959007
197	0x3daa4847	0.08314567
198	0x3c5fb90d	0.013654959
199	0x3d526fe9	0.051376257
200	0xbc3fbe0e	-0.011703027
201	0x3d814b11	0.06313146
202	0xbdbdc6c3	-0.092664264
203	0x3c8142ec	0.015778981
204	0xbd31a9fc	-0.043375
205	0xbc922745	-0.01784099
206	0xbbb6c323	-0.0055774613
207	0xbde4c985	-0.11171249
208	0x3d3fbe3c	0.04681228
209	0x3d3590ce	0.04432755
210	0x3bfcae4d	0.007711208
211	0x3d7b374c	0.061332032
212	0xbd860fb1	-0.06545962
213	0x3d0f511f	0.034989472
214	0x3d7da089	0.061920676
215	0xbcc141a1	-0.023590865
216	0x3dc6cbf5	0.097068705
217	0xbd436750	-0.04770595
218	0xbc3d3157	-0.011547408
219	0x3cd91102	0.026497368
220	0xbd5c1476	-0.05373045
221	0xbd76697e	-0.0601592
222	0xbd807ea2	-0.06274153
223	0x3d846738	0.06465
224	0xb94d0c19	-0.0001955483
225	0x3c90756c	0.017634116
226	0xbda1ab98	-0.07894057
227	0xbe07eed0	-0.13274693
228	0xbdbcea8d	-0.092244245
229	0x3c9c8681	0.019107105
230	0x3d7256b2	0.05916471
231	0xbd493042	-0.049118288
232	0xbcb65769	-0.022258477
233	0xbd29e467	-0.041477587
234	0x3da255fb	0.07926556
235	0xbcb6d7ed	-0.022319758
236	0x3c85d975	0.016339043
237	0x3c52282e	0.012826962
238	0x3dc061ee	0.093936786
239	0xbb9adb19	-0.0047258255
240	0x3db7ff37	0.08984225
241	0x3cb8f65e	0.022578415
242	0x3cd070c7	0.025444401
243	0x3d32f4a6	0.043690346
244	0xbc7d335e	-0.015454141
245	0xbd711858	-0.058861107
246	0x3d8b2f9a	0.06796189
247	0xbc260dfc	-0.01013517
248	0xbd977d17	-0.07396906
249	0xbcb44b0c	-0.022008441
250	0xbd8e98bd	-0.06962726
251	0xbca723f8	-0.020402893
252	0x3c73d85e	0.014883129
253	0xbdc38c16	-0.09548204
254	0xbda65688	-0.08121973
255	0x3c768531	0.015046404

shared.2.bias f4 [128]
0	0xbd42262d	-0.04739969
1	0xbd857380	-0.065161705
2	0xbdc41c58	-0.09575719
3	0x3d41adab	0.047284763
4	0x3be21416	0.006899367
5	0x3d2dd161	0.042436007
6	0x3d3d690f	0.04624277
7	0x3d140c14	0.03614433
8	0xbdb19b71	-0.08672226
9	0x3d0676a9	0.032828007
10	0xbd4a85b3	-0.04944391
11	0xba8d2291	-0.0010767748
12	0x3ccf8000	0.02532959
13	0xbd68ae00	-0.056806564
14	0x3c432859	0.011911475
15	0xbdba275c	-0.090895385
16	0xbc91837c	-0.017762892
17	0xbd4dc878	-0.05024001
18	0x3d854677	0.06507581
19	0xbd856a49	-0.06514413
20	0xbdc2cd43	-0.09511807
21	0x3d6d7949	0.057976995
22	0xbd57bd75	-0.052670915
23	0x3c1bbd43	0.009505573
24	0x3c10a9ac	0.008829515
25	0x3c90aa0d	0.017659212
26	0x3d2aade9	0.04166976
27	0x3d2752c2	0.04085041
28	0xbd80d727	-0.06291037
29	0x3c9b2bb7	0.018941743
30	0xbda8144a	-0.08206995
31	0x3c3c120e	0.011478914
32	0x3d7a9fa4	0.0611874
33	0xbc266529	-0.010155954
34	0xbcf03e2a	-0.029326517
35	0x3d37aafa	0.04484079
36	0xbd92e736	-0.07173006
37	0xbcee566f	-0.02909395
38	0xbda94974	-0.08265963
39	0xbd6f007d	-0.058350075
40	0xbd95a068	-0.07305986
41	0x3caab35f	0.020837484
42	0x3d17e4e3	0.037083518
43	0xbd8489f9	-0.06471629
44	0xbdad34fe	-0.08457373
45	0xbd2fbee7	-0.042906668
46	0x3ce55f28	0.027999476
47	0x3d1ed30f	0.0387755
48	0xbb1138c0	-0.002215907
49	0xbd87a28f	-0.066228025
50	0x3c379e79	0.011207216
51	0xbd4d9ce1	-0.05019844
52	0xbdd3618c	-0.1032134
53	0xbc8d26c6	-0.017230403
54	0x3b285c2d	0.0025689707
55	0x3d77fc92	0.060543604
56	0x3c6997a4	0.014257345
57	0xbdc876a9	-0.09788258
58	0x3c4b33d3	0.012402493
59	0x3b3344c1	0.0027354213
60	0xbc48f24e	-0.012264801
61	0xbca59892	-0.020214353
62	0x3da4ccf9	0.08046908
63	0xbd024ace	-0.03180962
64	0xbdbb607a	-0.09149261
65	0xbd49559d	-0.049153913
66	0xbc87acca	-0.016561884
67	0xbce0f48a	-0.027460355
68	0xbdca7f44	-0.09887555
69	0x3d57bac5	0.05266835
70	0xbb05e5d8	-0.0020431187
71	0xbd84d005	-0.06484989
72	0x3cc271fc	0.023735993
73	0x3d3a2eaf	0.045454677
74	0xbdebbc58	-0.11510533
75	0x3d75d1bc	0.06001447
76	0x3ca199e0	0.019726694
77	0xbdce5d27	-0.10076361
78	0x3b99d0a7	0.0046940628
79	0x3d9fabe7	0.0779646
80	0xbc943f49	-0.018096583
81	0x3d106ee7	0.035262015
82	0x3d1d0f0f	0.03834444
83	0xbd6eb1c2	-0.05827499
84	0x3ce31c0f	0.02772334
85	0xbc82d59e	-0.015971001
86	0x3d1d4e30	0.038404644
87	0xbdd770a4	-0.10519531
88	0x3d8c2eb2	0.06844844
89	0xbdc31bb4	-0.09526768
90	0x3cd1b8f9	0.025600897
91	0xbdb364c1	-0.08759452
92	0x3c6c743d	0.01443201
93	0xbd671d25	-0.05642428
94	0xbd137fd6	-0.036010586
95	0x3d227694	0.039663866
96	0x3d791a8f	0.060816344
97	0xbd8dde24	-0.069271356
98	0xbcae7812	-0.021297488
99	0x3d9914d2	0.07474674
100	0xbd939ab0	-0.07207239
101	0xbc5c663b	-0.013452108
102	0xbcacde6f	-0.021102158
103	0x3d4671cc	0.04844837
104	0xbd5d745b	-0.054066043
105	0xbd3a31bd	-0.04545759
106	0xbdbd6020	-0.0924685
107	0xbdba42dc	-0.09094784
108	0xbc5cc198	-0.013473891
109	0x3d21ac55	0.03947099
110	0xbdc28064	-0.09497145
111	0x3d3c4f47	0.045974042
112	0xbd4adab4	-0.049524978
113	0x3d0400fa	0.032227494
114	0xbd693e80	-0.05694437
115	0xbddb956b	-0.107218586
116	0xbd4e8a5a	-0.05042491
117	0xbd6bf6b5	-0.057608325
118	0xbcf4d09a	-0.029884625
119	0xbd7eec74	-0.062237218
120	0xbd69a5f3	-0.057043027
121	0x3d4da169	0.05020276
122	0xbbfb7b2e	-0.0076745963
123	0xbd41d3a7	-0.047320988
124	0xbda05848	-0.07829338
125	0xbd8e1dfd	-0.069393136
126	0x3d6bf115	0.05760296
127	0xbd6cf923	-0.057854783

move_mean.weight f4 [2, 128]
0	0xb9e26b80	-0.00043186173
1	0xbc528869	-0.0128499055
2	0x3d558669	0.052130137
3	0xbbc86ed4	-0.0061167274
4	0x3ccc1d71	0.024916383
5	0x3d19214a	0.037385263
6	0x3be04434	0.006844068
7	0xbd182b73	-0.03715081
8	0x3ce88c27	0.028387142
9	0x3c7aff89	0.015319713
10	0xbcb583d0	-0.02215758
11	0x3c0101ec	0.007873993
12	0x3c0df167	0.008663512
13	0x3d7d25a3	0.06180347
14	0x3bf7aad3	0.0075582056
15	0x3be2365a	0.006903452
16	0x3d30640f	0.043064173
17	0xbbe5b53a	-0.0070101293
18	0xbd069f0a	-0.032866515
19	0x3c8d55d2	0.017252836
20	0x3d51e719	0.051245783
21	0x3d46dab3	0.04854841
22	0xbd8df7bd	-0.06932018
23	0xbc678692	-0.014131205
24	0xbbce8624	-0.006302612
25	0x3d336159	0.04379401
26	0x3d8dbf54	0.069212586
27	0xbbb4f627	-0.0055225077
28	0x3b5c4441	0.0033610018
29	0x3c06b4b3	0.008221793
30	0x3b5ac5e3	0.003338211
31	0xbb8d6e48	-0.004316125
32	0x3ca91c62	0.020643417
33	0x3b2a46c5	0.0025982123
34	0x3d333e20	0.04376042
35	0x3c03c8ce	0.008043481
36	0xbc5cef04	-0.01348472
37	0x3d825c97	0.06365316
38	0xbd5c0f19	-0.053725336
39	0x3c020673	0.007936108
40	0xbd085d95	-0.03329237
41	0x3d2dcd5d	0.042432178
42	0x390bbba7	0.00013325979
43	0x3c0afa7f	0.0084825745
44	0xbc1cae9b	-0.009563114
45	0xbc2d85c5	-0.010590975
46	0xbc0fc014	-0.008773822
47	0xbc411c70	-0.011786565
48	0xbc59658c	-0.01326884
49	0xbb8f714d	-0.00437752
50	0x3b0c40c4	0.0021400908
51	0xbcccc31f	-0.024995385
52	0x3d33b981	0.043878082
53	0xbbcd085c	-0.0062571
54	0x3cf032c1	0.029321076
55	0xbcf6d70d	-0.030131841
56	0xbd6bedce	-0.057599835
57	0xbd210dea	-0.03931991
58	0x3d039940	0.032128572
59	0x3c1b965a	0.009496296
60	0x3d65aa8a	0.05607084
61	0x3cb45166	0.02201147
62	0xbcdfc151	-0.02731386
63	0xbbc43777	-0.0059880572
64	0xbcde5a81	-0.027142765
65	0xb93492f3	-0.0001722088
66	0x3ac2ca96	0.0014861401
67	0xbd0701ad	-0.032960583
68	0xbba003c6	-0.0048832623
69	0x3d44ab43	0.04801489
70	0xbcc8db19	-0.024518536
71	0x3d391607	0.045187023
72	0xbc25d0be	-0.010120569
73	0x3c254ac5	0.010088627
74	0x3c242216	0.010017892
75	0x3c209803	0.009801867
76	0xbb3768ac	-0.0027985973
77	0xbcb1a15f	-0.021683393
78	0x3d7d0ca4	0.061779633
79	0x3cf80e44	0.03028024
80	0x3c26834f	0.010163142
81	0x3d99ad62	0.07503773
82	0x3c099f39	0.008399778
83	0x3c9a91a5	0.018868277
84	0x3d4b65b8	0.049657553
85	0x3bae07fc	0.0053110104
86	0x3d379bc6	0.04482629
87	0xbbb98740	-0.005661875
88	0x3d1e2991	0.03861386
89	0x3c690d5b	0.014224376
90	0x3d58210b	0.052765887
91	0xbd1098d5	-0.035302002
92	0x3c2db359	0.010601842
93	0xbd613059	-0.05497775
94	0x3d15973b	0.036521178
95	0x3d5205e1	0.051275138
96	0x3d6e301d	0.058151353
97	0xbcb332a9	-0.021874743
98	0x3d7b9eca	0.06143073
99	0x3d81df3f	0.06341409
100	0x3d3725c9	0.04471377
101	0x3d1923fc	0.037387833
102	0xbcc727bf	-0.024310945
103	0x3ccab176	0.024742823
104	0xbbf01d57	-0.0073277163
105	0xbb45f67d	-0.0030206733
106	0x3d39d2cb	0.045367043
107	0x3d04e630	0.032446086
108	0xbc96ce1a	-0.018408824
109	0xbc63773b	-0.013883407
110	0x3ba8a8a3	0.005147056
111	0xbc3c2b22	-0.011484893
112	0xbd288252	-0.041139908
113	0xbcd70456	-0.026247185
114	0x3c4a9bc0	0.012366235
115	0xbd20d248	-0.03926304
116	0x3c9420e8	0.018082097
117	0x3c1c6741	0.009546102
118	0xbd000803	-0.03125764
119	0xbc082bf5	-0.008311261
120	0xbc1f5de5	-0.009726976
121	0xbca6acff	-0.020346163
122	0x3d4840ca	0.048889913
123	0xbccc4dae	-0.024939384
124	0xbb36b4ee	-0.0027878839
125	0xbc2dfe29	-0.010619679
126	0xbaed9270	-0.0018125307
127	0x3b3c78bf	0.0028758494
128	0x3b976f8b	0.0046214513
129	0xbd163748	-0.036673814
130	0x3d7ac9fd	0.061227787
131	0xbd1b1665	-0.037863154
132	0x3d343dbc	0.044004187
133	0x3a02bc00	0.00049871206
134	0xbc2b2a7d	-0.010447142
135	0xbd883dd1	-0.066524155
136	0xbc258899	-0.010103368
137	0xbc31ac5d	-0.010844317
138	0xbd623706	-0.055228256
139	0x3b544c8a	0.0032394254
140	0x3d835b89	0.06413943
141	0xbc3f32f7	-0.011669866
142	0xbc452f56	-0.012035212
143	0xbcb34d59	-0.021887468
144	0x3c663ad5	0.014052113
145	0x3d102fcf	0.035201844
146	0xbcd4fc38	-0.025999174
147	0x3d0237fd	0.031791676
148	0x3d67c3fd	0.056583393
149	0xbc303aca	-0.010756204
150	0x3d4eb1c1	0.050462488
151	0x3ce94669	0.028475957
152	0xbc8ca9a4	-0.017170735
153	0xbd1ed9f7	-0.038782086
154	0x3cedc6d5	0.029025475
155	0x3b840bb6	0.0040297164
156	0x3c86ea12	0.016469035
157	0xbcdd25f5	-0.026995638
158	0xbb09e218	-0.0021039303
159	0x3b39b479	0.002833633
160	0x3ba805b2	0.005127632
161	0xbc27aff1	-0.010234819
162	0x3d147770	0.036246717
163	0x39870710	0.00025754469
164	0xbbec30f5	-0.0072079846
165	0xbd5a482b	-0.05329148
166	0x3d188ed0	0.03724557
167	0x3b88db4e	0.004176534
168	0x3c741f93	0.014900106
169	0x3ce1111c	0.027473979
170	0x3c3c3a46	0.011488503
171	0x3d1cf833	0.03832264
172	0xbd25ae0c	-0.040449187
173	0x3c3c6124	0.0114977695
174	0xba6c742b	-0.0009019996
175	0xbd107693	-0.03526933
176	0x3d07d568	0.033162504
177	0xbcfaa05d	-0.030594045
178	0x3b369938	0.0027862322
179	0x3b9327c5	0.004490825
180	0x3cea098b	0.028569004
181	0x3d0996fd	0.03359126
182	0x3d0834f8	0.03325364
183	0x3d9774ec	0.07395348
184	0xbd25943e	-0.040424578
185	0xbc433892	-0.011915343
186	0x3d128f6b	0.035781305
187	0x3c4993ac	0.012303274
188	0x3cf1cad3	0.02951566
189	0xbc3cf220	-0.0115323365
190	0xbce3df6c	-0.027816497
191	0xbb85a6c4	-0.004078718
192	0x3d1f7a1a	0.038934804
193	0xbc3f79ce	-0.011686755
194	0xbcadd6cd	-0.021220589
195	0xbcc6c193	-0.024262225
196	0xbc1f52a1	-0.00972429
197	0x3c007c11	0.00784208
198	0xbd7640a8	-0.060120255
199	0xbd7597d3	-0.059959244
200	0xbd025a56	-0.031824432
201	0x3d1239d3	0.035699677
202	0xbbbf8358	-0.005844515
203	0xbb587b72	-0.0033032564
204	0xbd0ed0a2	-0.034866937
205	0xbcb1e766	-0.021716785
206	0xbd700b8d	-0.058604766
207	0xbcafcfe0	-0.021461427
208	0xbc4e514d	-0.012592626
209	0xbd642e58	-0.05570826
210	0xbb3adb87	-0.0028512196
211	0xbd02735f	-0.031848308
212	0x3c6501df	0.013977497
213	0xbc988260	-0.018616855
214	0xbcd0d6bd	-0.02549302
215	0xbcf0d853	-0.029400026
216	0x3bd51129	0.00650229
217	0xbc5b6fb6	-0.013393333
218	0x3b07e291	0.002073441
219	0x3c25907c	0.010105249
220	0x3b651881	0.0034957232
221	0x3cc2d049	0.023780959
222	0x3d0d572b	0.034506958
223	0x3cd83b22	0.026395384
224	0x3d16ba68	0.036798865
225	0xbceac3f0	-0.028657883
226	0x3cee775e	0.029109653
227	0x3cb0846b	0.021547517
228	0x3d506bd5	0.050884087
229	0x3d743c8b	0.05962805
230	0xbcbbb880	-0.022915125
231	0x3c22244b	0.009896348
232	0x3d51835b	0.05115066
233	0xbbf39c6c	-0.0074344184
234	0xbc983b56	-0.018582981
235	0x3cd118c7	0.02552451
236	0xbbd26aca	-0.0064214217
237	0x3ce5d01b	0.028053334
238	0x3cd4aa24	0.025960036
239	0xbb63084f	-0.0034642403
240	0xbd464da1	-0.048413876
241	0xbd5159a1	-0.051110867
242	0x3d4e83c8	0.050418645
243	0x3bdbdff1	0.0067100455
244	0xba8ef0a0	-0.0010905452
245	0xbb878e25	-0.004136818
246	0xbced7a34	-0.028988935
247	0xbb1ee9ed	-0.0024248317
248	0xbd4f5167	-0.05061474
249	0x3c9b9dd5	0.018996159
250	0xbda6dce1	-0.08147598
251	0x3c5c3d0a	0.013442287
252	0xba53fd8c	-0.00080867927
253	0x3c965a54	0.018353619
254	0x3bc00f31	0.005861186
255	0x3d34a392	0.044101305

move_mean.bias f4 [2]
0	0xbd3fb5bc	-0.046804175
1	0xbd23415f	-0.039857265

food_logits.weight f4 [3, 128]
0	0xbd750492	-0.05981881
1	0x3ccb0d2a	0.02478655
2	0x3d93cfca	0.07217367
3	0xbcf44911	-0.029819997
4	0x3d8d7b4b	0.06908282
5	0xbd09c5de	-0.033635966
6	0x3c5316df	0.012883871
7	0x3d43cdae	0.047803573
8	0xbcee1f27	-0.029067589
9	0xbcfbe703	-0.030749803
10	0x3d4c0cea	0.049817003
11	0xbcdd6126	-0.027023863
12	0xbd845682	-0.064618126
13	0xbd564f76	-0.052321874
14	0x3b699936	0.00356443
15	0x3d2b936f	0.04188865
16	0xbd005f72	-0.031341024
17	0x3d5552df	0.052080985
18	0x3d873eb9	0.0660376
19	0xbd996f63	-0.074919485
20	0x3d876a35	0.06612054
21	0x3cc6ccce	0.02426758
22	0xbd6f57bf	-0.05843329
23	0x3c2f3bb7	0.0106953895
24	0xbcf49c6a	-0.02985974
25	0x3d48ad24	0.048993245
26	0x3d88ac4d	0.06673489
27	0xbd6225ba	-0.05521176
28	0x3c0361aa	0.00801889
29	0xbc8c1eff	-0.017104624
30	0xbd3a6ac0	-0.04551196
31	0x3c0c66e1	0.00856945
32	0x3d330210	0.04370314
33	0x3d442024	0.047882214
34	0x3cc3cb83	0.023900753
35	0xbd098f98	-0.033584207
36	0x3da42d23	0.08016422
37	0x3b84d01a	0.004053128
38	0x3d2c5dd2	0.04208166
39	0xbd7bab0a	-0.061442412
40	0xbd8ea6c2	-0.069654
41	0x3d0c7a5c	0.03429638
42	0x3d800187	0.06250291
43	0xbb50742b	-0.0031807523
44	0x3d32c333	0.043643188
45	0x3d49b3cf	0.049243744
46	0xbcf5beb4	-0.02999816
47	0x3dabba28	0.08385116
48	0x3d4582bc	0.04822038
49	0xbcd2fa2c	-0.025754057
50	0xbd92f4f1	-0.07175625
51	0x3d73408e	0.059387736
52	0x3d71b782	0.059012897
53	0xbb86016e	-0.004089526
54	0xbd8a5089	-0.06753642
55	0xbd2a4b31	-0.041575614
56	0xbbf85c75	-0.007579381
57	0xbc37d7cd	-0.0112208845
58	0xbb4dbf78	-0.0031394642
59	0x3d3fc175	0.046815354
60	0xbbd211d3	-0.006410816
61	0xbcbee4b2	-0.02330241
62	0x3d51b2ee	0.05119603
63	0xbbbedc88	-0.005824629
64	0x3d9d51bb	0.076816045
65	0x3d20d9e3	0.039270293
66	0x3d89328a	0.06699093
67	0x3d31c7c3	0.0434034
68	0xbbf85d0b	-0.007579451
69	0x3d67d79c	0.056602105
70	0x3c8fb739	0.017543422
71	0x3d8f683c	0.07002303
72	0xbc06ad22	-0.008219989
73	0x3caf56a9	0.021403627
74	0x3c9d4008	0.019195572
75	0xbb5be9bc	-0.0033556065
76	0x3d7e496b	0.062081736
77	0x3d6c1a0e	0.057642035
78	0x3d6edb28	0.058314472
79	0x3d83e9ce	0.06441079
80	0x3d4accd1	0.049511734
81	0x3d9de7a8	0.077102005
82	0x3d81d50c	0.063394636
83	0x3d540ec5	0.051771898
84	0x3c1d714e	0.0096095335
85	0xbd5e991d	-0.05434524
86	0x3d25804b	0.040405553
87	0x3dab358c	0.08359823
88	0xbcd75181	-0.026283981
89	0x3d244574	0.0401053
90	0xbd11ec23	-0.03562559
91	0xbc9c1f87	-0.019058002
92	0x3d817ce2	0.06322648
93	0x3d0c251c	0.034215078
94	0xbd507769	-0.05089513
95	0xbce9a469	-0.02852078
96	0xbbd91edb	-0.0066259927
97	0x3c00abba	0.007853443
98	0xbd7adf95	-0.06124838
99	0xbc937287	-0.017998947
100	0xbd93b0b7	-0.0721144
101	0xbd27779d	-0.040885556
102	0x3cd79fa2	0.026321236
103	0xbc90b52f	-0.01766452
104	0xbd9a7932	-0.075426474
105	0xbd52b8f7	-0.051445927
106	0xbd96842c	-0.073494285
107	0x3d9419b1	0.07231463
108	0xbb7c8df1	-0.0038536752
109	0x3d70685a	0.058693267
110	0xbd9d4333	-0.07678833
111	0x3bf5084c	0.0074777957
112	0xbda82f2f	-0.082121246
113	0xbcace0d4	-0.0211033
114	0x3d4a865d	0.049444545
115	0x3d05492e	0.032540493
116	0x3ce1b9ab	0.027554354
117	0x39634c68	0.0002167687
118	0xbcb92822	-0.022602145
119	0x3adfac85	0.0017064965
120	0xbd928302	-0.07153894
121	0x3ce44aab	0.027867636
122	0xbcb5d229	-0.022194939
123	0xbd7b9ba6	-0.061427735
124	0x3c75ffa6	0.015014565
125	0x3d2038a7	0.039116528
126	0x3cb8a86c	0.022541247
127	0x3d6b6ce4	0.057476893
128	0xbd354d87	-0.04426339
129	0xbb664e63	-0.0035141937
130	0xbd370cb9	-0.044689868
131	0xbcfb0ae6	-0.030644845
132	0xbd06d23f	-0.03291535
133	0x3bb9a1cd	0.00566504
134	0x3c82895b	0.015934637
135	0x3d735b35	0.059413154
136	0xbc2918c9	-0.010320851
137	0xbcd384dc	-0.025820188
138	0xbd137386	-0.035998844
139	0x3a2a1208	0.0006487672
140	0x3c911d6f	0.01771423
141	0x3dc00b19	0.09377117
142	0xbbe4b377	-0.0069794017
143	0xbbbd0cfe	-0.005769371
144	0x3d1e4f2d	0.038649727
145	0xbd347ce6	-0.044064425
146	0xbccada6b	-0.024762353
147	0xbda86f37	-0.082243375
148	0xbcb0e0de	-0.0215916
149	0x3d4dc289	0.05023435
150	0xbb8238ce	-0.003974057
151	0xbd72870b	-0.05921082
152	0x3caa94bf	0.02082288
153	0x3d860145	0.06543211
154	0xbba6512a	-0.0050755935
155	0xbd59897b	-0.053109627
156	0x3af86275	0.0018950241
157	0xbca8e447	-0.020616664
158	0xbcd80429	-0.026369171
159	0x3c25b44a	0.010113785
160	0x3d38b2ec	0.04509251
161	0x3cd176b8	0.025569305
162	0x3d43009a	0.047607996
163	0xbd354a8e	-0.044260554
164	0x3d5bbbcd	0.053645898
165	0x3d9b94e3	0.07596757
166	0x3a7cc123	0.0009641817
167	0xbd577b4f	-0.05260783
168	0x3c849d11	0.016188176
169	0x3c9ae69e	0.018908795
170	0xbce6cf0b	-0.028174898
171	0xbc3307d1	-0.010927157
172	0xbccb67f5	-0.024829844
173	0x3d9ca877	0.076493196
174	0xbcde46a6	-0.027133297
175	0x3d7f007b	0.062256318
176	0xbce36a22	-0.027760569
177	0x3cc205e1	0.023684444
178	0xbd9e7ddf	-0.07738852
179	0xbcd699db	-0.02619641
180	0x3cb715db	0.022349289
181	0x3d975d46	0.07390837
182	0xbcb7c23c	-0.022431485
183	0xbd938c3d	-0.07204483
184	0x3d70e152	0.058808632
185	0x3cee3932	0.029080007
186	0x3d6146e2	0.05499924
187	0x3d5c6fec	0.053817675
188	0x3d55f760	0.05223787
189	0x3a0b4b58	0.00053136563
190	0x3d4f554b	0.05061845
191	0x3cd7b2ac	0.026330315
192	0x3d8394e3	0.06424882
193	0x3d825b51	0.063650735
194	0xba64e981	-0.00087323046
195	0xbbd0903c	-0.0063648503
196	0x3d0b5df4	0.034025148
197	0x3b6202a1	0.003448643
198	0xbbff9d26	-0.007800716
199	0xbda48bda	-0.08034487
200	0xbd573450	-0.052540123
201	0x3cd34afe	0.025792595
202	0x3db5489d	0.088517405
203	0xbd482890	-0.04886681
204	0xbd0ff25c	-0.03514324
205	0x3afa5bb2	0.0019100814
206	0x3daaba31	0.083362944
207	0x3d56f1a5	0.052476544
208	0x3c70d7df	0.014699905
209	0xbd2b9634	-0.04189129
210	0x3d80e781	0.06294156
211	0x3d9628ac	0.07331976
212	0xbd8cd1c5	-0.06875948
213	0xbd674b78	-0.056468457
214	0x3c9945ec	0.0187101
215	0x3b8cbcbf	0.004294961
216	0xbd8cd8c0	-0.06877279
217	0xbcab7f26	-0.020934653
218	0xbc661f09	-0.014045485
219	0xbda33349	-0.07968766
220	0x3c6f0a71	0.014589892
221	0x3d79cea3	0.06098808
222	0x3b322f18	0.0027188715
223	0x3d106927	0.03525653
224	0xbd8aa483	-0.06769659
225	0xbd1fb8b7	-0.038994517
226	0x3d773402	0.060352333
227	0xbd69dc46	-0.057094835
228	0xbdc5157e	-0.0962324
229	0xbc79dc79	-0.015250319
230	0x3dc35825	0.095382966
231	0xbd33091a	-0.04370985
232	0x3d94d94b	0.07268008
233	0xbd445c22	-0.047939427
234	0x3c30caed	0.010790569
235	0x3a6abb54	0.00089543057
236	0xb9f85e96	-0.00047372718
237	0x3d06f58c	0.032949015
238	0xbc654f1d	-0.013995913
239	0x3c81b56c	0.015833579
240	0xbcce539f	-0.025186358
241	0xbd6f971a	-0.05849371
242	0xbd23bbe4	-0.03997411
243	0x3c928fe3	0.017890876
244	0x3d406386	0.046969913
245	0x3c6e1a03	0.014532569
246	0xbd63f7ef	-0.05565637
247	0x3d623fbf	0.055236574
248	0xbc8f8848	-0.017521039
249	0x3d4e1ac8	0.05031851
250	0xbd7f4172	-0.062318273
251	0xbd279819	-0.040916536
252	0x3cff9214	0.031197585
253	0xbced249c	-0.02894812
254	0xbc8f442f	-0.017488567
255	0xbc9ad2b4	-0.0188993

food_logits.bias f4 [3]
0	0xbbfdc9c1	-0.007744998
1	0xbd3acfdb	-0.045608383
2	0x3d50b229	0.050951157

net.0.weight f4 [128, 17]
0	0x3d8ced65	0.06881217
1	0xbddd69e3	-0.10811212
2	0xbe0cdf35	-0.13757022
3	0xbf786288	-0.97025347
4	0x3ea9f4ca	0.33194572
5	0xbe797fb9	-0.24365129
6	0xbeb1f75c	-0.34759033
7	0x3dcefb67	0.10106545
8	0xbdf3056c	-0.118662685
9	0x3e015329	0.1262938
10	0x3d5473af	0.051868137
11	0xbdac76ee	-0.084211215
12	0x3e5c2b9a	0.21501008
13	0x3cc7ac43	0.024374133
14	0xbd0c596d	-0.03426497
15	0x3e2d2d5a	0.16911831
16	0x3d42675c	0.047461852
17	0x3d2bd021	0.041946534
18	0xbe1559ac	-0.14584988
19	0xbe4339ff	-0.19065093
20	0x3e8fb13f	0.28064916
21	0xbd58b429	-0.05290619
22	0xbe6884ac	-0.2270686
23	0x3dd5c379	0.10437674
24	0x3d7eefa2	0.06224025
25	0x3e9fe38f	0.312283
26	0x3ca1d33d	0.019754047
27	0xbe43a52f	-0.19105981
28	0xbe189658	-0.14901102
29	0xbe5f1a8d	-0.21787472
30	0xbd1c15d3	-0.03810675
31	0x3e4d50d5	0.20050366
32	0xbd1dfe0c	-0.038572356
33	0x3dd0602b	0.101745926
34	0xbda11a3a	-0.078663304
35	0x3e0a8be0	0.1352992
36	0xbd4d3be8	-0.05010596
37	0x3e31e8d8	0.17373979
38	0xbec28b04	-0.37996686
39	0x3e0169a7	0.1263796
40	0x3e0163ab	0.12635677
41	0x3d7d312c	0.061814472
42	0xbd30cdea	-0.043165125
43	0x3e2f28e2	0.1710544
44	0x3e7fb969	0.24973072
45	0x3df6ffec	0.12060532
46	0x3e0eb4c8	0.1393615
47	0x3e464ca1	0.19365169
48	0xbe531c40	-0.20616245
49	0xbd4ff405	-0.050769825
50	0x3d52be22	0.051450856
51	0xbccf5c84	-0.02531267
52	0xbde0a42c	-0.10968813
53	0x3ea254f9	0.31705454
54	0xbe7b51fc	-0.24542993
55	0xbde78f39	-0.113066144
56	0xbdb0aee9	-0.086271115
57	0x3e6f4982	0.23367885
58	0xbe37a52d	-0.17934103
59	0x3e6007fa	0.21878043
60	0x3d1a7ac1	0.037714723
61	0xbe7f504c	-0.24932975
62	0xbe84957b	-0.25895295
63	0xbe8d1354	-0.2755381
64	0xbe26e74b	-0.16299169
65	0x3d916a2a	0.07100327
66	0xbdb73e11	-0.08947385
67	0x3e622a1a	0.22086373
68	0x3e727643	0.23677926
69	0xbda7cd28	-0.08193427
70	0xb8b74f29	-8.740865e-05
71	0xbf0638c2	-0.52430356
72	0xbe2700ef	-0.1630895
73	0x3db7ec71	0.089806445
74	0xbe0e8158	-0.13916528
75	0xbe487fd1	-0.19580008
76	0xbe87dbbc	-0.26534832
77	0xbe12293c	-0.14273542
78	0xbe4c2da5	-0.19939287
79	0x3db8fccb	0.090325914
80	0xbe33ab36	-0.1754578
81	0x3e4449dd	0.19168802
82	0xbca4479d	-0.02005368
83	0xbd7ff777	-0.06249186
84	0xbe73312e	-0.2374923
85	0xbe40e512	-0.18837383
86	0xbd026eb8	-0.03184387
87	0x3de30896	0.11085622
88	0x3e0924d0	0.13392949
89	0x3dbb3a87	0.091420226
90	0xbe9f3284	-0.31093228
91	0xbe6785a2	-0.2260957
92	0xbd99d55c	-0.07511398
93	0xbe5d7631	-0.21627118
94	0xbe2744de	-0.16334864
95	0x3e1971b3	0.14984779
96	0xbd36f665	-0.044668574
97	0xbe63f856	-0.22262701
98	0x3db085d9	0.086192794
99	0xbe07a46c	-0.13246316
100	0xbe169cdd	-0.14708276
101	0xbcaa262b	-0.020770153
102	0xbd541e36	-0.051786624
103	0xbde392ec	-0.111120075
104	0xbe174e5f	-0.1477599
105	0x3fb1ef47	1.3901147
106	0xbea7152d	-0.32633343
107	0xbd9367e5	-0.07197551
108	0x3e3b8187	0.1831113
109	0x3e2b5854	0.16732913
110	0x3e186104	0.14880759
111	0xbd1cc7f2	-0.03827662
112	0x3e246a9d	0.16056295
113	0xbc6c5d25	-0.014426504
114	0xbcba2f3f	-0.022727607
115	0xbcf9480d	-0.030429864
116	0xbe5188a7	-0.20462285
117	0xbdf08191	-0.11743463
118	0x3e02719e	0.12738654
119	0x3e6c2acd	0.23063202
120	0x3d418141	0.047242407
121	0xbe57a21f	-0.21057938
122	0xbf981c44	-1.1883626
123	0x3e491a05	0.19638832
124	0x3e6497c7	0.22323523
125	0x3d5d5e8d	0.05404525
126	0x3ea36078	0.31909537
127	0x3e35bb1b	0.17747156
128	0x3e102ee5	0.14080389
129	0x3bdf72c1	0.0068190997
130	0xbbf60e73	-0.0075090467
131	0xbe5113af	-0.20417665
132	0xbdc77373	-0.09738817
133	0x3df16e46	0.11788611
134	0x3d7bf1ef	0.061510023
135	0xbdca500f	-0.09878551
136	0xbd10093e	-0.035165064
137	0xbde0da4f	-0.10979139
138	0xbd2d80e7	-0.04235926
139	0xbeaf6fc0	-0.34264946
140	0x3d6ca3aa	0.05777327
141	0x3e592f9e	0.21209571
142	0x3e57da91	0.2107947
143	0x3d43ca67	0.047800448
144	0x3cab02c9	0.020875352
145	0x3de4cbbb	0.11171671
146	0x3e051531	0.12996365
147	0xbe28d7e8	-0.16488612
148	0x3cee797d	0.029110665
149	0x3e19f04d	0.15033074
150	0x3e81f5aa	0.2538274
151	0xbdf8c236	-0.12146418
152	0xbe33995e	-0.17538974
153	0x3bce7a20	0.0063011795
154	0x3e26f8e7	0.16305886
155	0x3dbb47db	0.09144565
156	0x3f9654c5	1.174462
157	0x3e0ce9f0	0.13761115
158	0xbe4405c5	-0.19142826
159	0x3bd4b291	0.0064910133
160	0xbb19cc59	-0.0023467748
161	0xbcd7a235	-0.026322464
162	0x3d6d6358	0.05795607
163	0x3d56ea82	0.052469738
164	0x3e16dc12	0.14732388
165	0xbe2911f5	-0.16510756
166	0xbd9ed622	-0.07755686
167	0x3e7710f4	0.24127561
168	0x3e264e91	0.16240908
169	0xbd23372c	-0.039847538
170	0x3e4db917	0.20090137
171	0xbddfb216	-0.10922639
172	0xbd869647	-0.06571632
173	0x3f6c02c0	0.92191696
174	0x3e0be07a	0.1365985
175	0xbd95fae3	-0.073232435
176	0xbc7f2d27	-0.01557473
177	0xbd348e30	-0.044080913
178	0x3de29997	0.11064451
179	0xbe3e8be0	-0.18608046
180	0xbe6476e6	-0.22310981
181	0x3cd58353	0.026063597
182	0x3dfa7173	0.1222867
183	0x3e7d6cd8	0.24748552
184	0x3e0473ef	0.1293485
185	0x3d8c1f5c	0.06841919
186	0xbe330410	-0.17482018
187	0x3e211eb6	0.15734372
188	0xbe395497	-0.18098675
189	0x3eaf4fc5	0.34240547
190	0x3daac985	0.08339218
191	0xbe278e76	-0.16362938
192	0x3dba2f65	0.09091071
193	0x3dd792ea	0.105260685
194	0x3df112bb	0.11771151
195	0x3d41dd6f	0.047330316
196	0x3ca329e6	0.01991744
197	0xbe4fded7	-0.2029985
198	0xbd8d03cf	-0.06885492
199	0x3e39c16a	0.18140188
200	0x3dc5f894	0.09666553
201	0x3cb53d7c	0.022124045
202	0xbdf24d5c	-0.118311614
203	0xbd55ed8d	-0.0522285
204	0x3d11251e	0.03543579
205	0x3e0437a8	0.12911856
206	0x3cd8781d	0.026424462
207	0x3f93d83f	1.1550368
208	0xbe395fa9	-0.18102898
209	0x3dbfecba	0.09371324
210	0xbc87ca2d	-0.016575897
211	0x3e090852	0.1338208
212	0xbe3ec297	-0.18628918
213	0x3c9340a2	0.017975155
214	0x3e668799	0.22512664
215	0xbdfa6d51	-0.12227882
216	0x3de82254	0.113346726
217	0x3d11b6ab	0.035574596
218	0xbdff42cf	-0.124639146
219	0x3e12f416	0.14350924
220	0xbd52ea79	-0.05149314
221	0xbdacad31	-0.08431471
222	0x3cfbaaf7	0.03072117
223	0x3e06d5f9	0.13167562
224	0xbe4070e5	-0.18793066
225	0x3ecab4af	0.39590976
226	0xbc867fa4	-0.016418286
227	0x3c814225	0.01577861
228	0x3e7aa577	0.24477182
229	0xbd224ed3	-0.039625954
230	0xbd355415	-0.04426964
231	0xbd3737a8	-0.044730812
232	0xbde1f50c	-0.11033067
233	0x3e0e54e7	0.13899575
234	0x3dd2b636	0.1028866
235	0x3d26db37	0.040736403
236	0x3cbe1ca2	0.023207013
237	0xbe0c2319	-0.13685264
238	0xbe39839a	-0.18116608
239	0x3dbcf998	0.09227294
240	0xbc8d9fb0	-0.017288059
241	0x3fca085a	1.5783799
242	0x3ddba3b5	0.10724584
243	0x3c1d0d9c	0.009585764
244	0xbe81e023	-0.25366315
245	0x3dbcd4ef	0.09220301
246	0x3e7b937a	0.24567977
247	0x3dd5f4e3	0.10447099
248	0xbe7fcdd9	-0.24980868
249	0xbdebd7e7	-0.115157895
250	0x3d7bbfc2	0.06146217
251	0x3db9eb02	0.09078027
252	0x3e33ab1e	0.17545745
253	0xbe092063	-0.13391261
254	0xbd852fc8	-0.06503254
255	0xbe21bb9e	-0.15794227

net.0.bias f4 [128]
0	0x3e68341e	0.22676131
1	0xbbb898bd	-0.005633442
2	0xbdcabaae	-0.098988876
3	0xbe061b84	-0.13096434
4	0xbcaf58e0	-0.021404684
5	0x3e30c053	0.17260866
6	0xbe6c11fa	-0.23053733
7	0x3d606442	0.054783113
8	0xbe4deeb0	-0.20110583
9	0xbe7de9a5	-0.2479616
10	0x3da91658	0.08256215
11	0x3c6d290c	0.014475118
12	0x3db24ec7	0.08706432
13	0x3ca34fc0	0.019935489
14	0xbda3eb81	-0.08003903
15	0x3daf2dd1	0.08553661
16	0xbe0729c6	-0.13199529
17	0x3d1b6cf4	0.037945703
18	0xbdcc8183	-0.0998564
19	0xbe01ab0e	-0.12662908
20	0xbe77125a	-0.24128094
21	0xbe2e3563	-0.17012553
22	0x3e1824a0	0.14857721
23	0x3e739fbf	0.23791407
24	0xbe0ed66e	-0.13948986
25	0xbc39e6d3	-0.011346537
26	0xbe4c3a22	-0.19944051
27	0x3de77440	0.1130147
28	0xbe1d756f	-0.15376829
29	0x3e39753e	0.1811113
30	0xbd013b84	-0.0315509
31	0x3e0cf976	0.13767037
32	0x3d41b772	0.047294088
33	0x3dc646d4	0.09681478
34	0x3e201612	0.15633419
35	0x3cbdf7c4	0.023189433
36	0xbd6b7667	-0.057485964
37	0xbe16afc6	-0.1471549
38	0xbe567a0d	-0.20944996
39	0xbc052417	-0.00812628
40	0xbe18d874	-0.1492632
41	0xbe5f678b	-0.21816842
42	0xbd9e28aa	-0.077226
43	0x3cbfc98f	0.02341154
44	0x3d04dcb1	0.03243703
45	0xbe24a620	-0.16078997
46	0xbe6932d8	-0.22773302
47	0xbd8ea73b	-0.069654904
48	0xbd939c56	-0.07207553
49	0x3e0f0118	0.13965261
50	0xbe13e1b6	-0.1444157
51	0xbe79a337	-0.24378668
52	0x3e7d1ded	0.24718447
53	0x3dc8407e	0.09777926
54	0x3e660814	0.22464019
55	0xbe6a130b	-0.22858827
56	0x3de9290b	0.113847815
57	0x3c27b2f4	0.010235537
58	0x3c87a36e	0.016557422
59	0x3d4178b6	0.04723426
60	0x3d8c5a61	0.06853176
61	0x3c558e89	0.013034471
62	0xbe5766d2	-0.21035317
63	0x3e2d9c49	0.1695415
64	0x3d919482	0.07108404
65	0xbe70e410	-0.23524499
66	0xbe6cc7f1	-0.23123147
67	0x3e43ef43	0.1913424
68	0x3e13aeb1	0.14422108
69	0xbe717b81	-0.23582269
70	0x3cb0ee51	0.021598013
71	0xbe820249	-0.25392368
72	0x3d308b6a	0.043101706
73	0xbe95e373	-0.29275092
74	0x3e6b4cf1	0.2297857
75	0xbd31bffe	-0.04339599
76	0x3e1d634f	0.15369914
77	0x3c7378b0	0.014860317
78	0x3d846881	0.06465245
79	0x3e1b088b	0.15139978
80	0x3d92a4ab	0.07160314
81	0x3e293a1a	0.1652607
82	0x3e0eff47	0.13964568
83	0x3e4bf890	0.19919038
84	0x3d6915a0	0.05690539
85	0x3da4015a	0.0800807
86	0xbe3b7ec9	-0.18310083
87	0xbe3dbdf6	-0.18529496
88	0xbe0c11fd	-0.13678737
89	0x3dd5810c	0.10425004
90	0x3d9fbd7c	0.07799813
91	0xbd48f531	-0.049061958
92	0x3e10c9df	0.14139508
93	0x3d8cbe12	0.068721905
94	0xbdd979a8	-0.10618907
95	0x3e75ce32	0.24004439
96	0x3e2bf26f	0.167917
97	0xbe70bcfe	-0.23509595
98	0xbe383740	-0.17989826
99	0x3d9dc2d1	0.07703174
100	0x3d6d83ae	0.057986908
101	0xbe2b3791	-0.16720416
102	0xbc9b8007	-0.018981947
103	0x3db6582e	0.08903538
104	0x3e26b5a9	0.16280235
105	0xbd994420	-0.07483697
106	0xbe0dfc4d	-0.13865776
107	0xbdd3cecb	-0.10342177
108	0xbe8e69c7	-0.27815077
109	0x3de3859d	0.11109469
110	0xbd8fec24	-0.07027462
111	0x3e77d504	0.24202353
112	0xbc0130ba	-0.0078851525
113	0x3db9ac45	0.09066061
114	0xbdf5aaa8	-0.11995441
115	0xbe914024	-0.28369248
116	0xbe29cf3c	-0.1658296
117	0x3d891297	0.06692999
118	0xbdeefcd9	-0.116693206
119	0x3e4ac66d	0.19802256
120	0xbd29ed10	-0.041485846
121	0xbccb7907	-0.024837984
122	0xbe450170	-0.1923883
123	0x3e415fc2	0.18884185
124	0xbe0368cc	-0.12832946
125	0x3c71ce36	0.014758637
126	0x3e2491f8	0.16071308
127	0x3dcc0c11	0.09963239
