src/training_logs_ppo/initial/ppo_checkpoint_133_1764185867.pt (torch, 480155 bytes, 42 tensors)

move_logstd f4 [2]
1.4704622 1.4803579
00000000: 1b38 bc3f 5e7c bd3f

shared.0.weight f4 [128, 17]
0.1650703 -0.106402464 -0.2447999 0.2003978 0.14274012 -0.15433313 -0.09104516 0.121683605
0.21666929 -0.17448312 0.09988717 -0.17889024 -0.13274404 -0.04264262 0.019516738 0.07890297
-0.12934802 -0.07512401 -0.09136706 0.08218316 0.14826266 -0.27400312 0.25020316 -0.15447575
-0.0052944445 -0.09905079 -0.20439792 -0.14254096 -0.051645327 0.20200045 0.039957687 0.061252348
-0.14029096 -0.1152745 0.14257522 0.26453134 0.118041046 0.025624292 -0.33781368 -0.113114685
-0.06364449 -0.09990262 -0.1120352 -0.07418094 -0.10932339 0.03708639 0.19741477 -0.16044287
0.13276601 0.05751584 0.058752984 -0.00084710476 -0.10304003 -0.31027308 0.08709993 0.032924782
0.17213455 0.17282428 0.024739977 0.17090422 -0.023758523 0.09329887 -0.020603077 -0.050475612
-0.09012944 0.020419324 -0.11074179 0.17168115 0.15114185 0.15681656 -0.22363642 0.22884183
0.016569218 0.1775243 -0.053234577 0.08308006 -0.12847118 0.15246068 0.06599785 0.087829046
0.12715764 0.02407411 -0.01689498 -0.050263617 0.09320845 -0.09907972 0.08437777 -0.1213706
-0.26796007 -0.26430643 0.049165275 0.24866529 -0.16565663 0.19419643 0.030768462 0.060848374
0.11828789 0.09396897 -0.13090202 -0.113813445 -0.041458633 0.013478046 0.04186065 -0.016443908
-0.112655066 0.07681515 -0.017764099 0.10230941 -0.2935676 -0.043982577 0.28516072 -0.020867126
-0.2450115 -0.19689241 0.063268274 -0.04090492 0.013119696 -0.102258265 -0.017926082 -0.18457948
0.036260247 0.05542912 0.09339249 0.041809857 -0.22567911 -0.19682811 0.20043524 -0.061743475
-0.14868712 0.021396909 0.0041262577 -0.16075715 -0.17000714 0.17800891 0.01788091 -0.046016157
-0.1230866 0.059709106 -0.025898738 -0.05986198 -0.035539735 -0.20765091 0.0013820908 0.23453812
0.086310335 -0.26901835 0.04367112 -0.08198173 0.12507202 -0.13022536 -0.19120741 0.07014461
-0.16544953 0.14900388 0.008367274 0.059402987 -0.34579384 -0.21512996 -0.10770037 -0.004234077
0.09598558 0.13858485 0.23242165 -0.0986648 0.08930017 -0.21243632 -0.120025076 0.10812806
0.070699945 0.056013025 -0.12217029 0.088064864 -0.100182205 -0.027973441 -0.17886509 0.16663879
-0.1361239 -0.18897332 -0.18537657 -0.17270075 0.2202367 -0.094434075 -0.15709355 0.052729916
0.11678819 0.09494472 -0.12328241 -0.10145789 -0.13509691 0.10238163 -0.11141902 0.035741054
0.23345004 0.24985981 0.21213792 -0.041488603 -0.08402773 -0.23547663 0.09468517 -0.0746524
-0.05612227 -0.091542564 -0.08103896 -0.093555294 0.0008114778 -0.14038704 -0.19713695 0.099683784
-0.05113022 -0.25287396 0.17189725 -0.058581766 -0.08942078 0.055643152 -0.08748704 -0.039336383
-0.1281515 -0.038110632 -0.007884619 0.03950206 -0.09639932 0.10857432 0.013654054 -0.15784945
0.093214616 -0.037852235 0.21274611 -0.21304417 0.057709385 0.16106689 -0.055904333 -0.09917785
0.067435324 0.0731718 0.04094503 -0.038440075 0.1601972 -0.087202355 -0.07763374 0.050114807
-0.115881965 -0.08951942 -0.2077048 -0.22454546 0.1609733 -0.18737301 0.22211494 0.07670781
0.049165733 -0.059476335 -0.06450046 0.00236482 0.19674775 -0.21248981 -0.07122675 0.008886232
00000000: 3008 293e 89e9 d9bd d3ac 7abe 1535 4d3e
00000010: 772a 123e 8109 1ebe e375 babd 4135 f93d
00000020: 8ede 5d3e b4ab 32be a591 cc3d 012f 37be
00000030: 0eee 07be 07aa 2ebd 91e1 9f3c e197 a13d
00000040: cf73 04be 9eda 99bd a71e bbbd a54f a83d
00000050: 2bd2 173e 234a 8cbe a11a 803e e42e 1ebe
00000060: 057d adbb 24db cabd b04d 51be 42f6 11be
00000070: 0d8a 53bd 35d9 4e3e acaa 233d bee3 7a3d
00000080: 6fa8 0fbe 0915 ecbd 3dff 113e a770 873e
00000090: 81bf f13d 09ea d13c eaf5 acbe aca8 e7bd
000000a0: 0b58 82bd bf99 ccbd b672 e5bd 2dec 97bd
000000b0: f1e4 dfbd e6e7 173d 1927 4a3e 234b 24be
000000c0: d0f3 073e bb95 6b3d f8a6 703d 3d10 5eba
000000d0: a706 d3bd 1ddc 9ebe 7361 b23d 23dc 063d
000000e0: 0a44 303e d9f8 303e 7eab ca3c 8401 2f3e
000000f0: 3ca1 c2bc 7a13 bf3d c9c7 a8bc 84bf 4ebd
00000100: c995 b8bd 6d46 a73c 97cc e2bd 2fcd 2f3e
00000110: eec4 1a3e 8594 203e f200 65be 8355 6a3e
00000120: 2bbc 873c eec8 353e 800c 5abd e125 aa3d
00000130: f38d 03be a71e 1c3e e129 873d b7df b33d
00000140: 9d35 023e 1137 c53c 5767 8abc 39e1 4dbd
00000150: 12e4 be3d 4fea cabd 41ce ac3d 2691 f8bd
00000160: 1032 89be 2c53 87be 8761 493d 1da2 7e3e
00000170: e4a1 29be 6edb 463e 240e fc3c 253c 793d
00000180: ec40 f23d ce72 c03d 2e0b 06be 0617 e9bd
00000190: 87d0 29bd 06d3 5c3c 1376 2b3d 60b5 86bc
000001a0: b3b7 e6bd 4351 9d3d 0486 91bc 9987 d13d
000001b0: 7e4e 96be 1327 34bd 9600 923e 89f1 aabc
000001c0: 4be4 7abe 2a9e 49be cc92 813d eb8b 27bd
000001d0: fef3 563c c86c d1bd b8d9 92bc 6702 3dbe
000001e0: a085 143d a509 633d 9044 bf3d d040 2b3d
000001f0: 6d18 67be 4f8d 49be e53e 4d3e bae6 7cbd
00000200: 7041 18be 9248 af3c 8f35 873b 869d 24be
00000210: 5a16 2ebe f847 363e fc7a 923c 707b 3cbd
00000220: d414 fcbd 8991 743d 9729 d4bc d631 75bd
00000230: 1d92 11bd 71a2 54be 4627 b53a c32a 703e
00000240: 79c3 b03d c6bc 89be 7de0 323d 0ae6 a7bd
00000250: e112 003e cc59 05be e0cb 43be faa7 8f3d
00000260: 9a6b 29be 7994 183e e416 093c 8c50 733d
00000270: e40b b1be 074b 5cbe 0392 dcbd 03be 8abb
00000280: 1694 c43d 30e9 0d3e f1ff 6d3e c510 cabd
00000290: 02e3 b63d e888 59be b5cf f5bd 3f72 dd3d
000002a0: 22cb 903d ea6d 653d 6b34 fabd 5a5b b43d
000002b0: 542c cdbd 8f28 e5bc 6928 37be 5ca3 2a3e
000002c0: 1064 0bbe 3982 41be 5bd3 3dbe 77d8 30be
000002d0: bb85 613e a766 c1bd 22dd 20be 53fb 573d
000002e0: a62e ef3d 6172 c23d 7d7b fcbd 27c9 cfbd
000002f0: d856 0abe 76ad d13d a82f e4bd 3665 123d
00000300: 870d 6f3e 40db 7f3e af3a 593e f4ef 29bd
00000310: bb16 acbd c920 71be 4cea c13d 5ce3 98bd
00000320: 77e0 65bd ab7a bbbd c1f7 a5bd eb99 bfbd
00000330: 5ab9 543a 9fc1 0fbe 45de 49be 0327 cc3d
00000340: ec6d 51bd b278 81be d505 303e 6ff3 6fbd
00000350: 3e22 b7bd 13ea 633d 682c b3bd 301f 21bd
00000360: 263a 03be e519 1cbd 7d2e 01bc e9cc 213d
00000370: 026d c5bd 375c de3d 41b5 5f3c 49a3 21be
00000380: 4ee7 be3d f20a 1bbd 1eda 593e 4028 5abe
00000390: ad60 6c3d b8ee 243e f1fb 64bd c21d cbbd
000003a0: 881b 8a3d 19db 953d fab5 273d 5773 1dbd
000003b0: bc0a 243e 2697 b2bd 70fe 9ebd 2f45 4d3d
000003c0: 8653 edbd f555 b7bd 91b0 54be 3fef 65be
000003d0: 2fd6 243e b6de 3fbe 1972 633e fc18 9d3d
000003e0: 0262 493d 759d 73bd d118 84bd 19fb 1a3b
000003f0: 3e78 493e ee96 59be 55df 91bd 8f97 113c

shared.0.bias f4 [128]
-0.12244788 -0.32274732 -0.11060711 -0.20503652 -0.10690203 -0.007828839 -0.008753893 0.19033007
-0.28473443 -0.08311384 0.12740141 -0.22514454 0.032741178 -0.045608804 -0.008395237 -0.18794027
-0.11530297 0.20051812 0.13067982 -0.22489473 -0.10418787 0.008166313 -0.01689063 0.019838791
-0.045200486 -0.15248357 0.03316007 -0.012273759 0.15621851 -0.23609735 -0.0015984152 -0.28395566
-0.080880456 -0.029956916 -0.22963388 0.024540817 -0.17235242 -0.2636605 -0.029101294 -0.059163425
-0.2941464 -0.2621326 -0.0043663904 -0.14520642 0.14949554 -0.2697468 0.22283001 -0.26538473
0.14732414 -0.099135004 -0.28102702 -0.12524863 -0.20299165 -0.045953106 -0.02007528 -0.026785744
0.061952233 -0.26286912 -0.07150161 -0.107626535 -0.06546009 -0.04166275 -0.11594131 -0.12390668
-0.21863362 -0.13370556 -0.2893393 -0.39597204 -0.104192086 0.021669736 -0.34796062 -0.21565622
0.05098781 0.15976287 0.014384292 -0.13224529 0.20401283 -0.23031707 -0.15538073 -0.107745126
-0.09734386 -0.24742356 -0.37950966 -0.2017635 -0.13555314 -0.14587942 -0.0002697663 -0.0068207537
-0.038155492 -0.20312276 0.044771194 -0.056216788 -0.14595269 0.19438742 -0.26070243 0.15774168
-0.23654242 -0.2639658 0.2245834 -0.11676939 0.19389375 -0.14364123 0.1655656 0.012606494
0.07803268 -0.026422517 -0.051989257 -0.060611043 -0.03401552 -0.1662771 8.641415e-06 -0.22139862
-0.20043682 -0.2761803 -0.03045571 -0.18714014 -0.17289673 -0.06677576 -0.26717862 0.02402322
-0.039314926 -0.30619317 -0.18522 -0.20121685 -0.17059574 0.08535976 -0.3111684 0.0141242
00000000: f4c5 fabd 233f a5be fb85 e2bd 18f5 51be
00000010: 74ef dabd 8844 00bc 7d6c 0fbc e3e5 423e
00000020: b6c8 91be 9737 aabd 8475 023e 4a8c 66be
00000030: 9d1b 063d 4cd0 3abd 2d8c 09bc 6a73 40be
00000040: f723 ecbd 9f54 4d3e eed0 053e ce4a 66be
00000050: 7360 d5bd 00cc 053c 385e 8abc f684 a23c
00000060: 2524 39bd a724 1cbe dbd2 073d e017 49bc
00000070: bff7 1f3e 81c3 71be ea81 d1ba a362 91be
00000080: a7a4 a5bd 3568 f5bc 2525 6bbe d309 c93c
00000090: 277d 30be 82fe 86be d665 eebc 5955 72bd
000000a0: 5b9a 96be 3f36 86be f013 8fbb feb0 14be
000000b0: 5c15 193e 411c 8abe 8d2d 643e 82e0 87be
000000c0: 24dc 163e 4b07 cbbd c6e2 8fbe 2d41 00be
000000d0: 0bdd 4fbe 5339 3cbd ea74 a4bc c76d dbbc
000000e0: a0c1 7d3d c896 86be 706f 92bd 4d6b dcbd
000000f0: f10f 86bd 8fa6 2abd a372 edbd c9c2 fdbd
00000100: 7ee1 5fbe 1cea 08be 4824 94be d9bc cabe
00000110: a962 d5bd bb84 b13c e527 b2be fcd4 5cbe
00000120: 98d8 503d e198 233e 18ac 6b3c 4f6b 07be
00000130: bde8 503e 3dd8 6bbe 201c 1fbe 7aa9 dcbd
00000140: 385c c7bd 9a5c 7dbe 174f c2be 179b 4ebe
00000150: 71ce 0abe 6a61 15be 6b6f 8db9 a180 dfbb
00000160: ef48 1cbd 6aff 4fbe 0062 373d 9343 66bd
00000170: 9f74 15be 7f0d 473e ca7a 85be 0987 213e
00000180: 2d38 72be 8626 87be 31f9 653e ca24 efbd
00000190: 158c 463e b016 13be 078a 293e 788b 4e3c
000001a0: 99cf 9f3d 0974 d8bc b0f2 54bd 4943 78bd
000001b0: dc53 0bbd 8b44 2abe 98fa 1037 52b6 62be
000001c0: 4f3f 4dbe 8167 8dbe 417e f9bc aaa1 3fbe
000001d0: d70b 31be bbc1 88bd a3cb 88be 58cc c43c
000001e0: b008 21bd 5ac5 9cbe 50aa 3dbe ca0b 4ebe
000001f0: a6b0 2ebe 19d1 ae3d 7751 9fbe 3069 673c

shared.2.weight f4 [128, 128]
0.025553752 0.048459403 0.056643117 -0.021730058 0.06581817 0.053116113 -0.044071816 0.034476556
-0.015181052 0.06381761 -0.0021016868 -0.08012759 -0.08218886 0.035097368 0.026885962 0.083254926
0.036034875 -0.035929903 -0.0011508459 0.0027133669 0.0118070375 -0.09206048 -0.068536356 0.024956483
0.08288247 -0.08221644 -0.023790998 -0.006896274 -0.12393683 -0.062808774 -0.019720094 0.013824809
-0.012502529 -0.005162363 0.06323839 -0.031673137 0.06456842 -0.09698454 0.047344584 -0.07320897
0.020500747 -0.100427315 -0.08370373 0.04463905 -0.002514179 -0.07851873 -0.06527518 0.043963913
-0.02552617 -0.08295538 0.02596578 -0.059860114 0.037828464 0.0072838124 -0.028205281 0.05127002
0.04494376 -0.06276939 -0.008040131 0.036184613 -0.03669043 -0.051880207 -0.03405708 -0.053468145
0.062637135 0.048920237 0.0045065163 -0.019867096 -0.09959783 0.0044441223 -0.050652243 0.02362322
-0.023579836 -0.070637636 -0.062949024 -0.05291733 -0.048235778 -0.073789924 -0.039240554 0.03668046
-0.033604596 -0.03870545 -0.12665273 -0.09669307 -0.022628337 -0.03647429 -0.0151903685 -0.1383506
-0.09049364 -0.031644262 0.01945164 -0.05257845 0.02390479 0.035166398 0.050904635 -0.04681678
-0.094768286 0.004659499 -0.065263435 0.036252026 -0.08332988 0.03129906 -0.14820968 -0.11349402
-0.07777115 -0.0019568095 -0.09584513 0.011791014 0.07281533 -0.063901104 0.037119187 -0.034422304
-0.09631595 0.033921465 0.00061430986 -0.015226989 0.035385333 -0.09684798 -0.065665014 -0.014283454
-0.044270776 -0.050600898 -0.055283193 0.013634896 0.030231154 0.018065726 -0.067247346 -0.025690082
-0.04249255 -0.0032227999 -0.08920158 -0.116391525 0.016906848 0.04732462 -0.0807355 0.063936815
0.06501576 0.0073206197 -0.06909606 -0.022294171 -0.117026046 0.038991258 0.01819221 0.052371975
0.027539354 -0.07257542 -0.03763672 0.024276113 -0.10138282 -0.024688995 -0.06325084 0.016178455
-0.005910658 -0.008640152 0.035803568 -0.07696905 -0.045677338 -0.051553134 -0.053468753 -0.091715574
-0.012242604 -0.06687207 -0.04022572 0.039398976 -0.107631385 0.020085167 -0.05142069 -0.11797609
-0.10180442 -0.005006299 0.055171728 -0.008342056 0.04224363 -0.077759996 0.061660714 0.061251048
0.004006598 -0.05728322 -0.075842805 -0.06870662 0.05603364 0.027229352 0.04507149 0.05969407
-0.09411531 -0.00017144938 -0.07361682 0.04406234 -0.05608759 -0.11122129 -0.057840798 -0.005941818
-0.0368163 -0.066582605 0.031257242 -0.068223864 0.07557065 0.056581598 0.0044527873 0.055281248
-0.064637884 0.030386532 -0.12380462 -0.021099152 -0.07240355 -0.041956283 -0.044212125 -0.15197064
0.028935095 -0.0013995948 -0.005116109 0.024939407 -0.07714232 -0.0068573533 0.0365135 -0.043815795
0.06614442 -0.06362979 -0.027012596 0.0036568057 -0.08575441 -0.08551591 -0.073483184 0.031643655
-0.0273933 0.00017263365 -0.098543696 -0.15248436 -0.12791875 0.0009182813 0.04637058 -0.05922657
-0.05005898 -0.066122964 0.054823462 -0.030088907 0.0028441518 -0.01324185 0.061695118 -0.061592504
0.071638264 0.00048164383 -0.005819832 0.0048696743 -0.033700395 -0.07503284 0.039030094 -0.03638928
-0.104807794 -0.03741052 -0.09651374 -0.06363625 -0.010119952 -0.100432016 -0.11859073 -0.02711794
00000000: 1a56 d13c 5e7d 463d 9d02 683d 3c03 b2bc
00000010: adcb 863d 4890 593d a684 34bd 4a37 0d3d
00000020: f2b9 78bc cfb2 823d 74bc 09bb ef19 a4bd
00000030: a252 a8bd 42c2 0f3d f33f dc3c 8f81 aa3d
00000040: 4e99 133d 3c2b 13bd fbd7 96ba bed2 313b
00000050: 4e72 413c 348a bcbd ca5c 8cbd 8a71 cc3c
00000060: 49be a93d 1861 a8bd 57e5 c2bc 24fa e1bb
00000070: 98d2 fdbd e3a1 80bd 098c a1bc 7481 623c
00000080: 68d7 4cbc 0a29 a9bb 2183 813d b1bb 01bd
00000090: 733c 843d d59f c6bd 65ec 413d 96ee 95bd
000000a0: 2ff1 a73c d6ac cdbd dc6c abbd 70d7 363d
000000b0: edc4 24bb 6ece a0bd feae 85bd 8113 343d
000000c0: 421c d1bc 83e4 a9bd 30b6 d43c e12f 75bd
000000d0: 05f2 1a3d 0cad ee3b c30e e7bc 8300 523d
000000e0: f316 383d 3d8d 80bd c1ba 03bc 5136 143d
000000f0: b448 16bd 5780 54bd 707f 0bbd 6a01 5bbd
00000100: e647 803d 9660 483d 66ab 933b 52c0 a2bc
00000110: f2f9 cbbd 00a0 913b ba78 4fbd 7c85 c13c
00000120: 802a c1bc 77aa 90bd 6beb 80bd d8bf 58bd
00000130: e192 45bd 2c1f 97bd b4ba 20bd 403e 163d
00000140: f9a4 09bd 9b89 1ebd 41b1 01be 0407 c6bd
00000150: 105f b9bc 1166 15bd 06e1 78bc c8ab 0dbe
00000160: bb54 b9bd 6a9d 01bd 0c59 9f3c 805c 57bd
00000170: fad3 c33c a40a 103d 6181 503d f4c2 3fbd
00000180: e015 c2bd b6ae 983b d6a8 85bd 017d 143d
00000190: dba8 aabd 7133 003d 47c4 17be 8e6f e8bd
000001a0: 7b46 9fbd d13d 00bb 744a c4bd 192f 413c
000001b0: 3420 953d 95de 82bd 4a0a 183d 67fe 0cbd
000001c0: 4c41 c5bd 3cf1 0a3d a309 213a 9f7a 79bc
000001d0: 36f0 103d 3c58 c6bd 617b 86bd 2605 6abc
000001e0: 4655 35bd e342 4fbd a170 62bd e664 5f3c
000001f0: 53a7 f73c 93fe 933c fab8 89bd 0274 d2bc
00000200: ab0c 2ebd 9c35 53bb 51af b6bd ae5e eebd
00000210: 3b80 8a3c 76d7 413d a758 a5bd 4ef1 823d
00000220: fc26 853d cfe1 ef3b 3c82 8dbd 44a2 b6bc
00000230: 5aab efbd 4cb5 1f3d d407 953c ff83 563d
00000240: 369a e13c 6ca2 94bd f628 1abd b3de c63c
00000250: cca1 cfbd 9340 cabc a889 81bd ae88 843c
00000260: 31ae c1bb 6d8f 0dbc c3a6 123d f3a1 9dbd
00000270: 2918 3bbd 6129 53bd 0d02 5bbd 60d5 bbbd
00000280: 3495 48bc 39f4 88bd b9c3 24bd d260 213d
00000290: d86d dcbd a689 a43c 809e 52bd 739d f1bd
000002a0: d67e d0bd e10b a4bb c0fb 613d 1ead 08bc
000002b0: a807 2d3d a240 9fbd f28f 7c3d 61e2 7a3d
000002c0: c849 833b cfa1 6abd 7953 9bbd 0eb6 8cbd
000002d0: 8883 653d 1710 df3c e29c 383d c581 743d
000002e0: 87bf c0bd 18c7 33b9 6ac4 96bd b67a 343d
000002f0: 1abc 65bd fdc7 e3bd 79ea 6cbd 95b3 c2bb
00000300: b0cc 16bd 765c 88bd 9807 003d f4b8 8bbd
00000310: c9c4 9a3d 1bc2 673d b0e8 913b 976e 623d
00000320: de60 84bd 2ded f83c 478d fdbd 21d8 acbc
00000330: 5048 94bd 5ada 2bbd c617 35bd 319e 1bbe
00000340: 4b09 ed3c 9c72 b7ba 08a5 a7bb ba4d cc3c
00000350: cbfc 9dbd a6b3 e0bb 2e8f 153d 3178 33bd
00000360: ba76 873d 5650 82bd 8549 ddbc 05a7 6f3b
00000370: 02a0 afbd f722 afbd 5a7e 96bd c79c 013d
00000380: ea67 e0bc fe04 3539 47d1 c9bd dc24 1cbe
00000390: 22fd 02be d1b8 703a 14ef 3d3d 8f97 72bd
000003a0: a50a 4dbd 7a6b 87bd 918e 603d 037d f6bc
000003b0: f364 3a3b 58f4 58bc 05b4 7c3d 6c48 7cbd
000003c0: 15b7 923d 2485 fc39 4ab4 bebb ca91 9f3b
000003d0: 6d09 0abd d1aa 99bd 05de 1f3d ed0c 15bd
000003e0: 78a5 d6bd c63b 19bd ffa8 c5bd b953 82bd
000003f0: 28ce 25bc 4daf cdbd b2df f2bd 7126 debc

shared.2.bias f4 [128]
-0.0546298 -0.09877184 -0.1142108 0.02300533 -0.016039914 0.024194874 0.04624277 0.04040267
-0.114249185 0.017173812 -0.088240996 -0.024739288 0.015895624 -0.070275486 -0.00039228742 -0.13187698
-0.019547377 -0.08587534 0.02537571 -0.08373752 -0.099259965 0.05467982 -0.07980595 -0.0016624358
-0.015307281 0.009489451 0.021229913 0.020961074 -0.07511211 -0.029424971 -0.10174542 0.002663119
0.04175177 -0.024091456 -0.05693477 0.031097686 -0.0868754 -0.02909395 -0.091831446 -0.07422025
-0.07305986 -0.008349548 0.037083518 -0.08534541 -0.116505 -0.06323533 0.0075263856 0.031246949
-0.021515349 -0.101636425 0.00041720763 -0.049735915 -0.108455464 -0.017230403 -0.0140075255 0.051801138
0.0048250216 -0.1215713 -0.0075230156 -0.022910321 -0.036459986 -0.042456698 0.034436654 -0.046992354
-0.0948488 -0.087139785 -0.02587798 -0.061437342 -0.11631529 0.039643563 -0.0009587431 -0.06484989
0.016179258 0.024662698 -0.121893056 0.03902862 0.005866766 -0.11277379 0.0046940628 0.03387185
-0.002858767 0.027536219 0.031852137 -0.0848927 -0.010044827 -0.058508515 0.024527276 -0.11467737
0.02518581 -0.099353984 0.00032862514 -0.09489836 -0.010015298 -0.05642428 -0.057489846 0.03664304
0.0443288 -0.078679 -0.059943773 0.044292524 -0.11105461 -0.013452108 -0.04214677 0.036619768
-0.06373658 -0.047709715 -0.106867954 -0.095437065 -0.024910789 0.03947099 -0.101216674 0.03225716
-0.060236435 -0.009597962 -0.06605437 -0.1191437 -0.06933531 -0.060575567 -0.058991298 -0.0785703
-0.053078167 0.030894365 -0.0076745963 -0.06506749 -0.08759204 -0.08187424 0.04484993 -0.06584584
00000000: 7fc3 5fbd e448 cabd 5ae7 e9bd ac75 bc3c
00000010: 2366 83bc 5434 c63c 0f69 3d3d 457d 253d
00000020: 7afb e9bd 18b0 8c3c b2b7 b4bd 0caa cabc
00000030: 8a37 823c 98ec 8fbd edab cdb9 c20a 07be
00000040: d221 a0bc 69df afbd b9e0 cf3c 947e abbd
00000050: cf48 cbbd f2f7 5f3d 4d71 a3bd 17e6 d9ba
00000060: 64cb 7abc a479 1b3c 5bea ad3c 8fb6 ab3c
00000070: 61d4 99bd a30c f1bc e75f d0bd b987 2e3b
00000080: e703 2b3d 725b c5bc 6f34 69bd 93c0 fe3c
00000090: bbeb b1bd 6f56 eebc 2012 bcbd c900 98bd
000000a0: 68a0 95bd 8bcc 08bc e3e4 173d 93c9 aebd
000000b0: 2c9a eebd 8681 81bd e69f f63b 9af9 ff3c
000000c0: f540 b0bc c226 d0bd a9bc da39 e3b7 4bbd
000000d0: e61d debd c626 8dbc d27f 65bc 6e2d 543d
000000e0: 371b 9e3b 60fa f8bd a183 f6bb 6dae bbbc
000000f0: 1157 15bd 13e7 2dbd 730d 0d3d 0e7b 40bd
00000100: 1640 c2bd 5876 b2bd 0ffe d3bc b9a5 7bbd
00000110: b636 eebd 4a61 223d 2954 7bba 05d0 84bd
00000120: 5d8a 843c 6d09 ca3c 11a3 f9bd 79dc 1f3d
00000130: 003e c03b f2f5 e6bd a7d0 993b 36bd 0a3d
00000140: 275a 3bbb a393 e13c 6377 023d 39dc adbd
00000150: 0f93 24bc a0a6 6fbd 6ded c83c f8db eabd
00000160: 7952 ce3c 1a7a cbbd 524b ac39 125a c2bd
00000170: 3417 24bc 251d 67bd 797a 6bbd 0317 163d
00000180: 1e92 353d 7522 a1bd 9a87 75bd 146c 353d
00000190: 9970 e3bd 3b66 5cbc 17a2 2cbd 9cfe 153d
000001a0: 5388 82bd 436b 43bd 96dd dabd 8274 c3bd
000001b0: b611 ccbc 55ac 213d b04a cfbd 1520 043d
000001c0: 7bba 76bd c540 1dbc 8347 87bd 9d01 f4bd
000001d0: acff 8dbd 161e 78bd dca0 71bd 77e9 a0bd
000001e0: 7e68 59bd 2e16 fd3c 2e7b fbbb 1b42 85bd
000001f0: 7563 b3bd aead a7bd 8fb4 373d 2fda 86bd

move_mean.weight f4 [2, 128]
0.0058628954 -0.013089111 -0.02628458 0.0226294 0.00616781 0.008820659 0.006844068 0.0013108981
0.02380832 0.0001015072 -0.009349284 -0.0057652583 -0.0005709435 0.048707083 0.015049352 -0.021722045
0.035593938 0.010964163 -0.0330364 -0.022690903 0.020157358 0.04643228 -0.02788096 -0.013476688
-0.011979674 0.038717516 0.04365578 -0.0013861017 0.013480206 0.0027288173 0.011704555 -0.011549914
0.012543559 0.004392795 0.037837945 0.0041483804 -0.017244713 0.06365316 -0.06305835 0.017069127
-0.03329237 0.007348936 0.00013325979 0.015606562 0.02122994 -0.0021387783 -0.013588468 -0.036732376
0.025225755 -0.0022706662 -0.0013412938 0.0026870111 -0.010122121 -0.0062571 0.015405643 -0.02971206
-0.048108637 -0.027538374 0.028291376 -7.3654206e-05 -0.02278251 0.007627348 0.016786706 -0.0032031965
-0.006441727 0.007294157 0.0022162735 -0.009126001 -0.009640626 0.041654207 0.008411249 0.045187023
-0.017606148 0.018152053 0.007267553 -0.017600864 -0.01798362 -0.026490107 0.061779633 -0.012041707
-0.01634301 0.06553515 0.005442251 0.0060209897 -0.0031433336 -0.0005049073 0.028793044 0.0037491752
0.03253431 0.011482326 0.025330024 -0.034478623 0.013058393 -0.05497775 0.013358522 0.06118995
0.05282688 -0.016479563 0.025342342 0.028163709 0.0133484 0.037387833 -0.007319451 0.009885271
-0.0056442926 -0.008149104 0.050907597 0.030201916 -0.007716864 -0.013883407 0.004950778 -0.0085356245
-0.053978827 0.0192292 0.0017478751 -0.004714079 0.023350991 0.006923153 0.0039057455 0.030710358
-0.0002567221 -0.044022586 0.048889913 -0.024847995 -0.0009895642 -0.01479373 0.0036791235 0.0010472581
0.009203577 0.0027336818 0.015379113 -0.002813876 0.027470803 0.01723708 -0.010447142 -0.076253384
0.012659796 -0.012174747 -0.025144449 -0.0013831713 0.07366369 -0.0062998543 -0.00050623954 0.006504352
-0.006104302 -0.0005197794 -0.019433198 0.04745336 0.051473193 0.011648232 0.047356483 0.027013784
-0.021344757 -0.035477243 0.036899827 -0.002991797 -0.008596724 -0.0006103669 -0.008694173 -0.0072503965
-0.0077641406 -0.0024277444 0.0383814 -0.012551509 -0.0052943598 -0.05329148 0.0464063 -0.005582452
0.014900106 0.009010421 0.011488503 0.022749327 0.006452794 0.030302946 -0.009907332 -0.026329238
0.0047968733 -0.0075469594 -0.001471988 -0.0122313555 -0.0034568026 0.03359126 0.013082085 0.07165624
-0.049806923 0.0034703265 0.033109184 -0.015574814 0.011812248 -0.0087274145 0.0062518776 0.025330728
0.012018935 -0.010197164 -0.021242686 -0.005563997 -0.01321058 0.012460394 -0.012476073 -0.059959244
0.0043571303 -0.011560657 -0.018481623 0.011365934 -0.036253836 -0.031874083 -0.058604766 0.005943306
-0.028359277 -0.06522316 -0.007807973 0.00024672874 -0.011135128 -0.00016843919 -0.016896227 -0.038910206
-0.008451036 -0.019208875 0.023974795 -0.0027555535 0.00056722417 0.023780959 0.04572173 0.024218272
0.01656385 -0.019157091 -0.03516906 0.010546766 0.038683552 0.05962805 -0.055274256 -0.0056086993
0.04849138 0.008019014 -0.011460743 0.019138545 -0.0015202925 0.028053334 0.025546059 0.00043962005
-0.03729085 -0.014802984 0.03991803 -0.009385907 0.006517452 -0.0035112307 -0.035716165 0.01655588
-0.05674614 0.011165135 -0.08147598 0.019512484 0.00063704816 0.006410995 -0.002414464 0.042343374
00000000: 881d c03b b673 56bc c252 d7bc 4b61 b93c
00000010: 571b ca3b 8684 103c 3444 e03b 71d2 ab3a
00000020: aa09 c33c 43e0 d438 bd2d 19bc 7eea bcbb
00000030: 5fab 15ba 1481 473d 8f91 763c 6ef2 b1bc
00000040: f3ca 113d 08a3 333c 2d51 07bd 46e2 b9bc
00000050: 0b21 a53c c62f 3e3d 9c66 e4bc 54cd 5cbc
00000060: 6546 44bc 4296 1e3d 67d0 323d dbad b5ba
00000070: 15dc 5c3c f5d5 323b 76c4 3f3c da3b 3dbc
00000080: 8083 4d3c 6ff1 8f3b f6fb 1a3d 23ef 873b
00000090: c944 8dbc 975c 823d bc24 81bd 8ed4 8b3c
000000a0: 955d 08bd 58cf f03b a7bb 0b39 aab2 7f3c
000000b0: 69ea ad3c bf2a 0cbb 2aa2 5ebc b074 16bd
000000c0: 3ea6 ce3c 75cf 14bb 5ace afba 9118 303b
000000d0: 41d7 25bc 5c08 cdbb f367 7c3c b566 f3bc
000000e0: 900d 45bd 2898 e1bc 51c3 e73c cd76 9ab8
000000f0: 63a2 babc d5ee f93b 4684 893c b8ec 51bb
00000100: 1f15 d3bb d303 ef3b e63e 113b 3985 15bc
00000110: b7f3 1dbc 9a9d 2a3d 56cf 093c 0716 393d
00000120: c53a 90bc 9db3 943c a724 ee3b b02f 90bc
00000130: 6252 93bc c801 d9bc a40c 7d3d 944a 45bc
00000140: c7e1 85bc 4b37 863d e954 b23b b94b c53b
00000150: 6300 4ebb c15b 04ba 64df eb3c b9b4 753b
00000160: b242 053d 5e20 3c3c e980 cf3c 7539 0dbd
00000170: dff2 553c 5930 61bd b4dd 5a3c 50a2 7a3d
00000180: 0061 583d 2600 87bc be9a cf3c 94b7 e63c
00000190: 3fb3 5a3c fc23 193d 01d8 efbb d5f5 213c
000001a0: c2f3 b8bb d283 05bc 7c84 503d 026a f73c
000001b0: bfdd fcbb 3b77 63bc 233a a23b 01d9 0bbc
000001c0: e718 5dbd 8e86 9d3c f518 e53a 9078 9abb
000001d0: 944a bf3c 9edb e23b 89f7 7f3b 4a94 fb3c
000001e0: a898 86b9 0751 34bd ca40 483d 068e cbbc
000001f0: 44b4 81ba 6761 72bc 731d 713b 2744 893a
00000200: 9aca 163c 9227 333b adf8 7b3c 0169 38bb
00000210: 730a e13c c734 8d3c 7d2a 2bbc bc2a 9cbd
00000220: 086b 4f3c 9778 47bc bbfb cdbc 874b b5ba
00000230: fddc 963d 026f cebb 29b5 04ba 7622 d53b
00000240: 9906 c8bb ce41 08ba 5f32 9fbc 745e 423d
00000250: 8ed5 523d 3ad8 3e3c dff8 413d 034c dd3c
00000260: 33db aebc 9650 11bd 4624 173d 0612 44bb
00000270: 46d9 0cbc 0701 20ba 0172 0ebc bc94 edbb
00000280: 556a febb cb1a 1fbb d135 1d3d d8a4 4dbc
00000290: 4f7c adbb 2b48 5abd 8814 3e3d 00ed b6bb
000002a0: 931f 743c 72a0 133c 463a 3c3c cc5c ba3c
000002b0: f671 d33b e23d f83c 5d52 22bc 6ab0 d7bc
000002c0: 172f 9d3b 7c4c f7bb b9ef c0ba 0666 48bc
000002d0: 868b 62bb fd96 093d 3e56 563c 82c0 923d
000002e0: 5802 4cbd 6b6e 633b 7f9d 073d 812d 7fbc
000002f0: 2988 413c 6efd 0ebc 8ddc cc3b 6382 cf3c
00000300: 11eb 443c 0112 27bc 2405 aebc 3152 b6bb
00000310: 3071 58bc ae26 4c3c 7168 4cbc d397 75bd
00000320: 42c6 8e3b e968 3dbc c666 97bc 2f38 3a3c
00000330: e77e 14bd 668e 02bd 8d0b 70bd 10c0 c23b
00000340: b751 e8bc b893 85bd 06da ffbb 5f5b 8139
00000350: 1d70 36bc 0d9f 30b9 f569 8abc 4f60 1fbd
00000360: 3776 0abc ee5b 9dbc ca66 c43c 8496 34bb
00000370: c5b1 143a 49d0 c23c b546 3b3d 6665 c63c
00000380: e9b0 873c 55ef 9cbc 6f0d 10bd 58cc 2c3c
00000390: a572 1e3d 8b3c 743d 4267 62bd 2ec9 b7bb
000003a0: e69e 463d 2f62 033c d7c5 3bbc 70c8 9c3c
000003b0: 8d44 c7ba 1bd0 e53c f845 d13c ce7c e639
000003c0: 4abe 18bd 3788 72bc 1781 233d 59c7 19bc
000003d0: 5a90 d53b ad1c 66bb 1d4b 12bd 32a0 873c
000003e0: a46e 68bd f8ed 363c e1dc a6bd a5d8 9f3c
000003f0: 94ff 263a 5313 d23b fc3b 1ebb 3f70 2d3d

move_mean.bias f4 [2]
-0.0035318523 -0.12672482
00000000: a676 67bb 27c4 01be

food_logits.weight f4 [3, 128]
-0.043342225 0.008953894 0.0379452 -0.009693576 0.037487324 -0.022576207 0.012883871 0.053134292
-0.021300536 -0.0264373 0.041841093 -0.030617788 -0.05509222 -0.033965573 0.009974188 0.032262232
-0.031822134 -0.0015369935 0.054711416 -0.06942421 0.05778168 0.02415924 -0.05293586 -0.004335726
-0.0072993315 0.06170795 0.041562047 -0.042789843 0.0072330544 -0.026269034 -0.035163015 0.030069692
0.063757256 0.048644464 0.039291248 -0.02419264 0.06825547 0.004053128 0.032660034 -0.051024523
-0.069654 0.0097264545 0.06250291 -0.017809484 -0.002171188 0.035241913 -0.0391842 0.07388508
0.041261476 -0.011095833 -0.080363326 0.03181506 0.04320216 -0.004089526 -0.06723953 -0.047214348
0.0019399427 -0.018193187 0.013962721 0.023861004 -0.010541165 -0.044441015 0.058731552 0.015628073
0.08937794 0.05017673 0.0631943 0.02843475 0.00759402 0.043458045 0.013142005 0.07002303
-0.019039653 0.03245242 0.004550644 -0.026886657 0.052071672 0.04495236 0.058314472 0.041395642
0.017148087 0.08660736 0.053843465 0.04842224 -0.006221116 -0.05206795 0.03338821 0.07407118
-0.026646577 0.033263564 -0.02633091 -0.02545816 0.022241507 0.034215078 -0.038297445 -0.0171885
-0.0033184423 -0.0016609576 0.030462435 -0.037712645 -0.05736262 -0.040885556 0.04803323 -0.026737524
-0.062636174 -0.02156482 -0.05380403 0.07209183 0.018205808 0.058693267 -0.06772923 0.01149916
-0.005282542 -0.032639433 0.042212013 0.029088011 0.03238839 -0.0012360299 -0.0246886 0.02940064
-0.048506856 0.009904424 -0.022194939 -0.04841453 0.010912718 0.029389804 -0.021474782 0.056172986
-0.03609538 0.001056372 -0.0102324765 -0.030225003 -0.017079396 0.03299876 0.015934637 0.046043996
-0.03474143 -0.031290606 0.026481768 -0.0006051118 0.008219833 0.07632028 -0.0047771605 0.017496979
0.047163326 -0.013143004 0.028813012 -0.06524979 -0.019774849 0.047673333 -0.0018848474 -0.04381379
0.0030859516 0.038912088 0.006133602 -0.038448524 0.007418463 -0.028364314 -0.016388863 0.02704834
0.03587297 0.029152311 0.033763975 -0.029416898 0.07172336 0.07596757 -0.008294929 -0.042914744
0.016188176 0.028322106 -0.028174898 -0.0020474598 -0.003992883 0.07004649 -0.025692875 0.066787295
0.003857121 0.016402008 -0.06796548 -0.032558527 0.063835025 0.07390837 -0.024243942 -0.072323844
0.049288947 0.0037416162 0.039238643 0.0616999 0.020906856 -0.008261245 0.07716541 0.03655554
0.024318337 0.059115905 -0.032243766 0.0008627636 0.021812325 0.001496349 0.05479094 -0.08034487
0.013700696 0.038259506 0.09555182 -0.021601424 -0.023212748 0.02871687 0.083362944 0.05369162
0.051420998 -0.03238978 0.072319865 0.065112166 -0.031555776 -0.063772574 0.027617319 0.013820427
-0.057857096 -0.0028617592 -0.017523764 -0.07392752 0.028553655 0.06098808 0.023807526 0.019280327
-0.031704087 -0.029476745 -0.007376538 -0.031100407 -0.05508915 -0.015250319 0.06195878 -0.030783975
0.05456905 -0.022547025 0.0212877 0.008181095 -0.0024452263 0.032949015 -0.022606706 0.015681466
-0.022334881 -0.028330103 -0.04348686 0.051434893 0.026739253 0.015228502 -0.014885973 0.057626512
-0.064921945 0.02736379 -0.062318273 -0.04740029 0.048172362 -0.02433048 -0.023681488 -0.015682215
00000000: 9e87 31bd 5ab3 123c 6d6c 1b3d ced1 1ebc
00000010: 4f8c 193d bdf1 b8bc df16 533c 58a3 593d
00000020: 767e aebc 0993 d8bc 9161 2b3d 28d2 fabc
00000030: 61a8 61bd 7c1f 0bbd c76a 233c 6725 043d
00000040: ed57 02bd f274 c9ba 1419 603d 482e 8ebd
00000050: 7cac 6c3d 99e9 c53c 46d3 58bd b512 8ebb
00000060: 3b2f efbb 7ac1 7c3d f73c 2a3d 6744 2fbd
00000070: 4203 ed3b 2832 d7bc 1807 10bd b754 f63c
00000080: 2a93 823d 6b3f 473d dcef 203d a52f c6bc
00000090: 86c9 8b3d 1ad0 843b 87c6 053d 17ff 50bd
000000a0: c2a6 8ebd b55b 1f3c 8701 803d 32e5 91bc
000000b0: 7d4a 0ebb d359 103d 9d7f 20bd 1051 973d
000000c0: cb01 293d 4ccb 35bc 8795 a4bd 8250 023d
000000d0: c0f4 303d 6e01 86bb e1b4 89bd d563 41bd
000000e0: ad45 fe3a e109 95bc e6c3 643c 2778 c33c
000000f0: dab4 2cbc c807 36bd 7f90 703d 7206 803c
00000100: c80b b73d 1d86 4d3d 036c 813d feef e83c
00000110: 42d7 f83b 1001 323d 9051 573c 3c68 8f3d
00000120: 0cf9 9bbc d4ec 043d 921d 953b 6841 dcbc
00000130: 1b49 553d f71f 383d 28db 6e3d 7a8e 293d
00000140: 257a 8c3c 335f b13d f78a 5c3d 6656 463d
00000150: 81da cbbb 3445 55bd 13c2 083d a1b2 973d
00000160: ec49 dabc 603f 083d ecb3 d7bc a28d d0bc
00000170: d233 b63c 1c25 0c3d c8dd 1cbd e6ce 8cbc
00000180: 397a 59bb 7db4 d9ba 5b8c f93c 9378 1abd
00000190: 11f5 6abd 9d77 27bd 7ebe 443d a708 dbbc
000001a0: 6547 80bd b5a8 b0bc 9d61 5cbd e2a4 933d
000001b0: 5924 953c 5a68 703d 9fb5 8abd f966 3c3c
000001c0: 2d19 adbb edb0 05bd 81e6 2c3d fb49 ee3c
000001d0: b0a9 043d 4802 a2ba bf3f cabc 9cd9 f03c
000001e0: 20af 46bd 2a46 223c 29d2 b5bc 504e 46bd
000001f0: 42cb 323c e3c2 f03c e2eb afbc a515 663d
00000200: c0d8 13bd f675 8a3a 1ea6 27bc 6d9a f7bc
00000210: 17ea 8bbc b529 073d 5b89 823c a198 3c3d
00000220: 084d 0ebd 942a 00bd 4bf0 d83c 5ea0 1eba
00000230: 7aac 063c cf4d 9c3d ba89 9cbb d355 8f3c
00000240: 552e 413d c155 57bc 4409 ec3c afa1 85bd
00000250: ddfe a1bc 1d45 433d fc0c f7ba 1776 33bd
00000260: ad3d 4a3b 4862 1f3d 62fc c83b 337c 1dbd
00000270: 9416 f33b 475c e8bc f041 86bc 7b94 dd3c
00000280: 89ef 123d d4d0 ee3c 184c 0a3d b5fb f0bc
00000290: b2e3 923d e394 9b3d 74e7 07bc 5fc7 2fbd
000002a0: 119d 843c c303 e83c 0bcf e6bc ad2e 06bb
000002b0: bbd6 82bb 8974 8f3d dd79 d2bc c7c7 883d
000002c0: c1c7 7c3b 815d 863c 7c31 8bbd 175c 05bd
000002d0: f0bb 823d 465d 973d 3b9b c6bc 861e 94bd
000002e0: 35e3 493d e735 753b b3b8 203d 09b9 7c3d
000002f0: db44 ab3c 2c5a 07bc e608 9e3d 43bb 153d
00000300: 4037 c73c 8523 723d 0a12 04bd 162b 623a
00000310: c3af b23c 2421 c43a 776c 603d da8b a4bd
00000320: e278 603c 00b6 1c3d acb0 c33d 78f5 b0bc
00000330: a928 bebc a43f eb3c 31ba aa3d beeb 5b3d
00000340: d39e 523d 25ab 04bd 701c 943d 8759 853d
00000350: a140 01bd 329b 82bd b73d e23c 126f 623c
00000360: 90fb 6cbd 5a8c 3bbb ff8d 8fbc 5067 97bd
00000370: 5be9 e93c a3ce 793d 0008 c33c c7f1 9d3c
00000380: 25dc 01bd 3779 f1bc e3b6 f1bb 48c6 febc
00000390: 29a5 61bd 79dc 79bc 7dc8 7d3d ad2e fcbc
000003a0: cc83 5f3d 8ab4 b8bc 8b63 ae3c 000a 063c
000003b0: 1740 20bb 8cf5 063d b331 b9bc 6b76 803c
000003c0: a4f7 b6bc 8814 e8bc 471f 32bd 65ad 523d
000003d0: 470c db3c f880 793c 4ce4 73bc c709 6c3d
000003e0: ccf5 84bd 072a e03c 7241 7fbd ce26 42bd
000003f0: 6250 453d b750 c7bc aeff c1bc fd77 80bc

food_logits.bias f4 [3]
-0.032869447 -0.1119786 0.14416581
00000000: 1da2 06bd 0955 e5bd 34a0 133e

net.0.weight f4 [128, 17]
0.1806093 -0.17165297 0.86019117 -2.6192455 -0.04356917 -0.18524772 -0.13095948 0.036628645
-0.054135405 0.084993884 0.16024753 -0.18159573 0.27255598 0.022760443 -0.0337156 0.1637263
0.077526376 0.07045046 -0.12147228 -1.4296689 2.2708428 0.4397493 -0.13167267 0.09403547
-0.09961857 0.18331656 0.014041025 -0.17631535 -0.08914932 -0.23152371 -0.09424788 0.18260393
-0.060528375 -0.048546147 -0.020412818 0.01942146 0.3128573 -0.54849637 -0.7312509 0.17303061
-0.015594943 0.09298912 0.05027919 0.18780793 0.24247439 0.11661075 0.10698071 0.12080464
-0.11373632 0.0036140338 0.0071000103 -0.050938133 -0.13392255 1.1245745 -1.8705971 -0.7441732
-0.11950125 0.27556133 -0.09016303 0.024983522 -0.035454895 -0.254311 -0.2451658 -0.1682459
-0.23231602 0.10000872 -0.007236868 0.10480688 0.19902177 -0.19546281 0.3585885 -0.48789775
-0.8271556 0.061810475 -0.23267014 -0.050033245 -0.1775839 -0.008759035 -0.106056616 0.03441036
-0.20216748 0.22000074 0.06421845 0.036180124 -0.14993675 -0.17058039 0.025535187 0.94007015
-1.0909669 -0.40083405 -0.310121 -0.15341285 -0.06567327 -0.32957444 -0.13104406 0.13631925
-0.05385807 -0.15025087 0.03710851 -0.13429551 -0.085460894 -0.10116363 -0.11105296 -0.110950895
-1.1878787 3.2038982 0.03312911 -0.07645847 0.2112638 0.175174 0.021154623 -0.0050105844
0.20377268 0.03896045 -0.008692552 0.01082451 -0.10061327 -0.004101503 0.060277414 0.19265758
0.13677971 1.3629607 -3.5793297 -0.55401057 0.21703379 -0.0078006606 0.2379527 0.12909518
0.17694877 0.017122427 -0.014846514 -0.1797445 -0.050312668 0.10560042 0.03254432 -0.096697815
-0.13532455 -0.010679455 0.5855909 -0.95579755 -0.17271891 0.2899756 0.34853736 0.038770065
0.010323563 0.1469229 0.10530154 -0.15998635 0.03446517 0.15504923 0.142593 0.009016145
-0.22197779 -0.009819857 0.082743615 -1.4057646 3.5987597 0.6927756 -0.15799516 0.003865583
0.02516221 -0.045595072 0.038103137 0.05917856 0.10168872 -0.123651646 -0.05673673 0.24648583
0.2107588 -0.018522901 0.15447757 -0.08639798 -1.0148782 2.7079055 0.9851586 -0.12654397
0.011432615 -0.10346634 0.06341935 -0.28951326 -0.14573704 0.04626543 0.05954247 0.2544332
0.06524652 0.13382687 -0.18533897 0.2009694 -0.068487 0.8705108 -1.2137458 -0.26994887
0.0683853 0.12225951 0.005298803 -0.05839132 -0.0077007376 -0.2767116 -0.012024138 0.12684382
0.014203609 -0.023005558 -0.15641671 -0.11202907 0.0935047 0.075557314 -1.0675192 3.2966568
0.13291869 -0.16056801 0.12361525 0.064255714 -0.26877597 -0.037418675 0.19128726 -0.09378177
0.08015581 0.03882899 -0.0711399 0.060913038 -0.026463307 0.008671308 -0.050967567 0.16539578
-0.75619316 0.7601921 0.0671936 0.08769076 0.07951247 -0.18785751 -0.17025119 -0.08878563
-0.3111523 0.2659891 0.044129703 0.13737598 -0.0021285485 0.0043031815 -0.051963616 0.110228054
-0.7035799 3.0088823 0.48780146 -0.010728669 -0.28579876 0.033344753 0.2564048 0.15615359
-0.093914434 -0.05366618 0.08678913 0.1304004 0.1838928 -0.10988073 -0.102300346 -0.081429906
00000000: a5f1 383e ccc5 2fbe 7d35 5c3f b8a1 27c0
00000010: 9675 32bd 94b1 3dbe 3e1a 06be eb07 163d
00000020: 16bd 5dbd 4611 ae3d ee17 243e 3bf4 39be
00000030: 758c 8b3e 1c74 ba3c 5e19 0abd dea7 273e
00000040: 26c6 9e3d 5548 903d 75c6 f8bd 64ff b6bf
00000050: 7d55 1140 d226 e13e 33d5 06be ab95 c03d
00000060: d204 ccbd 56b7 3b3e 540c 663c 038c 34be
00000070: eb93 b6bd 8d14 6dbe 0805 c1bd 86fc 3a3e
00000080: 9aec 77bd 53d8 46bd c838 a7bc c119 9f3c
00000090: d52e a03e 426a 0cbf 4233 3bbf f02e 313e
000000a0: ef81 7fbc 1471 be3d 8df1 4d3d b950 403e
000000b0: 354b 783e 9ed1 ee3d b418 db3d 6c68 f73d
000000c0: 96ee e8bd 6dd9 6c3b 34a7 e83b 81a4 50bd
000000d0: fe22 09be 0ff2 8f3f ba6f efbf 2382 3ebf
000000e0: 12bd f4bd 6016 8d3e 65a7 b8bd 3eaa cc3c
000000f0: 2739 11bd 0d35 82be be0c 7bbe a748 2cbe
00000100: 40e4 6dbe 5fd1 cc3d 4023 edbb fda4 d63d
00000110: 5dcc 4b3e 6727 48be e998 b73e bccd f9be
00000120: 78c0 53bf fb2c 7d3d 1541 6ebe a9ef 4cbd
00000130: 8ed8 35be 0e82 0fbc 3634 d9bd e1f1 0c3d
00000140: fe04 4fbe e047 613e f684 833d 9c31 143d
00000150: 0589 19be a0ac 2ebe 2b2f d13c 70a8 703f
00000160: cea4 8bbf 1f3a cdbe 2ec8 9ebe 4218 1dbe
00000170: b57f 86bd fbbd a8be 6a30 06be 4697 0b3e
00000180: 489a 5cbd 5ddb 19be 18ff 173d c384 09be
00000190: 1f06 afbd e12e cfbd bc6f e3bd 393a e3bd
000001a0: 690c 98bf ab0c 4d40 64b2 073d 4296 9cbd
000001b0: 8a55 583e d060 333e 764c ad3c d42f a4bb
000001c0: c9a9 503e fe94 1f3d 356b 0ebc 4959 313c
000001d0: 550e cebd e765 86bb 73e5 763d 0748 453e
000001e0: fb0f 0c3e 7f75 ae3f bd13 65c0 a3d3 0dbf
000001f0: 1b3e 5e3e af9c ffbb dfa9 733e 8731 043e
00000200: 0f32 353e 5544 8c3c cb3e 73bc f10e 38be
00000210: a814 4ebd 0845 d83d 314d 053d 8109 c6bd
00000220: 8592 0abe e1f8 2ebc 49e9 153f 26af 74bf
00000230: 3add 30be af77 943e 7d73 b23e 5ccd 1e3d
00000240: 2924 293c f572 163e 55a8 d73d 76d3 23be
00000250: 5a2b 0d3d 3ac5 1e3e e603 123e 74b8 133c
00000260: 254e 63be 77e3 20bc 7c75 a93d 18f0 b3bf
00000270: 1452 6640 be59 313f 7cc9 21be b955 7d3b
00000280: fb20 ce3c e6c1 3abd 0912 1c3d 3865 723d
00000290: 2d42 d03d 133d fdbd c664 68bd c866 7c3e
000002a0: 28d1 573e 57bd 97bc 5e2f 1e3e 6df1 b0bd
000002b0: 87e7 81bf 534e 2d40 5b33 7c3f be94 01be
000002c0: dd4f 3b3c 29e6 d3bd 01e2 813d 153b 94be
000002d0: 173c 15be d280 3d3d cee2 733d 1245 823e
000002e0: f89f 853d e909 093e 80c9 3dbe ecca 4d3e
000002f0: ea42 8cbd ccd9 5e3f 065c 9bbf bd36 8abe
00000300: 980d 8c3d 3263 fa3d 95a1 ad3b bd2b 6fbd
00000310: 7856 fcbb 25ad 8dbe e400 45bc 59e3 013e
00000320: 41b6 683c 2776 bcbc b42b 20be 7f6f e5bd
00000330: 647f bf3d cbbd 9a3d 78a4 88bf 6dfc 5240
00000340: d61b 083e f16b 24be fe29 fd3d 8098 833d
00000350: 019d 89be 5344 19bd cfe0 433e a810 c0bd
00000360: bb28 a43d 260b 1f3d ccb1 91bd f37f 793d
00000370: 94c9 d8bc 1a12 0e3c 5ec3 50bd 835d 293e
00000380: e095 41bf f39b 423f cc9c 893d 3797 b33d
00000390: 6fd7 a23d b85d 40be 5456 2ebe 3ed5 b5bd
000003a0: 5b4f 9fbe b92f 883e 59c1 343d 4aac 0c3e
000003b0: 1e7f 0bbb b401 8d3b cdd7 54bd 3fbf e13d
000003c0: d01d 34bf 8791 4040 1dc1 f93e 4dc7 2fbc
000003d0: 3754 92be 8294 083d 7d47 833e bae6 1f3e
000003e0: 3656 c0bd 12d1 5bbd 80be b13d af87 053e
000003f0: 654e 3c3e 2609 e1bd d882 d1bd b9c4 a6bd

net.0.bias f4 [128]
0.28515285 -0.04194655 -0.26222488 -0.21480238 -0.02448352 0.078439176 -0.30085307 -0.004631312
-0.28402066 -0.23537639 0.16364585 -0.048627634 0.05586851 0.13087559 -0.111079 -0.077395596
-0.1472435 -0.059099242 -0.035231918 -0.15605624 -0.31931767 -0.19015892 0.082852386 0.37437445
-0.08932801 -0.06830416 -0.23402655 0.18472639 -0.14490823 0.18318686 -0.07695306 0.1829161
0.0030709333 0.08515 0.22464705 0.049057484 -0.16110504 -0.022969753 -0.29657918 -0.07956481
-0.14259188 -0.28643838 -0.038333617 0.14955345 -0.08645198 -0.18792999 -0.15433042 -0.08493773
-0.017971165 0.09382423 -0.27697736 -0.23494063 0.3057765 0.070854336 0.37170795 -0.23345277
0.16809103 0.13713606 -0.061255433 -0.011683863 0.046940897 -0.119462326 -0.28200102 0.092296675
0.12887684 -0.36274105 -0.3371251 0.2608094 0.12895726 -0.28543207 0.07476727 -0.38629502
0.03594569 -0.26475814 0.34420854 -0.03872239 0.2514237 0.09716053 -0.006972216 0.2565252
0.18809983 0.16261312 0.13704516 0.10348437 0.07501409 0.10318876 -0.19717802 -0.15792094
-0.056553476 0.04568879 0.017129984 -0.105433986 0.007957293 0.078194775 -0.08106039 0.30833542
0.16549458 -0.13153146 -0.3650401 0.097662725 0.08532743 -0.19601788 -0.1662817 0.010565611
0.25993526 -0.0630981 -0.10326356 -0.043009058 -0.14212258 0.055697966 -0.04799745 0.2388148
-0.13109998 0.06735276 -0.16002329 -0.26494732 -0.14040937 0.1496227 0.10975301 0.16895977
-0.10221617 0.033892345 -0.16454825 0.12164369 -0.2749075 0.038824923 0.21039955 0.14123401
00000000: 8eff 913e 25d0 2bbd 5742 86be 28f5 5bbe
00000010: aa91 c8bc b8a4 a03d 6a09 9abe 43c2 97bb
00000020: 286b 91be 8206 71be c792 273e c52d 47bd
00000030: 61d6 643d 4004 063e 637d e3bd 9581 9ebd
00000040: 00c7 16be 0c12 72bd 584f 10bd 35cd 1fbe
00000050: 9b7d a3be 05b9 42be 83ae a93d 02ae bf3e
00000060: 9bf1 b6bd 0de3 8bbd a8a4 6fbe ea28 3d3e
00000070: d362 14be 5695 3b3e 9199 9dbd 5c4e 3b3e
00000080: b641 493b 2063 ae3d e009 663e 80f0 483d
00000090: b8f8 24be 102b bcbc 3ad9 97be e0f2 a2bd
000000a0: 9b03 12be 0da8 92be b603 1dbd 8a24 193e
000000b0: bc0d b1bd b870 40be cb08 1ebe d5f3 adbd
000000c0: 4438 93bc eb26 c03d facf 8dbe 4794 70be
000000d0: bd8e 9c3e 141c 913d 8150 be3e 3e0e 6fbe
000000e0: 0e20 2c3e 656d 0c3e fae6 7abd ac6d 3fbc
000000f0: 1945 403d aaa8 f4bd 7062 90be 0a06 bd3d
00000100: 4af8 033e 32b9 b9be a99b acbe cf88 853e
00000110: 5f0d 043e 2724 92be 951f 993d 76c8 c5be
00000120: ca3b 133d 618e 87be 1a3c b03e 5e9b 1ebd
00000130: 9bba 803e 1afc c63d 3077 e4bb 4557 833e
00000140: 3e9d 403e 0e84 263e 9155 0c3e 9def d33d
00000150: fda0 993d a154 d33d 09e9 49be 07b6 21be
00000160: 9ea4 67bd 2b24 3b3d 2e54 8c3c c6ed d7bd
00000170: 4e5f 023c 9524 a03d fd02 a6bd 24de 9d3e
00000180: 6977 293e 2fb0 06be 89e6 babe 6503 c83d
00000190: 26c0 ae3d e9b8 48be c045 2abe 621b 2d3c
000001a0: 3c16 853e 9439 81bd d87b d3bd 442a 30bd
000001b0: 9588 11be 8d23 643d f998 44bd de8b 743e
000001c0: 133f 06be 3ef0 893d 25dd 23be 2da7 87be
000001d0: 79c7 0fbe b136 193e 30c6 e03d ca03 2d3e
000001e0: b656 d1bd b3d2 0a3d 567f 28be 5420 f93d
000001f0: adc0 8cbe e206 1f3d fb72 573e a69f 103e

net.2.weight f4 [128, 128]
-0.10114293 -0.003082555 -0.086977914 0.043876495 -0.110788606 0.13823634 -0.06897502 0.049943145
-0.044401947 -0.112990014 -0.09875006 0.13304175 0.030903548 0.03677647 -0.06262201 -0.09266375
0.04026697 -0.16327737 0.0058642016 -0.21076387 -0.045243632 0.0036040249 0.05877647 0.02273839
-0.10239969 -0.02270575 -0.05057766 0.017407786 -0.08965789 0.15114625 -0.26345143 0.10674794
-0.11683116 -0.038495246 -0.24091794 0.02406612 -0.061957654 0.053346056 0.09086404 0.0936352
-0.00075747684 -0.024989668 -0.08699161 -0.08892631 -0.13279426 0.03440625 -0.050403383 0.010145043
0.07065475 0.061969347 0.088146836 -0.16904429 0.031789258 -0.03958454 0.11555489 0.06373023
-0.071210295 -0.049610563 -0.09712222 -0.06790876 -0.027363243 0.010313647 -0.026398439 0.024691103
-0.02060031 -0.096966 0.09329618 -0.020187508 -0.009593191 -0.056690358 0.123737216 0.045140658
-0.032120634 -0.041069582 -0.05384202 -0.113195084 -0.057359308 0.05266119 -0.3097701 0.08142528
0.041544635 0.0073878393 -0.06311686 0.034151252 0.12071859 -0.07546915 -0.091909654 0.054289225
-0.13735871 -0.12253377 -0.20706767 0.019858481 -0.079305604 -0.018214878 0.017055264 -0.35229653
0.022276463 -0.014890802 -0.014639882 -0.06207516 0.05944035 -0.009659487 -0.063789584 0.0058444017
-0.42534727 0.09513411 -0.023480555 0.06978863 0.016057149 0.08787296 0.1523446 -0.21772794
0.10668541 0.006987593 -0.048377883 -0.017403929 0.045444537 -0.06739587 -0.10823486 -0.03530968
-0.046754014 -0.13926159 -0.02374003 0.098507 -0.104798704 0.05958296 -0.08973406 -0.13858835
-0.07826945 -0.04676638 -0.07230012 0.038658526 -0.019731035 0.13958463 0.025697768 0.083903246
-0.27040425 0.043912817 0.11852328 -0.003302507 0.07217744 -0.07840737 -0.08808665 0.038964134
0.010375224 0.08387545 -0.071066566 0.06945831 0.043194935 0.0074880673 0.044852935 0.085334376
0.074269414 0.054843366 -0.10073919 0.012622054 0.0014086191 0.03758483 0.003552235 -0.1665915
-0.114649996 -0.06714665 0.08298724 -0.1993076 0.012565798 -0.04954992 -0.036636297 -0.05563869
-0.019087235 0.005780843 0.10063752 0.019835543 -0.06177093 -0.060502738 0.04612395 0.008555533
-0.02652811 0.049415503 0.018282494 0.03293329 -0.11047671 -0.032760773 0.07730961 -0.1412843
0.08130313 -0.17189358 0.065660596 -0.06789466 0.013018292 0.07815031 0.11608297 -0.070684254
0.0032522194 -0.031238338 -0.13860968 -0.0018498844 -0.11388362 0.13021106 0.063338116 0.016194113
-0.07578876 0.0288716 0.0037675248 -0.09839759 0.030530052 -0.12303888 -0.014547919 -0.017287118
-0.09467377 -0.04863046 0.041254375 0.04772103 -0.08055374 -0.030122695 0.039608385 -0.030920438
-0.1391305 0.12282902 0.0074789478 0.02961458 -0.012127126 -0.037508894 -0.012913699 0.030703535
0.05944241 -0.07904537 0.05721341 -0.113728166 -0.031018289 -0.21719708 0.06597167 -0.03873892
-0.05062423 -0.18534225 0.01740893 -0.16846608 -0.035094637 -0.061803676 -0.12001102 0.11169513
-0.014092798 -0.023155028 -0.3328184 0.13378526 -0.08511937 -0.01794442 -0.110170536 -0.104239
-0.035626397 0.12713455 0.04817863 -0.085267395 0.039719805 0.064520895 0.13744289 0.034646012
00000000: 0624 cfbd b104 4abb 7a21 b2bd d7b7 333d
00000010: 23e5 e2bd d48d 0d3e c642 8dbd 2f91 4c3d
00000020: d1de 35bd 4f67 e7bd 793d cabd 193c 083e
00000030: 7029 fd3c eca2 163d f83f 80bd 7ec6 bdbd
00000040: faee 243d 2f32 27be 7d28 c03b 7cd2 57be
00000050: 6351 39bd 8131 6c3b 99bf 703d dc45 ba3c
00000060: eeb6 d1bd 6901 babc 852a 4fbd c69a 8e3c
00000070: 8e9e b7bd 15c6 1a3e 1be3 86be aa9e da3d
00000080: 2d45 efbd 31ad 1dbd 31b3 76be 5026 c53c
00000090: 4fc7 7dbd 6581 5a3d ed16 ba3d d0c3 bf3d
000000a0: 6991 46ba 22b7 ccbc a828 b2bd ff1e b6bd
000000b0: 38fb 07be 91ed 0c3d c773 4ebd 6537 263c
000000c0: 70b3 903d 92d3 7d3d 5486 b43d f219 2dbe
000000d0: 7435 023d 6623 22bd 0ba8 ec3d ff84 823d
000000e0: b4d6 91bd 7234 4bbd 04e8 c6bd bf13 8bbd
000000f0: e128 e0bc 92fa 283c 8a41 d8bc ff44 ca3c
00000100: fbc1 a8bc 1c96 c6bd 1112 bf3d 4660 a5bc
00000110: c22c 1dbc 2634 68bd f069 fd3d 69e5 383d
00000120: ed90 03bd 9438 28bd 7389 5cbd d3d2 e7bd
00000130: 98f1 6abd 43b3 573d 309a 9ebe 4cc2 a63d
00000140: b52a 2a3d b015 f23b 6a43 81bd 2fe2 0b3d
00000150: 4f3b f73d 928f 9abd 213b bcbd 615e 5e3d
00000160: c3a7 0cbe fcf2 fabd 8c09 54be 41ae a23c
00000170: fa6a a2bd 5e37 95bc 7bb7 8b3c 3660 b4be
00000180: 217d b63c 8df8 73bc 1edc 6fbc 8642 7ebd
00000190: b977 733d d342 1ebc 1da4 82bd 6582 bf3b
000001a0: 1ec7 d9be acd5 c23d 4b5a c0bc 57ed 8e3d
000001b0: 488a 833c bdf6 b33d 3900 1c3e 13f4 5ebe
000001c0: e17d da3d 2ef8 e43b e327 46bd af92 8ebc
000001d0: 0d24 3a3d d906 8abd 3daa ddbd e2a0 10bd
000001e0: 2381 3fbd 979a 0ebe 747a c2bc 0abe c93d
000001f0: b4a0 d6bd 430d 743d 7ec6 b7bd 1bea 0dbe
00000200: bc4b a0bd 1b8e 3fbd 1612 94bd 6758 1e3d
00000210: fba2 a1bc 46ef 0e3e 2084 d23c 77d5 ab3d
00000220: 6d72 8abe eddd 333d 55bc f23d e06e 58bb
00000230: c4d1 933d 0b94 a0bd c666 b4bd db98 1f3d
00000240: d8fc 293c e4c6 ab3d 598b 91bd 2940 8e3d
00000250: 2ced 303d 765e f53b b6b7 373d cac3 ae3d
00000260: 901a 983d 70a3 603d 5950 cebd bbcc 4e3c
00000270: 6aa1 b83a 8df2 193d 9dcc 683b f696 2abe
00000280: 9ecd eabd 2f84 89bd 37f5 a93d 4b17 4cbe
00000290: c7e0 4d3c dbf4 4abd f10f 16bd 65e5 63bd
000002a0: d55c 9cbc 3a6d bd3b 0b1b ce3d 267e a23c
000002b0: 8403 7dbd b8d1 77bd 78ec 3c3d 822c 0c3c
000002c0: 7b51 d9bc e967 4a3d 2bc5 953c 0fe5 063d
000002d0: 9d41 e2bd 2930 06bd 8054 9e3d d5ac 10be
000002e0: 4182 a63d df04 30be 1079 863d 5b0c 8bbd
000002f0: ad4a 553c 450d a03d e8bc ed3d e8c2 90bd
00000300: 3023 553b 8be7 ffbc b2ef 0dbe d277 f2ba
00000310: d13b e9bd 0c56 053e 6ab7 813d 84a9 843c
00000320: 2337 9bbd 2284 ec3c 94e8 763b ad84 c9bd
00000330: 291a fa3c cffb fbbd 655a 6ebc b79d 8dbc
00000340: 52e4 c1bd bc30 47bd 59fa 283d 2077 433d
00000350: 5cf9 a4bd dfc3 f6bc 673c 223d dc4c fdbc
00000360: 3a78 0ebe c88d fb3d f611 f53b 479a f23c
00000370: dab0 46bc eda2 19bd fb93 53bc fb85 fb3c
00000380: e279 733d 8ae2 a1bd 9c58 6a3d 50ea e8bd
00000390: 111a febc e968 5ebe 281c 873d b4ac 1ebd
000003a0: 5a5b 4fbd 5cca 3dbe 2c9d 8e3c 5f82 2cbe
000003b0: 65bf 0fbd da25 7dbd 56c8 f5bd 6bc0 e43d
000003c0: 7be5 66bc 9daf bdbc 2c67 aabe 01ff 083e
000003d0: 1053 aebd 2d00 93bc 17a1 e1bd 427b d5bd
000003e0: fcec 11bd 8f2f 023e f556 453d aca0 aebd
000003f0: 3cb1 223d 8823 843d d4bd 0c3e fae8 0d3d
