src/training_logs_ppo/initial/ppo_checkpoint_240_1764187947.pt (torch, 480155 bytes, 42 tensors)

move_logstd f4 [2]
00000000: 783b 0240 7763 e43f
2.0348797 1.7842854

shared.0.weight f4 [128, 17]
00000000: 1022 043e 915d 23be 49e9 adbe ee5f 2d3e
00000010: 75f4 2e3e 106b 32be 4c5e 30be 377f ac3d
00000020: 5891 643e 78a6 68be 0f83 1d3e 0827 53be
00000030: 3727 49bd 8108 a4bd 09cb 9cb9 df02 cf3d
00000040: 1a3a b3bd 9a26 9bbd 5fb5 9fbd 17b1 c8bb
00000050: 5437 c83d 76b8 92be 8ce0 633e 1eb6 42be
00000060: ed60 9bbb 667f 8dbd f695 a5be 2e24 efbd
00000070: 8cb2 60bd b6d4 723e c3f6 a13c 18a4 9a3d
00000080: c719 a4bd b805 01be 4e7b 443e d10a 843e
00000090: 4c78 e63d 6d04 b53d bd0f b1be b138 f5bd
000000a0: 0378 4dbc 9f37 30be 52eb 39bc d974 f0bc
000000b0: 74cd 69bd 5bb3 a3bc afa6 303e ed42 10be
000000c0: bfec 6a3e 6bac e93c d2f9 483d d46a 663d
000000d0: e9ec 88bd a022 c5be 6953 72bb a310 a53d
000000e0: 1bb3 333e db87 fd3d 373f e73c 0587 133e
000000f0: b984 d0bd eb5a 0e3d f55f 133c c0dc 44bd
00000100: c9b9 f9bd f9bb 543b 68c9 33be 4f51 373e
00000110: 6843 e93d 67af 143e 9b9f 9ebe a0d2 fc3d
00000120: 2230 5dbd 5454 bf3d 0472 bdbc 1080 df3d
00000130: 74e1 58be 7047 2b3e 642c b03d 20a1 bc3d
00000140: d097 f43d 30af e3bc ca41 3e3c 7028 50bd
00000150: b82b e93d faca 09be 0f15 ff3c 6ddc 13be
00000160: fb8d 82be 0990 86be e151 0a3d 9e79 5d3e
00000170: c6f5 33be 77af 6a3e a00f 8cbc ebe5 083e
00000180: 47ff 273e 3d2a 073e 05f2 23bd 6c45 f7bd
00000190: 1ee7 9fbc fc59 193c 16ab 003d e6b8 f0bc
000001a0: 2a47 02be c81c c03d 26a6 d0bc 39cd 263d
000001b0: cde4 9fbe f0ed c3bd e0a7 8d3e 1af9 f0bc
000001c0: 864f 98be 18f2 18be f03b 9d3d 4d6e dfbc
000001d0: 2ac4 b53d 1dc1 f3bd fd63 08ba 234f 08be
000001e0: 9214 a53c 2070 8f3d ee87 863c 071b 893c
000001f0: 3a8f 3fbe 3dde 13be 26aa 373e cb76 14be
00000200: 1b57 0cbe f936 1ebc 818d 2bbd 48bf fdbd
00000210: 9538 1fbe 748c 033e 8a0b 5c3b c3a0 eaba
00000220: 6d78 9bbd a25a ce3d 89c8 abbb 9f4d acbd
00000230: a283 79bd 1d63 34be 73e3 243d 1b04 193e
00000240: 8a0f 103e 42c9 76be 424c 873d e7fc e4bd
00000250: 767e 823d ae2b c7bd 4ad8 49be 01ba 5e3d
00000260: f2a7 02be fd57 053e 3639 a6bc 6cce 243e
00000270: 83f8 71be 63e4 b4be b2e6 66bd 380d 04bd
00000280: a944 e83d c335 283e 6ad8 4b3e b022 c3bd
00000290: c64f a93d e3c3 65be c043 d7bd a6d5 f63d
000002a0: bce9 323d e572 ad3d e4b1 cbbd 916c 223e
000002b0: 621a 51bd 1382 21bd ea68 54be 587c 713e
000002c0: 36e0 1abd 69ea 88be 3825 05be 3a2d 06be
000002d0: 2485 813e 6387 c3bd f99b 52be e23c 853d
000002e0: 3617 243d 5f98 843d f70c 02be 6adf a1bd
000002f0: f8a3 0bbe faf8 a63c 5400 8dbe 8412 023d
00000300: 3e1e 2f3e 313c 673e c953 3b3e 1c76 16bd
00000310: 9ce8 10be b1dc 6cbe dfd6 cb3d 10f6 d4bd
00000320: c473 15bd c988 a6bd 3116 e9bd 8fc4 4ebd
00000330: 41ee bf3c 4e5d 02be 4cac 59be 6bf7 59bd
00000340: eec6 2ebd 86fd 56be cb17 203e ca12 75bd
00000350: 0ce9 04be e5a0 373d 04c0 a5bd 4b2e 94bd
00000360: 3dc1 d2bd 3d7c a4bc 295b c9bc dc57 41bc
00000370: 0d30 83bd a350 123e 6a15 783d bb97 0dbe
00000380: e700 883d 99e2 91bd 5c68 803e ab0c 01be
00000390: 2a3e b1bd 585d 603e f68c 54bd c2cf d2bd
000003a0: 6a8b 7c3d 9565 303d 3987 b43d 68be 8fbd
000003b0: a49d da3d 1669 c4bd d450 7ebc b6f2 d33b
000003c0: c6cb 23be a0b7 52be 99d0 5abe 48f6 5abe
000003d0: efa7 bb3d 2aba 2dbe b226 773e fb4f 563d
000003e0: 2b24 013d 7457 d33b 980b 13bd a93b 063c
000003f0: 87c6 473e d8fb 83be 6d39 30bd 0dcc 18bc
0.12903619 -0.15953662 -0.33967045 0.16931126 0.1708544 -0.17423654 -0.17223471 0.08422702
0.22321069 -0.22719753 0.15382026 -0.20620358 -0.049109664 -0.080094345 -0.00029905912 0.101079695
-0.08751316 -0.07575722 -0.07798266 -0.0061246264 0.09776178 -0.28656358 0.22253627 -0.19014785
-0.004741779 -0.06909065 -0.32340974 -0.116768226 -0.054857776 0.23713955 0.019770985 0.0755083
-0.08012729 -0.12599838 0.19187662 0.25789502 0.112534136 0.08838735 -0.3458232 -0.11973704
-0.01254082 -0.17208718 -0.011347609 -0.029352592 -0.0570807 -0.019982984 0.17251085 -0.1408803
0.22941874 0.028524598 0.049066372 0.056254223 -0.06685812 -0.3850298 -0.0036975986 0.08059814
0.17548792 0.12379428 0.028228385 0.14406975 -0.10181565 0.034754675 0.008995046 -0.048062086
-0.12193639 0.0032460673 -0.17557299 0.1790211 0.1138981 0.14520036 -0.30981144 0.12344861
-0.05400098 0.09342256 -0.023125656 0.10913098 -0.21179754 0.1672647 0.08602217 0.0921042
0.119430184 -0.027793497 0.011612365 -0.050819814 0.11385292 -0.13456336 0.031137971 -0.14439555
-0.25498948 -0.26281765 0.033769492 0.21628425 -0.17574224 0.22918497 -0.017097294 0.13368957
0.16405974 0.13199706 -0.04002573 -0.12073788 -0.019519385 0.009359833 0.03141316 -0.029385041
-0.1272246 0.093804896 -0.02546985 0.04072306 -0.3122925 -0.09566867 0.2766714 -0.029415656
-0.29748172 -0.14936101 0.07677448 -0.027274275 0.08875306 -0.11902068 -0.00052028877 -0.13311438
0.02015141 0.07003808 0.016422238 0.01673652 -0.1870698 -0.14440246 0.17936 -0.14498441
-0.13705103 -0.009656661 -0.041882996 -0.1239 -0.15548928 0.12846547 0.0033576214 -0.0017900694
-0.07591329 0.100758806 -0.0052424115 -0.084132425 -0.06091655 -0.17615934 0.040255975 0.14942972
0.14068428 -0.24100211 0.06606342 -0.1118105 0.06371777 -0.09725128 -0.19711414 0.054376606
-0.12759379 0.13021846 -0.020290952 0.16094369 -0.23629956 -0.35330495 -0.056372352 -0.03223917
0.11341221 0.16426758 0.19906774 -0.095281005 0.08267169 -0.22438006 -0.10510969 0.12052469
0.043679938 0.0846918 -0.09946039 0.15861727 -0.05105055 -0.03943069 -0.20743147 0.2358259
-0.03781148 -0.2674134 -0.13002479 -0.1310319 0.2529689 -0.09547307 -0.20567311 0.06505753
0.0400612 0.06474375 -0.12700258 -0.07903941 -0.13636768 0.020382393 -0.27539313 0.03175594
0.1710138 0.22581555 0.1829368 -0.03673373 -0.14151233 -0.23131062 0.09953093 -0.10398495
-0.036487356 -0.081315584 -0.11381186 -0.05048042 0.023429038 -0.12730905 -0.21257132 -0.05321447
-0.042670183 -0.20995149 0.15634076 -0.05983237 -0.12979525 0.044831175 -0.08093265 -0.07235392
-0.102907635 -0.020078773 -0.024579601 -0.011800732 -0.06405649 0.14288573 0.060567297 -0.13827412
0.06640797 -0.07123298 0.2507962 -0.12602489 -0.08654435 0.21910608 -0.051892243 -0.10293533
0.061656393 0.043065626 0.08814854 -0.07018739 0.10674599 -0.09590356 -0.015522201 0.0064681424
-0.15995702 -0.2057786 -0.21368636 -0.21383011 0.0916289 -0.16965547 0.24135855 0.05232237
0.031528633 0.006449634 -0.03589973 0.008192935 0.19509326 -0.2577808 -0.043023515 -0.009325993

shared.0.bias f4 [128]
00000000: a80b bcbd 0cae b6be bad4 e2bd c516 68be
00000010: c8f7 16be feab 03bd 6c9d f4bc 1c8a da3d
00000020: ba86 a3be 26a7 efbd d577 f63d 6435 92be
00000030: 1daa 3cbd fd4d c0bd 6bd9 68bd c1dd 15be
00000040: 2329 2cbe 3828 8c3e 84fc a93d 23a5 94be
00000050: ea69 c4bd 7410 22bc 9361 92bb 8f3f 7a3d
00000060: cb20 afbd b6da 30be 942a e9bc 66a0 adbd
00000070: 5541 8c3d a628 84be 252b b9bd 0024 86be
00000080: 7eb7 c9bd c7e2 92bd cc0b 81be dfde 1a3d
00000090: 9a09 6ebe 59d4 84be c4a8 b0bc 71fd 08be
000000a0: 1ca4 b8be 447b 6bbe 8295 313b fb05 07be
000000b0: e2dc f93d 36a7 acbe 1775 483e 2b7c 89be
000000c0: efe2 103e 4f29 14be cb47 85be 1534 20be
000000d0: 9163 5cbe 2174 cebd cb99 5cbd 711c 6cbc
000000e0: 497c 123d 2791 56be de6f f0bd 98cd 92bd
000000f0: 7170 95bd 463e a2bd f700 f7bd f011 0cbe
00000100: b9e2 96be 2e98 2ebe 22ab 88be b5dd c4be
00000110: 2673 12be 6b4f b6bb ca16 d7be 71f1 67be
00000120: 1bd8 863d f3d7 533e 5a4b 563c 0e2b 09be
00000130: 002c 333e 9c57 a0be be84 26be 1420 29be
00000140: 154a 41be 9f22 89be 4509 ecbe 34c5 37be
00000150: b23b 4dbe 1677 0bbe 9f42 58bd de94 cebd
00000160: 060e a6bd 744d 6dbe a374 493d a5cb 02be
00000170: 5f68 e9bd eb49 3b3e efbb 8cbe dee6 ed3d
00000180: b336 65be e7db 97be 668b 713e 519d 32be
00000190: 2e4b 723e 0cd2 2dbe 75d2 d73d a75e 56bd
000001a0: 12ee 783d 46fc babd a7ca 07be 6a18 eebd
000001b0: b52f dfbc cda2 3fbe 4262 77bc bd29 99be
000001c0: 8265 44be 6571 9cbe bb55 12bd 3253 6bbe
000001d0: 1fa1 52be 1bdd 06be 7f17 89be c3ff 91bd
000001e0: 1516 34bd 6003 a7be 2dda 18be d9d8 70be
000001f0: a7b3 49be 9be0 b13d e462 afbe e459 acb9
-0.09181911 -0.35679662 -0.110757306 -0.22664936 -0.14742959 -0.032146446 -0.02986022 0.106708735
-0.31938726 -0.11701803 0.12034575 -0.2855636 -0.04606067 -0.09389875 -0.05684797 -0.14635374
-0.16812567 0.27374434 0.08300117 -0.2903224 -0.09590514 -0.009891618 -0.004467198 0.06109577
-0.08551177 -0.17270932 -0.028462686 -0.08477859 0.068483986 -0.25812262 -0.09041432 -0.2619934
-0.098494515 -0.071721606 -0.25204313 0.037810203 -0.2324585 -0.25943258 -0.021564849 -0.1337793
-0.36062706 -0.22996241 0.002709717 -0.13185875 0.12200333 -0.33721322 0.19575916 -0.26852545
0.14149068 -0.14468883 -0.26031336 -0.15644868 -0.21522357 -0.100807436 -0.053857606 -0.014411078
0.03576306 -0.20953809 -0.11740087 -0.0716812 -0.07296837 -0.07922034 -0.12060731 -0.13678718
-0.2946985 -0.1705024 -0.26693064 -0.384504 -0.14301738 -0.0055636666 -0.42009574 -0.22650696
0.065841876 0.20687847 0.013079489 -0.1339533 0.17497253 -0.3131684 -0.16261575 -0.16516143
-0.18875916 -0.26784226 -0.46100822 -0.17946321 -0.20042303 -0.13619646 -0.05279791 -0.10086988
-0.081081435 -0.23174077 0.0491835 -0.12772997 -0.1139686 0.18289916 -0.27487132 0.116163
-0.22384147 -0.2965996 0.23588333 -0.17442824 0.23661491 -0.16974658 0.10538188 -0.05233636
0.060773917 -0.091301486 -0.132609 -0.1162575 -0.027244428 -0.18714447 -0.01509911 -0.29914656
-0.19179347 -0.30555263 -0.03572629 -0.22980955 -0.20569275 -0.13170283 -0.2677574 -0.07128861
-0.04396637 -0.32619762 -0.14926977 -0.23520221 -0.19697438 0.08685418 -0.34255135 -0.0003287337

shared.2.weight f4 [128, 128]
00000000: 4380 833c ad6d 1b3d 9a0b 413d f15b cdbc
00000010: 7d90 6f3d 1fd4 573d a684 34bd 4a37 0d3d
00000020: 8943 ebbc cfb2 823d 34d8 8bbc 6078 9cbd
00000030: a252 a8bd ca9b cd3c f61c 153d d602 b13d
00000040: 86aa 2a3d d431 d8bc 7e3b 093c bed2 313b
00000050: 4e72 413c 4d26 e5bd de94 82bd 2dd5 7c3c
00000060: 49be a93d 1861 a8bd 1fb9 9fbc a227 d4bb
00000070: 98d2 fdbd 62ef 7abd e48c f9bc 84dc 8f3c
00000080: 32c3 0bbd 0a29 a9bb 2183 813d b1bb 01bd
00000090: aacf 813d 811c dabd 65ec 413d 951a 90bd
000000a0: 2ff1 a73c 8129 03be f4cc a3bd 4ce1 f83c
000000b0: 8038 45bc 6ece a0bd 0b66 8bbd fbd9 093d
000000c0: 421c d1bc 83e4 a9bd 89b5 863c 7be1 8dbd
000000d0: 582c 0a3d 919a de3b cf07 bbbc 1d72 253d
000000e0: f316 383d e436 68bd f1a8 47bc 72bf 2b3d
000000f0: 1f13 04bd d398 2bbd c163 fdbc 83cf 96bd
00000100: de35 813d facf 4e3d dd69 e43b 6c54 8ebc
00000110: 90dd ebbd 26da 6ebb 6605 4abd 831a e03c
00000120: 0799 07bd 921e 83bd 4aba 70bd b8b7 7fbd
00000130: 04ae 3bbd ebc1 cabd db80 87bd 403e 163d
00000140: f9a4 09bd 9b89 1ebd 41b1 01be c96a b6bd
00000150: 8989 48bd d4df ffbc 7310 85bc a606 25be
00000160: 7153 b1bd 1a3d 42bd ce4e c7bb 1369 51bd
00000170: b9b9 e83c cd0a d23c f022 5c3d ed48 2ebd
00000180: 7baa dbbd defb 45bc a298 84bd 69aa 223d
00000190: 0005 bfbd 2641 ba3c 3d8d 2dbe 8e6f e8bd
000001a0: 4dee 98bd 4c89 47bc 61e1 b8bd 9692 3e3b
000001b0: daf5 8d3d 0877 93bd d960 203d 4700 34bd
000001c0: 4c41 c5bd b450 083d caa2 24bc 9f7a 79bc
000001d0: 070d 293c e715 d4bd c698 b8bd 9555 7fbc
000001e0: 2d65 46bd 9a77 74bd d50f 4bbd e664 5f3c
000001f0: b82b f83c 93fe 933c 9eba 8fbd 0274 d2bc
00000200: 34e3 3abd 1673 01bd 35d9 f2bd 041f febd
00000210: f9c8 d53c e195 0d3d 5904 b9bd 35ea a33d
00000220: 2a40 913d 0d65 063d 60df 54bd 5473 08bd
00000230: c366 dbbd 9458 4d3d d407 953c c300 833d
00000240: 460e a53c 0e9d 83bd db11 4cbd afcd 443d
00000250: 541d c2bd 0a79 babc 7d6e 8dbd 0700 f63c
00000260: e77c 4c3c 54d4 a93c a0ac a83c c403 97bd
00000270: ed2b 2abd ac23 36bd 6ea5 cfbc e493 a8bd
00000280: a11a ae3b 6649 b1bd 5b22 afbc db1c 443d
00000290: 0dad d5bd d3e1 193c 5f88 e8bc 136b d2bd
000002a0: 29ea b2bd 489b 5d3a 327a 1b3d bc3f f23a
000002b0: 6055 043d 3711 a5bd e52d 813d b208 723d
000002c0: 9e73 c9bb 4e3b 1ebd 5a8e c1bd 4779 a9bd
000002d0: 1e5a 733d 8906 183d b2f7 513d 33d1 893d
000002e0: 4518 debd 63f2 c0bc 6dfc 7dbd 0bc5 213d
000002f0: 630d f6bc e702 ecbd 033a 7dbd c993 12bc
00000300: 798a 37bd 0dd0 a5bd 4612 2e3d 4c17 8fbd
00000310: 7958 873d e6a8 273d fe90 1d3c f5a6 033d
00000320: e245 96bd f0d4 103d d41e e1bd 3d60 05bc
00000330: 0e7b bebd fe77 66bd 2a9f 08bd 2e76 0ebe
00000340: 8bd3 303d efec 173c 08a5 a7bb 6309 db3c
00000350: fd09 a4bd c281 c0bc 4174 ea3c ec82 9dbc
00000360: 0775 963d 2977 c5bd ed30 32bc a638 053c
00000370: 59c9 aabd a967 c3bd 0c7c 97bd 9bb9 063d
00000380: ef53 e03b d8ac d13c ffc4 02be 5c25 21be
00000390: 8f63 05be fd02 7e3b 18a7 493d 3306 aabd
000003a0: 4cab 36bd 3cb4 bdbd 3284 863d c80e 11bd
000003b0: bf58 9bb9 f8e7 373a 2bc4 493d 0109 4dbd
000003c0: 95ba cc3d 4ece db39 322d 77bc 26e2 6e3c
000003d0: 044e 4abd 0a34 9dbd 8277 823d 46eb 18bd
000003e0: 6483 c6bd 64f9 56bd b073 d4bd 3b43 58bd
000003f0: 71f8 c6bc f72f ccbd 7f05 e8bd 201e bcbc
0.01605237 0.03794639 0.047130205 -0.025068255 0.058487404 0.05269253 -0.044071816 0.034476556
-0.028718727 0.06381761 -0.017070867 -0.07640147 -0.08218886 0.0250987 0.036404572 0.08643119
0.04166653 -0.026390947 0.008376 0.0027133669 0.0118070375 -0.11188946 -0.063760504 0.015431684
0.08288247 -0.08221644 -0.019497452 -0.006474451 -0.12393683 -0.06126345 -0.03046269 0.017561205
-0.0341217 -0.005162363 0.06323839 -0.031673137 0.06338437 -0.10649968 0.047344584 -0.0703632
0.020500747 -0.12808801 -0.07998076 0.030380867 -0.012037396 -0.07851873 -0.068065725 0.033655148
-0.02552617 -0.08295538 0.016443985 -0.069277726 0.033733696 0.006793328 -0.022830872 0.04039203
0.04494376 -0.056692973 -0.012186275 0.041930623 -0.032244798 -0.04189379 -0.030931355 -0.073637985
0.063091025 0.05049131 0.0069706277 -0.01737424 -0.11516869 -0.0036445945 -0.049321555 0.027356392
-0.033104923 -0.06402315 -0.05877141 -0.062431067 -0.04582025 -0.09900268 -0.06616374 0.03668046
-0.033604596 -0.03870545 -0.12665273 -0.089070864 -0.04895929 -0.03123466 -0.016243195 -0.16115817
-0.08658493 -0.047421552 -0.0060823923 -0.051125597 0.028408872 0.025639916 0.053744256 -0.042550016
-0.10725876 -0.012083976 -0.06474425 0.039713297 -0.093271255 0.022736143 -0.1694841 -0.11349402
-0.07467327 -0.01217873 -0.090273626 0.0029079071 0.06931658 -0.07200438 0.03915486 -0.043945577
-0.09631595 0.03328009 -0.010048578 -0.015226989 0.010318047 -0.1035574 -0.09013514 -0.015584369
-0.048436332 -0.059684373 -0.049575645 0.013634896 0.030294284 0.018065726 -0.07018016 -0.025690082
-0.045626834 -0.031603895 -0.11857835 -0.124082595 0.026096808 0.034566764 -0.090340324 0.08003656
0.070923164 0.032811213 -0.05197084 -0.03331311 -0.107129596 0.050133303 0.01819221 0.0639663
0.020148408 -0.0642644 -0.049821716 0.048047718 -0.0947825 -0.022762794 -0.069058396 0.03002931
0.012480951 0.020731129 0.020590127 -0.07373765 -0.041545797 -0.044467613 -0.025347438 -0.08231333
0.005313233 -0.08656578 -0.021378687 0.04787908 -0.104333974 0.00939222 -0.02838534 -0.10274329
-0.08736069 0.00084536197 0.03795833 0.0018482129 0.032307982 -0.08059924 0.06307582 0.059090324
-0.006147816 -0.038630776 -0.094509795 -0.08275085 0.059412114 0.037115607 0.05126161 0.06729355
-0.10844473 -0.023553079 -0.06200831 0.039494555 -0.03003568 -0.11523991 -0.061822902 -0.008946368
-0.044809792 -0.08096323 0.042497896 -0.069868654 0.06608672 0.04093256 0.009617088 0.032141645
-0.07337548 0.035359323 -0.10992208 -0.008140621 -0.093008146 -0.056266777 -0.033354916 -0.1391227
0.043170493 0.009272798 -0.005116109 0.026737874 -0.080097176 -0.023499373 0.028619887 -0.019227467
0.0734654 -0.096418686 -0.010875923 0.008131182 -0.08339185 -0.09541256 -0.07396707 0.03289185
0.006845943 0.025595114 -0.1277046 -0.15736908 -0.1302626 0.0038759105 0.04923162 -0.08301964
-0.044596955 -0.092628926 0.06568183 -0.035414487 -0.00029630025 0.0007015462 0.049259346 -0.050057415
0.09996525 0.00041924644 -0.015086459 0.014580285 -0.049390808 -0.07675941 0.063704506 -0.03733375
-0.096930295 -0.05248393 -0.10373628 -0.05279849 -0.024288388 -0.09970086 -0.11329173 -0.022963583

shared.2.bias f4 [128]
00000000: 59ed 66bd 851a c4bd 6e1d 02be ac75 bc3c
00000010: 2366 83bc 5434 c63c 20ad 1c3d eb06 e33c
00000020: 7afb e9bd 18b0 8c3c 5311 c8bd 0caa cabc
00000030: e030 f83b 98ec 8fbd edab cdb9 c20a 07be
00000040: d221 a0bc 69df afbd c72f 993c 8f0a bfbd
00000050: 0f86 ddbd 0c23 2d3d 4d71 a3bd 9739 7fbb
00000060: 64cb 7abc a479 1b3c 5bea ad3c 8fb6 ab3c
00000070: 61d4 99bd a30c f1bc e75f d0bd 48e4 dcbb
00000080: 6b90 0e3d 725b c5bc 5378 2dbd 93c0 fe3c
00000090: 3489 c3bd e59a 1cbd 2012 bcbd c900 98bd
000000a0: b0ec adbd 8f39 88bc 3fb4 d13c 93c9 aebd
000000b0: 5d98 ffbd 8681 81bd f22b 0fbb 9af9 ff3c
000000c0: f540 b0bc c226 d0bd a9bc da39 e3b7 4bbd
000000d0: 5e59 0dbe 92de d9bc d27f 65bc b79d 363d
000000e0: aeeb 593b 60fa f8bd a183 f6bb 6dae bbbc
000000f0: a810 81bd 13e7 2dbd 39e1 173c 0e7b 40bd
00000100: 400a c7bd 5876 b2bd 0ffe d3bc b9a5 7bbd
00000110: b636 eebd 4a61 223d 9779 89bc 05d0 84bd
00000120: b183 d43b 6d09 ca3c 642c 00be 79dc 1f3d
00000130: 003e c03b f2f5 e6bd 160c fdba 36bd 0a3d
00000140: 0e57 3ebd 641a a53c 6377 023d 5a77 b6bd
00000150: 34b9 c5bc a0a6 6fbd 6ded c83c f8db eabd
00000160: 7952 ce3c 1a7a cbbd d055 3abc 40b2 d5bd
00000170: 5f58 2fbc 251d 67bd 797a 6bbd cd06 df3c
00000180: 1e92 353d 14da b2bd b99c 84bd acb9 153d
00000190: ee01 f6bd 3b66 5cbc 17a2 2cbd 9cfe 153d
000001a0: 5388 82bd 436b 43bd f616 eebd b6a5 dfbd
000001b0: b611 ccbc 3f53 db3c b5f8 dcbd 1520 043d
000001c0: 04ee bbbd 9996 fcbc 8347 87bd d137 0abe
000001d0: b5db a3bd 161e 78bd df7d 69bd 77e9 a0bd
000001e0: 3f45 80bd 2e16 fd3c 7912 a5bc 1b42 85bd
000001f0: 7563 b3bd aead a7bd 8fb4 373d be3b 9abd
-0.056378696 -0.09575371 -0.12706539 0.02300533 -0.016039914 0.024194874 0.038251042 0.02771326
-0.114249185 0.017173812 -0.09768929 -0.024739288 0.0075741857 -0.070275486 -0.00039228742 -0.13187698
-0.019547377 -0.08587534 0.01869954 -0.09328186 -0.10816585 0.04226975 -0.07980595 -0.0038944238
-0.015307281 0.009489451 0.021229913 0.020961074 -0.07511211 -0.029424971 -0.10174542 -0.0067410804
0.034805696 -0.024091456 -0.04235108 0.031097686 -0.09547654 -0.038233656 -0.091831446 -0.07422025
-0.0849241 -0.016629009 0.025598643 -0.08534541 -0.12480233 -0.06323533 -0.0021846262 0.031246949
-0.021515349 -0.101636425 0.00041720763 -0.049735915 -0.13803622 -0.026595388 -0.0140075255 0.044584002
0.0033252048 -0.1215713 -0.0075230156 -0.022910321 -0.06302005 -0.042456698 0.009270006 -0.046992354
-0.09718752 -0.087139785 -0.02587798 -0.061437342 -0.11631529 0.039643563 -0.016781611 -0.06484989
0.0064854254 0.024662698 -0.12516934 0.03902862 0.005866766 -0.11277379 -0.001930597 0.03387185
-0.04646974 0.020154186 0.031852137 -0.08909483 -0.024136163 -0.058508515 0.024527276 -0.11467737
0.02518581 -0.099353984 -0.011372998 -0.10434389 -0.010702222 -0.05642428 -0.057489846 0.027224923
0.0443288 -0.08733001 -0.06475205 0.036554024 -0.12012087 -0.013452108 -0.04214677 0.036619768
-0.06373658 -0.047709715 -0.11625473 -0.10920279 -0.024910789 0.026773093 -0.107896246 0.03225716
-0.09176257 -0.03083353 -0.06605437 -0.13497855 -0.0800089 -0.060575567 -0.057004806 -0.0785703
-0.06263208 0.030894365 -0.02015041 -0.06506749 -0.08759204 -0.08187424 0.04484993 -0.07530926

move_mean.weight f4 [2, 128]
00000000: ca34 edba 464e 46bd 1660 8abc 4b61 b93c
00000010: 571b ca3b 8684 103c 1ada d03b 54cc f83c
00000020: aa09 c33c 43e0 d438 ed83 1cbb 7eea bcbb
00000030: 1242 1ebc 1481 473d 8f91 763c 6ef2 b1bc
00000040: f3ca 113d 08a3 333c 5f9f c1bc 8603 f2bc
00000050: 12bc 433d 3a4b 753d 9c66 e4bc e1ac 8eba
00000060: 6546 44bc 4296 1e3d 67d0 323d dbad b5ba
00000070: 15dc 5c3c f5d5 323b 76c4 3f3c 962b 19bb
00000080: c912 c63c 6ff1 8f3b 2c11 32bc 23ef 873b
00000090: 41e2 ffbb 04c1 5d3d bc24 81bd 8ed4 8b3c
000000a0: c525 543b 8728 2a3c 05a5 6a3d aab2 7f3c
000000b0: 220a 923b bf2a 0cbb c07d 9bbc b074 16bd
000000c0: 3ea6 ce3c 75cf 14bb 5ace afba 9118 303b
000000d0: f1e1 b6bb dae1 b03a f367 7c3c b0eb 19bd
000000e0: a3be 16bd 2898 e1bc 51c3 e73c cd76 9ab8
000000f0: 6020 90bb d5ee f93b 08c3 78bb b8ec 51bb
00000100: 9894 783b d303 ef3b e63e 113b 3985 15bc
00000110: b7f3 1dbc 9a9d 2a3d de81 f53c 0716 393d
00000120: 4639 a9bc 9db3 943c 22fa bb3b b02f 90bc
00000130: 6252 93bc c801 d9bc 5578 433d 944a 45bc
00000140: 8433 c6bc 375b 623d e954 b23b 3aeb 413c
00000150: 8330 b23a c15b 04ba 64df eb3c b9b4 753b
00000160: b242 053d 5e20 3c3c 0eee a73c d9dc 2dbd
00000170: dff2 553c 5930 61bd b4dd 5a3c ecc3 903d
00000180: 0061 583d 977b cebc ca45 9c3d 097c a03c
00000190: 3004 cc3b fc23 193d 01d8 efbb d5f5 213c
000001a0: c2f3 b8bb d283 05bc 4a49 2d3d b95e eb3c
000001b0: bfdd fcbb 2fa2 efba 2b2a 993b 01d9 0bbc
000001c0: 243e 0d3c 648c 083c f518 e53a d450 2fbc
000001d0: cc79 d13c 9edb e23b 1772 cf3c 4a94 fb3c
000001e0: b566 cfbc 0751 34bd 1b87 713d 068e cbbc
000001f0: 44b4 81ba 6761 72bc 731d 713b 448b 2c3c
00000200: 9360 ce3c e3e9 993c b569 a63b 0169 38bb
00000210: 730a e13c c734 8d3c a2d7 0c3c 1a59 1abd
00000220: 086b 4f3c 9778 47bc 09d8 f5bc 874b b5ba
00000230: 9541 a93d 026f cebb 29b5 04ba 7622 d53b
00000240: 9906 c8bb ce41 08ba 8f95 24bc ab9d 1c3d
00000250: 770f 823d 6dd6 183b dff8 413d f688 343c
00000260: 33db aebc 9650 11bd 4624 173d 0612 44bb
00000270: 46d9 0cbc 0701 20ba 0172 0ebc de1d 88bc
00000280: ed2e a4bc cb1a 1fbb a1f4 023c d8a4 4dbc
00000290: 0b16 72bc cf47 33bd 8814 3e3d 00ed b6bb
000002a0: 06d5 043d 7246 1e3b e1b5 17bc cc5c ba3c
000002b0: d507 70bc e23d f83c 71a3 8dba 6ab0 d7bc
000002c0: 172f 9d3b 7c4c f7bb b9ef c0ba 0666 48bc
000002d0: 9696 ac3c 7d07 2d3d 3e56 563c 5e4d 713d
000002e0: ee17 78bd 6b6e 633b 7f9d 073d 812d 7fbc
000002f0: 6f42 b63c 6efd 0ebc e499 98bc 6382 cf3c
00000300: f75c ad3c 0112 27bc 2405 aebc 3152 b6bb
00000310: 3071 58bc ae26 4c3c 365a 05bd d397 75bd
00000320: 2991 0e3b e968 3dbc 0516 18bd 2f38 3a3c
00000330: e77e 14bd 668e 02bd f346 6abd 10c0 c23b
00000340: 5759 24bd 6ab1 62bd 06da ffbb b02d 893c
00000350: deb1 3abc 0d9f 30b9 f569 8abc 4f60 1fbd
00000360: 3776 0abc ee5b 9dbc 6048 d23c 6132 6d3a
00000370: c5b1 143a 49d0 c23c b546 3b3d 88b6 713c
00000380: e9b0 873c 304d 3abd 9977 77bc f8e1 9f3c
00000390: 76de 053d 8b3c 743d 4267 62bd 2ec9 b7bb
000003a0: e69e 463d 2f62 033c a4a0 abbc 02b9 803c
000003b0: 8d44 c7ba 7957 133d 4f4f 7dbb ce7c e639
000003c0: 1d2f 7cbd 70c9 11bc 1781 233d b106 8bbc
000003d0: 9fc2 16bb ad1c 66bb 63a3 29bd 32a0 873c
000003e0: a834 aebd f8ed 363c ecd8 abbd a5d8 9f3c
000003f0: 94ff 263a 5313 d23b fc3b 1ebb 2675 063d
-0.0018097397 -0.04841449 -0.01689152 0.0226294 0.00616781 0.008820659 0.006373656 0.030370869
0.02380832 0.0001015072 -0.0023882345 -0.0057652583 -0.009659307 0.048707083 0.015049352 -0.021722045
0.035593938 0.010964163 -0.023635564 -0.029542696 0.04778678 0.059886195 -0.02788096 -0.0010885262
-0.011979674 0.038717516 0.04365578 -0.0013861017 0.013480206 0.0027288173 0.011704555 -0.0023371927
0.02417888 0.004392795 -0.010868352 0.0041483804 -0.007808954 0.054139152 -0.06305835 0.017069127
0.0032371145 0.010385639 0.05728628 0.015606562 0.0044567743 -0.0021387783 -0.01898086 -0.036732376
0.025225755 -0.0022706662 -0.0013412938 0.0026870111 -0.0055811335 0.0013495043 0.015405643 -0.037578285
-0.0368029 -0.027538374 0.028291376 -7.3654206e-05 -0.0043983907 0.007627348 -0.0037958045 -0.0032031965
0.0037930366 0.007294157 0.0022162735 -0.009126001 -0.009640626 0.041654207 0.029969152 0.045187023
-0.020657193 0.018152053 0.0057366053 -0.017600864 -0.01798362 -0.026490107 0.04772218 -0.012041707
-0.024194486 0.05526277 0.005442251 0.011835868 0.001359478 -0.0005049073 0.028793044 0.0037491752
0.03253431 0.011482326 0.020499256 -0.042446945 0.013058393 -0.05497775 0.013358522 0.07068619
0.05282688 -0.025205417 0.07630499 0.019590395 0.006226085 0.037387833 -0.007319451 0.009885271
-0.0056442926 -0.008149104 0.042306222 0.02873169 -0.007716864 -0.0018282587 0.0046742163 -0.0085356245
0.0086207725 0.008334253 0.0017478751 -0.010700423 0.025570773 0.006923153 0.025322957 0.030710358
-0.02531753 -0.044022586 0.058966737 -0.024847995 -0.0009895642 -0.01479373 0.0036791235 0.01053125
0.025192535 0.018788284 0.005078519 -0.002813876 0.027470803 0.01723708 0.008596333 -0.03768263
0.012659796 -0.012174747 -0.03001024 -0.0013831713 0.08264462 -0.0062998543 -0.00050623954 0.006504352
-0.006104302 -0.0005197794 -0.010045423 0.0382363 0.06350606 0.0023321167 0.047356483 0.011018982
-0.021344757 -0.035477243 0.036899827 -0.002991797 -0.008596724 -0.0006103669 -0.008694173 -0.016615804
-0.020041907 -0.0024277444 0.007992894 -0.012551509 -0.014775763 -0.043769654 0.0464063 -0.005582452
0.032429717 0.0024150875 -0.009259672 0.022749327 -0.014650305 0.030302946 -0.0010806156 -0.026329238
0.0047968733 -0.0075469594 -0.001471988 -0.0122313555 0.021067899 0.04224347 0.013082085 0.058911674
-0.060569696 0.0034703265 0.033109184 -0.015574814 0.022248475 -0.0087274145 -0.018628068 0.025330728
0.021162493 -0.010197164 -0.021242686 -0.005563997 -0.01321058 0.012460394 -0.032556735 -0.059959244
0.0021754003 -0.011560657 -0.037130374 0.011365934 -0.036253836 -0.031874083 -0.05719657 0.005943306
-0.040124264 -0.055344976 -0.007807973 0.016745418 -0.011394946 -0.00016843919 -0.016896227 -0.038910206
-0.008451036 -0.019208875 0.025669277 0.00090483396 0.00056722417 0.023780959 0.04572173 0.0147529915
0.01656385 -0.045483768 -0.015104198 0.01951693 0.03268286 0.05962805 -0.055274256 -0.0056086993
0.04849138 0.008019014 -0.020950623 0.015713219 -0.0015202925 0.035972092 -0.0038652008 0.00043962005
-0.06156837 -0.008898124 0.03991803 -0.016970964 -0.0023004187 -0.0035112307 -0.041415583 0.01655588
-0.08506137 0.011165135 -0.08390984 0.019512484 0.00063704816 0.006410995 -0.002414464 0.032826565

move_mean.bias f4 [2]
00000000: 078f 873d 633b 59be
0.06619077 -0.2121406

food_logits.weight f4 [3, 128]
00000000: d82a 0dbd 2fbf 9e3c c138 dc3c ced1 1ebc
00000010: 4f8c 193d bdf1 b8bc a2ac 003c f1e4 d73c
00000020: 767e aebc 0993 d8bc 9af1 063d 28d2 fabc
00000030: 5625 84bd 7c1f 0bbd c76a 233c 6725 043d
00000040: ed57 02bd f274 c9ba c78e 833d 505d 7ebd
00000050: 409c 553d ef8d 2f3c 46d3 58bd f018 cebc
00000060: 3b2f efbb 7ac1 7c3d f73c 2a3d 6744 2fbd
00000070: 4203 ed3b 2832 d7bc 1807 10bd be06 213d
00000080: 824d 693d 6b3f 473d 2c14 713d a52f c6bc
00000090: f4a6 703d 30ed b1bb 87c6 053d 17ff 50bd
000000a0: d73b adbd eb28 9d39 3ded dc3c 32e5 91bc
000000b0: 6787 5ebc d359 103d b84f 0abd 1051 973d
000000c0: cb01 293d 4ccb 35bc 8795 a4bd 8250 023d
000000d0: 2155 373d 43df a33b e1b4 89bd 1cc5 0bbd
000000e0: 37fd 1a3c e109 95bc e6c3 643c 2778 c33c
000000f0: 812a 2b3d c807 36bd 4ada 813d 7206 803c
00000100: ee02 9e3d 1d86 4d3d 036c 813d feef e83c
00000110: 42d7 f83b 1001 323d 33c7 3a3d 3c68 8f3d
00000120: aa93 b6bb d4ec 043d 3ae3 423c 6841 dcbc
00000130: 1b49 553d f71f 383d e275 2c3d 7a8e 293d
00000140: d8ad 173d 4fb3 9f3d f78a 5c3d c728 6b3d
00000150: 4a59 bcbc 3445 55bd 13c2 083d a1b2 973d
00000160: ec49 dabc 603f 083d f195 d7bc ac3f a1bc
00000170: aa54 fb3c 1c25 0c3d c8dd 1cbd efd9 dabc
00000180: 397a 59bb 30e4 dabc 9e3a 0f3c c037 ebbc
00000190: fc71 56bd 9d77 27bd 7ebe 443d a708 dbbc
000001a0: 6547 80bd b5a8 b0bc 6d68 35bd edf3 6a3d
000001b0: 5924 953c e7a3 3e3d 3f3a 73bd f966 3c3c
000001c0: df36 10bb 99f8 57bd 81e6 2c3d c0f7 a43c
000001d0: bb68 aa3c 4802 a2ba a8fc d7bc 9cd9 f03c
000001e0: 84d9 5fbd 2a46 223c 409e 0ebd 504e 46bd
000001f0: 42cb 323c e3c2 f03c e2eb afbc 012a 3f3d
00000200: 7650 1fbd 2ee6 e83b f3e0 5bbc 6d9a f7bc
00000210: 17ea 8bbc b529 073d a568 833c ae5b 5c3d
00000220: 084d 0ebd 942a 00bd 9620 953c 5ea0 1eba
00000230: c6cb 9dba cf4d 9c3d ba89 9cbb d355 8f3c
00000240: 552e 413d c155 57bc 114e 9e3c dd14 96bd
00000250: d333 33bc 5a7a 0a3d fc0c f7ba 9bc7 1ebd
00000260: ad3d 4a3b 4862 1f3d 62fc c83b 337c 1dbd
00000270: 9416 f33b 475c e8bc f041 86bc a897 153d
00000280: 3e8f ee3c d4d0 ee3c ce57 df3c b5fb f0bc
00000290: aa3f a63d b0f3 ae3d 74e7 07bc 5fc7 2fbd
000002a0: 68ad 143c 30d4 aa3c 8e2e 2dbc ad2e 06bb
000002b0: d06d 933c 8974 8f3d 4550 14bd c7c7 883d
000002c0: c1c7 7c3b 815d 863c 7c31 8bbd 175c 05bd
000002d0: 3b32 533d bd4e 843d 3b9b c6bc 13c5 96bd
000002e0: 0e72 2e3d e735 753b b3b8 203d 09b9 7c3d
000002f0: 512d 073d 2c5a 07bc 1bc8 913d 43bb 153d
00000300: d0d2 143d 8523 723d 0a12 04bd 162b 623a
00000310: c3af b23c 2421 c43a 0f46 f93c da8b a4bd
00000320: 8cc6 be3c 00b6 1c3d d34c 983d 78f5 b0bc
00000330: a928 bebc a43f eb3c 3934 a43d beeb 5b3d
00000340: e233 053d b4bc 2ebd 701c 943d 744b 7c3d
00000350: 9857 9abc 329b 82bd b73d e23c 126f 623c
00000360: 90fb 6cbd 5a8c 3bbb 1094 31bc 0abb 84bd
00000370: 790e a23c a3ce 793d 0008 c33c 6bcc 1f3c
00000380: 25dc 01bd dede 0dbd 101d c5bb 44e5 23bd
00000390: ace9 85bd 79dc 79bc 7dc8 7d3d ad2e fcbc
000003a0: cc83 5f3d 8ab4 b8bc 14bf 403c 4352 bd3c
000003b0: 1740 20bb 1538 a43c 4b37 b7bc 6b76 803c
000003c0: 0e83 a4bc 5179 c6bc 471f 32bd e80a 263d
000003d0: 62ca 193d f880 793c 50a0 01bd c709 6c3d
000003e0: 84e2 08bd 072a e03c b897 4cbd ce26 42bd
000003f0: 6250 453d b750 c7bc aeff c1bc d872 cebc
-0.034464687 0.019378273 0.026882531 -0.009693576 0.037487324 -0.022576207 0.007853659 0.026354285
-0.021300536 -0.0264373 0.032945253 -0.030617788 -0.06452434 -0.033965573 0.009974188 0.032262232
-0.031822134 -0.0015369935 0.06423717 -0.06210071 0.052150965 0.010714992 -0.05293586 -0.025158376
-0.0072993315 0.06170795 0.041562047 -0.042789843 0.0072330544 -0.026269034 -0.035163015 0.03931307
0.056958683 0.048644464 0.058857128 -0.02419264 0.05875297 -0.0054298863 0.032660034 -0.051024523
-0.08458679 0.0002997586 0.026968593 -0.017809484 -0.013582087 0.035241913 -0.033767432 0.07388508
0.041261476 -0.011095833 -0.080363326 0.03181506 0.04475892 0.00500098 -0.06723953 -0.034123525
0.009459785 -0.018193187 0.013962721 0.023861004 0.04178858 -0.044441015 0.063404635 0.015628073
0.077154025 0.05017673 0.0631943 0.02843475 0.00759402 0.043458045 0.045600127 0.07002303
-0.005571802 0.03245242 0.011894995 -0.026886657 0.052071672 0.04495236 0.04210461 0.041395642
0.037031025 0.07797872 0.053843465 0.057411935 -0.022991795 -0.05206795 0.03338821 0.07407118
-0.026646577 0.033263564 -0.026316615 -0.019683681 0.03068002 0.034215078 -0.038297445 -0.026715247
-0.0033184423 -0.026720136 0.008742003 -0.028713107 -0.052354798 -0.040885556 0.04803323 -0.026737524
-0.062636174 -0.02156482 -0.04428904 0.057361532 0.018205808 0.04654303 -0.05938172 0.01149916
-0.0022005362 -0.052727316 0.042212013 0.020137668 0.020801893 -0.0012360299 -0.026365593 0.02940064
-0.0546508 0.009904424 -0.034818888 -0.04841453 0.010912718 0.029389804 -0.021474782 0.046670917
-0.038895093 0.0071075177 -0.013420331 -0.030225003 -0.017079396 0.03299876 0.01604111 0.05379837
-0.03474143 -0.031290606 0.018204015 -0.0006051118 -0.0012038879 0.07632028 -0.0047771605 0.017496979
0.047163326 -0.013143004 0.019324334 -0.07328198 -0.010937649 0.03380809 -0.0018848474 -0.038764577
0.0030859516 0.038912088 0.006133602 -0.038448524 0.007418463 -0.028364314 -0.016388863 0.036521584
0.029121038 0.029152311 0.027263548 -0.029416898 0.08117612 0.085425735 -0.008294929 -0.042914744
0.009074546 0.020853132 -0.0105701815 -0.0020474598 0.017996699 0.07004649 -0.036209363 0.066787295
0.003857121 0.016402008 -0.06796548 -0.032558527 0.051561575 0.06460331 -0.024243942 -0.07361808
0.04258924 0.0037416162 0.039238643 0.0616999 0.0330022 -0.008261245 0.07118245 0.03655554
0.03633386 0.059115905 -0.032243766 0.0008627636 0.021812325 0.001496349 0.030428914 -0.08034487
0.023288034 0.038259506 0.07436528 -0.021601424 -0.023212748 0.02871687 0.08017773 0.05369162
0.032520182 -0.04266043 0.072319865 0.061595395 -0.018840596 -0.063772574 0.027617319 0.013820427
-0.057857096 -0.0028617592 -0.0108385235 -0.06480987 0.019782292 0.06098808 0.023807526 0.009753327
-0.031704087 -0.03463637 -0.0060154274 -0.040013567 -0.0653871 -0.015250319 0.06195878 -0.030783975
0.05456905 -0.022547025 0.011764307 0.023110515 -0.0024452263 0.020046273 -0.022365233 0.015681466
-0.020082023 -0.02422777 -0.04348686 0.040537745 0.037546523 0.015228502 -0.031647027 0.057626512
-0.033419147 0.02736379 -0.049949378 -0.04740029 0.048172362 -0.02433048 -0.023681488 -0.025201246

food_logits.bias f4 [3]
00000000: cf71 cabd e0f5 8f3c 1aed a93d
-0.098849885 0.017573297 0.08297177

net.0.weight f4 [128, 17]
00000000: 858b 1c3e 11ac 33be 9ec7 b13f ef06 8fc0
00000010: 4d34 0cbe 7656 54be 6363 28be f068 973d
00000020: b352 8bbd 2e95 8f3d ee51 0a3e b3f3 1dbe
00000030: 2c60 2d3e 77f7 00bc d775 05bc c3f3 3e3e
00000040: e8de ec3d 301f ad3d b9b9 babd c2ec 0dc0
00000050: c12e 5640 c16f 8a3f 0ea3 4abe 2b2c 173e
00000060: 025d bfbd 08c7 1a3e f26d 273c 7f50 dabd
00000070: dfe2 11be 362a 87be c1ea cabd 5b06 1b3e
00000080: 5add c0bd c7a9 e13a 2203 36bd fb7a 9bbc
00000090: bff4 703f 1009 a1bf 80a9 ebbf a805 0b3e
000000a0: f157 18bc b471 903d a3a9 163d 913e a83c
000000b0: 3bf3 213e 0100 f33d 510b 423d 71e7 993d
000000c0: c49d 96bd 9450 333d 0966 eb3c c6d5 c7bd
000000d0: 5b85 04be 4d1a 9a3f b17c 6ac0 f8a7 edbe
000000e0: 47ca 9dbd 94f7 653e 8e23 11be 2545 9cbc
000000f0: b72f 1fbd 64da 1ebe d85b 51be 51fd 4abe
00000100: cee8 11be 100f 2b3e 6df0 443e cda7 143e
00000110: 5f1b 253e 4e52 2bbe fc48 983f be00 503e
00000120: b20f 08c0 6cf6 b43d 29b2 75be 26a4 fbbd
00000130: 9a33 34be 0172 723d afb9 a8bc 34e2 8b3d
00000140: 04b3 50be 3321 793e 52c3 0a3e da98 0cbc
00000150: 6de3 22be 4f28 07be 5abb 4ebc 062f d53f
00000160: 8ad8 bbbf 8995 98bf a7da b2be 3fa0 f0bd
00000170: 2db0 3dbd 3e0b 6bbe e15a 26be 8274 643e
00000180: 2689 f13b 86cc 07be 9933 253d ba8e b4bd
00000190: ba10 7dbd 1f4b 1ebe b523 d6bd d004 b7bd
000001a0: f06f ebbf a3b7 9840 0625 003f 19f3 9abc
000001b0: 3302 d23d b468 503e c6e2 b73c 5e50 6bbd
000001c0: 3751 6c3e 97ad e63c 4567 923c 9b07 40bb
000001d0: b8b3 92bd f0c0 e3b9 f490 323d fda2 2c3e
000001e0: 1add 113e cdba 0a40 7c83 a9c0 448e 16bf
000001f0: 12b2 253e f02a 51bd 7d07 6c3e 9445 223e
00000200: 4849 1d3e c1d8 c9bc e389 47bc f630 02be
00000210: 5528 ba3b 5788 183e f91c 083d 5805 00be
00000220: 0955 fbbd c028 ef3c 0203 a03f 4570 c6bf
00000230: 2285 17bf a5ce a53e 2ce1 893e 046b eebd
00000240: 71e5 2c3d a8de ee3d 2f21 a73b b91a 47be
00000250: e481 973d 230e d03d 6249 fe3d 8836 2c3d
00000260: 89c9 4fbe 2506 033d 116e 513d 11f5 e4bf
00000270: 7012 b540 0fd2 053f 8b5e b6bd 6e30 613d
00000280: 0faa 83bc ade0 223d 2c96 263d 80b7 813c
00000290: 7f21 e63d b8b2 f6bd a8ac 90bd 77a6 883e
000002a0: b8cc 133e 4223 c83c 973c 123e e1c4 93bd
000002b0: 1ddd e4bf 9469 4640 c105 1740 1040 8bbd
000002c0: 37f8 96bc 44f5 73bd e25c 9e3d 9b56 67be
000002d0: 33a8 8abe c538 493d a0ac 633d f2b7 4f3e
000002e0: e850 e13c 2621 233e ce6d 2abe f59d 1d3e
000002f0: 24a0 49bd 0cda 3b3f 860c 3ec0 74ab 713d
00000300: ffbd e93d 15cd 0e3e 3cd8 963d d88a 1a3d
00000310: d132 07bd 0ede 73be 8205 94bd 1e88 9d3d
00000320: 2960 b7bc cf95 3cbd 7811 ecbd 4dbf 45bd
00000330: 0770 e23d f410 c23d 033c 8abf bd71 a840
00000340: d3c5 7dbe 8546 3c3d e325 083e a50e 833d
00000350: d0e6 3cbe 759b ca3c e9e7 923d c4e7 c1bd
00000360: 357b c63d 604a 6b3d fe0f 89bd 9a31 ad3d
00000370: dd5d a13c 988f 8ebb 38f9 aeb8 8baf 22bf
00000380: b44a b9bf 1348 3240 82da d03c 0069 033d
00000390: 4d6b e03c 512b 6dbe f12d 32be 1325 12be
000003a0: 37e8 91be d3aa 383e aecc 7abb 57a1 6c3d
000003b0: c856 f1bb 80c5 1c3e da85 5dbd 736f 033e
000003c0: 44d3 abbf 15f9 9840 9d4f 2f3f 9308 3cbc
000003d0: d6a2 91be 9152 ce3c cb82 8d3e 1cc4 e03d
000003e0: 5ec6 c8bc 83f3 d1bd 8aa1 f53d c0cb 053e
000003f0: 5697 b33d e463 c8bd e504 e8bd 53ee ce3c
0.15287597 -0.17546107 1.3889043 -4.4695964 -0.13691826 -0.20736107 -0.16444163 0.07393062
-0.06802883 0.07010876 0.13507816 -0.15424995 0.16931218 -0.0078715 -0.008145771 0.18647675
0.115659535 0.08453214 -0.09117455 -2.2175756 3.3466036 1.0815355 -0.19788763 0.14762942
-0.09343912 0.15114987 0.010219084 -0.10659885 -0.142467 -0.26399392 -0.09908057 0.15139143
-0.094172195 0.0017216735 -0.04443658 -0.01897954 0.9412345 -1.2580891 -1.8411102 0.13576376
-0.009298311 0.07052937 0.036782872 0.020537646 0.15815441 0.11865235 0.047374073 0.07514847
-0.0735431 0.043778017 0.028735178 -0.09757571 -0.12941496 1.2039276 -3.6638606 -0.46417212
-0.07704597 0.22457725 -0.1417372 -0.01907594 -0.038863864 -0.15512997 -0.20445192 -0.19823195
-0.14248964 0.16704965 0.1923234 0.14517136 0.16123722 -0.16730615 1.1897273 0.20312783
-2.125958 0.08836064 -0.23993744 -0.12287168 -0.1759781 0.059190754 -0.020596353 0.06830254
-0.20380789 0.24329071 0.13551071 -0.0085813645 -0.15907069 -0.1319897 -0.01261791 1.6654975
-1.4675457 -1.1920635 -0.34932443 -0.117493145 -0.046310592 -0.22953507 -0.16245605 0.22310069
0.0073710857 -0.13261613 0.04033241 -0.088162854 -0.06178353 -0.15458344 -0.10456029 -0.08936465
-1.8393536 4.7724166 0.50056493 -0.018914746 0.10254326 0.20352441 0.022447001 -0.05744969
0.23077856 0.028158946 0.017871508 -0.0029301408 -0.07163185 -0.00043440564 0.04359527 0.1685905
0.142445 2.1676514 -5.2973003 -0.5881083 0.1618121 -0.05106634 0.23049732 0.15846854
0.15359986 -0.02463949 -0.012178871 -0.1271399 0.0056810775 0.1489576 0.033230755 -0.12502038
-0.122720785 0.029194236 1.2500918 -1.5503012 -0.5918752 0.3238422 0.26929605 -0.11641505
0.042211 0.11663562 0.0051003913 -0.19443788 0.073978215 0.10158946 0.124163404 0.042044193
-0.20291723 0.03198828 0.051130358 -1.7887288 5.6585007 0.5227365 -0.089047514 0.054977827
-0.016072301 0.03976505 0.04067056 0.01583457 0.112368576 -0.12045807 -0.070641816 0.26689503
0.14433563 0.024430875 0.14280926 -0.07215286 -1.7879978 3.100194 2.3597262 -0.06799328
-0.018428905 -0.059560075 0.0773256 -0.22591631 -0.2708145 0.049126405 0.05558455 0.20285013
0.0275044 0.15930614 -0.1664345 0.15392287 -0.049224988 0.7337959 -2.9695144 0.0590014
0.11413192 0.1394542 0.07365462 0.037730068 -0.033007447 -0.23815176 -0.07227613 0.07691978
-0.02238472 -0.046041306 -0.115267694 -0.04827814 0.11056524 0.0947589 -1.0799564 5.263884
-0.24782495 0.04596569 0.13295703 0.063992776 -0.18447423 0.02473233 0.071731396 -0.09468034
0.096914686 0.057443976 -0.066925034 0.08456726 0.019698078 -0.004350614 -8.343387e-05 -0.6354911
-1.4475923 2.785649 0.025494818 0.032082558 0.027394915 -0.23161055 -0.17400338 -0.14271955
-0.28497478 0.18033914 -0.0038268971 0.057771053 -0.0073650815 0.15309715 -0.05408273 0.12835483
-1.3423848 4.7804055 0.68480855 -0.011476654 -0.28444546 0.025185855 0.2763885 0.10974905
-0.024508651 -0.10251524 0.11993702 0.13066006 0.087690994 -0.097846776 -0.113290586 0.025260126

net.0.bias f4 [128]
00000000: 3390 9d3e e6b5 e9bc cc65 c2be f55d 15be
00000010: a508 d7bc d885 3c3d 6d85 90be fafc 013e
00000020: 5084 8abe d4c3 98be fca0 3a3e bfe6 4abd
00000030: 5998 b53d d605 723e 7eb9 d7bd 6e4a 1dbe
00000040: 86d3 ecbd b72e 22be 1a75 63bc d92e fbbd
00000050: 5a49 b0be 5a5d 07be 7c8c 2a3e 9b63 0a3f
00000060: c823 49bd 431d cdbd 2f4a 86bd 42f5 9d3e
00000070: 1814 4dbe 380b 7f3e 968b bdbd 4ad2 6d3e
00000080: df36 dfbc 5942 353e a205 a53e b9c5 5d3e
00000090: a06c 55be 6f99 cc3d c36a 75be 0030 f9bc
000000a0: 37a6 203c 35a5 5cbe 95c4 053e 5ce9 f63d
000000b0: a2f9 65bd 1ec1 47be 2f15 f0bd cff0 2e3c
000000c0: fa2b 6cbc 181a 2e3d 9c86 81be 905a 8bbe
000000d0: b022 be3e 3f8f d83d 4bcf e43e a829 99be
000000e0: 53f8 6a3e 449d 813e fdc4 5d3c d48c 65bb
000000f0: 88b6 933d 4bc9 71bd b3db d0be 11d8 6e3e
00000100: 954f 423e 8b86 01bf 927e 91be 0268 813e
00000110: 1d49 f63d d272 60be af70 e63d 2869 f2be
00000120: 3827 ca3c 3696 24be beff 023f 4b64 cabc
00000130: 4baa 873e 5b58 883e 408a b3bd 77a8 b23e
00000140: 67fc 8a3e e50c 2c3e de9e 0c3e ce8f 893d
00000150: 1557 253e 37ce fd3d f769 1ebe 17b9 0abe
00000160: 2166 cb3d cf76 c33d 1505 6a3d 5289 28be
00000170: a308 063e c6a4 383e 1749 f3bd be1f 9e3e
00000180: 74e2 f13d d8df 81be 0df4 60be cf21 533e
00000190: 2591 823e d8f8 44be 49aa 67be 6c93 e6bc
000001a0: 6417 a03e 37f4 913e 083b d0bc d69b b13d
000001b0: 6992 c83d 3efc 7d3d fe58 a03a 26b2 353e
000001c0: 88a5 8cbe 7e5b 463e f719 0cbe f2b4 87be
000001d0: 4992 c8bd c9bc 673e e401 1e3e 131f a43d
000001e0: a458 f4bd 8ba3 853d 3a40 a1bd d064 5d3e
000001f0: 142f acbe b373 1e3d 6572 833e bae6 bf3d
0.30774078 -0.028529119 -0.3796829 -0.14586623 -0.02624924 0.04602608 -0.28226796 0.12694159
-0.2705407 -0.29836905 0.18225473 -0.049536463 0.08866949 0.23635039 -0.10533427 -0.15360424
-0.115637824 -0.15838133 -0.0138829 -0.12264795 -0.34430963 -0.13219205 0.16655153 0.54058236
-0.04910639 -0.10015347 -0.06557118 0.3085118 -0.20027196 0.24906623 -0.092551395 0.2322475
-0.027247844 0.17701091 0.3223086 0.21657456 -0.20842218 0.09990203 -0.23966508 -0.030418396
0.009805254 -0.21547396 0.13063271 0.120562285 -0.05614627 -0.19507262 -0.117227904 0.01067753
-0.014414782 0.042505354 -0.2529801 -0.2721753 0.3713584 0.10574197 0.44689402 -0.29914594
0.2294629 0.25315297 0.013535735 -0.0035026567 0.072125494 -0.05902986 -0.40792617 0.2332461
0.1897567 -0.5059592 -0.28416878 0.25274664 0.12025664 -0.219188 0.112519614 -0.47345853
0.024676904 -0.16072926 0.5117148 -0.024706027 0.2649711 0.2662991 -0.087666035 0.34894153
0.27145693 0.16801794 0.13732478 0.06716882 0.161465 0.12392848 -0.1547011 -0.13547169
0.09931589 0.09544145 0.057133753 -0.16458634 0.13089232 0.18031606 -0.11879175 0.30883592
0.11810771 -0.25366092 -0.21968098 0.20618366 0.2550136 -0.19235551 -0.22623552 -0.028146468
0.31267846 0.28506634 -0.025418773 0.086723015 0.097935505 0.062008135 0.0012233553 0.1774374
-0.2747004 0.19370839 -0.1368178 -0.26505238 -0.09793527 0.2263061 0.15430409 0.080137394
-0.11930969 0.06525334 -0.07873578 0.21620488 -0.33629668 0.038684558 0.25673214 0.093701795

net.2.weight f4 [128, 128]
00000000: 0cf0 d9bd a96b acbc c6fa 30bd cf04 623d
00000010: 9ca9 b6bd 776e d93d c20a 74bd 5e5f 543d
00000020: 8590 00bd b34b 04be aeeb 29be 16ff eb3d
00000030: 09cc 8ebc cb1e 35bb fced 02be 9a0f 41be
00000040: f587 593d 96c6 fcbd a28e f2bc 4df3 35be
00000050: f655 22bd 7777 3d3d 2e51 cd3d 8819 4b3d
00000060: 8d2e 00be c79c d2bd 7e5c 87bd ae44 7a3d
00000070: ed1d 82bd d331 1f3e ced1 62be 37d9 e33d
00000080: 4b34 20be 3614 453a 3be9 a4be 53c6 bd3c
00000090: d245 d5bd 10e8 b83c bd4c 243d bc5e be3d
000000a0: e385 b3ba 7286 ea38 1e25 34bd 56ed 2bbe
000000b0: a511 febd 52c4 da3b 8e8a 27bd 8bb0 51bd
000000c0: 4ec8 8ebb fe50 f6bb ffd6 763d f9c3 3abe
000000d0: 8d99 a8bc 9b9e 17be 920e 013e e5d1 a53d
000000e0: ea79 bcbd 9f08 79bc f261 fabd f148 c1bd
000000f0: b148 acbc 5723 febc eb1f afbd 981e 893b
00000100: 7791 92bd a313 c8bd ebcd e03d 591b 6cbd
00000110: e756 78bd 5ee7 33bd 21b7 ce3d bc1b fb3c
00000120: a202 a0bd be99 41bd 8508 73bd dd23 00be
00000130: 4629 72bd 0e22 cd3d ca60 8dbe 3447 013e
00000140: 51cb 8b3d c3ff 02bc 6b4e 32bd 1e57 523c
00000150: b978 c13d f02b e0bd bcab 1bbe 115e dc3d
00000160: 2e64 efbd 3924 00bd f5f1 4bbe ac53 7ebd
00000170: 7664 32bd 06ad 5cbd 2bb8 603d 9749 cabe
00000180: f7d6 bf3c 7d7a 0a3d e5d1 d63c 48de 17bd
00000190: 8aab 113d b427 93bc 923f bcbd fd6f 8fbb
000001a0: 1992 e8be 8f2c c43d 38a1 23bd b24c c63d
000001b0: a9bd 653c bd6f 813d b80c d73d 32bf 88be
000001c0: 5e60 c53d c133 293d b4f7 40bd a3ba a7bd
000001d0: 89d5 54bd b0ac 1ebd db2e d4bc fc89 63bc
000001e0: ca71 91bc 8dff 0dbe d854 86bd fd2e 983d
000001f0: c2fc 02be b547 143d 4be4 14be 1355 f4bd
00000200: 8721 15be 711f d4bd 5925 93bd 38cf b2bc
00000210: 3ffc d3bd 3cbd f23d b607 1f3e 0496 6d3c
00000220: 2b95 abbe 64cb 3d3d 0521 de3d 70ed 47bc
00000230: be1b 0f3e 9457 1dbe 759d 1ebe 706b 00bd
00000240: 4024 8abd 643c 3c3e d0c5 28be af03 173d
00000250: 1129 db3c c826 bfbc e7a6 a23d cff5 c1bc
00000260: ec94 133d 5cc8 b33d 4d9f 23be 3892 06bd
00000270: 80fc 953d 9ca6 86bc 5d79 3dbd a9e2 6fbe
00000280: f4e2 efbd 0e16 96bd 3449 da3c a17c 54be
00000290: dfc8 7bbc 73b6 f3bd d334 afbd a1ba 613c
000002a0: d5dd c7bd 0898 2d3b 03f7 843d 43e5 d03c
000002b0: c578 9abd 6a15 54bd 10d3 f43c 3f56 c43c
000002c0: 8652 bcbd 6b29 153e 8e7f 66bb fee4 973d
000002d0: 7b63 97bd 86ae 90bd 5b90 433d 53d7 e4bd
000002e0: 6d65 333e 5311 46be b5a5 313d 858a aebd
000002f0: aaa2 08bd 12ea 263e 572e b53d b303 bfbd
00000300: 0935 17bd dd91 863c 1fa9 83bd 906c 463d
00000310: 94ad f4bd 62a0 483d 7cc7 a33d 1736 803b
00000320: 74f1 b3bd f014 be3d 8c1a a6bd 45ea debd
00000330: d630 223d 9b5a 22be 9ccb b3bc d826 82bd
00000340: ee15 39be b985 90bd 0715 1d3e adce d33c
00000350: f78b bebd f32d d53c 6a78 d43d 66ef c9bc
00000360: 7712 4abe f619 b63d 9292 9cbd f79a 723d
00000370: 5438 8f3c be60 c7bc 1fba febd 46d7 0bbd
00000380: cf77 16bd 895c a9bd e046 303e 4183 27be
00000390: 0af7 f9bd aabb cbbe b4d3 123d fca3 9ebd
000003a0: cb42 6cbd b981 c3be 37c4 d9bd b16d dbbd
000003b0: f9ae f9bd d197 4c3c d5b2 00be b755 153e
000003c0: b7f3 463d ada1 7f3c 0cfa c6be 8e95 243e
000003d0: f4a6 f13c 949d 73bd 47bd bcbd 290a 0dbe
000003e0: 87b4 8bbd 5a9e aa3d e307 483d a3fa 1fbe
000003f0: 45a5 3c3d 4614 0b3e e7c2 033e 014e d53d
-0.106414884 -0.02104743 -0.043207906 0.055180367 -0.08919069 0.106167726 -0.059580572 0.05184876
-0.031387825 -0.12919502 -0.16593811 0.11523263 -0.017431276 -0.0027636762 -0.12786096 -0.18853608
0.053108174 -0.12342565 -0.029609028 -0.17768593 -0.03963276 0.04625651 0.100252494 0.049584895
-0.12517758 -0.10283809 -0.06609438 0.061100654 -0.06353364 0.1554635 -0.22150347 0.11125415
-0.15644948 0.0007517965 -0.3220919 0.023165857 -0.10413708 0.022571594 0.040112246 0.09295413
-0.0013696518 0.00011183032 -0.04398071 -0.16789755 -0.12405709 0.0066762352 -0.04090362 -0.051193755
-0.0043573743 -0.0075169792 0.06026363 -0.1823882 -0.020581031 -0.14806597 0.12603214 0.08096675
-0.09202941 -0.015199809 -0.12225713 -0.094377406 -0.021030756 -0.03102271 -0.0855101 0.0041845553
-0.071566515 -0.097693704 0.10976776 -0.05764327 -0.06062975 -0.04392182 0.10093523 0.030652873
-0.07813002 -0.04726576 -0.059334297 -0.12513681 -0.059121393 0.10016261 -0.27612907 0.12624818
0.06825889 -0.007995549 -0.043531816 0.012838153 0.09446854 -0.109458804 -0.1520223 0.10760129
-0.1168903 -0.031284545 -0.19916518 -0.062091514 -0.04355284 -0.053875946 0.054863136 -0.3950927
0.023417933 0.03380822 0.026223132 -0.03707722 0.035563983 -0.017963268 -0.091918126 -0.0043773637
-0.45423964 0.095788114 -0.039948672 0.09682597 0.014022269 0.063201405 0.10500473 -0.2670837
0.09637521 0.041309122 -0.047111228 -0.08189895 -0.051961455 -0.038738906 -0.025901249 -0.0138878785
-0.017754454 -0.13867016 -0.065591514 0.07430837 -0.12791732 0.036201198 -0.14540212 -0.11930289
-0.14563571 -0.103575595 -0.07184858 -0.021827325 -0.103508465 0.118525 0.15530285 0.014501099
-0.33512244 0.046336547 0.10846142 -0.012202606 0.13975427 -0.1536544 -0.15489753 -0.03135246
-0.067451954 0.18382412 -0.1648171 0.036868747 0.02675298 -0.023333922 0.0794199 -0.023676781
0.036030695 0.0877845 -0.15978737 -0.03285429 0.07323551 -0.016436867 -0.04625832 -0.23426308
-0.1171321 -0.07328425 0.026646234 -0.20750667 -0.015367716 -0.11900034 -0.08554997 0.013777406
-0.09759108 0.0026488323 0.06492426 0.025499946 -0.07542566 -0.051778235 0.029885799 0.023966907
-0.091954276 0.14566581 -0.0035171243 0.07416724 -0.07392021 -0.07064538 0.04774509 -0.11173882
0.1751916 -0.19342546 0.04337092 -0.08522514 -0.033358254 0.16300228 0.08846729 -0.093268774
-0.036915813 0.016426975 -0.06428742 0.048443377 -0.1194717 0.048981078 0.07997033 0.003912698
-0.08786288 0.09281337 -0.08110532 -0.10884527 0.039597355 -0.15854876 -0.021947674 -0.06355065
-0.18074772 -0.070567556 0.15340053 0.025855387 -0.0930404 0.026022887 0.1037453 -0.024650287
-0.19733606 0.088916704 -0.076451436 0.059229817 0.017482914 -0.024338122 -0.124378435 -0.034140848
-0.036735352 -0.08269603 0.17214537 -0.16358663 -0.12205322 -0.39791614 0.035846427 -0.07746121
-0.057680886 -0.38184908 -0.10633128 -0.10714281 -0.121915765 0.012487368 -0.12568219 0.14583479
0.04857227 0.015602511 -0.38862646 0.16072676 0.029498555 -0.05947645 -0.09215789 -0.13773407
-0.06821542 0.083309844 0.048835646 -0.15622954 0.04605605 0.13581952 0.12867318 0.10415269
