src/training_logs_ppo/initial/ppo_checkpoint_144_1764186099.pt (torch, 480155 bytes, 42 tensors)

move_logstd f4 [2]
1.5200055 1.5124863
00000000: 8a8f c23f 2799 c13f

shared.0.weight f4 [128, 17]
0.16313967 -0.13520285 -0.2264217 0.17736195 0.13213117 -0.16577268 -0.10019683 0.13117819
0.21712129 -0.16808145 0.11573748 -0.18181625 -0.10915055 -0.06373537 0.03932942 0.075207874
-0.1092979 -0.0669838 -0.07299049 0.07426664 0.15332906 -0.274684 0.2679426 -0.17260604
-0.01674006 -0.09282275 -0.23053038 -0.1208754 -0.06637539 0.20775309 0.03197631 0.059013683
-0.12184615 -0.12765346 0.16273455 0.25508577 0.08217861 0.03654362 -0.34124112 -0.124862246
-0.048538826 -0.111411445 -0.08594342 -0.06732442 -0.10429042 0.032035396 0.21169658 -0.1482375
0.15139611 0.04905956 0.057817463 0.0033342168 -0.104579955 -0.3101148 0.051165383 0.02529367
0.16183671 0.13651423 0.014983724 0.1523879 -0.018661741 0.07951406 -0.0067857667 -0.05274984
-0.09654183 0.014641034 -0.11525405 0.17617607 0.13806282 0.16986308 -0.22169718 0.206725
0.03755507 0.176068 -0.047073726 0.08990537 -0.1729803 0.17391837 0.09623111 0.1034965
0.12280421 0.015501849 -0.024418112 -0.035377827 0.08391779 -0.11884 0.08340571 -0.121810816
-0.28459316 -0.273834 0.013212307 0.2542386 -0.19149236 0.19435243 0.069293454 0.07490835
0.13863377 0.096457355 -0.103393786 -0.124272786 -0.035646755 0.0010032941 0.047148205 -0.022241082
-0.12893353 0.08806363 -0.010860627 0.07434672 -0.29067874 -0.04926674 0.3027533 -0.031164242
-0.24727964 -0.19546814 0.07956794 -0.038200177 0.013891442 -0.10342127 -0.010228276 -0.16002214
0.033608638 0.0660068 0.112878546 0.025633393 -0.2159757 -0.20217681 0.20029184 -0.078692585
-0.13729824 0.02471818 -0.024883538 -0.15857044 -0.1792337 0.17017372 0.012829781 -0.057238907
-0.12355961 0.07342857 -0.03634105 -0.044353016 -0.03613475 -0.17065813 -0.010922303 0.22367908
0.12088775 -0.2641102 0.032114852 -0.0809839 0.10578806 -0.11887026 -0.19333737 0.069783956
-0.16333632 0.14522849 0.006648409 0.04486522 -0.34975073 -0.20383106 -0.09712086 -0.007723439
0.0872375 0.12561062 0.22069183 -0.09779109 0.092667066 -0.201292 -0.11710979 0.095504835
0.060337167 0.061871704 -0.12000598 0.100977935 -0.12857759 -0.01887807 -0.1741647 0.17605601
-0.12214296 -0.19144449 -0.14942276 -0.17719398 0.2223632 -0.09513775 -0.16360952 0.057562273
0.115131095 0.08832702 -0.11795213 -0.07967426 -0.11572489 0.099381305 -0.13961086 0.017313087
0.2298342 0.24580029 0.19305676 -0.02715636 -0.104670204 -0.23207581 0.10579626 -0.07428955
-0.062416542 -0.104752466 -0.0775303 -0.096125774 0.013325904 -0.15421575 -0.18704444 0.047482837
-0.061430518 -0.26528543 0.16586742 -0.07194503 -0.09163004 0.08684289 -0.064443216 -0.04563635
-0.10945336 -0.038369168 -0.004823447 0.042968534 -0.08400262 0.11639511 0.024605438 -0.1671003
0.095895275 -0.040077213 0.23396994 -0.21756586 0.035145424 0.18299781 -0.07273208 -0.10317954
0.06312426 0.07704235 0.03784474 -0.03325272 0.13412423 -0.09633974 -0.08321567 0.049165234
-0.11288801 -0.12771946 -0.22884795 -0.2300482 0.14786243 -0.18326356 0.20223069 0.062624216
0.069534816 -0.054413352 -0.054617703 0.01093159 0.18650684 -0.22433795 -0.07262426 0.015629465
00000000: 160e 273e 9e72 0abe 17db 67be 5f9e 353e
00000010: 654d 073e 50c0 29be ff33 cdbd 9353 063e
00000020: 0b55 5e3e 8b1d 2cbe c607 ed3d 0a2e 3abe
00000030: 538a dfbd b187 82bd e317 213d 9606 9a3d
00000040: 94d7 dfbd cd2e 89bd 0a7c 95bd 1c19 983d
00000050: 4b02 1d3e 62a3 8cbe c62f 893e a3bf 30be
00000060: 7322 89bc db19 bebd 2810 6cbe 868d f7bd
00000070: d2ef 87bd 3abd 543e 97f9 023d 55b8 713d
00000080: 798a f9bd 97b7 02be e3a3 263e 9a9a 823e
00000090: 424d a83d c3ae 153d 28b7 aebe c7b7 ffbd
000000a0: a6d0 46bd af2b e4bd 1b03 b0bd 63e1 89bd
000000b0: 3796 d5bd 8c37 033d fdc6 583e 92cb 17be
000000c0: 9507 1b3e adf2 483d 01d2 6c3d e082 5a3b
000000d0: 042e d6bd 5ec7 9ebe cb92 513d ac34 cf3c
000000e0: 86b8 253e 63ca 0b3e 4b7e 753c 930b 1c3e
000000f0: 82e0 98bc 44d8 a23d 235b debb 3710 58bd
00000100: b9b7 c5bd f3e0 6f3c 510a ecbd 8067 343e
00000110: 5760 0d3e 96f0 2d3e 9604 63be b8af 533e
00000120: 58d3 193d 2b4b 343e 61d0 40bd 4e20 b83d
00000130: bf21 31be a817 323e d114 c53d f9f5 d33d
00000140: c680 fb3d 78fb 7d3c 7e08 c8bc 57e8 10bd
00000150: 17dd ab3d 6362 f3bd 9dd0 aa3d f377 f9bd
00000160: 32b6 91be f833 8cbe 6f78 583c 902b 823e
00000170: 9316 44be 5304 473e bae9 8d3d 8d69 993d
00000180: 03f6 0d3e 6f8b c53d 1fc0 d3bd bb82 febd
00000190: 5502 12bd f780 833a 7a1e 413d ee32 b6bc
000001a0: 2707 04be b45a b43d c5f0 31bc 1843 983d
000001b0: d8d3 94be eccb 49bd 7b02 9b3e 274c ffbc
000001c0: e036 7dbe cd28 48be 84f4 a23d ca77 1cbd
000001d0: ee98 633c 88ce d3bd 8094 27bc d8dc 23be
000001e0: 36a9 093d 932e 873d de2c e73d 1ffd d13c
000001f0: bc28 5dbe 7007 4fbe 4e19 4d3e 9429 a1bd
00000200: e997 0cbe c87d ca3c 90d8 cbbc 4a60 22be
00000210: 0a89 37be 0542 2e3e 0034 523c 5873 6abd
00000220: d20c fdbd b861 963d 5ada 14bd 82ab 35bd
00000230: 0802 14bd 01c1 2ebe 76f3 32bc 210c 653e
00000240: ff93 f73d 7439 87be dd8a 033d e3da a5bd
00000250: 69a7 d83d 4072 f3bd 3bfa 45be e4ea 8e3d
00000260: a341 27be c7b6 143e e6da d93b 98c4 373d
00000270: 8712 b3be 17b9 50be 4de7 c6bd e714 fdbb
00000280: 93a9 b23d 12a0 003e 0afd 613e b246 c8bd
00000290: 3bc8 bd3d 7d1f 4ebe 42d7 efbd 0a98 c33d
000002a0: 1b24 773d 2f6d 7d3d b2c5 f5bd 85cd ce3d
000002b0: d8a9 03be 2fa6 9abc 3b58 32be 0748 343e
000002c0: 1726 fabd 060a 44be 4802 19be 5772 35be
000002d0: 2eb3 633e 95d7 c2bd 4189 27be 6bc6 6b3d
000002e0: dac9 eb3d cce4 b43d e390 f1bd 422c a3bd
000002f0: 2c01 edbd 6d88 cb3d 26f6 0ebe 2dd4 8d3c
00000300: a859 6b3e 12b3 7b3e acb0 453e 0477 debc
00000310: 555d d6bd 48a5 6dbe b6ab d83d 1f25 98bd
00000320: 7da8 7fbd 7688 d6bd 35c8 9ebd 97dd c4bd
00000330: e454 5a3c bcea 1dbe 9488 3fbe 5d7d 423d
00000340: 919e 7bbd 7ed3 87be 26d9 293e ea57 93bd
00000350: 88a8 bbbd afda b13d cefa 83bd 2eed 3abd
00000360: 1529 e0bd fd28 1dbd 020e 9ebb c6ff 2f3d
00000370: 9109 acbd 8f60 ee3d 5891 c93c 571c 2bbe
00000380: be64 c43d 0128 24bd d195 6f3e 96c9 5ebe
00000390: a6f4 0f3d c763 3b3e 8ff4 94bd cb4f d3bd
000003a0: 4b47 813d 61c8 9d3d 1603 1b3d 0134 08bd
000003b0: dd57 093e c54d c5bd fa6c aabd 7c61 493d
000003c0: d431 e7bd e4c8 02be 1e57 6abe c191 6bbe
000003d0: 4069 173e 71a9 3bbe 9015 4f3e 2041 803d
000003e0: 4568 8e3d 89e0 5ebd d0b6 5fbd 691a 333c
000003f0: a6fb 3e3e d9b8 65be 07bc 94bd 5d09 803c

shared.0.bias f4 [128]
-0.101309866 -0.319789 -0.122982316 -0.22469954 -0.085362844 -0.010441753 -0.01702933 0.1758241
-0.2938121 -0.11096063 0.113718994 -0.24498358 0.03926696 -0.061546918 -0.018706556 -0.19759516
-0.13134153 0.2140572 0.1360124 -0.24576807 -0.11049635 0.014477545 -0.0052313474 0.025053173
-0.058702115 -0.15328954 0.0365787 -0.024246667 0.16327168 -0.23920548 -0.022961903 -0.27183995
-0.10426713 -0.0474888 -0.24753736 0.040946737 -0.17287455 -0.2593735 -0.02087292 -0.08686328
-0.29357824 -0.25634283 -0.0024411045 -0.15243736 0.16032095 -0.2569205 0.20734541 -0.28377828
0.15881324 -0.10640879 -0.29298866 -0.112844996 -0.20193323 -0.054267667 -0.005557464 -0.008475468
0.07657873 -0.24648407 -0.09821378 -0.13391331 -0.06969641 -0.04838769 -0.104340196 -0.118757665
-0.22764325 -0.12973854 -0.29377604 -0.39982438 -0.10648567 0.014190548 -0.358237 -0.19595316
0.03602253 0.18395121 0.0114729265 -0.1348056 0.1952815 -0.24214406 -0.17530732 -0.12442221
-0.10045474 -0.26514283 -0.39556292 -0.17021976 -0.14818472 -0.15113948 -0.026036354 -0.015721347
-0.049913317 -0.20281523 0.04357231 -0.040336918 -0.13873178 0.19105074 -0.24366166 0.17674026
-0.22833133 -0.27722272 0.21871215 -0.10135548 0.19804886 -0.14543782 0.15491818 0.0024928898
0.06867998 -0.033775434 -0.06376125 -0.08653556 -0.03222975 -0.17318115 0.028562404 -0.20771301
-0.18764059 -0.28661814 -0.023772568 -0.17505209 -0.16846398 -0.0809342 -0.29997975 -0.010894023
-0.0492181 -0.27150872 -0.17522371 -0.21476103 -0.1849844 0.09096586 -0.31371868 0.021691753
00000000: 8c7b cfbd 62bb a3be 27de fbbd a317 66be
00000010: b7d2 aebd e313 2bbc 1881 8bbc 3c0b 343e
00000020: 8a6e 96be 543f e3bd 81e5 e83d fadc 7abe
00000030: 64d6 203d 9f18 7cbd 7e3e 99bc 6356 4abe
00000040: 657e 06be d031 5b3e d646 0b3e a0aa 7bbe
00000050: e94b e2bd 3a33 6d3c b96b abbb 503c cd3c
00000060: a171 70bd eff7 1cbe 8cd3 153d f2a0 c6bc
00000070: b130 273e 48f2 74be 9a1a bcbc 9b2e 8bbe
00000080: 018a d5bd 9e83 42bd 6f7a 7dbe c4b7 273d
00000090: 0706 31be 9acc 84be b0fd aabc 60e5 b1bd
000000a0: e34f 96be 5e3f 83be f0fa 1fbb 8a18 1cbe
000000b0: 2d2b 243e 158b 83be 5b52 543e 634b 91be
000000c0: f09f 223e daec d9bd 9c02 96be 471b e7bd
000000d0: 96c7 4ebe c647 5ebd 631b b6bb b0dc 0abc
000000e0: 4fd5 9c3d 5266 7cbe 4e24 c9bd 9220 09be
000000f0: febc 8ebd 2c32 46bd 50b0 d5bd 3837 f3bd
00000100: 501b 69be 2eda 04be d069 96be c8b5 ccbe
00000110: 2915 dabd 797f 683c d76a b7be f2a7 48be
00000120: 5c8c 133d b55d 3c3e f1f8 3b3c 7b0a 0abe
00000130: e0f7 473e 9df4 77be c383 33be 12d1 febd
00000140: 37bb cdbd cdc0 87be 3987 cabe 174e 2ebe
00000150: bcbd 17be 4fc4 1abe 314a d5bc 0eca 80bc
00000160: e871 4cbd ccae 4fbe e178 323d 5338 25bd
00000170: b40f 0ebe cea2 433e 7182 79be 66fb 343e
00000180: b0cf 69be 23f0 8dbe 14f6 5f3e 7693 cfbd
00000190: 52cd 4a3e a7ed 14be dfa2 1e3e c05f 233b
000001a0: 17a8 8c3d 1c58 0abd 4295 82bd 8e39 b1bd
000001b0: 5803 04bd 6656 31be b4fb e93c b8b2 54be
000001c0: db24 40be 9dbf 92be b0be c2bc db40 33be
000001d0: d281 2cbe d4c0 a5bd f296 99be d87c 32bc
000001e0: eb98 49bd 3103 8bbe d86d 33be 51ea 5bbe
000001f0: 8d6c 3dbe 4f4c ba3d bc9f a0be e7b2 b13c

shared.2.weight f4 [128, 128]
0.025553752 0.048459403 0.056643117 -0.021730058 0.06581817 0.053116113 -0.044071816 0.034476556
-0.015181052 0.06381761 -0.0021016868 -0.08012759 -0.08218886 0.035097368 0.026885962 0.083254926
0.036034875 -0.035929903 -0.0011508459 0.0027133669 0.0118070375 -0.09206048 -0.068536356 0.024956483
0.08288247 -0.08221644 -0.023790998 -0.006896274 -0.12393683 -0.062808774 -0.019720094 0.013824809
-0.012502529 -0.005162363 0.06323839 -0.031673137 0.06456842 -0.09698454 0.047344584 -0.07320897
0.020500747 -0.100427315 -0.08370373 0.04463905 -0.002514179 -0.07851873 -0.06527518 0.043963913
-0.02552617 -0.08295538 0.02596578 -0.059860114 0.037828464 0.0072838124 -0.028205281 0.05127002
0.04494376 -0.06276939 -0.008040131 0.036184613 -0.03669043 -0.051880207 -0.03405708 -0.053468145
0.062637135 0.048920237 0.0045065163 -0.019867096 -0.09959783 0.0044441223 -0.050652243 0.02362322
-0.023579836 -0.070637636 -0.062949024 -0.05291733 -0.048235778 -0.073789924 -0.039240554 0.03668046
-0.033604596 -0.03870545 -0.12665273 -0.09669307 -0.022628337 -0.03647429 -0.0151903685 -0.1383506
-0.09049364 -0.031644262 0.01945164 -0.05257845 0.02390479 0.035166398 0.050904635 -0.04681678
-0.094768286 0.004659499 -0.065263435 0.036252026 -0.08332988 0.03129906 -0.14820968 -0.11349402
-0.07777115 -0.0019568095 -0.09584513 0.011791014 0.07281533 -0.063901104 0.037119187 -0.034422304
-0.09631595 0.033921465 0.00061430986 -0.015226989 0.035385333 -0.09684798 -0.065665014 -0.014283454
-0.044270776 -0.050600898 -0.055283193 0.013634896 0.030231154 0.018065726 -0.067247346 -0.025690082
-0.04249255 -0.0032227999 -0.08920158 -0.116391525 0.016906848 0.04732462 -0.0807355 0.063936815
0.06501576 0.0073206197 -0.06909606 -0.022294171 -0.117026046 0.038991258 0.01819221 0.052371975
0.027539354 -0.07257542 -0.03763672 0.024276113 -0.10138282 -0.024688995 -0.06325084 0.016178455
-0.005910658 -0.008640152 0.035803568 -0.07696905 -0.045677338 -0.051553134 -0.053468753 -0.091715574
-0.012242604 -0.06687207 -0.04022572 0.039398976 -0.107631385 0.020085167 -0.05142069 -0.11797609
-0.10180442 -0.005006299 0.055171728 -0.008342056 0.04224363 -0.077759996 0.061660714 0.061251048
0.004006598 -0.05728322 -0.075842805 -0.06870662 0.05603364 0.027229352 0.04507149 0.05969407
-0.09411531 -0.00017144938 -0.07361682 0.04406234 -0.05608759 -0.11122129 -0.057840798 -0.005941818
-0.0368163 -0.066582605 0.031257242 -0.068223864 0.07557065 0.056581598 0.0044527873 0.055281248
-0.064637884 0.030386532 -0.12380462 -0.021099152 -0.07240355 -0.041956283 -0.044212125 -0.15197064
0.028935095 -0.0013995948 -0.005116109 0.024939407 -0.07714232 -0.0068573533 0.0365135 -0.043815795
0.06614442 -0.06362979 -0.027012596 0.0036568057 -0.08575441 -0.08551591 -0.073483184 0.031643655
-0.0273933 0.00017263365 -0.098543696 -0.15248436 -0.12791875 0.0009182813 0.04637058 -0.05922657
-0.05005898 -0.066122964 0.054823462 -0.030088907 0.0028441518 -0.01324185 0.061695118 -0.061592504
0.071638264 0.00048164383 -0.005819832 0.0048696743 -0.033700395 -0.07503284 0.039030094 -0.03638928
-0.104807794 -0.03741052 -0.09651374 -0.06363625 -0.010119952 -0.100432016 -0.11859073 -0.02711794
00000000: 1a56 d13c 5e7d 463d 9d02 683d 3c03 b2bc
00000010: adcb 863d 4890 593d a684 34bd 4a37 0d3d
00000020: f2b9 78bc cfb2 823d 74bc 09bb ef19 a4bd
00000030: a252 a8bd 42c2 0f3d f33f dc3c 8f81 aa3d
00000040: 4e99 133d 3c2b 13bd fbd7 96ba bed2 313b
00000050: 4e72 413c 348a bcbd ca5c 8cbd 8a71 cc3c
00000060: 49be a93d 1861 a8bd 57e5 c2bc 24fa e1bb
00000070: 98d2 fdbd e3a1 80bd 098c a1bc 7481 623c
00000080: 68d7 4cbc 0a29 a9bb 2183 813d b1bb 01bd
00000090: 733c 843d d59f c6bd 65ec 413d 96ee 95bd
000000a0: 2ff1 a73c d6ac cdbd dc6c abbd 70d7 363d
000000b0: edc4 24bb 6ece a0bd feae 85bd 8113 343d
000000c0: 421c d1bc 83e4 a9bd 30b6 d43c e12f 75bd
000000d0: 05f2 1a3d 0cad ee3b c30e e7bc 8300 523d
000000e0: f316 383d 3d8d 80bd c1ba 03bc 5136 143d
000000f0: b448 16bd 5780 54bd 707f 0bbd 6a01 5bbd
00000100: e647 803d 9660 483d 66ab 933b 52c0 a2bc
00000110: f2f9 cbbd 00a0 913b ba78 4fbd 7c85 c13c
00000120: 802a c1bc 77aa 90bd 6beb 80bd d8bf 58bd
00000130: e192 45bd 2c1f 97bd b4ba 20bd 403e 163d
00000140: f9a4 09bd 9b89 1ebd 41b1 01be 0407 c6bd
00000150: 105f b9bc 1166 15bd 06e1 78bc c8ab 0dbe
00000160: bb54 b9bd 6a9d 01bd 0c59 9f3c 805c 57bd
00000170: fad3 c33c a40a 103d 6181 503d f4c2 3fbd
00000180: e015 c2bd b6ae 983b d6a8 85bd 017d 143d
00000190: dba8 aabd 7133 003d 47c4 17be 8e6f e8bd
000001a0: 7b46 9fbd d13d 00bb 744a c4bd 192f 413c
000001b0: 3420 953d 95de 82bd 4a0a 183d 67fe 0cbd
000001c0: 4c41 c5bd 3cf1 0a3d a309 213a 9f7a 79bc
000001d0: 36f0 103d 3c58 c6bd 617b 86bd 2605 6abc
000001e0: 4655 35bd e342 4fbd a170 62bd e664 5f3c
000001f0: 53a7 f73c 93fe 933c fab8 89bd 0274 d2bc
00000200: ab0c 2ebd 9c35 53bb 51af b6bd ae5e eebd
00000210: 3b80 8a3c 76d7 413d a758 a5bd 4ef1 823d
00000220: fc26 853d cfe1 ef3b 3c82 8dbd 44a2 b6bc
00000230: 5aab efbd 4cb5 1f3d d407 953c ff83 563d
00000240: 369a e13c 6ca2 94bd f628 1abd b3de c63c
00000250: cca1 cfbd 9340 cabc a889 81bd ae88 843c
00000260: 31ae c1bb 6d8f 0dbc c3a6 123d f3a1 9dbd
00000270: 2918 3bbd 6129 53bd 0d02 5bbd 60d5 bbbd
00000280: 3495 48bc 39f4 88bd b9c3 24bd d260 213d
00000290: d86d dcbd a689 a43c 809e 52bd 739d f1bd
000002a0: d67e d0bd e10b a4bb c0fb 613d 1ead 08bc
000002b0: a807 2d3d a240 9fbd f28f 7c3d 61e2 7a3d
000002c0: c849 833b cfa1 6abd 7953 9bbd 0eb6 8cbd
000002d0: 8883 653d 1710 df3c e29c 383d c581 743d
000002e0: 87bf c0bd 18c7 33b9 6ac4 96bd b67a 343d
000002f0: 1abc 65bd fdc7 e3bd 79ea 6cbd 95b3 c2bb
00000300: b0cc 16bd 765c 88bd 9807 003d f4b8 8bbd
00000310: c9c4 9a3d 1bc2 673d b0e8 913b 976e 623d
00000320: de60 84bd 2ded f83c 478d fdbd 21d8 acbc
00000330: 5048 94bd 5ada 2bbd c617 35bd 319e 1bbe
00000340: 4b09 ed3c 9c72 b7ba 08a5 a7bb ba4d cc3c
00000350: cbfc 9dbd a6b3 e0bb 2e8f 153d 3178 33bd
00000360: ba76 873d 5650 82bd 8549 ddbc 05a7 6f3b
00000370: 02a0 afbd f722 afbd 5a7e 96bd c79c 013d
00000380: ea67 e0bc fe04 3539 47d1 c9bd dc24 1cbe
00000390: 22fd 02be d1b8 703a 14ef 3d3d 8f97 72bd
000003a0: a50a 4dbd 7a6b 87bd 918e 603d 037d f6bc
000003b0: f364 3a3b 58f4 58bc 05b4 7c3d 6c48 7cbd
000003c0: 15b7 923d 2485 fc39 4ab4 bebb ca91 9f3b
000003d0: 6d09 0abd d1aa 99bd 05de 1f3d ed0c 15bd
000003e0: 78a5 d6bd c63b 19bd ffa8 c5bd b953 82bd
000003f0: 28ce 25bc 4daf cdbd b2df f2bd 7126 debc

shared.2.bias f4 [128]
-0.0546298 -0.09877184 -0.1142108 0.02300533 -0.016039914 0.024194874 0.04624277 0.036921468
-0.114249185 0.017173812 -0.09768929 -0.024739288 0.015895624 -0.070275486 -0.00039228742 -0.13187698
-0.019547377 -0.08587534 0.02537571 -0.08373752 -0.098814115 0.05467982 -0.07980595 -0.0016624358
-0.015307281 0.009489451 0.021229913 0.020961074 -0.07511211 -0.029424971 -0.10174542 0.002663119
0.04175177 -0.024091456 -0.053986583 0.031097686 -0.09547654 -0.038233656 -0.091831446 -0.07422025
-0.07548372 -0.008349548 0.030837545 -0.08534541 -0.116505 -0.06323533 0.0075263856 0.031246949
-0.021515349 -0.101636425 0.00041720763 -0.049735915 -0.11827097 -0.017230403 -0.0140075255 0.051801138
0.0048250216 -0.1215713 -0.0075230156 -0.022910321 -0.047626387 -0.042456698 0.040436443 -0.046992354
-0.0948488 -0.087139785 -0.02587798 -0.061437342 -0.11631529 0.039643563 -0.00037105722 -0.06484989
0.0064854254 0.024662698 -0.121893056 0.03902862 0.005866766 -0.11277379 0.0046940628 0.03387185
-0.0117599685 0.027536219 0.031852137 -0.0848927 -0.014911123 -0.058508515 0.024527276 -0.11467737
0.02518581 -0.099353984 0.007996157 -0.09489836 -0.010015298 -0.05642428 -0.057489846 0.027224923
0.0443288 -0.078679 -0.05257787 0.044292524 -0.11486297 -0.013452108 -0.04214677 0.036619768
-0.06373658 -0.047709715 -0.106867954 -0.095437065 -0.024910789 0.026773093 -0.101216674 0.03225716
-0.07190038 -0.015555787 -0.06605437 -0.1191437 -0.06933531 -0.060575567 -0.058991298 -0.0785703
-0.06707012 0.030894365 -0.0076745963 -0.06506749 -0.08759204 -0.08187424 0.04484993 -0.06584584
00000000: 7fc3 5fbd e448 cabd 5ae7 e9bd ac75 bc3c
00000010: 2366 83bc 5434 c63c 0f69 3d3d f73a 173d
00000020: 7afb e9bd 18b0 8c3c 5311 c8bd 0caa cabc
00000030: 8a37 823c 98ec 8fbd edab cdb9 c20a 07be
00000040: d221 a0bc 69df afbd b9e0 cf3c 947e abbd
00000050: 0e5f cabd f2f7 5f3d 4d71 a3bd 17e6 d9ba
00000060: 64cb 7abc a479 1b3c 5bea ad3c 8fb6 ab3c
00000070: 61d4 99bd a30c f1bc e75f d0bd b987 2e3b
00000080: e703 2b3d 725b c5bc 0921 5dbd 93c0 fe3c
00000090: 3489 c3bd e59a 1cbd 2012 bcbd c900 98bd
000000a0: 3597 9abd 8bcc 08bc 059f fc3c 93c9 aebd
000000b0: 2c9a eebd 8681 81bd e69f f63b 9af9 ff3c
000000c0: f540 b0bc c226 d0bd a9bc da39 e3b7 4bbd
000000d0: 0d38 f2bd c626 8dbc d27f 65bc 6e2d 543d
000000e0: 371b 9e3b 60fa f8bd a183 f6bb 6dae bbbc
000000f0: e313 43bd 13e7 2dbd afa0 253d 0e7b 40bd
00000100: 1640 c2bd 5876 b2bd 0ffe d3bc b9a5 7bbd
00000110: b636 eebd 4a61 223d 758a c2b9 05d0 84bd
00000120: b183 d43b 6d09 ca3c 11a3 f9bd 79dc 1f3d
00000130: 003e c03b f2f5 e6bd a7d0 993b 36bd 0a3d
00000140: e2ac 40bc a393 e13c 6377 023d 39dc adbd
00000150: c84d 74bc a0a6 6fbd 6ded c83c f8db eabd
00000160: 7952 ce3c 1a7a cbbd 5002 033c 125a c2bd
00000170: 3417 24bc 251d 67bd 797a 6bbd cd06 df3c
00000180: 1e92 353d 7522 a1bd e55b 57bd 146c 353d
00000190: 473d ebbd 3b66 5cbc 17a2 2cbd 9cfe 153d
000001a0: 5388 82bd 436b 43bd 96dd dabd 8274 c3bd
000001b0: b611 ccbc 3f53 db3c b04a cfbd 1520 043d
000001c0: 8240 93bd b3dd 7ebc 8347 87bd 9d01 f4bd
000001d0: acff 8dbd 161e 78bd dca0 71bd 77e9 a0bd
000001e0: 0f5c 89bd 2e16 fd3c 2e7b fbbb 1b42 85bd
000001f0: 7563 b3bd aead a7bd 8fb4 373d 2fda 86bd

move_mean.weight f4 [2, 128]
0.0058628954 -0.013089111 -0.02628458 0.0226294 0.00616781 0.008820659 0.006844068 0.012096294
0.02380832 0.0001015072 -0.0023882345 -0.0057652583 -0.0005709435 0.048707083 0.015049352 -0.021722045
0.035593938 0.010964163 -0.0330364 -0.022690903 0.04585168 0.04643228 -0.02788096 -0.013476688
-0.011979674 0.038717516 0.04365578 -0.0013861017 0.013480206 0.0027288173 0.011704555 -0.011549914
0.012543559 0.004392795 0.047378246 0.0041483804 -0.007808954 0.054139152 -0.06305835 0.017069127
0.0022226449 0.007348936 0.04061026 0.015606562 0.02122994 -0.0021387783 -0.013588468 -0.036732376
0.025225755 -0.0022706662 -0.0013412938 0.0026870111 -0.016036445 -0.0062571 0.015405643 -0.02971206
-0.048108637 -0.027538374 0.028291376 -7.3654206e-05 -0.021808218 0.007627348 0.0063031735 -0.0032031965
-0.006441727 0.007294157 0.0022162735 -0.009126001 -0.009640626 0.041654207 0.014349456 0.045187023
-0.020657193 0.018152053 0.007267553 -0.017600864 -0.01798362 -0.026490107 0.061779633 -0.012041707
-0.014559162 0.06553515 0.005442251 0.0060209897 0.010839618 -0.0005049073 0.028793044 0.0037491752
0.03253431 0.011482326 0.0014502001 -0.034478623 0.013058393 -0.05497775 0.013358522 0.07068619
0.05282688 -0.016479563 0.07166496 0.028163709 0.014055001 0.037387833 -0.007319451 0.009885271
-0.0056442926 -0.008149104 0.050907597 0.030201916 -0.007716864 -0.0018282587 0.004950778 -0.0085356245
-0.062193517 0.017451013 0.0017478751 -0.004714079 0.023350991 0.006923153 0.0039057455 0.030710358
0.0019777394 -0.044022586 0.048889913 -0.024847995 -0.0009895642 -0.01479373 0.0036791235 0.0010472581
0.009203577 0.0027336818 0.015379113 -0.002813876 0.027470803 0.01723708 -0.010447142 -0.05548185
0.012659796 -0.012174747 -0.03001024 -0.0013831713 0.07366369 -0.0062998543 -0.00050623954 0.006504352
-0.006104302 -0.0005197794 -0.019433198 0.04745336 0.06194862 0.011648232 0.047356483 0.027013784
-0.021344757 -0.035477243 0.036899827 -0.002991797 -0.008596724 -0.0006103669 -0.008694173 -0.0072503965
-0.0077641406 -0.0024277444 0.037001282 -0.012551509 -0.014775763 -0.043769654 0.0464063 -0.005582452
0.0325676 0.009010421 -0.012700261 0.022749327 0.006452794 0.030302946 -0.009907332 -0.026329238
0.0047968733 -0.0075469594 -0.001471988 -0.0122313555 0.01424568 0.03359126 0.013082085 0.07165624
-0.049806923 0.0034703265 0.033109184 -0.015574814 0.00902758 -0.0087274145 0.005930438 0.025330728
0.012018935 -0.010197164 -0.021242686 -0.005563997 -0.01321058 0.012460394 0.0048321257 -0.059959244
0.0021754003 -0.011560657 -0.018481623 0.011365934 -0.036253836 -0.031874083 -0.058604766 0.005943306
-0.032886736 -0.06522316 -0.007807973 0.00024672874 -0.0018876689 -0.00016843919 -0.016896227 -0.038910206
-0.008451036 -0.019208875 0.03936177 -0.0027555535 0.00056722417 0.023780959 0.04572173 0.0147529915
0.01656385 -0.019157091 -0.01969457 0.010546766 0.038904697 0.05962805 -0.055274256 -0.0056086993
0.04849138 0.008019014 -0.011460743 0.019138545 -0.0015202925 0.035972092 0.025546059 0.00043962005
-0.046584547 -0.014758696 0.03991803 -0.009385907 0.006517452 -0.0035112307 -0.035716165 0.01655588
-0.0658267 0.011165135 -0.08147598 0.019512484 0.00063704816 0.006410995 -0.002414464 0.042343374
00000000: 881d c03b b673 56bc c252 d7bc 4b61 b93c
00000010: 571b ca3b 8684 103c 3444 e03b 892f 463c
00000020: aa09 c33c 43e0 d438 ed83 1cbb 7eea bcbb
00000030: 5fab 15ba 1481 473d 8f91 763c 6ef2 b1bc
00000040: f3ca 113d 08a3 333c 2d51 07bd 46e2 b9bc
00000050: f9ce 3b3d c62f 3e3d 9c66 e4bc 54cd 5cbc
00000060: 6546 44bc 4296 1e3d 67d0 323d dbad b5ba
00000070: 15dc 5c3c f5d5 323b 76c4 3f3c da3b 3dbc
00000080: 8083 4d3c 6ff1 8f3b b10f 423d 23ef 873b
00000090: 41e2 ffbb 04c1 5d3d bc24 81bd 8ed4 8b3c
000000a0: cba9 113b 58cf f03b f256 263d aab2 7f3c
000000b0: 69ea ad3c bf2a 0cbb 2aa2 5ebc b074 16bd
000000c0: 3ea6 ce3c 75cf 14bb 5ace afba 9118 303b
000000d0: dd5e 83bc 5c08 cdbb f367 7c3c b566 f3bc
000000e0: 900d 45bd 2898 e1bc 51c3 e73c cd76 9ab8
000000f0: 26a7 b2bc d5ee f93b da8a ce3b b8ec 51bb
00000100: 1f15 d3bb d303 ef3b e63e 113b 3985 15bc
00000110: b7f3 1dbc 9a9d 2a3d fb19 6b3c 0716 393d
00000120: 4639 a9bc 9db3 943c a724 ee3b b02f 90bc
00000130: 6252 93bc c801 d9bc a40c 7d3d 944a 45bc
00000140: 8d89 6ebc 4b37 863d e954 b23b b94b c53b
00000150: a798 313c c15b 04ba 64df eb3c b9b4 753b
00000160: b242 053d 5e20 3c3c a414 be3a 7539 0dbd
00000170: dff2 553c 5930 61bd b4dd 5a3c ecc3 903d
00000180: 0061 583d 2600 87bc 14c5 923d 94b7 e63c
00000190: f246 663c fc23 193d 01d8 efbb d5f5 213c
000001a0: c2f3 b8bb d283 05bc 7c84 503d 026a f73c
000001b0: bfdd fcbb 2fa2 efba 233a a23b 01d9 0bbc
000001c0: a1be 7ebd 6df5 8e3c f518 e53a 9078 9abb
000001d0: 944a bf3c 9edb e23b 89f7 7f3b 4a94 fb3c
000001e0: f69c 013b 0751 34bd ca40 483d 068e cbbc
000001f0: 44b4 81ba 6761 72bc 731d 713b 2744 893a
00000200: 9aca 163c 9227 333b adf8 7b3c 0169 38bb
00000210: 730a e13c c734 8d3c 7d2a 2bbc f040 63bd
00000220: 086b 4f3c 9778 47bc 09d8 f5bc 874b b5ba
00000230: fddc 963d 026f cebb 29b5 04ba 7622 d53b
00000240: 9906 c8bb ce41 08ba 5f32 9fbc 745e 423d
00000250: d6bd 7d3d 3ad8 3e3c dff8 413d 034c dd3c
00000260: 33db aebc 9650 11bd 4624 173d 0612 44bb
00000270: 46d9 0cbc 0701 20ba 0172 0ebc bc94 edbb
00000280: 556a febb cb1a 1fbb a88e 173d d8a4 4dbc
00000290: 0b16 72bc cf47 33bd 8814 3e3d 00ed b6bb
000002a0: 9b65 053d 72a0 133c c114 50bc cc5c ba3c
000002b0: f671 d33b e23d f83c 5d52 22bc 6ab0 d7bc
000002c0: 172f 9d3b 7c4c f7bb b9ef c0ba 0666 48bc
000002d0: b666 693c fd96 093d 3e56 563c 82c0 923d
000002e0: 5802 4cbd 6b6e 633b 7f9d 073d 812d 7fbc
000002f0: 6ae8 133c 6efd 0ebc 1f54 c23b 6382 cf3c
00000300: 11eb 443c 0112 27bc 2405 aebc 3152 b6bb
00000310: 3071 58bc ae26 4c3c cf56 9e3b d397 75bd
00000320: 2991 0e3b e968 3dbc c666 97bc 2f38 3a3c
00000330: e77e 14bd 668e 02bd 8d0b 70bd 10c0 c23b
00000340: 3eb4 06bd b893 85bd 06da ffbb 5f5b 8139
00000350: a86b f7ba 0d9f 30b9 f569 8abc 4f60 1fbd
00000360: 3776 0abc ee5b 9dbc cf39 213d 8496 34bb
00000370: c5b1 143a 49d0 c23c b546 3b3d 88b6 713c
00000380: e9b0 873c 55ef 9cbc 8256 a1bc 58cc 2c3c
00000390: 885a 1f3d 8b3c 743d 4267 62bd 2ec9 b7bb
000003a0: e69e 463d 2f62 033c d7c5 3bbc 70c8 9c3c
000003b0: 8d44 c7ba 7957 133d f845 d13c ce7c e639
000003c0: 70cf 3ebd 75ce 71bc 1781 233d 59c7 19bc
000003d0: 5a90 d53b ad1c 66bb 1d4b 12bd 32a0 873c
000003e0: 26d0 86bd f8ed 363c e1dc a6bd a5d8 9f3c
000003f0: 94ff 263a 5313 d23b fc3b 1ebb 3f70 2d3d

move_mean.bias f4 [2]
-0.021613088 -0.13943474
00000000: ee0d b1bc fbc7 0ebe

food_logits.weight f4 [3, 128]
-0.043342225 0.008953894 0.0379452 -0.009693576 0.037487324 -0.022576207 0.012883871 0.071840055
-0.021300536 -0.0264373 0.032945253 -0.030617788 -0.05509222 -0.033965573 0.009974188 0.032262232
-0.031822134 -0.0015369935 0.054711416 -0.06942421 0.058488533 0.02415924 -0.05293586 -0.004335726
-0.0072993315 0.06170795 0.041562047 -0.042789843 0.0072330544 -0.026269034 -0.035163015 0.030069692
0.063757256 0.048644464 0.022479545 -0.02419264 0.05875297 -0.0054298863 0.032660034 -0.051024523
-0.085872635 0.0097264545 0.03841513 -0.017809484 -0.002171188 0.035241913 -0.0391842 0.07388508
0.041261476 -0.011095833 -0.080363326 0.03181506 0.06452895 -0.004089526 -0.06723953 -0.047214348
0.0019399427 -0.018193187 0.013962721 0.023861004 -0.004056849 -0.044441015 0.061408456 0.015628073
0.08937794 0.05017673 0.0631943 0.02843475 0.00759402 0.043458045 0.03427358 0.07002303
-0.005571802 0.03245242 0.004550644 -0.026886657 0.052071672 0.04495236 0.058314472 0.041395642
0.0256477 0.08660736 0.053843465 0.04842224 -0.013467447 -0.05206795 0.03338821 0.07407118
-0.026646577 0.033263564 -0.038135666 -0.02545816 0.022241507 0.034215078 -0.038297445 -0.026715247
-0.0033184423 -0.0016609576 0.004585577 -0.037712645 -0.05906172 -0.040885556 0.04803323 -0.026737524
-0.062636174 -0.02156482 -0.05380403 0.07209183 0.018205808 0.04654303 -0.06772923 0.01149916
-0.004222069 -0.033957087 0.042212013 0.029088011 0.03238839 -0.0012360299 -0.0246886 0.02940064
-0.05204882 0.009904424 -0.022194939 -0.04841453 0.010912718 0.029389804 -0.021474782 0.056172986
-0.03609538 0.001056372 -0.0102324765 -0.030225003 -0.017079396 0.03299876 0.015934637 0.041910853
-0.03474143 -0.031290606 0.018204015 -0.0006051118 0.008219833 0.07632028 -0.0047771605 0.017496979
0.047163326 -0.013143004 0.028813012 -0.06524979 -0.014270099 0.047673333 -0.0018848474 -0.04381379
0.0030859516 0.038912088 0.006133602 -0.038448524 0.007418463 -0.028364314 -0.016388863 0.02704834
0.03587297 0.029152311 0.038224276 -0.029416898 0.08117612 0.085425735 -0.008294929 -0.042914744
0.010242957 0.028322106 -0.02705335 -0.0020474598 -0.003992883 0.07004649 -0.025692875 0.066787295
0.003857121 0.016402008 -0.06796548 -0.032558527 0.047346987 0.07390837 -0.024243942 -0.072323844
0.049288947 0.0037416162 0.039238643 0.0616999 0.01815935 -0.008261245 0.07988382 0.03655554
0.024318337 0.059115905 -0.032243766 0.0008627636 0.021812325 0.001496349 0.043807115 -0.08034487
0.023288034 0.038259506 0.09555182 -0.021601424 -0.023212748 0.02871687 0.083362944 0.05369162
0.04765633 -0.03238978 0.072319865 0.065112166 -0.028366858 -0.063772574 0.027617319 0.013820427
-0.057857096 -0.0028617592 -0.0076527963 -0.07392752 0.028553655 0.06098808 0.023807526 0.009753327
-0.031704087 -0.029476745 0.0053795404 -0.031100407 -0.05604932 -0.015250319 0.06195878 -0.030783975
0.05456905 -0.022547025 0.0212877 0.008181095 -0.0024452263 0.020046273 -0.022606706 0.015681466
-0.026870208 -0.030707316 -0.04348686 0.051434893 0.026739253 0.015228502 -0.014885973 0.057626512
-0.055034164 0.02736379 -0.062318273 -0.04740029 0.048172362 -0.02433048 -0.023681488 -0.015682215
00000000: 9e87 31bd 5ab3 123c 6d6c 1b3d ced1 1ebc
00000010: 4f8c 193d bdf1 b8bc df16 533c e120 933d
00000020: 767e aebc 0993 d8bc 9af1 063d 28d2 fabc
00000030: 61a8 61bd 7c1f 0bbd c76a 233c 6725 043d
00000040: ed57 02bd f274 c9ba 1419 603d 482e 8ebd
00000050: ac91 6f3d 99e9 c53c 46d3 58bd b512 8ebb
00000060: 3b2f efbb 7ac1 7c3d f73c 2a3d 6744 2fbd
00000070: 4203 ed3b 2832 d7bc 1807 10bd b754 f63c
00000080: 2a93 823d 6b3f 473d 0627 b83c a52f c6bc
00000090: f4a6 703d 30ed b1bb 87c6 053d 17ff 50bd
000000a0: fedd afbd b55b 1f3c 2f59 1d3d 32e5 91bc
000000b0: 7d4a 0ebb d359 103d 9d7f 20bd 1051 973d
000000c0: cb01 293d 4ccb 35bc 8795 a4bd 8250 023d
000000d0: c127 843d 6e01 86bb e1b4 89bd d563 41bd
000000e0: ad45 fe3a e109 95bc e6c3 643c 2778 c33c
000000f0: 51ef 84bb c807 36bd 6f87 7b3d 7206 803c
00000100: c80b b73d 1d86 4d3d 036c 813d feef e83c
00000110: 42d7 f83b 1001 323d 7462 0c3d 3c68 8f3d
00000120: aa93 b6bb d4ec 043d 921d 953b 6841 dcbc
00000130: 1b49 553d f71f 383d 28db 6e3d 7a8e 293d
00000140: 201b d23c 335f b13d f78a 5c3d 6656 463d
00000150: 91a6 5cbc 3445 55bd 13c2 083d a1b2 973d
00000160: ec49 dabc 603f 083d 2534 1cbd a28d d0bc
00000170: d233 b63c 1c25 0c3d c8dd 1cbd efd9 dabc
00000180: 397a 59bb 7db4 d9ba 9c42 963b 9378 1abd
00000190: b4ea 71bd 9d77 27bd 7ebe 443d a708 dbbc
000001a0: 6547 80bd b5a8 b0bc 9d61 5cbd e2a4 933d
000001b0: 5924 953c e7a3 3e3d 9fb5 8abd f966 3c3c
000001c0: 4859 8abb 9616 0bbd 81e6 2c3d fb49 ee3c
000001d0: b0a9 043d 4802 a2ba bf3f cabc 9cd9 f03c
000001e0: 2531 55bd 2a46 223c 29d2 b5bc 504e 46bd
000001f0: 42cb 323c e3c2 f03c e2eb afbc a515 663d
00000200: c0d8 13bd f675 8a3a 1ea6 27bc 6d9a f7bc
00000210: 17ea 8bbc b529 073d 5b89 823c b7aa 2b3d
00000220: 084d 0ebd 942a 00bd 9620 953c 5ea0 1eba
00000230: 7aac 063c cf4d 9c3d ba89 9cbb d355 8f3c
00000240: 552e 413d c155 57bc 4409 ec3c afa1 85bd
00000250: 22cd 69bc 1d45 433d fc0c f7ba 1776 33bd
00000260: ad3d 4a3b 4862 1f3d 62fc c83b 337c 1dbd
00000270: 9416 f33b 475c e8bc f041 86bc 7b94 dd3c
00000280: 89ef 123d d4d0 ee3c 0f91 1c3d b5fb f0bc
00000290: aa3f a63d b0f3 ae3d 74e7 07bc 5fc7 2fbd
000002a0: 13d2 273c c303 e83c fd9e ddbc ad2e 06bb
000002b0: bbd6 82bb 8974 8f3d dd79 d2bc c7c7 883d
000002c0: c1c7 7c3b 815d 863c 7c31 8bbd 175c 05bd
000002d0: eaee 413d 465d 973d 3b9b c6bc 861e 94bd
000002e0: 35e3 493d e735 753b b3b8 203d 09b9 7c3d
000002f0: ebc2 943c 2c5a 07bc 219a a33d 43bb 153d
00000300: 4037 c73c 8523 723d 0a12 04bd 162b 623a
00000310: c3af b23c 2421 c43a 176f 333d da8b a4bd
00000320: 8cc6 be3c 00b6 1c3d acb0 c33d 78f5 b0bc
00000330: a928 bebc a43f eb3c 31ba aa3d beeb 5b3d
00000340: 4933 433d 25ab 04bd 701c 943d 8759 853d
00000350: 9d61 e8bc 329b 82bd b73d e23c 126f 623c
00000360: 90fb 6cbd 5a8c 3bbb 4fc4 fabb 5067 97bd
00000370: 5be9 e93c a3ce 793d 0008 c33c 6bcc 1f3c
00000380: 25dc 01bd 3779 f1bc db46 b03b 48c6 febc
00000390: f993 65bd 79dc 79bc 7dc8 7d3d ad2e fcbc
000003a0: cc83 5f3d 8ab4 b8bc 8b63 ae3c 000a 063c
000003b0: 1740 20bb 1538 a43c b331 b9bc 6b76 803c
000003c0: e91e dcbc e98d fbbc 471f 32bd 65ad 523d
000003d0: 470c db3c f880 793c 4ce4 73bc c709 6c3d
000003e0: 816b 61bd 072a e03c 7241 7fbd ce26 42bd
000003f0: 6250 453d b750 c7bc aeff c1bc fd77 80bc

food_logits.bias f4 [3]
-0.08013736 -0.083545685 0.16817117
00000000: 0e1f a4bd 001a abbd 1035 2c3e

net.0.weight f4 [128, 17]
0.15268993 -0.19277644 0.9955897 -2.7792976 -0.19490783 -0.15318803 -0.15218692 0.096635155
-0.06393137 0.10266209 0.16307087 -0.18799855 0.24022804 0.0140569145 -0.027885405 0.19105457
0.0993853 0.08185104 -0.092670836 -1.5915958 2.478844 0.5287983 -0.15112233 0.09747615
-0.10146844 0.15387037 0.037809737 -0.18665089 -0.09605144 -0.23740597 -0.09250685 0.1631685
-0.10961837 -0.05513255 -0.04265578 0.0057555647 0.39310664 -0.6211098 -0.9175252 0.1604807
-0.0049907346 0.063539706 0.059720125 0.11576058 0.24416696 0.14283602 0.10117335 0.10876298
-0.08575083 0.023017814 0.026718276 -0.079033285 -0.10313974 1.1882975 -2.0255086 -0.71146464
-0.09076232 0.29956818 -0.06610384 0.047851183 -0.02360669 -0.2649735 -0.24020152 -0.16920523
-0.22500147 0.105694205 0.012494187 0.09545891 0.20986539 -0.20961498 0.48115334 -0.43941313
-1.0263598 0.062892616 -0.27292672 -0.032668434 -0.1690568 0.04396626 -0.06675569 0.059768036
-0.19923912 0.20898679 0.10449742 0.014608521 -0.14996485 -0.1751116 0.020245956 1.0649794
-1.2365245 -0.46769106 -0.32756627 -0.13134342 -0.04588203 -0.30340979 -0.12621842 0.11465755
-0.046087284 -0.1269007 0.037730593 -0.13202237 -0.089976184 -0.110770695 -0.09856981 -0.091141686
-1.3401752 3.3738136 0.23222321 -0.04767466 0.18952686 0.15934892 0.05189147 -0.024608769
0.20005062 0.06782307 0.0323358 0.0009068276 -0.07284669 0.03443744 0.07553747 0.20460732
0.116638064 1.5459341 -3.744875 -0.5758511 0.17641841 0.04183964 0.24099605 0.1256727
0.18987273 0.029678714 -0.005454659 -0.16942091 -0.049213298 0.10729009 0.03040111 -0.09441315
-0.1449545 0.0070741847 0.6600648 -1.000638 -0.12764576 0.30562696 0.3195109 0.007871595
-0.038169283 0.15230729 0.1273331 -0.15037589 0.051659495 0.11159141 0.13943043 0.035042252
-0.23906136 0.014434782 0.10178107 -1.5500851 3.7576358 0.75807893 -0.09149214 0.010655976
-0.00036894236 -0.052917752 -0.014760396 0.0671026 0.12277968 -0.13740748 -0.06261191 0.25451002
0.20039809 -0.010579292 0.16990575 -0.06034923 -1.1838684 2.8147438 1.2166728 -0.13696396
0.012373175 -0.08825474 0.090048924 -0.26953492 -0.15695494 0.0449312 0.07351921 0.24954985
0.059966255 0.15762122 -0.18763913 0.17483279 -0.08613936 0.9421177 -1.3370026 -0.25615323
0.084892996 0.12915933 0.016194329 -0.025897238 -0.0304645 -0.28312695 -0.014632661 0.14545561
0.020033384 -0.01765656 -0.13768446 -0.12687835 0.12977397 0.05028541 -1.2030904 3.4444256
0.1738525 -0.21959847 0.1305032 0.057598043 -0.23704545 -0.03720373 0.18282902 -0.08486591
0.11932241 0.015404397 -0.066893965 0.029811937 -0.010894876 0.021951472 -0.06253946 0.048968773
-0.66438323 1.0412278 0.087981835 0.085957885 0.0942784 -0.15453558 -0.14772175 -0.1214658
-0.33205965 0.28189763 0.096602045 0.16874413 0.034850832 0.06590196 -0.035426408 0.12553997
-0.87308115 3.1616914 0.78062654 -0.020884603 -0.31405675 0.03809413 0.27377352 0.16230676
-0.06102312 -0.07489744 0.093674585 0.17189753 0.17883395 -0.08699359 -0.10023374 -0.03710423
00000000: c05a 1c3e 3067 45be f7de 7e3f 03e0 31c0
00000010: eb95 47be 53dd 1cbe e3d6 1bbe a7e8 c53d
00000020: 73ee 82bd 8040 d23d 0dfc 263e b182 40be
00000030: 57fe 753e f94e 663c ef6f e4bc cfa3 433e
00000040: 858a cb3d 85a1 a73d 35ca bdbd 69b9 cbbf
00000050: 61a5 1e40 535f 073f d0bf 1abe 93a1 c73d
00000060: afce cfbd 3290 1d3e 62de 1a3d 6921 3fbe
00000070: 9eb6 c4bd 8d1a 73be 3b74 bdbd a515 273e
00000080: 997f e0bd abd2 61bd d4b7 2ebd 2d99 bc3b
00000090: 4645 c93e 0d01 1fbf eee2 6abf 0d55 243e
000000a0: 5189 a3bb 1b21 823d 179d 743d e213 ed3d
000000b0: e706 7a3e 9b43 123e f933 cf3d 20bf de3d
000000c0: 229e afbd db8f bc3c 49e0 da3c 34dc a1bd
000000d0: ee3a d3bd 221a 983f efa1 01c0 8c22 36bf
000000e0: 98e1 b9bd 0061 993e 7361 87bd 9aff 433d
000000f0: d162 c1bc 9baa 87be 63f7 75be 2344 2dbe
00000100: c966 66be 3476 d83d 6bb4 4c3c f67f c33d
00000110: f4e6 563e 4fa5 56be bb59 f63e c2fa e0be
00000120: c25f 83bf d8cd 803d 0dbd 8bbe 56cf 05bd
00000130: 3a1d 2dbe f715 343d 35b7 88bd 54cf 743d
00000140: 5705 4cbe a200 563e be02 d63d 9458 6f3c
00000150: 6390 19be 7550 33be d9da a53c 3f51 883f
00000160: 6f46 9ebf 3475 efbe c4b6 a7be e47e 06be
00000170: ccee 3bbd 8758 9bbe 673f 01be 94d1 ea3d
00000180: 05c6 3cbd 42f2 01be 658b 1a3d df30 07be
00000190: 6f45 b8bd bfdb e2bd f8de c9bd 7ea8 babd
000001a0: dc8a abbf 90ec 5740 eccb 6d3e 8146 43bd
000001b0: 5413 423e 5d2c 233e 268c 543d 5498 c9bc
000001c0: 12da 4c3e d2e6 8a3d 8b72 043d 2cb8 6d3a
000001d0: a530 95bd 460e 0d3d 64b3 9a3d 9584 513e
000001e0: f0df ee3d 2be1 c53f 08ac 6fc0 fa6a 13bf
000001f0: 07a7 343e 0b60 2b3d abc7 763e 58b0 003e
00000200: ff6d 423e c620 f33c ffbc b2bb ad7c 2dbe
00000210: e293 49bd e8ba db3d c00b f93c ae5b c1bd
00000220: f46e 14be 90ce e73b 02fa 283f e814 80bf
00000230: 92b5 02be 237b 9c3e ef96 a33e ddf7 003c
00000240: 6557 1cbd 71f6 1b3e 9c63 023e 23fc 19be
00000250: e898 533d 0a8a e43d dac6 0e3e 7788 0f3d
00000260: 80cc 74be dd7f 6c3c 9872 d03d 3069 c6bf
00000270: 1b7d 7040 7611 423f 3b60 bbbd 6796 2e3c
00000280: 9b6e c1b9 49c0 58bd 97d5 71bc 176d 893d
00000290: ea73 fb3d 8cb4 0cbe ac3a 80bd 234f 823e
000002a0: 2835 4d3e c454 2dbc c6fb 2d3e c130 77bd
000002b0: 0089 97bf c324 3440 efbb 9b3f 4840 0cbe
000002c0: dbb8 4a3c e7be b4bd 926b b83d 7b00 8abe
000002d0: ccb8 20be c709 383d 3d91 963d ff89 7f3e
000002e0: 2d9f 753d 7567 213e 7924 40be 5e07 333e
000002f0: d569 b0bd a02e 713f e722 abbf 8426 83be
00000300: 61dc ad3d 5842 043e f8a9 843c 7226 d4bc
00000310: b090 f9bc 04f6 90be d4bd 6fbc 51f2 143e
00000320: 0d1d a43c 7da4 90bc 28fd 0cbe 66ec 01be
00000330: 78e3 043e 13f8 4d3d defe 99bf 7871 5c40
00000340: 6406 323e 6cde 60be a2a2 053e edeb 6b3d
00000350: 0bbc 72be f062 18bd 8837 3b3e 2ece adbd
00000360: 4f5f f43d b962 7c3c b4ff 88bd 2a38 f43c
00000370: 6c80 32bc 93d3 b33c b014 80bd 7b93 483d
00000380: 0515 2abf f446 853f d22f b43d b00a b03d
00000390: 0915 c13d 933e 1ebe 5f44 17be 10c3 f8bd
000003a0: b903 aabe e354 903e 4bd7 c53d 43cb 2c3e
000003b0: bfbf 0e3d 9bf7 863d 481b 11bd 8d8d 003e
000003c0: 3f82 5fbf 2759 4a40 24d7 473f 3016 abbc
000003d0: 0ccc a0be 9708 1c3d 0b2c 8c3e be33 263e
000003e0: 61f3 79bd d463 99bd 76d8 bf3d e805 303e
000003f0: 3f20 373e b229 b2bd 5947 cdbd 9bfa 17bd

net.0.bias f4 [128]
0.30832532 -0.039194725 -0.28026873 -0.233679 -0.006010529 0.08566805 -0.28986585 0.00022548372
-0.25350448 -0.23293385 0.17469141 -0.053087823 0.038516447 0.1381339 -0.101643644 -0.10110196
-0.16029991 -0.09507802 -0.05177731 -0.15959615 -0.30903304 -0.17361467 0.06771304 0.40544513
-0.058178253 -0.100383736 -0.22796965 0.22166522 -0.13029702 0.17257628 -0.089834034 0.18679771
0.0017002485 0.12515058 0.23140414 0.029982248 -0.18939683 -0.051248696 -0.28764057 -0.052591816
-0.14960688 -0.27553806 0.0062777977 0.16393639 -0.06400231 -0.2118338 -0.19119042 -0.061800957
-0.0365659 0.09890397 -0.27382267 -0.20378342 0.3089958 0.10330091 0.35291073 -0.24305528
0.18501173 0.14160536 -0.053298447 0.006575118 0.033572715 -0.11806363 -0.2792979 0.09859523
0.17043945 -0.41317195 -0.3048898 0.25443578 0.14590915 -0.26092497 0.08514886 -0.39217037
0.018095681 -0.25805098 0.37922874 -0.036312304 0.24649674 0.14084221 -0.037705515 0.26171148
0.20762618 0.15711196 0.11355085 0.10271059 0.07772932 0.08338621 -0.16106947 -0.14015503
-0.03137294 0.049881123 0.025195623 -0.15013026 0.039529223 0.12867013 -0.06946064 0.30139813
0.1518564 -0.16342606 -0.34030485 0.13566312 0.10036009 -0.22123669 -0.17573623 -0.0066345306
0.27967554 -0.027086362 -0.12505399 0.0049700486 -0.11651952 0.044582963 -0.021926986 0.24009076
-0.13820761 0.12905866 -0.13959637 -0.28863353 -0.13816798 0.14689724 0.09931423 0.16578615
-0.103413194 0.05805561 -0.17726022 0.12368102 -0.2926846 0.06617338 0.23500785 0.15543872
00000000: d1dc 9d3e a68a 20bd 627f 8fbe 8c49 6fbe
00000010: f9f3 c4bb bb72 af3d 4c69 94be d36f 6c39
00000020: 57cb 81be 3686 6ebe 4ee2 323e 9e72 59bd
00000030: 6cc3 1d3d f972 0d3e 8b2a d0bd 8b0e cfbd
00000040: a925 24be 44b8 c2bd 7214 54bd 2c6d 23be
00000050: 9439 9ebe 0bc8 31be 22ad 8a3d 8196 cf3e
00000060: 524c 6ebd fd95 cdbd e070 69be 35fc 623e
00000070: 956c 05be d6b7 303e e8fa b7bd e647 3f3e
00000080: dfda de3a 7927 003e 35f5 6c3e 559d f53c
00000090: 3ef1 41be 27ea 51bd a045 93be 846a 57bd
000000a0: 8c32 19be 5313 8dbe fcb5 cd3b f1de 273e
000000b0: a513 83bd f6ea 58be 6cc7 43be 0023 7dbd
000000c0: 20c6 15bd 2a8e ca3d 7c32 8cbe 9aac 50be
000000d0: b334 9e3e 6d8f d33d b7b0 b43e 7ce3 78be
000000e0: b773 3d3e ff00 113e 794f 5abd 1674 d73b
000000f0: 8b83 093d 58cb f1bd 2200 8fbe 4cec c93d
00000100: ae87 2e3e 468b d3be 841a 9cbe 6845 823e
00000110: 3569 153e f597 85be 8762 ae3d 8eca c8be
00000120: 653d 943c 421f 84be 452a c23e 36bc 14bd
00000130: a469 7c3e f138 103e 1971 1abd 0cff 853e
00000140: f59b 543e f5e1 203e 598d e83d ee59 d23d
00000150: 8d30 9f3d 64c6 aa3d 65ef 24be cd84 0fbe
00000160: e980 00bd 2650 4c3d 0d67 ce3c bfbb 19be
00000170: 65e9 213d 1ac2 033e 6141 8ebd db50 9a3e
00000180: 3e80 1b3e 2959 27be 703c aebe 46eb 0a3e
00000190: 9789 cd3d df8b 62be 33f4 33be 7a66 d9bb
000001a0: a231 8f3e 38e4 ddbc 270e 00be cadb a23b
000001b0: c9a1 eebd a09c 363d 39a0 b3bc 5ada 753e
000001c0: 4c86 0dbe f427 043e 5af2 0ebe c6c7 93be
000001d0: e87b 0dbe 3b6c 163e 4265 cb3d d8c3 293e
000001e0: 4cca d3bd b8cb 6d3d b483 35be 7a4c fd3d
000001f0: c2da 95be e985 873d e6a5 703e 542b 1f3e

net.2.weight f4 [128, 128]
-0.110288635 -0.021780003 -0.044455666 0.046543222 -0.1024129 0.13548267 -0.0547674 0.04560799
-0.061762054 -0.1054969 -0.106518984 0.12888017 0.015624529 0.019372895 -0.091153584 -0.12210215
0.026814463 -0.15888746 -0.023175567 -0.2143827 -0.058715474 0.014263441 0.097971745 0.036200665
-0.107035734 -0.04375856 -0.053088948 0.021992283 -0.07318453 0.15541796 -0.2507571 0.117352396
-0.12241527 -0.024360226 -0.26035267 0.031139204 -0.05847265 0.040929522 0.0828326 0.08680195
-0.005979677 -0.01359067 -0.08979844 -0.1251548 -0.13005306 0.031005275 -0.028190706 0.0012051346
0.05808479 0.048944186 0.082823016 -0.17282012 0.031691287 -0.060094785 0.1120675 0.07727124
-0.08545676 -0.032105193 -0.10889139 -0.07921626 -0.032077495 0.0076358486 -0.034401566 0.022573529
-0.034264173 -0.08642625 0.10957016 -0.025059136 -0.028819686 -0.068443276 0.10802043 0.032033544
-0.035444032 -0.0426911 -0.05219556 -0.108241476 -0.06698785 0.07341844 -0.29663086 0.094937116
0.06339818 0.013928257 -0.04788911 0.00976937 0.1198911 -0.08622595 -0.091909654 0.07975145
-0.101743296 -0.12273226 -0.21098958 -0.0020757082 -0.06235447 -0.027125077 0.030855464 -0.3712669
0.027001904 0.0032965802 -0.009798187 -0.051623628 0.05304046 -0.0111512495 -0.06878846 0.0026151233
-0.4177294 0.10851024 -0.034110796 0.053213906 0.01590102 0.075959146 0.15013683 -0.2298828
0.11721787 0.021634867 -0.035454772 -0.033438038 0.02927357 -0.06419851 -0.082558736 -0.020706212
-0.054901984 -0.15817243 -0.023593761 0.09499717 -0.1144397 0.057512596 -0.10876363 -0.14315529
-0.080705404 -0.07784263 -0.08593742 0.012031906 -0.04001395 0.12599996 0.09841005 0.07362245
-0.29674876 0.037604697 0.11104272 0.0034760193 0.08781167 -0.09039217 -0.098551884 -0.01282092
-0.015145806 0.08239215 -0.10541203 0.07775663 0.03520331 -0.008032559 0.031947702 0.07678317
0.056430552 0.03823428 -0.106197886 -0.0014144597 0.008775827 0.044770047 0.020408073 -0.19213341
-0.08882741 -0.05970677 0.06597437 -0.19536814 0.012479463 -0.04190076 -0.061917275 -0.029842168
-0.025251854 0.01983649 0.1053509 -0.0031088057 -0.054867417 -0.08616203 0.082100414 0.01586615
-0.035088554 0.06462527 0.022828193 0.0084669255 -0.09389094 -0.045566104 0.08452264 -0.13359982
0.065095566 -0.17904401 0.06513048 -0.0822116 0.015018382 0.10393234 0.08855879 -0.06567538
-0.019184163 -0.00860395 -0.11249459 0.0124066025 -0.12766847 0.10449911 0.07155069 -0.013163245
-0.0550212 0.061505314 -0.008735044 -0.094093114 0.0615855 -0.08126038 -0.026671752 -0.0049847667
-0.07849263 -0.033826236 0.042064514 0.024481237 -0.10807733 -0.05006355 0.023670977 -0.028688123
-0.13629788 0.1131255 -0.013097174 0.018550593 0.018231424 -0.032358397 -0.014926855 0.033664547
0.049237657 -0.13093199 0.08161425 -0.103259206 -0.031124914 -0.24216059 0.065109715 -0.025775572
-0.034827642 -0.18524654 0.028711965 -0.19812676 -0.044837143 -0.059623346 -0.12402051 0.11453357
0.0060070767 -0.052414674 -0.3771405 0.14227645 -0.11502341 -0.03390105 -0.098634884 -0.115749896
-0.02934199 0.11714715 0.030100599 -0.0966136 0.037786037 0.0678581 0.13596337 0.005118117
00000000: 02df e1bd fa6b b2bc 2517 36bd 1ba4 3e3d
00000010: dbbd d1bd f8bb 0a3e c853 60bd 72cf 3a3d
00000020: 35fa 7cbd c20e d8bd a026 dabd 2af9 033e
00000030: 06fe 7f3c e8b3 9e3c bbae babd b110 fabd
00000040: 01aa db3c 65b3 22be b0da bdbc 2387 5bbe
00000050: a37f 70bd 35b1 693c 69a5 c83d 2647 143d
00000060: 8d35 dbbd 2d3c 33bd cc73 59bd 2929 b43c
00000070: c5e1 95bd e325 1f3e 3c63 80be 7456 f03d
00000080: dbb4 fabd 198f c7bc f24c 85be a517 ff3c
00000090: 0481 6fbd b7a5 273d 23a4 a93d 39c5 b13d
000000a0: 2bf1 c3bb 67ab 5ebc 3fe8 b7bd 9428 00be
000000b0: a12c 05be c6fe fd3c 32f0 e6bc 9bf5 9d3a
000000c0: 51ea 6d3d b379 483d 1d9f a93d c2f7 30be
000000d0: b9ce 013d f325 76bd a583 e53d 6240 9e3d
000000e0: f403 afbd bc80 03bd 7302 dfbd 223c a2bd
000000f0: b163 03bd 2436 fa3b a8e8 0cbd 1fec b83c
00000100: 9758 0cbd 3f00 b1bd 5266 e03d d148 cdbc
00000110: 4317 ecbc fd2b 8cbd d139 dd3d 9b35 033d
00000120: c32d 11bd dddc 2ebd 03cb 55bd b5ad ddbd
00000130: ed30 89bd 685c 963d 00e0 97be 646e c23d
00000140: e8d6 813d 5833 643c 5f27 44bd b50f 203c
00000150: 7789 f53d 3b97 b0bd 213b bcbd ba54 a33d
00000160: ca5e d0bd 0d5b fbbd a70d 58be 9b08 08bb
00000170: 6767 7fbd 6935 debc 99c4 fc3c b216 bebe
00000180: 1933 dd3c 700b 583b 9388 20bc 4c73 53bd
00000190: f440 593d bbb3 36bc f7e0 8cbd 7d62 2b3b
000001a0: a1e0 d5be 9e3a de3d c3b7 0bbd d3f6 593d
000001b0: db42 823c 7890 9b3d 78bd 193e 6666 6bbe
000001c0: ec0f f03d 9b3b b13c 0639 11bd 53f6 08bd
000001d0: 20cf ef3c 827a 83bd 8e14 a9bd 13a0 a9bc
000001e0: e7e0 60bd f4f7 21be b447 c1bc e08d c23d
000001f0: 5d5f eabd 5492 6b3d 77bf debd 4d97 12be
00000200: e048 a5bd f56b 9fbd f5ff afbd 7921 453c
00000210: abe5 23bd 2206 013e 358b c93d 5ec7 963d
00000220: 74ef 97be 6207 1a3d 5e6a e33d edcd 633b
00000230: 9bd6 b33d 881f b9bd 92d5 c9bd d60e 52bc
00000240: 1d26 78bc 37bd a83d 43e2 d7bd de3e 9f3d
00000250: 5931 103d ff9a 03bc 98db 023d 7f40 9d3d
00000260: b923 673d 8c9b 1c3d 477e d9bd 6465 b9ba
00000270: 7cc8 0f3c cc60 373d d52e a73c 9fbe 44be
00000280: 25eb b5bd 168f 74bd 921d 873d 960e 48be
00000290: a976 4c3c 22a0 2bbd f89c 7dbd 9077 f4bc
000002a0: fadc cebc 2280 a23c 36c2 d73d 1bbd 4bbb
000002b0: a8bc 60bd b875 b0bd 4324 a83d baf9 813c
000002c0: 04b9 0fbd 415a 843d 3102 bb3c dcb8 0a3c
000002d0: e549 c0bd 86a3 3abd 351a ad3d 64ce 08be
000002e0: d350 853d 5057 37be 2163 853d 8e5e a8bd
000002f0: a90f 763c 7bda d43d 505e b53d d080 86bd
00000300: 1b28 9dbc 95f7 0cbc 9063 e6bd 1045 4b3c
00000310: 86bb 02be a103 d63d 2b89 923d a7aa 57bc
00000320: e95d 61bd ffec 7b3d 6e1d 0fbc e4b3 c0bd
00000330: 1441 7c3d d86b a6bd b87e dabc 4157 a3bb
00000340: bec0 a0bd 618d 0abd d74b 2c3d e08c c83c
00000350: a657 ddbd 700f 4dbd a3e9 c13c 5b03 ebbc
00000360: ac91 0bbe 58ae e73d 8895 56bc 6af7 973c
00000370: 115a 953c 3d8a 04bd c58f 74bc d6e3 093d
00000380: 6dad 493d 0913 06be 5f25 a73d 9079 d3bd
00000390: adf9 febc f2f8 77be 3e58 853d 4b27 d3bc
000003a0: 6ea7 0ebd 45b1 3dbe 5b35 eb3c bee1 4abe
000003b0: 27a7 37bd 9c37 74bd 77fe fdbd 9490 ea3d
000003c0: 03d7 c43b c5b0 56bd 8f18 c1be ebb0 113e
000003d0: 6591 ebbd d4db 0abd 1601 cabd 480e edbd
000003e0: 9d5e f0bc d8ea ef3d 8895 f63c 5add c5bd
000003f0: 88c5 1a3d 30f9 8a3d fb39 0b3e e1b5 a73b
