src/training_logs_ppo/initial/ppo_checkpoint_353_1764189971.pt (torch, 480155 bytes, 42 tensors)

move_logstd f4 [2]
2.4712214 2.2133834
00000000: 7e28 1e40 13a8 0d40

shared.0.weight f4 [128, 17]
0.11874201 -0.12077271 -0.18779701 0.21863893 0.17262603 -0.20408835 -0.11315588 0.06735792
0.21284556 -0.19116552 0.18258157 -0.14199634 -0.11235023 -0.082782336 0.06670589 0.19035777
-0.10603604 -0.081537284 -0.11393036 0.0664357 0.036072776 -0.30739734 0.2628838 -0.1448151
-0.035071146 -0.038506925 -0.34312737 -0.14168175 -0.04364703 0.1637913 0.032130264 0.12004999
-0.09923224 -0.11802041 0.22239219 0.27746603 0.013427856 0.073965855 -0.35713738 -0.18492918
-0.025514107 -0.18324676 -0.0047258167 -0.0858629 -0.077374615 -0.017054321 0.12053944 -0.13034263
0.17458223 0.046269584 0.012874738 -0.0064728395 -0.10051468 -0.24711333 -0.085911095 0.14892012
0.20646884 0.18358713 0.02166817 0.17758197 -0.11632768 0.011931464 -0.0569601 -0.023319429
-0.06233167 0.033161607 -0.17597426 0.22602904 0.12206049 0.15048 -0.28473464 0.034199204
-0.015426904 0.05633503 -0.013402962 0.08376943 -0.17706844 0.2144754 0.11760175 0.08871759
0.10844712 -0.04312778 0.004399805 -0.096763484 0.0878582 -0.11974432 -0.004025406 -0.20902601
-0.34931114 -0.328223 0.05197602 0.22991464 -0.17895909 0.27846155 -0.07119566 0.08922126
0.11431961 0.13477911 -0.047147524 -0.12919298 -0.05197108 -0.019741023 0.026511557 0.003107502
-0.20710413 0.10600283 -0.02870827 0.06385731 -0.32410792 -0.09052843 0.3582082 -0.017560981
-0.22151212 -0.089063786 0.071044385 -0.03082908 0.0651842 -0.09694653 0.001929943 -0.14589906
-0.10191939 0.2018961 0.017071871 0.014585541 -0.2546104 -0.01750345 0.162881 -0.099430904
-0.13865829 -0.024220202 -0.050606508 -0.057609007 -0.09442595 0.18440725 0.032604065 0.021041026
-0.093913674 0.068549655 -0.07562228 -0.11281222 -0.12988763 -0.19981992 -0.084581934 0.23863956
0.10736722 -0.28610677 0.05133676 -0.12453713 0.10594654 -0.10043071 -0.16343687 0.016443495
-0.11982357 0.09024537 0.04140196 0.0706971 -0.21710274 -0.30144188 -0.0820745 -0.07022328
0.20838073 0.18061282 0.23706506 -0.021045823 0.111181766 -0.19898465 -0.11056187 0.12180926
0.053160373 0.075804375 -0.1118899 0.14739203 -0.17064083 0.024007022 -0.2716772 0.23792478
-0.12185908 -0.19420157 -0.18922736 -0.12397428 0.24576177 -0.09494899 -0.17684905 0.038104236
0.029708235 0.050711785 -0.08108795 -0.10424693 -0.20715263 0.13206041 -0.2773266 0.07282202
0.15646896 0.32383347 0.18770005 -0.013346587 -0.094879605 -0.1979668 0.1104181 -0.06559206
-0.010936028 -0.06327689 -0.067671925 -0.052092418 -0.018928995 -0.21404994 -0.08826252 -0.069150984
-0.07347091 -0.23368989 0.21647727 -0.052663654 -0.15077175 0.045356385 -0.12830955 -0.061398823
-0.07792903 0.030578634 0.055612776 0.009507884 -0.040911257 0.15617485 0.049675316 -0.29773763
0.088779934 -0.16530515 0.24170648 -0.23857717 -0.020345157 0.1605176 -0.08054037 -0.107074976
0.062136002 0.056850955 0.053975586 -0.061684955 0.067327544 -0.07831311 -0.03596446 -0.0799651
-0.068553545 -0.19072302 -0.22036819 -0.2539181 0.017488932 -0.25577712 0.27590433 0.108508535
0.07432854 0.0041059847 0.05515699 0.078965776 0.2529814 -0.16243066 -0.057888076 -0.05595313
00000000: 032f f33d af57 f7bd dc4d 40be e2e2 5f3e
00000010: e1c4 303e 89fc 50be 45be e7bd f3f2 893d
00000020: 30f4 593e e5c0 43be aaf6 3a3e 7d67 11be
00000030: e117 e6bd c989 a9bd 199d 883d 26ed 423e
00000040: 6c29 d9bd 05fd a6bd 5254 e9bd 710f 883d
00000050: 0cc1 133d 2f63 9dbe b598 863e 694a 14be
00000060: c3a6 0fbd 70b9 1dbd 64ae afbe 0515 11be
00000070: 3ac7 32bd e8b8 273e 069b 033d c5dc f53d
00000080: 463a cbbd afb4 f1bd c7ba 633e 0710 8e3e
00000090: 8300 5c3c 697b 973d b6da b6be 135e 3dbe
000000a0: f602 d1bc 0aa5 3bbe 06db 9abb e3d8 afbd
000000b0: 9576 9ebd 81b5 8bbc 62dd f63d 8a78 05be
000000c0: afc5 323e 2d85 3d3d 91f0 523c 1d1a d4bb
000000d0: a4da cdbd 470b 7dbe 28f2 afbd 847e 183e
000000e0: 916c 533e 44fe 3b3e 7281 b13c 0cd8 353e
000000f0: 353d eebd 307c 433c fe4e 69bd 6308 bfbc
00000100: 7e4f 7fbd 77d4 073d 9932 34be 2874 673e
00000110: dafa f93d 6e17 1a3e bdc8 91be 7714 0c3d
00000120: 20c1 7cbc 8fbf 663d 1998 5bbc 4f8f ab3d
00000130: 6e51 35be 709f 5b3e 30d9 f03d 91b1 b53d
00000140: 8619 de3d c1a6 30bd 3d2c 903b ef2b c6bd
00000150: 00ef b33d 833c f5bd 8ee7 83bb ea0a 56be
00000160: e9d8 b2be d80c a8be cfe4 543d be6e 6b3e
00000170: 0d41 37be 8392 8e3e 08cf 91bd a3b9 b63d
00000180: 6620 ea3d 8903 0a3e c31d 41bd 2a4b 04be
00000190: a1df 54bd edb7 a1bc c42e d93c 3ba7 4b3b
000001a0: 1b13 54be 0318 d93d 9b2d ebbc 9fc7 823d
000001b0: 79f1 a5be f866 b9bd 1167 b73e 0cdc 8fbc
000001c0: 13d4 62be 1367 b6bd b87f 913d 448d fcbc
000001d0: 4b7f 853d e78b c6bd 24f6 fc3a 9066 15be
000001e0: 1dbb d0bd dabd 4e3e 4fda 8b3c 31f8 6e3c
000001f0: 4b5c 82be 6563 8fbc 47ca 263e 6ea2 cbbd
00000200: 70fc 0dbe 7269 c6bc c548 4fbd 6cf7 6bbd
00000210: 6462 c1bd 41d5 3c3e d78b 053d 3b5e ac3c
00000220: d055 c0bd c363 8c3d dbdf 9abd 180a e7bd
00000230: 4301 05be 989d 4cbe 4b39 adbd ee5d 743e
00000240: 58e3 db3d 967c 92be 7f46 523d 530d ffbd
00000250: 80fa d83d 9eae cdbd ff5b 27be 82b4 863c
00000260: 0f66 f5bd 91d2 b83d 1a95 293d a4c9 903d
00000270: 2e50 5ebe 9756 9abe ad16 a8bd 39d1 8fbd
00000280: c261 553e 91f2 383e 2fc1 723e 4a68 acbc
00000290: 44b3 e33d a2c2 4bbe 436e e2bd 2277 f93d
000002a0: b1be 593d 533f 9b3d 8826 e5bd f0ed 163e
000002b0: 78bc 2ebe 60aa c43c 4619 8bbe 8ea2 733e
000002c0: 4191 f9bd c7dc 46be d1c4 41be 3ae6 fdbd
000002d0: f9a8 7b3e 9e74 c2bd eb17 35be 3013 1c3d
000002e0: af5e f33c 29b7 4f3d 7011 a6bd 6a7f d5bd
000002f0: d21f 54be d83a 073e c1fd 8dbe b623 953d
00000300: 6639 203e 80cd a53e 7134 403e a5ab 5abc
00000310: 3d50 c2bd cfb7 4abe e322 e23d 2155 86bd
00000320: 072d 33bc 5097 81bd 9497 8abd dc5e 55bd
00000330: fb10 9bbc e82f 5bbe fbc2 b4bd 089f 8dbd
00000340: eb77 96bd 674c 6fbe 38ac 5d3e d8b5 57bd
00000350: e963 1abe 9ec7 393d 9463 03be 557d 7bbd
00000360: 4199 9fbd 0b80 fa3c 39ca 633d f5c6 1b3c
00000370: 9092 27bd 4dec 1f3e 5878 4b3d 1171 98be
00000380: 41d2 b53d c145 29be e781 773e 934d 74be
00000390: e3aa a6bc ba5e 243e 59f2 a4bd 204a dbbd
000003a0: 5282 7e3d 8cdc 683d 8115 5d3d 5da9 7cbd
000003b0: 06e3 893d a062 a0bd 784f 13bd bec4 a3bd
000003c0: cd65 8cbd e54c 43be 33a8 61be 8e01 82be
000003d0: f344 8f3c 38f5 82be 5543 8d3e b939 de3d
000003e0: 9039 983d 7f8b 863b 4cec 613d cfb8 a13d
000003f0: c786 813e 3954 26be 0c1c 6dbd 1c2f 65bd

shared.0.bias f4 [128]
-0.0019824053 -0.34225863 -0.11729213 -0.15823524 -0.1754535 -0.075565375 -0.081268504 0.099648714
-0.3984419 -0.13532118 0.06186708 -0.23895523 -0.020644132 -0.20905396 -0.028474888 -0.095850885
-0.22986701 0.31961116 0.114023544 -0.28577045 -0.14321338 -0.011641607 0.0034069659 0.062650256
-0.14160147 -0.24402678 -0.038258247 -0.08387908 0.023895722 -0.28398472 -0.092640564 -0.31205276
-0.13728356 -0.09356966 -0.3056169 0.030923214 -0.27150312 -0.3484101 -0.0023143778 -0.10729228
-0.3230705 -0.21050319 0.01120617 -0.039106444 0.073689364 -0.3853934 0.12351762 -0.3086758
0.15800688 -0.19465165 -0.34137997 -0.16212472 -0.28866845 -0.17950878 0.0185579 -0.01858081
0.03889681 -0.2709714 -0.13993308 -0.03852729 -0.06267589 -0.03945956 -0.08949971 -0.1830256
-0.4431579 -0.19422495 -0.32060423 -0.44488454 -0.1680672 -0.011624644 -0.47297987 -0.28211898
-0.018048724 0.257178 0.007329632 -0.10683499 0.16508941 -0.33698145 -0.16924132 -0.16479978
-0.08723466 -0.29889333 -0.5349894 -0.08230313 -0.33259374 -0.13479207 -0.024233725 -0.0958501
-0.065277584 -0.29234147 0.03574609 -0.1273047 -0.11966334 0.1625202 -0.21531306 0.20058356
-0.29302064 -0.31490806 0.15754637 -0.20572233 0.20364627 -0.28433204 -0.010868497 -0.06505257
0.06137839 -0.20100427 -0.17093302 -0.103631146 -0.0821115 -0.2413753 -0.022773044 -0.32286528
-0.22718024 -0.40340096 0.0031080004 -0.28722957 -0.25409138 -0.1734902 -0.33054927 -0.13124447
-0.026890034 -0.33893588 -0.17825276 -0.2996948 -0.20806976 0.14291532 -0.4137582 -0.0121988915
00000000: 3eeb 01bb 863c afbe db36 f0bd 6b08 22be
00000010: 15aa 33be 05c2 9abd 1a70 a6bd a014 cc3d
00000020: 9400 ccbe a391 0abe 5668 7d3d aeb0 74be
00000030: e21d a9bc 3e12 56be 2b44 e9bc 784d c4bd
00000040: 4262 6bbe 13a4 a33e 2d85 e93d 8150 92be
00000050: 87a6 12be 70bc 3ebc 6747 5f3b c74e 803d
00000060: faff 10be 28e2 79be aeb4 1cbd ccc8 abbd
00000070: f6c0 c33c 7266 91be 56ba bdbd 61c5 9fbe
00000080: 1094 0cbe 73a1 bfbd d179 9cbe ae52 fd3c
00000090: 7502 8bbe cf62 b2be d1ac 17bb 0ebc dbbd
000000a0: 7f69 a5be 268e 57be 159a 373c 142e 20bd
000000b0: 73ea 963d 4952 c5be cef6 fc3d c10a 9ebe
000000c0: 8ecc 213e c352 47be 5bc9 aebe 0604 26be
000000d0: 5acc 93be 26d1 37be bd06 983c c836 98bc
000000e0: 4352 1f3d c3bc 8abe 9e4a 0fbe cbce 1dbd
000000f0: 385c 80bd 59a0 21bd a04b b7bd 106b 3bbe
00000100: 98e5 e2be e8e2 46be 3d26 a4be e8c7 e3be
00000110: cf19 2cbe 4a75 3ebc 6b2a f2be e671 90be
00000120: ebda 93bc d6ac 833e 692d f03b 4ecc dabd
00000130: 330d 293e d588 acbe 994d 2dbe 46c1 28be
00000140: 16a8 b2bd 8c08 99be 11f5 08bf 8b8e a8bd
00000150: ba49 aabe ef06 0abe ce85 c6bc 0f4d c4bd
00000160: 41b0 85bd c8ad 95be 7e6a 123d 2a5c 02be
00000170: 0e12 f5bd b26b 263e 077b 5cbe c765 4d3e
00000180: cd06 96be a13b a1be d653 213e e0a8 52be
00000190: a688 503e f893 91be c811 32bc 483a 85bd
000001a0: e867 7b3d 10d4 4dbe 1109 2fbe 913c d4bd
000001b0: 132a a8bd 162b 77be 898e babc 994e a5be
000001c0: f0a1 68be 928a cebe 98af 4b3b c10f 93be
000001d0: 4418 82be 6aa7 31be c13d a9be f364 06be
000001e0: 7d48 dcbc 0189 adbe e487 36be 9971 99be
000001f0: 3d10 55be 6558 123e 1dd8 d3be dcdd 47bc

shared.2.weight f4 [128, 128]
0.01605237 0.031923223 0.047130205 -0.025068255 0.058487404 0.028986102 -0.044071816 0.034476556
-0.035265226 0.06381761 -0.0339784 -0.07640147 -0.0915703 0.010971854 0.03056114 0.070911035
0.04166653 -0.026390947 0.008376 0.0027133669 0.0052410997 -0.1185363 -0.07727719 0.015431684
0.08288247 -0.07796623 -0.040023483 -0.006474451 -0.12393683 -0.06126345 -0.03046269 -0.007378614
-0.0341217 -0.005162363 0.06323839 -0.031673137 0.05483591 -0.10649968 0.047344584 -0.08533294
0.020500747 -0.12808801 -0.09278255 0.030380867 -0.0230385 -0.07851873 -0.068065725 0.0082225725
-0.03219046 -0.08295538 0.016443985 -0.069277726 0.008543769 -0.017241986 -0.030862914 0.037910342
0.04253578 -0.06391042 -0.019933555 0.041930623 -0.032244798 -0.04189379 -0.030931355 -0.073637985
0.039672155 0.029346729 -0.015970258 -0.028619397 -0.13116351 -0.009762411 -0.049321555 0.0030758695
-0.04456467 -0.07649415 -0.05877141 -0.06757481 -0.04582025 -0.123847 -0.06616374 0.029768586
-0.033604596 -0.03870545 -0.12665273 -0.089070864 -0.0561993 -0.03142164 -0.029675718 -0.16115817
-0.0933436 -0.047421552 -0.020702938 -0.059877247 0.0054207966 0.025639916 0.053744256 -0.050781183
-0.113339566 -0.02687435 -0.06474425 0.032438006 -0.093271255 0.0066624647 -0.1694841 -0.11349402
-0.088952675 -0.017826809 -0.090273626 -0.012563323 0.044636086 -0.07892718 0.032425866 -0.0529657
-0.103236705 0.025365269 -0.010048578 -0.015226989 0.010318047 -0.118912235 -0.09013514 -0.035201624
-0.048436332 -0.07635129 -0.049575645 0.013634896 0.0054118885 0.018065726 -0.07018016 -0.025690082
-0.047580026 -0.031603895 -0.11857835 -0.12730843 0.023690125 0.02768651 -0.09441237 0.08003656
0.058446575 0.024273379 -0.068356305 -0.03331311 -0.107129596 0.04110273 0.01819221 0.051295586
0.020148408 -0.0642644 -0.057790875 0.04527511 -0.10361372 -0.042478126 -0.070454925 0.029853864
0.009160958 0.01307084 -0.0013958933 -0.07619901 -0.041545797 -0.05525911 -0.029290186 -0.091514714
0.0027584634 -0.099331446 -0.03806063 0.04787908 -0.10473507 0.0075324643 -0.03452842 -0.109385274
-0.099993676 -0.0034183378 0.03795833 0.0013026905 0.028787408 -0.077377774 0.05939157 0.036447488
-0.014753969 -0.04470717 -0.10046751 -0.07972226 0.040572546 0.024055706 0.04553915 0.0660384
-0.10844473 -0.025115803 -0.06428633 0.0391439 -0.03945757 -0.11905603 -0.06452293 -0.013875327
-0.045563582 -0.08157546 0.026077444 -0.069775395 0.06340036 0.032303356 0.008869723 0.027747529
-0.0810904 0.02987981 -0.10992208 -0.008140621 -0.10404442 -0.0723466 -0.043492775 -0.1391227
0.043170493 0.004517232 0.0006519616 0.019938793 -0.09360819 -0.02523054 0.023142386 -0.03355975
0.08634366 -0.10101905 -0.028992504 0.0036142773 -0.084000826 -0.09656248 -0.07396707 0.02630895
0.0016282683 0.01579645 -0.13656217 -0.15736908 -0.1302626 -0.018807398 0.025773158 -0.08301964
-0.04647305 -0.09914696 0.0627075 -0.05377296 -0.028203826 -0.015271469 0.032358047 -0.05069133
0.08930644 -0.0045810794 -0.015645398 0.0313481 -0.060072772 -0.08370869 0.055472918 -0.06054876
-0.096930295 -0.064690195 -0.10373628 -0.060133282 -0.024288388 -0.09970086 -0.11342984 -0.030148275
00000000: 4380 833c edc1 023d 9a0b 413d f15b cdbc
00000010: 7d90 6f3d 4374 ed3c a684 34bd 4a37 0d3d
00000020: 4572 10bd cfb2 823d ef2c 0bbd 6078 9cbd
00000030: 3689 bbbd 4bc3 333c 5b5b fa3c ce39 913d
00000040: 86aa 2a3d d431 d8bc 7e3b 093c bed2 313b
00000050: 88bd ab3b 29c3 f2bd 8143 9ebd 2dd5 7c3c
00000060: 49be a93d c2ac 9fbd aaef 23bd a227 d4bb
00000070: 98d2 fdbd 62ef 7abd e48c f9bc 4dc8 f1bb
00000080: 32c3 0bbd 0a29 a9bb 2183 813d b1bb 01bd
00000090: 9f9b 603d 811c dabd 65ec 413d 09c3 aebd
000000a0: 2ff1 a73c 8129 03be c704 bebd 4ce1 f83c
000000b0: 3dbb bcbc 6ece a0bd 0b66 8bbd f8b7 063c
000000c0: 25da 03bd 83e4 a9bd 89b5 863c 7be1 8dbd
000000d0: 2afb 0b3c 113f 8dbc 39d4 fcbc e047 1b3d
000000e0: 003a 2e3d 77e3 82bd b24b a3bc 72bf 2b3d
000000f0: 1f13 04bd d398 2bbd c163 fdbc 83cf 96bd
00000100: 457f 223d 8d68 f03c 0fd4 82bc 3a73 eabc
00000110: ba4f 06be 85f2 1fbc 6605 4abd 8794 493b
00000120: 7289 36bd f7a8 9cbd 4aba 70bd a964 8abd
00000130: 04ae 3bbd 7fa3 fdbd db80 87bd 40dd f33c
00000140: f9a4 09bd 9b89 1ebd 41b1 01be c96a b6bd
00000150: 3d31 66bd fab3 00bd 7e1a f3bc a606 25be
00000160: ee2a bfbd 1a3d 42bd 3599 a9bc d841 75bd
00000170: f0a0 b13b cd0a d23c f022 5c3d eeff 4fbd
00000180: 931e e8bd 9927 dcbc a298 84bd b7dd 043d
00000190: 0005 bfbd ce50 da3b 3d8d 2dbe 8e6f e8bd
000001a0: d22c b6bd 8709 92bc 61e1 b8bd 65d6 4dbc
000001b0: 54d4 363d 93a4 a1bd fcd0 043d 90f2 58bd
000001c0: c46d d3bd d3ca cf3c caa2 24bc 9f7a 79bc
000001d0: 070d 293c 4288 f3bd c698 b8bd 942f 10bd
000001e0: 2d65 46bd 115e 9cbd d50f 4bbd e664 5f3c
000001f0: 3656 b13b 93fe 933c 9eba 8fbd 0274 d2bc
00000200: 46e3 42bd 1673 01bd 35d9 f2bd 245d 02be
00000210: cb11 c23c d2ce e23c 465b c1bd 35ea a33d
00000220: ad65 6f3d f7d8 c63c 64fe 8bbd 5473 08bd
00000230: c366 dbbd 565b 283d d407 953c 521b 523d
00000240: 460e a53c 0e9d 83bd 20b6 6cbd 6572 393d
00000250: 6e33 d4bd 8bfd 2dbd ac4a 90bd 1790 f43c
00000260: d817 163c 1427 563c 68f6 b6ba 3a0e 9cbd
00000270: ed2b 2abd 6057 62bd f9f1 efbc 116c bbbd
00000280: 56c7 343b 496e cbbd 77e5 1bbd db1c 443d
00000290: 577f d6bd e4d2 f63b ac6d 0dbd 6305 e0bd
000002a0: 7cc9 ccbd 3106 60bb 327a 1b3d 0abf aa3a
000002b0: 92d3 eb3c 3d78 9ebd 9344 733d f649 153d
000002c0: a2ba 71bc de1e 37bd e9c1 cdbd 6d45 a3bd
000002d0: 662f 263d 7910 c53c 4287 3a3d 243f 873d
000002e0: 4518 debd a8bf cdbc 8da8 83bd 5b55 203d
000002f0: 439e 21bd a6d3 f3bd 9924 84bd 5755 63bc
00000300: e1a0 3abd 0911 a7bd 5da0 d53c 67e6 8ebd
00000310: 0cd8 813d 8650 043d 5152 113c c94e e33c
00000320: b912 a6bd 81c6 f43c d41e e1bd 3d60 05bc
00000330: 3e15 d5bd 742a 94bd 7b25 32bd 2e76 0ebe
00000340: 8bd3 303d 4a05 943b 67e8 2a3a ae56 a33c
00000350: a7b5 bfbd 47b0 cebc 1a95 bd3c f375 09bd
00000360: f2d4 b03d 13e3 cebd b081 edbc 83dd 6c3b
00000370: a008 acbd 8dc2 c5bd 0c7c 97bd de85 d73c
00000380: 9e6b d53a 8f67 813c f4d6 0bbe 5c25 21be
00000390: 8f63 05be f911 9abc 3b22 d33c 3306 aabd
000003a0: 865a 3ebd 900d cbbd ca6c 803d 0941 5cbd
000003b0: b60b e7bc 2f35 7abc df89 043d b6a1 4fbd
000003c0: 4be6 b63d e11c 96bb c72a 80bc de66 003d
000003d0: de0e 76bd 766f abbd 9237 633d fa01 78bd
000003e0: 6483 c6bd 4b7c 84bd b073 d4bd 514e 76bd
000003f0: 71f8 c6bc f72f ccbd e74d e8bd 84f9 f6bc

shared.2.bias f4 [128]
-0.081370324 -0.10983629 -0.13023603 0.013661792 -0.02890309 0.024194874 0.038251042 0.02377085
-0.114249185 0.017173812 -0.09768929 -0.034259617 0.0022443465 -0.07887452 -0.00039228742 -0.14307457
-0.019547377 -0.09520844 0.0112602515 -0.09328186 -0.11181802 0.04226975 -0.07980595 -0.009500191
-0.021626348 8.321988e-05 0.021229913 0.011444468 -0.07511211 -0.04113279 -0.10174542 -0.016200263
0.034805696 -0.024091456 -0.07509557 0.03292262 -0.09233797 -0.047713242 -0.10128874 -0.07422025
-0.0849241 -0.01121104 0.016085306 -0.08534541 -0.14737423 -0.06323533 -0.0037865727 0.031246949
-0.021515349 -0.111148015 0.00041720763 -0.05915808 -0.13803622 -0.026595388 -0.0140075255 0.036124684
-0.0039577982 -0.1215713 -0.0075230156 -0.029396815 -0.06302005 -0.042456698 0.009270006 -0.048318915
-0.10640942 -0.087139785 -0.031924073 -0.061437342 -0.11868866 0.030147156 0.021392599 -0.06484989
-0.0027980506 0.024662698 -0.12516934 0.03902862 0.005866766 -0.11277379 -0.001930597 0.03387185
-0.053607732 0.020154186 0.031852137 -0.08909483 -0.024136163 -0.058508515 0.023293914 -0.11467737
0.016633373 -0.09925501 -0.012806855 -0.10434389 -0.010702222 -0.05642428 -0.057489846 0.027224923
0.0443288 -0.08733001 -0.069636606 0.03210286 -0.12012087 -0.013452108 -0.051562 0.02094863
-0.066912554 -0.047709715 -0.11625473 -0.10920279 -0.03770861 0.026773093 -0.107896246 0.03225716
-0.1087428 -0.03083353 -0.06605437 -0.13497855 -0.0800089 -0.06506681 -0.060360894 -0.079938754
-0.113599196 0.030894365 -0.02015041 -0.06506749 -0.09283541 -0.08187424 0.04484993 -0.08144052
00000000: 7ca5 a6bd d9f1 e0bd 985c 05be b5d5 5f3c
00000010: 2cc6 ecbc 5434 c63c 20ad 1c3d 16bb c23c
00000020: 7afb e9bd 18b0 8c3c 5311 c8bd d053 0cbd
00000030: e315 133b f788 a1bd edab cdb9 2482 12be
00000040: d221 a0bc a5fc c2bd eb7c 383c 8f0a bfbd
00000050: d900 e5bd 0c23 2d3d 4d71 a3bd b0a6 1bbc
00000060: bd29 b1bc 5586 ae38 5bea ad3c 9481 3b3c
00000070: 61d4 99bd db7a 28bd e75f d0bd 6ab6 84bc
00000080: 6b90 0e3d 725b c5bc b5cb 99bd dfd9 063d
00000090: b11b bdbd f66e 43bd 7970 cfbd c900 98bd
000000a0: b0ec adbd 83ae 37bc 55c5 833c 93c9 aebd
000000b0: 45e9 16be 8681 81bd 2628 78bb 9af9 ff3c
000000c0: f540 b0bc 92a1 e3bd a9bc da39 be4f 72bd
000000d0: 5e59 0dbe 92de d9bc d27f 65bc 7af7 133d
000000e0: 6bb0 81bb 60fa f8bd a183 f6bb 97d1 f0bc
000000f0: a810 81bd 13e7 2dbd 39e1 173c 0eea 45bd
00000100: 2fed d9bd 5876 b2bd d1c2 02bd b9a5 7bbd
00000110: 0a13 f3bd 2bf7 f63c 883f af3c 05d0 84bd
00000120: 805f 37bb 6d09 ca3c 642c 00be 79dc 1f3d
00000130: 003e c03b f2f5 e6bd 160c fdba 36bd 0a3d
00000140: c893 5bbd 641a a53c 6377 023d 5a77 b6bd
00000150: 34b9 c5bc a0a6 6fbd e1d2 be3c f8db eabd
00000160: b642 883c 3646 cbbd d8d3 51bc 40b2 d5bd
00000170: 5f58 2fbc 251d 67bd 797a 6bbd cd06 df3c
00000180: 1e92 353d 14da b2bd a39d 8ebd 4a7e 033d
00000190: ee01 f6bd 3b66 5cbc ad32 53bd 769c ab3c
000001a0: 7309 89bd 436b 43bd f616 eebd b6a5 dfbd
000001b0: 5874 1abd 3f53 db3c b5f8 dcbd 1520 043d
000001c0: 8cb4 debd 9996 fcbc 8347 87bd d137 0abe
000001d0: b5db a3bd bf41 85bd fc3c 77bd eeb6 a3bd
000001e0: b2a6 e8bd 2e16 fd3c 7912 a5bc 1b42 85bd
000001f0: 7e20 bebd aead a7bd 8fb4 373d 4aca a6bd

move_mean.weight f4 [2, 128]
0.0038505686 -0.039643116 -0.0065427017 0.03200321 0.010078954 0.008820659 0.006373656 0.060192987
0.02380832 0.0001015072 -0.0023882345 0.0036351907 -0.0016129923 0.048707083 0.015049352 -0.0075309803
0.035593938 0.020466655 -0.013042307 -0.029542696 0.03444816 0.059886195 -0.02788096 0.016319042
-0.0024517772 0.048148632 0.04365578 0.008134165 0.013480206 -0.005828825 0.011704555 -0.011778993
0.02417888 0.004392795 0.03744347 -0.026418198 0.019720213 0.06257474 -0.06643209 0.017069127
0.0032371145 0.007231827 0.05348273 0.015606562 -0.004085453 -0.0021387783 -0.02392711 -0.036732376
0.025225755 -0.011689237 -0.0013412938 -0.006810018 -0.0055811335 0.0013495043 0.015405643 -0.029865252
-0.04254079 -0.027538374 0.028291376 -0.006304828 -0.0043983907 0.007627348 -0.0037958045 -0.0077701295
-0.006028648 0.007294157 0.0057956725 -0.009126001 -0.003794774 0.051178627 0.03642983 0.045187023
-0.011136896 0.018152053 0.0057366053 -0.017600864 -0.01798362 -0.026490107 0.04772218 -0.012041707
-0.012485356 0.05526277 0.005442251 0.011835868 0.001359478 -0.0005049073 0.039133683 0.0037491752
0.03279269 0.04336352 -0.06157449 -0.042446945 0.013058393 -0.05497775 0.013358522 0.07068619
0.05282688 -0.025205417 0.06772462 0.026126048 0.006226085 0.037387833 -0.016787454 0.008578153
0.0006150156 -0.008149104 0.042306222 0.02873169 0.009022064 -0.0018282587 0.0046742163 -0.0085356245
-0.050705988 0.008334253 0.0017478751 -0.010700423 0.025570773 0.013906641 0.03438286 0.028661197
-0.009486162 -0.044022586 0.058966737 -0.024847995 0.0006328698 -0.01479373 0.0036791235 0.020500328
0.027281588 0.019922774 0.000867912 0.006651231 0.041387852 0.01723708 0.008596333 0.0088395905
0.012659796 -0.012174747 -0.03001024 0.008142409 0.08118799 -0.0062998543 -0.00050623954 -0.008135371
-0.006104302 -0.010019195 -0.018625217 0.0382363 0.05137903 0.0023321167 0.047356483 -0.028061947
-0.011818424 -0.025950968 0.036899827 0.0065079206 -0.008596724 0.008890677 -0.008694173 -0.007186674
-0.020041907 -0.0024277444 0.020925676 -0.03031356 -0.012002042 -0.052677765 0.030968862 -0.005582452
0.032429717 -0.0043495507 -0.012241631 0.022749327 0.00024311361 0.030302946 0.0077112736 -0.026329238
0.0047968733 -0.016886985 -0.001471988 -0.002823008 0.021067899 0.04224347 0.013082085 0.048641346
-0.050929647 0.0034703265 0.033109184 0.004966974 0.022248475 -0.0087274145 -0.018628068 0.035111297
0.012360863 -0.010197164 -0.012884087 -0.005563997 -0.02577457 0.021949908 -0.009546657 -0.059959244
0.011686196 -0.011560657 -0.037130374 0.011365934 -0.036253836 -0.031874083 -0.05719657 0.005943306
-0.05205464 -0.055344976 -0.007807973 0.016745418 -0.011394946 -0.00016843919 -0.0020766305 -0.038910206
-0.010581229 -0.014113755 -0.002519668 0.00090483396 0.00056722417 0.023780959 0.04572173 0.0147529915
0.01656385 -0.045483768 0.024558958 0.037768114 0.03268286 0.05962805 -0.06479727 -0.012549589
0.042226505 0.008019014 -0.020950623 0.015713219 0.023126956 0.035972092 -0.0038652008 0.00043962005
0.04964601 -0.008898124 0.03991803 -0.016970964 -0.0023004187 0.0011129704 -0.023047086 0.013630067
0.07206657 0.011165135 -0.08390984 0.019512484 0.0018819466 0.006410995 -0.002414464 0.022339102
00000000: d259 7c3b d260 22bd 2964 d6bb cc15 033d
00000010: 3222 253c 8684 103c 1ada d03b ec8c 763d
00000020: aa09 c33c 43e0 d438 ed83 1cbb 613c 6e3b
00000030: 0a6b d3ba 1481 473d 8f91 763c 71c6 f6bb
00000040: f3ca 113d b0a9 a73c 67af 55bc 8603 f2bc
00000050: 8419 0d3d 3a4b 753d 9c66 e4bc 83af 853c
00000060: ffad 20bb 8037 453d 67d0 323d 2945 053c
00000070: 15dc 5c3c baff bebb 76c4 3f3c adfc 40bc
00000080: c912 c63c 6ff1 8f3b 535e 193d fa6a d8bc
00000090: 498c a13c 2f27 803d 8c0d 88bd 8ed4 8b3c
000000a0: c525 543b f6f8 ec3b b510 5b3d aab2 7f3c
000000b0: 44df 85bb bf2a 0cbb c902 c4bc b074 16bd
000000c0: 3ea6 ce3c 3784 3fbc 5ace afba 9226 dfbb
000000d0: f1e1 b6bb dae1 b03a f367 7c3c f9a7 f4bc
000000e0: 403f 2ebd 2898 e1bc 51c3 e73c bb98 cebb
000000f0: 6020 90bb d5ee f93b 08c3 78bb 929c febb
00000100: f78b c5bb d303 ef3b a0e9 bd3b 3985 15bc
00000110: beb1 78bb aea0 513d 7237 153d 0716 393d
00000120: 8777 36bc 9db3 943c 22fa bb3b b02f 90bc
00000130: 6252 93bc c801 d9bc 5578 433d 944a 45bc
00000140: 618f 4cbc 375b 623d e954 b23b 3aeb 413c
00000150: 8330 b23a c15b 04ba a44a 203d b9b4 753b
00000160: a151 063d f29d 313d 8835 7cbd d9dc 2dbd
00000170: dff2 553c 5930 61bd b4dd 5a3c ecc3 903d
00000180: 0061 583d 977b cebc 35b3 8a3d 4b06 d63c
00000190: 3004 cc3b fc23 193d d885 89bc 628b 0c3c
000001a0: 0039 213a d283 05bc 4a49 2d3d b95e eb3c
000001b0: 47d1 133c 2fa2 efba 2b2a 993b 01d9 0bbc
000001c0: 15b1 4fbd 648c 083c f518 e53a d450 2fbc
000001d0: cc79 d13c aed8 633c 0bd5 0c3d e3ca ea3c
000001e0: d96b 1bbc 0751 34bd 1b87 713d 068e cbbc
000001f0: 2ce7 253a 6761 72bc 731d 713b 4ef0 a73c
00000200: a37d df3c 1635 a33c 9784 633a 92f2 d93b
00000210: 4f86 293d c734 8d3c a2d7 0c3c eed3 103c
00000220: 086b 4f3c 9778 47bc 09d8 f5bc bd67 053c
00000230: e445 a63d 026f cebb 29b5 04ba 384a 05bc
00000240: 9906 c8bb 8d27 24bc e993 98bc ab9d 1c3d
00000250: d172 523d 6dd6 183b dff8 413d 2be2 e5bc
00000260: 10a2 41bc 2097 d4bc 4624 173d 6540 d53b
00000270: 46d9 0cbc 34aa 113c 0172 0ebc 317e ebbb
00000280: ed2e a4bc cb1a 1fbb 536c ab3c 2554 f8bc
00000290: 36a4 44bc a4c4 57bd 69b2 fd3c 00ed b6bb
000002a0: 06d5 043d ad86 8ebb 1f91 48bc cc5c ba3c
000002b0: 50ec 7e39 e23d f83c daae fc3b 6ab0 d7bc
000002c0: 172f 9d3b 9356 8abc b9ef c0ba 3702 39bb
000002d0: 9696 ac3c 7d07 2d3d 3e56 563c 263c 473d
000002e0: 9b9b 50bd 6b6e 633b 7f9d 073d ffc1 a23b
000002f0: 6f42 b63c 6efd 0ebc e499 98bc ddd0 0f3d
00000300: 3885 4a3c 0112 27bc c717 53bc 3152 b6bb
00000310: 3125 d3bc 4bd0 b33c 9569 1cbc d397 75bd
00000320: 7577 3f3c e968 3dbc 0516 18bd 2f38 3a3c
00000330: e77e 14bd 668e 02bd f346 6abd 10c0 c23b
00000340: 3f37 55bd 6ab1 62bd 06da ffbb b02d 893c
00000350: deb1 3abc 0d9f 30b9 1418 08bb 4f60 1fbd
00000360: e45c 2dbc 613d 67bc 0421 25bb 6132 6d3a
00000370: c5b1 143a 49d0 c23c b546 3b3d 88b6 713c
00000380: e9b0 873c 304d 3abd de2f c93c bdb2 1a3d
00000390: 76de 053d 8b3c 743d 6eb4 84bd cb9c 4dbc
000003a0: b3f5 2c3d 2f62 033c a4a0 abbc 02b9 803c
000003b0: be74 bd3c 7957 133d 4f4f 7dbb ce7c e639
000003c0: 9d59 4b3d 70c9 11bc 1781 233d b106 8bbc
000003d0: 9fc2 16bb 17e1 913a 3ecd bcbc a550 5f3c
000003e0: a397 933d f8ed 363c ecd8 abbd a5d8 9f3c
000003f0: a6ab f63a 5313 d23b fc3b 1ebb 7e00 b73c

move_mean.bias f4 [2]
0.28629172 -0.31667596
00000000: d494 923e 5a23 a2be

food_logits.weight f4 [3, 128]
-0.034695443 0.019763703 0.021117145 -0.019211471 0.024708766 -0.022576207 0.007853659 0.07274454
-0.021300536 -0.0264373 0.032945253 -0.040143333 -0.05651451 -0.024699703 0.009974188 0.044515327
-0.031822134 -0.011063541 0.05378553 -0.06210071 0.050536864 0.010714992 -0.05293586 -0.017277138
-0.016825076 0.052193366 0.041562047 -0.033261247 0.0072330544 -0.023859378 -0.035163015 0.04881349
0.056958683 0.048644464 0.043713134 -0.023668302 0.06819635 0.003483902 0.022599548 -0.051024523
-0.08458679 -0.006316977 0.022830952 -0.017809484 -0.020641562 0.035241913 -0.037652954 0.07388508
0.041261476 -0.0016486435 -0.080363326 0.022292722 0.04475892 0.00500098 -0.06723953 -0.047373544
0.022084339 -0.018193187 0.013962721 0.027722847 0.04178858 -0.044441015 0.063404635 -0.009504559
0.08040535 0.05017673 0.051381852 0.02843475 -0.006702657 0.03392893 0.046175826 0.07002303
0.0039555966 0.03245242 0.011894995 -0.026886657 0.052071672 0.04495236 0.04210461 0.041395642
0.04638579 0.07797872 0.053843465 0.057411935 -0.022991795 -0.05206795 0.02605976 0.07407118
-0.03024704 0.032439172 -0.0339577 -0.019683681 0.03068002 0.034215078 -0.038297445 -0.026715247
-0.0033184423 -0.026720136 -0.029186586 -0.024923723 -0.052354798 -0.040885556 0.057561092 -0.039730538
-0.07216348 -0.02156482 -0.04428904 0.057361532 0.041101042 0.04654303 -0.05938172 0.01149916
-0.0033517776 -0.052727316 0.042212013 0.020137668 0.020801893 0.0049712243 -0.004486465 0.025994744
-0.040695302 0.009904424 -0.034818888 -0.04841453 0.0016282032 0.029389804 -0.021474782 0.03761565
-0.041498125 0.0060032415 -0.012351969 -0.020717526 -0.0008821643 0.03299876 0.01604111 0.027002035
-0.03474143 -0.031290606 0.018204015 -0.0101311365 0.0020851993 0.06691955 -0.0047771605 0.009468892
0.047163326 -0.0036180392 0.027919209 -0.07328198 -0.011028139 0.03380809 -0.0018848474 -0.0062873103
0.012614003 0.04841176 0.006133602 -0.02892439 0.007418463 -0.0222018 -0.016388863 0.027036576
0.029121038 0.029152311 0.04215474 -0.026288025 0.060794707 0.076183096 -0.009572812 -0.042914744
0.009074546 0.022252603 -0.007596165 -0.0020474598 0.019626882 0.07004649 -0.030641623 0.066787295
0.003857121 0.006911477 -0.06796548 -0.023041708 0.051561575 0.06460331 -0.024243942 -0.06395016
0.031346925 0.0037416162 0.039238643 0.05979296 0.0330022 -0.008261245 0.07118245 0.046443395
0.046793934 0.059115905 -0.026048861 0.0008627636 -0.013710013 0.011022252 0.03641833 -0.08034487
0.013763167 0.038259506 0.07436528 -0.021601424 -0.023212748 0.02871687 0.08017773 0.05369162
0.032485466 -0.04266043 0.072319865 0.061595395 -0.018840596 -0.063772574 0.021391707 0.013820427
-0.05527686 0.00591326 -0.031809777 -0.06480987 0.019782292 0.06098808 0.023807526 0.009753327
-0.031704087 -0.03463637 -0.0018334165 -0.052563895 -0.0653871 -0.015250319 0.052429877 -0.029522432
0.04717796 -0.022547025 0.011764307 0.023110515 -0.011044103 0.020046273 -0.022365233 0.015681466
-0.0066877147 -0.02422777 -0.04348686 0.040537745 0.037546523 0.01806319 -0.024023652 0.059602086
-0.026308756 0.02736379 -0.049949378 -0.04740029 0.047763962 -0.02433048 -0.023681488 -0.0062296656
00000000: cf1c 0ebd 7de7 a13c ddfd ac3c 6061 9dbc
00000010: 0a6a ca3c bdf1 b8bc a2ac 003c 17fb 943d
00000020: 767e aebc 0993 d8bc 9af1 063d 566d 24bd
00000030: c27b 67bd 0857 cabc c76a 233c b455 363d
00000040: ed57 02bd db43 35bc 374e 5c3d 505d 7ebd
00000050: beff 4e3d ef8d 2f3c 46d3 58bd c988 8dbc
00000060: bed4 89bc b6c8 553d f73c 2a3d f23c 08bd
00000070: 4203 ed3b be74 c3bc 1807 10bd a7f0 473d
00000080: 824d 693d 6b3f 473d 8b0c 333d 07e4 c1bc
00000090: 87aa 8b3d 2d52 643b b022 b93c 17ff 50bd
000000a0: d73b adbd a5fe cebb fa07 bb3c 32e5 91bc
000000b0: 7e18 a9bc d359 103d fc39 1abd 1051 973d
000000c0: cb01 293d 4c17 d8ba 8795 a4bd 3a9f b63c
000000d0: 2155 373d 43df a33b e1b4 89bd c30a 42bd
000000e0: 37ea b43c e109 95bc e6c3 643c 061b e33c
000000f0: 812a 2b3d c807 36bd 4ada 813d 03b9 1bbc
00000100: 8fab a43d 1d86 4d3d c775 523d feef e83c
00000110: f6a1 dbbb 10f9 0a3d dd22 3d3d 3c68 8f3d
00000120: f39d 813b d4ec 043d 3ae3 423c 6841 dcbc
00000130: 1b49 553d f71f 383d e275 2c3d 7a8e 293d
00000140: 07ff 3d3d 4fb3 9f3d f78a 5c3d c728 6b3d
00000150: 4a59 bcbc 3445 55bd 477b d53c a1b2 973d
00000160: a4c8 f7bc f0de 043d 3b17 0bbd ac3f a1bc
00000170: aa54 fb3c 1c25 0c3d c8dd 1cbd efd9 dabc
00000180: 397a 59bb 30e4 dabc b518 efbc d62c ccbc
00000190: fc71 56bd 9d77 27bd 2ec5 6b3d 7dbc 22bd
000001a0: 72ca 93bd b5a8 b0bc 6d68 35bd edf3 6a3d
000001b0: 9159 283d e7a3 3e3d 3f3a 73bd f966 3c3c
000001c0: 7fa9 5bbb 99f8 57bd 81e6 2c3d c0f7 a43c
000001d0: bb68 aa3c a7e5 a23b 3203 93bb eef2 d43c
000001e0: 1eb0 26bd 2a46 223c 409e 0ebd 504e 46bd
000001f0: 6f69 d53a e3c2 f03c e2eb afbc de12 1a3d
00000200: f0f9 29bd d7b6 c43b ea5f 4abc cdb7 a9bc
00000210: 0b41 67ba b529 073d a568 833c 5f33 dd3c
00000220: 084d 0ebd 942a 00bd 9620 953c 11fd 25bc
00000230: d7a7 083b 1e0d 893d ba89 9cbb 6923 1b3c
00000240: 552e 413d a01c 6dbb d3b6 e43c dd14 96bd
00000250: 5eaf 34bc 5a7a 0a3d fc0c f7ba c805 cebb
00000260: f7aa 4e3c 694b 463d 62fc c83b d8f2 ecbc
00000270: 9416 f33b 8de0 b5bc f041 86bc cf7b dd3c
00000280: 3e8f ee3c d4d0 ee3c 73aa 2c3d fc59 d7bc
00000290: df03 793d e205 9c3d 49d7 1cbc 5fc7 2fbd
000002a0: 68ad 143c 174b b63c 40e9 f8bb ad2e 06bb
000002b0: 8ec8 a03c 8974 8f3d 2404 fbbc c7c7 883d
000002c0: c1c7 7c3b ac79 e23b 7c31 8bbd f7c1 bcbc
000002d0: 3b32 533d bd4e 843d 3b9b c6bc 4df8 82bd
000002e0: a265 003d e735 753b b3b8 203d 76e9 743d
000002f0: 512d 073d 2c5a 07bc 1bc8 913d 6e3b 3e3d
00000300: ffaa 3f3d 8523 723d 6c64 d5bc 162b 623a
00000310: f69f 60bc ad96 343c 632b 153d da8b a4bd
00000320: e87e 613c 00b6 1c3d d34c 983d 78f5 b0bc
00000330: a928 bebc a43f eb3c 3934 a43d beeb 5b3d
00000340: 7b0f 053d b4bc 2ebd 701c 943d 744b 7c3d
00000350: 9857 9abc 329b 82bd a93d af3c 126f 623c
00000360: fd69 62bd 05c4 c13b f84a 02bd 0abb 84bd
00000370: 790e a23c a3ce 793d 0008 c33c 6bcc 1f3c
00000380: 25dc 01bd dede 0dbd 404f f0ba 3d4d 57bd
00000390: ace9 85bd 79dc 79bc b6c0 563d 07d9 f1bc
000003a0: ad3d 413d 8ab4 b8bc 14bf 403c 4352 bd3c
000003b0: 53f2 34bc 1538 a43c 4b37 b7bc 6b76 803c
000003c0: 9e24 dbbb 5179 c6bc 471f 32bd e80a 263d
000003d0: 62ca 193d 41f9 933c 40cd c4bc 5121 743d
000003e0: 7685 d7bc 072a e03c b897 4cbd ce26 42bd
000003f0: 25a4 433d b750 c7bc aeff c1bc 3922 ccbb

food_logits.bias f4 [3]
-0.055934526 0.15144412 -0.076899126
00000000: 9a1b 65bd 2b14 1b3e 4a7d 9dbd

net.0.weight f4 [128, 17]
0.16301669 -0.14766 1.4286621 -5.160526 -0.6268207 -0.272535 -0.15095626 0.14234951
-0.03413669 0.054006845 0.13646547 -0.13171303 0.14810127 0.00927388 -0.044126146 0.1655642
0.12756109 0.076947056 -0.07068929 -2.3154585 3.6984098 2.2496164 -0.17836866 0.1445079
-0.079895094 0.18074407 0.039616622 -0.12624075 -0.18691686 -0.24432226 -0.1029461 0.09676703
-0.09132947 -0.008785939 -0.041069932 -0.0035495271 1.1413556 -1.313229 -3.3290884 0.11233631
0.020992 0.028263511 0.06439335 -0.008366286 0.108476534 0.055188783 0.08138127 0.05744389
-0.072465815 0.025041204 -0.056002624 -0.10424523 -0.09231957 1.0943745 -4.481917 -0.3192503
-0.013459743 0.21580559 -0.164377 -0.07172941 -0.013464258 -0.15461212 -0.18214306 -0.18981995
-0.16138744 0.14825147 0.18770626 0.047301807 0.102789596 -0.20184438 1.3894479 1.0814971
-2.8903594 0.011486193 -0.18058047 -0.11005775 -0.092511036 0.17994949 -0.039867286 0.069546804
-0.17308298 0.21325208 0.10417888 0.0071928403 -0.1172187 -0.07622957 -0.058583062 1.7393974
-1.708234 -2.2166233 -0.296847 -8.12572e-05 -0.06638366 -0.15160264 -0.20592164 0.19499621
-0.06376903 -0.06320944 -0.013445089 0.021408387 -0.105828345 -0.07180931 -0.0674142 -0.10525251
-1.9134355 5.5597024 0.9842174 -0.047192276 0.105117925 0.21051641 0.028355 -0.011497335
0.21452029 -0.0040990193 0.033949044 -7.2940966e-05 -0.060475003 0.0059577962 0.06300118 0.17397036
0.083177924 2.2115154 -5.910468 -0.9548012 0.15408264 -0.033974633 0.30365324 0.24872081
0.12257847 -0.036291476 0.02098295 -0.026692409 0.002349284 0.19885238 0.05305992 -0.048042115
-0.09839054 -0.0038336462 1.3636034 -1.82439 -0.37393612 0.22479641 0.2391704 -0.0633275
-0.006845622 0.050336625 0.031727314 -0.1630248 0.016390111 0.09706772 0.09662073 0.034103695
-0.24445839 0.085980244 0.025089664 -1.8579373 6.3120537 1.0172739 -0.08846932 0.06386659
-0.08255587 0.009062324 0.048682604 0.032245472 0.040035967 -0.13303788 -0.08652491 0.23037064
0.12876637 0.03996126 0.16020605 -0.08059168 -2.0289602 2.674091 3.830527 -0.0895349
0.011815017 -0.060839865 0.09117877 -0.20172268 -0.31006914 0.007990726 0.049176503 0.19799523
0.008986397 0.16752689 -0.14174438 0.14891827 -0.030640626 0.34289724 -3.9421954 0.4537462
0.19540162 0.070420735 -0.028764406 0.07233989 -0.029722404 -0.2328062 -0.14103456 0.063565016
0.055519525 -0.043005276 -0.042302277 0.005815467 0.014533178 0.05710631 -0.68736213 6.2176023
-0.1364146 0.063165255 0.12721968 0.041901458 -0.18093409 0.007109383 0.019048696 -0.0924397
0.1348964 0.021728972 -0.022556556 0.08335744 0.010728177 0.016827522 0.0048598484 -0.905231
-2.6412165 3.9751394 0.055600144 0.026503904 0.013278874 -0.23663677 -0.18501593 -0.16647173
-0.23877479 0.1232255 0.038750123 0.085492104 -0.07509897 0.17842834 -0.039904445 0.11826545
-1.4178286 5.5822144 1.2751415 -0.043216407 -0.25060317 0.016528774 0.2647189 0.11745088
-0.057337694 -0.09142848 0.13946462 0.1193308 0.13538116 -0.05874624 -0.04941412 0.0042783995
00000000: d9ed 263e 2f34 17be 66de b63f 0723 a5c0
00000010: 5277 20bf b589 8bbe 4794 1abe 12c4 113e
00000020: ead2 0bbd 4836 5d3d 9bbd 0b3e c8df 06be
00000030: dca7 173e 79f1 173c 9ebd 34bd a989 293e
00000040: 609f 023e 6b96 9d3d 8cc5 90bd 7930 14c0
00000050: bfb2 6c40 b7f9 0f40 46a6 36be e1f9 133e
00000060: 0aa0 a3bd f914 393e 0a45 223d 4145 01be
00000070: 2267 3fbe 9d2f 7abe 68d5 d2bd cb2d c63d
00000080: f20a bbbd e6f2 0fbc f238 28bd 2f9f 68bb
00000090: f117 923f e317 a8bf c90f 55c0 9410 e63d
000000a0: 6af7 ab3c e188 e73c a9e0 833d bf12 09bc
000000b0: f228 de3d a20d 623d 39ab a63d 494a 6b3d
000000c0: f568 94bd 3623 cd3c 0263 65bd 867e d5bd
000000d0: 0b12 bdbd 7714 8c3f dd6b 8fc0 c674 a3be
000000e0: 4186 5cbc 24fc 5c3e 7252 28be dee6 92bd
000000f0: 3199 5cbc a452 1ebe b683 3abe 2960 42be
00000100: c042 25be 3ccf 173e 1236 403e 8abf 413d
00000110: 5a83 d23d 4bb0 4ebe 6ed9 b13f 7f6e 8a3f
00000120: a6fb 38c0 9630 3c3c 16ea 38be f565 e1bd
00000130: 6d76 bdbd ae44 383e e14b 23bd 8e6e 8e3d
00000140: aa3c 31be c15e 5a3e bd5b d53d ebb1 eb3b
00000150: 5c10 f0bd 401e 9cbd cbf4 6fbd 93a4 de3f
00000160: 69a7 dabf 28dd 0dc0 54fc 97be a168 aab8
00000170: 28f4 87bd b93d 1bbe 1fdd 52be 16ad 473e
00000180: 5699 82bd f373 81bd ca48 5cbc a460 af3c
00000190: 88bc d8bd c210 93bd 7510 8abd a18e d7bd
000001a0: 74eb f4bf 15e9 b140 acf5 7b3f b04c 41bd
000001b0: 1148 d73d 9d91 573e bf48 e83c 515f 3cbc
000001c0: 35ab 5b3e 1151 86bb 270e 0b3d e2f7 98b8
000001d0: a3b4 77bd 9e39 c33b c306 813d 4925 323e
000001e0: 3059 aa3d 7889 0d40 8e22 bdc0 da6d 74bf
000001f0: d7c7 1d3e fc28 0bbd 7078 9b3e abb0 7e3e
00000200: 6c0a fb3d 5fa6 14bd 70e4 ab3c 0aaa dabc
00000210: 72f6 193b f59f 4b3e 5c55 593d cfc7 44bd
00000220: fb80 c9bd e93d 7bbb 8e8a ae3f 9d85 e9bf
00000230: 8e74 bfbe 0831 663e 16e9 743e d9b1 81bd
00000240: 3d51 e0bb c72d 4e3d 80f4 013d f9ef 26be
00000250: 8e44 863c 71cb c63d 17e1 c53d 51b0 0b3d
00000260: 4d53 7abe 6916 b03d d788 cd3c e4d0 edbf
00000270: 58fc c940 0836 823f 672f b5bd 7dcc 823d
00000280: 0d13 a9bd 247a 143c 6967 473d d413 043d
00000290: c1fc 233d 153b 08be f933 b1bd 48e6 6b3e
000002a0: 55db 033e 6bae 233d 0e0d 243e 400d a5bd
000002b0: 7cda 01c0 4f24 2b40 5b27 7540 135e b7bd
000002c0: c693 413c 3933 79bd efbb ba3d 6490 4ebe
000002d0: 62c1 9ebe 89eb 023c 4d6d 493d 43bf 4a3e
000002e0: ae3b 133c 2b8c 2b3e 7025 11be 087e 183e
000002f0: 0d02 fbbc 3a90 af3e ee4c 7cc0 6c51 e83e
00000300: 5d17 483e bf38 903d 55a3 ebbc f026 943d
00000310: 667c f3bc c064 6ebe 5d6b 10be 602e 823d
00000320: 7168 633d 4d26 30bd 2745 2dbd ac8f be3b
00000330: 911c 6e3c 4ee8 693d f7f6 2fbf 99f6 c640
00000340: 45b0 0bbe c95c 813d e045 023e dda0 2b3d
00000350: c946 39be d4f5 e83b 030c 9c3c 0751 bdbd
00000360: 4822 0a3e f500 b23c 87c8 b8bc 4eb7 aa3d
00000370: 3cc5 2f3c dfd9 893c 5d3f 9f3b 38bd 67bf
00000380: b109 29c0 af68 7e40 fabc 633d b71e d93c
00000390: a28f 593c e950 72be d174 3dbe 9177 2abe
000003a0: 6181 74be a75d fc3d 73b8 1e3d 7c16 af3d
000003b0: 7dcd 99bd ebb5 363e d872 23bd 2835 f23d
000003c0: 687b b5bf 80a1 b240 d637 a33f b003 31bd
000003d0: 0f4f 80be 5a67 873c 3c89 873e 168a f03d
000003e0: eeda 6abd db3e bbbd d0cf 0e3e b563 f43d
000003f0: 5ca1 0a3e e69f 70bd 7666 4abd d131 8c3b

net.0.bias f4 [128]
0.34242246 -0.0053740917 -0.3723418 -0.1080266 -0.08838747 0.03600935 -0.27049792 0.26245755
-0.3399368 -0.37601385 0.20435166 0.029280787 0.026007896 0.30771223 -0.11426024 -0.13535044
-0.11702311 -0.15439321 0.11699926 -0.19581927 -0.4604151 -0.0778387 0.19325729 0.62417394
-0.0799417 -0.06362983 0.025611289 0.3533764 -0.1963027 0.30824572 -0.09615339 0.25744313
-0.08741787 0.20004995 0.2910584 0.32163268 -0.20852308 0.08767845 -0.24665903 -0.03757011
0.16032235 -0.18865307 0.15100822 0.17067546 -0.062879436 -0.20065308 -0.0007884748 0.021057446
0.033826612 0.009027298 -0.27401894 -0.34041604 0.3456419 0.051459994 0.4518146 -0.249613
0.24053584 0.33993298 0.09244038 0.020487921 0.03829651 -0.14259402 -0.5446477 0.30146316
0.2369429 -0.5103867 -0.19975413 0.31169242 0.14295483 -0.2344889 0.09995357 -0.47465894
0.0020640872 -0.16412854 0.5931215 -0.046230752 0.26412076 0.32345998 -0.11460753 0.38802597
0.29298997 0.19927564 0.11018937 0.1243657 0.20708549 0.13397281 -0.19800329 -0.20734258
0.16971236 0.13821103 0.05208932 -0.14672878 0.15370895 0.19039473 -0.14606981 0.36095765
0.28501716 -0.1547398 -0.22430801 0.24801281 0.4134306 -0.06857485 -0.2933156 -0.11547374
0.3844159 0.37752983 0.09772743 0.102427535 0.15249023 0.030124689 0.019349536 0.11445806
-0.2952522 0.20716049 -0.10463323 -0.2476742 -0.12976715 0.28831738 0.18956697 0.15770605
-0.23437999 -0.016562602 -0.07394504 0.2704565 -0.4270133 0.034703653 0.20459904 0.07738188
00000000: ff51 af3e 2619 b0bb 96a3 bebe 0d3d ddbd
00000010: 7d04 b5bd 8a7e 133d b47e 8abe d660 863e
00000020: 320c aebe e384 c0be 9041 513e 43de ef3c
00000030: 830e d53c 758c 9d3e 4601 eabd 4e99 0abe
00000040: d0a9 efbd 4119 1ebe 4f9d ef3d d984 48be
00000050: 87bb ebbe e569 9fbd 3de5 453e ddc9 1f3f
00000060: 79b8 a3bd 5b50 82bd c4ce d13c c0ed b43e
00000070: 9303 49be 62d2 9d3e 12ec c4bd 96cf 833e
00000080: 2408 b3bd e5d9 4c3e 9b05 953e 0aad a43e
00000090: 1387 55be c290 b33d 2f94 7cbe 1ee3 19bd
000000a0: 8b2b 243e 452e 41be e6a1 1a3e 8cc5 2e3e
000000b0: efc6 80bd 0078 4dbe a6b1 4eba aa80 ac3c
000000c0: c68d 0a3d 3be7 133c 364c 8cbe 034b aebe
000000d0: faf7 b03e b7c7 523d 3e54 e73e 8d9a 7fbe
000000e0: 074f 763e b20b ae3e 6251 bd3d 49d6 a73c
000000f0: cddc 1c3d 2b04 12be 086e 0bbf 6159 9a3e
00000100: 29a1 723e b4a8 02bf 598c 4cbe 2696 9f3e
00000110: c062 123e dc1d 70be 75b4 cc3d 7f06 f3be
00000120: a345 073b 5011 28be d0d6 173f 755c 3dbd
00000130: d63a 873e 8c9c a53e 5ab7 eabd 57ab c63e
00000140: c802 963e ea0e 4c3e f7aa e13d 72b3 fe3d
00000150: 380e 543e 2b30 093e 60c1 4abe 9d51 54be
00000160: 14c9 2d3e 3187 0d3e 9c5b 553d 1240 16be
00000170: e165 1d3e d6f6 423e 5393 15be 71cf b83e
00000180: c5ed 913e 1c74 1ebe 00b1 65be 12f7 7d3e
00000190: 2dad d33e f970 8cbd 762d 96be 7f7d ecbd
000001a0: 29d2 c43e 974b c13e 5225 c83d 87c5 d13d
000001b0: 6626 1c3e 0dc8 f63c eb82 9e3c fd68 ea3d
000001c0: 4c2b 97be e121 543e f249 d6bd 4e9e 7dbe
000001d0: aee1 04be 569e 933e d81d 423e b27d 213e
000001e0: 4f01 70be 4bae 87bc 7f70 97bd 4679 8a3e
000001f0: 7da1 dabe 6b25 0e3d 6982 513e 647a 9e3d

net.2.weight f4 [128, 128]
-0.17653516 -0.011798134 -0.05180021 0.08050904 0.00032325863 0.11790713 -0.09967509 0.04500032
-0.062494997 -0.17161533 -0.20353201 0.06848106 0.0008971183 -0.028495852 -0.1109531 -0.17027469
0.033855505 -0.124470435 -0.056705818 -0.1492247 -0.087589465 0.06312593 0.051810727 0.106350265
-0.076273985 -0.10162885 -0.028340772 0.058107566 -0.10558701 0.18055741 -0.26609042 0.11138308
-0.14736709 -0.028659606 -0.35881242 0.02802814 -0.04403601 -0.0070446883 0.039076712 0.08371901
0.026817804 -0.008056411 -0.058054097 -0.1252032 -0.15720421 -0.029602107 -0.09485267 -0.07490974
-0.02677466 0.035506494 0.0350561 -0.27267307 -0.0371098 -0.20538375 0.09077669 0.024804393
-0.121720545 -0.041578725 -0.1686535 -0.09981412 -0.020814024 -0.05084053 -0.057000063 0.015471602
-0.04068643 -0.051883217 0.10321493 -0.059368607 -0.069006 -0.01424783 0.10226274 0.010070226
-0.07447247 -0.09824266 -0.12112471 -0.15401173 -0.16150548 0.06484163 -0.29950944 0.120868124
0.08703632 0.0023541076 -0.041123446 -0.019953806 0.08791214 -0.16092968 -0.18672167 0.1346261
-0.12559944 -0.0004072861 -0.19200438 -0.06783046 -0.05780381 -0.16308387 0.03235855 -0.43498316
0.0060282014 0.003514106 -0.029006876 -0.025854424 0.021992955 -0.027704902 -0.092705116 -0.07727494
-0.46075296 0.12415543 -0.055166498 0.08986616 -0.01514039 0.041212298 0.07432561 -0.29063278
0.07903773 0.0690744 -0.03142395 -0.0872438 -0.09439322 -0.0806699 0.022038264 -0.059514496
-0.071187995 -0.17443213 -0.07770988 0.12051894 -0.1426807 0.051462002 -0.15139014 -0.091456294
-0.16304544 -0.12577097 -0.07288678 -0.018211558 -0.14063147 0.10098865 0.17938833 0.0040700654
-0.29810563 0.0809381 0.09970055 -0.099478565 0.11119505 -0.16689838 -0.19878902 -0.021212373
-0.034197785 0.17355543 -0.15420432 0.025722427 -0.00019971616 -0.03462658 0.061459877 -0.042091988
0.13266079 0.077729434 -0.18203673 -0.13545892 0.07986785 -0.039725978 -0.07201698 -0.32618207
-0.065949164 -0.098520786 0.04405094 -0.251763 -0.10261631 -0.16308138 -0.16059874 0.01702335
-0.18803751 0.008504905 0.0009083076 0.01811063 -0.030444326 0.019188514 -0.053612202 0.07705081
-0.11942679 0.09836873 0.00848855 0.087417595 -0.05041728 -0.057616893 0.022088157 -0.23528655
0.16826998 -0.22443773 0.021799596 -0.07800019 -0.102852575 0.102251776 0.1301071 -0.12146483
-0.013876481 -0.0019467318 -0.14610611 0.060518116 0.007965391 0.04123211 0.066555575 0.011626896
-0.08940741 0.09997083 -0.13916332 -0.13069317 0.07983165 -0.107777126 -0.027584407 -0.08615473
-0.15490216 -0.1031049 0.13843721 0.040834114 -0.15971246 0.06740463 0.10944667 0.03285343
-0.20562547 0.040462308 -0.0035380546 0.05238662 -0.016137175 -0.031817716 -0.1297117 -0.008180645
-0.063139156 -0.027643861 0.19850665 -0.15421726 -0.17303966 -0.5168674 -0.0009075001 0.019150527
-0.002326122 -0.35026467 -0.16652338 -0.10141819 -0.16536318 0.009629146 -0.09873591 0.11939862
0.11809965 0.0073974687 -0.46627223 0.1641883 0.075062804 -0.052888367 -0.082881756 -0.07577626
-0.007797367 0.11973355 0.092154175 -0.21765555 0.024593757 0.103210725 0.07062793 0.14032198
00000000: a2c5 34be f64c 41bc 752c 54bd ece1 a43d
00000010: 0a7b a939 4b79 f13d 7422 ccbd 4152 383d
00000020: c1fa 7fbd eebb 2fbe b26a 50be cc3f 8c3d
00000030: 972c 6b3a 2270 e9bc 613b e3bd 7d5c 2ebe
00000040: 12ac 0a3d 5bea febd 5c44 68bd 5cce 18be
00000050: 1b62 b3bd 2b48 813d 7c37 543d 2bce d93d
00000060: 8935 9cbd c922 d0bd e82a e8bc 3302 6e3d
00000070: 013e d8bd 0be4 383e 013d 88be d01c e43d
00000080: 66e7 16be 8dc7 eabc 43b6 b7be 459b e53c
00000090: 1a5f 34bd 21d7 e6bb e70e 203d df74 ab3d
000000a0: 03b1 db3c 09ff 03bc 22ca 6dbd 4535 00be
000000b0: 24fa 20be 1e80 f2bc 1e42 c2bd 476a 99bd
000000c0: 8856 dbbc 426f 113d fc96 0f3d ce9b 8bbe
000000d0: 7200 18bd 1e50 52be 21e9 b93d 9532 cb3c
000000e0: 9f48 f9bd 744e 2abd 81b3 2cbe 586b ccbd
000000f0: 2c82 aabc 293e 50bd e678 69bd 9a7c 7d3c
00000100: d0a6 26bd 7f83 54bd 5962 d33d 7f2c 73bd
00000110: 0553 8dbd bb6f 69bc 216f d13d 97fd 243c
00000120: 0685 98bd 7333 c9bd 3b10 f8bd 40b5 1dbe
00000130: b161 25be b0cb 843d 4d59 99be b589 f73d
00000140: 1940 b23d 5f47 1a3b 0f71 28bd 2a76 a3bc
00000150: 480b b43d c0ca 24be f733 3fbe 6ddb 093e
00000160: 249d 00be 0489 d5b9 cc9c 44be b2ea 8abd
00000170: b0c3 6cbd 75ff 26be 668a 043d 1db6 debe
00000180: 3888 c53b ea4c 663b d49f edbc a8cc d3bc
00000190: 922a b43c 64f5 e2bc 2edc bdbd 5342 9ebd
000001a0: d0e7 ebbe 3445 fe3d 44f6 61bd c00b b83d
000001b0: 660f 78bc 3ace 283d 0738 983d d2cd 94be
000001c0: 89de a13d e176 8d3d 66b6 00bd e1ac b2bd
000001d0: 3c51 c1bd 4336 a5bd 9789 b43c 79c5 73bd
000001e0: 03cb 91bd 569e 32be 5c26 9fbd a2d2 f63d
000001f0: e41a 12be d2c9 523d 0406 1bbe 704d bbbd
00000200: 62f5 26be 1bca 00be aa45 95bd 6830 95bc
00000210: b201 10be 23d3 ce3d 93b1 373e 2f5e 853b
00000220: 4da1 98be e0c2 a53d cd2f cc3d 6bbb cbbd
00000230: 3bba e33d 69e7 2abe 598f 4bbe 92c5 adbc
00000240: fa12 0cbd 84b8 313e bde7 1dbe d7b7 d23c
00000250: e66a 51b9 9ad4 0dbd 5abd 7b3d a668 2cbd
00000260: 3bd8 073e 9c30 9f3d d667 3abe beb5 0abe
00000270: c191 a33d b5b7 22bd a37d 93bd 5601 a7be
00000280: 5b10 87bd 44c5 c9bd c26e 343d 14e7 80be
00000290: 8028 d2bd cefe 26be ff73 24be 8d74 8b3c
000002a0: e88c 40be 2858 0b3c 7e1b 6e3a be5c 943c
000002b0: 6166 f9bc 3b31 9d3c 7898 5bbd d1cc 9d3d
000002c0: 0896 f4bd 8b75 c93d 8f13 0b3c ff07 b33d
000002d0: 5a82 4ebd b1ff 6bbd 39f2 b43c f5ee 70be
000002e0: f74e 2c3e 01d3 65be 1195 b23c 90be 9fbd
000002f0: 5fa4 d2bd 6169 d13d cc3a 053e 8ec2 f8bd
00000300: 2e5a 63bc 7b29 ffba d79c 15be d8e1 773d
00000310: 4581 023c 00e3 283d 4a4e 883d bd7e 3e3c
00000320: 3b1b b7bd 82bd cc3d d480 0ebe 6ed4 05be
00000330: c77e a33d 41ba dcbd b2f8 e1bc e471 b0bd
00000340: ac9e 1ebe a928 d3bd 7cc2 0d3e ac41 273d
00000350: aa8b 23be 700b 8a3d 9325 e03d 5191 063d
00000360: 7c8f 52be cebb 253d b5de 67bb 5a93 563d
00000370: 1c32 84bc 4b53 02bd 25d3 04be 1d08 06bc
00000380: 1a4f 81bd 6175 e2bc 5445 4b3e 21eb 1dbe
00000390: 4f31 31be 6c51 04bf 4de5 6dba 91e1 9c3c
000003a0: da71 18bb e455 b3be 1b85 2abe 57b4 cfbd
000003b0: f754 29be 91c3 1d3c 0e36 cabd 4487 f43d
000003c0: 3bde f13d 7766 f23b 3cbb eebe fa20 283e
000003d0: 87ba 993d 79a1 58bd e9bd a9bd 9530 9bbd
000003e0: 0e81 ffbb dd36 f53d 54bb bc3d 19e1 5ebe
000003f0: d978 c93c 2560 d33d 60a5 903d 91b0 0f3e
