src/training_logs_ppo/initial/ppo_checkpoint_84_1764184679.pt (torch, 480089 bytes, 42 tensors)

move_logstd f4 [2]
0	0x3f8c3dcd	1.095636
1	0x3f8d5c0c	1.1043715

shared.0.weight f4 [128, 17]
0	0x3e007979	0.12546338
1	0xbe1045be	-0.14089105
2	0xbe600813	-0.2187808
3	0x3e4b772e	0.19869682
4	0x3e310c35	0.17289813
5	0xbe325024	-0.17413384
6	0xbdd3964a	-0.103314
7	0x3dc33ddb	0.09533282
8	0x3e63b5c6	0.2223731
9	0xbe45d744	-0.19320399
10	0x3def40c1	0.11682273
11	0xbe148d2f	-0.14506982
12	0xbd63a1d1	-0.055574242
13	0xbcd11cea	-0.025526483
14	0x3d00d64c	0.03145437
15	0x3e15fd23	0.14647345
16	0xbe0cc4ed	-0.13746996
17	0xbd9c38d6	-0.07628028
18	0xbdd0810f	-0.10180866
19	0x3b16aa3c	0.0022989651
20	0x3d42186f	0.047386583
21	0xbe6280e6	-0.22119483
22	0x3e542bdf	0.2071986
23	0xbe212c0d	-0.1573946
24	0x3cf95868	0.030437663
25	0xbe1994f9	-0.14998235
26	0xbe4b2d29	-0.19841446
27	0xbe00d514	-0.12581283
28	0x3be7fbf4	0.0070795957
29	0x3e3586ab	0.17727153
30	0x3d3995a4	0.045308724
31	0x3db47f51	0.08813346
32	0xbdf7ab7e	-0.120932564
33	0xbe23a6bb	-0.15981571
34	0x3e255408	0.16145337
35	0x3e83788c	0.25677907
36	0x3e18bc4d	0.14915581
37	0x3da8b811	0.08238233
38	0xbe8f8ece	-0.2803864
39	0xbe263af7	-0.16233431
40	0xbcf66f29	-0.030082302
41	0xbdbaf84f	-0.09129392
42	0xbd6285d9	-0.05530343
43	0xbde7b7b5	-0.11314336
44	0xbddc2c9d	-0.10750697
45	0x3c9aed28	0.018911913
46	0x3e4fcfbd	0.2029409
47	0xbe47ba1b	-0.19504587
48	0x3e2a1465	0.16609342
49	0x3d52bda4	0.051450387
50	0x3d971be0	0.073783636
51	0x3d030212	0.031984396
52	0xbe05076a	-0.1299111
53	0xbe63f337	-0.22260748
54	0x3d9dd0f2	0.07705869
55	0x3dea45bf	0.11439084
56	0x3ded7f0b	0.11596497
57	0x3e0e8a41	0.13919927
58	0x3d26a468	0.040684134
59	0x3e1ce75e	0.15322635
60	0xbd9280d0	-0.07153475
61	0x3db7fad5	0.08983389
62	0xbce21dce	-0.027602103
63	0xbd961d7d	-0.07329843
64	0xbdedb81b	-0.11607381
65	0x3d525417	0.051349726
66	0xbe15af7a	-0.1461772
67	0x3e5d6e45	0.21624096
68	0x3e236971	0.15958191
69	0x3e0e28e0	0.1388278
70	0xbe615124	-0.22003609
71	0x3e3221b3	0.17395668
72	0x3c615cef	0.013755067
73	0x3e51c1ae	0.20484039
74	0xbbbdffb9	-0.005798307
75	0xbc56c68a	-0.013108859
76	0xbe1e9e9d	-0.15490194
77	0x3e1e577b	0.15463059
78	0x3d1835db	0.037160736
79	0x3dd8f22b	0.10593065
80	0x3e01a832	0.12661818
81	0x3cbfd09f	0.023414908
82	0x3cd01a8f	0.02540329
83	0xbd6ff2fd	-0.05858134
84	0x3de27eb6	0.110593244
85	0xbd1701d6	-0.036866985
86	0x3dcda656	0.10041492
87	0xbd822d86	-0.06356339
88	0xbe7079e3	-0.23483996
89	0xbe4ef14e	-0.20209238
90	0x3ddf3161	0.1089809
91	0x3e3c23f1	0.18373086
92	0xbe108994	-0.14114982
93	0x3e59f66b	0.21285407
94	0xbb765259	-0.0037585704
95	0x3d939eb8	0.072080076
96	0x3ddf4a42	0.109028354
97	0x3dbef8dd	0.09324811
98	0xbe12ca22	-0.1433492
99	0xbe092ce9	-0.13396038
100	0xbdeb3257	-0.11484211
101	0xbd6632c4	-0.056200758
102	0x3d2e0c5f	0.042492267
103	0xba767e12	-0.0009402941
104	0xbd460e54	-0.048353508
105	0x3e1311ea	0.14362302
106	0x3d65da8c	0.056116626
107	0x3dc7074c	0.09718189
108	0xbe5f1469	-0.2178513
109	0xbda3ef68	-0.080046475
110	0x3e7cc0d4	0.24682933
111	0x3c625408	0.01381398
112	0xbe591735	-0.21200259
113	0xbe48bc21	-0.19603015
114	0x3d6a7e54	0.057249382
115	0xbdc2037e	-0.09473322
116	0x3d15dec2	0.03658939
117	0xbe02c8f2	-0.12771967
118	0xbcfea02c	-0.031082235
119	0xbe10bdfe	-0.14134976
120	0x3c743d96	0.014907261
121	0x3d1cca6d	0.038278986
122	0x3e073316	0.13203081
123	0x3a041595	0.00050386164
124	0xbe5fc234	-0.21851426
125	0xbe35b60d	-0.17745228
126	0x3e30b5e8	0.17256892
127	0xbdb1b274	-0.08676615
128	0xbe3918a6	-0.18075809
129	0x3d6af114	0.057358816
130	0xbcdfcf32	-0.027320478
131	0xbe4327ce	-0.19058153
132	0xbe4d5a0c	-0.20053881
133	0x3e3e64ff	0.18593214
134	0x3c41d29d	0.011829999
135	0xbb80dd55	-0.003932635
136	0xbdcb2e25	-0.09920911
137	0x3da4a251	0.08038772
138	0xbc1d97bb	-0.009618695
139	0x3d6d3cf0	0.057919443
140	0xbbc02f9d	-0.005865051
141	0xbe5e6333	-0.21717529
142	0x3c3f83ea	0.011689166
143	0x3e80175b	0.2501782
144	0x3ca274f0	0.01983115
145	0xbe6219c7	-0.22080146
146	0x3da14d52	0.07876076
147	0xbdc0afb5	-0.094085135
148	0x3dcf83ed	0.10132585
149	0xbe18c827	-0.14920102
150	0xbe662cb5	-0.22477992
151	0x3d9443e7	0.07239514
152	0xbe1f4163	-0.15552287
153	0x3e209019	0.15679969
154	0x3c5c374f	0.013440921
155	0x3cb4f6dd	0.02209037
156	0xbe63b130	-0.2223556
157	0xbe42f2a0	-0.19037867
158	0xbd86ca93	-0.06581607
159	0x3a8b1af6	0.0010612893
160	0x3dc6e0ed	0.0971087
161	0x3e2241b8	0.15845382
162	0x3e6ce811	0.23135401
163	0xbe112344	-0.14173609
164	0x3daaec7e	0.083458886
165	0xbe75f825	-0.24020441
166	0xbe164965	-0.14676435
167	0x3e208b1d	0.15678068
168	0x3da31051	0.079620965
169	0x3d18581a	0.037193395
170	0xbe118073	-0.14209156
171	0x3da0ba01	0.078479774
172	0xbd973ea9	-0.07384998
173	0x3d9e5ece	0.07732926
174	0xbe5ac5b9	-0.21364488
175	0x3e2f9645	0.17147167
176	0xbdef2bc3	-0.11678269
177	0xbdf3e995	-0.119097866
178	0xbe614057	-0.219972
179	0xbe21987b	-0.15780823
180	0x3e809e92	0.2512098
181	0xbdb940c5	-0.09045557
182	0xbe3aabb1	-0.18229558
183	0x3d48e16c	0.049043104
184	0x3dc3c878	0.09559721
185	0x3dd1d3b0	0.10245454
186	0xbe07252b	-0.13197772
187	0xbdc15ea0	-0.094418764
188	0xbe203ce6	-0.15648231
189	0x3e38d79b	0.18050997
190	0xbe3d4f1f	-0.18487214
191	0x3d75e0de	0.060028903
192	0x3e068333	0.13135986
193	0x3e69abc1	0.22819425
194	0x3e744493	0.23854284
195	0xbd1392c8	-0.036028653
196	0xbd98e96b	-0.07466396
197	0xbe50b821	-0.2038274
198	0x3d914646	0.07093482
199	0xbd900914	-0.070329815
200	0xbd3751f6	-0.0447559
201	0xbde2a3f1	-0.110664256
202	0xbd5c6d40	-0.053815126
203	0xbd689f75	-0.056792695
204	0x3c8510e6	0.01624341
205	0xbe269c0d	-0.16270466
206	0xbe52c11f	-0.20581482
207	0x3db64b17	0.08901041
208	0xbd0aac78	-0.033855885
209	0xbe53fb48	-0.20701325
210	0x3dc7b5ca	0.097514704
211	0xbdf11f0a	-0.11773498
212	0xbd9e622d	-0.07733569
213	0xbb4ca32d	-0.003122519
214	0xbdf5b1f4	-0.119968325
215	0xbd06165f	-0.03273618
216	0xbe274ce6	-0.16337928
217	0xbd4d4373	-0.050113153
218	0xbc2bff3d	-0.010497865
219	0x3d7cecd0	0.06174928
220	0xbdbc20d7	-0.09185951
221	0x3e34c27f	0.1765232
222	0x3bee1295	0.0072653987
223	0xbe4c31c8	-0.19940865
224	0x3e1a10f4	0.1504553
225	0xbd5a3042	-0.05326868
226	0x3e16190f	0.14657997
227	0xbe4176d6	-0.18892989
228	0x3ce39b88	0.027784124
229	0x3dc3a1c8	0.09552342
230	0xbd4c822e	-0.049928837
231	0xbd0aae12	-0.033857413
232	0x3d6a8d5e	0.057263725
233	0x3d8a114b	0.067415796
234	0xbad69c97	-0.0016373572
235	0xbdb08bd1	-0.08620418
236	0x3e09a1e3	0.13440661
237	0xbd8e5d50	-0.06951392
238	0xbdcf9dac	-0.101374954
239	0x3d768f6e	0.06019538
240	0xbdce35a1	-0.10068823
241	0xbe1c8c12	-0.15287808
242	0xbe0d7cd3	-0.13817148
243	0xbe3b43f3	-0.1828764
244	0x3e3d470c	0.18484133
245	0xbe4ff94c	-0.20309943
246	0x3e550948	0.20804322
247	0x3d987b28	0.07445365
248	0x3c708d66	0.0146821495
249	0xbd3ae23d	-0.045625914
250	0xbd82b077	-0.06381314
251	0x3ce590c1	0.028023126
252	0x3e433fae	0.1906726
253	0xbe63c0ba	-0.22241488
254	0xbd7b7041	-0.06138635
255	0xbd03273e	-0.032019846

shared.0.bias f4 [128]
0	0xbd61b8f2	-0.05510802
1	0xbe87fc4a	-0.2655967
2	0xbd3c5f7a	-0.04598949
3	0xbe211d56	-0.15733847
4	0xbdb1b205	-0.08676533
5	0x3ca2388d	0.019802356
6	0x3cd9d26f	0.0265896
7	0x3e5575d1	0.20845725
8	0xbe77658e	-0.24159834
9	0xbd2eb3b3	-0.042651843
10	0x3e22d034	0.15899736
11	0xbe56e766	-0.20986709
12	0x3dd32d06	0.10311322
13	0xbd908a00	-0.070575714
14	0x3c379747	0.011205501
15	0xbe20bba4	-0.15696579
16	0xbd6e6d29	-0.058209572
17	0x3e58e386	0.21180543
18	0x3e047456	0.12935004
19	0xbe4f432b	-0.20240466
20	0x3a49f3a4	0.0007703847
21	0x3d16f3df	0.036853667
22	0x3ca94ce0	0.02066654
23	0x3d6d3f2b	0.05792157
24	0xbd07cc34	-0.033153728
25	0xbdf89fb9	-0.1213984
26	0x3b020e9a	0.001984513
27	0x3d192528	0.03738895
28	0x3e34e37b	0.17664902
29	0xbe569453	-0.20955019
30	0xbb9130f1	-0.004430883
31	0xbe7f8f32	-0.24956968
32	0xbdc1323b	-0.09433409
33	0x3c857b31	0.016294094
34	0xbe6a3cf7	-0.22874819
35	0x3c957f44	0.018249162
36	0xbe3d39bd	-0.18479057
37	0xbe8e8e60	-0.27842999
38	0xbdbafe4f	-0.09130537
39	0xbcbc06ba	-0.022952426
40	0xbe7118bd	-0.23544593
41	0xbe8a4af2	-0.27010304
42	0x3c52c9ec	0.012865525
43	0xbdf66471	-0.120308764
44	0x3e1d3af7	0.15354525
45	0xbe8a3d09	-0.2699969
46	0x3e483076	0.19549736
47	0xbe891cfe	-0.26779932
48	0x3e1ee33d	0.15516372
49	0xbdadd4d8	-0.08487862
50	0xbe6e742e	-0.23286507
51	0xbded500f	-0.115875356
52	0xbe2eccb6	-0.17070279
53	0x3c97d368	0.018533424
54	0x3c5ea8d3	0.0135900555
55	0x3c8f6fab	0.017509302
56	0x3ddbf341	0.107397564
57	0xbe44a4cf	-0.19203494
58	0xbcd7a723	-0.026324814
59	0xbd9e4334	-0.07727662
60	0xbd22e557	-0.039769497
61	0xbc839ed6	-0.01606695
62	0xbd92e987	-0.07173448
63	0xbe08c04a	-0.13354602
64	0xbe820cde	-0.25400442
65	0xbddc63ff	-0.1076126
66	0xbe948ccc	-0.2901367
67	0xbeaba280	-0.33522415
68	0xbd25f82c	-0.04051988
69	0x3d89f3e5	0.06735972
70	0xbe8a3f80	-0.27001572
71	0xbe39e28a	-0.18152824
72	0x3d55ad6a	0.052167334
73	0x3e2ce4bc	0.1688413
74	0x3d773cae	0.060360603
75	0xbdb23c8c	-0.08702955
76	0x3e557198	0.20844114
77	0xbe6acdfa	-0.22930136
78	0xbdeda716	-0.11604135
79	0xbdf48dc4	-0.11941102
80	0xbdc2e59b	-0.0951645
81	0xbe51e376	-0.20496926
82	0xbea5df5b	-0.3239697
83	0xbe448b6e	-0.19193813
84	0xbde5a501	-0.112131126
85	0xbdc4fc0d	-0.09618387
86	0x3ce808c5	0.028324494
87	0x3d1a2465	0.037632365
88	0xbca4c1e6	-0.02011199
89	0xbe60490f	-0.2190287
90	0x3d91738b	0.07102116
91	0xbd871461	-0.06595684
92	0xbdd9045f	-0.10596537
93	0x3e544fea	0.2073361
94	0xbe5ae661	-0.21376945
95	0x3e303134	0.1720627
96	0xbe657ba3	-0.22410445
97	0xbe6b9cde	-0.23009059
98	0x3e4e0174	0.20117742
99	0xbdca3e07	-0.09875112
100	0x3e4d6d92	0.20061329
101	0xbde415ac	-0.11136946
102	0x3e3907da	0.18069401
103	0x3d567673	0.052359056
104	0x3dd16e43	0.10226109
105	0xbd0c866d	-0.034307886
106	0xbd8d30ce	-0.068940744
107	0xbd62fe67	-0.0554184
108	0x3c00e041	0.007865966
109	0xbe143e19	-0.14476813
110	0x3d4b1ed4	0.049589947
111	0xbe36d3a0	-0.17854166
112	0xbe082fbb	-0.13299458
113	0xbe7b9fd4	-0.24572688
114	0x3c9f97c6	0.01948155
115	0xbe250438	-0.1611489
116	0xbe0180b5	-0.12646754
117	0xbd202e42	-0.039106615
118	0xbe861cb1	-0.26193765
119	0x3d2e6fd7	0.042587128
120	0x3ca811f0	0.020516366
121	0xbe84090e	-0.25788158
122	0xbe5411d8	-0.20709932
123	0xbe33d42d	-0.17561407
124	0xbe0c85e7	-0.13722955
125	0x3d7a8c65	0.061169047
126	0xbe8efc49	-0.27926853
127	0xbc1e9dde	-0.009681193

shared.2.weight f4 [128, 128]
0	0x3cd1561a	0.025553752
1	0x3d467d5e	0.048459403
2	0x3d68029d	0.056643117
3	0xbcb2033c	-0.021730058
4	0x3d86cbad	0.06581817
5	0x3d599048	0.053116113
6	0xbd3484a6	-0.044071816
7	0x3d0d374a	0.034476556
8	0xbc78b9f2	-0.015181052
9	0x3d82b2cf	0.06381761
10	0xbb09bc74	-0.0021016868
11	0xbda419ef	-0.08012759
12	0xbda852a2	-0.08218886
13	0x3d0fc242	0.035097368
14	0x3cdc3ff3	0.026885962
15	0x3daa818f	0.083254926
16	0x3d13994e	0.036034875
17	0xbd132b3c	-0.035929903
18	0xba96d7fb	-0.0011508459
19	0x3b31d2be	0.0027133669
20	0x3c41724e	0.0118070375
21	0xbdbc8a34	-0.09206048
22	0xbd8c5cca	-0.068536356
23	0x3ccc718a	0.024956483
24	0x3da9be49	0.08288247
25	0xbda86118	-0.08221644
26	0xbcc2e557	-0.023790998
27	0xbbe1fa24	-0.006896274
28	0xbdfdd298	-0.12393683
29	0xbd80a1e3	-0.062808774
30	0xbca18c09	-0.019720094
31	0x3c628174	0.013824809
32	0xbc4cd768	-0.012502529
33	0xbba9290a	-0.005162363
34	0x3d818321	0.06323839
35	0xbd01bbb1	-0.031673137
36	0x3d843c73	0.06456842
37	0xbdc69fd5	-0.09698454
38	0x3d41ec65	0.047344584
39	0xbd95ee96	-0.07320897
40	0x3ca7f12f	0.020500747
41	0xbdcdacd6	-0.100427315
42	0xbdab6cdc	-0.08370373
43	0x3d36d770	0.04463905
44	0xbb24c4ed	-0.002514179
45	0xbda0ce6e	-0.07851873
46	0xbd85aefe	-0.06527518
47	0x3d341381	0.043963913
48	0xbcd11c42	-0.02552617
49	0xbda9e483	-0.08295538
50	0x3cd4b630	0.02596578
51	0xbd752fe1	-0.059860114
52	0x3d1af205	0.037828464
53	0x3beead0c	0.0072838124
54	0xbce70ec3	-0.028205281
55	0x3d520083	0.05127002
56	0x3d3816f3	0.04494376
57	0xbd808d3d	-0.06276939
58	0xbc03bac1	-0.008040131
59	0x3d143651	0.036184613
60	0xbd1648b4	-0.03669043
61	0xbd548057	-0.051880207
62	0xbd0b7f70	-0.03405708
63	0xbd5b016a	-0.053468145
64	0x3d8047e6	0.062637135
65	0x3d486096	0.048920237
66	0x3b93ab66	0.0045065163
67	0xbca2c052	-0.019867096
68	0xbdcbf9f2	-0.09959783
69	0x3b91a000	0.0044441223
70	0xbd4f78ba	-0.050652243
71	0x3cc1857c	0.02362322
72	0xbcc12a80	-0.023579836
73	0xbd90aa77	-0.070637636
74	0xbd80eb6b	-0.062949024
75	0xbd58bfd8	-0.05291733
76	0xbd4592e1	-0.048235778
77	0xbd971f2c	-0.073789924
78	0xbd20bab4	-0.039240554
79	0x3d163e40	0.03668046
80	0xbd09a4f9	-0.033604596
81	0xbd1e899b	-0.03870545
82	0xbe01b141	-0.12665273
83	0xbdc60704	-0.09669307
84	0xbcb95f10	-0.022628337
85	0xbd156611	-0.03647429
86	0xbc78e106	-0.0151903685
87	0xbe0dabc8	-0.1383506
88	0xbdb954bb	-0.09049364
89	0xbd019d6a	-0.031644262
90	0x3c9f590c	0.01945164
91	0xbd575c80	-0.05257845
92	0x3cc3d3fa	0.02390479
93	0x3d100aa4	0.035166398
94	0x3d508161	0.050904635
95	0xbd3fc2f4	-0.04681678
96	0xbdc215e0	-0.094768286
97	0x3b98aeb6	0.004659499
98	0xbd85a8d6	-0.065263435
99	0x3d147d01	0.036252026
100	0xbdaaa8db	-0.08332988
101	0x3d003371	0.03129906
102	0xbe17c447	-0.14820968
103	0xbde86f8e	-0.11349402
104	0xbd9f467b	-0.07777115
105	0xbb003dd1	-0.0019568095
106	0xbdc44a74	-0.09584513
107	0x3c412f19	0.011791014
108	0x3d952034	0.07281533
109	0xbd82de95	-0.063901104
110	0x3d180a4a	0.037119187
111	0xbd0cfe67	-0.034422304
112	0xbdc5414c	-0.09631595
113	0x3d0af13c	0.033921465
114	0x3a2109a3	0.00061430986
115	0xbc797a9f	-0.015226989
116	0x3d10f036	0.035385333
117	0xbdc6583c	-0.09684798
118	0xbd867b61	-0.065665014
119	0xbc6a0526	-0.014283454
120	0xbd355546	-0.044270776
121	0xbd4f42e3	-0.050600898
122	0xbd6270a1	-0.055283193
123	0x3c5f64e6	0.013634896
124	0x3cf7a753	0.030231154
125	0x3c93fe93	0.018065726
126	0xbd89b8fa	-0.067247346
127	0xbcd27402	-0.025690082
128	0xbced6649	-0.028979437
129	0xbac569e7	-0.0015061469
130	0xbd95fd11	-0.07323659
131	0xbdffb33d	-0.12485359
132	0x3ca3c3d4	0.019990839
133	0x3d3f34fd	0.046681393
134	0xbd517d54	-0.051144913
135	0x3d8f10d8	0.069856346
136	0x3d628e2e	0.055311374
137	0x3c383a98	0.011244439
138	0xbd735517	-0.05940732
139	0xbc9cf065	-0.019157598
140	0xbdcd30b0	-0.10019052
141	0x3d61fad9	0.055170868
142	0x3cb385d3	0.021914398
143	0x3d4e59de	0.050378673
144	0x3ce19a36	0.027539354
145	0xbd94a26c	-0.07257542
146	0xbd27e812	-0.040992804
147	0x3d01c08b	0.031677764
148	0xbdd464c0	-0.10370779
149	0xbcaf9bc7	-0.021436585
150	0xbd82b9c9	-0.06383092
151	0x3c1a8b9e	0.009432701
152	0xbc7f0dda	-0.015567267
153	0x3977b746	0.0002362403
154	0x3d337ab2	0.043818183
155	0xbd8f473a	-0.06996007
156	0xbd2e95b7	-0.042623248
157	0xbd3cab4a	-0.04606179
158	0xbc742746	-0.014901942
159	0xbd9e11fe	-0.077182755
160	0xbc278df8	-0.010226719
161	0xbd447c74	-0.04797025
162	0xbcc70035	-0.02429209
163	0x3d59e6aa	0.053198494
164	0xbdc877f1	-0.09788502
165	0x3d0249f3	0.031808805
166	0xbd61bbe4	-0.055110827
167	0xbdf3aff7	-0.11898797
168	0xbdbb3cb0	-0.091424346
169	0x3c1d3741	0.009595693
170	0x3d5166b6	0.051123343
171	0xbb0ee7e5	-0.00218057
172	0x3d40be0f	0.047056254
173	0xbd93b3dd	-0.072120406
174	0x3d34e687	0.04416516
175	0x3d8aa596	0.06769864
176	0x3c2b20a6	0.010444796
177	0xbd2df9e2	-0.042474635
178	0xbd82037b	-0.0634832
179	0xbd8b6394	-0.068061024
180	0x3d7b5339	0.061358664
181	0x3cb710c5	0.022346864
182	0x3d404fc7	0.04695108
183	0x3d7362ae	0.05942028
184	0xbdbdbccd	-0.092645265
185	0x3b30e443	0.0026991523
186	0xbd8c5406	-0.06851964
187	0x3d645735	0.05574723
188	0xbd5fbeaa	-0.05462519
189	0xbdc2b5d5	-0.09507338
190	0xbd597200	-0.053087234
191	0xbbc2b395	-0.005941818
192	0xbd0f4fb5	-0.034988124
193	0xbd41fdbb	-0.047361117
194	0x3d2f9af5	0.042872388
195	0xbd93ad01	-0.07210732
196	0x3d9a4441	0.0753255
197	0x3d762cef	0.060101446
198	0x3bb58950	0.0055400506
199	0x3d5cf27b	0.053942185
200	0xbd1d6996	-0.038430773
201	0x3d12eba6	0.035869263
202	0xbdff8ee8	-0.12478429
203	0xbbfccf53	-0.0077151447
204	0xbd8c0f43	-0.068388484
205	0xbd24a9f4	-0.040201142
206	0xbc4c5157	-0.012470565
207	0xbe1b5ba5	-0.15171678
208	0x3d02a5ca	0.03189639
209	0x3c4fdf1d	0.012687472
210	0xbc6408de	-0.01391813
211	0x3cf65126	0.030067991
212	0xbd9b56dd	-0.07584927
213	0xbafaa7d2	-0.0019123501
214	0x3d2b1feb	0.041778486
215	0xbd2ba5de	-0.04190623
216	0x3d995130	0.074861884
217	0xbd8d7468	-0.06906968
218	0xbca7091b	-0.020390084
219	0x3c4cc2a4	0.012497578
220	0xbd9e1b59	-0.0772006
221	0xbd98b05c	-0.07455513
222	0xbd95ee94	-0.07320896
223	0x3d386bdc	0.045024738
224	0xbcb811e3	-0.022469467
225	0x3c030f99	0.007999324
226	0xbdce67bc	-0.100783795
227	0xbe1c24dc	-0.15248436
228	0xbddd4416	-0.10804002
229	0x3c866128	0.01640375
230	0x3d5c4076	0.053772412
231	0xbd6ce4e5	-0.05783548
232	0xbd51f389	-0.051257644
233	0xbd967cb0	-0.07348001
234	0x3d92bcc5	0.07164911
235	0xbd0f0c80	-0.03492403
236	0x3c110d96	0.008853337
237	0xbbb339f0	-0.005469553
238	0x3d8c7263	0.06857755
239	0xbd655ee1	-0.055998687
240	0x3d99dd38	0.07512897
241	0x3ab6d12d	0.0013947837
242	0x3bccc954	0.006249586
243	0x3c633678	0.013867967
244	0xbcfcac48	-0.030843869
245	0xbda83b22	-0.08214404
246	0x3d5b07a6	0.05347409
247	0xbd03f93e	-0.032220118
248	0xbdb7e1a7	-0.08978587
249	0xbd058c0b	-0.03260426
250	0xbddb2b0e	-0.107015714
251	0xbd69c9ea	-0.057077326
252	0xbc778dcf	-0.015109493
253	0xbdda0b52	-0.106466904
254	0xbddb6f38	-0.10714573
255	0xbc6e8b5e	-0.014559595

shared.2.bias f4 [128]
0	0xbd5fc37f	-0.0546298
1	0xbdbb5818	-0.09147662
2	0xbdd42337	-0.10358279
3	0x3d173ef0	0.036925256
4	0xbc398b67	-0.01132474
5	0x3cc63454	0.024194874
6	0x3d3d690f	0.04624277
7	0x3d5710e2	0.052506335
8	0xbde9fb09	-0.11424834
9	0x3cbb2cc5	0.022848496
10	0xbd8cbd6c	-0.06872067
11	0xbccaaa0c	-0.024739288
12	0x3c82378a	0.015895624
13	0xbd78ea89	-0.060770545
14	0xb9cdabed	-0.00039228742
15	0xbdd9b49f	-0.10630154
16	0xbca021d2	-0.019547377
17	0xbd94851d	-0.07251952
18	0x3d550259	0.052004192
19	0xbda8f3d0	-0.082496285
20	0xbdcbadef	-0.099452846
21	0x3d5afe17	0.053464975
22	0xbd926697	-0.07148474
23	0x3b2cea27	0.0026384683
24	0xbbc0045b	-0.005859894
25	0x3c3549b6	0.011064937
26	0x3d157404	0.036487594
27	0x3cabb68f	0.020961074
28	0xbd8cb8cf	-0.06871187
29	0xbbfc9882	-0.00770861
30	0xbdd05fe7	-0.10174542
31	0x3be67346	0.0070327846
32	0x3d506560	0.05087793
33	0xbc5116ee	-0.0127618145
34	0xbd5028c3	-0.050820123
35	0x3d13b126	0.036057614
36	0xbdb1ebbb	-0.0868754
37	0xbcee566f	-0.02909395
38	0xbda94974	-0.08265963
39	0xbd84bbcc	-0.06481132
40	0xbd95a068	-0.07305986
41	0xbba96e45	-0.005170616
42	0x3d17e4e3	0.037083518
43	0xbd9d67b5	-0.07685796
44	0xbdd4877b	-0.10377403
45	0xbd4e66f8	-0.050391167
46	0x3bf69fe6	0.0075263856
47	0x3cfff99a	0.031246949
48	0xbc5baa37	-0.013407282
49	0xbd84065a	-0.06446524
50	0x3c379e79	0.011207216
51	0xbd4bb7e3	-0.049735915
52	0xbde311ac	-0.11087355
53	0xbc8d26c6	-0.017230403
54	0xbc657fd2	-0.0140075255
55	0x3d542d6e	0.051801138
56	0x3b9e1b37	0.0048250216
57	0xbde25c25	-0.110527314
58	0xbbf683a1	-0.0075230156
59	0xbc6de0f6	-0.014518967
60	0xbce7387d	-0.028225178
61	0xbcdf9590	-0.027292997
62	0x3d6ce2c4	0.057833448
63	0xbd29d78f	-0.04146534
64	0xbdbb607a	-0.09149261
65	0xbd91a268	-0.07111055
66	0xbcd3fe0f	-0.02587798
67	0xbd5e69a1	-0.054299954
68	0xbdee36b6	-0.11631529
69	0x3d22614a	0.039643563
70	0x3c530f27	0.012882031
71	0xbd84d005	-0.06484989
72	0x3cb33089	0.02187373
73	0x3cca096d	0.024662698
74	0xbdf9a311	-0.121893056
75	0x3d463579	0.04839084
76	0x3c31600b	0.010826121
77	0xbde6f5f2	-0.11277379
78	0x3b99d0a7	0.0046940628
79	0x3d82db14	0.06389442
80	0xbd136391	-0.035983626
81	0x3d106ee7	0.035262015
82	0x3d1d0f0f	0.03834444
83	0xbd8e7183	-0.069552444
84	0x3cd59312	0.026071105
85	0xbd1ca85a	-0.03824649
86	0x3cc8ed6d	0.024527276
87	0xbdeadbf8	-0.11467737
88	0x3cf01e6b	0.02931138
89	0xbdcb7a1a	-0.099353984
90	0x3c1fbb79	0.009749287
91	0xbdc25a12	-0.09489836
92	0xba6e8cee	-0.00090999797
93	0xbd671d25	-0.05642428
94	0xbd6b7a79	-0.057489846
95	0x3d161703	0.03664304
96	0x3d50961c	0.050924405
97	0xbda12275	-0.078679
98	0xbd39097d	-0.045175064
99	0x3d50ffc4	0.051025167
100	0xbd7d1774	-0.061789945
101	0xbc5c663b	-0.013452108
102	0xbd05f86c	-0.032707617
103	0x3d33a92a	0.0438625
104	0xbd828853	-0.06373658
105	0xbd2ac272	-0.041689344
106	0xbdd2725c	-0.102757186
107	0xbdc37482	-0.095437065
108	0xbccc11b6	-0.024910789
109	0x3d21ac55	0.03947099
110	0xbdcf4ab0	-0.101216674
111	0x3d042015	0.03225716
112	0xbd6450c6	-0.055741094
113	0x3cbe6295	0.023240367
114	0xbd874783	-0.06605437
115	0xbdcbf520	-0.09958863
116	0xbd8dffac	-0.06933531
117	0xbd781e16	-0.060575567
118	0xbd0f8426	-0.035038136
119	0xbd8dd5d8	-0.06925553
120	0xbd7d2d7e	-0.061810963
121	0x3d3e4847	0.046455648
122	0xbbfb7b2e	-0.0076745963
123	0xbd85421b	-0.06506749
124	0xbdb36375	-0.08759204
125	0xbd971668	-0.073773205
126	0x3d5df8d6	0.054192387
127	0xbd86da2f	-0.06584584

move_mean.weight f4 [2, 128]
0	0x3bc01d88	0.0058628954
1	0xbca863e9	-0.020555453
2	0xbbf46658	-0.0074584894
3	0x3c1b48cb	0.009477804
4	0x3c2dfdcd	0.010619593
5	0x3c108486	0.008820659
6	0x3be04434	0.006844068
7	0xbcef8559	-0.02923839
8	0x3cc30a1f	0.023808537
9	0x3c3bd58e	0.01146449
10	0xbc5a8c0a	-0.013339052
11	0xbbbcea7e	-0.0057652583
12	0xba15ab5f	-0.0005709435
13	0x3d66da5d	0.05636059
14	0x3c76918f	0.015049352
15	0xbca6eb2e	-0.020375814
16	0x3d11caf3	0.035593938
17	0x3c20c7a4	0.009813223
18	0xbd20a361	-0.03921831
19	0x3bf65ac3	0.007518144
20	0x3d0f4c8f	0.03498512
21	0x3d508ab4	0.050913528
22	0xbd2b0969	-0.04175702
23	0xbc0d9bfb	-0.008643146
24	0xbb52cdd4	-0.003216614
25	0x3d2a4f91	0.041579787
26	0x3d6400ea	0.055664934
27	0xbab5addb	-0.0013861017
28	0x3c50f6c2	0.012754144
29	0xbba722cf	-0.005100585
30	0x3c3fc476	0.011704555
31	0xbb420d8b	-0.0029610123
32	0x3cb4950b	0.022043725
33	0xba9ae965	-0.0011818825
34	0x3d1e94c8	0.038716108
35	0x3c34a929	0.011026659
36	0xbc8d44c9	-0.017244713
37	0x3d825c97	0.06365316
38	0xbd5c0f19	-0.053725336
39	0x3c00ea3b	0.007868345
40	0xbd085d95	-0.03329237
41	0x3c67c799	0.014146709
42	0x390bbba7	0.00013325979
43	0x3c27eed9	0.010249817
44	0x3c8d1340	0.017221093
45	0xbc10e27c	-0.008843061
46	0xbc5ea22a	-0.013588468
47	0xbd1674b0	-0.036732376
48	0x3c979de7	0.01850791
49	0x3bbd2319	0.005772006
50	0x3b0c40c4	0.0021400908
51	0x3b301891	0.0026870111
52	0x3bafb6ae	0.0053623533
53	0xbbcd085c	-0.0062571
54	0x3c7c67f3	0.015405643
55	0xbcf366b5	-0.02971206
56	0xbd450d90	-0.048108637
57	0xbd1a3841	-0.037651304
58	0x3ce7c351	0.028291376
59	0x3b9cbfb2	0.004783594
60	0x3cc1afdf	0.023643432
61	0x3c90757a	0.017634142
62	0xbcad897b	-0.02118372
63	0xba2b0100	-0.00065232813
64	0xbcde5a81	-0.027142765
65	0x3b743767	0.0037264468
66	0x3b113ee6	0.0022162735
67	0xbc8a2480	-0.016863108
68	0xbc1df3b7	-0.009640626
69	0x3d2a9d9a	0.041654207
70	0xbcc2d4fa	-0.023783196
71	0x3d391607	0.045187023
72	0xbc925b7e	-0.017865892
73	0x3c94b39d	0.018152053
74	0x3bee24a7	0.007267553
75	0xbc06b5c7	-0.00822205
76	0xbc125c95	-0.008933206
77	0xbcd901c8	-0.026490107
78	0x3d7d0ca4	0.061779633
79	0x3c0a2b3b	0.0084331585
80	0x3c20f521	0.009824068
81	0x3d99ad62	0.07503773
82	0x3c099f39	0.008399778
83	0x3bebe545	0.007198962
84	0x3d30899a	0.043099977
85	0xbb8e7210	-0.0043470934
86	0x3cebdf64	0.028793044
87	0x3b75b4b9	0.0037491752
88	0x3d0c1eb3	0.034208965
89	0x3c3c205e	0.011482326
90	0x3c9b8d38	0.018988237
91	0xbd0d3975	-0.034478623
92	0x3c152036	0.009101918
93	0xbd613059	-0.05497775
94	0x3c5addb4	0.013358522
95	0x3d7aa250	0.06118995
96	0x3d50c62c	0.05097024
97	0xbc870026	-0.016479563
98	0x3d2a7a2a	0.04162041
99	0x3ce66445	0.028123984
100	0x3d605897	0.054771986
101	0x3d1923fc	0.037387833
102	0xbc493e83	-0.01228297
103	0x3ca61280	0.020272493
104	0xbbb8f3c2	-0.0056442926
105	0xbc1a7427	-0.009427107
106	0x3d3e33f5	0.04643627
107	0x3cf76a02	0.030201916
108	0xbbfcddbf	-0.007716864
109	0xbc63773b	-0.013883407
110	0x3ba23a23	0.004950778
111	0xbc0bd901	-0.0085356245
112	0xbc6f3331	-0.014599607
113	0xbc95cb74	-0.01828549
114	0x3ae518f5	0.0017478751
115	0x3bf6e86c	0.007535031
116	0x3cbf4a94	0.023350991
117	0x3be2db9e	0.006923153
118	0x3c7f016e	0.015564306
119	0x3cae8675	0.021304348
120	0xbc0a260b	-0.008431922
121	0xbca959e3	-0.020672744
122	0x3d4840ca	0.048889913
123	0xbccb8e06	-0.024847995
124	0xba81b444	-0.0009895642
125	0xbc6a36f9	-0.014295333
126	0xbbaf733b	-0.0053543127
127	0x3a894427	0.0010472581
128	0x3c16ca9a	0.009203577
129	0xbc51e0f6	-0.0128099825
130	0x3c218fb3	0.009860921
131	0xbc8657d7	-0.016399307
132	0x3cd97ee2	0.02654976
133	0x3c8d34c7	0.01723708
134	0xbc2b2a7d	-0.010447142
135	0xbd918647	-0.071056895
136	0x3c4f6556	0.012658438
137	0xba761cff	-0.0009388476
138	0xbd130332	-0.03589172
139	0xbab54b87	-0.0013831713
140	0x3d96dcfd	0.07366369
141	0xbc6e093f	-0.014528572
142	0xba04b529	-0.00050623954
143	0xbc0b8428	-0.008515395
144	0xbbc80699	-0.006104302
145	0x3c8ee11f	0.01744133
146	0xbce72929	-0.028217869
147	0x3d1e58f7	0.038659062
148	0x3d5d72e3	0.054064643
149	0xbbf03641	-0.0073306863
150	0x3d0bac3c	0.034099802
151	0x3c30780a	0.010770807
152	0xbc5202a1	-0.01281801
153	0xbd403375	-0.046924073
154	0x3cf565d1	0.029955776
155	0xbb441206	-0.002991797
156	0xbbdfe4e2	-0.006832705
157	0xbc06b149	-0.008220979
158	0xbc0e7201	-0.008694173
159	0x3b2b33c1	0.0026123377
160	0xbab3405c	-0.0013675797
161	0xbc85d837	-0.01633845
162	0x3cf05c77	0.029340966
163	0xbc2a6858	-0.010400854
164	0xbbad7c4f	-0.0052943598
165	0xbd5a482b	-0.05329148
166	0x3d188ed0	0.03724557
167	0x3b38caac	0.0028196974
168	0x3c741f93	0.014900106
169	0x3c9fe4ec	0.019518338
170	0x3c3c3a46	0.011488503
171	0x3d265462	0.040607817
172	0xbb84f4d5	-0.0040575066
173	0x3c388602	0.011262419
174	0xbc22525d	-0.009907332
175	0xbcd7b06a	-0.026329238
176	0x3c0f6492	0.008752005
177	0xbc8df369	-0.017327981
178	0x3b369938	0.0027862322
179	0xbc486606	-0.0122313555
180	0x3caecee7	0.021338893
181	0x3d0996fd	0.03359126
182	0x3c56563e	0.013082085
183	0x3d92c082	0.07165624
184	0xbd4c0258	-0.049806923
185	0x3c5495ab	0.012975137
186	0x3d079d7f	0.033109184
187	0xbc201e93	-0.009772914
188	0x3cec7c68	0.028867915
189	0x389481e2	7.0813825e-05
190	0xbcac286e	-0.021015372
191	0x3c0c0ca6	0.0085479375
192	0x3d1f7a1a	0.038934804
193	0xbc2deeae	-0.010615988
194	0xbcae0524	-0.021242686
195	0x3b8c2fdd	0.0042781667
196	0xbc587130	-0.01321058
197	0x3c4c26ae	0.012460394
198	0xbd447822	-0.04796613
199	0xbd7597d3	-0.059959244
200	0xbb90ec17	-0.0044226754
201	0xbc3d68e9	-0.011560657
202	0xbc9766c6	-0.018481623
203	0x3b0219bd	0.0019851767
204	0xbcdcb606	-0.026942264
205	0xbd028e66	-0.031874083
206	0xbd700b8d	-0.058604766
207	0xbccfa000	-0.025344849
208	0xbd06d3c1	-0.032916788
209	0xbd642e58	-0.05570826
210	0xbb3adb87	-0.0028512196
211	0xbc86949c	-0.016428284
212	0xbb1d4d76	-0.002400247
213	0xbc34e840	-0.011041701
214	0xbc8a69f5	-0.016896227
215	0xbd1f604f	-0.038910206
216	0xbbfeaaec	-0.0077718403
217	0xbc9d5bee	-0.019208875
218	0x3b68b181	0.0035506191
219	0xbb349684	-0.0027555535
220	0xba0157bd	-0.00049340335
221	0x3cc2d049	0.023780959
222	0x3d3b46b5	0.04572173
223	0x3cc66566	0.024218272
224	0x3c4ba86c	0.012430292
225	0xbc9cef55	-0.019157091
226	0xbbf1695f	-0.0073672975
227	0x3c311bc3	0.010809842
228	0x3d19d837	0.037559714
229	0x3d743c8b	0.05962805
230	0xbd13a65f	-0.036047336
231	0x3b835d4b	0.004008924
232	0x3d469ee6	0.04849138
233	0x3ba94d5e	0.0051666936
234	0xbc9206ff	-0.017825602
235	0x3c9cc870	0.019138545
236	0xbac7448d	-0.0015202925
237	0x3ce5d01b	0.028053334
238	0x3cd145f8	0.025546059
239	0x39e67cce	0.00043962005
240	0xbd70ad85	-0.05875923
241	0xbd2f9efc	-0.04287623
242	0x3d238117	0.03991803
243	0x3c3b5787	0.011434442
244	0x3bd5905a	0.006517452
245	0xbb661cad	-0.0035112307
246	0xbcf944e6	-0.030428361
247	0x3cd521d0	0.0260171
248	0xbd5c2970	-0.053750455
249	0x3c9a0817	0.018802686
250	0xbda6dce1	-0.08147598
251	0x3c9fd8a5	0.019512484
252	0x3a26ff94	0.00063704816
253	0x3be42326	0.006962198
254	0x3bd7e5e8	0.0065886863
255	0x3d2d703f	0.042343374

move_mean.bias f4 [2]
0	0xbc4fa9b4	-0.012674738
1	0xbda23aba	-0.079213575

food_logits.weight f4 [3, 128]
0	0xbd31879e	-0.043342225
1	0x3bc07abd	0.0058740065
2	0x3d3c44e4	0.045964137
3	0xbc32d7c2	-0.0109156985
4	0x3d42f3f8	0.047595948
5	0xbcb8f1bd	-0.022576207
6	0x3c5316df	0.012883871
7	0x3d48ca69	0.04902116
8	0xbcae81b1	-0.021302076
9	0xbd196d25	-0.037457604
10	0x3cf6363a	0.030055154
11	0xbcfad228	-0.030617788
12	0xbd61a861	-0.05509222
13	0xbd2c1961	-0.04201639
14	0x3c236ac7	0.009974188
15	0xbbb1cd4f	-0.005426086
16	0xbd0257ed	-0.031822134
17	0x3c3ac397	0.011399171
18	0x3d628b56	0.055308662
19	0xbd96f252	-0.07370438
20	0x3d7786f8	0.06043145
21	0x3ce56be4	0.028005548
22	0xbd27199c	-0.040795907
23	0x3b511ea9	0.0031909144
24	0xbc861b91	-0.016370567
25	0x3d5727d2	0.05252821
26	0x3d6d9794	0.058005884
27	0xbd2f4467	-0.042789843
28	0x3c23ebe3	0.01000497
29	0xbc3cd29e	-0.011524824
30	0xbd100718	-0.035163015
31	0x3c99749c	0.018732361
32	0x3d5e636b	0.05429403
33	0x3cfc1582	0.030771974
34	0x3d08ea76	0.033426724
35	0xbc9f931a	-0.019479323
36	0x3d8bc986	0.06825547
37	0x3b84d01a	0.004053128
38	0x3d2c5dd2	0.04208166
39	0xbd77c2f9	-0.060488675
40	0xbd8ea6c2	-0.069654
41	0x3cbf35de	0.023341116
42	0x3d800187	0.06250291
43	0xbcc672a2	-0.024224583
44	0x3ad0444a	0.0015889492
45	0x3d558330	0.052127063
46	0xbd207f9d	-0.0391842
47	0x3d975110	0.07388508
48	0x3d608ce2	0.054821856
49	0x3abd0036	0.0014419619
50	0xbd92f4f1	-0.07175625
51	0x3d025082	0.03181506
52	0x3d20daee	0.039271288
53	0xbb86016e	-0.004089526
54	0xbd89b4e1	-0.06723953
55	0xbd4163d5	-0.047214348
56	0x3afe45ad	0.0019399427
57	0xbc0c90e9	-0.008579471
58	0x3c64c3e6	0.013962721
59	0x3d317d53	0.04333241
60	0x3d17a0d6	0.03701862
61	0x3b9f2156	0.004856269
62	0x3d3b1a4f	0.045679387
63	0x3b3d7465	0.0028908488
64	0x3d9d51bb	0.076816045
65	0x3d08c6cc	0.033392712
66	0x3d816c03	0.0631943
67	0x3d09d1b6	0.03364726
68	0x3bf8d742	0.00759402
69	0x3d320110	0.043458045
70	0x3c8399ce	0.01606455
71	0x3d8f683c	0.07002303
72	0xbcc1dd7d	-0.023665184
73	0x3d04ecd4	0.03245242
74	0x3b951d92	0.004550644
75	0xbc8e7008	-0.017387405
76	0x3d7c1027	0.06153884
77	0x3d381ff7	0.04495236
78	0x3d6edb28	0.058314472
79	0x3d805a97	0.06267279
80	0x3cf2b7e2	0.029628698
81	0x3d9de7a8	0.077102005
82	0x3d81d50c	0.063394636
83	0x3d49cb08	0.04926589
84	0xbc8a96b2	-0.01691756
85	0xbd61c2a3	-0.05511726
86	0x3d08c213	0.03338821
87	0x3d97b2a1	0.07407118
88	0xbceed6fa	-0.029155243
89	0x3d083f60	0.033263564
90	0xbd53eb7b	-0.051738244
91	0xbcd08da2	-0.02545816
92	0x3c8d5265	0.017251203
93	0x3d0c251c	0.034215078
94	0xbd1cddc8	-0.038297445
95	0xbc8ccee6	-0.0171885
96	0xbbced171	-0.0063115885
97	0xbad9b47d	-0.0016609576
98	0xbc499272	-0.012302982
99	0xbd18769f	-0.0372225
100	0xbd869e63	-0.065731786
101	0xbd27779d	-0.040885556
102	0x3be2a679	0.0069168177
103	0xbc8aef75	-0.016959885
104	0xbd804765	-0.062636174
105	0xbca24ed1	-0.019812973
106	0xbd85f19c	-0.06540224
107	0x3d93a4e2	0.07209183
108	0x3c952459	0.018205808
109	0x3d70685a	0.058693267
110	0xbd8ab59f	-0.06772923
111	0x3c3c66f9	0.01149916
112	0xbc8f2d8b	-0.017477771
113	0xbcb95597	-0.02262382
114	0x3d2ce681	0.042212013
115	0x3cbd9337	0.023141487
116	0x3d04a9b0	0.03238839
117	0xbaa20248	-0.0012360299
118	0xbc91fd3c	-0.017820947
119	0x3d1f5f67	0.038909342
120	0xbd4c6a64	-0.04990615
121	0x3d011fc0	0.03152442
122	0xbcb5d229	-0.022194939
123	0xbd464e50	-0.04841453
124	0x3c32cb42	0.010912718
125	0x3cf8330c	0.030297779
126	0xbc51f355	-0.0128143625
127	0x3d6615a5	0.056172986
128	0xbd13d8c0	-0.03609538
129	0x3cb708df	0.022343097
130	0xbc8d3fef	-0.0172424
131	0xbceb6237	-0.028733356
132	0xbce07ab7	-0.027402265
133	0x3d0729b5	0.03299876
134	0x3c82895b	0.015934637
135	0x3d4602c6	0.04834249
136	0xbd0e4b5e	-0.034739845
137	0xbd12bbbb	-0.035823565
138	0x3c2b5bb4	0.010458875
139	0xba1ea05e	-0.0006051118
140	0x3c06ac7a	0.008219833
141	0x3dadfd65	0.08495597
142	0xbb9c89ba	-0.0047771605
143	0x3d246b3d	0.040141333
144	0x3d412e55	0.047163326
145	0xbc57b6d3	-0.013166147
146	0x3caed24d	0.021340514
147	0xbd956266	-0.07294159
148	0xbd024be5	-0.03181066
149	0x3d3a1365	0.045428652
150	0xbad56d4e	-0.0016283186
151	0xbd550232	-0.052004047
152	0x3c4cf6dd	0.012510029
153	0x3d5ad0b9	0.05342171
154	0xbc2d6fc6	-0.010585731
155	0xbd1d7c33	-0.038448524
156	0x3bbed8af	0.0058241705
157	0xbc213a42	-0.00984055
158	0xbc8641f0	-0.016388863
159	0x3b14bcd9	0.002269557
160	0x3d396a91	0.045267645
161	0x3d2a1ef2	0.041533418
162	0x3d047d2b	0.032345932
163	0xbd28cda8	-0.041211754
164	0x3d92e3b2	0.07172336
165	0x3d9b94e3	0.07596757
166	0x3a7cc123	0.0009641817
167	0xbd5637ff	-0.052299496
168	0x3c849d11	0.016188176
169	0x3c8d65a0	0.017260373
170	0xbce6cf0b	-0.028174898
171	0xbbaae45c	-0.005215211
172	0x3b4cb50a	0.0031235837
173	0x3d90adc7	0.070643954
174	0xbcd279dd	-0.025692875
175	0x3d88c7c7	0.066787295
176	0xbc9bd0ea	-0.019020516
177	0x3b67acb4	0.0035350742
178	0xbd9e7ddf	-0.07738852
179	0xbd055c17	-0.032558527
180	0x3cb675ba	0.022272933
181	0x3d975d46	0.07390837
182	0xbcc69b3b	-0.024243942
183	0xbd941e86	-0.072323844
184	0x3d49e335	0.049288947
185	0xbb9f61f4	-0.004863972
186	0x3d20b8b3	0.039238643
187	0x3d17d3b1	0.03706712
188	0x3ad83731	0.001649594
189	0xbcedaed2	-0.029014025
190	0x3d531792	0.05153615
191	0x3cce9e07	0.025221838
192	0x3d8394e3	0.06424882
193	0x3d86def6	0.06585495
194	0xbd04120a	-0.032243766
195	0xbb8e5253	-0.00434331
196	0x3cb2afc3	0.021812325
197	0x3ac42124	0.001496349
198	0x3cef5af0	0.029218167
199	0xbda48bda	-0.08034487
200	0x3b8b63be	0.0042538336
201	0x3d1cb600	0.038259506
202	0x3dc3b0ac	0.09555182
203	0xbcfede92	-0.03111199
204	0xbd04ed1b	-0.032452684
205	0x3ceb3fa4	0.02871687
206	0x3daaba31	0.083362944
207	0x3d34f806	0.044181846
208	0x3d503175	0.050828416
209	0xbd2b9634	-0.04189129
210	0x3d80e781	0.06294156
211	0x3d9d3107	0.07675367
212	0xbc843fd1	-0.016143711
213	0xbd830e33	-0.06399193
214	0x3ce23db7	0.027617319
215	0x3c626f12	0.013820427
216	0xbd6d93cd	-0.058002282
217	0xbb3b8c5a	-0.0028617592
218	0xbcad930e	-0.021188285
219	0xbd976750	-0.07392752
220	0x3d1429a9	0.036172543
221	0x3d79cea3	0.06098808
222	0x3cc30800	0.023807526
223	0x3c9df1c7	0.019280327
224	0xbd418fb7	-0.047256198
225	0xbcf17937	-0.029476745
226	0x3cb47bfd	0.022031778
227	0xbcfb0ecd	-0.030646706
228	0xbd83daf6	-0.06438248
229	0xbc79dc79	-0.015250319
230	0x3dbcc010	0.092163205
231	0xbd32189f	-0.04348051
232	0x3d5f83cc	0.05456905
233	0xbcd3b0d7	-0.02584116
234	0x3c50dd64	0.012748096
235	0x3c060a00	0.008181095
236	0xbb204017	-0.0024452263
237	0x3d06f58c	0.032949015
238	0xbcb931b3	-0.022606706
239	0x3c80766b	0.015681466
240	0xbcef904d	-0.029243613
241	0xbd326851	-0.043556515
242	0xbd321f47	-0.04348686
243	0x3c62e230	0.013847873
244	0x3cdb0c47	0.026739253
245	0x3c7980f8	0.015228502
246	0xbc97b869	-0.01852055
247	0x3d455c43	0.04818369
248	0xbd384572	-0.044988103
249	0x3d23b045	0.039963026
250	0xbd7f4172	-0.062318273
251	0xbd4226ce	-0.04740029
252	0x3d455062	0.048172362
253	0xbccc4e82	-0.02493978
254	0xbc6d8ce8	-0.014498927
255	0xbc8077fd	-0.015682215

food_logits.bias f4 [3]
0	0x3bf5e0aa	0.0075035887
1	0xbd78d6a6	-0.06075158
2	0x3d4759cc	0.04866962

net.0.weight f4 [128, 17]
0	0x3df10946	0.11769347
1	0xbe16b374	-0.14716893
2	0x3e4c2ad4	0.19938213
3	0xbfe7e0cf	-1.8115481
4	0x3cdd8e82	0.027045492
5	0xbe74cceb	-0.23906295
6	0xbe96e998	-0.29475093
7	0x3da3ae9a	0.07992287
8	0xbdbc4bb3	-0.09194126
9	0x3e3df240	0.18549442
10	0x3dc885ec	0.097911686
11	0xbdb7048d	-0.08936415
12	0x3e6415b2	0.22273901
13	0x3d504117	0.050843325
14	0x3c5001ea	0.012695769
15	0x3e447241	0.1918421
16	0x3dbe2fd3	0.092864655
17	0x3cbcd6d6	0.02305166
18	0xbdf3fd27	-0.11913519
19	0xbf0c9ffa	-0.54931605
20	0x3f9a1b26	1.2039535
21	0x3e9028ae	0.28156036
22	0xbe46315b	-0.19354765
23	0x3e0ee1ee	0.13953373
24	0x3bc3cc57	0.005975287
25	0x3e876d8b	0.26450762
26	0x3bb40aa6	0.0054944335
27	0xbe5a33a1	-0.21308757
28	0xbe17d990	-0.14829087
29	0xbe5a0a7c	-0.21293062
30	0xbbd4af25	-0.0064906054
31	0x3e1b2edf	0.15154599
32	0xbd92f7f0	-0.071761966
33	0x3c9d0a63	0.019169992
34	0xbda92e58	-0.082607925
35	0x3df835d6	0.121196434
36	0x3d46250b	0.04837517
37	0xbe000620	-0.12502337
38	0xbee61889	-0.44940594
39	0x3e22a2ba	0.15882388
40	0x3d402a50	0.046915352
41	0x3e02aa7f	0.12760352
42	0x3d39b100	0.045334816
43	0x3e1441e4	0.1447826
44	0x3e888cab	0.2666982
45	0x3e035bc1	0.1282797
46	0x3e03fb4c	0.12888831
47	0x3e3ed273	0.18634968
48	0xbe44d3f6	-0.19221482
49	0x3c4e5584	0.012593631
50	0x3ccc97c1	0.024974706
51	0xbdcc41a5	-0.09973458
52	0xbd97da76	-0.07414715
53	0x3ef16c1e	0.471528
54	0xbf85908c	-1.0434737
55	0xbea87920	-0.3290491
56	0xbe35c70f	-0.17751716
57	0x3e6f265b	0.23354475
58	0xbe6904b6	-0.22755703
59	0x3e17075b	0.147489
60	0x3c26f440	0.01019007
61	0xbe8d7c79	-0.27634028
62	0xbe8075eb	-0.25089964
63	0xbe79b568	-0.24385607
64	0xbe2ed393	-0.17072897
65	0x3d44c372	0.048037954
66	0xbca2f2d2	-0.019891176
67	0x3e254a1b	0.1614155
68	0x3e311033	0.17291336
69	0xbe1d9421	-0.15388538
70	0x3e02979f	0.12753151
71	0xbf11e641	-0.56991965
72	0xbec1f01e	-0.37878507
73	0xbc40c94b	-0.011766742
74	0xbe35a327	-0.17738019
75	0xbe255caf	-0.16148637
76	0xbe7eb576	-0.2487391
77	0xbdc28986	-0.09498887
78	0xbe38e685	-0.18056686
79	0x3d3e362b	0.046438377
80	0xbe575a40	-0.21030521
81	0x3e457c64	0.19285733
82	0x3da17efb	0.07885548
83	0x3ceb2256	0.028702896
84	0xbe56f469	-0.20991673
85	0xbe2b838b	-0.16749398
86	0xbab6b63f	-0.0013939812
87	0x3e6747b2	0.22585943
88	0xbe9bf55f	-0.3046064
89	0xbdecbf00	-0.11559868
90	0xbe77120a	-0.24127975
91	0xbe7a31b9	-0.2443303
92	0xbdca90cd	-0.098909
93	0xbe8bfa03	-0.2733918
94	0xbe3703eb	-0.17872588
95	0x3e2a80d3	0.16650705
96	0xbcb5b84d	-0.022182608
97	0xbe4f3cb6	-0.20238003
98	0x3d22bccc	0.039730832
99	0xbe160764	-0.14651257
100	0xbe1136ea	-0.14181104
101	0xbd8b3367	-0.067969136
102	0xbd931d8c	-0.0718337
103	0xbdcf798a	-0.101306036
104	0xbed6b870	-0.4193759
105	0x40059238	2.0870495
106	0xbe1019c0	-0.14072323
107	0xbd88dac2	-0.0668235
108	0x3e4ad2bb	0.1980695
109	0x3e3b4430	0.1828773
110	0x3e1e4f89	0.15460028
111	0xbdba6a27	-0.09102278
112	0x3e3a454f	0.18190502
113	0x3a027cab	0.00049776834
114	0xbd923961	-0.071398504
115	0x3cf15010	0.029457122
116	0xbe31e3ca	-0.17372051
117	0xbd67c9be	-0.05658888
118	0x3dc91a53	0.09819474
119	0x3e448d36	0.19194493
120	0x3dd6007f	0.10449313
121	0x3e6fdc65	0.23423918
122	0xc017aaa0	-2.3697891
123	0xbe1cd576	-0.15315804
124	0x3e444243	0.19165902
125	0xbd07ac3f	-0.03312325
126	0x3ead02b6	0.3379113
127	0x3dc31205	0.09524921
128	0x3df6cf7c	0.12051293
129	0x3d02724d	0.031847287
130	0xbd6d96f6	-0.058005296
131	0xbe7790e8	-0.24176371
132	0xbda44184	-0.080203086
133	0x3db49ba9	0.08818752
134	0x3d8e0c04	0.069358855
135	0xbdbbbec6	-0.091672465
136	0xbd7039b6	-0.058648787
137	0xbd5681c9	-0.052369867
138	0xbda858ad	-0.082200386
139	0xbd83a2bc	-0.064275235
140	0x3e061146	0.13092527
141	0x3e3e8e0c	0.18608874
142	0x3ea2949c	0.31754005
143	0x3d981729	0.074262924
144	0xbaff6b02	-0.0019486847
145	0x3e1e1f44	0.15441614
146	0x3dbb559b	0.09147187
147	0xbe6839aa	-0.22678247
148	0x3d27c2d2	0.04095728
149	0x3e1014fb	0.14070503
150	0x3e762b7e	0.24040028
151	0xbdd5b003	-0.10433962
152	0xbe565a78	-0.20932949
153	0xbbfa496c	-0.007638147
154	0x3ddd0e41	0.10793734
155	0xbec4e9b9	-0.38459566
156	0x4010ed76	2.2644935
157	0x3f209794	0.6273129
158	0xbe29fbf4	-0.16600019
159	0x3d8738d4	0.06602636
160	0x3c420821	0.011842758
161	0xbdca127a	-0.098668054
162	0x3d062c1d	0.032756913
163	0x3e025794	0.12728721
164	0x3e13769e	0.14400718
165	0xbe13511b	-0.14386408
166	0xbd4e0156	-0.050294243
167	0x3e770db7	0.24126326
168	0x3e4405fe	0.19142911
169	0xbd1be45a	-0.03805957
170	0x3e471a6a	0.1944367
171	0xbde682b0	-0.112553954
172	0xbede498a	-0.4341548
173	0x3ff5f674	1.9215837
174	0x3f02faa7	0.51163715
175	0xbe0a6d70	-0.1351831
176	0x3b73338d	0.0037109584
177	0xbcded1cc	-0.027199648
178	0x3db88173	0.090090655
179	0xbe7322ae	-0.23743698
180	0xbe650a89	-0.223673
181	0xba4cb16b	-0.000780842
182	0x3dd75a9e	0.10515331
183	0x3e618dec	0.22026795
184	0x3de5f17a	0.112276986
185	0x3d89d969	0.06730921
186	0xbe27720b	-0.16352098
187	0x3e038780	0.12844658
188	0xbe1d4101	-0.15356828
189	0x3ef34136	0.4751069
190	0xbf07246f	-0.5278997
191	0xbed8b19b	-0.42323002
192	0x3dddfcff	0.10839271
193	0x3dba51fc	0.090976685
194	0x3d380548	0.04492691
195	0xbd948a4d	-0.07252941
196	0xbcbc4f1e	-0.022986945
197	0xbe4ebadb	-0.20188467
198	0xbbe2a993	-0.0069171875
199	0x3e060560	0.13087988
200	0x3dc47627	0.09592848
201	0x3d3798ee	0.04482358
202	0xbd88daa3	-0.06682327
203	0xbd7e2224	-0.062044278
204	0x3d453b46	0.04815223
205	0x3da4f11a	0.08053799
206	0xbeaba36f	-0.33523127
207	0x400790de	2.118217
208	0x3d946285	0.072453536
209	0xbd136478	-0.035984486
210	0x3d36bc52	0.04461319
211	0x3e100d64	0.14067608
212	0xbe8e5d27	-0.27805445
213	0xbc3298b9	-0.01090067
214	0x3e5071d6	0.20355925
215	0xbddda2c2	-0.10822059
216	0x3ddc8433	0.107674025
217	0x3d25f1d9	0.040513847
218	0xbd850377	-0.064948015
219	0x3e15d47f	0.14631842
220	0xba687efc	-0.000886902
221	0xbd80d167	-0.0628994
222	0x3db1a1ae	0.08673416
223	0x3d9e709c	0.07736322
224	0xbed48b09	-0.41512325
225	0x3ebb1f2a	0.36547214
226	0x3c1e04fd	0.009644744
227	0xbba731a0	-0.0051023513
228	0x3dea4ba6	0.1144021
229	0xbdbbbfce	-0.09167443
230	0xbd74d22e	-0.059770755
231	0xbe07554f	-0.13216136
232	0xbe144a40	-0.14481449
233	0x3e461dbf	0.19347285
234	0x3dcd4372	0.1002263
235	0x3d07c9af	0.033151325
236	0xbb9aca1f	-0.0047238017
237	0xbe021bb1	-0.12705876
238	0xbdfb1ce1	-0.122613676
239	0x3dca9176	0.09891026
240	0xbe92a37a	-0.28640348
241	0x4022d5bd	2.5442955
242	0x3ea08860	0.31354046
243	0xbcd1e3d3	-0.02562133
244	0xbe575424	-0.21028191
245	0x3cec9dc5	0.028883824
246	0x3e665454	0.22493106
247	0x3e6ad040	0.22931004
248	0xbe8451bc	-0.25843608
249	0xbe073494	-0.1320365
250	0x3d3fac88	0.046795398
251	0x3dca8360	0.09888339
252	0x3dce0ef5	0.100614466
253	0xbe181b2d	-0.14854117
254	0xbd4e5a8d	-0.050379325
255	0xbddfab9c	-0.10921404

net.0.bias f4 [128]
0	0x3e81b11f	0.25330445
1	0xbd225b4f	-0.03963786
2	0xbdbe8ab2	-0.09303798
3	0xbe416be3	-0.18888812
4	0xbc9e3a23	-0.019314831
5	0x3de66a96	0.112507984
6	0xbe85d724	-0.26140702
7	0x3d024d19	0.031811807
8	0xbe6006af	-0.2187755
9	0xbe774788	-0.24148381
10	0x3d9e4c07	0.07729345
11	0xbd620e75	-0.05518957
12	0x3ce1cfa0	0.027564824
13	0x3ce7fd65	0.02831907
14	0xbdd05471	-0.10172356
15	0x3d07330e	0.033007674
16	0xbdc7174f	-0.09721243
17	0x3d27d562	0.040974982
18	0xbdc75af2	-0.09734143
19	0xbe0a23a8	-0.13490164
20	0xbe821c78	-0.25412345
21	0xbe1ecd95	-0.15508111
22	0x3e2e40b5	0.17016871
23	0x3e865383	0.2623559
24	0xbe06c426	-0.13160762
25	0xbd20c7f3	-0.039253186
26	0xbe2bba2f	-0.16770242
27	0x3e24ba7d	0.16086765
28	0xbe137a27	-0.14402066
29	0x3e381600	0.17977142
30	0xbd236b2b	-0.039897125
31	0x3dd0730c	0.101781934
32	0xbbf0656d	-0.0073363096
33	0x3dbe3996	0.092883274
34	0x3e1f529e	0.1555886
35	0x3d5fba07	0.05462077
36	0xbde0fb0d	-0.10985384
37	0xbd8f64de	-0.07001661
38	0xbe8ba89a	-0.2727707
39	0xbd02157b	-0.031758767
40	0xbe199ed1	-0.1500199
41	0xbe84ab00	-0.25911713
42	0xbd224b36	-0.039622508
43	0x3d54d9d6	0.051965557
44	0x3d1f93ae	0.038959198
45	0xbe2ab919	-0.16672172
46	0xbe15c910	-0.1462748
47	0xbd8e9358	-0.06961697
48	0xbd0c2e1b	-0.034223657
49	0x3e2fcb59	0.17167415
50	0xbe373d04	-0.1789437
51	0xbe7a8840	-0.24466038
52	0x3e8472dc	0.2586888
53	0x3e0052a1	0.1253152
54	0x3e8bf1e0	0.27332973
55	0xbe74e43e	-0.23915192
56	0x3dd7f333	0.105444334
57	0x3de067b3	0.10957279
58	0xbad0e7c3	-0.0015938211
59	0x3d2e489d	0.04254972
60	0x3d087a00	0.033319473
61	0xbcd62429	-0.02614029
62	0xbe6792f1	-0.22614647
63	0x3e123bb1	0.14280583
64	0x3dd55e61	0.10418392
65	0xbeb369ed	-0.35041752
66	0xbea0a6dc	-0.31377304
67	0x3e4b9f43	0.19884972
68	0x3e16e4c2	0.14735702
69	0xbe95974b	-0.2921699
70	0x3c6b2e07	0.0143542355
71	0xbe98c931	-0.29840997
72	0x3dbe381b	0.09288045
73	0xbe8958c7	-0.26825544
74	0x3e8dec98	0.2771957
75	0x3c98fc57	0.018675013
76	0x3e5263e6	0.2054592
77	0x3d68e356	0.05685743
78	0x3cd0664c	0.025439404
79	0x3e1cfe0a	0.15331283
80	0x3df40817	0.119156055
81	0x3e3c58e4	0.18393284
82	0x3df11a0b	0.117725454
83	0x3e0e3412	0.13887051
84	0x3ca6917f	0.02033305
85	0x3dda08b3	0.106461905
86	0xbe2aa700	-0.16665268
87	0xbe308e67	-0.17241822
88	0xbdad0796	-0.084487125
89	0x3dea3bb2	0.11437167
90	0x3d36f4c7	0.04466703
91	0xbd8f0d2a	-0.06984933
92	0x3d892848	0.06697136
93	0x3d979e47	0.07403236
94	0xbddcb0f7	-0.10775941
95	0x3e7c36fc	0.2463035
96	0x3e3737e9	0.17892422
97	0xbe56dd1a	-0.20982781
98	0xbe84d7f6	-0.25946015
99	0x3db29e8c	0.08721647
100	0x3db1b793	0.08677592
101	0xbde49874	-0.111618906
102	0xbdd61c18	-0.10454577
103	0x3d9e4b90	0.07729256
104	0x3dbfc8ea	0.09364493
105	0xbdb1ef1f	-0.08688187
106	0xbda24507	-0.07923322
107	0xbd4f5b15	-0.050623972
108	0xbe701d3a	-0.23448649
109	0x3d14e73e	0.036353342
110	0xbd213fe9	-0.03936759
111	0x3e69def6	0.22838959
112	0xbd5804c5	-0.052738924
113	0x3d84893b	0.06471487
114	0xbe23b3e5	-0.15986593
115	0xbe9d1bb3	-0.30685195
116	0xbe2702f3	-0.16309719
117	0x3db3cb6b	0.08779033
118	0xbd0e8259	-0.034792278
119	0x3e4ba2f1	0.19886376
120	0xbd556f8d	-0.052108336
121	0xbcb49fa2	-0.022048775
122	0xbe540bdb	-0.20707648
123	0x3e19d778	0.15023601
124	0xbe217016	-0.15765414
125	0x3cba763c	0.022761457
126	0x3e2aa184	0.16663176
127	0x3dfba3e8	0.12287122
