src/training_logs_ppo/initial/ppo_checkpoint_207_1764187310.pt (torch, 480155 bytes, 42 tensors)

move_logstd f4 [2]
00000000: c859 ec3f 7a47 da3f
1.8464899 1.7053063

shared.0.weight f4 [128, 17]
00000000: bb35 183e 7e93 1ebe d31b 82be 5afd 0d3e
00000010: e82a 2b3e efb3 47be 62b0 12be cf54 cb3d
00000020: efda 4f3e 74fc 5bbe f23b 053e 0ec4 50be
00000030: f709 6abd 7f7c a9bd 10f7 c33c face b13d
00000040: eb5e d5bd 30aa 36bd effe d4bd f995 8c3d
00000050: f8dd b53d 5f17 9cbe 86af 5b3e cd48 34be
00000060: 5210 a23c 5c6a 82bd 3193 93be f94b 12be
00000070: 38f7 70bd 68b6 633e 75b2 90ba e7e8 c33d
00000080: 77ed b9bd 376d ecbd 9898 303e ba8e 7e3e
00000090: 036f b43c 7286 f03d 92f0 a6be 15f7 a4bd
000000a0: 3672 e6bc a37e 19be ec8b 423c 03c8 8bbd
000000b0: 468e 39bc 682c 2e3b 2efe 333e b50a 17be
000000c0: 73b7 603e d229 2e3d 8e03 823d 7ab2 7c3c
000000d0: 43ac 97bd 00da bdbe a568 cf38 ed01 483d
000000e0: f577 323e 7c1d e83d 264f a73c b701 f83d
000000f0: dce0 b9bd 40d1 fd3c 7892 4d3c 238c 67bd
00000100: cdfb c4bd 2527 473c 39e7 23be d829 263e
00000110: 7788 d83d 8c2b 283e 2eb0 7bbe bdbf ff3d
00000120: 8075 1fbd 8f32 ad3d 5fd1 b9bc 6215 c03d
00000130: 5ef9 42be 338c 1e3e 8cb9 453d b7cc bd3d
00000140: 9cac 003e a75b 83bc ccb7 3ebc b441 0abd
00000150: d9dc b93d 46bc 23be 7614 0a3d 16f2 13be
00000160: 963d 82be d867 80be 6b5e 213d ebcd 543e
00000170: 87e4 2abe 6dd8 563e a471 343c e563 ec3d
00000180: 56e7 373e 99a6 063e 4917 dabc 96c8 c4bd
00000190: 0ab4 2ebc dba0 b93c 51c9 803d b49f 64bb
000001a0: de11 24be 322a f53d cb67 29bc 9e26 ba3d
000001b0: ec4f 96be ae9b aabd 978d 833e a482 20bd
000001c0: 2c89 91be 06f5 34be 76c6 bc3d faf5 d5bc
000001d0: bda3 753d ab64 07be a03e fcbb a437 01be
000001e0: 67bf 623c c4d5 cc3d 165e 293d 4a82 803b
000001f0: c345 57be 46e3 27be 7909 443e 9da8 03be
00000200: 07da febd da5c 2ebc 815e 17bd 646c 17be
00000210: 9b4d 35be 7f5d 153e f4d6 2a3c 1ca1 34bc
00000220: 6e98 94bd 8f3b c13d 1af4 3ebd 4fdb bfbc
00000230: 8dc2 37bd c6e8 17be d3a5 8b3c a2ce 163e
00000240: a49c f13d fb10 64be 0a3b 9d3d 3ef0 e7bd
00000250: 96bf ba3d c6c4 acbd 1f0a 4fbe 4d71 483d
00000260: c2ab 0fbe ffc2 053e c74d 8d3b 9be4 083e
00000270: c941 8abe abf0 89be 751e 9ebd 942e 7bbc
00000280: ba24 073e 4788 233e 3078 4d3e 4cf9 a1bd
00000290: 4181 b73d 9d56 67be 2531 02be bb7a b53d
000002a0: b2b8 753d 5eae 863d c2dd f0bd 6f7e 073e
000002b0: 41d4 c4bd 6dce 1bbb bb3c 50be 82b3 863e
000002c0: 10b2 84bd 2066 87be dc08 02be 2d83 febd
000002d0: e959 843e a09e 96bd 0f55 34be 4767 a63d
000002e0: 0794 973d 2b66 9e3d dbe1 f3bd 014e 89bd
000002f0: 474b d7bd 4eba 183d 73a2 83be 5475 d93c
00000300: cb23 373e 24b8 703e dc95 4d3e e150 51bd
00000310: 8be5 f7bd 68a9 83be eb1c c43d 29c2 9abd
00000320: a242 33bd 9f18 a8bd a9a4 b0bd 2e57 d2bd
00000330: 062f 0c3d cfde 0fbe 2635 2dbe f829 aabc
00000340: 2742 98bd 0f08 71be e458 263e 3275 80bd
00000350: caeb 0dbe af7d 5e3d 88e8 a6bd 0909 8dbd
00000360: 312e d9bd a450 52bd ce15 17bd 3a94 ab3c
00000370: 9074 b7bd e663 053e 1a79 6a3d 8eff 35be
00000380: bb43 f33d 6524 91bd b9a3 8c3e ad44 2bbe
00000390: 32fb 87bd 162b 533e 474f 2abd 14be a2bd
000003a0: 2787 8b3d 0dc5 823d 4418 c83d 8541 40bd
000003b0: efb3 d93d 9cd3 d6bd 514e 21bd affc e63a
000003c0: 83d6 2abe d48c 45be 0948 7ebe bf32 5dbe
000003d0: 96bb b83d 92c9 31be 2b49 5a3e cce3 383d
000003e0: e40d 783d 07a0 69bc 04a9 8cbc a087 74bc
000003f0: 2d2c 5c3e 5b94 6dbe 10a3 34bd 3c40 2dbd
0.14864247 -0.15485951 -0.25411853 0.13866177 0.16715586 -0.19502233 -0.14325097 0.09928285
0.2029836 -0.21483022 0.13011149 -0.20387289 -0.05713841 -0.08275699 0.02392152 0.08682056
-0.10418495 -0.044595897 -0.10400187 0.068645425 0.08880228 -0.3048658 0.21453676 -0.17605896
0.019783173 -0.06367943 -0.28823236 -0.14286794 -0.058829516 0.22237551 -0.0011039512 0.09565907
-0.09078496 -0.115442686 0.1724571 0.24859133 0.02202559 0.117443934 -0.32605416 -0.0805494
-0.028130632 -0.14989714 0.01187418 -0.068252586 -0.011325425 0.002657676 0.1757743 -0.14750178
0.2194498 0.04252035 0.06348334 0.0154234115 -0.07405903 -0.37080383 9.890021e-05 0.04882996
0.17428572 0.11333749 0.020423483 0.12109702 -0.09076092 0.030983567 0.012547128 -0.05653013
-0.0961834 0.012155329 -0.16006173 0.162269 0.105729036 0.16422862 -0.24578926 0.12487743
-0.038930416 0.08456909 -0.022682844 0.093790784 -0.19040439 0.1548317 0.048272654 0.09267562
0.12565845 -0.016034914 -0.0116405 -0.033754066 0.090753265 -0.1598979 0.03371092 -0.14447817
-0.2543761 -0.25079226 0.039396685 0.20781676 -0.16688739 0.20980997 0.011013422 0.11542491
0.17959341 0.1314949 -0.026622431 -0.09608571 -0.010663042 0.02265971 0.06288398 -0.003488523
-0.16022441 0.11970939 -0.010339688 0.09089397 -0.2935785 -0.08330475 0.25693962 -0.03918709
-0.28424966 -0.17671594 0.09217541 -0.026118267 0.059970606 -0.13221996 -0.007697895 -0.12618881
0.013839579 0.1000171 0.041349493 0.0039217817 -0.21022706 -0.16395292 0.19144239 -0.1285729
-0.12443929 -0.010642255 -0.03695536 -0.14787441 -0.17705385 0.14586447 0.010427225 -0.01102474
-0.07255636 0.09435188 -0.046619512 -0.023420004 -0.044863272 -0.1483489 0.017046845 0.14727262
0.11797455 -0.22272103 0.076772764 -0.113251194 0.09118573 -0.08435969 -0.20218705 0.048936177
-0.14030364 0.13062666 0.0043122503 0.13368456 -0.27003315 -0.26941428 -0.07720653 -0.015330929
0.13197604 0.15969954 0.20065379 -0.07908878 0.089602 -0.22591634 -0.1271406 0.088612996
0.059990592 0.06576227 -0.11761047 0.13231824 -0.09610797 -0.0023774162 -0.20335667 0.2630883
-0.06479275 -0.26445103 -0.12698692 -0.124273635 0.25849846 -0.07354474 -0.17610572 0.08125167
0.07401281 0.07734331 -0.11908313 -0.06704331 -0.10512405 0.03728705 -0.25709876 0.026545204
0.17884748 0.23507744 0.20076698 -0.051102523 -0.12104329 -0.25715184 0.09575828 -0.07556564
-0.043764718 -0.08207821 -0.086251564 -0.102705345 0.034224533 -0.14049838 -0.16914806 -0.020771965
-0.074344926 -0.2353823 0.16244847 -0.06272353 -0.13859478 0.05431908 -0.081498206 -0.06886489
-0.106045134 -0.051346436 -0.03688603 0.020944703 -0.089577794 0.1302639 0.057244398 -0.17773268
0.11878153 -0.0708702 0.2746866 -0.16725416 -0.066397086 0.20621905 -0.04157951 -0.07946411
0.06812888 0.06385241 0.09770253 -0.046937484 0.10630023 -0.1048958 -0.03938133 0.0017622913
-0.16683392 -0.19292003 -0.24832167 -0.2160139 0.09020154 -0.17362049 0.21316974 0.04513912
0.060560122 -0.014259345 -0.017170437 -0.014924914 0.21501227 -0.23201124 -0.04410082 -0.042297587

shared.0.bias f4 [128]
00000000: 3795 d5bd d876 b7be cbfc dcbd d381 78be
00000010: 80a0 08be cbef 93bc 837c ffbc 5d88 083e
00000020: 9a50 9fbe 6ff2 f4bd 6c42 f33d c173 93be
00000030: 15f7 4fbc 6f6a a9bd 4272 87bd b69d 24be
00000040: ef6d 28be 3695 803e 36ad f23d 8899 92be
00000050: 9d3f debd 4bfd 823b 2bce d43b c946 833d
00000060: d5eb 95bd 68af 28be f1d2 6f3b 26b8 c1bd
00000070: af54 e33d 79b7 7ebe 371d 62bd 9222 89be
00000080: f6cd d2bd ee35 1dbd 275a 81be b4f1 ee3c
00000090: 7de4 6dbe bb68 90be 9093 8b3a f376 04be
000000a0: 203c afbe 4848 81be c0fd 903c 58eb 0abe
000000b0: a8ad fc3d 1b5c a4be 6488 493e 3bec 97be
000000c0: b41f 083e 4685 05be 2728 86be fd6f 0dbe
000000d0: a9b9 47be 697a d8bd 06ff e2bc 3133 0cbc
000000e0: 6b39 4e3d c25c 85be 2eb0 ebbd d67e edbd
000000f0: f0ef 8ebd 0fff a1bd 27f3 ddbd e464 04be
00000100: b521 92be c6fd 1cbe dfb5 81be e8f6 c1be
00000110: c822 0ebe 5163 01bc d007 cbbe 9679 5abe
00000120: 03d4 6d3d 9c79 4f3e 1a7e 89bc 8c96 eebd
00000130: a229 3c3e e222 98be cba8 21be 994f 21be
00000140: fe59 24be b360 87be cafc e3be 78d8 43be
00000150: 269f 56be 9c59 01be 17d2 12bd 280f a5bd
00000160: 20a4 65bd da15 54be cf50 ce3c 4e18 aebd
00000170: 01fa 08be 4ece 433e 9ecd 88be 18a4 053e
00000180: 6b2c 66be 8944 95be d6d1 6b3e b395 41be
00000190: 4d34 643e 5a02 30be 7fa8 dd3d 317b 31bd
000001a0: c936 5b3d c6c1 95bd e865 cabd a8f8 d4bd
000001b0: f48a 09bd c395 45be 93e6 3bbc fb2a 81be
000001c0: 97d2 3fbe 2322 9cbe 984a ddbb 0278 47be
000001d0: d77b 51be 762c 0dbe c22b 95be f371 81bd
000001e0: 1d6d 55bd d795 a3be 7187 40be 9659 78be
000001f0: 1781 4fbe 0767 db3d 9244 abbe 215d da3a
-0.10428851 -0.35832858 -0.10790404 -0.24268274 -0.13342476 -0.018058678 -0.031187302 0.13333268
-0.31116182 -0.11960303 0.11877903 -0.2879925 -0.012693186 -0.08272254 -0.0661359 -0.16075787
-0.16448186 0.2511384 0.118494436 -0.2863276 -0.10851977 0.00399748 0.0064943037 0.064099856
-0.07320372 -0.16473162 0.0036594237 -0.09458952 0.111001365 -0.24874677 -0.055203643 -0.26784188
-0.1029319 -0.03838151 -0.25264093 0.029167987 -0.23231693 -0.28204903 0.0010648835 -0.12936
-0.3422556 -0.2525046 0.017699122 -0.13566339 0.1233781 -0.3210152 0.19680935 -0.29672417
0.13293344 -0.13039121 -0.2620251 -0.13812251 -0.19504417 -0.10570223 -0.027709495 -0.008557127
0.050347727 -0.2604733 -0.11508213 -0.11596458 -0.06979358 -0.07909977 -0.10837393 -0.12929112
-0.2854134 -0.15331182 -0.2533407 -0.37883687 -0.13880455 -0.007897214 -0.39654398 -0.21335444
0.05806352 0.20261234 -0.016783763 -0.11649808 0.18375257 -0.29714113 -0.15787046 -0.1575302
-0.16049954 -0.26440963 -0.445288 -0.19125545 -0.20959148 -0.1263184 -0.03584489 -0.080595315
-0.056064725 -0.2071146 0.025185017 -0.085007295 -0.13376619 0.19121668 -0.26719373 0.13050878
-0.22477882 -0.2915385 0.23029265 -0.18904762 0.22285576 -0.17188397 0.10823154 -0.043330375
0.053519044 -0.0731235 -0.09882718 -0.1039899 -0.03357978 -0.19295411 -0.011468547 -0.25228104
-0.18732677 -0.30494794 -0.006753277 -0.19479373 -0.20457397 -0.13786492 -0.29134947 -0.06320562
-0.05210601 -0.31950256 -0.18801667 -0.24252924 -0.20264088 0.1071301 -0.33450752 0.0016659835

shared.2.weight f4 [128, 128]
00000000: 1a56 d13c 5e7d 463d 9d02 683d 3c03 b2bc
00000010: adcb 863d 4890 593d a684 34bd 4a37 0d3d
00000020: f2b9 78bc cfb2 823d 74bc 09bb ef19 a4bd
00000030: a252 a8bd 42c2 0f3d f33f dc3c 8f81 aa3d
00000040: 4e99 133d 3c2b 13bd fbd7 96ba bed2 313b
00000050: 4e72 413c 348a bcbd ca5c 8cbd 8a71 cc3c
00000060: 49be a93d 1861 a8bd 57e5 c2bc 24fa e1bb
00000070: 98d2 fdbd e3a1 80bd 098c a1bc 7481 623c
00000080: 68d7 4cbc 0a29 a9bb 2183 813d b1bb 01bd
00000090: 733c 843d d59f c6bd 65ec 413d 96ee 95bd
000000a0: 2ff1 a73c d6ac cdbd dc6c abbd 70d7 363d
000000b0: edc4 24bb 6ece a0bd feae 85bd 8113 343d
000000c0: 421c d1bc 83e4 a9bd 30b6 d43c e12f 75bd
000000d0: 05f2 1a3d 0cad ee3b c30e e7bc 8300 523d
000000e0: f316 383d 3d8d 80bd c1ba 03bc 5136 143d
000000f0: b448 16bd 5780 54bd 707f 0bbd 6a01 5bbd
00000100: e647 803d 9660 483d 66ab 933b 52c0 a2bc
00000110: f2f9 cbbd 00a0 913b ba78 4fbd 7c85 c13c
00000120: 802a c1bc 77aa 90bd 6beb 80bd d8bf 58bd
00000130: e192 45bd 2c1f 97bd b4ba 20bd 403e 163d
00000140: f9a4 09bd 9b89 1ebd 41b1 01be 0407 c6bd
00000150: 105f b9bc 1166 15bd 06e1 78bc c8ab 0dbe
00000160: bb54 b9bd 6a9d 01bd 0c59 9f3c 805c 57bd
00000170: fad3 c33c a40a 103d 6181 503d f4c2 3fbd
00000180: e015 c2bd b6ae 983b d6a8 85bd 017d 143d
00000190: dba8 aabd 7133 003d 47c4 17be 8e6f e8bd
000001a0: 7b46 9fbd d13d 00bb 744a c4bd 192f 413c
000001b0: 3420 953d 95de 82bd 4a0a 183d 67fe 0cbd
000001c0: 4c41 c5bd 3cf1 0a3d a309 213a 9f7a 79bc
000001d0: 36f0 103d 3c58 c6bd 617b 86bd 2605 6abc
000001e0: 4655 35bd e342 4fbd a170 62bd e664 5f3c
000001f0: 53a7 f73c 93fe 933c fab8 89bd 0274 d2bc
00000200: 2d90 01bd 9c35 53bb 60f1 d0bd 6def febd
00000210: 70b1 c53c 55fa 2c3d 960b b4bd 4ef1 823d
00000220: f7ba c13d 772c 89b9 dbd6 17bd 6772 58bc
00000230: a008 debd eb2b 863d d407 953c 4c25 893d
00000240: 369a e13c 6ca2 94bd c0b2 56bd b9d1 fb3c
00000250: f311 dfbd 91fc 783b 9db3 87bd 98a3 b63c
00000260: bddd 0fbc 6d8f 0dbc 6ed4 193d 4dbd 82bd
00000270: 24cc 21bd 3da5 05bd b3ca bebc 2f29 aabd
00000280: 3495 48bc 39f4 88bd 61e9 d1bc 90e9 413d
00000290: a30c acbd 6ae5 f2bb 95e3 edbc 3554 e0bd
000002a0: de2f b0bd a989 a73b 6d25 8c3d d4f1 65bc
000002b0: c49b 223d da2e a1bd d994 8c3d 0a0c 953d
000002c0: 238c 783c 06d7 47bd 7953 9bbd 0ce1 90bd
000002d0: 0d89 833d 90bc 2d3d cce0 673d 98e0 c13d
000002e0: 5d27 bdbd 5adc cdbc d7b1 5abd 9125 2c3d
000002f0: 15d7 4cbd f3a9 e3bd 082d 50bd 6e03 2e3b
00000300: 5731 babc 386f 82bd c32a 353d 82f1 58bd
00000310: c9c4 9a3d afc8 5e3d 7b44 d1bb 66c6 1e3d
00000320: 3203 98bd b61f 273d 5d0b dfbd 21d8 acbc
00000330: 5048 94bd f7ec 13bd 5e76 c1bc 07d7 12be
00000340: 292b 1a3d 4732 743c 08a5 a7bb 13de db3c
00000350: 973e 75bd 2201 84bc 81a8 2c3d 6793 a2bc
00000360: ad01 b43d df98 b9bd b95c 18bc ab19 953c
00000370: 3874 9fbd c432 b6bd 5a7e 96bd 789a 263d
00000380: 44f6 033b 120d ff3c 47d1 c9bd bf21 23be
00000390: 3053 0abe a2d4 b33b ff17 663d a372 c3bd
000003a0: 681d fabc e350 81bd c088 793d 9e64 4bbb
000003b0: 86e0 443c c0be be3b 06dc 6e3d 3411 43bd
000003c0: dd6a c73d 1c15 a23c 8688 273c 570f 293d
000003d0: d0ca 17bd 91d8 3fbd 187d 823d 8a05 c3bc
000003e0: c101 c8bd b7fe 0dbd fe65 cabd 13d2 60bd
000003f0: 2533 263c 6ffa bbbd c0c4 00be 14e2 bbbc
0.025553752 0.048459403 0.056643117 -0.021730058 0.06581817 0.053116113 -0.044071816 0.034476556
-0.015181052 0.06381761 -0.0021016868 -0.08012759 -0.08218886 0.035097368 0.026885962 0.083254926
0.036034875 -0.035929903 -0.0011508459 0.0027133669 0.0118070375 -0.09206048 -0.068536356 0.024956483
0.08288247 -0.08221644 -0.023790998 -0.006896274 -0.12393683 -0.062808774 -0.019720094 0.013824809
-0.012502529 -0.005162363 0.06323839 -0.031673137 0.06456842 -0.09698454 0.047344584 -0.07320897
0.020500747 -0.100427315 -0.08370373 0.04463905 -0.002514179 -0.07851873 -0.06527518 0.043963913
-0.02552617 -0.08295538 0.02596578 -0.059860114 0.037828464 0.0072838124 -0.028205281 0.05127002
0.04494376 -0.06276939 -0.008040131 0.036184613 -0.03669043 -0.051880207 -0.03405708 -0.053468145
0.062637135 0.048920237 0.0045065163 -0.019867096 -0.09959783 0.0044441223 -0.050652243 0.02362322
-0.023579836 -0.070637636 -0.062949024 -0.05291733 -0.048235778 -0.073789924 -0.039240554 0.03668046
-0.033604596 -0.03870545 -0.12665273 -0.09669307 -0.022628337 -0.03647429 -0.0151903685 -0.1383506
-0.09049364 -0.031644262 0.01945164 -0.05257845 0.02390479 0.035166398 0.050904635 -0.04681678
-0.094768286 0.004659499 -0.065263435 0.036252026 -0.08332988 0.03129906 -0.14820968 -0.11349402
-0.07777115 -0.0019568095 -0.09584513 0.011791014 0.07281533 -0.063901104 0.037119187 -0.034422304
-0.09631595 0.033921465 0.00061430986 -0.015226989 0.035385333 -0.09684798 -0.065665014 -0.014283454
-0.044270776 -0.050600898 -0.055283193 0.013634896 0.030231154 0.018065726 -0.067247346 -0.025690082
-0.031631637 -0.0032227999 -0.10202289 -0.124480106 0.02413246 0.042230923 -0.08791272 0.063936815
0.09459489 -0.00026163805 -0.037070137 -0.013210869 -0.10841489 0.065513454 0.01819221 0.06696567
0.027539354 -0.07257542 -0.052416563 0.030739652 -0.108920954 0.0037992338 -0.066260554 0.022294804
-0.008780894 -0.008640152 0.037556104 -0.063837625 -0.039501324 -0.032628287 -0.023290014 -0.083086364
-0.012242604 -0.06687207 -0.025623979 0.047341883 -0.08400848 -0.007412602 -0.029039184 -0.10953561
-0.0860288 0.005112846 0.06843076 -0.014034707 0.03969933 -0.07870264 0.06864328 0.07277687
0.01517013 -0.048789047 -0.075842805 -0.07074174 0.06422625 0.042416155 0.056610867 0.09466666
-0.092360236 -0.025129486 -0.053392258 0.042028014 -0.050009806 -0.111163996 -0.050824195 0.0026552337
-0.022728605 -0.063688695 0.044230234 -0.052964695 0.07557065 0.054390606 -0.0063863373 0.038763426
-0.074224845 0.040801726 -0.10890839 -0.021099152 -0.07240355 -0.03611466 -0.023616012 -0.14339839
0.037638817 0.014904565 -0.005116109 0.026839292 -0.059874143 -0.016113821 0.042152885 -0.019845678
0.08789382 -0.09062361 -0.009299451 0.018200716 -0.07785839 -0.088964015 -0.073483184 0.040674657
0.00201358 0.031134162 -0.098543696 -0.15930842 -0.13508296 0.0054879943 0.05617523 -0.095433496
-0.0305316 -0.06314256 0.06092143 -0.0031035314 0.012016421 0.005821079 0.0583153 -0.047623828
0.097371794 0.019785456 0.010225421 0.041274395 -0.03705865 -0.046837393 0.06371516 -0.023806352
-0.097659595 -0.034666743 -0.09882735 -0.054887842 0.01014403 -0.09178626 -0.12575054 -0.02293495

shared.2.bias f4 [128]
00000000: 7fc3 5fbd 499a aebd 6e1d 02be ac75 bc3c
00000010: 2366 83bc 5434 c63c 20ad 1c3d 7e64 fb3c
00000020: 7afb e9bd 18b0 8c3c 5311 c8bd 0caa cabc
00000030: e030 f83b 98ec 8fbd edab cdb9 c20a 07be
00000040: d221 a0bc 69df afbd c72f 993c 8f0a bfbd
00000050: 0f86 ddbd 0c23 2d3d 4d71 a3bd 9739 7fbb
00000060: 64cb 7abc a479 1b3c 5bea ad3c 8fb6 ab3c
00000070: 61d4 99bd a30c f1bc e75f d0bd b987 2e3b
00000080: 6b90 0e3d 725b c5bc 2c81 0abd 93c0 fe3c
00000090: 3489 c3bd e59a 1cbd 2012 bcbd c900 98bd
000000a0: b0ec adbd 8f39 88bc 059f fc3c 93c9 aebd
000000b0: 74d4 ebbd 8681 81bd f22b 0fbb 9af9 ff3c
000000c0: f540 b0bc c226 d0bd a9bc da39 e3b7 4bbd
000000d0: 5e59 0dbe c626 8dbc d27f 65bc b79d 363d
000000e0: 371b 9e3b 60fa f8bd a183 f6bb 6dae bbbc
000000f0: a810 81bd 13e7 2dbd 39e1 173c 0e7b 40bd
00000100: 1640 c2bd 5876 b2bd 0ffe d3bc b9a5 7bbd
00000110: b636 eebd 4a61 223d b96c 23bc 05d0 84bd
00000120: b183 d43b 6d09 ca3c 642c 00be 79dc 1f3d
00000130: 003e c03b f2f5 e6bd 160c fdba 36bd 0a3d
00000140: 0e57 3ebd a393 e13c 6377 023d 5a77 b6bd
00000150: c84d 74bc a0a6 6fbd 6ded c83c f8db eabd
00000160: 7952 ce3c 1a7a cbbd 0e84 f83a 40b2 d5bd
00000170: 5f58 2fbc 251d 67bd 797a 6bbd cd06 df3c
00000180: 1e92 353d 14da b2bd b99c 84bd 146c 353d
00000190: ee01 f6bd 3b66 5cbc 17a2 2cbd 9cfe 153d
000001a0: 5388 82bd 436b 43bd f616 eebd b6a5 dfbd
000001b0: b611 ccbc 3f53 db3c b5f8 dcbd 1520 043d
000001c0: 089f a2bd 0bc5 abbc 8347 87bd d137 0abe
000001d0: b5db a3bd 161e 78bd df7d 69bd 77e9 a0bd
000001e0: 2d5a 88bd 2e16 fd3c 7912 a5bc 1b42 85bd
000001f0: 7563 b3bd aead a7bd 8fb4 373d be3b 9abd
-0.0546298 -0.08525521 -0.12706539 0.02300533 -0.016039914 0.024194874 0.038251042 0.030687567
-0.114249185 0.017173812 -0.09768929 -0.024739288 0.0075741857 -0.070275486 -0.00039228742 -0.13187698
-0.019547377 -0.08587534 0.01869954 -0.09328186 -0.10816585 0.04226975 -0.07980595 -0.0038944238
-0.015307281 0.009489451 0.021229913 0.020961074 -0.07511211 -0.029424971 -0.10174542 0.002663119
0.034805696 -0.024091456 -0.033814594 0.031097686 -0.09547654 -0.038233656 -0.091831446 -0.07422025
-0.0849241 -0.016629009 0.030837545 -0.08534541 -0.115151316 -0.06323533 -0.0021846262 0.031246949
-0.021515349 -0.101636425 0.00041720763 -0.049735915 -0.13803622 -0.017230403 -0.0140075255 0.044584002
0.0048250216 -0.1215713 -0.0075230156 -0.022910321 -0.06302005 -0.042456698 0.009270006 -0.046992354
-0.0948488 -0.087139785 -0.02587798 -0.061437342 -0.11631529 0.039643563 -0.009974652 -0.06484989
0.0064854254 0.024662698 -0.12516934 0.03902862 0.005866766 -0.11277379 -0.001930597 0.03387185
-0.04646974 0.027536219 0.031852137 -0.08909483 -0.014911123 -0.058508515 0.024527276 -0.11467737
0.02518581 -0.099353984 0.0018960254 -0.10434389 -0.010702222 -0.05642428 -0.057489846 0.027224923
0.0443288 -0.08733001 -0.06475205 0.044292524 -0.12012087 -0.013452108 -0.04214677 0.036619768
-0.06373658 -0.047709715 -0.11625473 -0.10920279 -0.024910789 0.026773093 -0.107896246 0.03225716
-0.07940489 -0.02096798 -0.06605437 -0.13497855 -0.0800089 -0.060575567 -0.057004806 -0.0785703
-0.06657825 0.030894365 -0.02015041 -0.06506749 -0.08759204 -0.08187424 0.04484993 -0.07530926

move_mean.weight f4 [2, 128]
00000000: 881d c03b 6dae 5fbd 1660 8abc 4b61 b93c
00000010: 571b ca3b 8684 103c 1ada d03b a0dd 0b3d
00000020: aa09 c33c 43e0 d438 ed83 1cbb 7eea bcbb
00000030: 1242 1ebc 1481 473d 8f91 763c 6ef2 b1bc
00000040: f3ca 113d 08a3 333c 5f9f c1bc 8603 f2bc
00000050: 12bc 433d 3a4b 753d 9c66 e4bc e1ac 8eba
00000060: 6546 44bc 4296 1e3d 67d0 323d dbad b5ba
00000070: 15dc 5c3c f5d5 323b 76c4 3f3c da3b 3dbc
00000080: c912 c63c 6ff1 8f3b 849e 13bc 23ef 873b
00000090: 41e2 ffbb 04c1 5d3d bc24 81bd 8ed4 8b3c
000000a0: c525 543b 8728 2a3c f256 263d aab2 7f3c
000000b0: 0e4f a53a bf2a 0cbb c07d 9bbc b074 16bd
000000c0: 3ea6 ce3c 75cf 14bb 5ace afba 9118 303b
000000d0: f1e1 b6bb 5c08 cdbb f367 7c3c b0eb 19bd
000000e0: 900d 45bd 2898 e1bc 51c3 e73c cd76 9ab8
000000f0: 6020 90bb d5ee f93b 08c3 78bb b8ec 51bb
00000100: 1f15 d3bb d303 ef3b e63e 113b 3985 15bc
00000110: b7f3 1dbc 9a9d 2a3d f831 273d 0716 393d
00000120: 4639 a9bc 9db3 943c 22fa bb3b b02f 90bc
00000130: 6252 93bc c801 d9bc 5578 433d 944a 45bc
00000140: 8433 c6bc 4b37 863d e954 b23b 3aeb 413c
00000150: a798 313c c15b 04ba 64df eb3c b9b4 753b
00000160: b242 053d 5e20 3c3c 5463 c0bc d9dc 2dbd
00000170: dff2 553c 5930 61bd b4dd 5a3c ecc3 903d
00000180: 0061 583d 977b cebc ca45 9c3d 94b7 e63c
00000190: 3004 cc3b fc23 193d 01d8 efbb d5f5 213c
000001a0: c2f3 b8bb d283 05bc 4a49 2d3d b95e eb3c
000001b0: bfdd fcbb 2fa2 efba 2b2a 993b 01d9 0bbc
000001c0: a756 03bc 5518 503c f518 e53a d450 2fbc
000001d0: cc79 d13c 9edb e23b 1772 cf3c 4a94 fb3c
000001e0: e598 4d3c 0751 34bd 1b87 713d 068e cbbc
000001f0: 44b4 81ba 6761 72bc 731d 713b 448b 2c3c
00000200: 9aca 163c 05d5 b53c b569 a63b 0169 38bb
00000210: 730a e13c c734 8d3c a2d7 0c3c f3ae 66bd
00000220: 086b 4f3c 9778 47bc 09d8 f5bc 874b b5ba
00000230: 9541 a93d 026f cebb 29b5 04ba 7622 d53b
00000240: 9906 c8bb ce41 08ba 8f95 24bc ab9d 1c3d
00000250: 770f 823d 6dd6 183b dff8 413d f688 343c
00000260: 33db aebc 9650 11bd 4624 173d 0612 44bb
00000270: 46d9 0cbc 0701 20ba 0172 0ebc bc94 edbb
00000280: ed2e a4bc cb1a 1fbb b856 dcb9 d8a4 4dbc
00000290: 0b16 72bc cf47 33bd 8814 3e3d 00ed b6bb
000002a0: 06d5 043d 7246 1e3b c114 50bc cc5c ba3c
000002b0: 734b e6bc e23d f83c 71a3 8dba 6ab0 d7bc
000002c0: 172f 9d3b 7c4c f7bb b9ef c0ba 0666 48bc
000002d0: 9696 ac3c fd96 093d 3e56 563c 5e4d 713d
000002e0: 5802 4cbd 6b6e 633b 7f9d 073d 812d 7fbc
000002f0: 6f42 b63c 6efd 0ebc e499 98bc 6382 cf3c
00000300: 11eb 443c 0112 27bc 2405 aebc 3152 b6bb
00000310: 3071 58bc ae26 4c3c 1617 6fbc d397 75bd
00000320: 2991 0e3b e968 3dbc 0516 18bd 2f38 3a3c
00000330: e77e 14bd 668e 02bd f346 6abd 10c0 c23b
00000340: 5759 24bd b893 85bd 06da ffbb b02d 893c
00000350: a86b f7ba 0d9f 30b9 f569 8abc 4f60 1fbd
00000360: 3776 0abc ee5b 9dbc 7841 ab3c 6132 6d3a
00000370: c5b1 143a 49d0 c23c b546 3b3d 88b6 713c
00000380: e9b0 873c 304d 3abd 9977 77bc 58cc 2c3c
00000390: 76de 053d 8b3c 743d 4267 62bd 2ec9 b7bb
000003a0: e69e 463d 2f62 033c a4a0 abbc 02b9 803c
000003b0: 8d44 c7ba 7957 133d 4f4f 7dbb ce7c e639
000003c0: 409b 79bd 525d 69bc 1781 233d b106 8bbc
000003d0: 9fc2 16bb ad1c 66bb 63a3 29bd 32a0 873c
000003e0: 7dc6 53bd f8ed 363c ecd8 abbd a5d8 9f3c
000003f0: 94ff 263a 5313 d23b fc3b 1ebb 2675 063d
0.0058628954 -0.054609705 -0.01689152 0.0226294 0.00616781 0.008820659 0.006373656 0.034146905
0.02380832 0.0001015072 -0.0023882345 -0.0057652583 -0.009659307 0.048707083 0.015049352 -0.021722045
0.035593938 0.010964163 -0.023635564 -0.029542696 0.04778678 0.059886195 -0.02788096 -0.0010885262
-0.011979674 0.038717516 0.04365578 -0.0013861017 0.013480206 0.0027288173 0.011704555 -0.011549914
0.02417888 0.004392795 -0.009009961 0.0041483804 -0.007808954 0.054139152 -0.06305835 0.017069127
0.0032371145 0.010385639 0.04061026 0.015606562 0.0012612061 -0.0021387783 -0.01898086 -0.036732376
0.025225755 -0.0022706662 -0.0013412938 0.0026870111 -0.0055811335 -0.0062571 0.015405643 -0.037578285
-0.048108637 -0.027538374 0.028291376 -7.3654206e-05 -0.0043983907 0.007627348 -0.0037958045 -0.0032031965
-0.006441727 0.007294157 0.0022162735 -0.009126001 -0.009640626 0.041654207 0.04081914 0.045187023
-0.020657193 0.018152053 0.0057366053 -0.017600864 -0.01798362 -0.026490107 0.04772218 -0.012041707
-0.024194486 0.06553515 0.005442251 0.011835868 0.010839618 -0.0005049073 0.028793044 0.0037491752
0.03253431 0.011482326 -0.023484863 -0.042446945 0.013058393 -0.05497775 0.013358522 0.07068619
0.05282688 -0.025205417 0.07630499 0.028163709 0.006226085 0.037387833 -0.007319451 0.009885271
-0.0056442926 -0.008149104 0.042306222 0.02873169 -0.007716864 -0.0018282587 0.0046742163 -0.0085356245
-0.008016265 0.012701114 0.0017478751 -0.010700423 0.025570773 0.006923153 0.025322957 0.030710358
0.01254866 -0.044022586 0.058966737 -0.024847995 -0.0009895642 -0.01479373 0.0036791235 0.01053125
0.009203577 0.022196302 0.005078519 -0.002813876 0.027470803 0.01723708 0.008596333 -0.05631919
0.012659796 -0.012174747 -0.03001024 -0.0013831713 0.08264462 -0.0062998543 -0.00050623954 0.006504352
-0.006104302 -0.0005197794 -0.010045423 0.0382363 0.06350606 0.0023321167 0.047356483 0.011018982
-0.021344757 -0.035477243 0.036899827 -0.002991797 -0.008596724 -0.0006103669 -0.008694173 -0.0072503965
-0.020041907 -0.0024277444 -0.0004202628 -0.012551509 -0.014775763 -0.043769654 0.0464063 -0.005582452
0.032429717 0.0024150875 -0.012700261 0.022749327 -0.028112149 0.030302946 -0.0010806156 -0.026329238
0.0047968733 -0.0075469594 -0.001471988 -0.0122313555 0.021067899 0.03359126 0.013082085 0.058911674
-0.049806923 0.0034703265 0.033109184 -0.015574814 0.022248475 -0.0087274145 -0.018628068 0.025330728
0.012018935 -0.010197164 -0.021242686 -0.005563997 -0.01321058 0.012460394 -0.014592906 -0.059959244
0.0021754003 -0.011560657 -0.037130374 0.011365934 -0.036253836 -0.031874083 -0.05719657 0.005943306
-0.040124264 -0.06522316 -0.007807973 0.016745418 -0.0018876689 -0.00016843919 -0.016896227 -0.038910206
-0.008451036 -0.019208875 0.020905241 0.00090483396 0.00056722417 0.023780959 0.04572173 0.0147529915
0.01656385 -0.045483768 -0.015104198 0.010546766 0.03268286 0.05962805 -0.055274256 -0.0056086993
0.04849138 0.008019014 -0.020950623 0.015713219 -0.0015202925 0.035972092 -0.0038652008 0.00043962005
-0.060939074 -0.014243441 0.03991803 -0.016970964 -0.0023004187 -0.0035112307 -0.041415583 0.01655588
-0.051702965 0.011165135 -0.08390984 0.019512484 0.00063704816 0.006410995 -0.002414464 0.032826565

move_mean.bias f4 [2]
00000000: 533f 913d a70b 59be
0.07092156 -0.21195851

food_logits.weight f4 [3, 128]
00000000: 9e87 31bd ec50 903c c138 dc3c ced1 1ebc
00000010: 4f8c 193d bdf1 b8bc a2ac 003c 0313 4c3d
00000020: 767e aebc 0993 d8bc 9af1 063d 28d2 fabc
00000030: 5625 84bd 7c1f 0bbd c76a 233c 6725 043d
00000040: ed57 02bd f274 c9ba c78e 833d 505d 7ebd
00000050: 409c 553d ef8d 2f3c 46d3 58bd f018 cebc
00000060: 3b2f efbb 7ac1 7c3d f73c 2a3d 6744 2fbd
00000070: 4203 ed3b 2832 d7bc 1807 10bd b754 f63c
00000080: 824d 693d 6b3f 473d 9533 893a a52f c6bc
00000090: f4a6 703d 30ed b1bb 87c6 053d 17ff 50bd
000000a0: d73b adbd eb28 9d39 2f59 1d3d 32e5 91bc
000000b0: 6806 6ebc d359 103d b84f 0abd 1051 973d
000000c0: cb01 293d 4ccb 35bc 8795 a4bd 8250 023d
000000d0: 2155 373d 6e01 86bb e1b4 89bd 1cc5 0bbd
000000e0: ad45 fe3a e109 95bc e6c3 643c 2778 c33c
000000f0: 812a 2b3d c807 36bd 4ada 813d 7206 803c
00000100: c80b b73d 1d86 4d3d 036c 813d feef e83c
00000110: 42d7 f83b 1001 323d 96af 043d 3c68 8f3d
00000120: aa93 b6bb d4ec 043d 3ae3 423c 6841 dcbc
00000130: 1b49 553d f71f 383d e275 2c3d 7a8e 293d
00000140: d8ad 173d 335f b13d f78a 5c3d c728 6b3d
00000150: 91a6 5cbc 3445 55bd 13c2 083d a1b2 973d
00000160: ec49 dabc 603f 083d eedd e4bc ac3f a1bc
00000170: aa54 fb3c 1c25 0c3d c8dd 1cbd efd9 dabc
00000180: 397a 59bb 30e4 dabc 9e3a 0f3c 9378 1abd
00000190: fc71 56bd 9d77 27bd 7ebe 443d a708 dbbc
000001a0: 6547 80bd b5a8 b0bc 6d68 35bd edf3 6a3d
000001b0: 5924 953c e7a3 3e3d 3f3a 73bd f966 3c3c
000001c0: c2f3 fdbb 98a5 1dbd 81e6 2c3d c0f7 a43c
000001d0: bb68 aa3c 4802 a2ba a8fc d7bc 9cd9 f03c
000001e0: 1cc7 75bd 2a46 223c 409e 0ebd 504e 46bd
000001f0: 42cb 323c e3c2 f03c e2eb afbc 012a 3f3d
00000200: c0d8 13bd acce 2f3c f3e0 5bbc 6d9a f7bc
00000210: 17ea 8bbc b529 073d a568 833c b6dc 623d
00000220: 084d 0ebd 942a 00bd 9620 953c 5ea0 1eba
00000230: c6cb 9dba cf4d 9c3d ba89 9cbb d355 8f3c
00000240: 552e 413d c155 57bc 114e 9e3c dd14 96bd
00000250: d333 33bc 5a7a 0a3d fc0c f7ba 9bc7 1ebd
00000260: ad3d 4a3b 4862 1f3d 62fc c83b 337c 1dbd
00000270: 9416 f33b 475c e8bc f041 86bc 7b94 dd3c
00000280: 3e8f ee3c d4d0 ee3c 17fb 273d b5fb f0bc
00000290: aa3f a63d b0f3 ae3d 74e7 07bc 5fc7 2fbd
000002a0: 68ad 143c 30d4 aa3c fd9e ddbc ad2e 06bb
000002b0: ab33 613c 8974 8f3d 4550 14bd c7c7 883d
000002c0: c1c7 7c3b 815d 863c 7c31 8bbd 175c 05bd
000002d0: 3b32 533d 465d 973d 3b9b c6bc 13c5 96bd
000002e0: 35e3 493d e735 753b b3b8 203d 09b9 7c3d
000002f0: 512d 073d 2c5a 07bc 1bc8 913d 43bb 153d
00000300: 4037 c73c 8523 723d 0a12 04bd 162b 623a
00000310: c3af b23c 2421 c43a 094b eb3c da8b a4bd
00000320: 8cc6 be3c 00b6 1c3d d34c 983d 78f5 b0bc
00000330: a928 bebc a43f eb3c 3934 a43d beeb 5b3d
00000340: e233 053d 25ab 04bd 701c 943d 744b 7c3d
00000350: 9d61 e8bc 329b 82bd b73d e23c 126f 623c
00000360: 90fb 6cbd 5a8c 3bbb 7803 acbc 0abb 84bd
00000370: 790e a23c a3ce 793d 0008 c33c 6bcc 1f3c
00000380: 25dc 01bd dede 0dbd 101d c5bb 48c6 febc
00000390: ace9 85bd 79dc 79bc 7dc8 7d3d ad2e fcbc
000003a0: cc83 5f3d 8ab4 b8bc 14bf 403c 4352 bd3c
000003b0: 1740 20bb 1538 a43c 4b37 b7bc 6b76 803c
000003c0: 33fd d6bc 2b19 17bd 471f 32bd e80a 263d
000003d0: 62ca 193d f880 793c 50a0 01bd c709 6c3d
000003e0: 3ba7 9fbc 072a e03c b897 4cbd ce26 42bd
000003f0: 6250 453d b750 c7bc aeff c1bc d872 cebc
-0.043342225 0.017616712 0.026882531 -0.009693576 0.037487324 -0.022576207 0.007853659 0.04982282
-0.021300536 -0.0264373 0.032945253 -0.030617788 -0.06452434 -0.033965573 0.009974188 0.032262232
-0.031822134 -0.0015369935 0.06423717 -0.06210071 0.052150965 0.010714992 -0.05293586 -0.025158376
-0.0072993315 0.06170795 0.041562047 -0.042789843 0.0072330544 -0.026269034 -0.035163015 0.030069692
0.056958683 0.048644464 0.0010467643 -0.02419264 0.05875297 -0.0054298863 0.032660034 -0.051024523
-0.08458679 0.0002997586 0.03841513 -0.017809484 -0.014527895 0.035241913 -0.033767432 0.07388508
0.041261476 -0.011095833 -0.080363326 0.03181506 0.04475892 -0.004089526 -0.06723953 -0.034123525
0.0019399427 -0.018193187 0.013962721 0.023861004 0.04178858 -0.044441015 0.063404635 0.015628073
0.08937794 0.05017673 0.0631943 0.02843475 0.00759402 0.043458045 0.032394014 0.07002303
-0.005571802 0.03245242 0.011894995 -0.026886657 0.052071672 0.04495236 0.04210461 0.041395642
0.037031025 0.08660736 0.053843465 0.057411935 -0.013467447 -0.05206795 0.03338821 0.07407118
-0.026646577 0.033263564 -0.027937856 -0.019683681 0.03068002 0.034215078 -0.038297445 -0.026715247
-0.0033184423 -0.026720136 0.008742003 -0.037712645 -0.052354798 -0.040885556 0.04803323 -0.026737524
-0.062636174 -0.02156482 -0.04428904 0.057361532 0.018205808 0.04654303 -0.05938172 0.01149916
-0.0077500055 -0.038488 0.042212013 0.020137668 0.020801893 -0.0012360299 -0.026365593 0.02940064
-0.06000434 0.009904424 -0.034818888 -0.04841453 0.010912718 0.029389804 -0.021474782 0.046670917
-0.03609538 0.010730427 -0.013420331 -0.030225003 -0.017079396 0.03299876 0.01604111 0.055386268
-0.03474143 -0.031290606 0.018204015 -0.0006051118 -0.0012038879 0.07632028 -0.0047771605 0.017496979
0.047163326 -0.013143004 0.019324334 -0.07328198 -0.010937649 0.03380809 -0.0018848474 -0.038764577
0.0030859516 0.038912088 0.006133602 -0.038448524 0.007418463 -0.028364314 -0.016388863 0.02704834
0.029121038 0.029152311 0.041010942 -0.029416898 0.08117612 0.085425735 -0.008294929 -0.042914744
0.009074546 0.020853132 -0.02705335 -0.0020474598 0.013745229 0.07004649 -0.036209363 0.066787295
0.003857121 0.016402008 -0.06796548 -0.032558527 0.051561575 0.07390837 -0.024243942 -0.07361808
0.049288947 0.0037416162 0.039238643 0.0616999 0.0330022 -0.008261245 0.07118245 0.03655554
0.024318337 0.059115905 -0.032243766 0.0008627636 0.021812325 0.001496349 0.028722303 -0.08034487
0.023288034 0.038259506 0.07436528 -0.021601424 -0.023212748 0.02871687 0.08017773 0.05369162
0.032520182 -0.03238978 0.072319865 0.061595395 -0.028366858 -0.063772574 0.027617319 0.013820427
-0.057857096 -0.0028617592 -0.020997748 -0.06480987 0.019782292 0.06098808 0.023807526 0.009753327
-0.031704087 -0.03463637 -0.0060154274 -0.031100407 -0.0653871 -0.015250319 0.06195878 -0.030783975
0.05456905 -0.022547025 0.011764307 0.023110515 -0.0024452263 0.020046273 -0.022365233 0.015681466
-0.026243782 -0.036889236 -0.04348686 0.040537745 0.037546523 0.015228502 -0.031647027 0.057626512
-0.019488921 0.02736379 -0.049949378 -0.04740029 0.048172362 -0.02433048 -0.023681488 -0.025201246

food_logits.bias f4 [3]
00000000: 2529 a1bd 85f2 84bd 874f 1a3e
-0.07869176 -0.064915694 0.150694

net.0.weight f4 [128, 17]
00000000: fe63 273e 693a 3abe e0cc b33f c71e 7cc0
00000010: c021 a1be 0e9f 5cbe 7440 15be 0c3a cf3d
00000020: e1a5 adbd 3ca7 b63d fb84 033e 87bd 32be
00000030: 6042 393e f45a 8cbc 8464 80bc 7044 353e
00000040: 5a88 e93d 0295 9c3d 51a3 b7bd 566e 0ac0
00000050: 7a56 3c40 8720 933f aa7f 3ebe b95f 1e3e
00000060: 116d 0cbe 59ef d33d b654 0b3d 7122 dabd
00000070: e2ef eabd 37c6 80be 6147 d1bd 389d 253e
00000080: 772f bfbd 4a38 2fbd 2326 6ebd 3058 21bc
00000090: bbd2 623f c986 7cbf cbf7 cebf 8329 163e
000000a0: 7d68 993c 348c ed3c a335 cc3c 3f02 553c
000000b0: 21f1 293e ca6f 283e f5b4 6e3d 558b ce3d
000000c0: 2cfd 8fbd 94ef 613c ed80 023d e5f2 7ebd
000000d0: c492 e1bd 8ff7 b03f accd 40c0 c7ec 34bf
000000e0: 579e 54bd 4e26 863e 0ecd 21be 6ea2 423b
000000f0: 6753 cebc 9f17 42be a3b8 48be a540 5ebe
00000100: a095 25be dbaa 153e 14d3 193e a58e 053e
00000110: 2fd3 233e 8ced 26be b16b 843f 99f5 34be
00000120: e1cf edbf 2eee a63d 67be 5fbe b756 0bbe
00000130: 3181 4bbe 1826 553d ea22 5ebd 92f6 563d
00000140: 3b55 83be bfd7 793e 0433 c03d e510 fcbb
00000150: 6950 47be 79a0 31be c480 96bb 4191 ca3f
00000160: 02df aebf f87e 83bf ee83 b3be 4e0c e5bd
00000170: d861 c5bc c1c5 72be 805b 12be 8160 223e
00000180: e50a 0a3c a89b 03be 41b5 723d 5af6 11be
00000190: 764f adbd ac0f 21be ac37 f3bd 3ab1 bdbd
000001a0: 7ed7 eabf 20e8 8440 a63f 2d3f f069 45bc
000001b0: 3a06 ee3d 175a 3a3e 8be7 073d a883 87bd
000001c0: e9fa 593e 288c 113d 85d3 df3b 363a b1bb
000001d0: 4d0d 7fbd e96f 743d b455 6a3d 7f8d 473e
000001e0: e392 1d3e 0c70 0b40 1dee 95c0 dfa8 42bf
000001f0: 8555 1d3e c526 2fbc d310 743e 7354 283e
00000200: f4df 1c3e dbfd ddbc 3827 49bd f26d cdbd
00000210: 7d4f 33bc 2269 ff3d afe2 2c3d 6b74 cfbd
00000220: 34b3 d3bd b2be d23c 11ca 983f 0533 c0bf
00000230: 6e98 09bf 83fe a83e 3f71 a13e 1611 a2bd
00000240: 9b9e 22bd 6a60 193e 6d04 4b3d c2e3 3bbe
00000250: 5b26 1e3c a0cb d53d 5408 003e 2900 373c
00000260: 3bba 6ebe 82b7 023d e29d 513d e410 e9bf
00000270: 10a5 a140 195f 2f3f b555 c8bd 0985 5e3d
00000280: 50db 9a3b 6051 cebc bce6 7aba 3176 243d
00000290: 1f07 bb3d 870d 06be 738f 80bd fecd 923e
000002a0: 196a 0d3e 112f f83c 1b78 1c3e b50c 94bd
000002b0: 3112 d4bf 35b2 4f40 8c93 0540 db06 8abd
000002c0: dc93 22bd c2e4 73bd 76e4 983d 8361 66be
000002d0: c2ab 74be 39c7 d93c 0566 a73d b7f7 6c3e
000002e0: 5a00 ed3c 9346 1c3e bb8f 36be f661 0f3e
000002f0: 541a c3bc c082 7d3f ab0d 19c0 9ace 03be
00000300: e514 173e f570 2d3e 3271 c13d 30ef 93bc
00000310: 3c0a 03bd 6309 85be 89c9 80bc b12e 1f3e
00000320: efec 193c 819d 9dbc 6b8f cbbd 1937 76bd
00000330: 0440 ed3d 9da4 803d 5629 a2bf d5d7 9340
00000340: 664a 8abd 1170 98bc a3b2 ae3d 550a e13c
00000350: 42b9 46be f5cd 693d 9a43 d43d 5a13 b7bd
00000360: 8ca2 8c3d 8774 753d 1157 93bd 1219 ce3d
00000370: 4e47 583d 632d 7ebc 802d 953c ba84 f8be
00000380: 09de 4fbf f415 1740 cea4 603d 51a1 853c
00000390: 101b 883d cee0 83be ae9d 0dbe 0093 f2bd
000003a0: c575 98be 006b 713e 5010 133d 11e0 863d
000003b0: b6ae 46bb 15bd f03d 3c02 4ebd 74aa fa3d
000003c0: 2fa8 acbf 4435 8440 dea8 663f 2da3 9f3a
000003d0: 3610 8fbe 055d a83c b75d 7a3e 5fd8 143e
000003e0: 1f94 a4bc 3bba d8bd d647 003e 1096 1d3e
000003f0: 3d2f b63d c01f e1bd 92e7 d1bd 576a fd3c
0.16346738 -0.18186344 1.4046898 -3.9393785 -0.31471062 -0.2154505 -0.14575368 0.101184934
-0.084789045 0.08918616 0.12843697 -0.17455111 0.18091726 -0.017133214 -0.01567293 0.17701888
0.1140296 0.076456085 -0.08966697 -2.1629844 2.942778 1.1494302 -0.18603387 0.15466203
-0.1371348 0.10348386 0.034016334 -0.106511004 -0.11471535 -0.25151226 -0.102186926 0.16173255
-0.09335225 -0.04277829 -0.05814184 -0.009847686 0.886028 -0.98643166 -1.616937 0.14664273
0.018726582 0.028997518 0.02492792 0.013001024 0.1659589 0.16448894 0.058278043 0.10085169
-0.070307106 0.01379003 0.031861234 -0.06224336 -0.110143214 1.3825549 -3.0125532 -0.70673794
-0.051908817 0.262011 -0.15800878 0.0029698866 -0.025186254 -0.18954323 -0.19601683 -0.21704347
-0.16170359 0.14615957 0.15021926 0.13042696 0.15998529 -0.16301554 1.0345365 -0.17671813
-1.8579065 0.08150898 -0.21849976 -0.13607298 -0.19873501 0.052038282 -0.054232515 0.05248124
-0.25650963 0.24398707 0.093847305 -0.0076924437 -0.19464268 -0.17346372 -0.004592987 1.5825578
-1.3661807 -1.0273123 -0.35061592 -0.111839876 -0.024094507 -0.2370825 -0.14292717 0.15857126
0.008425449 -0.12852347 0.05925489 -0.14254132 -0.084624216 -0.15728635 -0.11875853 -0.09262319
-1.8347013 4.1533356 0.67675245 -0.012049183 0.116222814 0.18198429 0.0331798 -0.06616908
0.21287121 0.035534054 0.006830635 -0.0054085506 -0.062268544 0.05967704 0.05721064 0.1948757
0.15388064 2.1787138 -4.6853166 -0.76038927 0.15364654 -0.010690396 0.23834543 0.16438465
0.15319806 -0.027098587 -0.049109668 -0.10030736 -0.010944244 0.12471224 0.04220837 -0.10129627
-0.10336915 0.025725696 1.1936666 -1.501557 -0.53748214 0.33006677 0.31531712 -0.07913415
-0.03970204 0.14978185 0.049564768 -0.18348601 0.009652699 0.10439229 0.12503177 0.011169472
-0.23313229 0.031913288 0.05117596 -1.820828 5.051399 0.6850448 -0.09781972 0.05432609
0.004725851 -0.025185287 -0.0009571125 0.04015178 0.091322176 -0.13091098 -0.06277361 0.28672785
0.13810004 0.03029588 0.15280192 -0.07228986 -1.6568052 3.245252 2.0871305 -0.06739589
-0.03969179 -0.059544332 0.074654505 -0.22498135 -0.23893645 0.026584255 0.081737556 0.2314137
0.028930832 0.15261297 -0.17828266 0.14002213 -0.023816265 0.99027634 -2.3914592 -0.12871781
0.14754064 0.16937621 0.094454184 -0.01805839 -0.031992182 -0.25983724 -0.0157211 0.15545155
0.009394868 -0.019240143 -0.09939464 -0.06011114 0.11584476 0.062813975 -1.2668865 4.6200967
-0.067524716 -0.018608125 0.08530166 0.027470747 -0.19406608 0.05708118 0.103644565 -0.08939238
0.06866941 0.059925582 -0.07194341 0.100633755 0.052802376 -0.015513751 0.018210173 -0.48538762
-0.81198174 2.360715 0.05484467 0.016312273 0.06645787 -0.2575745 -0.13829681 -0.11844444
-0.2977735 0.23575974 0.03590423 0.06585706 -0.0030316538 0.117548145 -0.0502951 0.122395426
-1.3488826 4.131502 0.9010142 0.0012179367 -0.27942055 0.020552168 0.24449812 0.14535664
-0.02009016 -0.10582396 0.12527403 0.15389276 0.08895729 -0.10992384 -0.10249247 0.030934496

net.0.bias f4 [128]
00000000: 60a2 8d3e aeaa 1abd 5af4 aebe ce15 46be
00000010: 36eb 39bd d6b7 b53d a293 84be 17ea 023e
00000020: 5349 85be 44b2 98be c85a 433e f409 82bd
00000030: 3a89 a43d 13ad 543e ff1c afbd e9ee 03be
00000040: 3d09 1abe a0b9 1cbe aa7b 67bd 7d45 03be
00000050: 0b7c adbe ca28 0cbe 09a1 253e 7571 ff3e
00000060: 2fbd a5bd 8b8f c3bd 47e0 09be aa5a 923e
00000070: 9407 3abe baa4 713e 1b8c 95bd f213 6f3e
00000080: 95f4 8c3c 013b 1a3e 04fa a33e 4fcd 243e
00000090: 451f 53be df7d 873d 6923 6cbe 8093 22bd
000000a0: e6f5 aebd a5d9 52be 93ae c63d a582 2f3e
000000b0: a1d8 29bd 344a 65be 8643 0bbe 0679 9eba
000000c0: b93f dfbb f5bd 5a3d eb7f 86be 4c01 63be
000000d0: ea34 c63e 6165 cd3d bc33 d93e 3756 8fbe
000000e0: c4db 513e a4f0 5e3e ba71 bf3a 5caf cc3c
000000f0: ea8c 6d3c 5a20 84bd 9be3 d3be b098 6a3e
00000100: c72d 373e e00d f7be 9e22 83be ecb9 883e
00000110: 9857 0b3e dd9c 75be 4f18 fd3d f000 e1be
00000120: 20f6 603c 4ad6 1dbe d441 f43e d5bf febc
00000130: 046f 933e 450a 563e 74c2 95bd 6349 993e
00000140: 81c7 893e efd2 4a3e cb13 0d3e 9154 383d
00000150: c1ef 283e 0963 103e bc0b 30be 8997 23be
00000160: 5692 253d 441b 0b3e 00e8 3c3d cb25 17be
00000170: a574 ef3d e815 213e bacd dcbd 3e1c 9d3e
00000180: e805 053e ccfe 77be 1374 7ebe 9a64 3c3e
00000190: 9b31 443e 1e0b 73be 9e08 6fbe 1b5f 43bd
000001a0: 4c73 9e3e 8258 4b3e a73c 8fbd 0e7d 293d
000001b0: 8e7c 273d d6aa 8a3d a681 1e3c 077b 523e
000001c0: 4738 83be 8409 483e a854 d8bd e009 8abe
000001d0: 03df c8bd adf1 4e3e a8d4 ec3d 66ea f73d
000001e0: cb53 0cbe cedc 843d 7a55 9ebd 5e1c 583e
000001f0: e464 a4be 9095 393d 4406 773e 471c ed3d
0.27662945 -0.03776043 -0.341708 -0.19344255 -0.04539033 0.088729545 -0.25893885 0.1278461
-0.26032504 -0.29823506 0.19077599 -0.06349555 0.080339864 0.20769148 -0.085504524 -0.12884106
-0.15042587 -0.15305185 -0.05651442 -0.12819476 -0.338837 -0.13687435 0.16174711 0.49891248
-0.080927245 -0.09548863 -0.13464461 0.28584796 -0.18166953 0.23597994 -0.073021136 0.23347452
0.01720647 0.1506157 0.32026684 0.16093944 -0.20617397 0.06615805 -0.23060383 -0.03969145
-0.08542995 -0.20590837 0.09701266 0.1713968 -0.04146636 -0.22391587 -0.13599977 -0.0012090511
-0.0068130163 0.053403813 -0.2626947 -0.22168463 0.38712245 0.10029102 0.42422283 -0.27995464
0.2049399 0.21771485 0.0014606037 0.024985962 0.014498929 -0.06451483 -0.41384587 0.22909808
0.17888556 -0.48252773 -0.25612348 0.26704347 0.13607633 -0.2398562 0.12358152 -0.43946028
0.013730556 -0.15413776 0.47706473 -0.031097332 0.28795636 0.20902355 -0.073124796 0.29938802
0.26910022 0.19807027 0.13777082 0.045002524 0.16497709 0.14100279 -0.17191976 -0.15975775
0.04042276 0.1358462 0.04611969 -0.1476051 0.1169217 0.15731013 -0.10781427 0.3068561
0.12990534 -0.24218291 -0.24848966 0.18397751 0.19159548 -0.2373471 -0.23343131 -0.04769812
0.3094734 0.19857982 -0.069939904 0.041379027 0.04089027 0.067708656 0.009674465 0.20554744
-0.25628874 0.1953488 -0.10563022 -0.2696066 -0.09808161 0.2020938 0.115639985 0.12105255
-0.1370384 0.06487428 -0.07731147 0.21104571 -0.32108223 0.04530865 0.24123484 0.11577659

net.2.weight f4 [128, 128]
00000000: 0cf0 d9bd 7377 71bc 116d 11bd e198 6d3d
00000010: 00f5 a7bd 2e0c f43d eb32 43bd 04fe 703d
00000020: 3611 d7bc 7f93 03be aeeb 29be 052b fb3d
00000030: 09cc 8ebc 40b2 27bb 8824 fbbd 9d6d 3abe
00000040: 416b 643d 96c6 fcbd 00a5 f2bc 129a 2dbe
00000050: 3d0d 19bd 1d9b 643d d2fe df3d 23d4 5c3d
00000060: c17d eebd 09a8 c1bd 8f38 82bd ae44 7a3d
00000070: 6412 74bd 13a1 2a3e ced1 62be e89d ef3d
00000080: 4943 1bbe 65bc 423c 81a9 a1be fbd7 083d
00000090: 26cc c6bd 6699 e73c 2e1b 363d 2541 cd3d
000000a0: 3a24 2b3b 349e 813b f821 13bd b19c 23be
000000b0: ba5a dabd f768 953c 8e8a 27bd 668f 51bd
000000c0: 6425 90bb 5e95 8e3b 3c11 943d f9c3 3abe
000000d0: d7fd 49bc b7fd 13be 8861 043e e5d1 a53d
000000e0: a907 b0bd fd9d 183b 2014 e2bd ba0e c0bd
000000f0: 6c7e 3bbc da50 c7bc 979a a0bd e458 d63b
00000100: f7de 53bd ba02 c5bd 4b5f f43d 8f4c 48bd
00000110: 5518 60bd 902e 17bd 4980 dc3d 6b4e 063d
00000120: 0cc4 95bd 04b6 3bbd 8508 73bd 7652 e5bd
00000130: 2e2c 62bd 6481 e43d ca60 8dbe a8f1 083e
00000140: 02a0 993d d3e0 163b 28c7 1abd 0903 a23c
00000150: cf4c d53d 4d54 d0bd b4de 19be f839 ee3d
00000160: 5e0d cdbd 3409 e8bc 6db6 45be 68cf 5bbd
00000170: 16eb 2bbd 941f 31bd e834 893d bf8e c6be
00000180: 1125 0e3d bbf2 313d 4528 0f3d c5f0 e8bc
00000190: 8aab 113d 3b18 38bc 923f bcbd fb44 3ebb
000001a0: 1992 e8be b75c d93d 03f7 15bd aaa5 d83d
000001b0: f3b6 a63c 60a0 833d 4d8c f13d 32bf 88be
000001c0: db6d d03d e92b 613d 38fd 0dbd 67d3 9ebd
000001d0: d39d 40bd b9bf 05bd 9a20 b9bc fc89 63bc
000001e0: 9883 91bc fe7a 0bbe 8534 5fbd 7dd8 9f3d
000001f0: c2fc 02be cf8e 1e3d 4b3c 11be 0bce f0bd
00000200: 6479 f8bd eaf0 e2bd eaf9 81bd 7ab5 583c
00000210: 17cb b8bd 7391 cb3d 0c75 163e 72c1 ad3c
00000220: 67d0 b5be 89c3 3a3d cb92 ed3d ae49 0abd
00000230: 236d f83d 7521 07be 37b8 12be 4b07 78bd
00000240: 92b1 06bd 0508 1b3e 39d1 0cbe d141 c63c
00000250: 8b9f 7d3c a389 6bbd 9991 ad3d f733 1ebc
00000260: 8e4b 463d 79c2 dd3d ea73 f2bd c02a 8f3b
00000270: 6eef 283d ec3c 3bbc 922a 54bd 55cc 46be
00000280: 9dc5 2dbe dfd0 a6bd eb13 fd3c 313a 76be
00000290: 4417 febc ac05 05be 11e7 74bd e385 113c
000002a0: a5e7 cdbd 9e14 85bb edb9 8c3d 10f4 783a
000002b0: 83d2 7dbd 1d7a 79bd 20ca 103d ca2c e4bb
000002c0: 8a4a 9ebd b5fd 0d3e de34 333c a4c5 b93d
000002d0: 2dee bdbd 3a17 8dbd 5136 513d ddef 14be
000002e0: ddf0 2e3e 382a 36be 640f 533d 024f 77bd
000002f0: 1aa8 98bc 4a07 133e 3e35 d53d c6f3 9cbd
00000300: 27c7 36bd 58ec f13c 20fc 97bd f070 853c
00000310: 1989 d5bd 0593 8c3d a279 b53d 96d7 8abc
00000320: b1e0 02be 43ce 8b3d a3d4 5bbd 236b c2bd
00000330: 416e 023d 34a7 11be 6312 5cbc 1806 fdbc
00000340: 9ea2 1abe 487c aebd 548a 083e a9b0 cb3c
00000350: a48f d6bd 9235 eb3c e2b6 bc3d 6764 48bd
00000360: 2f5c 28be c7f6 c23d 6908 d2bd 1c11 823d
00000370: 2ca5 5b3c 8131 9fbc 32ac f0bd 5833 ebbc
00000380: 1fd8 7cbc 58ae 2abd a914 1a3e d883 20be
00000390: 0471 c1bd bf26 b1be 647d 3b3b 26bd c0bd
000003a0: 0b54 00bd 2448 96be c196 cbbd 9143 bebd
000003b0: 38b3 c3bd 10c9 2fbc e6fc 10be ffab 063e
000003c0: bfa7 253b 8e6c 7e3c 5469 cfbe ff3a 093e
000003d0: d74d 86bc 0b67 8cbd 390e aebd a22e f1bd
000003e0: 4efd 42bd d1ef 5f3d 07fb 823d 8a84 0fbe
000003f0: b750 273d 0481 c83d b858 d23d 5828 c83d
-0.106414884 -0.014737952 -0.035504404 0.058007125 -0.08201027 0.119163856 -0.04765598 0.058836
-0.026253324 -0.12849234 -0.16593811 0.12264065 -0.017431276 -0.0025588423 -0.12262827 -0.18205877
0.055766348 -0.12342565 -0.029619694 -0.16953304 -0.03736614 0.05581199 0.10937275 0.053913247
-0.116450794 -0.09455878 -0.06358444 0.061100654 -0.05958785 0.16663007 -0.22150347 0.1170004
-0.15162386 0.011885737 -0.31574634 0.0334091 -0.09706907 0.028271388 0.044459514 0.10022191
0.0026114122 0.003955627 -0.035921067 -0.15977742 -0.10661836 0.018238528 -0.04090362 -0.051162146
-0.0043989886 0.004351302 0.0722985 -0.1823882 -0.012328587 -0.14452253 0.1292783 0.08096675
-0.08595211 0.0023287528 -0.11038995 -0.09377809 -0.011443716 -0.024330545 -0.07841986 0.0065413583
-0.051726308 -0.09619661 0.11932238 -0.048901137 -0.054710705 -0.03690964 0.10766656 0.03278963
-0.073127836 -0.04582788 -0.059334297 -0.11197369 -0.055217914 0.11157492 -0.27612907 0.13373435
0.07501222 0.002302219 -0.037787586 0.019776838 0.10415041 -0.10172329 -0.15026361 0.116321504
-0.10012315 -0.0283247 -0.19307871 -0.053664595 -0.041972242 -0.043243006 0.06699544 -0.38780782
0.034703318 0.043444376 0.034950513 -0.02843512 0.035563983 -0.011236246 -0.091918126 -0.0029032815
-0.45423964 0.10613387 -0.03661252 0.10578473 0.020350909 0.064270735 0.117943384 -0.2670837
0.10177203 0.054973517 -0.034665316 -0.077551655 -0.047025513 -0.032653544 -0.022598553 -0.0138878785
-0.017762944 -0.13621137 -0.054493446 0.07804964 -0.12791732 0.03871041 -0.14183156 -0.117580496
-0.121325284 -0.11081107 -0.063464954 0.013226861 -0.09023111 0.099398516 0.14693087 0.021210406
-0.3551056 0.045596633 0.11600264 -0.033761673 0.12130191 -0.13196357 -0.14328085 -0.06055383
-0.032884188 0.15139778 -0.13751687 0.024201306 0.015479933 -0.057504307 0.08475036 -0.009655944
0.0484119 0.10828108 -0.11838515 0.00436911 0.041243963 -0.011428099 -0.05179841 -0.19413884
-0.16969915 -0.08145308 0.030893287 -0.24045636 -0.031016953 -0.12990445 -0.059790675 0.008882019
-0.10053948 -0.0040612957 0.068714 0.00094968174 -0.061968338 -0.060907472 0.03534901 -0.006963347
-0.07729061 0.13866313 0.0109378975 0.090709 -0.09273944 -0.06889196 0.05107719 -0.14544626
0.1708407 -0.17789543 0.05152835 -0.060378082 -0.018634845 0.1435825 0.10410546 -0.076636836
-0.04462352 0.029531643 -0.07421136 0.016289204 -0.1042654 0.06863979 0.0886109 -0.016948503
-0.12781025 0.06826451 -0.053669583 -0.09493091 0.031843428 -0.14223939 -0.013432118 -0.030886695
-0.15101096 -0.085197985 0.13334018 0.024864512 -0.10476616 0.028712068 0.0921457 -0.048923876
-0.16441415 0.09519725 -0.1025551 0.063509196 0.013406079 -0.019432785 -0.11751594 -0.028711006
-0.015432387 -0.041670173 0.15046944 -0.15675294 -0.09445384 -0.34599873 0.0028608674 -0.09411077
-0.03133015 -0.29351914 -0.099408634 -0.09290231 -0.09555668 -0.010729089 -0.14158973 0.13151549
0.0025276986 0.015528811 -0.40510046 0.13401411 -0.016394539 -0.068555914 -0.084988065 -0.11776473
-0.04760485 0.054672066 0.06395536 -0.14015403 0.04084846 0.09790233 0.10270828 0.0977332
