src/training_logs_ppo/initial/ppo_checkpoint_243_1764188007.pt (torch, 480155 bytes, 42 tensors)

move_logstd f4 [2]
00000000: 983c 0240 4056 e33f
2.0349483 1.7760696

shared.0.weight f4 [128, 17]
00000000: f2fc 0e3e 8139 21be 8f72 b4be d76c 2b3e
00000010: 61c8 233e 9b61 39be fd86 27be 8de1 c43d
00000020: f726 633e 030d 6abe 2b85 153e 79b0 56be
00000030: 75f8 4bbd d9a3 a4bd 1665 a3bb a8b0 c13d
00000040: 8063 a8bd 5a03 8dbd 03f4 91bd 7ea9 47bc
00000050: d973 d13d 0509 97be c7d3 6b3e 8c81 46be
00000060: 7fa9 cabb f585 91bd 88c3 a5be fbb3 05be
00000070: a0d6 6fbd 8b3e 723e 3a65 c13c 40f4 903d
00000080: 3c9e abbd 3db1 02be 9450 483e 77ee 843e
00000090: 5cd7 f03d ed1a a63d 5c2f abbe aa3f febd
000000a0: 0627 3fbc 028b 3bbe c019 07bc d332 f3bc
000000b0: 70bf 47bd 2d59 97bc 7a63 283e 02c8 14be
000000c0: 10c5 703e 20c4 e23c c136 513d f6af 4b3d
000000d0: bfcb 85bd 2b6d c9be 52eb 3a3c 3663 a23d
000000e0: f1c0 383e bbe1 003e d8c9 613d 23dc 083e
000000f0: 9044 e5bd 2d66 1c3d d922 dabb 7792 3bbd
00000100: 50b6 f0bd 8271 55bc 6d5d 31be c5bf 373e
00000110: 0055 d93d dfc5 153e 55b2 a7be 57d7 173e
00000120: 22ac 4bbd f348 ea3d 1634 afbc 3c47 073e
00000130: 90b0 56be 3a16 343e 810f 9b3d e800 c83d
00000140: 2751 f23d f2b9 b3bc cbfa 893b e8b8 18bd
00000150: 7f21 eb3d cb41 11be cbee bc3c 2cf2 0bbe
00000160: 4067 85be b52c 88be a302 de3c 7f93 643e
00000170: ff8e 39be e882 623e 464f 95bc 6ed3 0b3e
00000180: b012 223e 9c0a 013e ee0c 05bd 699d f8bd
00000190: a5ca b5bc 9667 d93a 5be5 273d 7f05 f5bc
000001a0: b99c 03be d8b7 9e3d c92d 7dbc 0912 d93c
000001b0: f4d2 9cbe c41c d7bd a16a 8e3e 92cc e6bc
000001c0: 56c2 8fbe 7735 13be 113d 9c3d 8bbd 19bd
000001d0: be2b be3d 961d ffbd 8123 cc3b b2b6 06be
000001e0: 4ce6 453c 1392 953d 82de cd3c 41c1 133c
000001f0: 32e0 43be d79c 14be 67f2 413e 4c81 17be
00000200: f327 13be ebae 21bc 156f 3ebd cd15 fdbd
00000210: b924 20be e6c2 093e d873 3fbb 93c4 193b
00000220: bddd abbd 7d5a c03d 2485 42bc ebd4 b2bd
00000230: 742c 85bd 4d09 37be 3cb5 033d 41ba 0f3e
00000240: 67eb 103e 566d 71be 0510 8b3d 8726 ecbd
00000250: fd84 843d 3899 b2bd 4bbb 47be f1d3 563d
00000260: cde5 08be ecf5 fd3d 4a21 bcbc 0a2b 2a3e
00000270: c54e 6dbe 8416 afbe 3e5e 80bd d954 1abd
00000280: 3a96 fa3d b258 303e 134d 583e 4036 c5bd
00000290: 993f a53d e16b 5fbe 9539 e2bd 2762 e53d
000002a0: 8847 4a3d b66e ae3d 49fa ccbd d96f 1f3e
000002b0: b75c 4cbd 9b5b 44bd e49c 58be cef0 673e
000002c0: fbf4 3fbd bc18 8cbe 0e0b 04be b110 06be
000002d0: 0c44 823e 4fbc c2bd c2a0 55be 3794 8c3d
000002e0: 0a99 353d d961 833d 1651 01be 9419 a4bd
000002f0: 134c 13be f8fb ca3c ede0 82be 2d88 be3c
00000300: c8cb 2c3e 7a15 5b3e dfb1 3f3e f2ff 2abd
00000310: d1ad 0fbe edd3 70be 4b05 ce3d 4ae3 dbbd
00000320: e13c 08bd 0a41 aebd 7f02 e5bd 0c73 3dbd
00000330: f1bc 953c 9056 06be 2d4d 5bbe 37c2 26bd
00000340: 7953 4dbd 8158 53be d5b2 1b3e b21c 44bd
00000350: b72c 05be 9fe9 373d 571e b0bd 9825 86bd
00000360: aadd dfbd 66f6 7bbc 5ced d5bc 32c5 2fbc
00000370: 0fac 82bd 76b5 183e 9f65 6d3d 8f60 03be
00000380: 3611 753d 9d92 8ebd b578 793e e3a8 08be
00000390: 63f0 c2bd 20c5 5d3e 7b7c 6fbd 2f73 c1bd
000003a0: d3ad 833d ea2b 293d a77d b03d 4eeb 6fbd
000003b0: 2b7d ce3d 68b3 cbbd 9c03 1ebc 701e f73b
000003c0: 5fa7 17be baf5 5bbe de42 52be 3863 59be
000003d0: 41f9 c13d 952a 3abe 6d01 7b3e 212c 5b3d
000003e0: 3df5 153d acb5 3d3c a8bf f3bc c62f 503b
000003f0: c8a9 4b3e 6255 84be 75fe 16bd d4a6 1abc
0.13963678 -0.15744592 -0.3524365 0.16740738 0.15994407 -0.1810364 -0.16360088 0.09613333
0.22182833 -0.22856526 0.14601581 -0.20965756 -0.049797494 -0.08039064 -0.0049864156 0.09457523
-0.08222103 -0.06885405 -0.0712662 -0.012186406 0.10227174 -0.2949907 0.23030005 -0.19385356
-0.0061847563 -0.071056284 -0.3237574 -0.13056938 -0.05855429 0.23656671 0.023607839 0.07077837
-0.0837979 -0.12762924 0.19561988 0.25963184 0.117598265 0.081106044 -0.3343457 -0.12414487
-0.011667019 -0.18314746 -0.008245885 -0.02968732 -0.048766553 -0.01847514 0.16444197 -0.14529422
0.23512673 0.02768141 0.051077608 0.049728356 -0.06533002 -0.393411 0.011408644 0.07929079
0.18042351 0.1258611 0.055124134 0.13365225 -0.11194718 0.03818338 -0.006656986 -0.045793977
-0.11753523 -0.013027551 -0.17320795 0.17944248 0.106119156 0.14626263 -0.32753244 0.1482824
-0.049724706 0.11439695 -0.021387141 0.13210768 -0.20965791 0.17586604 0.075713165 0.09765798
0.11831885 -0.021939252 0.004210805 -0.037285715 0.11480998 -0.14185254 0.023063084 -0.136666
-0.26055336 -0.2659661 0.027100867 0.2232189 -0.18120955 0.2212025 -0.018226277 0.13654873
0.15827441 0.12601703 -0.032483034 -0.121393986 -0.022191355 0.0016586657 0.040990215 -0.029909847
-0.12852754 0.07749909 -0.015452811 0.026497858 -0.30629694 -0.105035335 0.27815726 -0.028173719
-0.28077954 -0.14375864 0.07628835 -0.037534278 0.09285687 -0.12456815 0.0062298183 -0.1315563
0.012078833 0.07303252 0.025130514 0.009018243 -0.19128492 -0.14512955 0.18940125 -0.14795417
-0.14370708 -0.009868364 -0.046492655 -0.12357674 -0.15639009 0.13453254 -0.0029213335 0.0023463115
-0.083919026 0.09392259 -0.0118725635 -0.08732017 -0.065026194 -0.17874642 0.03215526 0.14035894
0.14152299 -0.23576865 0.06790165 -0.11530786 0.06470678 -0.087206304 -0.1950504 0.052448217
-0.13368912 0.124004215 -0.022965092 0.1661798 -0.2317458 -0.34196866 -0.06267975 -0.037678573
0.12235685 0.17221335 0.21123151 -0.09629488 0.08068771 -0.21818496 -0.11046139 0.11200362
0.049384624 0.0851721 -0.100086756 0.1557001 -0.049893107 -0.047938924 -0.21153599 0.22650453
-0.04686449 -0.2736262 -0.12894842 -0.13092305 0.2544254 -0.09508573 -0.20862105 0.06864207
0.044335403 0.06415147 -0.12628588 -0.08012691 -0.14384489 0.024778351 -0.2556223 0.023258293
0.16874611 0.21394911 0.18720196 -0.041747995 -0.1403115 -0.23518343 0.10059603 -0.10736711
-0.033261184 -0.08508499 -0.11182117 -0.046252295 0.01827857 -0.13118958 -0.21416159 -0.04071256
-0.050128434 -0.2063923 0.15204938 -0.04787893 -0.13005339 0.044900533 -0.08599537 -0.06550139
-0.10930951 -0.01537857 -0.026114158 -0.010728167 -0.06380474 0.14912972 0.05795824 -0.12829803
0.059830867 -0.06961558 0.24362452 -0.13345675 -0.095185064 0.21657228 -0.058468323 -0.09445798
0.06429639 0.041301645 0.08617716 -0.058574013 0.10082468 -0.099463284 -0.009644415 0.00754147
-0.14809941 -0.21480456 -0.2053332 -0.21229255 0.094713695 -0.18180306 0.24512263 0.05350888
0.03661083 0.0115789585 -0.029754475 0.0031766756 0.19888985 -0.25846392 -0.036863763 -0.009439189

shared.0.bias f4 [128]
00000000: f447 c9bd 10d3 b5be 0793 dbbd 5add 67be
00000010: 9564 17be 36cd ddbc 5572 19bd 0bbf d83d
00000020: 6674 a3be cd9f f9bd bfeb f83d 7e11 90be
00000030: f502 32bd f7bd c3bd 35f9 50bd 00a4 13be
00000040: eeb9 2dbe e3b9 883e 1fb2 b13d 9c5b 94be
00000050: d522 c0bd 95f4 14bc 1ade 3dba 0302 723d
00000060: 5661 9fbd 3e2f 28be 91d9 fabc 1dbf acbd
00000070: 5c62 893d 95ba 83be 1559 96bd 5291 84be
00000080: c7f9 c5bd 0a96 8cbd 31ed 7dbe fc0f 2e3d
00000090: c846 70be f180 83be 2be9 fcbc 42c0 12be
000000a0: 51e1 b5be 3214 72be f353 733b e89e 05be
000000b0: 2f00 ff3d 3277 acbe 596d 413e 4f56 89be
000000c0: eac2 133e 2715 11be 809a 83be 9ca6 1bbe
000000d0: 207d 58be 0623 d7bd 30e0 74bd 761d 23bc
000000e0: 0ed0 2b3d 612b 55be ae70 00be 5880 83bd
000000f0: cff3 98bd 9524 a3bd 7b93 03be a4da 0fbe
00000100: 614b 94be 33b4 31be d77f 89be a6ab c5be
00000110: a980 1abe 9f83 83bb bb98 dabe f999 63be
00000120: ed65 903d 051a 5a3e b448 ba3c abff 0abe
00000130: d2da 383e db49 a1be 92d9 27be 34f3 28be
00000140: 39c6 45be 0153 8cbe 9810 eebe 32ed 39be
00000150: 10a7 4dbe f7af 11be 648e 64bd 81e9 dabd
00000160: fc0a a4bd ef7d 67be eb1c 353d adb9 0cbe
00000170: bc14 e5bd 9e8e 3e3e 41e7 95be 2254 e73d
00000180: f137 65be e127 99be d1b5 713e 0627 38be
00000190: 5a2e 6f3e 8f18 29be 89ec cd3d 3b3d 7abd
000001a0: 5fbe 7c3d 51af b5bd 94df 08be e927 f3bd
000001b0: 337a ecbc 7393 43be b1f8 a1bc b06f 9abe
000001c0: d2ba 4fbe 7b44 9cbe 298f 1abd 53fa 6dbe
000001d0: d56d 58be 991d febd 0122 8abe d886 94bd
000001e0: 66b7 3fbd ef47 a9be 5dc4 15be 6fd5 6abe
000001f0: 98dc 4ebe 230f bb3d 1dbf b4be e84b 11ba
-0.09828177 -0.3551259 -0.107214026 -0.22643033 -0.14784463 -0.027075391 -0.03746255 0.105833136
-0.31924742 -0.12188683 0.1215434 -0.28138345 -0.04345985 -0.09557717 -0.051018912 -0.1441803
-0.16965458 0.2670432 0.08676552 -0.28976142 -0.09381644 -0.009091516 -0.00072428735 0.05908395
-0.07782237 -0.16424271 -0.030621322 -0.084348895 0.06708214 -0.25728288 -0.0734121 -0.2589212
-0.09666782 -0.06864555 -0.24797513 0.042495713 -0.23464501 -0.25684312 -0.030872902 -0.14331153
-0.35523465 -0.23640516 0.0037128895 -0.13048899 0.12451207 -0.3368469 0.18889369 -0.2682366
0.14429823 -0.14168225 -0.25703812 -0.15200275 -0.21141481 -0.10504727 -0.059784114 -0.0099557545
0.041946463 -0.20817329 -0.12542984 -0.06420964 -0.07468378 -0.07965962 -0.12849228 -0.14048249
-0.2896376 -0.17353897 -0.26855347 -0.3860752 -0.15088142 -0.004013493 -0.4269465 -0.22226705
0.07050691 0.21298988 0.022739746 -0.13574092 0.18052223 -0.3150166 -0.1639159 -0.16499025
-0.19313897 -0.27407077 -0.46497035 -0.18156889 -0.2008326 -0.14227282 -0.055799857 -0.106890686
-0.080099076 -0.22606634 0.04421703 -0.13742705 -0.111855954 0.18609092 -0.29277995 0.11295344
-0.22384621 -0.29913238 0.23604514 -0.17983636 0.23357525 -0.16513275 0.10054881 -0.06109355
0.06170499 -0.088713296 -0.13366538 -0.11872847 -0.028866863 -0.19099216 -0.019771906 -0.30163336
-0.2028611 -0.30520996 -0.037734184 -0.23240022 -0.21135648 -0.12407989 -0.26979068 -0.07252282
-0.04680576 -0.33062693 -0.14625688 -0.22932981 -0.20201337 0.091337465 -0.35302058 -0.0005542622

shared.2.weight f4 [128, 128]
00000000: 4380 833c ad6d 1b3d 9a0b 413d f15b cdbc
00000010: 7d90 6f3d 1fd4 573d a684 34bd 4a37 0d3d
00000020: 8943 ebbc cfb2 823d 34d8 8bbc 6078 9cbd
00000030: a252 a8bd ca9b cd3c f61c 153d d602 b13d
00000040: 86aa 2a3d d431 d8bc 7e3b 093c bed2 313b
00000050: 4e72 413c 4d26 e5bd de94 82bd 2dd5 7c3c
00000060: 49be a93d 1861 a8bd 1fb9 9fbc a227 d4bb
00000070: 98d2 fdbd 62ef 7abd e48c f9bc 84dc 8f3c
00000080: 32c3 0bbd 0a29 a9bb 2183 813d b1bb 01bd
00000090: aacf 813d 811c dabd 65ec 413d 951a 90bd
000000a0: 2ff1 a73c 8129 03be f4cc a3bd 4ce1 f83c
000000b0: 8038 45bc 6ece a0bd 0b66 8bbd fbd9 093d
000000c0: 421c d1bc 83e4 a9bd 89b5 863c 7be1 8dbd
000000d0: 582c 0a3d 919a de3b cf07 bbbc 1d72 253d
000000e0: f316 383d e436 68bd f1a8 47bc 72bf 2b3d
000000f0: 1f13 04bd d398 2bbd c163 fdbc 83cf 96bd
00000100: de35 813d facf 4e3d dd69 e43b 6c54 8ebc
00000110: 90dd ebbd 26da 6ebb 6605 4abd 831a e03c
00000120: 0799 07bd 921e 83bd 4aba 70bd b8b7 7fbd
00000130: 04ae 3bbd ebc1 cabd db80 87bd 403e 163d
00000140: f9a4 09bd 9b89 1ebd 41b1 01be c96a b6bd
00000150: 8989 48bd d4df ffbc 7310 85bc a606 25be
00000160: 7153 b1bd 1a3d 42bd ce4e c7bb 1369 51bd
00000170: b9b9 e83c cd0a d23c f022 5c3d ed48 2ebd
00000180: 7baa dbbd defb 45bc a298 84bd 69aa 223d
00000190: 0005 bfbd 2641 ba3c 3d8d 2dbe 8e6f e8bd
000001a0: 4dee 98bd 4c89 47bc 61e1 b8bd 9692 3e3b
000001b0: daf5 8d3d 0877 93bd d960 203d 4700 34bd
000001c0: 4c41 c5bd b450 083d caa2 24bc 9f7a 79bc
000001d0: 070d 293c e715 d4bd c698 b8bd 9555 7fbc
000001e0: 2d65 46bd 9a77 74bd d50f 4bbd e664 5f3c
000001f0: b82b f83c 93fe 933c 9eba 8fbd 0274 d2bc
00000200: ff3a 36bd 1673 01bd 35d9 f2bd 041f febd
00000210: a11d d53c af3d 003d 5904 b9bd 35ea a33d
00000220: e6f1 923d f771 cc3c c1f3 60bd 5473 08bd
00000230: c366 dbbd df2b 4a3d d407 953c 510e 7b3d
00000240: 460e a53c 0e9d 83bd db11 4cbd afcd 443d
00000250: 46e0 c7bd eabc f2bc ac4a 90bd 0700 f63c
00000260: e77c 4c3c 0f0f a83c 4bf4 6c3c 8a0e 9cbd
00000270: ed2b 2abd f4fe 63bd 6ea5 cfbc 7a50 a9bd
00000280: 9832 a83b 6649 b1bd 5b22 afbc db1c 443d
00000290: 577f d6bd d3e1 193c 5f88 e8bc 18fd dfbd
000002a0: 70e2 ccbd b6d1 5e3b 327a 1b3d 0abf aa3a
000002b0: 6055 043d be5e 98bd 47e6 7f3d 06e4 4f3d
000002c0: 265b 5bbc b1df 20bd 5a8e c1bd 4bce a3bd
000002d0: 1ecd 5b3d d805 183d b2f7 513d 33d1 893d
000002e0: 4518 debd 63f2 c0bc 45b8 83bd 0bc5 213d
000002f0: 630d f6bc e702 ecbd 033a 7dbd c993 12bc
00000300: 14ad 38bd 71ee a4bd 57b2 1c3d bc7b 8bbd
00000310: 888c 813d b89a 1a3d 4035 1d3c cc24 023d
00000320: 052d 95bd d7b4 113d d41e e1bd 3d60 05bc
00000330: a2da d3bd 0019 81bd d7c0 04bd 2e76 0ebe
00000340: 8bd3 303d 2205 943b 67e8 2a3a 6309 db3c
00000350: b056 adbd c281 c0bc 492c f23c bca5 0abd
00000360: ba26 af3d d113 c6bd 3ba4 69bc a638 053c
00000370: 05ba aabd a967 c3bd 0c7c 97bd 9bb9 063d
00000380: 5ddb e03b b425 c43c ffc4 02be 5c25 21be
00000390: 8f63 05be c658 16ba 46a0 1f3d 3306 aabd
000003a0: 4cab 36bd 3cb4 bdbd 3284 863d 132a 49bd
000003b0: 1fab 4abc 179e 08bb 149b 043d efa0 4fbd
000003c0: 5807 c53d 4ece db39 3d7a 71bc 7c10 f83c
000003d0: be09 76bd ad6a 9cbd 59ba 823d 4df5 40bd
000003e0: 6483 c6bd 58c9 7bbd b073 d4bd 3b43 58bd
000003f0: 71f8 c6bc f72f ccbd e74d e8bd 18fb cbbc
0.01605237 0.03794639 0.047130205 -0.025068255 0.058487404 0.05269253 -0.044071816 0.034476556
-0.028718727 0.06381761 -0.017070867 -0.07640147 -0.08218886 0.0250987 0.036404572 0.08643119
0.04166653 -0.026390947 0.008376 0.0027133669 0.0118070375 -0.11188946 -0.063760504 0.015431684
0.08288247 -0.08221644 -0.019497452 -0.006474451 -0.12393683 -0.06126345 -0.03046269 0.017561205
-0.0341217 -0.005162363 0.06323839 -0.031673137 0.06338437 -0.10649968 0.047344584 -0.0703632
0.020500747 -0.12808801 -0.07998076 0.030380867 -0.012037396 -0.07851873 -0.068065725 0.033655148
-0.02552617 -0.08295538 0.016443985 -0.069277726 0.033733696 0.006793328 -0.022830872 0.04039203
0.04494376 -0.056692973 -0.012186275 0.041930623 -0.032244798 -0.04189379 -0.030931355 -0.073637985
0.063091025 0.05049131 0.0069706277 -0.01737424 -0.11516869 -0.0036445945 -0.049321555 0.027356392
-0.033104923 -0.06402315 -0.05877141 -0.062431067 -0.04582025 -0.09900268 -0.06616374 0.03668046
-0.033604596 -0.03870545 -0.12665273 -0.089070864 -0.04895929 -0.03123466 -0.016243195 -0.16115817
-0.08658493 -0.047421552 -0.0060823923 -0.051125597 0.028408872 0.025639916 0.053744256 -0.042550016
-0.10725876 -0.012083976 -0.06474425 0.039713297 -0.093271255 0.022736143 -0.1694841 -0.11349402
-0.07467327 -0.01217873 -0.090273626 0.0029079071 0.06931658 -0.07200438 0.03915486 -0.043945577
-0.09631595 0.03328009 -0.010048578 -0.015226989 0.010318047 -0.1035574 -0.09013514 -0.015584369
-0.048436332 -0.059684373 -0.049575645 0.013634896 0.030294284 0.018065726 -0.07018016 -0.025690082
-0.044489857 -0.031603895 -0.11857835 -0.124082595 0.026015105 0.031308826 -0.090340324 0.08003656
0.07175045 0.024956686 -0.05491996 -0.03331311 -0.107129596 0.049358245 0.01819221 0.06129295
0.020148408 -0.0642644 -0.049821716 0.048047718 -0.09759574 -0.029631097 -0.070454925 0.03002931
0.012480951 0.020514993 0.014462541 -0.076199606 -0.041545797 -0.055663064 -0.025347438 -0.08267303
0.0051329844 -0.08656578 -0.021378687 0.04787908 -0.10473507 0.00939222 -0.02838534 -0.10936946
-0.10004127 0.003399951 0.03795833 0.0013026905 0.032307982 -0.07439946 0.06247547 0.05075457
-0.013388431 -0.03927583 -0.094509795 -0.07998332 0.053662412 0.037114948 0.05126161 0.06729355
-0.10844473 -0.023553079 -0.06431631 0.039494555 -0.03003568 -0.11523991 -0.061822902 -0.008946368
-0.045086935 -0.080532916 0.038256016 -0.0681071 0.06325632 0.037745208 0.009595215 0.031773373
-0.072839774 0.035572853 -0.10992208 -0.008140621 -0.10344435 -0.063035965 -0.03241047 -0.1391227
0.043170493 0.0045172134 0.0006519616 0.026737874 -0.084638 -0.023499373 0.029562132 -0.033849463
0.085523084 -0.096717484 -0.014260347 0.008131182 -0.08336262 -0.09541256 -0.07396707 0.03289185
0.0068620876 0.02394376 -0.1277046 -0.15736908 -0.1302626 -0.0005735274 0.038971208 -0.08301964
-0.044596955 -0.092628926 0.06568183 -0.04911239 -0.0123699 -0.0020846182 0.032374457 -0.050690588
0.09620541 0.00041924644 -0.0147386165 0.030281298 -0.060067885 -0.07637534 0.06383199 -0.047108937
-0.096930295 -0.061471313 -0.10373628 -0.05279849 -0.024288388 -0.09970086 -0.11342984 -0.024900004

shared.2.bias f4 [128]
00000000: 59ed 66bd 8871 cbbd 6e1d 02be ac75 bc3c
00000010: 2366 83bc 5434 c63c 20ad 1c3d a448 d63c
00000020: 7afb e9bd 18b0 8c3c 5311 c8bd 0caa cabc
00000030: e030 f83b 98ec 8fbd edab cdb9 c20a 07be
00000040: d221 a0bc 69df afbd c72f 993c 8f0a bfbd
00000050: 0f86 ddbd 0c23 2d3d 4d71 a3bd 9739 7fbb
00000060: 64cb 7abc a479 1b3c 5bea ad3c 8fb6 ab3c
00000070: 61d4 99bd a30c f1bc e75f d0bd 48e4 dcbb
00000080: 6b90 0e3d 725b c5bc 80f3 3cbd 93c0 fe3c
00000090: 3489 c3bd e59a 1cbd 2012 bcbd c900 98bd
000000a0: b0ec adbd 8f39 88bc 3fb4 d13c 93c9 aebd
000000b0: 5d98 ffbd 8681 81bd f22b 0fbb 9af9 ff3c
000000c0: f540 b0bc c226 d0bd a9bc da39 e3b7 4bbd
000000d0: 5e59 0dbe 92de d9bc d27f 65bc b79d 363d
000000e0: aeeb 593b 60fa f8bd a183 f6bb 6dae bbbc
000000f0: a810 81bd 13e7 2dbd 39e1 173c 0e7b 40bd
00000100: 400a c7bd 5876 b2bd 0ffe d3bc b9a5 7bbd
00000110: b636 eebd 4a61 223d 7a1d 7abc 05d0 84bd
00000120: b183 d43b 6d09 ca3c 642c 00be 79dc 1f3d
00000130: 003e c03b f2f5 e6bd 160c fdba 36bd 0a3d
00000140: 0e57 3ebd 641a a53c 6377 023d 5a77 b6bd
00000150: 34b9 c5bc a0a6 6fbd 6ded c83c f8db eabd
00000160: 7952 ce3c 1a7a cbbd 0891 26bc 40b2 d5bd
00000170: 5f58 2fbc 251d 67bd 797a 6bbd cd06 df3c
00000180: 1e92 353d 14da b2bd b99c 84bd acb9 153d
00000190: ee01 f6bd 3b66 5cbc 17a2 2cbd 9cfe 153d
000001a0: 5388 82bd 436b 43bd f616 eebd b6a5 dfbd
000001b0: b611 ccbc 3f53 db3c b5f8 dcbd 1520 043d
000001c0: f46c bdbd 9996 fcbc 8347 87bd d137 0abe
000001d0: b5db a3bd 161e 78bd df7d 69bd 77e9 a0bd
000001e0: d8a9 78bd 2e16 fd3c 7912 a5bc 1b42 85bd
000001f0: 7563 b3bd aead a7bd 8fb4 373d be3b 9abd
-0.056378696 -0.09933764 -0.12706539 0.02300533 -0.016039914 0.024194874 0.038251042 0.026157685
-0.114249185 0.017173812 -0.09768929 -0.024739288 0.0075741857 -0.070275486 -0.00039228742 -0.13187698
-0.019547377 -0.08587534 0.01869954 -0.09328186 -0.10816585 0.04226975 -0.07980595 -0.0038944238
-0.015307281 0.009489451 0.021229913 0.020961074 -0.07511211 -0.029424971 -0.10174542 -0.0067410804
0.034805696 -0.024091456 -0.046130657 0.031097686 -0.09547654 -0.038233656 -0.091831446 -0.07422025
-0.0849241 -0.016629009 0.025598643 -0.08534541 -0.12480233 -0.06323533 -0.0021846262 0.031246949
-0.021515349 -0.101636425 0.00041720763 -0.049735915 -0.13803622 -0.026595388 -0.0140075255 0.044584002
0.0033252048 -0.1215713 -0.0075230156 -0.022910321 -0.06302005 -0.042456698 0.009270006 -0.046992354
-0.09718752 -0.087139785 -0.02587798 -0.061437342 -0.11631529 0.039643563 -0.015265817 -0.06484989
0.0064854254 0.024662698 -0.12516934 0.03902862 0.005866766 -0.11277379 -0.001930597 0.03387185
-0.04646974 0.020154186 0.031852137 -0.08909483 -0.024136163 -0.058508515 0.024527276 -0.11467737
0.02518581 -0.099353984 -0.010166414 -0.10434389 -0.010702222 -0.05642428 -0.057489846 0.027224923
0.0443288 -0.08733001 -0.06475205 0.036554024 -0.12012087 -0.013452108 -0.04214677 0.036619768
-0.06373658 -0.047709715 -0.11625473 -0.10920279 -0.024910789 0.026773093 -0.107896246 0.03225716
-0.09249297 -0.03083353 -0.06605437 -0.13497855 -0.0800089 -0.060575567 -0.057004806 -0.0785703
-0.06070885 0.030894365 -0.02015041 -0.06506749 -0.08759204 -0.08187424 0.04484993 -0.07530926

move_mean.weight f4 [2, 128]
00000000: ca34 edba 282d 3abd 1660 8abc 4b61 b93c
00000010: 571b ca3b 8684 103c 1ada d03b 2bf6 013d
00000020: aa09 c33c 43e0 d438 ed83 1cbb 7eea bcbb
00000030: 1242 1ebc 1481 473d 8f91 763c 6ef2 b1bc
00000040: f3ca 113d 08a3 333c 5f9f c1bc 8603 f2bc
00000050: 12bc 433d 3a4b 753d 9c66 e4bc e1ac 8eba
00000060: 6546 44bc 4296 1e3d 67d0 323d dbad b5ba
00000070: 15dc 5c3c f5d5 323b 76c4 3f3c 962b 19bb
00000080: c912 c63c 6ff1 8f3b 538d 3ebc 23ef 873b
00000090: 41e2 ffbb 04c1 5d3d bc24 81bd 8ed4 8b3c
000000a0: c525 543b 8728 2a3c 05a5 6a3d aab2 7f3c
000000b0: 220a 923b bf2a 0cbb c07d 9bbc b074 16bd
000000c0: 3ea6 ce3c 75cf 14bb 5ace afba 9118 303b
000000d0: f1e1 b6bb dae1 b03a f367 7c3c b0eb 19bd
000000e0: a3be 16bd 2898 e1bc 51c3 e73c cd76 9ab8
000000f0: 6020 90bb d5ee f93b 08c3 78bb b8ec 51bb
00000100: 9894 783b d303 ef3b e63e 113b 3985 15bc
00000110: b7f3 1dbc 9a9d 2a3d 23f6 3f3d 0716 393d
00000120: 4639 a9bc 9db3 943c 22fa bb3b b02f 90bc
00000130: 6252 93bc c801 d9bc 5578 433d 944a 45bc
00000140: 8433 c6bc 375b 623d e954 b23b 3aeb 413c
00000150: 8330 b23a c15b 04ba 64df eb3c b9b4 753b
00000160: b242 053d 5e20 3c3c a85d 4a3b d9dc 2dbd
00000170: dff2 553c 5930 61bd b4dd 5a3c ecc3 903d
00000180: 0061 583d 977b cebc ca45 9c3d 097c a03c
00000190: 3004 cc3b fc23 193d 01d8 efbb d5f5 213c
000001a0: c2f3 b8bb d283 05bc 4a49 2d3d b95e eb3c
000001b0: bfdd fcbb 2fa2 efba 2b2a 993b 01d9 0bbc
000001c0: ffb3 3e3c 648c 083c f518 e53a d450 2fbc
000001d0: cc79 d13c 9edb e23b 1772 cf3c 4a94 fb3c
000001e0: d813 d0bc 0751 34bd 1b87 713d 068e cbbc
000001f0: 44b4 81ba 6761 72bc 731d 713b 448b 2c3c
00000200: 9360 ce3c 50d3 a63c b569 a63b 0169 38bb
00000210: 730a e13c c734 8d3c a2d7 0c3c 5c54 1abd
00000220: 086b 4f3c 9778 47bc 09d8 f5bc 874b b5ba
00000230: 9541 a93d 026f cebb 29b5 04ba 7622 d53b
00000240: 9906 c8bb ce41 08ba 8f95 24bc ab9d 1c3d
00000250: 770f 823d 6dd6 183b dff8 413d f688 343c
00000260: 33db aebc 9650 11bd 4624 173d 0612 44bb
00000270: 46d9 0cbc 0701 20ba 0172 0ebc de1d 88bc
00000280: ed2e a4bc cb1a 1fbb 4443 073c d8a4 4dbc
00000290: 0b16 72bc cf47 33bd 8814 3e3d 00ed b6bb
000002a0: 06d5 043d 7246 1e3b e1b5 17bc cc5c ba3c
000002b0: d507 70bc e23d f83c 71a3 8dba 6ab0 d7bc
000002c0: 172f 9d3b 7c4c f7bb b9ef c0ba 0666 48bc
000002d0: 9696 ac3c 7d07 2d3d 3e56 563c 5e4d 713d
000002e0: ee17 78bd 6b6e 633b 7f9d 073d 812d 7fbc
000002f0: 6f42 b63c 6efd 0ebc e499 98bc 6382 cf3c
00000300: f75c ad3c 0112 27bc 2405 aebc 3152 b6bb
00000310: 3071 58bc ae26 4c3c b0ca 86bc d397 75bd
00000320: 2991 0e3b e968 3dbc 0516 18bd 2f38 3a3c
00000330: e77e 14bd 668e 02bd f346 6abd 10c0 c23b
00000340: 5759 24bd 6ab1 62bd 06da ffbb b02d 893c
00000350: deb1 3abc 0d9f 30b9 f569 8abc 4f60 1fbd
00000360: 3776 0abc ee5b 9dbc dbdc 9e3c 6132 6d3a
00000370: c5b1 143a 49d0 c23c b546 3b3d 88b6 713c
00000380: e9b0 873c 304d 3abd 9977 77bc f8e1 9f3c
00000390: 76de 053d 8b3c 743d 4267 62bd 2ec9 b7bb
000003a0: e69e 463d 2f62 033c a4a0 abbc 02b9 803c
000003b0: 8d44 c7ba 7957 133d 4f4f 7dbb ce7c e639
000003c0: 1ea3 77bd 70c9 11bc 1781 233d b106 8bbc
000003d0: 9fc2 16bb ad1c 66bb 63a3 29bd 32a0 873c
000003e0: 444c b8bd f8ed 363c ecd8 abbd a5d8 9f3c
000003f0: 94ff 263a 5313 d23b fc3b 1ebb 2675 063d
-0.0018097397 -0.04545322 -0.01689152 0.0226294 0.00616781 0.008820659 0.006373656 0.031728905
0.02380832 0.0001015072 -0.0023882345 -0.0057652583 -0.009659307 0.048707083 0.015049352 -0.021722045
0.035593938 0.010964163 -0.023635564 -0.029542696 0.04778678 0.059886195 -0.02788096 -0.0010885262
-0.011979674 0.038717516 0.04365578 -0.0013861017 0.013480206 0.0027288173 0.011704555 -0.0023371927
0.02417888 0.004392795 -0.011630374 0.0041483804 -0.007808954 0.054139152 -0.06305835 0.017069127
0.0032371145 0.010385639 0.05728628 0.015606562 0.0044567743 -0.0021387783 -0.01898086 -0.036732376
0.025225755 -0.0022706662 -0.0013412938 0.0026870111 -0.0055811335 0.0013495043 0.015405643 -0.037578285
-0.0368029 -0.027538374 0.028291376 -7.3654206e-05 -0.0043983907 0.007627348 -0.0037958045 -0.0032031965
0.0037930366 0.007294157 0.0022162735 -0.009126001 -0.009640626 0.041654207 0.046865594 0.045187023
-0.020657193 0.018152053 0.0057366053 -0.017600864 -0.01798362 -0.026490107 0.04772218 -0.012041707
-0.024194486 0.05526277 0.005442251 0.011835868 0.001359478 -0.0005049073 0.028793044 0.0037491752
0.03253431 0.011482326 0.0030878577 -0.042446945 0.013058393 -0.05497775 0.013358522 0.07068619
0.05282688 -0.025205417 0.07630499 0.019590395 0.006226085 0.037387833 -0.007319451 0.009885271
-0.0056442926 -0.008149104 0.042306222 0.02873169 -0.007716864 -0.0018282587 0.0046742163 -0.0085356245
0.011639594 0.008334253 0.0017478751 -0.010700423 0.025570773 0.006923153 0.025322957 0.030710358
-0.025400087 -0.044022586 0.058966737 -0.024847995 -0.0009895642 -0.01479373 0.0036791235 0.01053125
0.025192535 0.020364434 0.005078519 -0.002813876 0.027470803 0.01723708 0.008596333 -0.037678108
0.012659796 -0.012174747 -0.03001024 -0.0013831713 0.08264462 -0.0062998543 -0.00050623954 0.006504352
-0.006104302 -0.0005197794 -0.010045423 0.0382363 0.06350606 0.0023321167 0.047356483 0.011018982
-0.021344757 -0.035477243 0.036899827 -0.002991797 -0.008596724 -0.0006103669 -0.008694173 -0.016615804
-0.020041907 -0.0024277444 0.0082557835 -0.012551509 -0.014775763 -0.043769654 0.0464063 -0.005582452
0.032429717 0.0024150875 -0.009259672 0.022749327 -0.014650305 0.030302946 -0.0010806156 -0.026329238
0.0047968733 -0.0075469594 -0.001471988 -0.0122313555 0.021067899 0.04224347 0.013082085 0.058911674
-0.060569696 0.0034703265 0.033109184 -0.015574814 0.022248475 -0.0087274145 -0.018628068 0.025330728
0.021162493 -0.010197164 -0.021242686 -0.005563997 -0.01321058 0.012460394 -0.01645407 -0.059959244
0.0021754003 -0.011560657 -0.037130374 0.011365934 -0.036253836 -0.031874083 -0.05719657 0.005943306
-0.040124264 -0.055344976 -0.007807973 0.016745418 -0.011394946 -0.00016843919 -0.016896227 -0.038910206
-0.008451036 -0.019208875 0.019392421 0.00090483396 0.00056722417 0.023780959 0.04572173 0.0147529915
0.01656385 -0.045483768 -0.015104198 0.01951693 0.03268286 0.05962805 -0.055274256 -0.0056086993
0.04849138 0.008019014 -0.020950623 0.015713219 -0.0015202925 0.035972092 -0.0038652008 0.00043962005
-0.060458295 -0.008898124 0.03991803 -0.016970964 -0.0023004187 -0.0035112307 -0.041415583 0.01655588
-0.089989215 0.011165135 -0.08390984 0.019512484 0.00063704816 0.006410995 -0.002414464 0.032826565

move_mean.bias f4 [2]
00000000: 327e 813d 8274 48be
0.06322898 -0.19575694

food_logits.weight f4 [3, 128]
00000000: d82a 0dbd 074f af3c c138 dc3c ced1 1ebc
00000010: 4f8c 193d bdf1 b8bc a2ac 003c b6e6 a03c
00000020: 767e aebc 0993 d8bc 9af1 063d 28d2 fabc
00000030: 5625 84bd 7c1f 0bbd c76a 233c 6725 043d
00000040: ed57 02bd f274 c9ba c78e 833d 505d 7ebd
00000050: 409c 553d ef8d 2f3c 46d3 58bd f018 cebc
00000060: 3b2f efbb 7ac1 7c3d f73c 2a3d 6744 2fbd
00000070: 4203 ed3b 2832 d7bc 1807 10bd be06 213d
00000080: 824d 693d 6b3f 473d bfc3 633d a52f c6bc
00000090: f4a6 703d 30ed b1bb 87c6 053d 17ff 50bd
000000a0: d73b adbd eb28 9d39 3ded dc3c 32e5 91bc
000000b0: 6787 5ebc d359 103d b84f 0abd 1051 973d
000000c0: cb01 293d 4ccb 35bc 8795 a4bd 8250 023d
000000d0: 2155 373d 43df a33b e1b4 89bd 1cc5 0bbd
000000e0: 37fd 1a3c e109 95bc e6c3 643c 2778 c33c
000000f0: 812a 2b3d c807 36bd 4ada 813d 7206 803c
00000100: ee02 9e3d 1d86 4d3d 036c 813d feef e83c
00000110: 42d7 f83b 1001 323d 4e30 0f3d 3c68 8f3d
00000120: aa93 b6bb d4ec 043d 3ae3 423c 6841 dcbc
00000130: 1b49 553d f71f 383d e275 2c3d 7a8e 293d
00000140: d8ad 173d 4fb3 9f3d f78a 5c3d c728 6b3d
00000150: 4a59 bcbc 3445 55bd 13c2 083d a1b2 973d
00000160: ec49 dabc 603f 083d 2977 35bd ac3f a1bc
00000170: aa54 fb3c 1c25 0c3d c8dd 1cbd efd9 dabc
00000180: 397a 59bb 30e4 dabc 9e3a 0f3c c037 ebbc
00000190: fc71 56bd 9d77 27bd 7ebe 443d a708 dbbc
000001a0: 6547 80bd b5a8 b0bc 6d68 35bd edf3 6a3d
000001b0: 5924 953c e7a3 3e3d 3f3a 73bd f966 3c3c
000001c0: 41cc 403c 99f8 57bd 81e6 2c3d c0f7 a43c
000001d0: bb68 aa3c 4802 a2ba a8fc d7bc 9cd9 f03c
000001e0: 64d0 52bd 2a46 223c 409e 0ebd 504e 46bd
000001f0: 42cb 323c e3c2 f03c e2eb afbc 012a 3f3d
00000200: 7650 1fbd 8a73 883b f3e0 5bbc 6d9a f7bc
00000210: 17ea 8bbc b529 073d a568 833c 70f6 843d
00000220: 084d 0ebd 942a 00bd 9620 953c 5ea0 1eba
00000230: c6cb 9dba cf4d 9c3d ba89 9cbb d355 8f3c
00000240: 552e 413d c155 57bc 114e 9e3c dd14 96bd
00000250: d333 33bc 5a7a 0a3d fc0c f7ba 9bc7 1ebd
00000260: ad3d 4a3b 4862 1f3d 62fc c83b 337c 1dbd
00000270: 9416 f33b 475c e8bc f041 86bc a897 153d
00000280: 3e8f ee3c d4d0 ee3c cd89 fa3c b5fb f0bc
00000290: aa3f a63d b0f3 ae3d 74e7 07bc 5fc7 2fbd
000002a0: 68ad 143c 30d4 aa3c 8e2e 2dbc ad2e 06bb
000002b0: d06d 933c 8974 8f3d 4550 14bd c7c7 883d
000002c0: c1c7 7c3b 815d 863c 7c31 8bbd 175c 05bd
000002d0: 3b32 533d bd4e 843d 3b9b c6bc 13c5 96bd
000002e0: 0e72 2e3d e735 753b b3b8 203d 09b9 7c3d
000002f0: 512d 073d 2c5a 07bc 1bc8 913d 43bb 153d
00000300: d0d2 143d 8523 723d 0a12 04bd 162b 623a
00000310: c3af b23c 2421 c43a b68d 1b3d da8b a4bd
00000320: 8cc6 be3c 00b6 1c3d d34c 983d 78f5 b0bc
00000330: a928 bebc a43f eb3c 3934 a43d beeb 5b3d
00000340: e233 053d b4bc 2ebd 701c 943d 744b 7c3d
00000350: 9857 9abc 329b 82bd b73d e23c 126f 623c
00000360: 90fb 6cbd 5a8c 3bbb 99a7 78bb 0abb 84bd
00000370: 790e a23c a3ce 793d 0008 c33c 6bcc 1f3c
00000380: 25dc 01bd dede 0dbd 101d c5bb 44e5 23bd
00000390: ace9 85bd 79dc 79bc 7dc8 7d3d ad2e fcbc
000003a0: cc83 5f3d 8ab4 b8bc 14bf 403c 4352 bd3c
000003b0: 1740 20bb 1538 a43c 4b37 b7bc 6b76 803c
000003c0: eede 88bc 5179 c6bc 471f 32bd e80a 263d
000003d0: 62ca 193d f880 793c 50a0 01bd c709 6c3d
000003e0: e561 26bd 072a e03c b897 4cbd ce26 42bd
000003f0: 6250 453d b750 c7bc aeff c1bc d872 cebc
-0.034464687 0.021399988 0.026882531 -0.009693576 0.037487324 -0.022576207 0.007853659 0.019641262
-0.021300536 -0.0264373 0.032945253 -0.030617788 -0.06452434 -0.033965573 0.009974188 0.032262232
-0.031822134 -0.0015369935 0.06423717 -0.06210071 0.052150965 0.010714992 -0.05293586 -0.025158376
-0.0072993315 0.06170795 0.041562047 -0.042789843 0.0072330544 -0.026269034 -0.035163015 0.03931307
0.056958683 0.048644464 0.0556066 -0.02419264 0.05875297 -0.0054298863 0.032660034 -0.051024523
-0.08458679 0.0002997586 0.026968593 -0.017809484 -0.013582087 0.035241913 -0.033767432 0.07388508
0.041261476 -0.011095833 -0.080363326 0.03181506 0.04475892 0.00500098 -0.06723953 -0.034123525
0.009459785 -0.018193187 0.013962721 0.023861004 0.04178858 -0.044441015 0.063404635 0.015628073
0.077154025 0.05017673 0.0631943 0.02843475 0.00759402 0.043458045 0.034958176 0.07002303
-0.005571802 0.03245242 0.011894995 -0.026886657 0.052071672 0.04495236 0.04210461 0.041395642
0.037031025 0.07797872 0.053843465 0.057411935 -0.022991795 -0.05206795 0.03338821 0.07407118
-0.026646577 0.033263564 -0.044303093 -0.019683681 0.03068002 0.034215078 -0.038297445 -0.026715247
-0.0033184423 -0.026720136 0.008742003 -0.028713107 -0.052354798 -0.040885556 0.04803323 -0.026737524
-0.062636174 -0.02156482 -0.04428904 0.057361532 0.018205808 0.04654303 -0.05938172 0.01149916
0.011767448 -0.052727316 0.042212013 0.020137668 0.020801893 -0.0012360299 -0.026365593 0.02940064
-0.051468268 0.009904424 -0.034818888 -0.04841453 0.010912718 0.029389804 -0.021474782 0.046670917
-0.038895093 0.004164164 -0.013420331 -0.030225003 -0.017079396 0.03299876 0.01604111 0.06492317
-0.03474143 -0.031290606 0.018204015 -0.0006051118 -0.0012038879 0.07632028 -0.0047771605 0.017496979
0.047163326 -0.013143004 0.019324334 -0.07328198 -0.010937649 0.03380809 -0.0018848474 -0.038764577
0.0030859516 0.038912088 0.006133602 -0.038448524 0.007418463 -0.028364314 -0.016388863 0.036521584
0.029121038 0.029152311 0.030583287 -0.029416898 0.08117612 0.085425735 -0.008294929 -0.042914744
0.009074546 0.020853132 -0.0105701815 -0.0020474598 0.017996699 0.07004649 -0.036209363 0.066787295
0.003857121 0.016402008 -0.06796548 -0.032558527 0.051561575 0.06460331 -0.024243942 -0.07361808
0.04258924 0.0037416162 0.039238643 0.0616999 0.0330022 -0.008261245 0.07118245 0.03655554
0.03633386 0.059115905 -0.032243766 0.0008627636 0.021812325 0.001496349 0.037976943 -0.08034487
0.023288034 0.038259506 0.07436528 -0.021601424 -0.023212748 0.02871687 0.08017773 0.05369162
0.032520182 -0.04266043 0.072319865 0.061595395 -0.018840596 -0.063772574 0.027617319 0.013820427
-0.057857096 -0.0028617592 -0.0037941693 -0.06480987 0.019782292 0.06098808 0.023807526 0.009753327
-0.031704087 -0.03463637 -0.0060154274 -0.040013567 -0.0653871 -0.015250319 0.06195878 -0.030783975
0.05456905 -0.022547025 0.011764307 0.023110515 -0.0024452263 0.020046273 -0.022365233 0.015681466
-0.016707864 -0.02422777 -0.04348686 0.040537745 0.037546523 0.015228502 -0.031647027 0.057626512
-0.040620703 0.02736379 -0.049949378 -0.04740029 0.048172362 -0.02433048 -0.023681488 -0.025201246

food_logits.bias f4 [3]
00000000: 351d c3bd 57dc 393c 6bcd af3d
-0.09527055 0.011344037 0.08584102

net.0.weight f4 [128, 17]
00000000: 8f19 243e c9fc 2fbe 803b b13f 76eb 8fc0
00000010: 5705 19be 6754 57be 33fa 19be 0944 b83d
00000020: 7701 6ebd 014c 673d 0dc6 f63d 8680 24be
00000030: 7239 2e3e 1d2a a1bb e386 8ebc c1c4 413e
00000040: a115 013e 60fb af3d 6660 c1bd a124 0ec0
00000050: 11f7 5740 903f 8c3f 0fed 4abe c017 193e
00000060: 6a1b c0bd 1879 093e 75a0 843c b494 d4bd
00000070: 013f 15be e41b 85be a684 e1bd 0b36 1a3e
00000080: ca53 bdbd dfd1 87bb f6a4 f6bc 3ef8 c6bc
00000090: 31dc 703f 38b5 a1bf ca82 f6bf 98b6 0a3e
000000a0: 4434 9c3b 9e1e a63d ff64 f13c 48e5 543c
000000b0: 40e7 223e 19bd f33d b52d 493d fe88 8f3d
000000c0: bba3 8fbd 03da f63c 062b a03c 9a1d bfbd
000000d0: f108 07be 12e4 953f e08d 6bc0 6c1b f8be
000000e0: 5e73 a4bd 26db 693e 8f16 06be 9b7b 6abc
000000f0: 55d0 5fbd 159c 24be ddaf 5bbe 748d 4bbe
00000100: 0a10 0ebe 45a5 323e eeea 453e d747 193e
00000110: 34f0 163e 9eb5 31be e0be 983f a007 563e
00000120: 3c32 08c0 8118 b73d c39a 74be 15fe e6bd
00000130: f9d1 23be df7a 923d 40ca ccbc a045 933d
00000140: 720f 53be 0f76 7b3e 10ca 073e 549b 85bb
00000150: efc5 25be 5a68 11be 4643 6ebc e45f d53f
00000160: e43d c1bf c01a 9abf 7db5 aebe 17fa d7bd
00000170: 4088 17bd f84e 5bbe 1a50 2abe 40b1 5a3e
00000180: 5e06 2d3c 39a6 09be 6ce4 423d 32bd a6bd
00000190: 744c 54bd 5059 24be 30eb c6bd c5e2 b0bd
000001a0: c796 ecbf 016b 9940 b6f2 023f ce05 ddbc
000001b0: 3b5b c63d 755e 443e 6657 cd3c 366a 54bd
000001c0: d7e1 6f3e 8a11 e53c e9d3 c23c a8d4 69bc
000001d0: 39c6 87bd ed77 1ebc b217 3f3d 6abe 263e
000001e0: 5e11 103e f36e 0a40 8f17 aac0 310f 20bf
000001f0: 1032 263e 5fbf 54bd 2228 7b3e 4a57 3e3e
00000200: f159 193e 519c 06bd 0bd6 38bc 2fd5 fbbd
00000210: c19d 4b3c 7e75 163e 0dc7 193d 8ffd 08be
00000220: 1e0f 11be 0090 1e3d 10fb a13f 28a7 c3bf
00000230: 1459 17bf 84fa aa3e 04b4 8f3e 170c ebbd
00000240: bb3a 3f3d f67b fe3d fcbf 8cbb ff32 3abe
00000250: 66fb 7c3d 19a2 e13d a361 dd3d bd75 693d
00000260: b8eb 54be 50ba 4b3d 9fcc 693d c9da e2bf
00000270: deb1 b540 8217 093f dd8b c8bd 042a 653d
00000280: eefd e7bc 480f ba3c d20e 233d 3430 bf3c
00000290: 2584 dd3d 7174 02be bb3e a6bd 9fd0 823e
000002a0: 84ef 113e 63a7 d73c 1171 1a3e 1435 a8bd
000002b0: 8de6 e6bf 7a13 4540 dfe4 1640 b4fc 60bd
000002c0: 1316 07bd d8ad 81bd d48d 723d 70b4 62be
000002d0: 6432 85be 09bb 353d b0c1 743d 986a 4c3e
000002e0: 82c5 513d cd7f 1b3e 7cec 1ebe 72a8 203e
000002f0: d040 3fbd 053d 353f 647c 40c0 7767 1b3d
00000300: e1b7 fc3d 34f5 023e 2142 ae3d e536 343d
00000310: 2b32 1dbd b170 79be bbda a8bd cc5d a23d
00000320: c54a 35bc b446 33bd de4f e7bd e6bd 30bd
00000330: 9abd d93d 5fe6 c43d 7394 84bf 3053 a940
00000340: 0bdc 56be ef86 223d 5ecb 0b3e db53 393d
00000350: f1ba 48be e9d5 263d a436 ae3d f83a b3bd
00000360: 8523 c23d 096c 503d 8d5b 68bd d7ef 9e3d
00000370: 9ec7 623c 653d 2d3c 7e2f af3b bf7c 26bf
00000380: f82a bebf 7127 3240 4964 b83c 06a9 c03c
00000390: 7c2f c43c 56aa 68be f4f5 3dbe be76 0dbe
000003a0: 0483 92be 312a 463e 8cf8 3cbc 3f34 973d
000003b0: 009a 83bc fa7a 273e b804 58bd b5ce 043e
000003c0: 73e9 acbf e73c 9a40 a7ef 353f ddd3 12bc
000003d0: 7a92 99be f6f3 a43c f2bb 823e c2e1 f13d
000003e0: 72cf 53bc 361b cdbd 9f37 ef3d 4a81 023e
000003f0: 3c45 a43d 3ee0 d3bd 6a2d ddbd 177a cb3c
0.16025375 -0.17186274 1.3846283 -4.497493 -0.14943443 -0.2102829 -0.1503685 0.08997352
-0.058106866 0.056468967 0.12049494 -0.16064653 0.17014101 -0.0049183504 -0.017398303 0.18922712
0.12605907 0.08592868 -0.09442215 -2.2209857 3.3744547 1.0956898 -0.19816993 0.14950466
-0.09380229 0.134251 0.016189793 -0.10379925 -0.14574815 -0.2599784 -0.11011629 0.15059678
-0.09244497 -0.0041448916 -0.030107956 -0.024288293 0.94085985 -1.2633429 -1.9258664 0.13546216
0.0047669727 0.081113085 0.029467104 0.012994118 0.15908527 0.11901302 0.049115855 0.07008551
-0.07013651 0.030133253 0.019551765 -0.09331818 -0.13187005 1.1710227 -3.6805344 -0.4845842
-0.08029817 0.22837505 -0.13094543 -0.014311696 -0.05464204 -0.16075166 -0.21453805 -0.19878179
-0.13873306 0.17445858 0.193279 0.14968811 0.14740068 -0.17354438 1.193325 0.20901346
-2.128066 0.089402206 -0.23887162 -0.11278931 -0.15998067 0.07152342 -0.024998784 0.07191014
-0.2061136 0.24556755 0.13260674 -0.0040773544 -0.16188787 -0.14199963 -0.014542406 1.6669888
-1.5097013 -1.2039413 -0.3412284 -0.10545748 -0.036995173 -0.21416843 -0.16632119 0.21356678
0.0105606 -0.13442315 0.04758112 -0.08141555 -0.051830724 -0.16049695 -0.09712827 -0.08637003
-1.8483514 4.794312 0.511516 -0.026980307 0.096853696 0.19176657 0.025066089 -0.051859103
0.23425995 0.027962465 0.023782687 -0.014271893 -0.06629605 -0.009672147 0.046653457 0.16283575
0.14069125 2.1630218 -5.315376 -0.6252318 0.16230035 -0.05194032 0.24527028 0.18587986
0.14975716 -0.03286392 -0.011281501 -0.12296521 0.012427748 0.14693257 0.037543345 -0.13377975
-0.14165923 0.038711548 1.2654743 -1.5285387 -0.591203 0.33394253 0.2806703 -0.11476915
0.04668687 0.124259874 -0.0042953473 -0.18183516 0.06176319 0.11017246 0.10809638 0.05699705
-0.20793045 0.04973823 0.057079908 -1.7723018 5.6779623 0.53551495 -0.09792302 0.055948272
-0.028319325 0.022712365 0.039809056 0.023338415 0.1081622 -0.12739731 -0.08117434 0.2554979
0.14251524 0.026324933 0.15082194 -0.08213249 -1.8039109 3.0793138 2.3577192 -0.054928496
-0.032980036 -0.06331986 0.05921729 -0.22139144 -0.26015007 0.044367824 0.059755027 0.19962537
0.05121375 0.15185471 -0.15519899 0.15689257 -0.04669267 0.70796233 -3.0075922 0.03794047
0.123397596 0.1278885 0.08508707 0.043997664 -0.038377922 -0.24359395 -0.082448445 0.079280466
-0.01106519 -0.0437686 -0.1129453 -0.04314985 0.10631867 0.09614252 -1.0357803 5.2914047
-0.20982377 0.039679464 0.13651797 0.045245986 -0.19602562 0.040731344 0.085065156 -0.08751482
0.09479431 0.05088428 -0.056727935 0.077605896 0.013841538 0.01057372 0.0053462377 -0.650341
-1.4856863 2.7836573 0.022508757 0.023518097 0.023948424 -0.22721228 -0.18550855 -0.13814828
-0.28615582 0.19352032 -0.011533868 0.07383012 -0.016064644 0.16355506 -0.052738875 0.12969477
-1.3508743 4.8199344 0.71068805 -0.008961645 -0.29994565 0.02013586 0.25534016 0.11810638
-0.012927877 -0.10014956 0.11680531 0.12744632 0.08021018 -0.10345505 -0.10799678 0.02483849

net.0.bias f4 [128]
00000000: 8c9b 9f3e 88a7 d9bc f439 c7be bc22 10be
00000010: f7c2 e7bc 70fd 3a3d 8b9c 95be d4c2 093e
00000020: 178d 86be 44fc 9abe eb62 393e 4eaa 37bd
00000030: f9d4 b13d c051 7e3e 4158 d8bd 3db4 13be
00000040: 9280 fcbd 2f52 29be 5f16 49bb c311 0abe
00000050: 54e2 b3be 33fe fdbd ccad 2a3e 5bef 093f
00000060: b2bf 41bd e8b6 bdbd ed4b 8fbd f34f a13e
00000070: 08e7 46be 24e8 7e3e 4683 c8bd 0b67 733e
00000080: 44a5 cfbc e59f 3a3e 2e12 a33e 737a 5f3e
00000090: 62fa 4dbe e772 d13d 0af1 7cbe a765 1fbd
000000a0: 1f4d 903c 8bf3 61be 20be 033e beb5 f33d
000000b0: d094 66bd fca6 4bbe f1e5 ebbd f1ed 883b
000000c0: 4b98 69bc 2d09 573d f13d 81be ccd3 8fbe
000000d0: 8a2d bc3e 7346 df3d 8012 e63e a091 9bbe
000000e0: cd9d 6f3e aa88 863e 4104 243c 9f65 97ba
000000f0: 2cd9 a43d e47a 87bd 27d9 d5be ef6c 723e
00000100: 046c 403e 52d6 02bf 061b 8cbe 1c8b 7a3e
00000110: dc8d 003e 7c38 65be 839b f73d cb56 fabe
00000120: 0df7 f93c b401 32be 3351 073f f096 d8bc
00000130: 0776 883e 0a2d 8c3e bf71 b3bd 5819 b53e
00000140: 56f1 933e 51e2 2d3e 9fb8 0e3e 5d55 8b3d
00000150: 7764 213e 72e3 ff3d c86f 29be fcb5 0fbe
00000160: eb5b ce3d db3d c13d 7a96 713d 45e9 23be
00000170: 376a 083e 751b 3b3e 20cd dfbd 522f 9d3e
00000180: d930 e83d 4e06 81be 8178 58be e062 5a3e
00000190: 0d5e 813e 75e0 41be 6974 6bbe 0149 2fbd
000001a0: 11c8 a23e 8282 943e a569 d5bc 795f c23d
000001b0: c99e cc3d e184 3f3d 1371 2dbb f0d2 353e
000001c0: e869 91be c3c4 463e ff1e 07be 8ec9 89be
000001d0: daf5 e0bd 7213 6f3e 7b9b 213e bb76 ba3d
000001e0: bf3e 02be 229a 883d 4e35 aebd 8f02 623e
000001f0: 8019 b0be 1370 053d a7fa 803e bb71 b83d
0.3117336 -0.026569143 -0.38911402 -0.1407575 -0.028291209 0.045651853 -0.29220995 0.13453227
-0.26279518 -0.30270588 0.1810414 -0.04484015 0.086831994 0.24835873 -0.10563708 -0.14424224
-0.1232921 -0.16535257 -0.00306835 -0.13483338 -0.35133612 -0.12402 0.16667861 0.5388085
-0.047301956 -0.09263402 -0.069969036 0.3150631 -0.19424069 0.24893242 -0.097906634 0.23769777
-0.02534736 0.18225057 0.31849808 0.21824054 -0.20115045 0.10226994 -0.24701324 -0.038915303
0.0176149 -0.2206556 0.12865496 0.11899899 -0.056294262 -0.19887918 -0.11518467 0.0041787555
-0.014257501 0.052498985 -0.2524257 -0.28091276 0.36753494 0.10902109 0.4493599 -0.3038454
0.2340004 0.2627614 0.01001078 -0.0011550671 0.08049235 -0.066152364 -0.41767237 0.23674367
0.18791205 -0.51108277 -0.27364367 0.24467129 0.12554115 -0.22384828 0.120902084 -0.48894343
0.03051331 -0.17383462 0.52858275 -0.02643916 0.26652548 0.27378112 -0.0876193 0.35370898
0.28895062 0.16980864 0.13937615 0.06803391 0.1576098 0.124945536 -0.16546547 -0.14034265
0.10076126 0.09435626 0.058981396 -0.16006954 0.13321768 0.18272193 -0.10927796 0.30700165
0.11337442 -0.25200123 -0.21139719 0.2132678 0.25267068 -0.1893328 -0.22993626 -0.04279423
0.31793264 0.2900582 -0.026051352 0.09490866 0.09991223 0.046757583 -0.0026465103 0.17756248
-0.28401113 0.19410996 -0.13195418 -0.26911587 -0.109843925 0.23347262 0.15781967 0.09104677
-0.12719248 0.066700235 -0.08506261 0.22071289 -0.34394455 0.032577585 0.25191233 0.09006067

net.2.weight f4 [128, 128]
00000000: 0cf0 d9bd a96b acbc c6fa 30bd cf04 623d
00000010: 9ca9 b6bd 776e d93d c20a 74bd 5e5f 543d
00000020: 8590 00bd b34b 04be aeeb 29be 16ff eb3d
00000030: 09cc 8ebc cb1e 35bb fced 02be 9a0f 41be
00000040: f587 593d 96c6 fcbd a28e f2bc 4df3 35be
00000050: f655 22bd 7777 3d3d 2e51 cd3d 8819 4b3d
00000060: 8d2e 00be c79c d2bd 7e5c 87bd ae44 7a3d
00000070: ed1d 82bd d331 1f3e ced1 62be 37d9 e33d
00000080: 4b34 20be 3614 453a 3be9 a4be 53c6 bd3c
00000090: d245 d5bd 10e8 b83c bd4c 243d bc5e be3d
000000a0: e385 b3ba 7286 ea38 1e25 34bd 56ed 2bbe
000000b0: a511 febd 52c4 da3b 8e8a 27bd 8bb0 51bd
000000c0: 4ec8 8ebb fe50 f6bb ffd6 763d f9c3 3abe
000000d0: 8d99 a8bc 9b9e 17be 920e 013e e5d1 a53d
000000e0: ea79 bcbd 9f08 79bc f261 fabd f148 c1bd
000000f0: b148 acbc 5723 febc eb1f afbd 981e 893b
00000100: 7791 92bd a313 c8bd ebcd e03d 591b 6cbd
00000110: e756 78bd 5ee7 33bd 21b7 ce3d bc1b fb3c
00000120: a202 a0bd be99 41bd 8508 73bd dd23 00be
00000130: 4629 72bd 0e22 cd3d ca60 8dbe 3447 013e
00000140: 51cb 8b3d c3ff 02bc 6b4e 32bd 1e57 523c
00000150: b978 c13d f02b e0bd bcab 1bbe 115e dc3d
00000160: 2e64 efbd 3924 00bd f5f1 4bbe ac53 7ebd
00000170: 7664 32bd 06ad 5cbd 2bb8 603d 9749 cabe
00000180: f7d6 bf3c 7d7a 0a3d e5d1 d63c 48de 17bd
00000190: 8aab 113d b427 93bc 923f bcbd fd6f 8fbb
000001a0: 1992 e8be 8f2c c43d 38a1 23bd b24c c63d
000001b0: a9bd 653c bd6f 813d b80c d73d 32bf 88be
000001c0: 5e60 c53d c133 293d b4f7 40bd a3ba a7bd
000001d0: 89d5 54bd b0ac 1ebd db2e d4bc fc89 63bc
000001e0: ca71 91bc 8dff 0dbe d854 86bd fd2e 983d
000001f0: c2fc 02be b547 143d 4be4 14be 1355 f4bd
00000200: 8721 15be e81d d4bd 5925 93bd 38cf b2bc
00000210: 3ffc d3bd 3cbd f23d b607 1f3e f3a7 6d3c
00000220: 2b95 abbe 64cb 3d3d f323 de3d dbcb 47bc
00000230: 001e 0f3e 0956 1dbe a890 1ebe 0a66 00bd
00000240: 4024 8abd 643c 3c3e d0c5 28be af03 173d
00000250: 0b32 db3c c826 bfbc e7a6 a23d 8eef c1bc
00000260: ec94 133d 40c9 b33d 4d9f 23be f28d 06bd
00000270: a5ff 953d 9ca6 86bc 746f 3dbd e9de 6fbe
00000280: d5b1 efbd 0e16 96bd 2e4c da3c a17c 54be
00000290: 05ab 7bbc 16b3 f3bd 3e2f afbd a1ba 613c
000002a0: a2dd c7bd 0898 2d3b a6f7 843d 6ced d03c
000002b0: c578 9abd 6a15 54bd 4bd3 f43c 0e7e c43c
000002c0: 0b4a bcbd ba2a 153e 8e7f 66bb 76eb 973d
000002d0: d75f 97bd a1aa 90bd a6a9 433d cad5 e4bd
000002e0: 6d65 333e 5311 46be d4a9 313d 858a aebd
000002f0: aaa2 08bd faea 263e 4931 b53d ab02 bfbd
00000300: 0935 17bd dd91 863c 91a5 83bd 906c 463d
00000310: 94ad f4bd 62a0 483d bbc8 a33d de4b 803b
00000320: 74f1 b3bd 2f16 be3d b218 a6bd 45ea debd
00000330: d630 223d 9b5a 22be 5bc3 b3bc d826 82bd
00000340: 480b 39be d383 90bd 0715 1d3e adce d33c
00000350: 9b8a bebd f32d d53c 6a78 d43d 66ef c9bc
00000360: 7712 4abe f619 b63d c091 9cbd 3aa1 723d
00000370: 5438 8f3c 4358 c7bc 1fba febd 46d7 0bbd
00000380: cf77 16bd 895c a9bd e046 303e 4183 27be
00000390: 0af7 f9bd aabb cbbe 6dd8 123d fca3 9ebd
000003a0: cb42 6cbd b981 c3be 37c4 d9bd b16d dbbd
000003b0: f9ae f9bd d197 4c3c d5b2 00be 7458 153e
000003c0: b7f3 463d ada1 7f3c 0cfa c6be 2897 243e
000003d0: 39cd f13c 949d 73bd 47bd bcbd 290a 0dbe
000003e0: deb3 8bbd 5a9e aa3d e307 483d 82fa 1fbe
000003f0: d6a6 3c3d 4614 0b3e 01c4 033e 604f d53d
-0.106414884 -0.02104743 -0.043207906 0.055180367 -0.08919069 0.106167726 -0.059580572 0.05184876
-0.031387825 -0.12919502 -0.16593811 0.11523263 -0.017431276 -0.0027636762 -0.12786096 -0.18853608
0.053108174 -0.12342565 -0.029609028 -0.17768593 -0.03963276 0.04625651 0.100252494 0.049584895
-0.12517758 -0.10283809 -0.06609438 0.061100654 -0.06353364 0.1554635 -0.22150347 0.11125415
-0.15644948 0.0007517965 -0.3220919 0.023165857 -0.10413708 0.022571594 0.040112246 0.09295413
-0.0013696518 0.00011183032 -0.04398071 -0.16789755 -0.12405709 0.0066762352 -0.04090362 -0.051193755
-0.0043573743 -0.0075169792 0.06026363 -0.1823882 -0.020581031 -0.14806597 0.12603214 0.08096675
-0.09202941 -0.015199809 -0.12225713 -0.094377406 -0.021030756 -0.03102271 -0.0855101 0.0041845553
-0.071566515 -0.097693704 0.10976776 -0.05764327 -0.06062975 -0.04392182 0.10093523 0.030652873
-0.07813002 -0.04726576 -0.059334297 -0.12513681 -0.059121393 0.10016261 -0.27612907 0.12624818
0.06825889 -0.007995549 -0.043531816 0.012838153 0.09446854 -0.109458804 -0.1520223 0.10760129
-0.1168903 -0.031284545 -0.19916518 -0.062091514 -0.04355284 -0.053875946 0.054863136 -0.3950927
0.023417933 0.03380822 0.026223132 -0.03707722 0.035563983 -0.017963268 -0.091918126 -0.0043773637
-0.45423964 0.095788114 -0.039948672 0.09682597 0.014022269 0.063201405 0.10500473 -0.2670837
0.09637521 0.041309122 -0.047111228 -0.08189895 -0.051961455 -0.038738906 -0.025901249 -0.0138878785
-0.017754454 -0.13867016 -0.065591514 0.07430837 -0.12791732 0.036201198 -0.14540212 -0.11930289
-0.14563571 -0.10357267 -0.07184858 -0.021827325 -0.103508465 0.118525 0.15530285 0.014505374
-0.33512244 0.046336547 0.108467005 -0.012194599 0.13976288 -0.15364851 -0.1548487 -0.031347312
-0.067451954 0.18382412 -0.1648171 0.036868747 0.02675726 -0.023333922 0.0794199 -0.023673799
0.036030695 0.0877862 -0.15978737 -0.032850213 0.07324151 -0.016436867 -0.046248868 -0.23424877
-0.11703841 -0.07328425 0.026647653 -0.20750667 -0.015360598 -0.11899392 -0.085539326 0.013777406
-0.0975907 0.0026488323 0.06492548 0.025503837 -0.07542566 -0.051778235 0.029885909 0.023985889
-0.0919381 0.1456708 -0.0035171243 0.074179575 -0.07391327 -0.07063795 0.04776921 -0.111735895
0.1751916 -0.19342546 0.04337485 -0.08522514 -0.033358254 0.16300574 0.08847291 -0.09326681
-0.036915813 0.016426975 -0.06428064 0.048443377 -0.1194717 0.048981078 0.07997271 0.003915294
-0.08786288 0.09281575 -0.08110179 -0.10884527 0.039597355 -0.15854876 -0.021943739 -0.06355065
-0.1807071 -0.070563935 0.15340053 0.025855387 -0.09303781 0.026022887 0.1037453 -0.024650287
-0.19733606 0.088916704 -0.07644987 0.05923579 0.017482914 -0.024334079 -0.124378435 -0.034140848
-0.036735352 -0.08269603 0.17214537 -0.16358663 -0.12205322 -0.39791614 0.03585093 -0.07746121
-0.057680886 -0.38184908 -0.10633128 -0.10714281 -0.121915765 0.012487368 -0.12568219 0.14584523
0.04857227 0.015602511 -0.38862646 0.16073287 0.029516803 -0.05947645 -0.09215789 -0.13773407
-0.06821416 0.083309844 0.048835646 -0.15622905 0.046057545 0.13581952 0.12867738 0.1041553
