src/training_logs_ppo/initial/ppo_checkpoint_270_1764188489.pt (torch, 480155 bytes, 42 tensors)

move_logstd f4 [2]
0	0x400a516e	2.16122
1	0x3ff7f516	1.9371669

shared.0.weight f4 [128, 17]
0	0x3e13fa94	0.14451057
1	0xbe1a8804	-0.15090948
2	0xbea2bfd6	-0.31786984
3	0x3e2a1592	0.16609791
4	0x3e225269	0.1585175
5	0xbe3a35a6	-0.18184528
6	0xbe1c4a08	-0.15262616
7	0x3dcb4878	0.09925932
8	0x3e5d9bff	0.21641539
9	0xbe4c931c	-0.19977993
10	0x3e0c9a0c	0.13730639
11	0xbe3a4600	-0.18190765
12	0xbd9c7f90	-0.07641518
13	0xbdd62c05	-0.10457615
14	0x3c33b48f	0.0109683415
15	0x3de44440	0.1114583
16	0xbda3c3b6	-0.07996313
17	0xbd9519ba	-0.072802976
18	0xbd94af10	-0.07259953
19	0xbbb5ce4e	-0.005548275
20	0x3d8b9096	0.06814687
21	0xbea18e2e	-0.31553787
22	0x3e504740	0.2033968
23	0xbe4b2e7e	-0.19841954
24	0xbc9e31a7	-0.019310785
25	0xbd62eee7	-0.055403616
26	0xbea92667	-0.3303711
27	0xbe106522	-0.14101079
28	0xbc8fc162	-0.017548267
29	0x3e56e165	0.20984419
30	0x3c13d09c	0.009021904
31	0x3d87c877	0.066300325
32	0xbdbfdb94	-0.09368053
33	0xbe11a093	-0.1422141
34	0x3e694c2b	0.22782962
35	0x3e802e9b	0.25035557
36	0x3d7e2534	0.0620472
37	0x3d805b16	0.06267373
38	0xbebae7f8	-0.36505103
39	0xbe0e94e3	-0.13923983
40	0xbccb2a6f	-0.024800507
41	0xbe2e38cd	-0.17013855
42	0x3c624b9b	0.013811971
43	0xbd88a983	-0.06672957
44	0xbd87cbe6	-0.066306874
45	0xbd1fe898	-0.039040178
46	0x3e3e66f0	0.18593955
47	0xbde48cce	-0.11159669
48	0x3e56c201	0.20972444
49	0x3ca6c7d5	0.02035896
50	0x3da3080c	0.07960519
51	0x3d310e54	0.043226555
52	0xbd7df0b1	-0.06199712
53	0xbeb5a73c	-0.35479152
54	0xbb8ce708	-0.004300002
55	0x3d6bbd91	0.05755383
56	0x3e5963ba	0.21229449
57	0x3dfd4b76	0.12367909
58	0x3d701a6c	0.058618948
59	0x3e10a248	0.14124405
60	0xbe0999f7	-0.13437639
61	0x3bb3fe54	0.0054929648
62	0xbd049ca1	-0.032375935
63	0xbd6d4018	-0.057922453
64	0xbdb63686	-0.08897118
65	0xbc0917c9	-0.008367487
66	0xbe4f3a3e	-0.20237061
67	0x3e2b265d	0.16713853
68	0x3dbd8bde	0.09255193
69	0x3e0602ef	0.13087057
70	0xbea1ef04	-0.31627667
71	0x3dedfe94	0.116208225
72	0xbba7d0c7	-0.0051213237
73	0x3dcd2975	0.10017673
74	0xbd1c82ff	-0.038210865
75	0x3de49ff4	0.11163321
76	0xbe5c15d3	-0.214927
77	0x3e33586d	0.175142
78	0x3d804ccb	0.06264647
79	0x3df13e95	0.11779515
80	0x3dc3b545	0.09556059
81	0xbd6680fb	-0.05627535
82	0x3cfdc8a9	0.030979471
83	0xbcc69f8d	-0.024246002
84	0x3de543c7	0.11194568
85	0xbe139843	-0.14413552
86	0x3cec34ad	0.028833712
87	0xbe180ecf	-0.14849399
88	0xbe84c963	-0.25934896
89	0xbe7a816a	-0.2446343
90	0x3c063112	0.00819041
91	0x3e7b763e	0.24556825
92	0xbe2c9dd0	-0.16857076
93	0x3e80cb08	0.251549
94	0xbcbe35c7	-0.023219002
95	0x3e0c93a3	0.13728194
96	0x3e005658	0.12532938
97	0x3df0cabc	0.117574185
98	0xbd073461	-0.033008937
99	0xbdf7eaaa	-0.121053055
100	0xbcc7c45b	-0.024385622
101	0xbc2e0d50	-0.010623291
102	0x3d40df18	0.04708776
103	0xbc83917c	-0.016060583
104	0xbe0d2f6c	-0.13787621
105	0x3e00bfb1	0.12573124
106	0x3bf07262	0.0073378542
107	0x3cc5b251	0.02413288
108	0xbea304b5	-0.3183953
109	0xbdc35fe5	-0.09539775
110	0x3e93d787	0.28875372
111	0xbc409ddc	-0.011756387
112	0xbe8d1d3a	-0.2756136
113	0xbe01315a	-0.12616482
114	0x3d467145	0.048447866
115	0xbd2009e4	-0.039071932
116	0x3da8bfc6	0.08239703
117	0xbe07dd17	-0.13267933
118	0xbac7c943	-0.0015242476
119	0xbe28dde3	-0.16490893
120	0xbc0c5e94	-0.008567471
121	0x3dfa2b0e	0.12215243
122	0x3cdb848a	0.026796598
123	0x3ccad897	0.024761481
124	0xbe69e47b	-0.22841065
125	0xbddcb177	-0.10776036
126	0x3e32f3d3	0.17475824
127	0xbe3b4f0d	-0.18291874
128	0xbdf0fade	-0.11766599
129	0xbd7d2493	-0.061802458
130	0xba328fa0	-0.0006811563
131	0xbe0210c1	-0.12701704
132	0xbe140abd	-0.14457221
133	0x3e1bdf40	0.15221882
134	0x3d0964f0	0.033543527
135	0x3ca5b4d4	0.020227827
136	0xbdab89f3	-0.08375921
137	0x3da6cedb	0.08144923
138	0xbd601dab	-0.054715794
139	0xbdadfed1	-0.08495868
140	0xbd62fe98	-0.05541858
141	0xbe400b07	-0.18754207
142	0x3cf852b6	0.030312877
143	0x3e19dba2	0.1502519
144	0x3e14d6d4	0.14535075
145	0xbe7c09b9	-0.24613084
146	0x3d7d2fe9	0.06181327
147	0xbdf0ab1b	-0.11751386
148	0x3da3093f	0.07960748
149	0xbdc2a99f	-0.09505009
150	0xbe45241f	-0.1925206
151	0x3d5686f4	0.052374795
152	0xbdede623	-0.11616161
153	0x3df2c7e3	0.118545316
154	0xbc9e9bcb	-0.019361397
155	0x3e0d9aa3	0.1382852
156	0xbe6ca5d0	-0.23110127
157	0xbeb223d0	-0.34792948
158	0xbc4b1e29	-0.012397327
159	0xbd774316	-0.060366713
160	0x3e284845	0.16433819
161	0x3e334ae9	0.17509045
162	0x3e57c885	0.21072586
163	0xbd2df092	-0.042465754
164	0x3db7ee79	0.08981032
165	0xbe441d4e	-0.19151804
166	0xbdb8cff9	-0.09024043
167	0x3ddae46f	0.106881015
168	0x3d886573	0.06659975
169	0x3d9c65ed	0.07636628
170	0xbddb2c02	-0.10701753
171	0x3e1e86e1	0.1548114
172	0xbdec89f8	-0.11549753
173	0xbc9ee6a1	-0.019397082
174	0xbe6206c4	-0.22072893
175	0x3e7eb65d	0.24874254
176	0xbd4ae176	-0.049531423
177	0xbe9810ff	-0.29700467
178	0xbe22f5c8	-0.1591407
179	0xbdf1fc1b	-0.118156634
180	0x3e8b7986	0.27241153
181	0xbdf35b44	-0.11882642
182	0xbe47773d	-0.1947908
183	0x3d939f57	0.07208126
184	0x3d2af996	0.04174193
185	0x3d893121	0.06698824
186	0xbde07095	-0.10958973
187	0xbdaf1a5e	-0.08549951
188	0xbe286a2e	-0.16446754
189	0x3d3e81a7	0.046510365
190	0xbe96259a	-0.29325563
191	0x3d760bbb	0.06006978
192	0x3e11bc4b	0.14231984
193	0x3e7a7d7c	0.24461931
194	0x3e54a43b	0.20765774
195	0xbd4ba576	-0.049718343
196	0xbdf52516	-0.11969964
197	0xbe82d432	-0.25552517
198	0x3df68ada	0.120382026
199	0xbdb145ea	-0.08655913
200	0xbcd5137e	-0.026010271
201	0xbd747d95	-0.059690077
202	0xbdd39cb5	-0.10332624
203	0xbd162917	-0.03666028
204	0xbc9f7b5a	-0.019467998
205	0xbe21b018	-0.1578983
206	0xbe2ff83d	-0.17184539
207	0xbde9a740	-0.114088535
208	0xbda0286c	-0.0782021
209	0xbe668cbc	-0.22514623
210	0x3e315593	0.173178
211	0xbd33a4fb	-0.04385851
212	0xbe07f185	-0.13275726
213	0x3d98363e	0.07432221
214	0xbe11c08f	-0.14233612
215	0xbd346348	-0.044039994
216	0xbe118f5d	-0.14214845
217	0xbcc13256	-0.023583572
218	0x3c72ff07	0.014831311
219	0x3b00c143	0.0019646443
220	0xbcd8593a	-0.026409734
221	0x3e239264	0.15973812
222	0x3d278b5a	0.04090438
223	0xbe686730	-0.22695613
224	0x3d8d37c4	0.06895402
225	0xbd90779a	-0.07054062
226	0x3e71e3e7	0.23622094
227	0xbe07e1e6	-0.13269767
228	0xbe02384a	-0.12716785
229	0x3e54d2f3	0.20783596
230	0xbd4b5e71	-0.049650613
231	0xbdc79ed2	-0.097470894
232	0x3d8f4f90	0.06997597
233	0x3d864cd3	0.06557622
234	0x3da52946	0.08064513
235	0xbd512a7a	-0.0510659
236	0x3de48dca	0.111598566
237	0xbd8fdba0	-0.07024312
238	0xbd0880fa	-0.033326127
239	0xbc348cdb	-0.011019911
240	0xbd8a00bf	-0.067384236
241	0xbe475a30	-0.19467998
242	0xbe1a3b9a	-0.15061799
243	0xbe8e2a2d	-0.27766553
244	0x3da3c9a3	0.079974435
245	0xbe4d1d03	-0.20030598
246	0x3e9771d2	0.29579026
247	0x3dda9258	0.10672444
248	0x3d59cfd5	0.05317672
249	0x3c809c08	0.015699401
250	0xbb4baacc	-0.0031077145
251	0x3cc7e5b2	0.02440152
252	0x3e7d46e5	0.24734075
253	0xbe456df9	-0.19280232
254	0xbd9e5ef5	-0.07732955
255	0xbce31bbe	-0.02772319

shared.0.bias f4 [128]
0	0xbdc280ab	-0.09497198
1	0xbeba5a74	-0.36397135
2	0xbe09a550	-0.13441968
3	0xbe5f8597	-0.21828304
4	0xbe0630e5	-0.1310459
5	0xbd0c9287	-0.034319427
6	0xbd35cf7c	-0.044387326
7	0x3e0e76ca	0.13912502
8	0xbeaf1448	-0.3419516
9	0xbdff938e	-0.12479316
10	0x3dce1888	0.10063273
11	0xbe8aec41	-0.27133372
12	0xbd0ff333	-0.035144042
13	0xbe07c176	-0.13257393
14	0x3b5d21d0	0.0033742078
15	0xbe000fec	-0.12506074
16	0xbe238ae4	-0.15970951
17	0x3e95345f	0.29141518
18	0x3dc3693b	0.095415555
19	0xbe96295b	-0.29328427
20	0xbe01b262	-0.12665704
21	0xbb633e6c	-0.0034674658
22	0x3987ba8a	0.0002588819
23	0x3d9d78bf	0.07689046
24	0xbdb96af5	-0.090536036
25	0xbe3d1925	-0.18466623
26	0xbca4432c	-0.020051561
27	0xbdb7390d	-0.089464284
28	0x3d2b474c	0.04181604
29	0xbe873153	-0.2640482
30	0xbd9ed048	-0.0775457
31	0xbe88421a	-0.2661293
32	0xbdbd3fe1	-0.092406996
33	0xbdbc2ca4	-0.09188202
34	0xbe83b2b1	-0.25722268
35	0x3ce1bcd9	0.02755587
36	0xbe8402f3	-0.257835
37	0xbe970318	-0.29494548
38	0xbd3d214d	-0.046174336
39	0xbe25bb2d	-0.16184683
40	0xbebb37f7	-0.36566135
41	0xbe747bd6	-0.23875365
42	0xbcb64c6a	-0.022253234
43	0xbe0e74be	-0.13911721
44	0x3dbaf15d	0.09128068
45	0xbeb8499e	-0.35993665
46	0x3e2fe2bc	0.17176336
47	0xbe8c57e5	-0.27410808
48	0x3e0881e4	0.133308
49	0xbe2eb369	-0.17060627
50	0xbe9aaae5	-0.30208507
51	0xbe2ce104	-0.16882712
52	0xbe748c10	-0.23881555
53	0xbdfed42e	-0.12442814
54	0xbd64f368	-0.055896193
55	0xbbc60d2e	-0.0060440516
56	0x3d0975bd	0.03355955
57	0xbe5b3bf6	-0.21409592
58	0xbe17061d	-0.14748426
59	0xbd840d17	-0.06447809
60	0xbd8b0e16	-0.06789796
61	0xbda3f0df	-0.08004927
62	0xbe20da62	-0.15708306
63	0xbe1e1dcd	-0.15441056
64	0xbea0c32c	-0.31398904
65	0xbe2d6e71	-0.16936661
66	0xbe878500	-0.26468658
67	0xbecc08b3	-0.39850387
68	0xbe2c5c58	-0.16832101
69	0x3b10b7ee	0.0022082287
70	0xbee50be2	-0.44735628
71	0xbe80646b	-0.25076613
72	0x3d551c67	0.05202904
73	0x3e4ec0b0	0.20190692
74	0x3d018b7a	0.031627156
75	0xbe0a7756	-0.13522086
76	0x3e4013fd	0.18757625
77	0xbe9c641b	-0.30545124
78	0xbe211a8d	-0.15732785
79	0xbe44b5a9	-0.19209923
80	0xbe3a5876	-0.18197808
81	0xbe918e62	-0.28428942
82	0xbf008fd8	-0.5021949
83	0xbe3262dd	-0.17420526
84	0xbe766923	-0.24063544
85	0xbe143b1a	-0.1447567
86	0xbd6427cd	-0.05570202
87	0xbdc1a6db	-0.09455653
88	0xbd8de9db	-0.0692937
89	0xbe6e32dd	-0.2326159
90	0x3d26d63c	0.040731654
91	0xbe0f9416	-0.14021334
92	0xbdbde88f	-0.09272873
93	0x3e22d4ec	0.15901536
94	0xbe822ee8	-0.25426412
95	0x3dd03d28	0.10167915
96	0xbe7ae64d	-0.24501915
97	0xbe951985	-0.29121032
98	0x3e506262	0.2035003
99	0xbe353013	-0.1769412
100	0x3e710e35	0.23540576
101	0xbe45aa90	-0.19303346
102	0x3d90df2a	0.07073815
103	0xbd5f282a	-0.054481663
104	0x3d5a14f1	0.053242628
105	0xbe069d22	-0.13145879
106	0xbe001744	-0.12508875
107	0xbde3beb4	-0.11120358
108	0xbd1f09a1	-0.038827542
109	0xbe4e42db	-0.20142691
110	0xbcadb331	-0.02120361
111	0xbe94623b	-0.28981194
112	0xbe4e2a50	-0.20133328
113	0xbea849d5	-0.3286883
114	0xbbb1d914	-0.005427489
115	0xbe803af7	-0.25044987
116	0xbe47f34c	-0.19526404
117	0xbe1a4435	-0.15065081
118	0xbe8caa02	-0.27473456
119	0xbdc51094	-0.09622303
120	0xbcdd5530	-0.02701816
121	0xbe9f044e	-0.31057972
122	0xbe086406	-0.13319406
123	0xbe77dcea	-0.24205366
124	0xbe454f8b	-0.19268624
125	0x3d7da066	0.061920546
126	0xbec795c1	-0.3898144
127	0xbc778df5	-0.015109529

shared.2.weight f4 [128, 128]
0	0x3c838043	0.01605237
1	0x3d1b6dad	0.03794639
2	0x3d410b9a	0.047130205
3	0xbccd5bf1	-0.025068255
4	0x3d6f907d	0.058487404
5	0x3d38f418	0.04515466
6	0xbd3484a6	-0.044071816
7	0x3d0d374a	0.034476556
8	0xbceb4389	-0.028718727
9	0x3d82b2cf	0.06381761
10	0xbc8bd834	-0.017070867
11	0xbd9c7860	-0.07640147
12	0xbdbb8936	-0.0915703
13	0x3c85dbb5	0.016340116
14	0x3d151cf6	0.036404572
15	0x3d9ebba1	0.07750631
16	0x3d2aaa86	0.04166653
17	0xbcd831d4	-0.026390947
18	0x3c093b7e	0.008376
19	0x3b31d2be	0.0027133669
20	0x3c41724e	0.0118070375
21	0xbde5264d	-0.11188946
22	0xbd9314ec	-0.07181725
23	0x3c7cd52d	0.015431684
24	0x3da9be49	0.08288247
25	0xbda86118	-0.08221644
26	0xbce04b30	-0.027379602
27	0xbbd427a2	-0.006474451
28	0xbdfdd298	-0.12393683
29	0xbd7aef62	-0.06126345
30	0xbcf98ce4	-0.03046269
31	0x3c13f208	0.009029873
32	0xbd0bc332	-0.0341217
33	0xbba9290a	-0.005162363
34	0x3d818321	0.06323839
35	0xbd01bbb1	-0.031673137
36	0x3d609b9f	0.05483591
37	0xbdda1c81	-0.10649968
38	0x3d41ec65	0.047344584
39	0xbda1c275	-0.07898418
40	0x3ca7f12f	0.020500747
41	0xbe032981	-0.12808801
42	0xbdb5dd64	-0.088801175
43	0x3cf8e14c	0.030380867
44	0xbc9f2d25	-0.019430706
45	0xbda0ce6e	-0.07851873
46	0xbd8b660b	-0.068065725
47	0x3ccae5bc	0.024767749
48	0xbcd11c42	-0.02552617
49	0xbda9e483	-0.08295538
50	0x3c86b589	0.016443985
51	0xbd8de17b	-0.069277726
52	0x3ccd3f34	0.025054552
53	0xba3b8ed3	-0.00071547664
54	0xbcfcd439	-0.030862914
55	0x3d1b47e0	0.037910342
56	0x3d3816f3	0.04494376
57	0xbd82e377	-0.06391042
58	0xbca34bb2	-0.019933555
59	0x3d2bbf72	0.041930623
60	0xbd04131f	-0.032244798
61	0xbd2b98d3	-0.04189379
62	0xbcfd63c1	-0.030931355
63	0xbd96cf83	-0.073637985
64	0x3d60939f	0.054828282
65	0x3d335e08	0.043790847
66	0xbaecf094	-0.0018077069
67	0xbcbdfd2f	-0.023192016
68	0xbdebdd90	-0.11516869
69	0xbb67e7ac	-0.003538589
70	0xbd4a0566	-0.049321555
71	0x3c9dc0d6	0.01925699
72	0xbd1ec1b5	-0.038758952
73	0xbd8e4b51	-0.06947959
74	0xbd70ba4a	-0.05877141
75	0xbd7fb7b8	-0.062431067
76	0xbd3bae04	-0.04582025
77	0xbddd0a65	-0.10792998
78	0xbd8780db	-0.06616374
79	0x3d163e40	0.03668046
80	0xbd09a4f9	-0.033604596
81	0xbd1e899b	-0.03870545
82	0xbe01b141	-0.12665273
83	0xbdb66ac9	-0.089070864
84	0xbd488989	-0.04895929
85	0xbd00b3fa	-0.03142164
86	0xbcc16e88	-0.023612276
87	0xbe2506a6	-0.16115817
88	0xbdb15371	-0.08658493
89	0xbd423d1a	-0.047421552
90	0xbbc74ece	-0.0060823923
91	0xbd7541d8	-0.059877247
92	0x3cb31eb8	0.021865234
93	0x3cd20acd	0.025639916
94	0x3d5c22f0	0.053744256
95	0xbd4fffee	-0.050781183
96	0xbddbaa7b	-0.10725876
97	0xbcac5ce4	-0.021040387
98	0xbd8498a2	-0.06474425
99	0x3d04ddb7	0.032438006
100	0xbdbf0500	-0.093271255
101	0x3c5e99e6	0.013586497
102	0xbe2d8d3d	-0.1694841
103	0xbde86f8e	-0.11349402
104	0xbda766a5	-0.08173875
105	0xbc47894c	-0.01217873
106	0xbdb8e161	-0.090273626
107	0xbbc45236	-0.0059912456
108	0x3d77b2e5	0.06047334
109	0xbd937708	-0.07200438
110	0x3d2060d9	0.03915486
111	0xbd58f290	-0.0529657
112	0xbdc5414c	-0.09631595
113	0x3ccfcad3	0.025365269
114	0xbc24a2ca	-0.010048578
115	0xbc797a9f	-0.015226989
116	0x3c290d07	0.010318047
117	0xbde6107f	-0.11233615
118	0xbdb898c6	-0.09013514
119	0xbcc7a1b1	-0.024369093
120	0xbd46652d	-0.048436332
121	0xbd8c074f	-0.068373315
122	0xbd4b0fd5	-0.049575645
123	0x3c5f64e6	0.013634896
124	0x3cb09637	0.021556003
125	0x3c93fe93	0.018065726
126	0xbd8fba9e	-0.07018016
127	0xbcd27402	-0.025690082
128	0xbd42e346	-0.047580026
129	0xbd017316	-0.031603895
130	0xbdf2d935	-0.11857835
131	0xbe025d24	-0.12730843
132	0x3cc211cb	0.023690125
133	0x3ce2ced2	0.02768651
134	0xbdc15b46	-0.09441237
135	0x3da3ea35	0.08003656
136	0x3d6f65ad	0.058446575
137	0x3cc6d8f7	0.024273379
138	0xbd8bfe64	-0.068356305
139	0xbd087354	-0.03331311
140	0xbddb66c3	-0.107129596
141	0x3d285b56	0.04110273
142	0x3c9507d4	0.01819221
143	0x3d521b52	0.051295586
144	0x3ca50e46	0.020148408
145	0xbd839d0e	-0.0642644
146	0xbd6cb620	-0.057790875
147	0x3d397265	0.04527511
148	0xbdd4336e	-0.10361372
149	0xbd2dfd8b	-0.042478126
150	0xbd904aac	-0.070454925
151	0x3cf49017	0.029853864
152	0x3c1617d8	0.009160958
153	0x3c562714	0.01307084
154	0xbab6f668	-0.0013958933
155	0xbd9c0e3a	-0.07619901
156	0xbd2a2bed	-0.041545797
157	0xbd625760	-0.05525911
158	0xbceff1f9	-0.029290186
159	0xbdbb6c11	-0.091514714
160	0x3b34c756	0.0027584634
161	0xbdcb6e49	-0.099331446
162	0xbd1be577	-0.03806063
163	0x3d441cdb	0.04787908
164	0xbdd67f57	-0.10473507
165	0x3bf6d2e4	0.0075324643
166	0xbd0d6dac	-0.03452842
167	0xbde00563	-0.109385274
168	0xbdccc97c	-0.099993676
169	0xbb600631	-0.0034183378
170	0x3d1b7a32	0.03795833
171	0x3aaabf0a	0.0013026905
172	0x3cebd392	0.028787408
173	0xbd9e783d	-0.077377774
174	0x3d734493	0.05939157
175	0x3d1549f6	0.036447488
176	0xbc71baa2	-0.014753969
177	0xbd371ede	-0.04470717
178	0xbdcdc1e9	-0.10046751
179	0xbda3456d	-0.07972226
180	0x3d262f66	0.040572546
181	0x3cc51079	0.024055706
182	0x3d3a8742	0.04553915
183	0x3d873f24	0.0660384
184	0xbdde1845	-0.10844473
185	0xbccdbfa8	-0.025115803
186	0xbd83a88d	-0.06428633
187	0x3d20555b	0.0391439
188	0xbd219e43	-0.03945757
189	0xbdf3d3a6	-0.11905603
190	0xbd842499	-0.06452293
191	0xbc635557	-0.013875327
192	0xbd3aa0e1	-0.045563582
193	0xbda71109	-0.08157546
194	0x3cd5a05d	0.026077444
195	0xbd8ee667	-0.069775395
196	0x3d81d80c	0.06340036
197	0x3d045086	0.032303356
198	0x3c115251	0.008869723
199	0x3ce34ec9	0.027747529
200	0xbda612b9	-0.0810904
201	0x3cf4c681	0.02987981
202	0xbde11ed4	-0.10992208
203	0xbc05603d	-0.008140621
204	0xbdd5153e	-0.10404442
205	0xbd942a74	-0.0723466
206	0xbd32257b	-0.043492775
207	0xbe0e762e	-0.1391227
208	0x3d30d38b	0.043170493
209	0x3b94054a	0.004517232
210	0x3a2ae867	0.0006519616
211	0x3ca356ae	0.019938793
212	0xbdbfb5a7	-0.09360819
213	0xbcceb047	-0.02523054
214	0x3cbd951a	0.023142386
215	0xbd0975f3	-0.03355975
216	0x3db0d4f2	0.08634366
217	0xbdcee313	-0.10101905
218	0xbced81b0	-0.028992504
219	0x3b6cdd83	0.0036142773
220	0xbdac08a0	-0.084000826
221	0xbdc5c28d	-0.09656248
222	0xbd977c0c	-0.07396707
223	0x3cd785de	0.02630895
224	0x3ad56b9e	0.0016282683
225	0x3c81678f	0.01579645
226	0xbe0bd6f4	-0.13656217
227	0xbe21255c	-0.15736908
228	0xbe05638f	-0.1302626
229	0xbc9a11f9	-0.018807398
230	0x3cd3223b	0.025773158
231	0xbdaa0633	-0.08301964
232	0xbd3e5a86	-0.04647305
233	0xbdcb0d90	-0.09914696
234	0x3d806cca	0.0627075
235	0xbd5c4109	-0.05377296
236	0xbce70bb6	-0.028203826
237	0xbc7a352f	-0.015271469
238	0x3d0489df	0.032358047
239	0xbd4fa1b6	-0.05069133
240	0x3db6e64b	0.08930644
241	0xbb961ce1	-0.0045810794
242	0xbc802ac7	-0.015645398
243	0x3d0066de	0.0313481
244	0xbd760ede	-0.060072772
245	0xbdab6f76	-0.08370869
246	0x3d633792	0.055472918
247	0xbd7801fa	-0.06054876
248	0xbdc68364	-0.096930295
249	0xbd847c4b	-0.064690195
250	0xbdd473b0	-0.10373628
251	0xbd764e51	-0.060133282
252	0xbcc6f871	-0.024288388
253	0xbdcc2ff7	-0.09970086
254	0xbde84de7	-0.11342984
255	0xbcf6f984	-0.030148275

shared.2.bias f4 [128]
0	0xbd84cc05	-0.06484226
1	0xbde0f1d9	-0.10983629
2	0xbe021d6e	-0.12706539
3	0x3cbc75ac	0.02300533
4	0xbcecc62c	-0.02890309
5	0x3cc63454	0.024194874
6	0x3d1cad20	0.038251042
7	0x3d034e26	0.03205695
8	0xbde9fb7a	-0.114249185
9	0x3c8cb018	0.017173812
10	0xbdc81153	-0.09768929
11	0xbd0c53d0	-0.034259617
12	0x3bf830e0	0.0075741857
13	0xbda188f7	-0.07887452
14	0xb9cdabed	-0.00039228742
15	0xbe070ac2	-0.13187698
16	0xbca021d2	-0.019547377
17	0xbdafdf69	-0.08587534
18	0x3c387ceb	0.0112602515
19	0xbdbf0a8f	-0.09328186
20	0xbddd860f	-0.10816585
21	0x3d2d230c	0.04226975
22	0xbda3714d	-0.07980595
23	0x3c3ecc37	0.011645368
24	0xbc7acb64	-0.015307281
25	0x3c1b79a4	0.009489451
26	0x3cadea5b	0.021229913
27	0x3cabb68f	0.020961074
28	0xbd99d461	-0.07511211
29	0xbd287adb	-0.04113279
30	0xbdd05fe7	-0.10174542
31	0xbbdce448	-0.0067410804
32	0x3d0e906b	0.034805696
33	0xbcc55b72	-0.024091456
34	0xbd54a69a	-0.051916696
35	0x3cfec093	0.031097686
36	0xbdc38934	-0.09547654
37	0xbd1c9ae5	-0.038233656
38	0xbdbc1220	-0.091831446
39	0xbd9800c9	-0.07422025
40	0xbdadecb0	-0.0849241
41	0xbc88398f	-0.016629009
42	0x3c83c555	0.016085306
43	0xbdaec993	-0.08534541
44	0xbe0d3eb7	-0.13793455
45	0xbd818186	-0.06323533
46	0xbb0f2bf2	-0.0021846262
47	0x3cfff99a	0.031246949
48	0xbcb040f5	-0.021515349
49	0xbdd026c2	-0.101636425
50	0x39dabca9	0.00041720763
51	0xbd724fbe	-0.05915808
52	0xbe0d595e	-0.13803622
53	0xbcd9de92	-0.026595388
54	0xbc657fd2	-0.0140075255
55	0x3d369db7	0.044584002
56	0x3b59ebae	0.0033252048
57	0xbdf8fa60	-0.1215713
58	0xbbf683a1	-0.0075230156
59	0xbcbbae6d	-0.022910321
60	0xbd8110a8	-0.06302005
61	0xbd2de713	-0.042456698
62	0x3c17e139	0.009270006
63	0xbd407b0e	-0.046992354
64	0xbdc70a40	-0.09718752
65	0xbdb27658	-0.087139785
66	0xbcd3fe0f	-0.02587798
67	0xbd7ba5b9	-0.061437342
68	0xbdee36b6	-0.11631529
69	0x3d22614a	0.039643563
70	0xbb69f2c1	-0.003569767
71	0xbd84d005	-0.06484989
72	0x3bd483b1	0.0064854254
73	0x3cca096d	0.024662698
74	0xbe002c64	-0.12516934
75	0x3d1fdc79	0.03902862
76	0x3bc03e00	0.005866766
77	0xbde6f5f2	-0.11277379
78	0xbafd0c16	-0.001930597
79	0x3d0abd36	0.03387185
80	0xbd3e570e	-0.04646974
81	0x3ca51a64	0.020154186
82	0x3d027763	0.031852137
83	0xbdb6775a	-0.08909483
84	0xbcc5b934	-0.024136163
85	0xbd6fa6a0	-0.058508515
86	0x3cc8ed6d	0.024527276
87	0xbdeadbf8	-0.11467737
88	0x3c8842b6	0.016633373
89	0xbdcb7a1a	-0.099353984
90	0x3ac6ae1b	0.0015158089
91	0xbdd5b240	-0.10434389
92	0xbc2f585f	-0.010702222
93	0xbd671d25	-0.05642428
94	0xbd6b7a79	-0.057489846
95	0x3cdf06cd	0.027224923
96	0x3d35921e	0.0443288
97	0xbdb2da14	-0.08733001
98	0xbd8266e7	-0.06367283
99	0x3d15b9ac	0.036554024
100	0xbdf601ee	-0.12012087
101	0xbc5c663b	-0.013452108
102	0xbd2ca217	-0.04214677
103	0x3cab9c76	0.02094863
104	0xbd890973	-0.066912554
105	0xbd436b43	-0.047709715
106	0xbdee16f6	-0.11625473
107	0xbddfa5b6	-0.10920279
108	0xbccc11b6	-0.024910789
109	0x3cdb533f	0.026773093
110	0xbddcf8b5	-0.107896246
111	0x3d042015	0.03225716
112	0xbda42a5d	-0.08015893
113	0xbcfc9699	-0.03083353
114	0xbd874783	-0.06605437
115	0xbe0a37d1	-0.13497855
116	0xbda3dbb5	-0.0800089
117	0xbd781e16	-0.060575567
118	0xbd697ddf	-0.057004806
119	0xbda0e977	-0.0785703
120	0xbda4dcd3	-0.080499314
121	0x3cfd162e	0.030894365
122	0xbca51279	-0.02015041
123	0xbd85421b	-0.06506749
124	0xbdbe207e	-0.09283541
125	0xbda7adae	-0.08187424
126	0x3d37b48f	0.04484993
127	0xbd9a3bbe	-0.07530926

move_mean.weight f4 [2, 128]
0	0xbc005421	-0.007832558
1	0xbd2260d2	-0.039643116
2	0xbc8a6016	-0.01689152
3	0x3cb9614b	0.0226294
4	0x3c252232	0.010078954
5	0x3c108486	0.008820659
6	0x3bd0da1a	0.006373656
7	0x3b593d0f	0.0033147966
8	0x3cc309aa	0.02380832
9	0x38d4e043	0.0001015072
10	0xbb1c83ed	-0.0023882345
11	0x3b6e3c61	0.0036351907
12	0xbc1e4212	-0.009659307
13	0x3d478114	0.048707083
14	0x3c76918f	0.015049352
15	0xbcb1f26e	-0.021722045
16	0x3d11caf3	0.035593938
17	0x3c33a308	0.010964163
18	0xbc55af67	-0.013042307
19	0xbcf20386	-0.029542696
20	0x3d43bc12	0.04778678
21	0x3d754b3a	0.059886195
22	0xbce4669c	-0.02788096
23	0xbc02e45b	-0.0079890145
24	0xbc444665	-0.011979674
25	0x3d1e9642	0.038717516
26	0x3d32d067	0.04365578
27	0xbab5addb	-0.0013861017
28	0x3c5cdc15	0.013480206
29	0xbbbeffba	-0.005828825
30	0x3c3fc476	0.011704555
31	0xbb192b96	-0.0023371927
32	0x3cc612c9	0.02417888
33	0x3b8ff16f	0.004392795
34	0x3d0efd4c	0.03490953
35	0x3b87ef23	0.0041483804
36	0xbbffe241	-0.007808954
37	0x3d5dc104	0.054139152
38	0xbd8124bc	-0.06305835
39	0x3c8bd48e	0.017069127
40	0x3b5425c5	0.0032371145
41	0x3c2a2887	0.010385639
42	0x3d5b10b5	0.05348273
43	0x3c7fb2aa	0.015606562
44	0xbc5e1790	-0.013555422
45	0xbb0c2abf	-0.0021387783
46	0xbc9b7dc0	-0.01898086
47	0xbd1674b0	-0.036732376
48	0x3ccea63e	0.025225755
49	0xbb14cf75	-0.0022706662
50	0xbaafce5a	-0.0013412938
51	0xbbdf2692	-0.006810018
52	0xbbb6e1f1	-0.0055811335
53	0x3ab0e1da	0.0013495043
54	0x3c7c67f3	0.015405643
55	0xbd19ebb0	-0.037578285
56	0xbd16bea3	-0.0368029
57	0xbce19828	-0.027538374
58	0x3ce7c351	0.028291376
59	0xb89a76cd	-7.3654206e-05
60	0xbb902060	-0.0043983907
61	0x3bf9eed5	0.007627348
62	0xbb78c308	-0.0037958045
63	0xbb51ecb8	-0.0032031965
64	0x3b789498	0.0037930366
65	0x3bef03d3	0.007294157
66	0x3b113ee6	0.0022162735
67	0xbc158539	-0.009126001
68	0xbc1df3b7	-0.009640626
69	0x3d2a9d9a	0.041654207
70	0x3da2ef40	0.079557896
71	0x3d391607	0.045187023
72	0xbca93946	-0.020657193
73	0x3c94b39d	0.018152053
74	0x3bbbfa22	0.0057366053
75	0xbc902fb0	-0.017600864
76	0xbc935262	-0.01798362
77	0xbcd901c8	-0.026490107
78	0x3d437855	0.04772218
79	0xbc454a94	-0.012041707
80	0xbcc63384	-0.024194486
81	0x3d625b37	0.05526277
82	0x3bb254e9	0.005442251
83	0x3c41eb3a	0.011835868
84	0x3ab23083	0.001359478
85	0xba045bc1	-0.0005049073
86	0x3cebdf64	0.028793044
87	0x3b75b4b9	0.0037491752
88	0x3d0651a1	0.03279269
89	0x3c3c205e	0.011482326
90	0xbd09ba73	-0.033625077
91	0xbd2ddcd9	-0.042446945
92	0x3c55f2df	0.013058393
93	0xbd613059	-0.05497775
94	0x3c5addb4	0.013358522
95	0x3d90c3ec	0.07068619
96	0x3d586100	0.05282688
97	0xbcce7b97	-0.025205417
98	0x3d842b8d	0.06453619
99	0x3ca07c09	0.019590395
100	0x3bcc0430	0.006226085
101	0x3d1923fc	0.037387833
102	0xbbefd801	-0.007319451
103	0x3c0c8b62	0.008578153
104	0x3a213900	0.0006150156
105	0xbc0583d2	-0.008149104
106	0x3d2d494a	0.042306222
107	0x3ceb5eb9	0.02873169
108	0xbbfcddbf	-0.007716864
109	0xbaefa22f	-0.0018282587
110	0x3b992a2b	0.0046742163
111	0xbc0bd901	-0.0085356245
112	0xbcb347fc	-0.02188491
113	0x3c088c64	0.008334253
114	0x3ae518f5	0.0017478751
115	0xbc2f50d4	-0.010700423
116	0x3cd179cc	0.025570773
117	0x3be2db9e	0.006923153
118	0x3ccf7217	0.025322957
119	0x3cfb944a	0.030710358
120	0xbcb56fb8	-0.022147998
121	0xbd345107	-0.044022586
122	0x3d71871b	0.058966737
123	0xbccb8e06	-0.024847995
124	0x3a25e72c	0.0006328698
125	0xbc726167	-0.01479373
126	0x3b711d73	0.0036791235
127	0x3c2c8b44	0.01053125
128	0x3cb9ac6f	0.02266523
129	0x3ca33516	0.019922774
130	0x3ba669b5	0.005078519
131	0xbb386901	-0.002813876
132	0x3d29864f	0.041387852
133	0x3c8d34c7	0.01723708
134	0x3c0cd7a2	0.008596333
135	0xbd2fd585	-0.042928237
136	0x3c4f6b08	0.012659796
137	0xbc477897	-0.012174747
138	0xbcf5d809	-0.03001024
139	0x3c0567bd	0.008142409
140	0x3da94195	0.08264462
141	0xbbce6f02	-0.0062998543
142	0xba04b529	-0.00050623954
143	0x3bd52276	0.006504352
144	0xbbc80699	-0.006104302
145	0xba0841ce	-0.0005197794
146	0xbc9893e9	-0.018625217
147	0x3d1c9dab	0.0382363
148	0x3d820f77	0.06350606
149	0x3b18d66d	0.0023321167
150	0x3d41f8df	0.047356483
151	0x3c1a6be7	0.00942514
152	0xbcaedb33	-0.021344757
153	0xbd115096	-0.035477243
154	0x3d172446	0.036899827
155	0xbb441206	-0.002991797
156	0xbc0cd946	-0.008596724
157	0x3c11aa34	0.008890677
158	0xbc0e7201	-0.008694173
159	0xbc881dde	-0.016615804
160	0xbca42eed	-0.020041907
161	0xbb1f1acb	-0.0024277444
162	0x3c20067e	0.009767173
163	0xbc4da4d8	-0.012551509
164	0xbc72160b	-0.014775763
165	0xbd3347cf	-0.043769654
166	0x3d3e1488	0.0464063
167	0xbbb6ed00	-0.005582452
168	0x3d04d506	0.032429717
169	0x3b1e4672	0.0024150875
170	0xbc48911f	-0.012241631
171	0x3cba5ccc	0.022749327
172	0xbc172208	-0.009224422
173	0x3cf83de2	0.030302946
174	0xba8da371	-0.0010806156
175	0xbcd7b06a	-0.026329238
176	0x3b9d2f17	0.0047968733
177	0xbbf74c7c	-0.0075469594
178	0xbac0efb9	-0.001471988
179	0xbb390237	-0.002823008
180	0x3cac9696	0.021067899
181	0x3d2d077d	0.04224347
182	0x3c56563e	0.013082085
183	0x3d714d5e	0.058911674
184	0xbd7817ee	-0.060569696
185	0x3b636e6b	0.0034703265
186	0x3d079d7f	0.033109184
187	0xbc7f2d81	-0.015574814
188	0x3cb6426f	0.022248475
189	0xbc0efd6e	-0.0087274145
190	0xbc9899e4	-0.018628068
191	0x3ccf8263	0.025330728
192	0x3cad5cf7	0.021162493
193	0xbc271201	-0.010197164
194	0xbcae0524	-0.021242686
195	0xbbb65231	-0.005563997
196	0xbc587130	-0.01321058
197	0x3c4c26ae	0.012460394
198	0xbc0386c5	-0.008027737
199	0xbd7597d3	-0.059959244
200	0x3b0e9129	0.0021754003
201	0xbc3d68e9	-0.011560657
202	0xbd181605	-0.037130374
203	0x3c3a382f	0.011365934
204	0xbd147ee7	-0.036253836
205	0xbd028e66	-0.031874083
206	0xbd6a46f3	-0.05719657
207	0x3bc2c010	0.005943306
208	0xbd245957	-0.040124264
209	0xbd62b16a	-0.055344976
210	0xbbffda06	-0.007807973
211	0x3c892db0	0.016745418
212	0xbc3ab1de	-0.011394946
213	0xb9309f0d	-0.00016843919
214	0xbc8a69f5	-0.016896227
215	0xbd1f604f	-0.038910206
216	0xbc2d5ce4	-0.010581229
217	0xbc9d5bee	-0.019208875
218	0xbc18464e	-0.009294106
219	0x3a6d3261	0.00090483396
220	0x3a14b1c5	0.00056722417
221	0x3cc2d049	0.023780959
222	0x3d3b46b5	0.04572173
223	0x3c71b688	0.0147529915
224	0x3c87b0e9	0.01656385
225	0xbd3a4d30	-0.045483768
226	0x3cd8285d	0.026386434
227	0x3c9fe1f8	0.01951693
228	0x3d05de76	0.03268286
229	0x3d743c8b	0.05962805
230	0xbd626742	-0.055274256
231	0xbc4d9ccb	-0.012549589
232	0x3d2cf5b3	0.042226505
233	0x3c03622f	0.008019014
234	0xbcaba0a4	-0.020950623
235	0x3c80b902	0.015713219
236	0xbac7448d	-0.0015202925
237	0x3d135779	0.035972092
238	0xbb7d4f4f	-0.0038652008
239	0x39e67cce	0.00043962005
240	0xbd0eb0b7	-0.034836497
241	0xbc11c970	-0.008898124
242	0x3d238117	0.03991803
243	0xbc8b06b1	-0.016970964
244	0xbb16c29f	-0.0023004187
245	0xbb661cad	-0.0035112307
246	0xbd29a363	-0.041415583
247	0x3c87a032	0.01655588
248	0xbd54c8d0	-0.051949322
249	0x3c36edf8	0.011165135
250	0xbdabd8ec	-0.08390984
251	0x3c9fd8a5	0.019512484
252	0x3af6aba6	0.0018819466
253	0x3bd21353	0.006410995
254	0xbb1e3bfc	-0.002414464
255	0x3d067526	0.032826565

move_mean.bias f4 [2]
0	0x3db2808b	0.08715924
1	0xbe734ddc	-0.2376017

food_logits.weight f4 [3, 128]
0	0xbd0a5b08	-0.03377822
1	0x3ca1e77d	0.019763703
2	0x3cdc38c1	0.026882531
3	0xbc1ed1ce	-0.009693576
4	0x3cca6a0a	0.024708766
5	0xbcb8f1bd	-0.022576207
6	0x3c00aca2	0.007853659
7	0x3d03ef81	0.03221083
8	0xbcae7e76	-0.021300536
9	0xbcd89309	-0.0264373
10	0x3d06f19a	0.032945253
11	0xbd246d56	-0.040143333
12	0xbd842556	-0.06452434
13	0xbcca5708	-0.024699703
14	0x3c236ac7	0.009974188
15	0x3d042567	0.032262232
16	0xbd0257ed	-0.031822134
17	0xbac974f2	-0.0015369935
18	0x3d5c4e37	0.05378553
19	0xbd7e5d50	-0.06210071
20	0x3d559c40	0.052150965
21	0x3c2f8def	0.010714992
22	0xbd58d346	-0.05293586
23	0xbd1c403c	-0.038147196
24	0xbbef2f3b	-0.0072993315
25	0x3d7cc17a	0.06170795
26	0x3d2a3cf7	0.041562047
27	0xbd2f4467	-0.042789843
28	0x3bed0342	0.0072330544
29	0xbcc374be	-0.023859378
30	0xbd100718	-0.035163015
31	0x3d2106be	0.03931307
32	0x3d694d82	0.056958683
33	0x3d473f6b	0.048644464
34	0x3d34984f	0.044090565
35	0xbcc62fa5	-0.02419264
36	0x3d70a6f4	0.05875297
37	0xbbb1ed30	-0.0054298863
38	0x3d05c687	0.032660034
39	0xbd50ff17	-0.051024523
40	0xbdad3bd7	-0.08458679
41	0x399d28eb	0.0002997586
42	0x3cbb07fa	0.022830952
43	0xbc91e532	-0.017809484
44	0xbc362263	-0.011116597
45	0x3d1059d3	0.035241913
46	0xbd0a4fb8	-0.033767432
47	0x3d975110	0.07388508
48	0x3d2901cb	0.041261476
49	0xbc35cb4c	-0.011095833
50	0xbda49587	-0.080363326
51	0x3cb69f3a	0.022292722
52	0x3d375521	0.04475892
53	0x3ba3df43	0.00500098
54	0xbd89b4e1	-0.06723953
55	0xbd0bc51c	-0.034123525
56	0x3c1afd37	0.009459785
57	0xbc9509e1	-0.018193187
58	0x3c64c3e6	0.013962721
59	0x3cc37827	0.023861004
60	0x3d2b2a81	0.04178858
61	0xbd3607c8	-0.044441015
62	0x3d81da4a	0.063404635
63	0x3c800672	0.015628073
64	0x3d9e02ee	0.077154025
65	0x3d4d861d	0.05017673
66	0x3d816c03	0.0631943
67	0x3ce8effe	0.02843475
68	0x3bf8d742	0.00759402
69	0x3d320110	0.043458045
70	0x3c6656c5	0.014058773
71	0x3d8f683c	0.07002303
72	0xbbb693aa	-0.005571802
73	0x3d04ecd4	0.03245242
74	0x3c42e33a	0.011894995
75	0xbcdc4168	-0.026886657
76	0x3d55491b	0.052071672
77	0x3d381ff7	0.04495236
78	0x3d2c75e2	0.04210461
79	0x3d298e7a	0.041395642
80	0x3d17add8	0.037031025
81	0x3d9fb34f	0.07797872
82	0x3d5c8af7	0.053843465
83	0x3d6b28c7	0.057411935
84	0xbcbc594a	-0.022991795
85	0xbd554534	-0.05206795
86	0x3d08c213	0.03338821
87	0x3d97b2a1	0.07407118
88	0xbcf7c8a4	-0.03024704
89	0x3d083f60	0.033263564
90	0xbcf8b1ac	-0.030358158
91	0xbca13fac	-0.019683681
92	0x3cfb54aa	0.03068002
93	0x3d0c251c	0.034215078
94	0xbd1cddc8	-0.038297445
95	0xbcdad9ef	-0.026715247
96	0xbb597a39	-0.0033184423
97	0xbcdae430	-0.026720136
98	0xbd101ad4	-0.035181835
99	0xbceb37c0	-0.028713107
100	0xbd5671fc	-0.052354798
101	0xbd27779d	-0.040885556
102	0x3d44be7e	0.04803323
103	0xbd22bc7d	-0.039730538
104	0xbd93ca72	-0.07216348
105	0xbcb0a8b5	-0.02156482
106	0xbd35686d	-0.04428904
107	0x3d6af3ed	0.057361532
108	0x3c952459	0.018205808
109	0x3d3ea3e7	0.04654303
110	0xbd733a3f	-0.05938172
111	0x3c3c66f9	0.01149916
112	0xbaa87003	-0.0012850765
113	0xbd57f899	-0.052727316
114	0x3d2ce681	0.042212013
115	0x3ca4f7c0	0.020137668
116	0x3caa68bb	0.020801893
117	0xbaa20248	-0.0012360299
118	0xbcd7fca8	-0.026365593
119	0x3cf0d99c	0.02940064
120	0xbd36fc74	-0.04467435
121	0x3c22462a	0.009904424
122	0xbd0e9e40	-0.034818888
123	0xbd464e50	-0.04841453
124	0x3ad5696f	0.0016282032
125	0x3cf0c2e3	0.029389804
126	0xbcafebe2	-0.021474782
127	0x3d3f2a01	0.046670917
128	0xbcc6b221	-0.02425486
129	0x3bc4b6d7	0.0060032415
130	0xbc5be0f3	-0.013420331
131	0xbcf79a6d	-0.030225003
132	0xba67410b	-0.0008821643
133	0x3d0729b5	0.03299876
134	0x3c8368a5	0.01604111
135	0x3d80a816	0.0628206
136	0xbd0e4d08	-0.03474143
137	0xbd002a94	-0.031290606
138	0x3c952096	0.018204015
139	0xbc25fd11	-0.0101311365
140	0xba9dcbc6	-0.0012038879
141	0x3d890d1e	0.06691955
142	0xbb9c89ba	-0.0047771605
143	0x3c8f55d3	0.017496979
144	0x3d412e55	0.047163326
145	0xbc5755c1	-0.013143004
146	0x3ce4b6d3	0.027919209
147	0xbd9614dd	-0.07328198
148	0xbc3333d3	-0.010937649
149	0x3d0a7a5a	0.03380809
150	0xbaf70cfc	-0.0018848474
151	0xbc789e87	-0.015174515
152	0x3b4a3dad	0.0030859516
153	0x3d1f6248	0.038912088
154	0x3bc8fc62	0.006133602
155	0xbd1d7c33	-0.038448524
156	0x3bf31694	0.007418463
157	0xbcb5e08d	-0.0222018
158	0xbc8641f0	-0.016388863
159	0x3d1597a8	0.036521584
160	0x3cee8f3e	0.029121038
161	0x3ceed0d4	0.029152311
162	0x3d1e9817	0.038719263
163	0xbcf0fbb5	-0.029416898
164	0x3da63faa	0.08117612
165	0x3daef3b0	0.085425735
166	0xbc07e774	-0.008294929
167	0xbd2fc75f	-0.042914744
168	0x3c14ad68	0.009074546
169	0x3caad430	0.020853132
170	0xbbf8e940	-0.007596165
171	0xbb062ead	-0.0020474598
172	0x3c259b66	0.010107851
173	0x3d8f7489	0.07004649
174	0xbd145045	-0.036209363
175	0x3d88c7c7	0.066787295
176	0x3b7cc7c1	0.003857121
177	0x3c865d81	0.016402008
178	0xbd8b317c	-0.06796548
179	0xbcbcc1f7	-0.023041708
180	0x3d53323b	0.051561575
181	0x3d844ebd	0.06460331
182	0xbcc69b3b	-0.024243942
183	0xbd96c513	-0.07361808
184	0x3d2e720e	0.04258924
185	0x3b7535e7	0.0037416162
186	0x3d20b8b3	0.039238643
187	0x3d7cb909	0.0616999
188	0x3d072d51	0.0330022
189	0xbc075a2c	-0.008261245
190	0x3d91c81b	0.07118245
191	0x3d15bb43	0.03655554
192	0x3d14d2d0	0.03633386
193	0x3d722385	0.059115905
194	0xbd04120a	-0.032243766
195	0x3a622b16	0.0008627636
196	0x3cb2afc3	0.021812325
197	0x3ac42124	0.001496349
198	0x3d2ac89e	0.04169523
199	0xbda48bda	-0.08034487
200	0x3cbec68c	0.023288034
201	0x3d1cb600	0.038259506
202	0x3d984cd3	0.07436528
203	0xbcb0f578	-0.021601424
204	0xbcbe28a9	-0.023212748
205	0x3ceb3fa4	0.02871687
206	0x3da43439	0.08017773
207	0x3d5bebbe	0.05369162
208	0x3d0533e2	0.032520182
209	0xbd2ebcb4	-0.04266043
210	0x3d941c70	0.072319865
211	0x3d7c4b74	0.061595395
212	0xbc9a5798	-0.018840596
213	0xbd829b32	-0.063772574
214	0x3ce23db7	0.027617319
215	0x3c626f12	0.013820427
216	0xbd6269fd	-0.05527686
217	0xbb3b8c5a	-0.0028617592
218	0xbc0857f5	-0.008321752
219	0xbd84bb0a	-0.06480987
220	0x3ca20e79	0.019782292
221	0x3d79cea3	0.06098808
222	0x3cc30800	0.023807526
223	0x3c1fcc6b	0.009753327
224	0xbd01dc25	-0.031704087
225	0xbd0ddede	-0.03463637
226	0xb910ced0	-0.00013809954
227	0xbd23e544	-0.040013567
228	0xbd85e9ac	-0.0653871
229	0xbc79dc79	-0.015250319
230	0x3d7dc87d	0.06195878
231	0xbcf1d907	-0.029522432
232	0x3d413dad	0.04717796
233	0xbcb8b48a	-0.022547025
234	0x3c40bf14	0.011764307
235	0x3cbd5243	0.023110515
236	0xbb204017	-0.0024452263
237	0x3ca43815	0.020046273
238	0xbcb7374b	-0.022365233
239	0x3c80766b	0.015681466
240	0xbd04ef41	-0.032454733
241	0xbcc67951	-0.02422777
242	0xbd321f47	-0.04348686
243	0x3d260ae8	0.040537745
244	0x3d19ca62	0.037546523
245	0x3c7980f8	0.015228502
246	0xbd01a050	-0.031647027
247	0x3d6c09c7	0.057626512
248	0xbcc81e25	-0.024428437
249	0x3ce02a07	0.02736379
250	0xbd4c97b8	-0.049949378
251	0xbd4226ce	-0.04740029
252	0x3d43a425	0.047763962
253	0xbcc750b7	-0.02433048
254	0xbcc1ffae	-0.023681488
255	0xbcce72d8	-0.025201246

food_logits.bias f4 [3]
0	0xbe07247a	-0.13197508
1	0x3ce07bdf	0.027402816
2	0x3ddcc294	0.107793

net.0.weight f4 [128, 17]
0	0x3e2da180	0.16956139
1	0xbe276719	-0.16347922
2	0x3fb3a5ae	1.4034936
3	0xc09a5239	-4.822537
4	0xbe694c47	-0.22783004
5	0xbe83b1a5	-0.2572147
6	0xbe1126e0	-0.14174986
7	0x3db23f8e	0.08703528
8	0xbd8b4643	-0.06800511
9	0x3d4fdcf4	0.050747827
10	0x3ddcc040	0.10778856
11	0xbe192041	-0.1495371
12	0x3e34d7ed	0.17660494
13	0xba81355a	-0.0009857819
14	0xbc94cff4	-0.018165566
15	0x3e3e24f2	0.18568781
16	0x3e0b2fcd	0.13592453
17	0x3dbabda6	0.09118204
18	0xbd9eee0c	-0.077602476
19	0xc013008b	-2.2969081
20	0x40667995	3.6011708
21	0x3fa6c137	1.3027714
22	0xbe4242a0	-0.18970728
23	0x3dfe0895	0.12403981
24	0xbdaf0784	-0.08546355
25	0x3e221dec	0.15831727
26	0x3d3a00ae	0.045410804
27	0xbd89ba00	-0.0672493
28	0xbe18c72e	-0.14919731
29	0xbe76a776	-0.24087319
30	0xbdf8507d	-0.12124727
31	0x3e122bf7	0.14274584
32	0xbdbebdef	-0.09313571
33	0x3d09f905	0.03368475
34	0xbce59844	-0.028026707
35	0x3b7ef01d	0.0038900443
36	0x3f805ee2	1.0028956
37	0xbfaac344	-1.334084
38	0xc0132521	-2.2991412
39	0x3dc194d2	0.09452213
40	0xbb878f28	-0.0041369386
41	0x3d9b515c	0.075838774
42	0x3d761df9	0.060087178
43	0x3d06bf24	0.03289713
44	0x3dea388b	0.11436566
45	0x3df7d9f4	0.12102118
46	0x3d20f160	0.039292693
47	0x3d857ede	0.065183386
48	0xbda0825c	-0.07837364
49	0x3cc91cd5	0.024549881
50	0x3c2d224f	0.010567262
51	0xbdc5284c	-0.09626827
52	0xbdc6b52f	-0.09702527
53	0x3f9638d5	1.1736094
54	0xc07bf715	-3.9369557
55	0xbed467df	-0.41485497
56	0xbddf2c91	-0.10897172
57	0x3e7bda96	0.24595103
58	0xbe072562	-0.13197854
59	0xbdab2fba	-0.083587125
60	0xbd8b5798	-0.068038166
61	0xbe242f5d	-0.16033693
62	0xbe594d0c	-0.21220797
63	0xbe4d5e98	-0.20055616
64	0xbe30c564	-0.17262799
65	0x3e2fc078	0.17163265
66	0x3e57ecab	0.21086375
67	0x3db9904b	0.09060725
68	0x3dfc6bb9	0.12325234
69	0xbe465922	-0.19369939
70	0x3fa36c76	1.2767475
71	0x3f040dd7	0.5158362
72	0xc015e6f7	-2.342222
73	0x3ce8261d	0.028338486
74	0xbe67345f	-0.22578572
75	0xbdbf7e49	-0.09350259
76	0xbe238e24	-0.15972191
77	0x3da6757c	0.08127877
78	0xbce518bb	-0.027965894
79	0x3db3f379	0.08786673
80	0xbe4c5b5b	-0.19956724
81	0x3e5a399f	0.21311043
82	0x3dd2514f	0.10269415
83	0xbc8b7af9	-0.017026411
84	0xbe1bcdf8	-0.1521529
85	0xbe0536a1	-0.1300912
86	0xbd0220cd	-0.031769563
87	0x3fdab8a5	1.7087599
88	0xbfd8b591	-1.693041
89	0xbfad7925	-1.3552595
90	0xbea84d55	-0.328715
91	0xbd67688f	-0.0564962
92	0xbd243ee3	-0.040099036
93	0xbe583157	-0.21112572
94	0xbe31fd88	-0.17381871
95	0x3e3c99a8	0.1841799
96	0x3c159bbc	0.009131368
97	0xbe0bc490	-0.13649201
98	0x3d07ac8e	0.033123545
99	0xbda696a6	-0.08134203
100	0xbd925aeb	-0.071462475
101	0xbe073591	-0.13204028
102	0xbd9742b4	-0.073857695
103	0xbde76ec2	-0.11300422
104	0xbfef9f51	-1.8720495
105	0x40a3c6ff	5.1180415
106	0x3f2b52c7	0.66923183
107	0xbc83a66e	-0.01607057
108	0x3da9a294	0.082829624
109	0x3e4c2b63	0.19938426
110	0x3d826af8	0.06368059
111	0xbd0d1e8b	-0.034452956
112	0x3e86d20a	0.26332122
113	0xbc31c9ef	-0.010851367
114	0x3ce4255e	0.02784985
115	0xbb23cef9	-0.0024995191
116	0xbd3f4ac0	-0.046702147
117	0x3bdf08bd	0.0068064616
118	0x3d5b5b63	0.05355395
119	0x3e2cd3f3	0.16877727
120	0x3deeb42f	0.11655461
121	0x400d2306	2.2052627
122	0xc0b3b628	-5.615986
123	0xbf0f67d6	-0.56017816
124	0x3e3128c4	0.17300707
125	0xbd6a0957	-0.057137813
126	0x3e7d6fe4	0.24749714
127	0x3e4b6f25	0.19866617
128	0x3e15210a	0.14563385
129	0xbcb427fa	-0.021991719
130	0xbc8b1b92	-0.01698092
131	0xbe006bad	-0.12541075
132	0xbd008a37	-0.031381812
133	0x3e351d86	0.17687044
134	0x3d106faa	0.03526274
135	0xbdc87583	-0.097880386
136	0xbe01b3c4	-0.12666231
137	0x3d031636	0.032003604
138	0x3fac0708	1.3439646
139	0xbfaa1852	-1.3288672
140	0xbf22e47a	-0.6362988
141	0x3e95bb41	0.29244426
142	0x3e93b7ff	0.28851315
143	0xbdc1dfda	-0.094665244
144	0x3d8ce7df	0.068801634
145	0x3da80e10	0.08205807
146	0x3d9222f3	0.07135572
147	0xbe46be04	-0.19408423
148	0x3d37f4ca	0.044911183
149	0x3db076e0	0.086164236
150	0x3da6a180	0.081362724
151	0x3d9f860f	0.077892415
152	0xbe581a2f	-0.21103738
153	0x3cf4b279	0.029870259
154	0x3d395ae9	0.045252714
155	0xbfee86f2	-1.8634932
156	0x40bf2304	5.9730244
157	0x3f098310	0.5371561
158	0xbdb717ac	-0.08940062
159	0x3d864e56	0.0655791
160	0xbd581ad4	-0.05275996
161	0x3d4227f8	0.0474014
162	0x3c935dde	0.017989095
163	0x3cdfcfad	0.027320707
164	0x3dc026c8	0.09382397
165	0xbdfe191b	-0.12407132
166	0xbda6882e	-0.08131443
167	0x3e6d59cb	0.23178785
168	0x3e1d7540	0.15376759
169	0x3c022594	0.00794353
170	0x3e1f7346	0.15571317
171	0xbd8f6c89	-0.07003123
172	0xbff3ce44	-1.9047322
173	0x403dbcf7	2.9646585
174	0x4027bb74	2.6208162
175	0xbd1a5291	-0.037676398
176	0xbd8039cc	-0.06261024
177	0xbd73a586	-0.059484027
178	0x3d0f4fe1	0.034988288
179	0xbe59c4d2	-0.21266487
180	0xbe826e91	-0.2547498
181	0x3d0c5a0d	0.034265567
182	0x3d5f53ea	0.054523386
183	0x3e56f15a	0.20990506
184	0x3d2687f6	0.040657006
185	0x3e0f10e7	0.13971291
186	0xbe4eace0	-0.20183134
187	0x3e12ed58	0.14348352
188	0xbd3cea9c	-0.04612218
189	0x3f1eb0b9	0.6198841
190	0xc054789b	-3.3198612
191	0x3e1f7422	0.15571645
192	0x3e6b291b	0.22964899
193	0x3e010f01	0.1260338
194	0x3c8f0e5f	0.017462907
195	0x3ce002a5	0.027345011
196	0xbc9addd1	-0.018904598
197	0xbe74aeff	-0.2389488
198	0xbdc3b317	-0.09555643
199	0x3d699a92	0.057032175
200	0x3d0bba54	0.034113243
201	0xbd59c0c0	-0.053162336
202	0xbda61611	-0.081096776
203	0xbd44dcbe	-0.04806208
204	0x3d681975	0.056664903
205	0x3de0b88b	0.10972699
206	0xbf67cad0	-0.9054384
207	0x40b48dfa	5.642331
208	0xbe70ea33	-0.2352684
209	0x3d1c43f3	0.03815074
210	0x3e0202e7	0.1269642
211	0x3ccf0a70	0.025273532
212	0xbe2f16b1	-0.170985
213	0xbcfc2001	-0.03077698
214	0x3d8ff7d7	0.070296936
215	0xbdde3d69	-0.10851557
216	0x3dc5abff	0.09651946
217	0x3d3fcd6f	0.046826776
218	0xbd4895c0	-0.048970938
219	0x3d903ba6	0.07042627
220	0xbcbf6c3a	-0.023367036
221	0x3ca1bbf5	0.019742945
222	0x3b787ee0	0.003791742
223	0xbf425638	-0.7591281
224	0xbfe754dc	-1.8072772
225	0x4045dc19	3.0915587
226	0x3d656565	0.0560049
227	0xba48b981	-0.0007657037
228	0x3d0d753c	0.03453563
229	0xbe6ee344	-0.23328882
230	0xbe20c699	-0.15700759
231	0xbe1a1c18	-0.1504978
232	0xbe959523	-0.29215345
233	0x3e3b37d0	0.1828301
234	0xbca3ed7b	-0.0200107
235	0x3d922089	0.07135112
236	0xbcca08cf	-0.024662403
237	0x3e1cdf5f	0.15319584
238	0xbd5ce0aa	-0.053925194
239	0x3dede9ac	0.11616835
240	0xbfb00094	-1.3750176
241	0x40a4792f	5.139793
242	0x3f477c9b	0.7792451
243	0xbb8e10bb	-0.0043354905
244	0xbe9828d6	-0.29718655
245	0x3d02e1cc	0.031953618
246	0x3e7e612c	0.24841756
247	0x3d89b3b1	0.067237265
248	0x3b077897	0.0020671242
249	0xbdeb4a61	-0.11488796
250	0x3decd332	0.1156372
251	0x3e1b1148	0.15143311
252	0x3defd293	0.11710086
253	0xbdb6cfef	-0.08926379
254	0xbdebece5	-0.115197934
255	0x3c2b3c35	0.010451366

net.0.bias f4 [128]
0	0x3ea9ddd1	0.33177045
1	0xbd4a9c02	-0.049465187
2	0xbec49941	-0.38398173
3	0xbdffbc59	-0.12487096
4	0xbd49dd01	-0.04928303
5	0x3d91a02b	0.07110628
6	0xbe856649	-0.260546
7	0x3e45e114	0.19324142
8	0xbe908b6e	-0.28231376
9	0xbeb71ddd	-0.3576497
10	0x3e35f211	0.17768122
11	0x3a81c8ca	0.0009901759
12	0x3d95f160	0.07321429
13	0x3e7c121d	0.24616285
14	0xbde2e5e5	-0.11079005
15	0xbdbddd95	-0.09270779
16	0xbdf2cbce	-0.11855279
17	0xbe323f26	-0.17406902
18	0x3d69bb88	0.05706361
19	0xbe1f7d5e	-0.15575168
20	0xbebe19d8	-0.37129092
21	0xbdcced55	-0.10006205
22	0x3e29244d	0.16517754
23	0x3f10b449	0.56525093
24	0xbdb91f26	-0.09039144
25	0xbde0c7e9	-0.1097563
26	0xbccd75b4	-0.02508054
27	0x3ea2d401	0.3180237
28	0xbe28b6fe	-0.16476056
29	0x3e8dcb2c	0.2769407
30	0xbdcad975	-0.09904758
31	0x3e60b88f	0.21945404
32	0xbd551447	-0.05202129
33	0x3e4c9d59	0.19981898
34	0x3e99fb32	0.3007446
35	0x3e72b185	0.23700531
36	0xbe4e3dd7	-0.20140778
37	0x3deab795	0.11460797
38	0xbe75ac68	-0.23991549
39	0xbcbc960e	-0.02302077
40	0x3d84e63d	0.06489227
41	0xbe680bcc	-0.2266075
42	0x3e0bfc08	0.13670361
43	0x3e04ed51	0.12981154
44	0xbd8db2e0	-0.06918883
45	0xbe4bd45c	-0.19905227
46	0xbdbf8176	-0.093508646
47	0xbcbc5f02	-0.022994522
48	0x3abb51e3	0.0014291372
49	0x3cb0d0be	0.021583911
50	0xbe806ad6	-0.2508151
51	0xbe9b6281	-0.3034859
52	0x3ec11556	0.3771159
53	0x3dbf3bf3	0.09337606
54	0x3ef87471	0.48526338
55	0xbe9717b3	-0.2951027
56	0x3e7f0a59	0.24906291
57	0x3e91003c	0.2832049
58	0x3d0d1d02	0.034451492
59	0xbc7f9a27	-0.015600718
60	0x3db2e261	0.087345846
61	0xbdce6b0f	-0.100790136
62	0xbef22187	-0.47291204
63	0x3e9392df	0.2882299
64	0x3e4a18c0	0.19736004
65	0xbf00d68d	-0.5032738
66	0xbe65b485	-0.22432144
67	0x3e654550	0.22389722
68	0x3e031dc0	0.12804317
69	0xbe43f916	-0.19137987
70	0x3dfaa8e0	0.122392416
71	0xbf02eb33	-0.51140136
72	0x3c58dd1a	0.0132363085
73	0xbe36dc33	-0.17857437
74	0x3f0be644	0.5464823
75	0xbd31a62b	-0.04337136
76	0x3e7c7e04	0.24657446
77	0x3e9bf5ca	0.3046096
78	0xbdc77c7a	-0.09740539
79	0x3ec47816	0.38372868
80	0x3e961c1d	0.29318324
81	0x3e2aa8e6	0.16665992
82	0x3dfb0441	0.12256671
83	0x3d9af5c4	0.07566407
84	0x3e424a36	0.18973622
85	0x3e0a11b2	0.13483313
86	0xbe48c21b	-0.19605295
87	0xbe1a32ad	-0.15058394
88	0x3e0afcfe	0.13573071
89	0x3dfd9b8a	0.12383182
90	0x3d42198a	0.047387637
91	0xbe4e1236	-0.20124134
92	0x3e11db60	0.14243841
93	0x3e190348	0.14942658
94	0xbde1a02d	-0.11016879
95	0x3eabb804	0.3353883
96	0x3e13b35a	0.14423886
97	0xbe6af513	-0.22945051
98	0xbe4f214f	-0.2022755
99	0x3e6a9cfb	0.22911446
100	0x3ea08a03	0.31355295
101	0xbe39a6ce	-0.18130037
102	0xbe7e5a02	-0.24839023
103	0xbd538ea6	-0.051649712
104	0x3eaa08c7	0.33209822
105	0x3eaba1ea	0.33521968
106	0x3bbee27c	0.005825339
107	0x3dd527a0	0.104079485
108	0x3e12210c	0.14270419
109	0x3d06a5ba	0.032872893
110	0x3cf75759	0.030193018
111	0x3e27ae4f	0.16375087
112	0xbe907b8b	-0.28219256
113	0x3e39f31c	0.18159145
114	0xbe0218e4	-0.12704808
115	0xbe804c93	-0.25058421
116	0xbe0fe6ec	-0.14052933
117	0x3e7f13a2	0.24909833
118	0x3e2ffce4	0.17186314
119	0x3df1738d	0.11789618
120	0xbe1aa837	-0.15103231
121	0x3d6b15fb	0.05739401
122	0xbdf1aaa3	-0.118001245
123	0x3e851949	0.25995854
124	0xbeb5963c	-0.35466182
125	0x3d00e719	0.031470392
126	0x3e73e9b7	0.23819624
127	0x3dba0afb	0.090841256
