src/training_logs_ppo/initial/ppo_checkpoint_335_1764189642.pt (torch, 480155 bytes, 42 tensors)

move_logstd f4 [2]
00000000: e9b3 1640 5a48 0a40
2.3547308 2.160666

shared.0.weight f4 [128, 17]
00000000: 1ef2 043e 3cb4 e2bd 7713 75be 48f0 603e
00000010: bdd6 4e3e 87aa 51be b26e e4bd 3379 903d
00000020: 30c6 663e 3304 4fbe 771b 223e 19e7 1fbe
00000030: f9f8 eebd 3a58 c2bd 30c9 413d 8413 2a3e
00000040: 4957 0bbe 327c 78bd 92b3 c3bd ff35 2a3d
00000050: 75e9 923d fa56 a6be 3ff5 713e ba55 23be
00000060: dca6 77bc edfd a9bc ac81 b5be 02f2 06be
00000070: a661 ecbc c417 1a3e 1293 23ba f880 d23d
00000080: a8fb 01be c15f 14be ffb1 733e ff08 943e
00000090: 55d5 073d 8153 c13d e88c bdbe 8e92 24be
000000a0: 6f26 62bc 7035 4abe 38c0 15bc 7a3f a2bd
000000b0: 7ed0 9bbd adcd 03bd ef5c e33d 1eda 0bbe
000000c0: f825 1a3e 04b1 213d 3e2a 493c 71b9 3bba
000000d0: fd49 ddbd 0806 90be dd32 83bd 4b42 ea3d
000000e0: b17b 433e 10ab 2e3e daa1 433d dd4f 3e3e
000000f0: a53b 0bbe 42f4 b73c c4ca 39bd a7b7 dbbc
00000100: 3d21 8cbd 2437 363d fd41 34be e0a3 543e
00000110: 2e1d df3d 8342 053e 7f33 9bbe 1d8d 593d
00000120: f58b 86bd 7dda 853d 0f16 c6bc cd1f d33d
00000130: 6294 38be 4b90 553e 134e df3d 11ca ff3d
00000140: 8359 003e f668 07bd 083f 263d 7810 97bd
00000150: c349 c23d c0fe ecbd c1ec b3bc d031 4dbe
00000160: 9d86 90be c256 97be 0f77 fd3c 61a6 763e
00000170: 136b 40be 3fc9 7c3e b3f4 94bd b336 f73d
00000180: d133 d13d c4ca 1a3e 4881 0abd 6a79 f4bd
00000190: 6d77 17bd b6d7 59bc 1d72 843d 3448 073b
000001a0: f660 3dbe 2d6c f53d 4905 09bb 0ef1 903d
000001b0: 7fda a6be a7f3 c7bd 6bd5 9f3e 36d8 723b
000001c0: a9ae 68be 80fa f0bd caf2 693d 08e4 30bd
000001d0: 0b1b 5c3d 8aa4 eebd 3a56 e23c 46d7 0abe
000001e0: 3eef 96bd 8bf3 273e 6d97 653d 2796 4c3b
000001f0: 6963 87be a81d 61bd f2e3 393e 6c83 f3bd
00000200: fb37 18be 612c 88bd 7cc5 0ebd 48dd b2bd
00000210: 4498 edbd 37c3 333e bb44 bf3b 9f1d b239
00000220: ccdf efbd ad49 9a3d 002d 49bd 7a5a 11be
00000230: 3868 fabd 76e6 45be f640 8abd 0863 733e
00000240: 2769 013e e65e 8fbe 9f3d 8e3d 866f f6bd
00000250: cb91 e53d 9e95 a9bd ae71 2dbe fc70 1f3d
00000260: 27e6 03be c987 fa3d d7de 913c 4ea1 a53d
00000270: feb3 58be 3add 8ebe bbe3 c6bc 522e 5bbd
00000280: 3445 3b3e 7c43 3e3e 3155 713e b723 a8bc
00000290: fa11 b33d 0ed3 42be 36ce ebbd 4aa9 e33d
000002a0: 0e9a 413d f293 a83d 1c48 13be 5491 103e
000002b0: 8da0 07be d299 b9bc cbb8 83be 7ba4 813e
000002c0: 264e cabd 7f99 59be bcaf 41be 7c87 f4bd
000002d0: 7d3a 8e3e 70b6 bebd 23f9 26be e556 6d3d
000002e0: 80ab e83c 8449 973d c708 a7bd 7a8a aabd
000002f0: 0a06 47be ef8b ea3d daf1 92be 902e 513d
00000300: 0127 f43d eb01 993e 8ea2 4c3e 688d dcbc
00000310: 0f32 f4bd f84c 65be afb2 ea3d d4dd 8ebd
00000320: 7b15 10bd e990 fabc 5fe3 dbbd 6c38 57bd
00000330: 45ce 02bc 3a08 3fbe 591b d8bd cc70 d3bd
00000340: 5b2d d9bd 0b4e 84be b109 4d3e 53d1 e7bb
00000350: ebcf 0abe 22be 273d a2b2 f8bd 561c 28bd
00000360: 7479 cfbd da29 ec3b 4228 1a3d 130b 9bbc
00000370: cc06 5abd 6a94 183e 838c 2b3d 4eac 8bbe
00000380: 798a 793d 1b0b 25be a2de 6d3e 3f5a 65be
00000390: 3a8b e1bc 46bb 3a3e 23d7 c9bd abb1 a3bd
000003a0: 4c61 693d 0cc4 863d 0370 9a3d a33e 86bd
000003b0: d100 a53d a4be 91bd dc32 d4bc 04fd 9bbd
000003c0: bf68 88bd c0c9 53be 1b58 64be e25e 85be
000003d0: 5575 453c 5a9d 69be 0138 953e 7740 dd3d
000003e0: e90c b93d 6e74 223b d8a7 2c3d 99fa 1d3d
000003f0: fbd1 823e 3bb5 43be 4a19 68bd ccda 85bd
0.12982985 -0.11069533 -0.23933206 0.2196666 0.20199104 -0.20475207 -0.11153926 0.07054367
0.2253654 -0.20216446 0.1583079 -0.156155 -0.116685815 -0.09489484 0.047311008 0.16609007
-0.13607515 -0.060665317 -0.09555735 0.0415554 0.07173435 -0.32488233 0.2362871 -0.15950671
-0.015115466 -0.020750964 -0.35450494 -0.13178256 -0.028855156 0.15048128 -0.0006239872 0.10278505
-0.12693655 -0.14489652 0.23798369 0.28913113 0.033162434 0.09439755 -0.37021565 -0.16071531
-0.013803109 -0.19746947 -0.009140067 -0.079222634 -0.07608126 -0.03217857 0.1110171 -0.13657424
0.15053546 0.039475456 0.012278138 -0.0007161117 -0.10805128 -0.281296 -0.06406186 0.11438426
0.19090153 0.17057443 0.047761776 0.18585153 -0.13596971 0.022455338 -0.045359388 -0.02682097
-0.06842277 0.04448618 -0.17603298 0.20765638 0.108942375 0.13013653 -0.30312726 0.05311309
-0.065696634 0.06535814 -0.02418044 0.103088 -0.18025354 0.20855825 0.10903563 0.12489713
0.12534146 -0.033059083 0.040587455 -0.07376188 0.09486725 -0.11572027 -0.021963479 -0.20038533
-0.28227702 -0.29558378 0.03094056 0.24086906 -0.18790846 0.24686144 -0.07273235 0.1207098
0.10214961 0.15116411 -0.0338147 -0.119372204 -0.036979128 -0.013296058 0.06467078 0.0020642402
-0.18494019 0.119835235 -0.0020907691 0.070772275 -0.32588574 -0.0976327 0.31217512 0.0037055141
-0.22722878 -0.11766529 0.057116307 -0.043186218 0.053736728 -0.11652477 0.027629007 -0.13558683
-0.073698506 0.16401498 0.056052614 0.0031217427 -0.2644303 -0.054959923 0.1815336 -0.11890301
-0.14865105 -0.066490896 -0.034856305 -0.08733612 -0.11601308 0.17554937 0.0058370507 0.00033972875
-0.11712608 0.07533584 -0.04911518 -0.1419467 -0.122269094 -0.19326195 -0.067506716 0.23768246
0.12637769 -0.2800209 0.06945347 -0.1203299 0.112094484 -0.0828049 -0.16937897 0.03892611
-0.12880765 0.1223293 0.017806454 0.08087407 -0.21162412 -0.27903157 -0.024278512 -0.05351097
0.18288118 0.18580431 0.23567654 -0.020524843 0.08743663 -0.19025823 -0.11513941 0.11116274
0.04726606 0.08231343 -0.14382976 0.14117938 -0.13244839 -0.022656355 -0.25726923 0.253208
-0.09878187 -0.2124996 -0.18914694 -0.11939904 0.27778998 -0.09312141 -0.16305976 0.057944197
0.02840209 0.07387069 -0.08155971 -0.083271936 -0.19435897 0.114524715 -0.28700143 0.051069796
0.11921502 0.29884276 0.19983885 -0.026922897 -0.119236104 -0.22392642 0.114598624 -0.06975904
-0.035176735 -0.030586677 -0.10736727 -0.052544042 -0.007983749 -0.18655482 -0.10552091 -0.10324249
-0.10604354 -0.25840792 0.20023228 -0.007074514 -0.13555877 0.04095281 -0.121434465 -0.04104265
-0.10130587 0.0072071375 0.03763605 -0.018926179 -0.05322914 0.14900365 0.04188205 -0.27279896
0.060923073 -0.16117518 0.23229459 -0.22397707 -0.027532209 0.18235502 -0.09855487 -0.07992872
0.056977555 0.06580362 0.07540896 -0.06554916 0.08056796 -0.0711644 -0.025903158 -0.07616618
-0.06660604 -0.2068243 -0.22299235 -0.26048952 0.0120519 -0.22813931 0.2914429 0.10803311
0.090356655 0.0024788636 0.042152256 0.038569067 0.25550827 -0.19112103 -0.056664743 -0.06535873

shared.0.bias f4 [128]
00000000: 59bf b7bc cfd2 b1be 8ef9 f0bd cd8b 30be
00000010: ebd0 37be ba33 8dbd 16e7 88bd 6823 c13d
00000020: b149 c1be ad3a 08be 0d4e a33d 28bd 7bbe
00000030: a3ae 0dbd 3256 4ebe 62bf d6bc 0141 c7bd
00000040: f758 4cbe f50f 8f3e 76a7 113e fac2 90be
00000050: c38b 02be f724 78bb 3ea7 3fbd 2120 263d
00000060: 1276 0cbe 4960 71be 1236 96bc 895d a5bd
00000070: 768a 87b9 5287 98be be0d 94bd 25b0 8bbe
00000080: a41d 06be 557b c6bd a7f5 9cbe b307 d63c
00000090: 908d 87be 214e b3be f68e 9dbc 471e 0cbe
000000a0: 062c b5be a8e5 6dbe 9613 55bc 37ba f4bc
000000b0: a5d8 9b3d bf13 c8be 61db 103e 310d 90be
000000c0: 110b 0d3e f224 54be 3098 afbe d761 24be
000000d0: 254a 85be 8f23 33be 4ae9 153d 3c98 84bc
000000e0: 8ec4 2e3d 20c5 80be 0626 2ebe 2521 f9bc
000000f0: 7caa 2cbd dd77 f7bc 47b1 d6bd 7e5a 43be
00000100: 7727 d1be b0cf 50be 8dcf 8fbe df28 d9be
00000110: aa74 35be 2afa 9dbb 97f3 dfbe ce3c 8fbe
00000120: 5007 c03c 486a 773e eb7a f5bb 0426 f4bd
00000130: 0881 2c3e a285 abbe b31a 11be cf3a 3dbe
00000140: 7cd6 d9bd acb1 90be 8704 08bf 77b3 dabd
00000150: 56f0 a0be 728a eabd 7bd5 5abd 524b f0bd
00000160: 1b64 b6bd 1da8 90be 317a 443d eed7 15be
00000170: 1d27 fbbd d7b1 203e e30b 61be 2a76 373e
00000180: 4733 93be 3aef 9ebe 5361 303e 095b 40be
00000190: 32f0 593e 282f 93be ef13 833c cca7 84bd
000001a0: ba83 d33c 6583 38be d94f 19be 81df ffbd
000001b0: 797d 87bd 82c3 7cbe ceca 53bd 8d05 aebe
000001c0: 7a5d 6cbe d33c bfbe b796 cb3b 49c4 94be
000001d0: a2e0 87be b455 2abe 3063 a5be 6c9e 04be
000001e0: 1685 1abd a6bd c9be 2479 29be 27f2 87be
000001f0: 9199 70be 92d1 0d3e 74a3 d1be 5080 aa3c
-0.022430109 -0.34731147 -0.11766349 -0.1724083 -0.1795079 -0.06894632 -0.06684701 0.09430581
-0.37751535 -0.13303633 0.079738714 -0.24583876 -0.034590375 -0.20150068 -0.026214305 -0.097291954
-0.19955812 0.27941862 0.14224038 -0.28273755 -0.12748627 -0.003786383 -0.046790354 0.040557984
-0.13716915 -0.23571886 -0.01833633 -0.08074481 -0.00025852368 -0.2979074 -0.072291836 -0.27282825
-0.13097245 -0.096914925 -0.30656168 0.026126718 -0.2647519 -0.35020545 -0.019233208 -0.13683425
-0.3538515 -0.23232138 -0.013005158 -0.02987395 0.07609681 -0.39077565 0.14146186 -0.28135064
0.13773753 -0.20717219 -0.34295797 -0.16052948 -0.2603313 -0.17494033 0.036599435 -0.016185872
0.042667918 -0.25150394 -0.17006692 -0.030411312 -0.042154774 -0.030208522 -0.10483032 -0.19077489
-0.40850422 -0.20391726 -0.28088036 -0.42413995 -0.17720285 -0.0048210816 -0.43740532 -0.27976078
0.023440987 0.24161637 -0.0074914596 -0.119213134 0.16846097 -0.3350039 -0.14170341 -0.18479465
-0.10636613 -0.28260553 -0.5313191 -0.106787615 -0.31433362 -0.114521876 -0.053426247 -0.11733116
-0.08905812 -0.2825326 0.047968093 -0.14633152 -0.1226332 0.1569284 -0.2197719 0.1791617
-0.2875006 -0.3104189 0.17224626 -0.18784727 0.21283033 -0.28746915 0.016000716 -0.06477317
0.025819648 -0.18018873 -0.14971866 -0.12493802 -0.06615729 -0.24683955 -0.05170708 -0.3398861
-0.23082533 -0.37351093 0.006213035 -0.29056004 -0.2653857 -0.16634256 -0.32302237 -0.12951058
-0.037724577 -0.39402503 -0.16550118 -0.26551935 -0.23496081 0.13849476 -0.40945017 0.020813137

shared.2.weight f4 [128, 128]
00000000: 4380 833c edc1 023d 9a0b 413d f15b cdbc
00000010: 7d90 6f3d 4374 ed3c a684 34bd 4a37 0d3d
00000020: 4572 10bd cfb2 823d ef2c 0bbd 6078 9cbd
00000030: 3689 bbbd 4bc3 333c 5b5b fa3c ce39 913d
00000040: 86aa 2a3d d431 d8bc 7e3b 093c bed2 313b
00000050: 88bd ab3b 29c3 f2bd 8143 9ebd 2dd5 7c3c
00000060: 49be a93d c2ac 9fbd aaef 23bd a227 d4bb
00000070: 98d2 fdbd 62ef 7abd e48c f9bc 4dc8 f1bb
00000080: 32c3 0bbd 0a29 a9bb 2183 813d b1bb 01bd
00000090: 9f9b 603d 811c dabd 65ec 413d 09c3 aebd
000000a0: 2ff1 a73c 8129 03be c704 bebd 4ce1 f83c
000000b0: 3dbb bcbc 6ece a0bd 0b66 8bbd f8b7 063c
000000c0: 25da 03bd 83e4 a9bd 89b5 863c 7be1 8dbd
000000d0: 2afb 0b3c 113f 8dbc 39d4 fcbc e047 1b3d
000000e0: 003a 2e3d 77e3 82bd b24b a3bc 72bf 2b3d
000000f0: 1f13 04bd d398 2bbd c163 fdbc 83cf 96bd
00000100: 457f 223d 8d68 f03c 0fd4 82bc 3a73 eabc
00000110: ba4f 06be 85f2 1fbc 6605 4abd 8794 493b
00000120: 7289 36bd f7a8 9cbd 4aba 70bd a964 8abd
00000130: 04ae 3bbd 7fa3 fdbd db80 87bd 40dd f33c
00000140: f9a4 09bd 9b89 1ebd 41b1 01be c96a b6bd
00000150: 3d31 66bd fab3 00bd 7e1a f3bc a606 25be
00000160: ee2a bfbd 1a3d 42bd 3599 a9bc d841 75bd
00000170: f0a0 b13b cd0a d23c f022 5c3d eeff 4fbd
00000180: 931e e8bd 9927 dcbc a298 84bd b7dd 043d
00000190: 0005 bfbd ce50 da3b 3d8d 2dbe 8e6f e8bd
000001a0: d22c b6bd 8709 92bc 61e1 b8bd 65d6 4dbc
000001b0: 54d4 363d 93a4 a1bd fcd0 043d 90f2 58bd
000001c0: c46d d3bd d3ca cf3c caa2 24bc 9f7a 79bc
000001d0: 070d 293c 4288 f3bd c698 b8bd 942f 10bd
000001e0: 2d65 46bd 115e 9cbd d50f 4bbd e664 5f3c
000001f0: 3656 b13b 93fe 933c 9eba 8fbd 0274 d2bc
00000200: 46e3 42bd 1673 01bd 35d9 f2bd 245d 02be
00000210: cb11 c23c d2ce e23c 465b c1bd 35ea a33d
00000220: ad65 6f3d f7d8 c63c 64fe 8bbd 5473 08bd
00000230: c366 dbbd 565b 283d d407 953c 521b 523d
00000240: 460e a53c 0e9d 83bd 20b6 6cbd 6572 393d
00000250: 6e33 d4bd 8bfd 2dbd ac4a 90bd 1790 f43c
00000260: d817 163c 1427 563c 68f6 b6ba 3a0e 9cbd
00000270: ed2b 2abd 6057 62bd f9f1 efbc 116c bbbd
00000280: 56c7 343b 496e cbbd 77e5 1bbd db1c 443d
00000290: 577f d6bd e4d2 f63b ac6d 0dbd 6305 e0bd
000002a0: 7cc9 ccbd 3106 60bb 327a 1b3d 0abf aa3a
000002b0: 92d3 eb3c 3d78 9ebd 9344 733d f649 153d
000002c0: a2ba 71bc de1e 37bd e9c1 cdbd 6d45 a3bd
000002d0: 662f 263d 7910 c53c 4287 3a3d 243f 873d
000002e0: 4518 debd a8bf cdbc 8da8 83bd 5b55 203d
000002f0: 439e 21bd a6d3 f3bd 9924 84bd 5755 63bc
00000300: e1a0 3abd 0911 a7bd 5da0 d53c 67e6 8ebd
00000310: 0cd8 813d 8650 043d 5152 113c c94e e33c
00000320: b912 a6bd 81c6 f43c d41e e1bd 3d60 05bc
00000330: 3e15 d5bd 742a 94bd 7b25 32bd 2e76 0ebe
00000340: 8bd3 303d 4a05 943b 67e8 2a3a ae56 a33c
00000350: a7b5 bfbd 47b0 cebc 1a95 bd3c f375 09bd
00000360: f2d4 b03d 13e3 cebd b081 edbc 83dd 6c3b
00000370: a008 acbd 8dc2 c5bd 0c7c 97bd de85 d73c
00000380: 9e6b d53a 8f67 813c f4d6 0bbe 5c25 21be
00000390: 8f63 05be f911 9abc 3b22 d33c 3306 aabd
000003a0: 865a 3ebd 900d cbbd ca6c 803d 0941 5cbd
000003b0: b60b e7bc 2f35 7abc df89 043d b6a1 4fbd
000003c0: 4be6 b63d e11c 96bb c72a 80bc de66 003d
000003d0: de0e 76bd 766f abbd 9237 633d fa01 78bd
000003e0: 6483 c6bd 4b7c 84bd b073 d4bd 514e 76bd
000003f0: 71f8 c6bc f72f ccbd e74d e8bd 84f9 f6bc
0.01605237 0.031923223 0.047130205 -0.025068255 0.058487404 0.028986102 -0.044071816 0.034476556
-0.035265226 0.06381761 -0.0339784 -0.07640147 -0.0915703 0.010971854 0.03056114 0.070911035
0.04166653 -0.026390947 0.008376 0.0027133669 0.0052410997 -0.1185363 -0.07727719 0.015431684
0.08288247 -0.07796623 -0.040023483 -0.006474451 -0.12393683 -0.06126345 -0.03046269 -0.007378614
-0.0341217 -0.005162363 0.06323839 -0.031673137 0.05483591 -0.10649968 0.047344584 -0.08533294
0.020500747 -0.12808801 -0.09278255 0.030380867 -0.0230385 -0.07851873 -0.068065725 0.0082225725
-0.03219046 -0.08295538 0.016443985 -0.069277726 0.008543769 -0.017241986 -0.030862914 0.037910342
0.04253578 -0.06391042 -0.019933555 0.041930623 -0.032244798 -0.04189379 -0.030931355 -0.073637985
0.039672155 0.029346729 -0.015970258 -0.028619397 -0.13116351 -0.009762411 -0.049321555 0.0030758695
-0.04456467 -0.07649415 -0.05877141 -0.06757481 -0.04582025 -0.123847 -0.06616374 0.029768586
-0.033604596 -0.03870545 -0.12665273 -0.089070864 -0.0561993 -0.03142164 -0.029675718 -0.16115817
-0.0933436 -0.047421552 -0.020702938 -0.059877247 0.0054207966 0.025639916 0.053744256 -0.050781183
-0.113339566 -0.02687435 -0.06474425 0.032438006 -0.093271255 0.0066624647 -0.1694841 -0.11349402
-0.088952675 -0.017826809 -0.090273626 -0.012563323 0.044636086 -0.07892718 0.032425866 -0.0529657
-0.103236705 0.025365269 -0.010048578 -0.015226989 0.010318047 -0.118912235 -0.09013514 -0.035201624
-0.048436332 -0.07635129 -0.049575645 0.013634896 0.0054118885 0.018065726 -0.07018016 -0.025690082
-0.047580026 -0.031603895 -0.11857835 -0.12730843 0.023690125 0.02768651 -0.09441237 0.08003656
0.058446575 0.024273379 -0.068356305 -0.03331311 -0.107129596 0.04110273 0.01819221 0.051295586
0.020148408 -0.0642644 -0.057790875 0.04527511 -0.10361372 -0.042478126 -0.070454925 0.029853864
0.009160958 0.01307084 -0.0013958933 -0.07619901 -0.041545797 -0.05525911 -0.029290186 -0.091514714
0.0027584634 -0.099331446 -0.03806063 0.04787908 -0.10473507 0.0075324643 -0.03452842 -0.109385274
-0.099993676 -0.0034183378 0.03795833 0.0013026905 0.028787408 -0.077377774 0.05939157 0.036447488
-0.014753969 -0.04470717 -0.10046751 -0.07972226 0.040572546 0.024055706 0.04553915 0.0660384
-0.10844473 -0.025115803 -0.06428633 0.0391439 -0.03945757 -0.11905603 -0.06452293 -0.013875327
-0.045563582 -0.08157546 0.026077444 -0.069775395 0.06340036 0.032303356 0.008869723 0.027747529
-0.0810904 0.02987981 -0.10992208 -0.008140621 -0.10404442 -0.0723466 -0.043492775 -0.1391227
0.043170493 0.004517232 0.0006519616 0.019938793 -0.09360819 -0.02523054 0.023142386 -0.03355975
0.08634366 -0.10101905 -0.028992504 0.0036142773 -0.084000826 -0.09656248 -0.07396707 0.02630895
0.0016282683 0.01579645 -0.13656217 -0.15736908 -0.1302626 -0.018807398 0.025773158 -0.08301964
-0.04647305 -0.09914696 0.0627075 -0.05377296 -0.028203826 -0.015271469 0.032358047 -0.05069133
0.08930644 -0.0045810794 -0.015645398 0.0313481 -0.060072772 -0.08370869 0.055472918 -0.06054876
-0.096930295 -0.064690195 -0.10373628 -0.060133282 -0.024288388 -0.09970086 -0.11342984 -0.030148275

shared.2.bias f4 [128]
00000000: 7ca5 a6bd d9f1 e0bd 985c 05be b5d5 5f3c
00000010: 2cc6 ecbc 5434 c63c 20ad 1c3d 7bc2 a13c
00000020: 7afb e9bd 18b0 8c3c 5311 c8bd d053 0cbd
00000030: e315 133b f788 a1bd edab cdb9 2482 12be
00000040: d221 a0bc a5fc c2bd eb7c 383c 8f0a bfbd
00000050: d900 e5bd 0c23 2d3d 4d71 a3bd b0a6 1bbc
00000060: 64cb 7abc 5586 ae38 5bea ad3c 9481 3b3c
00000070: 61d4 99bd db7a 28bd e75f d0bd 6ab6 84bc
00000080: 6b90 0e3d 725b c5bc b5cb 99bd dfd9 063d
00000090: bad4 bbbd f66e 43bd 2012 bcbd c900 98bd
000000a0: b0ec adbd 8f39 88bc 55c5 833c 93c9 aebd
000000b0: b73e 0dbe 8681 81bd 2628 78bb 9af9 ff3c
000000c0: f540 b0bc 92a1 e3bd a9bc da39 be4f 72bd
000000d0: 5e59 0dbe 92de d9bc d27f 65bc 7af7 133d
000000e0: 6bb0 81bb 60fa f8bd a183 f6bb 97d1 f0bc
000000f0: a810 81bd 13e7 2dbd 39e1 173c 0eea 45bd
00000100: 2fed d9bd 5876 b2bd 0ffe d3bc b9a5 7bbd
00000110: 0a13 f3bd 4a61 223d 876f c2bb 05d0 84bd
00000120: 805f 37bb 6d09 ca3c 642c 00be 79dc 1f3d
00000130: 003e c03b f2f5 e6bd 160c fdba 36bd 0a3d
00000140: c893 5bbd 641a a53c 6377 023d 5a77 b6bd
00000150: 34b9 c5bc a0a6 6fbd e1d2 be3c f8db eabd
00000160: b642 883c 3646 cbbd 135d abbc 40b2 d5bd
00000170: 5f58 2fbc 251d 67bd 797a 6bbd cd06 df3c
00000180: 1e92 353d 14da b2bd a39d 8ebd acb9 153d
00000190: ee01 f6bd 3b66 5cbc ad32 53bd 769c ab3c
000001a0: 7309 89bd 436b 43bd f616 eebd b6a5 dfbd
000001b0: 5874 1abd 3f53 db3c b5f8 dcbd 1520 043d
000001c0: 7340 c3bd 9996 fcbc 8347 87bd d137 0abe
000001d0: b5db a3bd bf41 85bd faed 51bd eeb6 a3bd
000001e0: 772d c2bd 2e16 fd3c 7912 a5bc 1b42 85bd
000001f0: 7e20 bebd aead a7bd 8fb4 373d 4aca a6bd
-0.081370324 -0.10983629 -0.13023603 0.013661792 -0.02890309 0.024194874 0.038251042 0.019746056
-0.114249185 0.017173812 -0.09768929 -0.034259617 0.0022443465 -0.07887452 -0.00039228742 -0.14307457
-0.019547377 -0.09520844 0.0112602515 -0.09328186 -0.11181802 0.04226975 -0.07980595 -0.009500191
-0.015307281 8.321988e-05 0.021229913 0.011444468 -0.07511211 -0.04113279 -0.10174542 -0.016200263
0.034805696 -0.024091456 -0.07509557 0.03292262 -0.09171434 -0.047713242 -0.091831446 -0.07422025
-0.0849241 -0.016629009 0.016085306 -0.08534541 -0.13793455 -0.06323533 -0.0037865727 0.031246949
-0.021515349 -0.111148015 0.00041720763 -0.05915808 -0.13803622 -0.026595388 -0.0140075255 0.036124684
-0.0039577982 -0.1215713 -0.0075230156 -0.029396815 -0.06302005 -0.042456698 0.009270006 -0.048318915
-0.10640942 -0.087139785 -0.02587798 -0.061437342 -0.11868866 0.039643563 -0.0059337053 -0.06484989
-0.0027980506 0.024662698 -0.12516934 0.03902862 0.005866766 -0.11277379 -0.001930597 0.03387185
-0.053607732 0.020154186 0.031852137 -0.08909483 -0.024136163 -0.058508515 0.023293914 -0.11467737
0.016633373 -0.09925501 -0.020918405 -0.10434389 -0.010702222 -0.05642428 -0.057489846 0.027224923
0.0443288 -0.08733001 -0.069636606 0.036554024 -0.12012087 -0.013452108 -0.051562 0.02094863
-0.066912554 -0.047709715 -0.11625473 -0.10920279 -0.03770861 0.026773093 -0.107896246 0.03225716
-0.09533777 -0.03083353 -0.06605437 -0.13497855 -0.0800089 -0.06506681 -0.051252343 -0.079938754
-0.09481328 0.030894365 -0.02015041 -0.06506749 -0.09283541 -0.08187424 0.04484993 -0.08144052

move_mean.weight f4 [2, 128]
00000000: d259 7c3b d260 22bd 2964 d6bb cc15 033d
00000010: 3222 253c 8684 103c 1ada d03b fa3d 6e3d
00000020: aa09 c33c 43e0 d438 ed83 1cbb 613c 6e3b
00000030: 0a6b d3ba 1481 473d 8f91 763c 71c6 f6bb
00000040: f3ca 113d b0a9 a73c 67af 55bc 8603 f2bc
00000050: 8419 0d3d 3a4b 753d 9c66 e4bc 83af 853c
00000060: 6546 44bc 8037 453d 67d0 323d 2945 053c
00000070: 15dc 5c3c baff bebb 76c4 3f3c adfc 40bc
00000080: c912 c63c 6ff1 8f3b 535e 193d fa6a d8bc
00000090: 033d a73c 2f27 803d bc24 81bd 8ed4 8b3c
000000a0: c525 543b 8728 2a3c b510 5b3d aab2 7f3c
000000b0: 9017 5ebc bf2a 0cbb c902 c4bc b074 16bd
000000c0: 3ea6 ce3c 3784 3fbc 5ace afba 9226 dfbb
000000d0: f1e1 b6bb dae1 b03a f367 7c3c f9a7 f4bc
000000e0: 403f 2ebd 2898 e1bc 51c3 e73c bb98 cebb
000000f0: 6020 90bb d5ee f93b 08c3 78bb 929c febb
00000100: f78b c5bb d303 ef3b e63e 113b 3985 15bc
00000110: beb1 78bb 9a9d 2a3d cf73 1d3d 0716 393d
00000120: 8777 36bc 9db3 943c 22fa bb3b b02f 90bc
00000130: 6252 93bc c801 d9bc 5578 433d 944a 45bc
00000140: 618f 4cbc 375b 623d e954 b23b 3aeb 413c
00000150: 8330 b23a c15b 04ba a44a 203d b9b4 753b
00000160: a151 063d f29d 313d a271 3bbd d9dc 2dbd
00000170: dff2 553c 5930 61bd b4dd 5a3c ecc3 903d
00000180: 0061 583d 977b cebc 35b3 8a3d 097c a03c
00000190: 3004 cc3b fc23 193d d885 89bc 628b 0c3c
000001a0: 0039 213a d283 05bc 4a49 2d3d b95e eb3c
000001b0: 47d1 133c 2fa2 efba 2b2a 993b 01d9 0bbc
000001c0: c448 7fbd 648c 083c f518 e53a d450 2fbc
000001d0: cc79 d13c aed8 633c b570 133d e3ca ea3c
000001e0: aa9d 2ebd 0751 34bd 1b87 713d 068e cbbc
000001f0: 2ce7 253a 6761 72bc 731d 713b 4ef0 a73c
00000200: a37d df3c 1635 a33c 9784 633a 92f2 d93b
00000210: 4f86 293d c734 8d3c a2d7 0c3c 324d 39bc
00000220: 086b 4f3c 9778 47bc 09d8 f5bc bd67 053c
00000230: e445 a63d 026f cebb 29b5 04ba 384a 05bc
00000240: 9906 c8bb 8d27 24bc e993 98bc ab9d 1c3d
00000250: d172 523d 6dd6 183b dff8 413d 2be2 e5bc
00000260: 33db aebc 2097 d4bc 4624 173d 6540 d53b
00000270: 46d9 0cbc 34aa 113c 0172 0ebc 317e ebbb
00000280: ed2e a4bc cb1a 1fbb 536c ab3c 2554 f8bc
00000290: 3061 dfbc a4c4 57bd 8814 3e3d 00ed b6bb
000002a0: 06d5 043d 7246 1e3b 1f91 48bc cc5c ba3c
000002b0: 0822 17bc e23d f83c daae fc3b 6ab0 d7bc
000002c0: 172f 9d3b 9356 8abc b9ef c0ba 3702 39bb
000002d0: 9696 ac3c 7d07 2d3d 3e56 563c 263c 473d
000002e0: 9b9b 50bd 6b6e 633b 7f9d 073d ffc1 a23b
000002f0: 6f42 b63c 6efd 0ebc e499 98bc ddd0 0f3d
00000300: 3885 4a3c 0112 27bc 2405 aebc 3152 b6bb
00000310: 3125 d3bc ae26 4c3c d4fd 333b d397 75bd
00000320: 7577 3f3c e968 3dbc 0516 18bd 2f38 3a3c
00000330: e77e 14bd 668e 02bd f346 6abd 10c0 c23b
00000340: 3f37 55bd 6ab1 62bd 06da ffbb b02d 893c
00000350: deb1 3abc 0d9f 30b9 1418 08bb 4f60 1fbd
00000360: e45c 2dbc 613d 67bc 3e94 303c 6132 6d3a
00000370: c5b1 143a 49d0 c23c b546 3b3d 88b6 713c
00000380: e9b0 873c 304d 3abd de2f c93c f8e1 9f3c
00000390: 76de 053d 8b3c 743d 6eb4 84bd cb9c 4dbc
000003a0: b3f5 2c3d 2f62 033c a4a0 abbc 02b9 803c
000003b0: be74 bd3c 7957 133d 4f4f 7dbb ce7c e639
000003c0: 36ac 1a3d 70c9 11bc 1781 233d b106 8bbc
000003d0: 9fc2 16bb 17e1 913a cd8e 19bd a550 5f3c
000003e0: 8891 8e3d f8ed 363c ecd8 abbd a5d8 9f3c
000003f0: a6ab f63a 5313 d23b fc3b 1ebb 7e00 b73c
0.0038505686 -0.039643116 -0.0065427017 0.03200321 0.010078954 0.008820659 0.006373656 0.058164574
0.02380832 0.0001015072 -0.0023882345 0.0036351907 -0.0016129923 0.048707083 0.015049352 -0.0075309803
0.035593938 0.020466655 -0.013042307 -0.029542696 0.03444816 0.059886195 -0.02788096 0.016319042
-0.011979674 0.048148632 0.04365578 0.008134165 0.013480206 -0.005828825 0.011704555 -0.011778993
0.02417888 0.004392795 0.03744347 -0.026418198 0.020414835 0.06257474 -0.06305835 0.017069127
0.0032371145 0.010385639 0.05348273 0.015606562 -0.013555422 -0.0021387783 -0.02392711 -0.036732376
0.025225755 -0.011689237 -0.0013412938 -0.006810018 -0.0055811335 0.0013495043 0.015405643 -0.029865252
-0.04254079 -0.027538374 0.028291376 -0.006304828 -0.0043983907 0.007627348 -0.0037958045 -0.0077701295
-0.006028648 0.007294157 0.0022162735 -0.009126001 -0.003794774 0.041654207 0.03844052 0.045187023
-0.011136896 0.018152053 0.0057366053 -0.017600864 -0.01798362 -0.026490107 0.04772218 -0.012041707
-0.012485356 0.05526277 0.005442251 0.011835868 0.001359478 -0.0005049073 0.039133683 0.0037491752
0.03279269 0.04336352 -0.045762666 -0.042446945 0.013058393 -0.05497775 0.013358522 0.07068619
0.05282688 -0.025205417 0.06772462 0.019590395 0.006226085 0.037387833 -0.016787454 0.008578153
0.0006150156 -0.008149104 0.042306222 0.02873169 0.009022064 -0.0018282587 0.0046742163 -0.0085356245
-0.062325254 0.008334253 0.0017478751 -0.010700423 0.025570773 0.013906641 0.035996158 0.028661197
-0.04263083 -0.044022586 0.058966737 -0.024847995 0.0006328698 -0.01479373 0.0036791235 0.020500328
0.027281588 0.019922774 0.000867912 0.006651231 0.041387852 0.01723708 0.008596333 -0.011309909
0.012659796 -0.012174747 -0.03001024 0.008142409 0.08118799 -0.0062998543 -0.00050623954 -0.008135371
-0.006104302 -0.010019195 -0.018625217 0.0382363 0.05137903 0.0023321167 0.047356483 -0.028061947
-0.021344757 -0.025950968 0.036899827 0.0065079206 -0.008596724 0.008890677 -0.008694173 -0.007186674
-0.020041907 -0.0024277444 0.020925676 -0.03031356 -0.027268022 -0.052677765 0.0464063 -0.005582452
0.032429717 0.0024150875 -0.012241631 0.022749327 -0.009224422 0.030302946 0.0077112736 -0.026329238
0.0047968733 -0.016886985 -0.001471988 -0.002823008 0.021067899 0.04224347 0.013082085 0.048641346
-0.050929647 0.0034703265 0.033109184 0.004966974 0.022248475 -0.0087274145 -0.018628068 0.035111297
0.012360863 -0.010197164 -0.021242686 -0.005563997 -0.02577457 0.012460394 0.0027464526 -0.059959244
0.011686196 -0.011560657 -0.037130374 0.011365934 -0.036253836 -0.031874083 -0.05719657 0.005943306
-0.05205464 -0.055344976 -0.007807973 0.016745418 -0.011394946 -0.00016843919 -0.0020766305 -0.038910206
-0.010581229 -0.014113755 0.010777531 0.00090483396 0.00056722417 0.023780959 0.04572173 0.0147529915
0.01656385 -0.045483768 0.024558958 0.01951693 0.03268286 0.05962805 -0.06479727 -0.012549589
0.042226505 0.008019014 -0.020950623 0.015713219 0.023126956 0.035972092 -0.0038652008 0.00043962005
0.03776189 -0.008898124 0.03991803 -0.016970964 -0.0023004187 0.0011129704 -0.0374897 0.013630067
0.06961352 0.011165135 -0.08390984 0.019512484 0.0018819466 0.006410995 -0.002414464 0.022339102

move_mean.bias f4 [2]
00000000: d3f9 783e 2c7b aebe
0.2431405 -0.34078348

food_logits.weight f4 [3, 128]
00000000: cf1c 0ebd 7de7 a13c ddfd ac3c 6061 9dbc
00000010: 0a6a ca3c bdf1 b8bc a2ac 003c 74bf 863d
00000020: 767e aebc 0993 d8bc 9af1 063d 566d 24bd
00000030: c27b 67bd 0857 cabc c76a 233c b455 363d
00000040: ed57 02bd db43 35bc 374e 5c3d 505d 7ebd
00000050: beff 4e3d ef8d 2f3c 46d3 58bd c988 8dbc
00000060: 3b2f efbb b6c8 553d f73c 2a3d f23c 08bd
00000070: 4203 ed3b be74 c3bc 1807 10bd a7f0 473d
00000080: 824d 693d 6b3f 473d 8b0c 333d 07e4 c1bc
00000090: 0d60 883d 2d52 643b 87c6 053d 17ff 50bd
000000a0: d73b adbd eb28 9d39 fa07 bb3c 32e5 91bc
000000b0: 6322 36bc d359 103d fc39 1abd 1051 973d
000000c0: cb01 293d 4c17 d8ba 8795 a4bd 3a9f b63c
000000d0: 2155 373d 43df a33b e1b4 89bd c30a 42bd
000000e0: 37ea b43c e109 95bc e6c3 643c 061b e33c
000000f0: 812a 2b3d c807 36bd 4ada 813d 03b9 1bbc
00000100: 8fab a43d 1d86 4d3d 036c 813d feef e83c
00000110: f6a1 dbbb 1001 323d 97ec a03c 3c68 8f3d
00000120: f39d 813b d4ec 043d 3ae3 423c 6841 dcbc
00000130: 1b49 553d f71f 383d e275 2c3d 7a8e 293d
00000140: 07ff 3d3d 4fb3 9f3d f78a 5c3d c728 6b3d
00000150: 4a59 bcbc 3445 55bd 477b d53c a1b2 973d
00000160: a4c8 f7bc f0de 043d 4a53 ecbc ac3f a1bc
00000170: aa54 fb3c 1c25 0c3d c8dd 1cbd efd9 dabc
00000180: 397a 59bb 30e4 dabc b518 efbc c037 ebbc
00000190: fc71 56bd 9d77 27bd 2ec5 6b3d 7dbc 22bd
000001a0: 72ca 93bd b5a8 b0bc 6d68 35bd edf3 6a3d
000001b0: 9159 283d e7a3 3e3d 3f3a 73bd f966 3c3c
000001c0: d66c 5fbc 99f8 57bd 81e6 2c3d c0f7 a43c
000001d0: bb68 aa3c a7e5 a23b 72ee 743c eef2 d43c
000001e0: f55f 02bd 2a46 223c 409e 0ebd 504e 46bd
000001f0: 6f69 d53a e3c2 f03c e2eb afbc de12 1a3d
00000200: f0f9 29bd d7b6 c43b ea5f 4abc cdb7 a9bc
00000210: 0b41 67ba b529 073d a568 833c 8dca 453d
00000220: 084d 0ebd 942a 00bd 9620 953c 11fd 25bc
00000230: d7a7 083b 1e0d 893d ba89 9cbb 6923 1b3c
00000240: 552e 413d a01c 6dbb d3b6 e43c dd14 96bd
00000250: 5eaf 34bc 5a7a 0a3d fc0c f7ba c805 cebb
00000260: ad3d 4a3b 694b 463d 62fc c83b d8f2 ecbc
00000270: 9416 f33b 8de0 b5bc f041 86bc cf7b dd3c
00000280: 3e8f ee3c d4d0 ee3c 73aa 2c3d fc59 d7bc
00000290: 1240 813d e205 9c3d 74e7 07bc 5fc7 2fbd
000002a0: 68ad 143c 30d4 aa3c 40e9 f8bb ad2e 06bb
000002b0: 669b 253c 8974 8f3d 2404 fbbc c7c7 883d
000002c0: c1c7 7c3b ac79 e23b 7c31 8bbd f7c1 bcbc
000002d0: 3b32 533d bd4e 843d 3b9b c6bc 4df8 82bd
000002e0: a265 003d e735 753b b3b8 203d 76e9 743d
000002f0: 512d 073d 2c5a 07bc 1bc8 913d 6e3b 3e3d
00000300: ffaa 3f3d 8523 723d 0a12 04bd 162b 623a
00000310: f69f 60bc 2421 c43a 9a0d 0c3d da8b a4bd
00000320: e87e 613c 00b6 1c3d d34c 983d 78f5 b0bc
00000330: a928 bebc a43f eb3c 3934 a43d beeb 5b3d
00000340: 7b0f 053d b4bc 2ebd 701c 943d 744b 7c3d
00000350: 9857 9abc 329b 82bd a93d af3c 126f 623c
00000360: fd69 62bd 05c4 c13b e14e 5fbc 0abb 84bd
00000370: 790e a23c a3ce 793d 0008 c33c 6bcc 1f3c
00000380: 25dc 01bd dede 0dbd 404f f0ba 44e5 23bd
00000390: ace9 85bd 79dc 79bc b6c0 563d 07d9 f1bc
000003a0: ad3d 413d 8ab4 b8bc 14bf 403c 4352 bd3c
000003b0: 53f2 34bc 1538 a43c 4b37 b7bc 6b76 803c
000003c0: 3936 04bb 5179 c6bc 471f 32bd e80a 263d
000003d0: 62ca 193d 41f9 933c 4aa4 40bd 5121 743d
000003e0: 8c4a 43bd 072a e03c b897 4cbd ce26 42bd
000003f0: 25a4 433d b750 c7bc aeff c1bc 3922 ccbb
-0.034695443 0.019763703 0.021117145 -0.019211471 0.024708766 -0.022576207 0.007853659 0.065794855
-0.021300536 -0.0264373 0.032945253 -0.040143333 -0.05651451 -0.024699703 0.009974188 0.044515327
-0.031822134 -0.011063541 0.05378553 -0.06210071 0.050536864 0.010714992 -0.05293586 -0.017277138
-0.0072993315 0.052193366 0.041562047 -0.033261247 0.0072330544 -0.023859378 -0.035163015 0.04881349
0.056958683 0.048644464 0.043713134 -0.023668302 0.06658945 0.003483902 0.032660034 -0.051024523
-0.08458679 0.0002997586 0.022830952 -0.017809484 -0.011116597 0.035241913 -0.037652954 0.07388508
0.041261476 -0.0016486435 -0.080363326 0.022292722 0.04475892 0.00500098 -0.06723953 -0.047373544
0.022084339 -0.018193187 0.013962721 0.027722847 0.04178858 -0.044441015 0.063404635 -0.009504559
0.08040535 0.05017673 0.0631943 0.02843475 -0.006702657 0.043458045 0.019644065 0.07002303
0.0039555966 0.03245242 0.011894995 -0.026886657 0.052071672 0.04495236 0.04210461 0.041395642
0.04638579 0.07797872 0.053843465 0.057411935 -0.022991795 -0.05206795 0.02605976 0.07407118
-0.03024704 0.032439172 -0.02884831 -0.019683681 0.03068002 0.034215078 -0.038297445 -0.026715247
-0.0033184423 -0.026720136 -0.029186586 -0.028713107 -0.052354798 -0.040885556 0.057561092 -0.039730538
-0.07216348 -0.02156482 -0.04428904 0.057361532 0.041101042 0.04654303 -0.05938172 0.01149916
-0.013636788 -0.052727316 0.042212013 0.020137668 0.020801893 0.0049712243 0.014949428 0.025994744
-0.031829793 0.009904424 -0.034818888 -0.04841453 0.0016282032 0.029389804 -0.021474782 0.03761565
-0.041498125 0.0060032415 -0.012351969 -0.020717526 -0.0008821643 0.03299876 0.01604111 0.04828887
-0.03474143 -0.031290606 0.018204015 -0.0101311365 0.0020851993 0.06691955 -0.0047771605 0.009468892
0.047163326 -0.0036180392 0.027919209 -0.07328198 -0.011028139 0.03380809 -0.0018848474 -0.0062873103
0.0030859516 0.04841176 0.006133602 -0.02892439 0.007418463 -0.0222018 -0.016388863 0.027036576
0.029121038 0.029152311 0.04215474 -0.026288025 0.063110486 0.076183096 -0.008294929 -0.042914744
0.009074546 0.020853132 -0.007596165 -0.0020474598 0.010107851 0.07004649 -0.030641623 0.066787295
0.003857121 0.006911477 -0.06796548 -0.023041708 0.051561575 0.06460331 -0.024243942 -0.06395016
0.031346925 0.0037416162 0.039238643 0.05979296 0.0330022 -0.008261245 0.07118245 0.046443395
0.046793934 0.059115905 -0.032243766 0.0008627636 -0.013710013 0.001496349 0.03419266 -0.08034487
0.013763167 0.038259506 0.07436528 -0.021601424 -0.023212748 0.02871687 0.08017773 0.05369162
0.032485466 -0.04266043 0.072319865 0.061595395 -0.018840596 -0.063772574 0.021391707 0.013820427
-0.05527686 0.00591326 -0.013629646 -0.06480987 0.019782292 0.06098808 0.023807526 0.009753327
-0.031704087 -0.03463637 -0.0018334165 -0.040013567 -0.0653871 -0.015250319 0.052429877 -0.029522432
0.04717796 -0.022547025 0.011764307 0.023110515 -0.011044103 0.020046273 -0.022365233 0.015681466
-0.002017392 -0.02422777 -0.04348686 0.040537745 0.037546523 0.01806319 -0.04703168 0.059602086
-0.047678515 0.02736379 -0.049949378 -0.04740029 0.047763962 -0.02433048 -0.023681488 -0.0062296656

food_logits.bias f4 [3]
00000000: 3dab 0cbe 8714 a63d d1f5 833d
-0.13737197 0.08109384 0.0644337

net.0.weight f4 [128, 17]
00000000: cf48 163e 46a8 25be f56a b33f 8921 a4c0
00000010: 7fd9 00bf f3d6 90be a471 0cbe a45c 213e
00000020: 3c19 26bd ccaf 723d 9d54 0a3e e3f3 07be
00000030: 64f9 293e 5a14 893c 9d65 3ebd f03f 423e
00000040: 69e6 f13d fd9e d83d 02a4 a3bd d848 14c0
00000050: f416 7140 d5c8 0040 5bde 3abe 8efb e63d
00000060: 4b8c c0bd caf1 303e b493 b23d 3292 07be
00000070: dddc 29be 1dfe 68be 9ed4 c2bd bd5a cb3d
00000080: aa4d aabd 8794 853b 581f c9bc 5f2e fb3b
00000090: a4fa 893f ce6f b4bf 9e34 47c0 a81d be3d
000000a0: 1552 1a3c 5d2d 553d a563 d73d b069 c83b
000000b0: 183c 063e e404 733d e12e 783d 26a8 5a3d
000000c0: 9bec d7bd bf40 e63b 0e88 68bd 882b ebbd
000000d0: 5a3c c3bd 5383 913f 1744 8bc0 259c 9ebe
000000e0: ab17 bcbc 7718 713e a259 2bbe f72a 18be
000000f0: e2f0 3ebd 96bd 12be 5174 41be 3d8f 1cbe
00000100: ca1c e2bd 6f3b 2a3e 98d8 5f3e e119 ac3d
00000110: c1c6 b73d 13fc 5bbe 74e7 ac3f fe73 773f
00000120: 5567 31c0 b8c1 d0ba 722f 42be 7672 c8bd
00000130: bd95 03be 1d4f 2b3e 4091 02bd 0b35 983d
00000140: ec66 53be f4a3 533e 20db cd3d 06eb 223b
00000150: 7580 fcbd 645b d0bd 531f 78bd 0e2e de3f
00000160: 5369 debf 7d38 01c0 c8d6 97be 777d e3bc
00000170: e7a1 12bd 5a26 0cbe 10c3 41be 5751 423e
00000180: 1fd5 bcbc aea6 b6bd 097d 533c 1123 cc3b
00000190: 29a0 bebd 2457 eabd 884b 60bd 9f1a bfbd
000001a0: 706e edbf 3149 b040 82a2 5a3f 2edf 38bd
000001b0: beef ae3d 3066 343e c06d ecba f63e 63bd
000001c0: 6018 643e 5f71 af3b 4743 703c 08b3 bfbc
000001d0: c62f 57bd 3fba df3c 0590 983d ce0a 423e
000001e0: f0da b23d 4e6a 0d40 a530 bcc0 56db 5fbf
000001f0: 0093 403e b953 95bc 71a2 a13e 3167 623e
00000200: 2fb5 bf3d 6f5f 5bbd 1c89 0dbc 3481 83bd
00000210: ceb9 e1bc d6ec 363e 633c ce3c cd45 81bd
00000220: 3d37 d5bd c433 463a 848f aa3f 59b7 d0bf
00000230: 8fbf debe da88 7f3e fdb1 543e d6be 87bd
00000240: 89a6 71bb 47bb 5b3d d5ed 4b3c 6cdf 38be
00000250: 41dc 663d 2ee4 ff3d 33a6 c73d 45e1 293d
00000260: 15ec 52be 3e4b b43d c412 413d 6315 ebbf
00000270: 5af3 c840 4ac5 6d3f 80ea aebd 49ab 313d
00000280: 145e 59bd 263c f93c dc3b 973d 122e fa3c
00000290: dc8c 453d bab0 29be b0fd b7bd 6a28 5a3e
000002a0: 616a 123e 85dc cc3c fb7d 203e 3056 8ebd
000002b0: a38e ffbf 0880 3240 7971 6640 e411 2cbd
000002c0: 62e9 9f3c a1ba 59bd 83b8 bf3d a9b1 5abe
000002d0: 432c 99be 528c b13c 05b8 6e3d 1c44 643e
000002e0: 545e a03c 42fd 2e3e 59fe 17be f867 263e
000002f0: 5c8f 51bc 377d e43e 840d 72c0 c66e bb3e
00000300: abe1 1f3e 1783 b63d 13b3 7fbd 1404 b03d
00000310: c816 45bd 8d12 81be 2cb2 f1bd 1f17 833d
00000320: 0cde 823d 29e0 69bd 3e4f 5cbd c3b8 2e3c
00000330: 091a 3d3d 2c7f 8c3d 9b33 37bf 7018 c340
00000340: f179 42be c04a 963d 9cfa 093e f607 063d
00000350: c4bc 2dbe fd18 63bc 2d53 9e3d 886e 9bbd
00000360: 531b c03d 9a6e 763c 1c9c e7bc 6c87 8a3d
00000370: 8ce0 81bc f110 093d e419 223b 93db 5ebf
00000380: 1f7b 19c0 e114 7440 6c63 863d 3f50 5838
00000390: 62f1 4639 01f1 83be 3da9 59be c2f6 24be
000003a0: 9781 7fbe 2e15 093e ceb7 9f3c 5b81 473d
000003b0: 44ee 99bd d3a6 433e 7993 37bc 3d3f bd3d
000003c0: 47f1 b7bf 0c5c af40 5eee 993f fa70 ecbc
000003d0: 7598 70be 0d2c ed3c 8e85 8f3e 4fc0 e93d
000003e0: 06bc 29bd 054b cdbd e6ca 0a3e fd4b 013e
000003f0: 5b99 1b3e 2d7a acbd 1519 14bd 458d 443c
0.14676212 -0.16177472 1.4017016 -5.1290936 -0.5033187 -0.28288993 -0.13715225 0.15757996
-0.04055141 0.059249684 0.1350884 -0.13276629 0.16599041 0.016733337 -0.046483625 0.18969703
0.118115254 0.105771996 -0.079902664 -2.316946 3.767026 2.0122578 -0.18248884 0.11278449
-0.09401759 0.17279735 0.087195784 -0.13239363 -0.16588159 -0.22753187 -0.0951321 0.09929416
-0.083155945 0.0040765437 -0.024551079 0.00766544 1.0779614 -1.409662 -3.1125865 0.09283
0.009418984 0.052045215 0.105170526 0.0061161146 0.13108861 0.059330836 0.060591582 0.053383015
-0.10543176 0.0070267613 -0.056770377 -0.11482912 -0.095329955 1.1368202 -4.3520617 -0.30978504
-0.022960505 0.23544489 -0.16733411 -0.1486014 -0.046616443 -0.14330134 -0.18892027 -0.15289016
-0.11040647 0.16624235 0.21859968 0.084033735 0.08973456 -0.21482877 1.3508134 0.96661365
-2.771932 -0.0015926873 -0.18963411 -0.09787457 -0.1285009 0.16729398 -0.031876802 0.07431992
-0.2064473 0.20668012 0.100515604 0.0024859323 -0.12329189 -0.101736814 -0.060576748 1.7357805
-1.7375892 -2.0190728 -0.29656053 -0.027769787 -0.035798933 -0.13686505 -0.18922067 0.18976341
-0.023050843 -0.089185104 0.012908229 0.006229766 -0.09307892 -0.11442402 -0.054759532 -0.093312494
-1.8549328 5.5089345 0.8540422 -0.045134716 0.08541821 0.17617106 -0.0018038079 -0.055479966
0.22274923 0.005354091 0.014664478 -0.023400798 -0.052535795 0.027310489 0.074493445 0.18949434
0.08733165 2.2096133 -5.880938 -0.87444055 0.18806076 -0.018228399 0.31569245 0.22109677
0.0936073 -0.05355781 -0.008638646 -0.06421128 -0.027554419 0.17863783 0.025175279 -0.063121416
-0.104109265 0.0007560814 1.3325047 -1.6305953 -0.43505523 0.24954548 0.20771022 -0.06628196
-0.0036872944 0.0536454 0.01244684 -0.18053979 0.056362394 0.12494694 0.09748497 0.0414746
-0.2059787 0.08803414 0.047137037 -1.8365902 6.279706 0.92879164 -0.08540821 0.04337624
-0.053068236 0.030424189 0.07384464 0.030539546 0.048230037 -0.16571322 -0.08983934 0.21304479
0.14298393 0.025007496 0.15673058 -0.06950033 -1.9965404 2.7890644 3.6006758 -0.04200925
0.019520465 -0.0531565 0.09361365 -0.21356834 -0.29916582 0.021673355 0.058280963 0.22291607
0.01957623 0.17088798 -0.1484312 0.16250598 -0.012790527 0.4462678 -3.782075 0.3660795
0.15613429 0.08911722 -0.062426638 0.08594528 -0.04811743 -0.25209466 -0.11801562 0.064008944
0.06390008 -0.05709854 -0.05378651 0.010664168 0.046167407 0.068601936 -0.7156312 6.096733
-0.1899183 0.07338476 0.13474506 0.032722436 -0.1696654 -0.013860938 0.07730708 -0.075894415
0.09380212 0.015041018 -0.028272681 0.06764111 -0.015854143 0.033463422 0.002473467 -0.87053794
-2.3981397 3.8137743 0.06561932 5.1573148e-05 0.00018972674 -0.2576981 -0.21255966 -0.16109756
-0.24951778 0.13386986 0.019496825 0.048707347 -0.07516149 0.19106607 -0.011204594 0.09240577
-1.4370507 5.479986 1.2025869 -0.028862465 -0.23495658 0.02895167 0.28031582 0.11413633
-0.04143908 -0.100240745 0.13553962 0.12626643 0.15195219 -0.08421741 -0.036156733 0.011996572

net.0.bias f4 [128]
00000000: 13ba a73e 24d4 b3bc c25b b9be ba4c e6bd
00000010: 1771 a3bd 8479 6c3d 36ae 82be 5698 733e
00000020: e826 aabe 2429 afbe c947 4d3e 0354 013d
00000030: 2cfc 003d c819 a13e 61e7 00be e3db 01be
00000040: f3ec ddbd 420b 1bbe 7203 cd3d 002a 4bbe
00000050: b17c dbbe 8b9a b0bd 5ac5 343e eb9d 1c3f
00000060: 3eed 8bbd 176e 44bd eb6a 4a3d 57fd ad3e
00000070: 22d0 47be 142c 9a3e b0dc adbd a21f 843e
00000080: bb0c b2bd b134 583e 5731 923e 5110 9a3e
00000090: e51a 4dbe eb70 af3d 65c8 7fbe d7ad 5bbd
000000a0: 5dcb 0b3e 886d 5abe 5c69 1e3e a1a6 293e
000000b0: d5ac 98bd b5b4 58be 2380 2abc 3474 033d
000000c0: bbde 05ba 1314 2e3c 74fa 85be c6c2 a8be
000000d0: 37ec ae3e ab3d 843d 7177 e53e 5e85 81be
000000e0: ed19 693e f2da a43e 2551 8c3d e652 6fbc
000000f0: 0d34 6e3d 12be 05be 6251 0abf 7c25 913e
00000100: 5d8d 503e bede ffbe 19a7 60be 1017 963e
00000110: f66c 093e 3023 7abe ac3e bd3d 3c5e f2be
00000120: 5a20 33bc a60c 3cbe 7da2 1a3f bcde 73bd
00000130: 3cb7 883e 4544 a23e 56ef abbd 098e cc3e
00000140: d76f a03e 03e3 423e 5b1c d93d ad84 d33d
00000150: d36f 5b3e 2011 1f3e 03de 5fbe c40e 42be
00000160: 7d76 203e c3b1 fd3d c1f4 843d a2a9 25be
00000170: bb27 1b3e e4bb 383e 1f19 08be 0734 b73e
00000180: 1f8d 713e 75a7 21be 9a0f 61be 8aa6 7f3e
00000190: 9fc6 c83e 1b33 a5bd a479 8fbe 96fb 99bd
000001a0: 17b5 bd3e f1df c63e afb8 8d3d 027e d73d
000001b0: a319 123e 0292 c63c 2fce a83c 7eb8 063e
000001c0: ec30 9cbe 54bc 433e 6853 c6bd 303d 7ebe
000001d0: 04a6 0ebe f5d2 8d3e 2223 403e ea91 223e
000001e0: 42de 3cbe 93d3 a23b c1b0 aabd 2eaf 833e
000001f0: a1cb cbbe fcd5 253d 9942 6b3e 5945 cf3d
0.3275915 -0.021951742 -0.36202818 -0.11245103 -0.079805546 0.057733074 -0.25523537 0.2378858
-0.33232808 -0.34211075 0.20046915 0.03157426 0.03149049 0.31464982 -0.12588264 -0.12681536
-0.1083621 -0.15141013 0.10010423 -0.1984024 -0.4286857 -0.08623227 0.17653409 0.61178464
-0.0683236 -0.047956552 0.04941837 0.33982345 -0.1951299 0.30111754 -0.084893584 0.25805384
-0.086938344 0.2111385 0.28553268 0.30090573 -0.2002979 0.08566459 -0.24978788 -0.053632583
0.13651796 -0.21330845 0.15469879 0.1656747 -0.0745484 -0.21162684 -0.010406527 0.03209324
-0.0005106737 0.010624903 -0.26167643 -0.329611 0.34164593 0.06457075 0.4481769 -0.25297064
0.22763796 0.32198292 0.068514146 -0.014607167 0.05815511 -0.13060787 -0.5403043 0.2834891
0.20366426 -0.49974626 -0.21938743 0.2931447 0.13420472 -0.24427485 0.09240469 -0.4733752
-0.010933006 -0.183642 0.6040419 -0.059538588 0.26702297 0.3169271 -0.08395259 0.39952114
0.31335327 0.1903191 0.106011115 0.1032804 0.21429376 0.15533876 -0.21862034 -0.18950945
0.156702 0.12387421 0.064919956 -0.16177991 0.15151875 0.18040425 -0.13290833 0.3578188
0.2358899 -0.15786536 -0.21978608 0.24965873 0.39214036 -0.08066388 -0.28022492 -0.07518689
0.37052223 0.3884273 0.06919991 0.10522081 0.14267592 0.024239544 0.020606128 0.13156316
-0.30506074 0.1911481 -0.09683877 -0.24828029 -0.13930517 0.2770001 0.18763402 0.15875974
-0.1844416 0.0049690693 -0.083344944 0.2571959 -0.39803794 0.040487275 0.22974624 0.10120649

net.2.weight f4 [128, 128]
00000000: a2c5 34be f64c 41bc 752c 54bd ece1 a43d
00000010: 0a7b a939 4b79 f13d 7422 ccbd 4152 383d
00000020: c1fa 7fbd eebb 2fbe b26a 50be cc3f 8c3d
00000030: 972c 6b3a 2270 e9bc 613b e3bd 7d5c 2ebe
00000040: 12ac 0a3d 5bea febd 5c44 68bd 5cce 18be
00000050: 1b62 b3bd 2b48 813d 7c37 543d 2bce d93d
00000060: 8935 9cbd c922 d0bd e82a e8bc 3302 6e3d
00000070: 013e d8bd 0be4 383e 013d 88be d01c e43d
00000080: 66e7 16be 8dc7 eabc 43b6 b7be 459b e53c
00000090: 1a5f 34bd 21d7 e6bb e70e 203d df74 ab3d
000000a0: 03b1 db3c 09ff 03bc 22ca 6dbd 4535 00be
000000b0: 24fa 20be 1e80 f2bc 1e42 c2bd 476a 99bd
000000c0: 8856 dbbc 426f 113d fc96 0f3d ce9b 8bbe
000000d0: 7200 18bd 1e50 52be 21e9 b93d 9532 cb3c
000000e0: 9f48 f9bd 744e 2abd 81b3 2cbe 586b ccbd
000000f0: 2c82 aabc 293e 50bd e678 69bd 9a7c 7d3c
00000100: d0a6 26bd 7f83 54bd 5962 d33d 7f2c 73bd
00000110: 0553 8dbd bb6f 69bc 216f d13d 97fd 243c
00000120: 0685 98bd 7333 c9bd 3b10 f8bd 40b5 1dbe
00000130: b161 25be b0cb 843d 4d59 99be b589 f73d
00000140: 1940 b23d 5f47 1a3b 0f71 28bd 2a76 a3bc
00000150: 480b b43d c0ca 24be f733 3fbe 6ddb 093e
00000160: 249d 00be 0489 d5b9 cc9c 44be b2ea 8abd
00000170: b0c3 6cbd 75ff 26be 668a 043d 1db6 debe
00000180: 3888 c53b ea4c 663b d49f edbc a8cc d3bc
00000190: 922a b43c 64f5 e2bc 2edc bdbd 5342 9ebd
000001a0: d0e7 ebbe 3445 fe3d 44f6 61bd c00b b83d
000001b0: 660f 78bc 3ace 283d 0738 983d d2cd 94be
000001c0: 89de a13d e176 8d3d 66b6 00bd e1ac b2bd
000001d0: 3c51 c1bd 4336 a5bd 9789 b43c 79c5 73bd
000001e0: 03cb 91bd 569e 32be 5c26 9fbd a2d2 f63d
000001f0: e41a 12be d2c9 523d 0406 1bbe 704d bbbd
00000200: cb8c 29be 3bb7 f4bd 15d3 afbd 7307 afbb
00000210: f7a1 11be 55e3 ed3d 54b6 423e 0453 d73b
00000220: f2a7 99be a3b5 b53d 1061 e13d 6bbb cbbd
00000230: 36e0 e93d f589 2abe 23da 4abe 9e6a a83a
00000240: 97ab 29bd efb0 213e 8fb2 38be 97b3 943c
00000250: 0910 a63a 6341 fcbc c043 913d b21d c9bc
00000260: fea6 043e 4c05 9d3d ec97 32be c37b 05be
00000270: 8d01 8b3d 9571 3cbd 8a73 81bd 3524 a8be
00000280: 213c 51bd b658 c0bd 99f1 3b3d 944f 74be
00000290: 8028 d2bd b6d3 0cbe e408 08be 8f94 db3c
000002a0: 0c60 3cbe 8ba5 903c 30f1 4c3c f196 133d
000002b0: 3cb5 f4bc 8ee5 9b3c 8680 30bd 5d06 333d
000002c0: 0896 f4bd 0712 da3d dfdd 863b a42c bf3d
000002d0: ab3f 51bd bb57 44bd 1383 003d 9032 68be
000002e0: 98aa 153e c6f0 61be e399 353c 5d62 73bd
000002f0: b6a5 b6bd 3046 de3d b488 123e 31a4 01be
00000300: 0a74 c9bb b634 0f3c 18e4 0bbe f91b 893d
00000310: a5de b93c d7a4 503d 340a 713d b32b b43c
00000320: 28a5 aebd 106d df3d 6102 09be 3f66 06be
00000330: f936 d13d ddf0 d4bd 1ae6 93bc d730 9dbd
00000340: a398 14be be87 fbbd 7cc2 0d3e 7eb5 463d
00000350: fe4d 06be 065f 9e3d 82ef d93d e927 bf3c
00000360: 8023 55be 18fc 263d 346e 313c a7e5 713d
00000370: 6467 8b3b f762 27bd 84ef eabd f64b 82bb
00000380: 89b9 3bbd 893b 04bd e8e7 4a3e 2304 0fbe
00000390: 095a 1dbe 9c58 04bf 5621 6eba 7bc1 d73c
000003a0: f79a 57bb e455 b3be 0100 1abe 919d d5bd
000003b0: 4474 2cbe e65f fabb 57a8 b9bd 3e51 053e
000003c0: d153 013e 7766 f23b 3cbb eebe e6ad 0f3e
000003d0: ea8f 553d 56d7 1cbd de0a debd 86d1 aebd
000003e0: a49d 0d3b 403e 063e ea9c bb3d 27be 51be
000003f0: 4e01 0e3d 2560 d33d df7c a63d e751 173e
-0.17653516 -0.011798134 -0.05180021 0.08050904 0.00032325863 0.11790713 -0.09967509 0.04500032
-0.062494997 -0.17161533 -0.20353201 0.06848106 0.0008971183 -0.028495852 -0.1109531 -0.17027469
0.033855505 -0.124470435 -0.056705818 -0.1492247 -0.087589465 0.06312593 0.051810727 0.106350265
-0.076273985 -0.10162885 -0.028340772 0.058107566 -0.10558701 0.18055741 -0.26609042 0.11138308
-0.14736709 -0.028659606 -0.35881242 0.02802814 -0.04403601 -0.0070446883 0.039076712 0.08371901
0.026817804 -0.008056411 -0.058054097 -0.1252032 -0.15720421 -0.029602107 -0.09485267 -0.07490974
-0.02677466 0.035506494 0.0350561 -0.27267307 -0.0371098 -0.20538375 0.09077669 0.024804393
-0.121720545 -0.041578725 -0.1686535 -0.09981412 -0.020814024 -0.05084053 -0.057000063 0.015471602
-0.04068643 -0.051883217 0.10321493 -0.059368607 -0.069006 -0.01424783 0.10226274 0.010070226
-0.07447247 -0.09824266 -0.12112471 -0.15401173 -0.16150548 0.06484163 -0.29950944 0.120868124
0.08703632 0.0023541076 -0.041123446 -0.019953806 0.08791214 -0.16092968 -0.18672167 0.1346261
-0.12559944 -0.0004072861 -0.19200438 -0.06783046 -0.05780381 -0.16308387 0.03235855 -0.43498316
0.0060282014 0.003514106 -0.029006876 -0.025854424 0.021992955 -0.027704902 -0.092705116 -0.07727494
-0.46075296 0.12415543 -0.055166498 0.08986616 -0.01514039 0.041212298 0.07432561 -0.29063278
0.07903773 0.0690744 -0.03142395 -0.0872438 -0.09439322 -0.0806699 0.022038264 -0.059514496
-0.071187995 -0.17443213 -0.07770988 0.12051894 -0.1426807 0.051462002 -0.15139014 -0.091456294
-0.16557615 -0.11949011 -0.085851826 -0.005341464 -0.14221941 0.11615626 0.19014865 0.0065711755
-0.30010945 0.08872535 0.11004841 -0.099478565 0.11419718 -0.16654189 -0.19809775 0.0012849157
-0.041423406 0.15790151 -0.18036865 0.018152041 0.0012669574 -0.030792898 0.070930004 -0.024550293
0.12954327 0.07667026 -0.17440766 -0.13035493 0.06787405 -0.046006758 -0.063208655 -0.32840124
-0.051082734 -0.0939192 0.045884702 -0.23858482 -0.10261631 -0.13752636 -0.13284642 0.026804237
-0.18396014 0.017657062 0.012508675 0.03603262 -0.029871576 0.019030359 -0.04309132 0.04370724
-0.11942679 0.1064797 0.0041158046 0.093346864 -0.05108611 -0.04793523 0.031375002 -0.22675538
0.14615858 -0.22064504 0.011084053 -0.05941998 -0.089183256 0.10853231 0.1430996 -0.1266029
-0.006147866 0.008740595 -0.1366123 0.066947885 0.022689173 0.050938454 0.05884762 0.021993494
-0.08527595 0.10909474 -0.13379814 -0.13124941 0.10215563 -0.103975035 -0.018054057 -0.07675331
-0.14511351 -0.1228175 0.13843721 0.04851293 -0.13115689 0.07732968 0.106413856 0.02333446
-0.20814323 0.04076776 0.010829497 0.059056904 0.0042542685 -0.040865865 -0.11471465 -0.0039763404
-0.045831237 -0.03228334 0.19815028 -0.13966422 -0.15366377 -0.5169771 -0.0009083947 0.026337376
-0.0032898763 -0.35026467 -0.15039064 -0.10430444 -0.16841227 -0.0076408265 -0.090653114 0.13019273
0.1262963 0.0073974687 -0.46627223 0.1403118 0.0521392 -0.038291298 -0.108419165 -0.08536057
0.0021608854 0.13109684 0.09160788 -0.20482694 0.034669213 0.103210725 0.08129286 0.14777337
