src/training_logs_ppo/initial/ppo_checkpoint_317_1764189318.pt (torch, 480155 bytes, 42 tensors)

move_logstd f4 [2]
000000 43 4f 12 40 d9 a7 07 40
       2.2860878 2.1196196

shared.0.weight f4 [128, 17]
000000 1a 47 0d 3e 99 88 f0 bd 60 3b 85 be 83 33 38 3e
       0.13796654 -0.11744804 -0.26021862 0.179884
000010 ad 62 57 3e 22 b5 28 be 6e a6 d2 bd 42 29 99 3d
       0.21033736 -0.16475347 -0.1028565 0.074785724
000020 b3 31 65 3e 5f 3d 51 be 56 20 08 3e ae 25 23 be
       0.2238224 -0.20433567 0.13293585 -0.15932342
000030 59 8c e9 bd b6 dd a3 bd db 64 d8 3c 0e 71 2b 3e
       -0.11403722 -0.080012724 0.02641528 0.16742346
000040 25 5f f9 bd 57 8f 3f bd 47 63 cc bd 01 f0 bc 3c
       -0.121763505 -0.04676756 -0.09979873 0.023063662
000050 e3 c2 c2 3d dc ac 9f be bf 27 64 3e 68 66 2f be
       0.09509828 -0.3118657 0.22280787 -0.17128909
000060 46 ab b6 bc fa ea 4c bc 6b 75 b7 be 8b ee 04 be
       -0.022298466 -0.012507195 -0.3583177 -0.12981622
000070 68 7a 3c bc 23 3e 29 3e e2 4a 1e 3b 08 4f a9 3d
       -0.011503793 0.1652761 0.002415352 0.08267027
000080 4a 8d f9 bd 3b fc 02 be b0 f9 5e 3e 68 b8 8a 3e
       -0.12185152 -0.12791531 0.21774936 0.27093816
000090 34 6e 14 3d c0 e1 a3 3d 0f 97 ba be 7b 25 0f be
       0.03623791 0.08002043 -0.36443374 -0.13979141
0000a0 fc 3b de bc 16 fb 33 be bf 3a eb 3b 15 ed bc bd
       -0.027128212 -0.1757625 0.007178634 -0.09224907
0000b0 4a bd 4d bd b0 28 0d bd b9 31 1d 3e 1f 3d 0d be
       -0.05022935 -0.03446263 0.15350999 -0.13792847
0000c0 b3 78 33 3e 01 df f9 3c aa 76 a7 3c d6 40 1b 3b
       0.17526512 0.030501844 0.020442326 0.0023689768
0000d0 06 e9 e3 bd e6 5e a1 be 37 72 3e bd 22 55 db 3d
       -0.1112843 -0.31517714 -0.046495643 0.10709597
0000e0 a2 b4 53 3e 79 ba 18 3e 99 5c 92 3d 7b 2f 39 3e
       0.20674375 0.14914884 0.07146568 0.18084519
0000f0 9b 4f 27 be f5 55 af 3c 35 d6 19 bd 87 63 05 bd
       -0.16338961 0.021403292 -0.0375578 -0.03256562
000100 73 92 70 bd 13 e0 ed 3c 25 6d 22 be a4 a0 4b 3e
       -0.058733415 0.029037511 -0.15861948 0.19885498
000110 ee bc 90 3d 24 66 11 3e ba c6 a1 be cf 1c 42 3d
       0.070672855 0.1419912 -0.3159693 0.047390755
000120 2c 24 0a bd 52 7b 69 3d 2b 25 70 bc df d5 04 3e
       -0.033725902 0.057002373 -0.014657299 0.1297221
000130 9b 8b 2a be 89 fb 46 3e 61 0d b0 3d 45 08 24 3e
       -0.16654818 0.1943189 0.08596302 0.1601878
000140 b7 5b ee 3d 28 5c b7 bc 65 12 01 3d ce 16 36 bd
       0.11638587 -0.02238281 0.031511683 -0.044455342
000150 21 81 c3 3d fe 36 e0 bd 2a 94 5d 3c 95 b3 47 be
       0.09546114 -0.10947989 0.013524095 -0.19502099
000160 bb f9 90 be cd c8 9a be 61 51 a7 bb 11 ee 74 3e
       -0.2831553 -0.30231324 -0.0051061367 0.2391894
000170 ad 69 47 be fe e9 73 3e 2e 9e b6 bd 0e 4c 08 3e
       -0.19473906 0.2381973 -0.08916889 0.13310263
000180 bc 45 de 3d 33 57 ea 3d ab 03 06 bd af b8 0e be
       0.108531445 0.11442413 -0.03271834 -0.13937639
000190 3b 95 68 bd bc bb 07 bd a7 2a 73 3d 84 3e 25 bc
       -0.056782942 -0.03313802 0.05936685 -0.010085706
0001a0 2b bf 22 be 7c b8 cc 3d ab e5 b3 bc 83 79 86 3d
       -0.15893237 0.09996125 -0.0219601 0.06566145
0001b0 51 53 a8 be e0 64 c7 bd 16 ed 98 3e d8 d4 e4 3a
       -0.32876065 -0.09736037 0.29868382 0.0017458452
0001c0 73 24 72 be 66 af ef bd c6 e4 56 3d 87 75 40 bd
       -0.23646717 -0.117033765 0.05246427 -0.046987083
0001d0 e2 74 96 3d d0 d2 f2 bd b9 b2 9f 3c a9 d0 f3 bd
       0.073465124 -0.118566155 0.019494401 -0.11905033
0001e0 65 c5 8a bd be ae fa 3d bf b5 86 3d 34 1a 85 3c
       -0.06775931 0.12240361 0.06577634 0.016247846
0001f0 25 7e 89 be 22 55 94 bd e5 c3 2a 3e 68 77 f9 bd
       -0.26854053 -0.072428 0.1667629 -0.12180978
000200 a8 01 12 be d5 ed 80 bd c4 7d 07 bd a7 b8 cc bd
       -0.14258444 -0.06295363 -0.033078924 -0.09996157
000210 16 1b f7 bd 4d 6b 11 3e 67 b3 62 bc 38 e1 17 3b
       -0.12065713 0.14201088 -0.013836718 0.0023175012
000220 63 08 d7 bd ee 9b b2 3d 3f 8f 58 bd 68 37 e2 bd
       -0.104996465 0.087211475 -0.052870985 -0.11045724
000230 d6 60 e8 bd 2b aa 58 be 0c 28 89 bd 5b ad 53 3e
       -0.11346595 -0.21158664 -0.066970915 0.20671599
000240 f3 e9 0b 3e 2f aa 80 be 33 34 8e 3d 6f f5 0f be
       0.13663463 -0.2512984 0.0694355 -0.14058469
000250 94 1a c4 3d 82 ca e6 bd b6 e7 37 be 2b d1 f7 3c
       0.09575382 -0.11269094 -0.17959484 0.030251106
000260 ff bd 0a be 3c 22 c1 3d b0 bd 11 bc 71 0a 00 3e
       -0.1354904 0.09430358 -0.008895323 0.12503983
000270 10 9d 74 be 47 d2 a2 be 35 78 ce bc 18 aa 59 bd
       -0.2388804 -0.31801054 -0.025203804 -0.05314073
000280 40 c6 3b 3e a6 1f 42 3e 55 d6 78 3e 39 f7 0f bd
       0.18337345 0.18957385 0.24300511 -0.03514788
000290 4c 86 ee 3d 42 10 42 be 4c 2f c6 bd bd 3c 01 3e
       0.11646709 -0.18951514 -0.0967699 0.12620826
0002a0 b7 78 3c 3d 61 ad de 3d c5 62 0b be dc 68 20 3e
       0.04601356 0.10872913 -0.13611896 0.15665
0002b0 9b d7 fe bd 8d eb 6a 3c fc 40 6e be 2b da 5f 3e
       -0.12443467 0.014338386 -0.23266977 0.21860568
0002c0 82 1c c6 bd 31 e5 67 be 14 72 3c be b6 81 ed bd
       -0.09673406 -0.22646023 -0.18402892 -0.11597006
0002d0 3d 44 90 3e 3b e1 ef bd 69 ab 26 be f2 2d 1c 3d
       0.28177062 -0.11712881 -0.16276325 0.038129754
0002e0 eb 3d 01 3d 54 e7 85 3d 9d 31 c8 bd 77 e7 a0 bd
       0.03155319 0.06538263 -0.09775088 -0.078566484
0002f0 eb d8 52 be 6f b9 8c 3d ad ac 84 be 77 d6 6f 3d
       -0.2059056 0.06871306 -0.2591299 0.05855414
000300 c0 44 02 3e 4d fb 84 3e f4 71 48 3e b6 c6 ff bc
       0.12721539 0.25972977 0.1957472 -0.031222682
000310 91 d6 eb bd 0a ef 5e be ae b0 c3 3d 42 06 84 bd
       -0.11515535 -0.21770874 0.09555183 -0.06446506
000320 be 22 f2 bc 49 85 29 bd a2 cf dd bd 0a ba 82 bc
       -0.029557582 -0.041386876 -0.108306184 -0.015957851
000330 ac fd 0f bb db 81 33 be b3 37 19 be 65 94 a0 bd
       -0.0021971269 -0.17530005 -0.14962654 -0.07840804
000340 8e 3b a3 bd fd c4 75 be 1f 1d 48 3e 4a 7a 2e bc
       -0.079703435 -0.24000926 0.19542359 -0.010649273
000350 6d bc ca bd 17 29 4f 3d 79 6f 01 be 3f 7d 80 bd
       -0.098992206 0.050576296 -0.1264018 -0.06273889
000360 c9 23 cf bd fe 5c 11 bc 4b ec bf 3c 47 4b 63 bc
       -0.10114247 -0.008872269 0.023428103 -0.013872928
000370 89 ec 2f bd 4c df 24 3e b7 de 41 3d 33 b9 89 be
       -0.042950187 0.16100806 0.047331538 -0.26899108
000380 e6 1a 9d 3d 8d 25 16 be a6 40 53 3e b0 89 5b be
       0.07671146 -0.14662762 0.2063013 -0.21439242
000390 e2 13 89 bd af 29 43 3e 53 00 a2 bd 84 2f 90 bd
       -0.066932455 0.1905887 -0.07910218 -0.07040313
0003a0 f7 7f 17 3d 55 5c 80 3d ad 50 41 3d 7f 2a 87 bd
       0.03698727 0.06267611 0.04719608 -0.06599902
0003b0 4d 0d 83 3d e0 c8 a8 bd 38 a2 46 bd 21 bf 3c bd
       0.06399021 -0.08241439 -0.048494548 -0.046080712
0003c0 9f 1b 41 bd da 1d 30 be bb 04 4e be 7a 0c 83 be
       -0.047145482 -0.17198887 -0.20118992 -0.25595456
0003d0 07 76 29 3d 39 fa 71 be 35 34 9c 3e 34 97 f5 3d
       0.041372325 -0.23630609 0.3050858 0.1199173
0003e0 e5 6a 93 3d 21 47 c8 b9 ba 54 26 3d 01 dd 9b 3d
       0.07198123 -0.00038199968 0.040608145 0.076105125
0003f0 75 8d 7e 3e 36 70 36 be eb 53 c4 bd 6b 88 6c bd
       0.24858649 -0.17816243 -0.095863186 -0.057747286

shared.0.bias f4 [128]
000000 32 08 21 bd 61 9b b4 be 65 fb f4 bd 66 ac 3e be
       -0.039314456 -0.35274795 -0.11962012 -0.18620452
000010 77 dd 23 be f2 75 90 bd ea 0f 85 bd c3 70 a5 3d
       -0.16002451 -0.07053746 -0.06497176 0.08078148
000020 c1 7a bb be f3 67 fd bd 5c c4 ca 3d 01 1e 8c be
       -0.3661709 -0.12373342 0.09900734 -0.2736664
000030 5e 69 3d bd 3d 36 3a be fa ac d4 ba 73 44 c3 bd
       -0.046243064 -0.18184753 -0.0016225867 -0.0953454
000040 31 82 42 be ec df 9a 3e ab 45 00 3e 9f bc a5 be
       -0.18994977 0.30248964 0.12526576 -0.3237047
000050 0e 5c e7 bd 23 7f 8f 3b 4d f2 12 bd e9 a3 86 3d
       -0.11296855 0.0043791695 -0.035875607 0.06574232
000060 69 b6 fd bd 46 8a 5f be d4 64 16 bd 64 d0 a9 bd
       -0.123883076 -0.21830091 -0.03671725 -0.082917005
000070 d7 09 67 3c e2 20 93 be 55 f1 70 bd cd 03 8a be
       0.014101467 -0.28736025 -0.058823902 -0.26956025
000080 ca 4e 12 be f9 0e eb bd ed ae 97 be e8 b8 e9 3c
       -0.14287868 -0.11477465 -0.29625645 0.028530553
000090 f8 04 7c be ef f3 aa be b4 27 53 bd 3e 0e 20 be
       -0.2461127 -0.33389232 -0.051551536 -0.15630433
0000a0 94 d3 c2 be ef 9f 7f be 03 01 bd bc dd d4 1d bd
       -0.38052046 -0.24963354 -0.023071771 -0.03853308
0000b0 6b 2b 94 3d b5 37 c0 be 25 9c 10 3e cf 6a 92 be
       0.07234844 -0.375425 0.14122064 -0.28597113
0000c0 08 ee 08 3e dd 09 57 be 2d a6 a4 be 8c 1d 2f be
       0.13372052 -0.20999856 -0.32158032 -0.17101115
0000d0 5e 90 80 be 22 e9 0f be c0 28 a6 3c 29 f7 48 bb
       -0.25110143 -0.14053777 0.020283103 -0.0030664897
0000e0 5a ee 86 3d 05 2e 74 be 9f 9b 2b be aa ae 36 bd
       0.06588431 -0.2384568 -0.16758583 -0.044600166
0000f0 09 d7 d8 bc a6 e7 46 bd 63 97 d0 bd e3 51 30 be
       -0.026469724 -0.04856076 -0.10185125 -0.17218737
000100 3c 20 bc be f6 55 39 be 97 50 90 be 90 88 d5 be
       -0.36743343 -0.18099198 -0.28186485 -0.4170575
000110 ca 85 27 be 08 5b 33 bc b3 b6 e4 be ed 1e 88 be
       -0.1635963 -0.0109469965 -0.44670638 -0.26586094
000120 3c 04 40 3d 62 68 7a 3e f0 e6 a8 bb 35 ed d0 bd
       0.04687904 0.24453881 -0.005154483 -0.10201494
000130 f4 25 42 3e 3c f8 ad be 90 0a 16 be 82 be 3c be
       0.1895979 -0.3397845 -0.14652467 -0.18432048
000140 c7 1f 02 be bd c3 8b be dd e6 04 bf fb a0 0b be
       -0.12707435 -0.27297774 -0.5191477 -0.13635628
000150 47 b2 8e be b8 21 f2 bd 3e 70 82 bd 68 de eb bd
       -0.2787039 -0.118228376 -0.06369065 -0.1151703
000160 b9 8e d6 bd 13 7e 88 be c0 73 74 3d 29 68 1f be
       -0.10476441 -0.26658687 0.0596807 -0.15567078
000170 b8 c1 a7 bd f0 a8 25 3e 1f a6 60 be d9 95 22 3e
       -0.08191246 0.16177726 -0.2193837 0.15877475
000180 78 2d 87 be 26 c7 9f be 58 9a 2e 3e 7c 8e 47 be
       -0.26401877 -0.31206626 0.17051065 -0.19487947
000190 f2 b8 6d 3e 45 a4 88 be 9f e1 9e 3c 79 a2 8b bd
       0.23215082 -0.26687828 0.019394694 -0.068180986
0001a0 4d c5 d5 3c 4f 9e 14 be 8d 96 1b be 16 a9 02 be
       0.026095057 -0.14513515 -0.1519415 -0.12759814
0001b0 2b 7a a7 bd 10 be 69 be 10 9b 67 bd 63 ca b3 be
       -0.081775986 -0.2282641 -0.056544363 -0.35115346
0001c0 aa a1 57 be 36 b1 bf be f7 b7 a7 3c 85 b6 8c be
       -0.21057764 -0.3743989 0.020473463 -0.27483
0001d0 8e 22 82 be d8 27 34 be 1c a3 a3 be c3 62 0a be
       -0.25416988 -0.17593324 -0.3196038 -0.13514237
0001e0 21 c5 cc bc 72 ae c5 be f5 94 1d be b9 31 79 be
       -0.024996342 -0.38609654 -0.15388854 -0.24335374
0001f0 89 71 6b be ea 50 da 3d 06 f8 d2 be d2 7d bf 3c
       -0.22992529 0.106599644 -0.41204852 0.023375425

shared.2.weight f4 [128, 128]
000000 43 80 83 3c ed c1 02 3d 9a 0b 41 3d f1 5b cd bc
       0.01605237 0.031923223 0.047130205 -0.025068255
000010 7d 90 6f 3d 43 74 ed 3c a6 84 34 bd 4a 37 0d 3d
       0.058487404 0.028986102 -0.044071816 0.034476556
000020 45 72 10 bd cf b2 82 3d ef 2c 0b bd 60 78 9c bd
       -0.035265226 0.06381761 -0.0339784 -0.07640147
000030 36 89 bb bd 4b c3 33 3c 5b 5b fa 3c ce 39 91 3d
       -0.0915703 0.010971854 0.03056114 0.070911035
000040 86 aa 2a 3d d4 31 d8 bc 7e 3b 09 3c be d2 31 3b
       0.04166653 -0.026390947 0.008376 0.0027133669
000050 88 bd ab 3b 29 c3 f2 bd 81 43 9e bd 2d d5 7c 3c
       0.0052410997 -0.1185363 -0.07727719 0.015431684
000060 49 be a9 3d c2 ac 9f bd aa ef 23 bd a2 27 d4 bb
       0.08288247 -0.07796623 -0.040023483 -0.006474451
000070 98 d2 fd bd 62 ef 7a bd e4 8c f9 bc 4d c8 f1 bb
       -0.12393683 -0.06126345 -0.03046269 -0.007378614
000080 32 c3 0b bd 0a 29 a9 bb 21 83 81 3d b1 bb 01 bd
       -0.0341217 -0.005162363 0.06323839 -0.031673137
000090 9f 9b 60 3d 81 1c da bd 65 ec 41 3d 09 c3 ae bd
       0.05483591 -0.10649968 0.047344584 -0.08533294
0000a0 2f f1 a7 3c 81 29 03 be c7 04 be bd 4c e1 f8 3c
       0.020500747 -0.12808801 -0.09278255 0.030380867
0000b0 3d bb bc bc 6e ce a0 bd 0b 66 8b bd f8 b7 06 3c
       -0.0230385 -0.07851873 -0.068065725 0.0082225725
0000c0 25 da 03 bd 83 e4 a9 bd 89 b5 86 3c 7b e1 8d bd
       -0.03219046 -0.08295538 0.016443985 -0.069277726
0000d0 2a fb 0b 3c 11 3f 8d bc 39 d4 fc bc e0 47 1b 3d
       0.008543769 -0.017241986 -0.030862914 0.037910342
0000e0 00 3a 2e 3d 77 e3 82 bd b2 4b a3 bc 72 bf 2b 3d
       0.04253578 -0.06391042 -0.019933555 0.041930623
0000f0 1f 13 04 bd d3 98 2b bd c1 63 fd bc 83 cf 96 bd
       -0.032244798 -0.04189379 -0.030931355 -0.073637985
000100 45 7f 22 3d 8d 68 f0 3c 0f d4 82 bc 3a 73 ea bc
       0.039672155 0.029346729 -0.015970258 -0.028619397
000110 ba 4f 06 be 85 f2 1f bc 66 05 4a bd 87 94 49 3b
       -0.13116351 -0.009762411 -0.049321555 0.0030758695
000120 72 89 36 bd f7 a8 9c bd 4a ba 70 bd a9 64 8a bd
       -0.04456467 -0.07649415 -0.05877141 -0.06757481
000130 04 ae 3b bd 7f a3 fd bd db 80 87 bd 40 dd f3 3c
       -0.04582025 -0.123847 -0.06616374 0.029768586
000140 f9 a4 09 bd 9b 89 1e bd 41 b1 01 be c9 6a b6 bd
       -0.033604596 -0.03870545 -0.12665273 -0.089070864
000150 3d 31 66 bd fa b3 00 bd 7e 1a f3 bc a6 06 25 be
       -0.0561993 -0.03142164 -0.029675718 -0.16115817
000160 ee 2a bf bd 1a 3d 42 bd 35 99 a9 bc d8 41 75 bd
       -0.0933436 -0.047421552 -0.020702938 -0.059877247
000170 f0 a0 b1 3b cd 0a d2 3c f0 22 5c 3d ee ff 4f bd
       0.0054207966 0.025639916 0.053744256 -0.050781183
000180 93 1e e8 bd 99 27 dc bc a2 98 84 bd b7 dd 04 3d
       -0.113339566 -0.02687435 -0.06474425 0.032438006
000190 00 05 bf bd ce 50 da 3b 3d 8d 2d be 8e 6f e8 bd
       -0.093271255 0.0066624647 -0.1694841 -0.11349402
0001a0 d2 2c b6 bd 87 09 92 bc 61 e1 b8 bd 65 d6 4d bc
       -0.088952675 -0.017826809 -0.090273626 -0.012563323
0001b0 54 d4 36 3d 93 a4 a1 bd fc d0 04 3d 90 f2 58 bd
       0.044636086 -0.07892718 0.032425866 -0.0529657
0001c0 c4 6d d3 bd d3 ca cf 3c ca a2 24 bc 9f 7a 79 bc
       -0.103236705 0.025365269 -0.010048578 -0.015226989
0001d0 07 0d 29 3c 42 88 f3 bd c6 98 b8 bd 94 2f 10 bd
       0.010318047 -0.118912235 -0.09013514 -0.035201624
0001e0 2d 65 46 bd 11 5e 9c bd d5 0f 4b bd e6 64 5f 3c
       -0.048436332 -0.07635129 -0.049575645 0.013634896
0001f0 36 56 b1 3b 93 fe 93 3c 9e ba 8f bd 02 74 d2 bc
       0.0054118885 0.018065726 -0.07018016 -0.025690082
000200 46 e3 42 bd 16 73 01 bd 35 d9 f2 bd 24 5d 02 be
       -0.047580026 -0.031603895 -0.11857835 -0.12730843
000210 cb 11 c2 3c d2 ce e2 3c 46 5b c1 bd 35 ea a3 3d
       0.023690125 0.02768651 -0.09441237 0.08003656
000220 ad 65 6f 3d f7 d8 c6 3c 64 fe 8b bd 54 73 08 bd
       0.058446575 0.024273379 -0.068356305 -0.03331311
000230 c3 66 db bd 56 5b 28 3d d4 07 95 3c 52 1b 52 3d
       -0.107129596 0.04110273 0.01819221 0.051295586
000240 46 0e a5 3c 0e 9d 83 bd 20 b6 6c bd 65 72 39 3d
       0.020148408 -0.0642644 -0.057790875 0.04527511
000250 6e 33 d4 bd 8b fd 2d bd ac 4a 90 bd 17 90 f4 3c
       -0.10361372 -0.042478126 -0.070454925 0.029853864
000260 d8 17 16 3c 14 27 56 3c 68 f6 b6 ba 3a 0e 9c bd
       0.009160958 0.01307084 -0.0013958933 -0.07619901
000270 ed 2b 2a bd 60 57 62 bd f9 f1 ef bc 11 6c bb bd
       -0.041545797 -0.05525911 -0.029290186 -0.091514714
000280 56 c7 34 3b 49 6e cb bd 77 e5 1b bd db 1c 44 3d
       0.0027584634 -0.099331446 -0.03806063 0.04787908
000290 57 7f d6 bd e4 d2 f6 3b ac 6d 0d bd 63 05 e0 bd
       -0.10473507 0.0075324643 -0.03452842 -0.109385274
0002a0 7c c9 cc bd 31 06 60 bb 32 7a 1b 3d 0a bf aa 3a
       -0.099993676 -0.0034183378 0.03795833 0.0013026905
0002b0 92 d3 eb 3c 3d 78 9e bd 93 44 73 3d f6 49 15 3d
       0.028787408 -0.077377774 0.05939157 0.036447488
0002c0 a2 ba 71 bc de 1e 37 bd e9 c1 cd bd 6d 45 a3 bd
       -0.014753969 -0.04470717 -0.10046751 -0.07972226
0002d0 66 2f 26 3d 79 10 c5 3c 42 87 3a 3d 24 3f 87 3d
       0.040572546 0.024055706 0.04553915 0.0660384
0002e0 45 18 de bd a8 bf cd bc 8d a8 83 bd 5b 55 20 3d
       -0.10844473 -0.025115803 -0.06428633 0.0391439
0002f0 43 9e 21 bd a6 d3 f3 bd 99 24 84 bd 57 55 63 bc
       -0.03945757 -0.11905603 -0.06452293 -0.013875327
000300 e1 a0 3a bd 09 11 a7 bd 5d a0 d5 3c 67 e6 8e bd
       -0.045563582 -0.08157546 0.026077444 -0.069775395
000310 0c d8 81 3d 86 50 04 3d 51 52 11 3c c9 4e e3 3c
       0.06340036 0.032303356 0.008869723 0.027747529
000320 b9 12 a6 bd 81 c6 f4 3c d4 1e e1 bd 3d 60 05 bc
       -0.0810904 0.02987981 -0.10992208 -0.008140621
000330 3e 15 d5 bd 74 2a 94 bd 7b 25 32 bd 2e 76 0e be
       -0.10404442 -0.0723466 -0.043492775 -0.1391227
000340 8b d3 30 3d 4a 05 94 3b 67 e8 2a 3a ae 56 a3 3c
       0.043170493 0.004517232 0.0006519616 0.019938793
000350 a7 b5 bf bd 47 b0 ce bc 1a 95 bd 3c f3 75 09 bd
       -0.09360819 -0.02523054 0.023142386 -0.03355975
000360 f2 d4 b0 3d 13 e3 ce bd b0 81 ed bc 83 dd 6c 3b
       0.08634366 -0.10101905 -0.028992504 0.0036142773
000370 a0 08 ac bd 8d c2 c5 bd 0c 7c 97 bd de 85 d7 3c
       -0.084000826 -0.09656248 -0.07396707 0.02630895
000380 9e 6b d5 3a 8f 67 81 3c f4 d6 0b be 5c 25 21 be
       0.0016282683 0.01579645 -0.13656217 -0.15736908
000390 8f 63 05 be f9 11 9a bc 3b 22 d3 3c 33 06 aa bd
       -0.1302626 -0.018807398 0.025773158 -0.08301964
0003a0 86 5a 3e bd 90 0d cb bd ca 6c 80 3d 09 41 5c bd
       -0.04647305 -0.09914696 0.0627075 -0.05377296
0003b0 b6 0b e7 bc 2f 35 7a bc df 89 04 3d b6 a1 4f bd
       -0.028203826 -0.015271469 0.032358047 -0.05069133
0003c0 4b e6 b6 3d e1 1c 96 bb c7 2a 80 bc de 66 00 3d
       0.08930644 -0.0045810794 -0.015645398 0.0313481
0003d0 de 0e 76 bd 76 6f ab bd 92 37 63 3d fa 01 78 bd
       -0.060072772 -0.08370869 0.055472918 -0.06054876
0003e0 64 83 c6 bd 4b 7c 84 bd b0 73 d4 bd 51 4e 76 bd
       -0.096930295 -0.064690195 -0.10373628 -0.060133282
0003f0 71 f8 c6 bc f7 2f cc bd e7 4d e8 bd 84 f9 f6 bc
       -0.024288388 -0.09970086 -0.11342984 -0.030148275

shared.2.bias f4 [128]
000000 7c a5 a6 bd d9 f1 e0 bd 98 5c 05 be ac 75 bc 3c
       -0.081370324 -0.10983629 -0.13023603 0.02300533
000010 2c c6 ec bc 54 34 c6 3c 20 ad 1c 3d 8f af 0b 3d
       -0.02890309 0.024194874 0.038251042 0.034102973
000020 7a fb e9 bd 18 b0 8c 3c 53 11 c8 bd d0 53 0c bd
       -0.114249185 0.017173812 -0.09768929 -0.034259617
000030 e0 30 f8 3b f7 88 a1 bd ed ab cd b9 24 82 12 be
       0.0075741857 -0.07887452 -0.00039228742 -0.14307457
000040 d2 21 a0 bc a5 fc c2 bd eb 7c 38 3c 8f 0a bf bd
       -0.019547377 -0.09520844 0.0112602515 -0.09328186
000050 d9 00 e5 bd 0c 23 2d 3d 4d 71 a3 bd 3b 77 1e ba
       -0.11181802 0.04226975 -0.07980595 -0.00060449884
000060 64 cb 7a bc 55 86 ae 38 5b ea ad 3c 8f b6 ab 3c
       -0.015307281 8.321988e-05 0.021229913 0.020961074
000070 61 d4 99 bd db 7a 28 bd e7 5f d0 bd 6a b6 84 bc
       -0.07511211 -0.04113279 -0.10174542 -0.016200263
000080 6b 90 0e 3d 72 5b c5 bc b5 cb 99 bd df d9 06 3d
       0.034805696 -0.024091456 -0.07509557 0.03292262
000090 1b 53 b1 bd e5 9a 1c bd 20 12 bc bd c9 00 98 bd
       -0.08658429 -0.038233656 -0.091831446 -0.07422025
0000a0 b0 ec ad bd 8f 39 88 bc 55 c5 83 3c 93 c9 ae bd
       -0.0849241 -0.016629009 0.016085306 -0.08534541
0000b0 b7 3e 0d be 86 81 81 bd 26 28 78 bb 9a f9 ff 3c
       -0.13793455 -0.06323533 -0.0037865727 0.031246949
0000c0 f5 40 b0 bc 92 a1 e3 bd a9 bc da 39 be 4f 72 bd
       -0.021515349 -0.111148015 0.00041720763 -0.05915808
0000d0 5e 59 0d be 92 de d9 bc d2 7f 65 bc b7 9d 36 3d
       -0.13803622 -0.026595388 -0.0140075255 0.044584002
0000e0 ae eb 59 3b 60 fa f8 bd a1 83 f6 bb 6d ae bb bc
       0.0033252048 -0.1215713 -0.0075230156 -0.022910321
0000f0 a8 10 81 bd 13 e7 2d bd 39 e1 17 3c 0e 7b 40 bd
       -0.06302005 -0.042456698 0.009270006 -0.046992354
000100 2f ed d9 bd 58 76 b2 bd 0f fe d3 bc b9 a5 7b bd
       -0.10640942 -0.087139785 -0.02587798 -0.061437342
000110 b6 36 ee bd 4a 61 22 3d eb 86 a6 bc 05 d0 84 bd
       -0.11631529 0.039643563 -0.020328006 -0.06484989
000120 b1 83 d4 3b 6d 09 ca 3c 64 2c 00 be 79 dc 1f 3d
       0.0064854254 0.024662698 -0.12516934 0.03902862
000130 00 3e c0 3b f2 f5 e6 bd 16 0c fd ba 36 bd 0a 3d
       0.005866766 -0.11277379 -0.001930597 0.03387185
000140 c8 93 5b bd 64 1a a5 3c 63 77 02 3d 5a 77 b6 bd
       -0.053607732 0.020154186 0.031852137 -0.08909483
000150 34 b9 c5 bc a0 a6 6f bd 37 3d c2 3c f8 db ea bd
       -0.024136163 -0.058508515 0.02371083 -0.11467737
000160 b6 42 88 3c 1a 7a cb bd 13 5d ab bc 40 b2 d5 bd
       0.016633373 -0.099353984 -0.020918405 -0.10434389
000170 5f 58 2f bc 25 1d 67 bd 79 7a 6b bd cd 06 df 3c
       -0.010702222 -0.05642428 -0.057489846 0.027224923
000180 1e 92 35 3d 14 da b2 bd a3 9d 8e bd ac b9 15 3d
       0.0443288 -0.08733001 -0.069636606 0.036554024
000190 ee 01 f6 bd 3b 66 5c bc ad 32 53 bd 76 9c ab 3c
       -0.12012087 -0.013452108 -0.051562 0.02094863
0001a0 73 09 89 bd 43 6b 43 bd f6 16 ee bd b6 a5 df bd
       -0.066912554 -0.047709715 -0.11625473 -0.10920279
0001b0 70 9f 0c bd 3f 53 db 3c b5 f8 dc bd 15 20 04 3d
       -0.03433174 0.026773093 -0.107896246 0.03225716
0001c0 67 13 de bd 99 96 fc bc 83 47 87 bd d1 37 0a be
       -0.108435445 -0.03083353 -0.06605437 -0.13497855
0001d0 b5 db a3 bd 16 1e 78 bd 09 0e 80 bd ee b6 a3 bd
       -0.0800089 -0.060575567 -0.06252677 -0.079938754
0001e0 6e ac bd bd 2e 16 fd 3c 79 12 a5 bc 1b 42 85 bd
       -0.09261404 0.030894365 -0.02015041 -0.06506749
0001f0 7e 20 be bd ae ad a7 bd 8f b4 37 3d be 3b 9a bd
       -0.09283541 -0.08187424 0.04484993 -0.07530926

move_mean.weight f4 [2, 128]
000000 d2 59 7c 3b d2 60 22 bd 29 64 d6 bb 4b 61 b9 3c
       0.0038505686 -0.039643116 -0.0065427017 0.0226294
000010 32 22 25 3c 86 84 10 3c 1a da d0 3b 49 fc 5c 3d
       0.010078954 0.008820659 0.006373656 0.053951535
000020 aa 09 c3 3c 43 e0 d4 38 ed 83 1c bb 61 3c 6e 3b
       0.02380832 0.0001015072 -0.0023882345 0.0036351907
000030 12 42 1e bc 14 81 47 3d 8f 91 76 3c 71 c6 f6 bb
       -0.009659307 0.048707083 0.015049352 -0.0075309803
000040 f3 ca 11 3d b0 a9 a7 3c 67 af 55 bc 86 03 f2 bc
       0.035593938 0.020466655 -0.013042307 -0.029542696
000050 84 19 0d 3d 3a 4b 75 3d 9c 66 e4 bc 13 db 91 3c
       0.03444816 0.059886195 -0.02788096 0.017804658
000060 65 46 44 bc 80 37 45 3d 67 d0 32 3d db ad b5 ba
       -0.011979674 0.048148632 0.04365578 -0.0013861017
000070 15 dc 5c 3c ba ff be bb 76 c4 3f 3c ad fc 40 bc
       0.013480206 -0.005828825 0.011704555 -0.011778993
000080 c9 12 c6 3c 6f f1 8f 3b 53 5e 19 3d fa 6a d8 bc
       0.02417888 0.004392795 0.03744347 -0.026418198
000090 8e a0 ba 3c 04 c1 5d 3d bc 24 81 bd 8e d4 8b 3c
       0.022781637 0.054139152 -0.06305835 0.017069127
0000a0 c5 25 54 3b 87 28 2a 3c b5 10 5b 3d aa b2 7f 3c
       0.0032371145 0.010385639 0.05348273 0.015606562
0000b0 90 17 5e bc bf 2a 0c bb c9 02 c4 bc b0 74 16 bd
       -0.013555422 -0.0021387783 -0.02392711 -0.036732376
0000c0 3e a6 ce 3c 37 84 3f bc 5a ce af ba 92 26 df bb
       0.025225755 -0.011689237 -0.0013412938 -0.006810018
0000d0 f1 e1 b6 bb da e1 b0 3a f3 67 7c 3c b0 eb 19 bd
       -0.0055811335 0.0013495043 0.015405643 -0.037578285
0000e0 a3 be 16 bd 28 98 e1 bc 51 c3 e7 3c cd 76 9a b8
       -0.0368029 -0.027538374 0.028291376 -7.3654206e-05
0000f0 60 20 90 bb d5 ee f9 3b 08 c3 78 bb b8 ec 51 bb
       -0.0043983907 0.007627348 -0.0037958045 -0.0032031965
000100 f7 8b c5 bb d3 03 ef 3b e6 3e 11 3b 39 85 15 bc
       -0.006028648 0.007294157 0.0022162735 -0.009126001
000110 b7 f3 1d bc 9a 9d 2a 3d b5 34 17 3d 07 16 39 3d
       -0.009640626 0.041654207 0.0369155 0.045187023
000120 46 39 a9 bc 9d b3 94 3c 22 fa bb 3b b0 2f 90 bc
       -0.020657193 0.018152053 0.0057366053 -0.017600864
000130 62 52 93 bc c8 01 d9 bc 55 78 43 3d 94 4a 45 bc
       -0.01798362 -0.026490107 0.04772218 -0.012041707
000140 61 8f 4c bc 37 5b 62 3d e9 54 b2 3b 3a eb 41 3c
       -0.012485356 0.05526277 0.005442251 0.011835868
000150 83 30 b2 3a c1 5b 04 ba 9d 7a 21 3d b9 b4 75 3b
       0.001359478 -0.0005049073 0.039423574 0.0037491752
000160 a1 51 06 3d 5e 20 3c 3c a2 71 3b bd d9 dc 2d bd
       0.03279269 0.011482326 -0.045762666 -0.042446945
000170 df f2 55 3c 59 30 61 bd b4 dd 5a 3c ec c3 90 3d
       0.013058393 -0.05497775 0.013358522 0.07068619
000180 00 61 58 3d 97 7b ce bc 35 b3 8a 3d 09 7c a0 3c
       0.05282688 -0.025205417 0.06772462 0.019590395
000190 30 04 cc 3b fc 23 19 3d d8 85 89 bc 62 8b 0c 3c
       0.006226085 0.037387833 -0.016787454 0.008578153
0001a0 00 39 21 3a d2 83 05 bc 4a 49 2d 3d b9 5e eb 3c
       0.0006150156 -0.008149104 0.042306222 0.02873169
0001b0 d4 d0 e7 3a 2f a2 ef ba 2b 2a 99 3b 01 d9 0b bc
       0.0017686137 -0.0018282587 0.0046742163 -0.0085356245
0001c0 1b 2e 3c bd 64 8c 08 3c f5 18 e5 3a d4 50 2f bc
       -0.045942407 0.008334253 0.0017478751 -0.010700423
0001d0 cc 79 d1 3c 9e db e2 3b 5d c4 09 3d e3 ca ea 3c
       0.025570773 0.006923153 0.033634532 0.028661197
0001e0 e5 d4 83 bd 07 51 34 bd 1b 87 71 3d 06 8e cb bc
       -0.06437091 -0.044022586 0.058966737 -0.024847995
0001f0 2c e7 25 3a 67 61 72 bc 73 1d 71 3b 44 8b 2c 3c
       0.0006328698 -0.01479373 0.0036791235 0.01053125
000200 a3 7d df 3c 16 35 a3 3c 97 84 63 3a 01 69 38 bb
       0.027281588 0.019922774 0.000867912 -0.002813876
000210 4f 86 29 3d c7 34 8d 3c a2 d7 0c 3c f6 fb 83 bc
       0.041387852 0.01723708 0.008596333 -0.016111355
000220 08 6b 4f 3c 97 78 47 bc 09 d8 f5 bc bd 67 05 3c
       0.012659796 -0.012174747 -0.03001024 0.008142409
000230 95 41 a9 3d 02 6f ce bb 29 b5 04 ba 38 4a 05 bc
       0.08264462 -0.0062998543 -0.00050623954 -0.008135371
000240 99 06 c8 bb 8d 27 24 bc e9 93 98 bc ab 9d 1c 3d
       -0.006104302 -0.010019195 -0.018625217 0.0382363
000250 d1 72 52 3d 6d d6 18 3b df f8 41 3d c9 09 f5 bc
       0.05137903 0.0023321167 0.047356483 -0.029911892
000260 33 db ae bc 20 97 d4 bc 46 24 17 3d 06 12 44 bb
       -0.021344757 -0.025950968 0.036899827 -0.002991797
000270 46 d9 0c bc 34 aa 11 3c 01 72 0e bc 31 7e eb bb
       -0.008596724 0.008890677 -0.008694173 -0.007186674
000280 ed 2e a4 bc cb 1a 1f bb 53 6c ab 3c 25 54 f8 bc
       -0.020041907 -0.0024277444 0.020925676 -0.03031356
000290 54 73 fb bc cf 47 33 bd 88 14 3e 3d 00 ed b6 bb
       -0.030694641 -0.043769654 0.0464063 -0.005582452
0002a0 06 d5 04 3d 72 46 1e 3b 1f 91 48 bc cc 5c ba 3c
       0.032429717 0.0024150875 -0.012241631 0.022749327
0002b0 08 22 17 bc e2 3d f8 3c da ae fc 3b 6a b0 d7 bc
       -0.009224422 0.030302946 0.0077112736 -0.026329238
0002c0 17 2f 9d 3b 93 56 8a bc b9 ef c0 ba 37 02 39 bb
       0.0047968733 -0.016886985 -0.001471988 -0.002823008
0002d0 96 96 ac 3c 7d 07 2d 3d 3e 56 56 3c 5e 4d 71 3d
       0.021067899 0.04224347 0.013082085 0.058911674
0002e0 ee 17 78 bd 6b 6e 63 3b 7f 9d 07 3d 81 2d 7f bc
       -0.060569696 0.0034703265 0.033109184 -0.015574814
0002f0 6f 42 b6 3c 6e fd 0e bc e4 99 98 bc 63 82 cf 3c
       0.022248475 -0.0087274145 -0.018628068 0.025330728
000300 38 85 4a 3c 01 12 27 bc 24 05 ae bc 31 52 b6 bb
       0.012360863 -0.010197164 -0.021242686 -0.005563997
000310 30 71 58 bc ae 26 4c 3c 26 13 24 bc d3 97 75 bd
       -0.01321058 0.012460394 -0.010014331 -0.059959244
000320 29 91 0e 3b e9 68 3d bc 05 16 18 bd 2f 38 3a 3c
       0.0021754003 -0.011560657 -0.037130374 0.011365934
000330 e7 7e 14 bd 66 8e 02 bd f3 46 6a bd 10 c0 c2 3b
       -0.036253836 -0.031874083 -0.05719657 0.005943306
000340 3f 37 55 bd 6a b1 62 bd 06 da ff bb b0 2d 89 3c
       -0.05205464 -0.055344976 -0.007807973 0.016745418
000350 de b1 3a bc 0d 9f 30 b9 73 98 14 bb 4f 60 1f bd
       -0.011394946 -0.00016843919 -0.0022673875 -0.038910206
000360 e4 5c 2d bc ee 5b 9d bc 3e 94 30 3c 61 32 6d 3a
       -0.010581229 -0.019208875 0.010777531 0.00090483396
000370 c5 b1 14 3a 49 d0 c2 3c b5 46 3b 3d 88 b6 71 3c
       0.00056722417 0.023780959 0.04572173 0.0147529915
000380 e9 b0 87 3c 30 4d 3a bd de 2f c9 3c f8 e1 9f 3c
       0.01656385 -0.045483768 0.024558958 0.01951693
000390 76 de 05 3d 8b 3c 74 3d 6e b4 84 bd cb 9c 4d bc
       0.03268286 0.05962805 -0.06479727 -0.012549589
0003a0 b3 f5 2c 3d 2f 62 03 3c a4 a0 ab bc 02 b9 80 3c
       0.042226505 0.008019014 -0.020950623 0.015713219
0003b0 98 1d 01 3c 79 57 13 3d 4f 4f 7d bb ce 7c e6 39
       0.007880591 0.035972092 -0.0038652008 0.00043962005
0003c0 20 9c 4f 3c 70 c9 11 bc 17 81 23 3d b1 06 8b bc
       0.0126715 -0.008898124 0.03991803 -0.016970964
0003d0 9f c2 16 bb ad 1c 66 bb 97 54 84 bc a5 50 5f 3c
       -0.0023004187 -0.0035112307 -0.016153617 0.013630067
0003e0 25 22 08 3d f8 ed 36 3c ec d8 ab bd a5 d8 9f 3c
       0.033235688 0.011165135 -0.08390984 0.019512484
0003f0 a6 ab f6 3a 53 13 d2 3b fc 3b 1e bb 26 75 06 3d
       0.0018819466 0.006410995 -0.002414464 0.032826565

move_mean.bias f4 [2]
000000 fa 19 43 3e ea 2e b2 be
       0.19052878 -0.34801418

food_logits.weight f4 [3, 128]
000000 cf 1c 0e bd 7d e7 a1 3c dd fd ac 3c ce d1 1e bc
       -0.034695443 0.019763703 0.021117145 -0.009693576
000010 0a 6a ca 3c bd f1 b8 bc a2 ac 00 3c fd dc 85 3d
       0.024708766 -0.022576207 0.007853659 0.06536291
000020 76 7e ae bc 09 93 d8 bc 9a f1 06 3d 56 6d 24 bd
       -0.021300536 -0.0264373 0.032945253 -0.040143333
000030 56 25 84 bd 08 57 ca bc c7 6a 23 3c b4 55 36 3d
       -0.06452434 -0.024699703 0.009974188 0.044515327
000040 ed 57 02 bd db 43 35 bc 37 4e 5c 3d 50 5d 7e bd
       -0.031822134 -0.011063541 0.05378553 -0.06210071
000050 be ff 4e 3d ef 8d 2f 3c 46 d3 58 bd 55 a1 4e bc
       0.050536864 0.010714992 -0.05293586 -0.012611707
000060 3b 2f ef bb b6 c8 55 3d f7 3c 2a 3d 67 44 2f bd
       -0.0072993315 0.052193366 0.041562047 -0.042789843
000070 42 03 ed 3b be 74 c3 bc 18 07 10 bd a7 f0 47 3d
       0.0072330544 -0.023859378 -0.035163015 0.04881349
000080 82 4d 69 3d 6b 3f 47 3d 8b 0c 33 3d 07 e4 c1 bc
       0.056958683 0.048644464 0.043713134 -0.023668302
000090 49 0a 8b 3d 30 ed b1 bb 87 c6 05 3d 17 ff 50 bd
       0.06789071 -0.0054298863 0.032660034 -0.051024523
0000a0 d7 3b ad bd eb 28 9d 39 fa 07 bb 3c 32 e5 91 bc
       -0.08458679 0.0002997586 0.022830952 -0.017809484
0000b0 63 22 36 bc d3 59 10 3d fc 39 1a bd 10 51 97 3d
       -0.011116597 0.035241913 -0.037652954 0.07388508
0000c0 cb 01 29 3d 4c 17 d8 ba 87 95 a4 bd 3a 9f b6 3c
       0.041261476 -0.0016486435 -0.080363326 0.022292722
0000d0 21 55 37 3d 43 df a3 3b e1 b4 89 bd 1c c5 0b bd
       0.04475892 0.00500098 -0.06723953 -0.034123525
0000e0 37 fd 1a 3c e1 09 95 bc e6 c3 64 3c 27 78 c3 3c
       0.009459785 -0.018193187 0.013962721 0.023861004
0000f0 81 2a 2b 3d c8 07 36 bd 4a da 81 3d 72 06 80 3c
       0.04178858 -0.044441015 0.063404635 0.015628073
000100 8f ab a4 3d 1d 86 4d 3d 03 6c 81 3d fe ef e8 3c
       0.08040535 0.05017673 0.0631943 0.02843475
000110 42 d7 f8 3b 10 01 32 3d b8 e2 0c 3d 3c 68 8f 3d
       0.00759402 0.043458045 0.034395903 0.07002303
000120 aa 93 b6 bb d4 ec 04 3d 3a e3 42 3c 68 41 dc bc
       -0.005571802 0.03245242 0.011894995 -0.026886657
000130 1b 49 55 3d f7 1f 38 3d e2 75 2c 3d 7a 8e 29 3d
       0.052071672 0.04495236 0.04210461 0.041395642
000140 07 ff 3d 3d 4f b3 9f 3d f7 8a 5c 3d c7 28 6b 3d
       0.04638579 0.07797872 0.053843465 0.057411935
000150 4a 59 bc bc 34 45 55 bd 1f 55 d7 3c a1 b2 97 3d
       -0.022991795 -0.05206795 0.026285706 0.07407118
000160 a4 c8 f7 bc 60 3f 08 3d 4a 53 ec bc ac 3f a1 bc
       -0.03024704 0.033263564 -0.02884831 -0.019683681
000170 aa 54 fb 3c 1c 25 0c 3d c8 dd 1c bd ef d9 da bc
       0.03068002 0.034215078 -0.038297445 -0.026715247
000180 39 7a 59 bb 30 e4 da bc b5 18 ef bc c0 37 eb bc
       -0.0033184423 -0.026720136 -0.029186586 -0.028713107
000190 fc 71 56 bd 9d 77 27 bd 2e c5 6b 3d 7d bc 22 bd
       -0.052354798 -0.040885556 0.057561092 -0.039730538
0001a0 72 ca 93 bd b5 a8 b0 bc 6d 68 35 bd ed f3 6a 3d
       -0.07216348 -0.02156482 -0.04428904 0.057361532
0001b0 98 24 e3 3c e7 a3 3e 3d 3f 3a 73 bd f9 66 3c 3c
       0.02772741 0.04654303 -0.05938172 0.01149916
0001c0 82 93 84 bc 99 f8 57 bd 81 e6 2c 3d c0 f7 a4 3c
       -0.016183618 -0.052727316 0.042212013 0.020137668
0001d0 bb 68 aa 3c 48 02 a2 ba 8d 7e 21 3b ee f2 d4 3c
       0.020801893 -0.0012360299 0.002464208 0.025994744
0001e0 00 59 08 bd 2a 46 22 3c 40 9e 0e bd 50 4e 46 bd
       -0.033288002 0.009904424 -0.034818888 -0.04841453
0001f0 6f 69 d5 3a e3 c2 f0 3c e2 eb af bc 01 2a 3f 3d
       0.0016282032 0.029389804 -0.021474782 0.046670917
000200 f0 f9 29 bd d7 b6 c4 3b ea 5f 4a bc 6d 9a f7 bc
       -0.041498125 0.0060032415 -0.012351969 -0.030225003
000210 0b 41 67 ba b5 29 07 3d a5 68 83 3c 85 2e 38 3d
       -0.0008821643 0.03299876 0.01604111 0.04496624
000220 08 4d 0e bd 94 2a 00 bd 96 20 95 3c 11 fd 25 bc
       -0.03474143 -0.031290606 0.018204015 -0.0101311365
000230 c6 cb 9d ba 1e 0d 89 3d ba 89 9c bb 69 23 1b 3c
       -0.0012038879 0.06691955 -0.0047771605 0.009468892
000240 55 2e 41 3d a0 1c 6d bb d3 b6 e4 3c dd 14 96 bd
       0.047163326 -0.0036180392 0.027919209 -0.07328198
000250 5e af 34 bc 5a 7a 0a 3d fc 0c f7 ba 01 60 32 bb
       -0.011028139 0.03380809 -0.0018848474 -0.0027217867
000260 ad 3d 4a 3b 69 4b 46 3d 62 fc c8 3b 33 7c 1d bd
       0.0030859516 0.04841176 0.006133602 -0.038448524
000270 94 16 f3 3b 8d e0 b5 bc f0 41 86 bc cf 7b dd 3c
       0.007418463 -0.0222018 -0.016388863 0.027036576
000280 3e 8f ee 3c d4 d0 ee 3c 73 aa 2c 3d fc 59 d7 bc
       0.029121038 0.029152311 0.04215474 -0.026288025
000290 4b 0b 7d 3d b0 f3 ae 3d 74 e7 07 bc 5f c7 2f bd
       0.061778348 0.085425735 -0.008294929 -0.042914744
0002a0 68 ad 14 3c 30 d4 aa 3c 40 e9 f8 bb ad 2e 06 bb
       0.009074546 0.020853132 -0.007596165 -0.0020474598
0002b0 66 9b 25 3c 89 74 8f 3d 24 04 fb bc c7 c7 88 3d
       0.010107851 0.07004649 -0.030641623 0.066787295
0002c0 c1 c7 7c 3b ac 79 e2 3b 7c 31 8b bd f7 c1 bc bc
       0.003857121 0.006911477 -0.06796548 -0.023041708
0002d0 3b 32 53 3d bd 4e 84 3d 3b 9b c6 bc 13 c5 96 bd
       0.051561575 0.06460331 -0.024243942 -0.07361808
0002e0 0e 72 2e 3d e7 35 75 3b b3 b8 20 3d 09 b9 7c 3d
       0.04258924 0.0037416162 0.039238643 0.0616999
0002f0 51 2d 07 3d 2c 5a 07 bc 1b c8 91 3d 43 bb 15 3d
       0.0330022 -0.008261245 0.07118245 0.03655554
000300 ff aa 3f 3d 85 23 72 3d 0a 12 04 bd 16 2b 62 3a
       0.046793934 0.059115905 -0.032243766 0.0008627636
000310 c3 af b2 3c 24 21 c4 3a 74 90 25 3d da 8b a4 bd
       0.021812325 0.001496349 0.040420964 -0.08034487
000320 8c c6 be 3c 00 b6 1c 3d d3 4c 98 3d 78 f5 b0 bc
       0.023288034 0.038259506 0.07436528 -0.021601424
000330 a9 28 be bc a4 3f eb 3c 39 34 a4 3d be eb 5b 3d
       -0.023212748 0.02871687 0.08017773 0.05369162
000340 7b 0f 05 3d b4 bc 2e bd 70 1c 94 3d 74 4b 7c 3d
       0.032485466 -0.04266043 0.072319865 0.061595395
000350 98 57 9a bc 32 9b 82 bd fa 24 ad 3c 12 6f 62 3c
       -0.018840596 -0.063772574 0.021135796 0.013820427
000360 fd 69 62 bd 5a 8c 3b bb e1 4e 5f bc 0a bb 84 bd
       -0.05527686 -0.0028617592 -0.013629646 -0.06480987
000370 79 0e a2 3c a3 ce 79 3d 00 08 c3 3c 6b cc 1f 3c
       0.019782292 0.06098808 0.023807526 0.009753327
000380 25 dc 01 bd de de 0d bd 40 4f f0 ba 44 e5 23 bd
       -0.031704087 -0.03463637 -0.0018334165 -0.040013567
000390 ac e9 85 bd 79 dc 79 bc b6 c0 56 3d 07 d9 f1 bc
       -0.0653871 -0.015250319 0.052429877 -0.029522432
0003a0 ad 3d 41 3d 8a b4 b8 bc 14 bf 40 3c 43 52 bd 3c
       0.04717796 -0.022547025 0.011764307 0.023110515
0003b0 43 e6 43 bc 15 38 a4 3c 4b 37 b7 bc 6b 76 80 3c
       -0.011956754 0.020046273 -0.022365233 0.015681466
0003c0 39 88 ae bb 51 79 c6 bc 47 1f 32 bd e8 0a 26 3d
       -0.0053262976 -0.02422777 -0.04348686 0.040537745
0003d0 62 ca 19 3d f8 80 79 3c ae 46 37 bd 51 21 74 3d
       0.037546523 0.015228502 -0.04474514 0.059602086
0003e0 d8 84 1c bd 07 2a e0 3c b8 97 4c bd ce 26 42 bd
       -0.038212627 0.02736379 -0.049949378 -0.04740029
0003f0 25 a4 43 3d b7 50 c7 bc ae ff c1 bc d8 72 ce bc
       0.047763962 -0.02433048 -0.023681488 -0.025201246

food_logits.bias f4 [3]
000000 d5 b3 fd bd 8f 93 48 3d fe 19 ac 3d
       -0.12387816 0.048968848 0.08403395

net.0.weight f4 [128, 17]
000000 c8 b1 1f 3e 63 24 3c be 0e 36 b3 3f d8 e2 a2 c0
       0.15595162 -0.18373255 1.4000871 -5.090191
000010 4a fe cf be 39 1b 96 be 6a 89 19 be a0 80 0b 3e
       -0.40623695 -0.29317644 -0.14993826 0.13623285
000020 54 b2 6b bd 0a 25 5f 3d d6 40 10 3e 8a 71 17 be
       -0.057543114 0.054478683 0.14087233 -0.14789405
000030 6a 65 2f 3e ee a4 27 3a 26 f5 28 bd 40 00 2b 3e
       0.1712853 0.0006395121 -0.041249417 0.16699314
000040 a0 10 0d 3e 5d cf bb 3d 16 be b2 bd cc 32 12 c0
       0.13775873 0.09170411 -0.08727662 -2.2843504
000050 1f 05 71 40 39 5f e9 3f a5 c0 45 be 06 02 dc 3d
       3.7659376 1.8232185 -0.1931177 0.107425734
000060 bc 4a cf bd 71 3d 3b 3e b8 d6 58 3d b3 3b d3 bd
       -0.10121676 0.18285157 0.052939147 -0.10314121
000070 81 2f 2d be df 64 7e be 47 93 c7 bd 63 c1 cc 3d
       -0.16912653 -0.24843167 -0.09744888 0.09997823
000080 91 6b b5 bd 4a 8f 8e 3b b3 06 12 bd 91 4c 78 3b
       -0.08858407 0.0043505775 -0.03565092 0.0037887434
000090 64 53 88 3f f6 6c bb bf 70 98 35 c0 7c 87 ce 3d
       1.0650449 -1.4642627 -2.837429 0.10084435
0000a0 84 86 6d bc cf 05 56 3d 90 f5 30 3d 3a 21 4c bc
       -0.014497403 0.052251633 0.043202937 -0.012459094
0000b0 c8 ad f1 3d 8e 67 60 3d a7 f3 3a 3d f4 b0 d5 3d
       0.11800724 0.054786257 0.04564252 0.10434142
0000c0 c8 68 ed bd 11 95 23 3d a0 41 19 bd 78 82 dc bd
       -0.11592251 0.039937083 -0.0374161 -0.107670724
0000d0 64 13 be bd 87 6c 98 3f 7b 7d 85 c0 44 5d b8 be
       -0.09281042 1.190812 -4.1715674 -0.36008656
0000e0 ff 4b 14 bd 18 07 76 3e e0 52 05 be 57 fd c8 bd
       -0.036205288 0.24026144 -0.13019896 -0.09813946
0000f0 6f 5b 9a bd c2 f1 2d be a4 e9 46 be fb 94 34 be
       -0.07536971 -0.16986755 -0.19425064 -0.17634957
000100 da 2a 12 be 66 10 2a 3e 03 f6 62 3e 29 a0 bb 3d
       -0.14274159 0.16607818 0.22164159 0.091614075
000110 41 57 e4 3d 30 0a 4b be eb c2 aa 3f 31 4c 46 3f
       0.11149455 -0.19828105 1.3340734 0.7746001
000120 4b 0d 25 c0 b2 2c 96 3c b0 87 46 be f2 88 de bd
       -2.5789363 0.01833186 -0.19387698 -0.10865964
000130 7f d7 3d be 38 c4 0d 3e bb df 22 bd 6a fb d1 3d
       -0.18539236 0.13844383 -0.039764147 0.102530316
000140 b3 3f 4b be ea c7 5b 3e ed 27 a1 3d cb dc 8b bc
       -0.19848518 0.2146298 0.07868943 -0.017073056
000150 d5 a1 0f be 86 24 e7 bd 2b b4 50 bd c4 9e dd 3f
       -0.14026578 -0.11286263 -0.05095307 1.7314076
000160 57 c3 e8 bf 41 c1 de bf f0 83 96 be 70 61 c6 bc
       -1.8184613 -1.7402726 -0.29397535 -0.024216384
000170 1a 7a 86 bc 26 4b 4a be be 29 35 be 87 57 4c 3e
       -0.016415644 -0.1975523 -0.17691705 0.19955264
000180 a0 52 46 bc ba 7f d3 bd e7 73 86 3d 4a a4 c6 bc
       -0.01210466 -0.10327096 0.06565075 -0.024248261
000190 53 b0 cd bd fa bc b9 bd c9 d6 4b bd 3d 3a dc bd
       -0.10043397 -0.090692475 -0.049765382 -0.107532956
0001a0 c8 98 ef bf ec c3 ac 40 89 77 47 3f 2b c7 95 bb
       -1.87185 5.3989162 0.7791677 -0.004570862
0001b0 d1 3b a7 3d 65 5e 26 3e 0c f5 22 3d 01 4a 47 bd
       0.08165706 0.16246946 0.039784476 -0.04865456
0001c0 d5 6c 70 3e 9e 63 42 bc 87 1c 9d 3c 01 5c b7 bb
       0.23479016 -0.011864571 0.019178642 -0.0055956845
0001d0 ee cc 22 bd 4b 92 33 3c 35 51 83 3d 37 dd 38 3e
       -0.039746217 0.010960172 0.064119734 0.18053137
0001e0 5c 2c e5 3d 14 e2 0b 40 c3 32 b9 c0 37 29 55 bf
       0.111901015 2.1856737 -5.7874465 -0.83266014
0001f0 93 ea 42 3e f5 9a 82 bc 05 84 8e 3e 7d 7d 51 3e
       0.19034795 -0.01594303 0.27835098 0.20458026
000200 f2 c5 e3 3d f8 e4 44 bd d5 b4 19 3c 02 81 cd bd
       0.111217394 -0.048069924 0.009381493 -0.10034372
000210 57 61 d4 bc fb 0a 22 3e 5e d5 13 3d 4e 9b b8 bd
       -0.025925322 0.15824501 0.036092155 -0.09013997
000220 23 f6 d6 bd d8 a2 0d 3d 6c 3e af 3f fd 6d b7 bf
       -0.104961656 0.034579128 1.3690925 -1.4330441
000230 76 32 18 bf a4 4a 89 3e a9 78 83 3e cd fc aa bd
       -0.59452 0.2681476 0.25677994 -0.08348999
000240 1b 36 14 3a 1b 5d 25 3d 4a f0 05 3d 6f d6 53 be
       0.00056538143 0.040371995 0.03269986 -0.20687269
000250 e7 d2 46 3d 6a 76 03 3e 62 c9 ad 3d 06 44 21 3d
       0.048540976 0.1283814 0.08485676 0.039371513
000260 dc ea 48 be 3f 4b 7c 3d 44 d1 85 3d 1e 45 ea bf
       -0.19620842 0.061595198 0.06534055 -1.8302343
000270 93 64 c6 40 41 ee 54 3f c4 60 d5 bd 87 1e 30 3d
       6.199777 0.83176047 -0.10418847 0.042997863
000280 83 a9 51 bd 0d 6e 5e 3d e7 07 8b 3d 4f 6b e7 3c
       -0.05118705 0.05430417 0.067886166 0.02824941
000290 9c 6b 8a 3d ef 8f 2e be 8f 09 81 bd d0 b7 58 3e
       0.06758806 -0.17047094 -0.06300651 0.21163869
0002a0 48 56 10 3e 10 84 ca 3c 45 45 11 3e 1f 62 98 bd
       0.14095414 0.024721175 0.1418658 -0.0744059
0002b0 d2 e2 fa bf 61 45 37 40 d9 fd 55 40 be be 81 bd
       -1.960047 2.8636096 3.3436186 -0.06335209
0002c0 5d 4f a1 bc e0 68 90 bd 0d af b9 3d bb 45 5d be
       -0.019691164 -0.07051253 0.090665914 -0.21608631
0002d0 34 d3 95 be f5 c4 10 3d 24 c7 48 3d 86 33 67 3e
       -0.29262698 0.035344083 0.04901804 0.22578248
0002e0 50 d7 52 3d db 1b 2a 3e 4e 74 12 be 63 59 17 3e
       0.05147487 0.16612189 -0.14302179 0.14780192
0002f0 e3 da 34 bc e4 c6 08 3f 5f 95 67 c0 ac 87 72 3e
       -0.011038515 0.53428483 -3.618492 0.23684567
000300 ab 9d 07 3e 7c 71 9d 3d 78 39 6d bd ba a1 f3 3d
       0.1324374 0.07687661 -0.057916135 0.11896081
000310 7d 3f 08 bd 8d cb 81 be 7f 0c 12 be 38 02 25 3d
       -0.033263672 -0.2535061 -0.1426258 0.04028532
000320 18 1f a7 3d ab 4f 83 bd 03 93 71 bd 7f 1f 65 bb
       0.081602275 -0.0641168 -0.058978092 -0.00349614
000330 a2 a8 1a 3d f7 59 96 3d 7a 6e 48 bf 8e 49 bf 40
       0.037758477 0.07341378 -0.78293574 5.977729
000340 ab f2 39 be 8a 92 76 3d d0 cc 25 3e f2 ca 28 3d
       -0.18158977 0.060198344 0.16191411 0.04120917
000350 be c3 1b be 2e df a0 bc 2f d2 0f 3d 0c 72 8f bd
       -0.15211388 -0.01963767 0.035112556 -0.070041746
000360 b5 48 df 3d ad 51 2f 3d 68 72 fd bc 39 94 b0 3d
       0.1090254 0.0428025 -0.030938342 0.08622021
000370 44 a4 53 3b 38 c4 05 3d a2 95 da 3a 14 0d 59 bf
       0.0032293955 0.032657832 0.0016676674 -0.8478558
000380 a5 ff 0d c0 be 34 64 40 2a cc 1a 3d aa f2 b5 bc
       -2.2187283 3.5657191 0.037792362 -0.022210438
000390 47 f4 b3 3c be d7 62 be 74 f6 31 be b7 d0 26 be
       0.021967066 -0.22152612 -0.1737917 -0.16290556
0003a0 a8 ad 84 be 32 90 12 3e 7c 0b ea 3c 99 25 3c 3d
       -0.2591374 0.14312819 0.02856993 0.045934293
0003b0 c9 53 99 bd 67 68 49 3e c8 b5 a1 bc 54 78 d2 3d
       -0.07486684 0.19668733 -0.01974 0.10276857
0003c0 86 a5 b3 bf 9b d3 ac 40 1c bf 8b 3f ac 27 4c 3b
       -1.4034889 5.4008307 1.0917697 0.0031151576
0003d0 b6 c5 86 be 3d e4 37 3d 85 89 a3 3e 96 ae e6 3d
       -0.26322716 0.0448954 0.31940857 0.112637684
0003e0 f9 8c d5 bc 1b e2 c2 bd e7 1e ed 3d 6b 1a 05 3e
       -0.026068198 -0.095157824 0.1157816 0.12998359
0003f0 c3 e2 1a 3e 38 00 ad bd 26 df 25 bd 90 2f fa 3c
       0.15125565 -0.08447307 -0.040496014 0.030540258

net.0.bias f4 [128]
000000 02 91 aa 3e 5f 81 c5 bc 8a 5a bf be 25 ac dd bd
       0.33313757 -0.02410954 -0.37373763 -0.108238496
000010 9f 0f 7e bd a0 bb a6 3d 5f 8d 81 be f7 51 69 3e
       -0.062026616 0.081412554 -0.2530317 0.22785173
000020 68 b2 a1 be 0b 11 ae be 40 65 41 3e d8 3b 32 3d
       -0.31581426 -0.33997378 0.1888628 0.043514103
000030 75 a8 35 3d fa 26 92 3e 2d b1 f2 bd 7d 99 03 be
       0.044350106 0.28545362 -0.118502 -0.1285152
000040 4d 68 ec bd 95 00 37 be a7 3b 85 3d bb bc 50 be
       -0.11543331 -0.17871316 0.065055184 -0.20384495
000050 1f f8 cf be 7f 66 ca bd a9 d5 2f 3e dc fd 16 3f
       -0.4061899 -0.09882831 0.17171349 0.5898111
000060 d4 51 6d bd 26 a3 22 bd 27 91 d9 3c 9e 3f aa 3e
       -0.057939366 -0.03970637 0.026558472 0.3325166
000070 da f3 33 be a0 82 90 3e 51 34 bf bd 9d 25 83 3e
       -0.1757349 0.2822466 -0.093361504 0.25614634
000080 a4 7a a2 bd 82 4f 67 3e 03 99 8f 3e f0 6a 9f 3e
       -0.07933548 0.22588924 0.28046426 0.31136274
000090 79 6a 5b be cc 4c e8 3d 43 e8 80 be e6 2b 55 bd
       -0.21427335 0.11342773 -0.25177202 -0.052043818
0000a0 b5 4c ec 3d 56 6b 5d be 59 91 26 3e 46 dd 1c 3e
       0.11538068 -0.21622977 0.16266383 0.15318784
0000b0 e0 bf a3 bd f9 22 6d be 47 2d b6 bc cc b9 e3 3c
       -0.079955816 -0.23157872 -0.022238387 0.027798556
0000c0 54 e0 a7 3c d1 02 23 3b 56 04 72 be e1 f8 aa be
       0.02049271 0.0024873505 -0.23634467 -0.33393005
0000d0 f5 eb b5 3e 52 9d 5c 3d 61 ef ec 3e 32 8e 91 be
       0.35531583 0.05386097 0.46276382 -0.284288
0000e0 22 18 6c 3e c5 18 9f 3e f1 64 56 3d 29 a4 cf bc
       0.23056081 0.31073585 0.05234236 -0.025346832
0000f0 e3 0d bf 3d 62 7d fe bd 9a f4 07 bf 1b 8c 95 3e
       0.093288206 -0.124262586 -0.5310761 0.29208454
000100 93 a2 4d 3e 4e 42 00 bf 72 b1 59 be 2b 76 91 3e
       0.20081548 -0.5010117 -0.21259096 0.28410468
000110 79 16 05 3e cf c5 62 be ba 8a d4 3d 20 9f 00 bf
       0.12996854 -0.2214577 0.103780225 -0.50242805
000120 6a 86 59 3c 70 10 34 be ed 76 19 3f 47 b2 7f bd
       0.013276676 -0.17584395 0.5994709 -0.062425878
000130 0d 8e 86 3e de 9d 9a 3e a7 4d c6 bd 8e 6e ce 3e
       0.2628025 0.30198568 -0.0968278 0.40318722
000140 81 3c ab 3e b6 3f 3e 3e f0 0f e7 3d d5 6a 8f 3d
       0.33444598 0.18578991 0.11282337 0.070027985
000150 ba 9f 5c 3e ad 45 04 3e 4c 55 52 be 3b 20 3a be
       0.21545306 0.12917204 -0.2054035 -0.18176357
000160 5a 72 1c 3e c7 fd 05 3e 8f 14 38 3d 73 14 24 be
       0.15277997 0.1308509 0.04494148 -0.16023426
000170 86 03 16 3e f9 cf 4b 3e b2 3e f8 bd 94 b8 b2 3e
       0.14649782 0.19903554 -0.12121333 0.34906447
000180 5a 79 52 3e a7 47 4a be b6 85 73 be d3 c2 7f 3e
       0.20554104 -0.19753896 -0.23781475 0.24976663
000190 6e ec ca 3e 17 45 ba bd db 92 89 be fb 61 9a bd
       0.39633507 -0.09095209 -0.26869854 -0.075382195
0001a0 3e b2 ba 3e 6e d9 bb 3e 25 d9 48 3d 21 9a 00 3e
       0.36464113 0.36689323 0.04903521 0.12558796
0001b0 e2 01 15 3e 61 04 0d 3d 69 84 0e 3d 21 e2 16 3e
       0.145515 0.034428004 0.034794245 0.14734699
0001c0 b3 30 9e be ae 73 44 3e b3 ce e5 bd 87 ad 81 be
       -0.3089653 0.19184753 -0.11221065 -0.25327703
0001d0 71 eb f1 bd e8 75 88 3e 8c 09 3e 3e 6c fb 22 3e
       -0.11812485 0.26652455 0.1855833 0.15916222
0001e0 c1 1d 3d be 93 3f 75 3c 7c 69 ab bd 64 48 89 3e
       -0.18468381 0.014968771 -0.08369729 0.26813042
0001f0 9a eb c3 be fd 76 13 3d 58 9e 5d 3e 23 d6 92 3d
       -0.38265687 0.036002148 0.21642435 0.071697496
