src/training_logs_ppo/initial/ppo_checkpoint_121_1764185573.pt (torch, 480155 bytes, 42 tensors)

move_logstd f4 [2]
00000000: 0583 af3f 3546 af3f
1.3711859 1.36933

shared.0.weight f4 [128, 17]
00000000: c186 223e f910 e5bd 150b 4ebe b415 603e
00000010: ef07 2b3e c9f7 27be c2ef 94bd b9e7 c83d
00000020: 51f8 703e 9623 4bbe e239 db3d d075 21be
00000030: 24ff fbbd 14a7 33bd e7f4 303d 1552 c33d
00000040: c5ec 09be 6219 55bd 9e14 cbbd d07b 7c3d
00000050: 11bf e13d a276 8abe d845 7c3e 2869 13be
00000060: 0e62 babb 6599 babd a817 40be c2c3 12be
00000070: 13f6 bbbc befa 4d3e 4a8e 813c 27d1 8a3d
00000080: c9f3 08be cc5e e9bd 7dd3 0f3e 7467 893e
00000090: 24bb f03d 8397 913d 78de adbe 5336 0bbe
000000a0: 7e95 51bd 8f9f a7bd d989 debd 709f fabd
000000b0: 8ead 17be ef83 b53c 793e 553e e696 2fbe
000000c0: 261e d93d da00 493d 0ac6 5d3d 0a0b bdbb
000000d0: 54ab 02be a534 90be fb5c 583d 423b 5c3d
000000e0: 2d23 473e 77d4 1a3e fedb d13c 2588 2c3e
000000f0: 0c6f 81bd cac0 bd3d 3622 8ebc d45e 09bd
00000100: 3aa3 c2bd 730a 123d acc4 ecbd 60fb 403e
00000110: eee0 1f3e 17be 0f3e b421 5fbe 5953 5f3e
00000120: 745a dc3b 23fa 3d3e 5400 66bd 7b1e 913d
00000130: e681 1bbe 092a 243e c003 9d3d 8b54 b73d
00000140: d724 013e 15dd c03b a727 5f3c c650 80bd
00000150: daaa d33d eae0 b3bd b93d 9b3d 7df6 e2bd
00000160: bdf9 76be fa08 6ebe 2439 8f3d abec 4d3e
00000170: 1d2b 26be 1580 573e e6e0 df3c b363 a73d
00000180: 618f d23d 560c be3d c2f1 04be 457d afbd
00000190: 7a8b a8bd d0ad e0bc 948c 0b3d 8c6e bbbc
000001a0: f3b2 bdbd 2a87 4d3d 98c3 123c 3433 cc3d
000001b0: fe71 81be 106d 91bd 0ae2 863e a762 66bc
000001c0: bdad 83be 6748 5bbe 1aa3 773d 033e 87bd
000001d0: 0001 e03b cacb bfbd 5a0e 0abd 2ca0 3ebe
000001e0: ab0c 2e3d 0bea 593d d074 f03d 1068 743d
000001f0: bce3 6cbe 79b0 4abe 0152 523e c3d2 81bd
00000200: 3627 2cbe 76de 913d 9919 c7b8 d004 2bbe
00000210: 2f47 38be a6e0 363e 58cc e93c 99fe d8bc
00000220: 29f8 06be e9e4 a03d 5281 c6bc c63b 46bc
00000230: 34d5 f0bc 7cff 48be 39fe c83a 55a2 883e
00000240: 6c9b 303d 1c49 8bbe 1a15 623d 3579 c6bd
00000250: fde4 da3d 9abf 15be fdd0 51be 0cc5 9e3d
00000260: d913 27be cb3a 273e a7ff ee3c 0399 2e3d
00000270: d04d 94be e0e4 4cbe 3bdd babd 489f f73a
00000280: c6f9 9c3d bb71 1c3e 2a2b 823e aefd b4bd
00000290: ecbc 913d ca00 67be 2ba6 0fbe 26b1 e13d
000002a0: 3644 9c3d ef87 1d3d 8d1a 15be ea3b bd3d
000002b0: 9abe f8bd 4f35 983c c9e9 3abe 76e0 2c3e
000002c0: 801e ffbd 79c9 0fbe 83e3 4cbe 6977 34be
000002d0: 0754 6e3e 24c2 dfbd c4b8 39be e4b8 4d3d
000002e0: ee25 cb3d 10bf c13d 43a4 e2bd 5441 c4bd
000002f0: cbb8 13be 5b27 fd3d 5578 19be b889 663d
00000300: fcff 613e 8591 833e 8c9a 603e e09d 1fbd
00000310: 2c32 9dbd 8b33 64be a37c ee3d 72ae 92bd
00000320: 25fe 81bd 3041 b6bd d0df 9abd b994 a7bd
00000330: 0043 b23b 4a65 19be 614d 52be 694c cb3d
00000340: 2c95 f9bc 6649 77be 183d 373e 57a5 84bd
00000350: 9141 8dbd 6e08 133d c165 b6bd 4f0e 56bb
00000360: b028 02be 4f80 dfbc 6d0c 333b 9e37 543d
00000370: ca39 aebd 9f97 063e c4b8 d63c a463 4dbe
00000380: de73 e33d ea5e 89bd e7a8 5b3e 494d 49be
00000390: 693f 9f3d 84fe 073e e328 54bd 9068 abbd
000003a0: dbb8 223d dce5 9d3d b171 c53c d336 65bd
000003b0: b2f8 2a3e 8292 9fbd 3bec aabd e91f 833d
000003c0: 8761 cfbd 8d63 13be 9304 44be f89b 72be
000003d0: a347 323e 7abe 43be 4f31 5d3e 4bcb a63d
000003e0: a88b 2a3d 151c 59bd 0be8 afbd f1f3 d53c
000003f0: 4f51 363e 0206 4ebe 4b27 afbd 47b5 e8bb
0.15871717 -0.11184878 -0.20121415 0.21883279 0.16702245 -0.16403116 -0.07272293 0.098098226
0.23532225 -0.19837794 0.107044 -0.15767598 -0.123045236 -0.04386051 0.043202307 0.0953714
-0.13469227 -0.05202616 -0.09916042 0.061641514 0.11022771 -0.27043635 0.24636018 -0.14395583
-0.0056879586 -0.09111289 -0.18759024 -0.14332488 -0.022944486 0.20115182 0.015814919 0.06778174
-0.13374247 -0.11395034 0.1404552 0.2683674 0.11754444 0.07108977 -0.33958793 -0.13594942
-0.051167957 -0.0818473 -0.10866136 -0.122374415 -0.148123 0.022157637 0.20824613 -0.17147407
0.106014535 0.049073078 0.054143943 -0.005769138 -0.12760669 -0.28165165 0.052823048 0.05376745
0.19447012 0.15120111 0.025617596 0.1684881 -0.06320009 0.09265287 -0.017350297 -0.0335377
-0.09503789 0.035654496 -0.1156095 0.18845892 0.15613148 0.14037357 -0.217902 0.21809138
0.00672465 0.18552451 -0.056152657 0.07085892 -0.15186271 0.1603166 0.07666731 0.08951672
0.1261171 0.00588573 0.013620294 -0.06265406 0.10335322 -0.08783133 0.07580132 -0.1108217
-0.24118705 -0.23245612 0.069933206 0.20109813 -0.16227384 0.21044953 0.02732892 0.08173313
0.102812536 0.09279697 -0.12982848 -0.08568815 -0.08229728 -0.02742663 0.034069613 -0.022879861
-0.092626475 0.05017773 0.008957766 0.09970704 -0.25282282 -0.0710088 0.2634433 -0.0140616065
-0.2571849 -0.21414338 0.06045828 -0.06603625 0.0068360567 -0.093650416 -0.033705093 -0.18615788
0.04249255 0.053201716 0.1174103 0.059669554 -0.23133749 -0.19793881 0.20539095 -0.06339028
-0.16811833 0.07122509 -9.4938274e-05 -0.16701055 -0.17995904 0.17859134 0.028539822 -0.02648859
-0.13180603 0.07856161 -0.024231587 -0.012099212 -0.029398538 -0.1962871 0.0015334553 0.2668635
0.04311697 -0.27204216 0.055195905 -0.09691087 0.10688207 -0.14623871 -0.20489879 0.077524275
-0.16316165 0.16331021 0.029174639 0.042626392 -0.28965616 -0.20009184 -0.091242276 0.0018892074
0.07664828 0.1527776 0.25423557 -0.08837448 0.07116112 -0.22558895 -0.14028232 0.110201165
0.07630198 0.038459715 -0.1456091 0.09239943 -0.12145729 0.018580107 -0.18253244 0.168825
-0.12456989 -0.140417 -0.20008664 -0.17623676 0.23274241 -0.10925701 -0.18136889 0.050225154
0.09919344 0.094602704 -0.11066487 -0.09582773 -0.14425962 0.12361022 -0.1498731 0.056283683
0.22070307 0.2569696 0.21933955 -0.03896892 -0.07675585 -0.22285287 0.11644866 -0.07162179
-0.06347302 -0.08899152 -0.0756222 -0.081826635 0.005440116 -0.14980045 -0.2053733 0.099266835
-0.030466639 -0.24149093 0.17894399 -0.064768486 -0.068972714 0.03589671 -0.08906127 -0.0032662337
-0.12710834 -0.027282862 0.0027320639 0.051810853 -0.08507116 0.13143776 0.02621115 -0.20057541
0.11106084 -0.067075565 0.2145115 -0.19658388 0.077757664 0.13280684 -0.051796805 -0.08369553
0.039727073 0.07709858 0.024102064 -0.055960488 0.16696432 -0.07791616 -0.08345839 0.06402571
-0.10126024 -0.14393444 -0.1914237 -0.2369231 0.1741014 -0.1911563 0.21600841 0.08144244
0.041637093 -0.053005297 -0.085891806 0.026117297 0.17804454 -0.2011948 -0.085524164 -0.007101688

shared.0.bias f4 [128]
00000000: bdbd ccbd 8eeb 9fbe ae10 d9bd 7878 3cbe
00000010: baed ddbd e67c f7ba 3975 0d3c 9a68 463e
00000020: cd57 89be 91b0 a2bd e64c 103e 3dc2 45be
00000030: f987 013d 3797 89bd fdb8 1bbc eec3 27be
00000040: 60ad d3bd 8ac2 563e e275 cd3d 151c 6bbe
00000050: 3a5b 7cbd bb3e 2a3c deb5 aebc 9c0f ba3c
00000060: 05e8 56bd dd22 0ebe 0223 0f3d 0555 143c
00000070: f2c6 033e 772a 67be 1530 84bc 7169 85be
00000080: 83d6 ccbd 2b36 76bc a2c7 5fbe 6fc5 833c
00000090: 8acd 1cbe a5b3 8fbe 3c54 38bd 6a98 63bd
000000a0: 2cc1 8abe 8660 8fbe cf36 edbc d703 08be
000000b0: 012e 033e 3a6f 89be 8d32 723e 978d 86be
000000c0: 1bb0 e93d 6779 cabd 65ab 8abe 762d f3bd
000000d0: a200 37be adc1 04bd 3a70 313b a014 02bd
000000e0: fced 923d 1b9b 69be d459 a7bd 5988 dcbd
000000f0: 145e 51bd 89e3 62bd 8b2f 0dbe 4d90 ffbd
00000100: 93e6 5dbe 6711 c5bd 8cf2 8ebe 8629 c2be
00000110: cb0b 85bd 2ce8 ca3c 441d afbe 5673 50be
00000120: 2def 5b3d 74a6 283e a973 2b3d b532 f7bd
00000130: e709 533e 52b6 69be 5337 0fbe 12f8 e5bd
00000140: 2ac2 bcbd e56e 6fbe 815b bbbe 0d66 58be
00000150: dc4e f7bd d670 f4bd 6f50 2f3c dd8c 8eba
00000160: d13d 59bd a783 4abe a5e8 863d fcdb 3cbd
00000170: d1bf 08be 569f 3b3e 934f 6bbe 2893 183e
00000180: 81ee 6cbe dc04 83be 03b7 5f3e 8c66 c9bd
00000190: f873 403e 4c07 fcbd 9df6 0f3e dd26 0b3d
000001a0: 0c8a c83d e588 ddbc a915 2abd b585 75bd
000001b0: 1439 07bd eeca 1ebe 557b cdbb f302 74be
000001c0: 38be 33be 93bc 8fbe 31cc c4bc be94 3abe
000001d0: 8df6 17be ea1d 1ebd 4c15 8bbe 9d1c 1a3d
000001e0: 7b2d e8bc c73f 9ebe 5d0f 33be fd79 48be
000001f0: 4994 22be 329d 8e3d 258f a1be c5fe bdba
-0.09997127 -0.312344 -0.105988845 -0.1840533 -0.10836358 -0.0018881827 0.008633905 0.1937584
-0.268248 -0.079438336 0.14091834 -0.19312377 0.031623814 -0.06718295 -0.009504554 -0.16383335
-0.10335803 0.20972648 0.1003225 -0.22959931 -0.061610438 0.010390933 -0.021326955 0.022712521
-0.052467365 -0.13880487 0.034945495 0.009053473 0.1286886 -0.22574793 -0.016136209 -0.26057008
-0.10001852 -0.015027563 -0.21853498 0.016085355 -0.15312782 -0.28066745 -0.045002207 -0.055565275
-0.27100503 -0.2800333 -0.028956799 -0.13282715 0.12810518 -0.26842672 0.23652096 -0.262799
0.114105426 -0.09886437 -0.2708389 -0.11873905 -0.17871335 -0.032411266 0.002707495 -0.03175795
0.07174298 -0.22813074 -0.0817143 -0.10768194 -0.05111511 -0.055392776 -0.13787667 -0.12478695
-0.21669988 -0.0962246 -0.27919424 -0.37922305 -0.0649639 0.024768911 -0.34202015 -0.20356497
0.053694893 0.16469747 0.04185835 -0.120702185 0.20609246 -0.22823456 -0.13985948 -0.11228956
-0.09216721 -0.23382147 -0.3659325 -0.2113268 -0.12075588 -0.11935584 0.010700329 -0.0010875721
-0.05303747 -0.19776784 0.06587342 -0.04610823 -0.13354422 0.183225 -0.22979574 0.14899886
-0.23137857 -0.25589645 0.21847157 -0.098340124 0.18794239 -0.12306079 0.14058919 0.03397261
0.09791955 -0.027042815 -0.041524563 -0.059941966 -0.03301342 -0.15507099 -0.006270806 -0.2382925
-0.17553031 -0.28073558 -0.024023147 -0.18220803 -0.14840145 -0.038602747 -0.27164686 0.037624944
-0.028342 -0.30908033 -0.1748633 -0.19577785 -0.15876879 0.069635764 -0.31554523 -0.0014495483

shared.2.weight f4 [128, 128]
00000000: 1a56 d13c 5e7d 463d 9d02 683d 3c03 b2bc
00000010: adcb 863d 4890 593d a684 34bd 4a37 0d3d
00000020: f2b9 78bc cfb2 823d 74bc 09bb ef19 a4bd
00000030: a252 a8bd 42c2 0f3d f33f dc3c 8f81 aa3d
00000040: 4e99 133d 3c2b 13bd fbd7 96ba bed2 313b
00000050: 4e72 413c 348a bcbd ca5c 8cbd 8a71 cc3c
00000060: 49be a93d 1861 a8bd 57e5 c2bc 24fa e1bb
00000070: 98d2 fdbd e3a1 80bd 098c a1bc 7481 623c
00000080: 68d7 4cbc 0a29 a9bb 2183 813d b1bb 01bd
00000090: 733c 843d d59f c6bd 65ec 413d 96ee 95bd
000000a0: 2ff1 a73c d6ac cdbd dc6c abbd 70d7 363d
000000b0: edc4 24bb 6ece a0bd feae 85bd 8113 343d
000000c0: 421c d1bc 83e4 a9bd 30b6 d43c e12f 75bd
000000d0: 05f2 1a3d 0cad ee3b c30e e7bc 8300 523d
000000e0: f316 383d 3d8d 80bd c1ba 03bc 5136 143d
000000f0: b448 16bd 5780 54bd 707f 0bbd 6a01 5bbd
00000100: e647 803d 9660 483d 66ab 933b 52c0 a2bc
00000110: f2f9 cbbd 00a0 913b ba78 4fbd 7c85 c13c
00000120: 802a c1bc 77aa 90bd 6beb 80bd d8bf 58bd
00000130: e192 45bd 2c1f 97bd b4ba 20bd 403e 163d
00000140: f9a4 09bd 9b89 1ebd 41b1 01be 0407 c6bd
00000150: 105f b9bc 1166 15bd 06e1 78bc c8ab 0dbe
00000160: bb54 b9bd 6a9d 01bd 0c59 9f3c 805c 57bd
00000170: fad3 c33c a40a 103d 6181 503d f4c2 3fbd
00000180: e015 c2bd b6ae 983b d6a8 85bd 017d 143d
00000190: dba8 aabd 7133 003d 47c4 17be 8e6f e8bd
000001a0: 7b46 9fbd d13d 00bb 744a c4bd 192f 413c
000001b0: 3420 953d 95de 82bd 4a0a 183d 67fe 0cbd
000001c0: 4c41 c5bd 3cf1 0a3d a309 213a 9f7a 79bc
000001d0: 36f0 103d 3c58 c6bd 617b 86bd 2605 6abc
000001e0: 4655 35bd e342 4fbd a170 62bd e664 5f3c
000001f0: 53a7 f73c 93fe 933c fab8 89bd 0274 d2bc
00000200: ab0c 2ebd 9c35 53bb 51af b6bd ae5e eebd
00000210: 3b80 8a3c 76d7 413d a758 a5bd 4ef1 823d
00000220: fc26 853d cfe1 ef3b 3c82 8dbd 44a2 b6bc
00000230: 5aab efbd 4cb5 1f3d d407 953c ff83 563d
00000240: 369a e13c 6ca2 94bd f628 1abd b3de c63c
00000250: cca1 cfbd 9340 cabc a889 81bd ae88 843c
00000260: 31ae c1bb 6d8f 0dbc c3a6 123d f3a1 9dbd
00000270: 2918 3bbd 6129 53bd 0d02 5bbd 60d5 bbbd
00000280: 3495 48bc 39f4 88bd b9c3 24bd d260 213d
00000290: d86d dcbd a689 a43c 809e 52bd 739d f1bd
000002a0: d67e d0bd e10b a4bb c0fb 613d 1ead 08bc
000002b0: a807 2d3d a240 9fbd f28f 7c3d 61e2 7a3d
000002c0: c849 833b cfa1 6abd 7953 9bbd 0eb6 8cbd
000002d0: 8883 653d 1710 df3c e29c 383d c581 743d
000002e0: 87bf c0bd 18c7 33b9 6ac4 96bd b67a 343d
000002f0: 1abc 65bd fdc7 e3bd 79ea 6cbd 95b3 c2bb
00000300: b0cc 16bd 765c 88bd 9807 003d f4b8 8bbd
00000310: c9c4 9a3d 1bc2 673d b0e8 913b 976e 623d
00000320: de60 84bd 2ded f83c 478d fdbd 21d8 acbc
00000330: 5048 94bd 5ada 2bbd c617 35bd 319e 1bbe
00000340: 4b09 ed3c 9c72 b7ba 08a5 a7bb ba4d cc3c
00000350: cbfc 9dbd a6b3 e0bb 2e8f 153d 3178 33bd
00000360: ba76 873d 5650 82bd 8549 ddbc 05a7 6f3b
00000370: 02a0 afbd f722 afbd 5a7e 96bd c79c 013d
00000380: ea67 e0bc fe04 3539 47d1 c9bd dc24 1cbe
00000390: 22fd 02be d1b8 703a 14ef 3d3d 8f97 72bd
000003a0: a50a 4dbd 7a6b 87bd 918e 603d 037d f6bc
000003b0: f364 3a3b 58f4 58bc 05b4 7c3d 6c48 7cbd
000003c0: 15b7 923d 2485 fc39 4ab4 bebb ca91 9f3b
000003d0: 6d09 0abd d1aa 99bd 05de 1f3d ed0c 15bd
000003e0: 78a5 d6bd c63b 19bd ffa8 c5bd b953 82bd
000003f0: 28ce 25bc 4daf cdbd b2df f2bd 7126 debc
0.025553752 0.048459403 0.056643117 -0.021730058 0.06581817 0.053116113 -0.044071816 0.034476556
-0.015181052 0.06381761 -0.0021016868 -0.08012759 -0.08218886 0.035097368 0.026885962 0.083254926
0.036034875 -0.035929903 -0.0011508459 0.0027133669 0.0118070375 -0.09206048 -0.068536356 0.024956483
0.08288247 -0.08221644 -0.023790998 -0.006896274 -0.12393683 -0.062808774 -0.019720094 0.013824809
-0.012502529 -0.005162363 0.06323839 -0.031673137 0.06456842 -0.09698454 0.047344584 -0.07320897
0.020500747 -0.100427315 -0.08370373 0.04463905 -0.002514179 -0.07851873 -0.06527518 0.043963913
-0.02552617 -0.08295538 0.02596578 -0.059860114 0.037828464 0.0072838124 -0.028205281 0.05127002
0.04494376 -0.06276939 -0.008040131 0.036184613 -0.03669043 -0.051880207 -0.03405708 -0.053468145
0.062637135 0.048920237 0.0045065163 -0.019867096 -0.09959783 0.0044441223 -0.050652243 0.02362322
-0.023579836 -0.070637636 -0.062949024 -0.05291733 -0.048235778 -0.073789924 -0.039240554 0.03668046
-0.033604596 -0.03870545 -0.12665273 -0.09669307 -0.022628337 -0.03647429 -0.0151903685 -0.1383506
-0.09049364 -0.031644262 0.01945164 -0.05257845 0.02390479 0.035166398 0.050904635 -0.04681678
-0.094768286 0.004659499 -0.065263435 0.036252026 -0.08332988 0.03129906 -0.14820968 -0.11349402
-0.07777115 -0.0019568095 -0.09584513 0.011791014 0.07281533 -0.063901104 0.037119187 -0.034422304
-0.09631595 0.033921465 0.00061430986 -0.015226989 0.035385333 -0.09684798 -0.065665014 -0.014283454
-0.044270776 -0.050600898 -0.055283193 0.013634896 0.030231154 0.018065726 -0.067247346 -0.025690082
-0.04249255 -0.0032227999 -0.08920158 -0.116391525 0.016906848 0.04732462 -0.0807355 0.063936815
0.06501576 0.0073206197 -0.06909606 -0.022294171 -0.117026046 0.038991258 0.01819221 0.052371975
0.027539354 -0.07257542 -0.03763672 0.024276113 -0.10138282 -0.024688995 -0.06325084 0.016178455
-0.005910658 -0.008640152 0.035803568 -0.07696905 -0.045677338 -0.051553134 -0.053468753 -0.091715574
-0.012242604 -0.06687207 -0.04022572 0.039398976 -0.107631385 0.020085167 -0.05142069 -0.11797609
-0.10180442 -0.005006299 0.055171728 -0.008342056 0.04224363 -0.077759996 0.061660714 0.061251048
0.004006598 -0.05728322 -0.075842805 -0.06870662 0.05603364 0.027229352 0.04507149 0.05969407
-0.09411531 -0.00017144938 -0.07361682 0.04406234 -0.05608759 -0.11122129 -0.057840798 -0.005941818
-0.0368163 -0.066582605 0.031257242 -0.068223864 0.07557065 0.056581598 0.0044527873 0.055281248
-0.064637884 0.030386532 -0.12380462 -0.021099152 -0.07240355 -0.041956283 -0.044212125 -0.15197064
0.028935095 -0.0013995948 -0.005116109 0.024939407 -0.07714232 -0.0068573533 0.0365135 -0.043815795
0.06614442 -0.06362979 -0.027012596 0.0036568057 -0.08575441 -0.08551591 -0.073483184 0.031643655
-0.0273933 0.00017263365 -0.098543696 -0.15248436 -0.12791875 0.0009182813 0.04637058 -0.05922657
-0.05005898 -0.066122964 0.054823462 -0.030088907 0.0028441518 -0.01324185 0.061695118 -0.061592504
0.071638264 0.00048164383 -0.005819832 0.0048696743 -0.033700395 -0.07503284 0.039030094 -0.03638928
-0.104807794 -0.03741052 -0.09651374 -0.06363625 -0.010119952 -0.100432016 -0.11859073 -0.02711794

shared.2.bias f4 [128]
00000000: 7fc3 5fbd e448 cabd 5ae7 e9bd 42c0 033d
00000010: 2366 83bc 5434 c63c 0f69 3d3d b28e 4c3d
00000020: 7afb e9bd 18b0 8c3c b2b7 b4bd 0caa cabc
00000030: 8a37 823c 89ea 78bd edab cdb9 66ea fcbd
00000040: d221 a0bc 69df afbd b9e0 cf3c 7319 a7bd
00000050: efad cbbd f2f7 5f3d 4d71 a3bd 17e6 d9ba
00000060: 64cb 7abc a479 1b3c 0474 153d 8fb6 ab3c
00000070: 61d4 99bd e5a4 9ebc e75f d0bd b987 2e3b
00000080: e703 2b3d 725b c5bc 46e8 59bd 93c0 fe3c
00000090: bbeb b1bd 6f56 eebc 2012 bcbd c900 98bd
000000a0: 68a0 95bd 8bcc 08bc e3e4 173d 93c9 aebd
000000b0: 2c9a eebd 8681 81bd e69f f63b 9af9 ff3c
000000c0: f540 b0bc 99b3 bdbd a9bc da39 e3b7 4bbd
000000d0: 48f7 e1bd c626 8dbc d27f 65bc 6e2d 543d
000000e0: 371b 9e3b 63ea e6bd a183 f6bb 6dae bbbc
000000f0: c5a8 3cbd 6d17 ecbc aac6 293d 0e7b 40bd
00000100: 03e9 aebd f54c 97bd 0ffe d3bc b9a5 7bbd
00000110: b636 eebd 4a61 223d 914f bebb 05d0 84bd
00000120: 5d8a 843c 6d09 ca3c 11a3 f9bd 7935 463d
00000130: 003e c03b f2f5 e6bd a7d0 993b 0f7f 2e3d
00000140: 40b1 7abc a393 e13c 6377 023d 39dc adbd
00000150: 7c48 6dbb a0a6 6fbd 6ded c83c f8db eabd
00000160: 7952 ce3c 1a7a cbbd a0ec 2abb 125a c2bd
00000170: 3417 24bc 251d 67bd 797a 6bbd 0317 163d
00000180: 1c96 503d 7522 a1bd 1340 8ebd 146c 353d
00000190: 5ecc ccbd 3b66 5cbc b103 06bd bec1 3d3d
000001a0: 5388 82bd 436b 43bd 96dd dabd 8274 c3bd
000001b0: b611 ccbc 55ac 213d b04a cfbd 1520 043d
000001c0: 4f38 4fbd aab7 e73b 8347 87bd a8f7 f1bd
000001d0: acff 8dbd 161e 78bd 75ec 44bd 77e9 a0bd
000001e0: 0cfb 3dbd bf5a 2a3d 2e7b fbbb 1b42 85bd
000001f0: 7563 b3bd aead a7bd 8fb4 373d 2fda 86bd
-0.0546298 -0.09877184 -0.1142108 0.032165773 -0.016039914 0.024194874 0.04624277 0.049940772
-0.114249185 0.017173812 -0.088240996 -0.024739288 0.015895624 -0.060770545 -0.00039228742 -0.123493955
-0.019547377 -0.08587534 0.02537571 -0.08159151 -0.099452846 0.05467982 -0.07980595 -0.0016624358
-0.015307281 0.009489451 0.036487594 0.020961074 -0.07511211 -0.019365737 -0.10174542 0.002663119
0.04175177 -0.024091456 -0.05320003 0.031097686 -0.0868754 -0.02909395 -0.091831446 -0.07422025
-0.07305986 -0.008349548 0.037083518 -0.08534541 -0.116505 -0.06323533 0.0075263856 0.031246949
-0.021515349 -0.09262771 0.00041720763 -0.049735915 -0.11033493 -0.017230403 -0.0140075255 0.051801138
0.0048250216 -0.112751745 -0.0075230156 -0.022910321 -0.04605939 -0.028819764 0.041449226 -0.046992354
-0.08540537 -0.07387725 -0.02587798 -0.061437342 -0.11631529 0.039643563 -0.005807825 -0.06484989
0.016179258 0.024662698 -0.121893056 0.04839084 0.005866766 -0.11277379 0.0046940628 0.04260164
-0.015301049 0.027536219 0.031852137 -0.0848927 -0.0036206534 -0.058508515 0.024527276 -0.11467737
0.02518581 -0.099353984 -0.002608098 -0.09489836 -0.010015298 -0.05642428 -0.057489846 0.03664304
0.050924405 -0.078679 -0.06945815 0.044292524 -0.099999174 -0.013452108 -0.032718364 0.046327345
-0.06373658 -0.047709715 -0.106867954 -0.095437065 -0.024910789 0.03947099 -0.101216674 0.03225716
-0.05059081 0.007071455 -0.06605437 -0.11814815 -0.06933531 -0.060575567 -0.048077065 -0.0785703
-0.046381995 0.04159045 -0.0076745963 -0.06506749 -0.08759204 -0.08187424 0.04484993 -0.06584584

move_mean.weight f4 [2, 128]
00000000: 881d c03b b673 56bc c252 d7bc 926d 5c3c
00000010: 571b ca3b 8684 103c 3444 e03b 776a dbba
00000020: aa09 c33c 43e0 d438 bd2d 19bc 7eea bcbb
00000030: 5fab 15ba 5dda 663d 8f91 763c cd58 d6bc
00000040: f3ca 113d 08a3 333c 2d51 07bd 33d3 b9bc
00000050: 8f4c 0f3d c62f 3e3d 9c66 e4bc 54cd 5cbc
00000060: 6546 44bc 4296 1e3d ea00 643d dbad b5ba
00000070: 15dc 5c3c b480 1b3b 76c4 3f3c da3b 3dbc
00000080: 8083 4d3c 6ff1 8f3b e27b 393d 23ef 873b
00000090: c944 8dbc 975c 823d bc24 81bd 8ed4 8b3c
000000a0: 955d 08bd 58cf f03b a7bb 0b39 aab2 7f3c
000000b0: 69ea ad3c bf2a 0cbb 2aa2 5ebc b074 16bd
000000c0: 3ea6 ce3c ecf5 22bc 5ace afba 9118 303b
000000d0: 9135 df3c 5c08 cdbb f367 7c3c b566 f3bc
000000e0: 900d 45bd 2763 17bd 51c3 e73c cd76 9ab8
000000f0: 6120 723c 877e ecbb f7e3 c03c b8ec 51bb
00000100: df02 03bc a381 f83b e63e 113b 3985 15bc
00000110: b7f3 1dbc 9a9d 2a3d 9a5f 8c3c 0716 393d
00000120: c53a 90bc 9db3 943c a724 ee3b c7b5 06bc
00000130: 6252 93bc c801 d9bc a40c 7d3d e791 a3bc
00000140: 3280 f8bc 4b37 863d e954 b23b b94b c53b
00000150: 9d7b a1bb c15b 04ba 64df eb3c b9b4 753b
00000160: b242 053d 5e20 3c3c c2b5 073c 7539 0dbd
00000170: dff2 553c 5930 61bd b4dd 5a3c 50a2 7a3d
00000180: 2cc6 503d 2600 87bc 3de8 813c 94b7 e63c
00000190: 1ba3 3c3c fc23 193d 9478 acbb 9dd5 ab3c
000001a0: c2f3 b8bb d283 05bc 7c84 503d 026a f73c
000001b0: bfdd fcbb 3b77 63bc 233a a23b 01d9 0bbc
000001c0: 08b4 50bd 3807 973c f518 e53a c9ba 8cbb
000001d0: 944a bf3c 9edb e23b 5504 3d3b 4a94 fb3c
000001e0: f032 47bc d033 41bd ca40 483d 068e cbbc
000001f0: 44b4 81ba 6761 72bc 731d 713b 2744 893a
00000200: 9aca 163c 9227 333b adf8 7b3c f480 41bc
00000210: 730a e13c c734 8d3c 7d2a 2bbc b720 a2bd
00000220: 086b 4f3c 9778 47bc bbfb cdbc 874b b5ba
00000230: fddc 963d 3f09 6ebc 29b5 04ba de72 183c
00000240: 9906 c8bb ce41 08ba 5f32 9fbc d7dc 423d
00000250: e372 5d3d 3ad8 3e3c dff8 413d 034c dd3c
00000260: 33db aebc 9650 11bd d165 f53c 0612 44bb
00000270: 46d9 0cbc 4bd3 c3bb 0172 0ebc bc94 edbb
00000280: 556a febb cb1a 1fbb 0aac ed3c d8a4 4dbc
00000290: 4f7c adbb 2b48 5abd 8814 3e3d 00ed b6bb
000002a0: 931f 743c 72a0 133c 463a 3c3c cc5c ba3c
000002b0: f671 d33b e23d f83c 5d52 22bc 6ab0 d7bc
000002c0: 172f 9d3b 4f2e 81bb b9ef c0ba 0666 48bc
000002d0: acc9 ae3c fd96 093d 3e56 563c 82c0 923d
000002e0: 5802 4cbd 0cd2 543c 7f9d 073d 812d 7fbc
000002f0: e075 9d3c ae3c 0abd 105e a1bc 6382 cf3c
00000300: a012 473c f892 9abc 2405 aebc 3152 b6bb
00000310: 3071 58bc ae26 4c3c 8965 98bc d397 75bd
00000320: 42c6 8e3b e968 3dbc c666 97bc bd19 023b
00000330: e77e 14bd 668e 02bd 8d0b 70bd 2321 b23b
00000340: f8fc 86bc b893 85bd 06da ffbb 5f5b 8139
00000350: d5dd 53bc 0d9f 30b9 f569 8abc 4f60 1fbd
00000360: 3776 0abc ee5b 9dbc 583c bf3a 8496 34bb
00000370: c5b1 143a 49d0 c23c b546 3b3d 6665 c63c
00000380: 6ca8 4b3c 55ef 9cbc 14a5 d3bc 58cc 2c3c
00000390: 09dd 243d 8b3c 743d a654 65bd 33b7 37bc
000003a0: e69e 463d 2f62 033c d7c5 3bbc 70c8 9c3c
000003b0: 8d44 c7ba 1bd0 e53c f845 d13c ce7c e639
000003c0: 59a3 14bd efe3 02bd 1781 233d 420a 19bc
000003d0: 5a90 d53b ad1c 66bb e2b1 13bd 32a0 873c
000003e0: c9e5 7cbd 4603 d73c e1dc a6bd a5d8 9f3c
000003f0: 94ff 263a 5313 d23b fc3b 1ebb 3f70 2d3d
0.0058628954 -0.013089111 -0.02628458 0.013453858 0.00616781 0.008820659 0.006844068 -0.0016740103
0.02380832 0.0001015072 -0.009349284 -0.0057652583 -0.0005709435 0.05636059 0.015049352 -0.02616539
0.035593938 0.010964163 -0.0330364 -0.022683715 0.03498512 0.04643228 -0.02788096 -0.013476688
-0.011979674 0.038717516 0.055664934 -0.0013861017 0.013480206 0.0023727836 0.011704555 -0.011549914
0.012543559 0.004392795 0.04528416 0.0041483804 -0.017244713 0.06365316 -0.06305835 0.017069127
-0.03329237 0.007348936 0.00013325979 0.015606562 0.02122994 -0.0021387783 -0.013588468 -0.036732376
0.025225755 -0.009946328 -0.0013412938 0.0026870111 0.027247222 -0.0062571 0.015405643 -0.02971206
-0.048108637 -0.036959793 0.028291376 -7.3654206e-05 0.014778228 -0.0072172317 0.023546202 -0.0032031965
-0.00799629 0.0075838133 0.0022162735 -0.009126001 -0.009640626 0.041654207 0.01713543 0.045187023
-0.017606148 0.018152053 0.007267553 -0.00822205 -0.01798362 -0.026490107 0.061779633 -0.019967033
-0.030334566 0.06553515 0.005442251 0.0060209897 -0.004928066 -0.0005049073 0.028793044 0.0037491752
0.03253431 0.011482326 0.0082830805 -0.034478623 0.013058393 -0.05497775 0.013358522 0.06118995
0.05097024 -0.016479563 0.01585781 0.028163709 0.011513497 0.037387833 -0.0052633975 0.020975882
-0.0056442926 -0.008149104 0.050907597 0.030201916 -0.007716864 -0.013883407 0.004950778 -0.0085356245
-0.05095294 0.01843606 0.0017478751 -0.0042947275 0.023350991 0.006923153 0.0028841693 0.030710358
-0.012158141 -0.047168553 0.048889913 -0.024847995 -0.0009895642 -0.01479373 0.0036791235 0.0010472581
0.009203577 0.0027336818 0.015379113 -0.01181053 0.027470803 0.01723708 -0.010447142 -0.07916396
0.012659796 -0.012174747 -0.025144449 -0.0013831713 0.07366369 -0.014528572 -0.00050623954 0.00930473
-0.006104302 -0.0005197794 -0.019433198 0.04757389 0.054064643 0.011648232 0.047356483 0.027013784
-0.021344757 -0.035477243 0.029955776 -0.002991797 -0.008596724 -0.005976116 -0.008694173 -0.0072503965
-0.0077641406 -0.0024277444 0.029012699 -0.012551509 -0.0052943598 -0.05329148 0.0464063 -0.005582452
0.014900106 0.009010421 0.011488503 0.022749327 0.006452794 0.030302946 -0.009907332 -0.026329238
0.0047968733 -0.003942288 -0.001471988 -0.0122313555 0.021336399 0.03359126 0.013082085 0.07165624
-0.049806923 0.012989532 0.033109184 -0.015574814 0.019221246 -0.033749275 -0.019698173 0.025330728
0.012150437 -0.018868908 -0.021242686 -0.005563997 -0.01321058 0.012460394 -0.018603103 -0.059959244
0.0043571303 -0.011560657 -0.018481623 0.0019851767 -0.036253836 -0.031874083 -0.058604766 0.005436079
-0.016478047 -0.06522316 -0.007807973 0.00024672874 -0.012931307 -0.00016843919 -0.016896227 -0.038910206
-0.008451036 -0.019208875 0.0014590127 -0.0027555535 0.00056722417 0.023780959 0.04572173 0.024218272
0.012430292 -0.019157091 -0.025835551 0.010546766 0.040249858 0.05962805 -0.05598893 -0.011213112
0.04849138 0.008019014 -0.011460743 0.019138545 -0.0015202925 0.028053334 0.025546059 0.00043962005
-0.036288593 -0.031955656 0.03991803 -0.009340825 0.006517452 -0.0035112307 -0.036058314 0.01655588
-0.061742578 0.026246678 -0.08147598 0.019512484 0.00063704816 0.006410995 -0.002414464 0.042343374

move_mean.bias f4 [2]
00000000: ddce 82bc 291a 14be
-0.01596778 -0.14463104

food_logits.weight f4 [3, 128]
00000000: 9e87 31bd 5ab3 123c 6d6c 1b3d 757b 9cbc
00000010: 4f8c 193d bdf1 b8bc df16 533c 3209 313d
00000020: 767e aebc 0993 d8bc 9161 2b3d 28d2 fabc
00000030: 61a8 61bd 6119 2cbd c76a 233c 9045 db3c
00000040: ed57 02bd f274 c9ba 1419 603d 1322 8fbd
00000050: f886 773d 99e9 c53c 46d3 58bd b512 8ebb
00000060: 3b2f efbb 7ac1 7c3d 9497 6d3d 6744 2fbd
00000070: 4203 ed3b be51 5fbc 1807 10bd b754 f63c
00000080: 2a93 823d 6b3f 473d 21cc 273d a52f c6bc
00000090: 86c9 8b3d 1ad0 843b 87c6 053d 17ff 50bd
000000a0: c2a6 8ebd b55b 1f3c 8701 803d 32e5 91bc
000000b0: 7d4a 0ebb d359 103d 9d7f 20bd 1051 973d
000000c0: cb01 293d 2219 8dbc 8795 a4bd 8250 023d
000000d0: 5eaa 563d 6e01 86bb e1b4 89bd d563 41bd
000000e0: ad45 fe3a ea2a 0ebc e6c3 643c 2778 c33c
000000f0: 00f1 963c 430f 28bd ae6f 703d 7206 803c
00000100: 4057 bd3d 72da 293d 036c 813d feef e83c
00000110: 42d7 f83b 1001 323d f8c1 293d 3c68 8f3d
00000120: 0cf9 9bbc d4ec 043d 921d 953b 0870 8ebc
00000130: 1b49 553d f71f 383d 28db 6e3d a550 3c3d
00000140: be08 2d3b 335f b13d f78a 5c3d 6656 463d
00000150: 4b7c 99bb 3445 55bd 13c2 083d a1b2 973d
00000160: ec49 dabc 603f 083d 2445 4abd a28d d0bc
00000170: d233 b63c 1c25 0c3d c8dd 1cbd e6ce 8cbc
00000180: 71d1 cebb 7db4 d9ba feaf ab3c 9378 1abd
00000190: c2e3 5bbd 9d77 27bd 856c 2b3d 3e85 91bc
000001a0: 6547 80bd b5a8 b0bc 9d61 5cbd e2a4 933d
000001b0: 5924 953c 5a68 703d 9fb5 8abd f966 3c3c
000001c0: cb71 acbb c3aa d4bc 81e6 2c3d 302e f13c
000001d0: b0a9 043d 4802 a2ba 52fb dcbc 9cd9 f03c
000001e0: f100 26bd 62fd ff38 29d2 b5bc 504e 46bd
000001f0: 42cb 323c e3c2 f03c e2eb afbc a515 663d
00000200: c0d8 13bd f675 8a3a 1ea6 27bc a6f1 c9bc
00000210: 17ea 8bbc b529 073d 5b89 823c 2ae5 3e3d
00000220: 084d 0ebd 942a 00bd 4bf0 d83c 5ea0 1eba
00000230: 7aac 063c 65fd ad3d ba89 9cbb c754 c03c
00000240: 552e 413d c155 57bc 4409 ec3c 3d2c 85bd
00000250: e54b 02bd 1d45 433d fc0c f7ba 1776 33bd
00000260: ad3d 4a3b 4862 1f3d c66f 2dbc 337c 1dbd
00000270: 9416 f33b 5d21 8cbc f041 86bc 7b94 dd3c
00000280: 89ef 123d d4d0 ee3c dd6e dc3c b5fb f0bc
00000290: b2e3 923d e394 9b3d 74e7 07bc 5fc7 2fbd
000002a0: 119d 843c c303 e83c 0bcf e6bc ad2e 06bb
000002b0: bbd6 82bb 8974 8f3d dd79 d2bc c7c7 883d
000002c0: c1c7 7c3b b37a 903c 7c31 8bbd 175c 05bd
000002d0: db2a 5a3d 465d 973d 3b9b c6bc 861e 94bd
000002e0: 35e3 493d 81a2 babb b3b8 203d 09b9 7c3d
000002f0: cdee 5bbb 5ad8 99ba 41d3 663d 43bb 153d
00000300: 8ef2 af3c 11aa 8a3d 0a12 04bd 162b 623a
00000310: c3af b23c 2421 c43a 94e9 873c da8b a4bd
00000320: e278 603c 00b6 1c3d acb0 c33d 92de febc
00000330: a928 bebc a43f eb3c 31ba aa3d 23e1 793d
00000340: c1c3 813d 25ab 04bd 701c 943d 8759 853d
00000350: e44b 1dbd 329b 82bd b73d e23c 126f 623c
00000360: 90fb 6cbd 5a8c 3bbb b275 0abd 5067 97bd
00000370: 5be9 e93c a3ce 793d 0008 c33c c7f1 9d3c
00000380: b78f 41bd 3779 f1bc 24ab 0b3b 48c6 febc
00000390: 557c 85bd 79dc 79bc 074c 8d3d f479 2abd
000003a0: cc83 5f3d 8ab4 b8bc 8b63 ae3c 000a 063c
000003b0: 1740 20bb 8cf5 063d b331 b9bc 6b76 803c
000003c0: 5e2f c3bc 6cb0 d8bc 471f 32bd d31c 543d
000003d0: 470c db3c f880 793c 38f7 9a3a c709 6c3d
000003e0: e027 74bd 3853 213d 7241 7fbd ce26 42bd
000003f0: 6250 453d b750 c7bc aeff c1bc fd77 80bc
-0.043342225 0.008953894 0.0379452 -0.019101838 0.037487324 -0.022576207 0.012883871 0.04322166
-0.021300536 -0.0264373 0.041841093 -0.030617788 -0.05509222 -0.04201639 0.009974188 0.026766568
-0.031822134 -0.0015369935 0.054711416 -0.06988921 0.06043145 0.02415924 -0.05293586 -0.004335726
-0.0072993315 0.06170795 0.058005884 -0.042789843 0.0072330544 -0.013630329 -0.035163015 0.030069692
0.063757256 0.048644464 0.040966157 -0.02419264 0.06825547 0.004053128 0.032660034 -0.051024523
-0.069654 0.0097264545 0.06250291 -0.017809484 -0.002171188 0.035241913 -0.0391842 0.07388508
0.041261476 -0.017223898 -0.080363326 0.03181506 0.05240857 -0.004089526 -0.06723953 -0.047214348
0.0019399427 -0.008677224 0.013962721 0.023861004 0.018425465 -0.04103018 0.058700256 0.015628073
0.09245157 0.04146809 0.0631943 0.02843475 0.00759402 0.043458045 0.04144475 0.07002303
-0.019039653 0.03245242 0.004550644 -0.017387405 0.052071672 0.04495236 0.058314472 0.045975346
0.0026402916 0.08660736 0.053843465 0.04842224 -0.0046840063 -0.05206795 0.03338821 0.07407118
-0.026646577 0.033263564 -0.049382344 -0.02545816 0.022241507 0.034215078 -0.038297445 -0.0171885
-0.0063115885 -0.0016609576 0.020957943 -0.037712645 -0.053684004 -0.040885556 0.04185154 -0.01776373
-0.062636174 -0.02156482 -0.05380403 0.07209183 0.018205808 0.058693267 -0.06772923 0.01149916
-0.0052625886 -0.025960332 0.042212013 0.02944097 0.03238839 -0.0012360299 -0.026975308 0.02940064
-0.04052824 0.00012206544 -0.022194939 -0.04841453 0.010912718 0.029389804 -0.021474782 0.056172986
-0.03609538 0.001056372 -0.0102324765 -0.02465136 -0.017079396 0.03299876 0.015934637 0.046605267
-0.03474143 -0.031290606 0.026481768 -0.0006051118 0.008219833 0.08495597 -0.0047771605 0.023477925
0.047163326 -0.013143004 0.028813012 -0.065025784 -0.03181066 0.047673333 -0.0018848474 -0.04381379
0.0030859516 0.038912088 -0.010585731 -0.038448524 0.007418463 -0.017105753 -0.016388863 0.02704834
0.03587297 0.029152311 0.026908332 -0.029416898 0.07172336 0.07596757 -0.008294929 -0.042914744
0.016188176 0.028322106 -0.028174898 -0.0020474598 -0.003992883 0.07004649 -0.025692875 0.066787295
0.003857121 0.017636633 -0.06796548 -0.032558527 0.053263526 0.07390837 -0.024243942 -0.072323844
0.049288947 -0.0056956415 0.039238643 0.0616999 -0.0033559084 -0.0011737451 0.05635381 0.03655554
0.021477964 0.06770719 -0.032243766 0.0008627636 0.021812325 0.001496349 0.01659087 -0.08034487
0.013700696 0.038259506 0.09555182 -0.03111199 -0.023212748 0.02871687 0.083362944 0.061005723
0.06336165 -0.03238978 0.072319865 0.065112166 -0.038402453 -0.063772574 0.027617319 0.013820427
-0.057857096 -0.0028617592 -0.03380365 -0.07392752 0.028553655 0.06098808 0.023807526 0.019280327
-0.047256198 -0.029476745 0.0021311725 -0.031100407 -0.06517855 -0.015250319 0.06899267 -0.04162021
0.05456905 -0.022547025 0.0212877 0.008181095 -0.0024452263 0.032949015 -0.022606706 0.015681466
-0.023826297 -0.026451312 -0.04348686 0.0517853 0.026739253 0.015228502 0.0011822945 0.057626512
-0.05960834 0.039386004 -0.062318273 -0.04740029 0.048172362 -0.02433048 -0.023681488 -0.015682215

food_logits.bias f4 [3]
00000000: 8d2b a5bc 12b0 62bd a69c 983d
-0.020162368 -0.055343695 0.07451753

net.0.weight f4 [128, 17]
00000000: 92a8 2e3e d0b8 2fbe fae1 2f3f 169a 19c0
00000010: 80be 05bd b2af 77be 7477 4abe e11d 6f3d
00000020: 51ec 39bd 103d a63d b0d7 f93d 52ef 38be
00000030: 07aa 843e 8ce1 bf3c 3f62 16bd 288e 243e
00000040: 3741 903d 40de 3c3d 9a40 d3bd c753 9cbf
00000050: 85cb f63f 2220 b83e 0408 febd 50e1 d33d
00000060: b263 57bd 1535 293e a85e 9ebc 986d 30be
00000070: e6f1 0ebe 5e2f 5abe 9b58 1bbd d544 413e
00000080: e145 b3bd ff2a 8ebc 82f3 a2bc f168 6d3d
00000090: 3edd a53e aa76 e1be 2e8a 36bf 2149 253e
000000a0: e612 063d 5956 f13d 47c7 8d3d 60ba 393e
000000b0: 4660 603e e6f9 cb3d 623b 933d 5867 f43d
000000c0: 3651 2abe 610e d4bc de76 f53b 76c9 a7bd
000000d0: 204a 08be dfc8 833f 3e18 d1bf cee1 1bbf
000000e0: 6c3c 28be fa82 853e b4e2 10be 4bfe 213d
000000f0: d649 6bbd 8505 a1be eddc 70be d156 66be
00000100: 0d40 56be 5590 a33d 530e dcbc 934a 163e
00000110: 9cd7 523e d3a9 6fbe 16d4 8d3e 9c55 debe
00000120: b5a7 1dbf 5aa7 d13b 3e2d 60be 5369 8fbd
00000130: f394 20be 5452 f73c e276 f1bd 4c31 593d
00000140: 4b5c 47be ded5 533e 6b37 d13d 68b3 5e3d
00000150: 2833 23be ef43 44be 6809 8a3c a736 5f3f
00000160: 2ce4 66bf bbbe b9be 022f 90be 1602 2abe
00000170: 94b9 adbd 7d5d b3be 3700 3ebe fd54 153e
00000180: c72f 7cbd a196 0bbe 5846 163d 2636 04be
00000190: 2bc3 9ebd 0bf3 b5bd 0ca1 a0bd e884 eebd
000001a0: 738b 71bf 2040 3740 4f0a 82bd 6e8f 87bd
000001b0: 819f 783e 1a2f 3a3e a415 573d 5ee8 e3bc
000001c0: 38bd 3c3e 3215 7e3d 4e45 92bc f83b 393c
000001d0: ef8f ddbd 2aa8 55bc a04c a43d ba1f 1d3e
000001e0: a808 cb3d 5c62 893f d377 57c0 0d49 e9be
000001f0: 0d3c 4c3e 221b 9b3b 6b34 6c3e cf58 d93d
00000200: 9399 5d3e 69c7 143d 270b 3ebc 721e 6ebe
00000210: 9a38 74bd f79d 0d3e c215 a03d f852 9cbd
00000220: 76ce d3bd d352 d9bb f314 003f 736b 51bf
00000230: 2251 2fbe fb21 903e 2d30 ac3e 632f f4bc
00000240: 0cc4 1f3d 51fb 303e 9616 cc3d 6333 52be
00000250: 95d0 d539 65b9 133e 5481 003e cea7 29bd
00000260: cee9 69be 055b 09ba 41c9 c63d a71a a0bf
00000270: 7f44 5140 7b36 303f a602 0abe c3f9 c53c
00000280: e8ba 6e3b 7ce9 80bd 059d b33c 20d9 cf3d
00000290: 48fa e33d 60a6 07be bbbf d9bc dc83 763e
000002a0: 5684 583e a43a 0bbd a11c 2c3e fa41 d2bd
000002b0: 06ae 6dbf cb7a 2540 60db 5d3f b12a 7abd
000002c0: 98cd 253d c8b6 d0bd 55d8 763d 7600 8ebe
000002d0: 24d8 23be 1ea0 113c 6ca5 573d 41af 7e3e
000002e0: d29a 8f3d d185 fc3d ea03 2ebe 4969 4f3e
000002f0: 33dc d7bd 9d6b 3b3f ed43 7fbf 0abb 8ebe
00000300: 064b 003e e6d1 a73d a29f 7e3c a7dc aebd
00000310: 2be1 30bd 2ffb 97be 9235 2ebd e02e c23d
00000320: bb1a cd3c fbde beba 8d99 00be 9b8e d8bd
00000330: 64d8 d43d a3f6 913d 3019 7dbf 7252 4540
00000340: 48dc 343e 005b 4abe c6cf d43d 0fd8 a63d
00000350: 2bef 90be 1532 7e3c 8d55 3b3e 802d d9bd
00000360: d0b6 7a3d 87ff b13c e82d 82bd a7fc ac3d
00000370: 4879 75bc 8430 c23c 0c5e 9b3b 4bd4 9d3e
00000380: 0749 49bf 81c3 f93e c0e8 883d 8eac d93d
00000390: fa58 cd3c aafd 2fbe b383 1dbe da94 a1bd
000003a0: 6dcf 9abe 2dfd 833e 39b3 673d be15 c33d
000003b0: 8e61 febc 4552 0fbc ea3d d6bd 296b 193e
000003c0: b426 10bf b871 3640 a74b c83e 841e 22bc
000003d0: 731d 82be aad7 fd3c 5593 5f3e ad4a 2e3e
000003e0: 072c 0ebe 5348 7fbd 9714 c83d a293 0a3e
000003f0: 5f45 0a3e 0c6d 15be 48c7 babd 0f2d c5bd
0.17056492 -0.17160344 0.6870419 -2.4000297 -0.032652378 -0.24188116 -0.1977213 0.058378104
-0.045391385 0.081171155 0.12199342 -0.18060043 0.2591097 0.023422979 -0.03671479 0.16069853
0.07043689 0.04611039 -0.10315056 -1.2213067 1.9280859 0.35962015 -0.124038726 0.10345709
-0.05258531 0.16524155 -0.019332245 -0.17229307 -0.13959464 -0.21307132 -0.037926298 0.18873914
-0.08753563 -0.017354487 -0.019891504 0.057961408 0.32395357 -0.44035846 -0.71304595 0.16141178
0.032732867 0.11784048 0.06922775 0.18137503 0.21911725 0.09959774 0.07189061 0.11933774
-0.16632542 -0.025885763 0.0074909767 -0.081927225 -0.13309526 1.0295676 -1.6335523 -0.60891426
-0.16429299 0.2607649 -0.1414898 0.039549153 -0.057443462 -0.31449524 -0.23521776 -0.22494055
-0.20922871 0.079865135 -0.0268623 0.14676885 0.20590061 -0.23404627 0.2770087 -0.4342469
-0.61584026 0.0063981237 -0.21892259 -0.07002511 -0.1568182 0.030190624 -0.11790253 0.05302553
-0.194688 0.20687053 0.10215648 0.054370314 -0.15937483 -0.1916654 0.016850188 0.8719277
-0.9019191 -0.36278328 -0.28160864 -0.16602358 -0.08482662 -0.35032263 -0.1855477 0.14583202
-0.061569 -0.13631679 0.03668818 -0.12911281 -0.07752069 -0.088842474 -0.07843217 -0.116464436
-0.9435341 2.8632889 -0.063496225 -0.06619154 0.24279596 0.1818203 0.052510872 -0.027820762
0.18431556 0.062031932 -0.017855313 0.011305802 -0.10818469 -0.013040582 0.080224276 0.15344134
0.099137604 1.0733142 -3.3666885 -0.45563546 0.19944783 0.004733459 0.23066871 0.10612642
0.21640615 0.036322985 -0.011599339 -0.23253801 -0.059624292 0.1382979 0.0781665 -0.076330125
-0.10342114 -0.006632188 0.50031966 -0.8180458 -0.17120793 0.28150925 0.33630505 -0.029807752
0.039005324 0.1728337 0.099652454 -0.20527415 0.00040781932 0.14426191 0.12549335 -0.041419797
-0.22843096 -0.0005239698 0.09706355 -1.2508134 3.2698057 0.6883313 -0.13477573 0.024166947
0.0036427323 -0.062945336 0.021925459 0.10148835 0.11131722 -0.13247061 -0.026580682 0.24073738
0.21144232 -0.03399147 0.16807796 -0.1026649 -0.92843664 2.5856197 0.86662865 -0.06107587
0.040479273 -0.10191113 0.060264904 -0.27734727 -0.1600042 0.008888273 0.052647993 0.24871542
0.070119515 0.12330211 -0.1699368 0.20255007 -0.105400465 0.7321108 -0.9971302 -0.27877074
0.12528619 0.08194332 0.015540989 -0.0853818 -0.043183487 -0.29683825 -0.042531557 0.09481597
0.02503716 -0.0014562303 -0.12558575 -0.10574075 0.10392836 0.0712712 -0.9886656 3.083157
0.17662156 -0.19761276 0.10391192 0.08146679 -0.2830747 0.01551487 0.18294354 -0.106043816
0.0612095 0.02172829 -0.06356412 0.08446627 -0.014982529 0.023704775 0.004741436 0.3082603
-0.78627056 0.4878197 0.066850185 0.10628615 0.025066841 -0.17186609 -0.1538227 -0.07889719
-0.30236378 0.25779095 0.056567404 0.09525631 -0.031052377 -0.008747642 -0.10461028 0.14982285
-0.56309056 2.8506908 0.39120218 -0.009894971 -0.25413093 0.030986626 0.21833546 0.17020674
-0.13883983 -0.062324833 0.09769552 0.1353288 0.13503025 -0.1459238 -0.09120041 -0.09627735

net.0.bias f4 [128]
00000000: 6e49 883e e576 89bd 9990 46be fb21 30be
00000010: fa64 153b 60b9 a23d 6d21 9dbe cf3e 35bc
00000020: 3042 92be 7334 7cbe 020e 0d3e a421 43bd
00000030: 6261 6e3d 3acf 043e 659c a6bd 9639 31bd
00000040: 0e3b 2bbe f31b f6bc fe45 14bd edb8 32be
00000050: 849b 89be 2008 32be f298 ff3d 1405 a73e
00000060: 4367 dabd 46b0 99bd 04b4 5dbe f406 223e
00000070: b7f8 e2bd f8cc 1d3e 31b4 96bd 4def 2e3e
00000080: e211 0e3d 624d 8d3d fb78 823e 23f0 b33d
00000090: 50e4 fdbd 98c0 0d3c 4402 a0be 9929 88bd
000000a0: dade 1fbe e2a6 93be 1eac 51bd 57ff f23d
000000b0: 773c 81bd 1b90 25be 26d1 29be 9936 0fbd
000000c0: b652 e0bc d62f eb3d 42bb 8ebe 0329 4bbe
000000d0: 6b04 813e d999 dd3d 032b af3e ecd0 6fbe
000000e0: e2d1 353e 4683 e43d 32ef 11bd 0473 a3bc
000000f0: b7f9 0b3c 4d1f dabd 801f 5fbe b216 c33d
00000100: 13f4 d73d db92 bcbe 420b b1be 08b1 6c3e
00000110: d6f4 263e 792c a2be 4d43 ff3c a28a babe
00000120: 5148 2c3d 4e99 90be c593 993e a4b6 3dbc
00000130: 8ac1 483e a082 d43d 85f3 603c 0526 5e3e
00000140: cda8 2d3e 2365 243e 53d4 073e 76b8 a93d
00000150: 4e8b 043d aba2 a83d b16b 49be 43e0 01be
00000160: 8e1e 53bd df2f 753d 53e9 efbc 637e dfbd
00000170: a830 0b3d 1b9f 853d 8f64 aebd 1dc3 8a3e
00000180: 429e 143e bdc3 ddbd 03f4 b2be 6261 bd3d
00000190: 9997 ac3d 3f57 47be ffbe 15be 5877 093d
000001a0: 4a6e 723e 7692 c0bd 2cfa e2bd 42e0 a8bd
000001b0: 81b1 40be d04a 383d 2f0f ddbc 9697 7e3e
000001c0: e6e1 c8bd 9c30 993d 25d4 2dbe bfca 94be
000001d0: b1e8 0dbe c515 023e b01b c43d 44ff 063e
000001e0: ea3a aabd 7cca 5d3d 3e51 30be 9d03 0a3e
000001f0: 2359 8abe 3262 3f3d d66e 603e 81ba 0a3e
0.26618522 -0.067121305 -0.19391097 -0.17200463 0.0022795782 0.07945514 -0.30689564 -0.011062338
-0.28566122 -0.24629383 0.13774875 -0.047639504 0.05819834 0.12969676 -0.08135299 -0.04326781
-0.16721746 -0.030042624 -0.036199562 -0.17453356 -0.26876462 -0.17385912 0.12480344 0.32621062
-0.10664227 -0.075043246 -0.21650702 0.15822965 -0.11082595 0.1541022 -0.073585875 0.17083474
0.034685023 0.06899525 0.25482926 0.08786037 -0.12397063 0.008651875 -0.3125173 -0.06648559
-0.15612355 -0.2883826 -0.051189534 0.118651085 -0.06310361 -0.16168253 -0.1658369 -0.034964178
-0.02738319 0.11483733 -0.2787724 -0.19839863 0.25198683 0.1082036 0.34212503 -0.23419541
0.17755845 0.11157851 -0.035628505 -0.019952305 0.008543423 -0.106505014 -0.2178936 0.09525813
0.105446 -0.36830792 -0.34578902 0.23114407 0.16304335 -0.31674555 0.031160021 -0.36433893
0.042061154 -0.28241962 0.29995552 -0.011579189 0.1960508 0.10376477 0.013729935 0.21694191
0.16958924 0.16054206 0.13264589 0.08287136 0.032359414 0.082341515 -0.19669987 -0.12683205
-0.05154281 0.059860107 -0.029286062 -0.10912778 0.03398195 0.065244876 -0.08515274 0.27101985
0.14513496 -0.1082835 -0.3495179 0.0924709 0.084273525 -0.19466875 -0.1462364 0.03356108
0.23674884 -0.09402935 -0.11082873 -0.08245899 -0.18817712 0.04499322 -0.02698478 0.24862513
-0.09808712 0.07479975 -0.16975458 -0.29060933 -0.13858296 0.12703617 0.095755935 0.13183314
-0.08312018 0.054148182 -0.17218491 0.13477941 -0.2702113 0.046724506 0.2191728 0.13547708

net.2.weight f4 [128, 128]
00000000: 1717 b4bd 6124 42bd d31b cabd 0c9c 693d
00000010: 9b3c 95bd 5945 fe3d 60cd 0abc ccb1 103d
00000020: 53b9 5ebc 2681 49bd 8eda 43bd d6f6 ec3d
00000030: 36f4 b1bb 1196 9b3d 62cd babd 8123 abbd
00000040: 866b 20bc 9c52 16be fc73 3d3c b731 21be
00000050: 3545 93bd 3c66 233d c096 953d 7d8e bc3c
00000060: 8df1 debd 273f 52bd 0969 dabd d293 25bc
00000070: 5f08 9dbd 438f ac3d 6b79 86be d035 8f3c
00000080: aa8b 13be 5165 12bd 047b 73be 1800 1b3c
00000090: 77e8 f4bc 9b4b e13c f787 4d3d 948d 9e3d
000000a0: cc31 d4bc 73e9 b4ba 4335 94bd 2414 a7bd
000000b0: 12ac 30be 354f 2d3d 73e4 acbd 34e0 22ba
000000c0: 07ef bc3c 8d50 403d 259a 8f3d d96a 50be
000000d0: bc52 f43c 38f5 7fbd e669 1b3d 8f63 903d
000000e0: 8089 98bd f403 27bd 89ba dabd ce86 893b
000000f0: b23d 9abd 4a53 6cbd 5006 a1bd f294 eebc
00000100: 17ed f5bc 191f b0bd d709 a63d b319 57bc
00000110: f15a 29bd ae98 6abd 76ec 2d3d e853 d73c
00000120: 0359 08bd 8ba8 34bc cb10 3abd 70b2 a8bd
00000130: 0106 0abd c3bd 6a3d 91c4 7fbe bba9 b33d
00000140: cbc4 26bb 2490 ddbc 9795 093c 9e32 b5bc
00000150: fdb9 d13d 7108 09bd 4173 9bbd 1d65 4e3d
00000160: 4100 24be 3885 02be b71b 3ebe 9a36 1dbc
00000170: a782 e6bd 4563 99bd 74e2 103d a769 98be
00000180: 466f 903c 4d41 793c e7fd c3bd b9e6 a3bd
00000190: 4c1d 1f3d e3ce 81bc fd3e 42bd a9b7 aabc
000001a0: b8d9 bdbe dcc4 be3d ac50 cdbd 1ac3 f53c
000001b0: 9b8a efbc e9bc 873d ed7e ef3d 5c62 53be
000001c0: 67cf d83d dda4 c53c 6739 3dbd b3f8 dcbc
000001d0: b97e f43c c443 1dbd d498 cbbd 66fb 95bd
000001e0: 96a7 283c 9ef6 d1bd 902d d8bc 9945 a83d
000001f0: 1cbb e6bd b644 673d cf0d d9bd bc1a 8fbd
00000200: 3263 7abd 4243 56bd aecd 8ebd 90af 333d
00000210: f740 73bc a1c9 093e f076 503d c788 9c3d
00000220: ad38 7fbe 0ee1 893d 22d2 083e 149d bebc
00000230: 1f61 9f3d 2d5b 75bd 9782 d1bd 563b 833d
00000240: 0a82 1a3c 0176 8f3d 1491 34bd 6283 5e3d
00000250: 5eac f83c 6e63 293d 5ed3 693d 3b5e b83d
00000260: 980c 433d 85d7 203d 8e62 afbd 6349 1b3c
00000270: bd03 473c 5516 0f3d b82d e63b 8c5d 41be
00000280: bfff 01be 6051 35bd fb32 c93d 71af 4ebe
00000290: 92f6 023c 2f30 85bd 5b19 48bd 648b 31bd
000002a0: 939b e6bc 9fbf 51bb 6871 c23d 99c0 0d3d
000002b0: dc70 87bd 02f8 27bd 2d1c 1b3d 096e 0ebb
000002c0: c55c 17bd a090 503d 9287 733c 2f2d c83c
000002d0: cc05 e9bd 43cf 7fbd b678 6e3d f371 1ebe
000002e0: 3d60 523d 0736 0cbe 643b 713d 133a 70bd
000002f0: 6156 91ba 9839 c83d 76c8 053e 6405 96bd
00000300: cdd6 6c3c a840 c6bc 3ce4 06be 9250 34b9
00000310: f5f5 bbbd ab83 1c3e d68b 803d cf59 143d
00000320: 5720 8fbd f911 b63c 2fbc 6c3c a9c7 15bd
00000330: bc92 493d 9a4c f1bd 9c77 9c3c 5bf1 84bc
00000340: a9d7 17be aadd d8bc fab5 a03d 8a1d 903d
00000350: 1b90 b2bd 981b 70ba b3da 883d 6971 40bd
00000360: ddad cdbd b63c 043e 138f c53b 4f55 f93c
00000370: ab83 b83b 9ff4 98bc d9d1 08bd a83b b03c
00000380: 31d5 823d c9c4 85bd f5d7 973d 9391 e8bd
00000390: 3a8b 78bd b208 57be 0faa 8a3d 11af 83bd
000003a0: f30b c5bc 08b0 39be 1a35 a63b 7520 edbd
000003b0: 34c0 82bd e5a0 7abd 09ad ffbd 65c2 c53d
000003c0: 58e0 aabc 970a b5bb 804d 71be 1beb 073e
000003d0: 9f52 adbd e92c 79bb 7196 cfbd b03a 97bd
000003e0: c725 10bd 4b36 e93d 994f 453d 25a2 88bd
000003f0: 339e f43c 6b9c 833d bb53 e93d 2848 8e3d
-0.087934665 -0.047397975 -0.09868588 0.057033584 -0.0728695 0.12415571 -0.008471817 0.03532581
-0.013593989 -0.04919543 -0.047815852 0.11570518 -0.0054307235 0.07596982 -0.09121205 -0.08356381
-0.009791261 -0.1467995 0.011563297 -0.15741621 -0.071909346 0.03989242 0.07304144 0.023017162
-0.10885916 -0.051329758 -0.10664565 -0.010106044 -0.07667612 0.084257625 -0.2626451 0.017481714
-0.14408746 -0.035741154 -0.23777395 0.009460472 -0.029896004 0.027501872 0.050178494 0.07741848
-0.025902651 -0.0013802483 -0.07236721 -0.081581384 -0.1725314 0.042311866 -0.08442011 -0.00062132184
0.023063196 0.04695182 0.070118226 -0.20353259 0.029824607 -0.06248972 0.03794279 0.07050239
-0.07448101 -0.040775254 -0.1068011 0.004196978 -0.07531299 -0.05769662 -0.07862532 -0.029123757
-0.03002028 -0.085996814 0.081073456 -0.013128686 -0.041346494 -0.057274513 0.042461835 0.026285127
-0.033288013 -0.011026512 -0.04542617 -0.08237159 -0.033697132 0.057309877 -0.24977328 0.08772608
-0.0025446888 -0.02704627 0.008397481 -0.022118863 0.102405526 -0.033455316 -0.07590342 0.050389398
-0.16015722 -0.12746131 -0.1856526 -0.009595538 -0.11255389 -0.07489637 0.035372213 -0.29768106
0.017631184 0.015213323 -0.095699124 -0.08002991 0.0388463 -0.015845722 -0.04742335 -0.02083953
-0.3708017 0.09314892 -0.100251526 0.030000258 -0.029240897 0.06627829 0.11694131 -0.2064299
0.10586434 0.024126465 -0.04619732 -0.026974058 0.029845582 -0.038394704 -0.09941259 -0.07323341
0.010293862 -0.102521166 -0.026388913 0.082164 -0.11266157 0.056462012 -0.10598337 -0.06987521
-0.061129756 -0.052310236 -0.06972824 0.0438686 -0.014847032 0.13455822 0.050894678 0.07643276
-0.24923964 0.06732379 0.1336141 -0.02326826 0.07782196 -0.059901405 -0.10229986 0.06407802
0.009430418 0.07004929 -0.04408367 0.054324515 0.030355629 0.04135459 0.05708634 0.09002348
0.047619432 0.039268035 -0.0856372 0.009477946 0.012146887 0.034933407 0.007024493 -0.18883342
-0.12695216 -0.04426706 0.09824177 -0.20184113 0.007993357 -0.06503331 -0.048852306 -0.043345824
-0.028150355 -0.0032005084 0.09494287 0.034607504 -0.06613323 -0.041008003 0.037868667 -0.0021733067
-0.036953706 0.050919175 0.014863865 0.024435608 -0.11378059 -0.06245352 0.058220588 -0.15473156
0.05136131 -0.13692485 0.05889453 -0.058649134 -0.0011088365 0.0977661 0.13064751 -0.07325247
0.014455509 -0.024200752 -0.13173002 -0.00017196152 -0.09177772 0.15284602 0.062766716 0.03621846
-0.0698859 0.022225367 0.014449163 -0.036567364 0.049212202 -0.11782189 0.019100003 -0.016228369
-0.14828362 -0.026472885 0.07847209 0.07036884 -0.08718892 -0.0009159385 0.066823386 -0.046983156
-0.100429274 0.12913784 0.0060290187 0.030436186 0.0056309304 -0.018671332 -0.03340325 0.021512821
0.06388319 -0.065316744 0.074142374 -0.11355891 -0.06067965 -0.20999411 0.06770717 -0.06429876
-0.02405355 -0.18133557 0.005072248 -0.11578456 -0.06384316 -0.061188597 -0.12484176 0.096562184
-0.020858929 -0.005524944 -0.2356472 0.1327328 -0.08463024 -0.0038021153 -0.10136116 -0.073842406
-0.035192277 0.11387309 0.048171613 -0.066715516 0.029860592 0.06426319 0.113929234 0.069473565
