src/training_logs_ppo/initial/ppo_checkpoint_65_1764184298.pt (torch, 480089 bytes, 42 tensors)

move_logstd f4 [2]
00000000: aead 763f c10a 7d3f
0.96358764 0.98844534

shared.0.weight f4 [128, 17]
00000000: a4b3 023e ee76 10be 21ac 3fbe 7bc3 483e
00000010: 0eac 483e 716e 4abe 3493 cdbd 14b4 d63d
00000020: 418a 573e 6020 46be 62e6 043e c48d 1bbe
00000030: bef0 53bd c6d6 73bc a269 203d dec9 1d3e
00000040: 9e15 17be f937 f3bd b73a d2bd 20e0 423d
00000050: 2dd5 4e3d b44d 3fbe af6a 5b3e 20f3 1cbe
00000060: d224 a93b a7b8 25be 7c25 3bbe a7cf e5bd
00000070: 8793 bf3b 1d9b 383e 0a2a a33d 2963 b13d
00000080: 0ccd debd 076c 22be 6023 1e3e 13cc 7f3e
00000090: 071f fb3d 012e 893d f3ee 8cbe 220b 36be
000000a0: 0db5 11bd 7f20 a1bd 00bd c0bc 5afc 9abd
000000b0: 66f8 20be 47ee b53c 136b 653e 64fb 35be
000000c0: d97b 333e c4fa 573d 1840 a23d 3aa7 2a3d
000000d0: a0f7 01be 8428 44be b98a 8a3d e0d3 fb3d
000000e0: 73a9 f63d 622b 143e 68ec 903d f418 1a3e
000000f0: a2fa 87bd cc17 973d d4cc f5bc 342d 7dbd
00000100: 5649 f9bd 4be1 3d3d d18e 16be 9bd0 673e
00000110: 9e2d 1e3e c7c4 153e 1cb6 4dbe a1cb 3c3e
00000120: 0116 d13c 4be6 543e 243b 71bc 2490 67bc
00000130: e722 19be 1d4c 193e 8118 6d3d 166e ec3d
00000140: 5848 f03d ea32 1c3d 9393 d53c 1840 67bd
00000150: eeed d83d 137b 0abd fd08 d43d 9fe7 96bd
00000160: 3bf2 62be 5edc 39be 91f3 d53d c11b 393e
00000170: 00aa 12be 64dc 4c3e 645d 343b d107 763d
00000180: 34f7 ca3d 3718 e53d 816b 16be 4313 1abe
00000190: 9d6b d3bd 9c3a 96bd 386d 2e3d c99a 063c
000001a0: 72d9 9bbd 4a58 163e e9c7 a63d 0e14 a63d
000001b0: 42f1 5abe dfad b6bd 8de6 733e d89c 1d3c
000001c0: eeb4 67be 8e49 4cbe 9283 5d3d 8af4 bdbd
000001d0: efdd 3b3d 647e 01be 89a9 6abd 032c 0fbe
000001e0: 47cd 343c b845 9f3c 4ed1 f33d ccf1 14bc
000001f0: 5140 62be 26bf 4dbe 2350 383e 26da a5bd
00000200: 71da 2bbe a0bd 503d 6c3f 2ebd 38c6 3dbe
00000210: 6640 5cbe 6e00 3b3e ecdb 8b3b 4b0d 533b
00000220: 0ea7 b1bd 4194 c13d cfb0 04bd b008 553d
00000230: 1e97 d1bc df26 59be 62b2 1dba e91e 783e
00000240: f495 0c3d 8799 57be d436 aa3d bd54 e2bd
00000250: 1468 e43d cebe 1cbe 586f 6ebe 1453 8e3d
00000260: 2903 2ebe 5d3a 2b3e 6451 57bb c523 0e3c
00000270: ef96 68be c32e 38be 5614 6dbd d512 82bb
00000280: a6b2 b03d b5c4 2c3e 715e 783e 750d 0ebe
00000290: b319 a53d a8fa 61be 895f 2cbe 93a5 2b3e
000002a0: 5a25 913d af31 523d e84c 0cbe f0ca ab3d
000002b0: fe0a 9cbd 584f 9d3d 73b0 81be 5b52 1a3e
000002c0: 14ce d4bd 8bfb fabd 5864 52be 5e3b 1fbe
000002d0: 23e4 773e 71ad 02be 0a15 3fbe 4d4c 1f3d
000002e0: bfcf c23d 937c cc3d 57ab 07be c8d5 09be
000002f0: 2f1d 2abe 2b67 263e 088b 3abe 6dab a43d
00000300: 6fa5 1a3e 615d 5c3e 8e82 663e d1d4 2dbd
00000310: 7857 06bd b0b1 47be 7d1a a43d 7de5 bfbd
00000320: 71e1 c2bc 5e41 9fbd a774 1cbd 37fa 66bd
00000330: 5145 6f3c 2825 2dbe 589a 1bbe 1800 d13d
00000340: 2186 12bd 2cf7 5abe aeae 023e 782e cbbd
00000350: 2e74 a7bd a1a9 c2bc cf5c f4bd 020e 0ebd
00000360: 68a3 24be a319 24bd 406d eebb 59e7 913d
00000370: 10ad a3bd d525 333e 599e 6a3c d2fd 4dbe
00000380: 92d1 2e3e db5b 42bd 6ddf 013e a44a 49be
00000390: 40a0 353c ff42 be3d 5e7f 02bd 0d7e 85bd
000003a0: 18ac 3b3d b18b a93d a731 3539 eb85 d4bd
000003b0: 2b2c 113e e192 a4bd 46af 02be e8bc a43d
000003c0: 1048 bbbd 4d6f 13be c81e c3bd 8aab 3dbe
000003d0: 9a29 393e 873d 4ebe 4138 3c3e 1702 413d
000003e0: 67d9 0c3d 0329 ecbc 50ba 9ebd 1053 2e3d
000003f0: d088 463e 274f 61be 7535 94bd d835 a3bc
0.1276384 -0.14107868 -0.18718006 0.1960582 0.19596884 -0.19768693 -0.100378424 0.10483566
0.21048833 -0.19348288 0.12978509 -0.15190798 -0.05174326 -0.014882749 0.03916324 0.15409037
-0.1475434 -0.1187591 -0.10265105 0.047577024 0.05049627 -0.18681985 0.21427415 -0.1532712
0.00516186 -0.1618372 -0.18276018 -0.11221247 0.005846444 0.18027921 0.07967003 0.086614914
-0.10878953 -0.15861522 0.15443182 0.24980192 0.12261777 0.06698228 -0.27526054 -0.17777684
-0.035573054 -0.07867526 -0.023527622 -0.075676635 -0.15719756 0.022208346 0.22404127 -0.17771679
0.17527713 0.052729383 0.07922381 0.041663386 -0.12692118 -0.1915608 0.067647405 0.12296271
0.120440386 0.14469674 0.07076341 0.15048581 -0.06639601 0.07377586 -0.030004896 -0.061810687
-0.12172191 0.046357434 -0.14702918 0.2263817 0.15447089 0.14625846 -0.20089 0.18437053
0.025523188 0.20790975 -0.014723573 -0.014133487 -0.1495472 0.14970441 0.057884697 0.11544435
0.117325485 0.038134493 0.026071345 -0.05645761 0.105922565 -0.03380878 0.10353277 -0.07368397
-0.22162716 -0.1815047 0.10446847 0.18076994 -0.14322662 0.20005947 0.0027521485 0.060066048
0.099104315 0.11186259 -0.14689447 -0.1504641 -0.1032326 -0.073353976 0.042584628 0.008215615
-0.07609834 0.14682117 0.081435986 0.08109294 -0.21381095 -0.08919882 0.23818417 0.009619914
-0.22627613 -0.19949934 0.054080553 -0.09275158 0.04586595 -0.1264587 -0.057290588 -0.13981633
0.01103527 0.019442424 0.11905156 -0.009090852 -0.22094847 -0.20092449 0.1799932 -0.08098249
-0.16782548 0.05096209 -0.042540953 -0.18532646 -0.21508941 0.18261883 0.00426816 0.0032203968
-0.08674441 0.09452105 -0.03239518 0.05201024 -0.025584754 -0.21206234 -0.0006015656 0.24230541
0.034322694 -0.2105466 0.08311239 -0.11051319 0.11152664 -0.15307161 -0.23284662 0.0694944
-0.16993393 0.16721483 -0.003285491 0.00867552 -0.22713827 -0.17986588 -0.057880722 -0.00396953
0.086278245 0.16871913 0.24254777 -0.13872321 0.08061542 -0.22068274 -0.16833319 0.1676238
0.07087202 0.051316913 -0.13701212 0.08388317 -0.07619284 0.07681149 -0.25329933 0.15070479
-0.10390869 -0.12255009 -0.2054609 -0.1554999 0.24208121 -0.12761475 -0.1866037 0.038891125
0.09512281 0.09984698 -0.13248955 -0.13460457 -0.16612695 0.16250293 -0.18217099 0.080405094
0.1510217 0.21519996 0.2251074 -0.042439286 -0.03279826 -0.19501376 0.08012865 -0.09369943
-0.02378914 -0.0777614 -0.038197186 -0.056390967 0.014603929 -0.16908705 -0.15195596 0.10205096
-0.035772447 -0.21383351 0.12761948 -0.099209726 -0.081764564 -0.023762526 -0.11931764 -0.034681328
-0.1607796 -0.04006351 -0.007276207 0.07124204 -0.079919934 0.174949 0.01431998 -0.20116356
0.17072132 -0.04745088 0.12682886 -0.1965738 0.01108557 0.09290122 -0.031859748 -0.06518183
0.04581842 0.08278597 0.00017280002 -0.10377105 0.14177005 -0.080358274 -0.12762174 0.080438435
-0.09144604 -0.14397927 -0.095273554 -0.18522468 0.18082276 -0.20140658 0.18380834 0.047121134
0.03438702 -0.02882815 -0.0775038 0.042559683 0.19388127 -0.2200285 -0.072367586 -0.019923136

shared.0.bias f4 [128]
00000000: 6a72 17bd e353 7dbe e27b 48bd a7d9 21be
00000010: 46ff b7bd f54c 1c3d 69ac 273d 11ed 4e3e
00000020: 2384 81be 0352 c0bc 99bb 183e 8b60 48be
00000030: 5781 e43d 73dd 72bd 2354 f43c aff6 1ebe
00000040: 6960 55bd 05be 503e 8470 f33d 3adc 3ebe
00000050: 9f3c 903b 3034 963c 5859 363d 3ed0 243d
00000060: e031 70bc a76a efbd 7ed9 22bc 2d9e 543d
00000070: 429a 3d3e 87a5 50be 66aa 14bc 0587 78be
00000080: 4ad0 b5bd de4a f03c c96a 71be d0c0 103d
00000090: 9ed6 38be e061 76be 72f0 a2bd 4277 ccbc
000000a0: 0011 79be 7b51 89be ae03 383d ad65 e7bd
000000b0: 6a45 3e3e b980 87be 9f8d 533e 2535 86be
000000c0: a64b 233e d353 bfbd 243b 67be 8964 e8bd
000000d0: 7adf 34be cc80 203d 5332 4f3c f738 923c
000000e0: 004b 0c3e 7f04 43be 2b24 5d3b 677f 94bd
000000f0: e767 35bd e838 84bc 464d 68bd af45 edbd
00000100: 61ab 78be e7dd bdbd 26b7 8abe 5664 a0be
00000110: 0f16 96bc b307 a23d cec1 7abe ffcf 22be
00000120: 44e1 753d bc75 2f3e d28d 813d b964 b6bd
00000130: 6d08 523e 159d 68be 9faa 08be 91ff f0bd
00000140: 835b c0bd a015 41be 3a42 9cbe 4287 47be
00000150: 1b76 dabd d1c8 aabd 0807 403d 2756 3f3d
00000160: 9b06 d83b 8f76 58be fc97 a03d 3883 51bd
00000170: ac3a debd 956c 573e 7046 55be 9941 263e
00000180: 3a70 60be 02b4 53be 38ac 503e 7481 c9bd
00000190: 0e92 4e3e be3d d9bd 2104 3a3e 9ad0 833d
000001a0: 4341 f53d 5a8b 01bd 5935 7dbd 9097 70bd
000001b0: 0ee5 b13c e21e 0cbe aef5 783d e498 2cbe
000001c0: df35 02be e288 89be 4cec 86bb a238 31be
000001d0: 1c9b ddbd cbc3 e2bc cf8d 80be 48ba 753d
000001e0: ea96 953c 03fd 80be de32 47be ea11 3bbe
000001f0: 44b9 03be 91cf 973d f6cf 90be fa9c a4bb
-0.036974348 -0.24739031 -0.04894627 -0.15805684 -0.089842364 0.03815933 0.040935908 0.20207621
-0.25296125 -0.023476606 0.14915313 -0.19568078 0.11157482 -0.05929322 0.029825276 -0.1552379
-0.052093897 0.20384987 0.11886695 -0.18638697 0.004401758 0.018335432 0.0445188 0.040237658
-0.014660329 -0.11690264 -0.0099395495 0.05190866 0.18515876 -0.20375644 -0.009073829 -0.24270256
-0.088776186 0.029332574 -0.23575892 0.03534013 -0.1805062 -0.24060774 -0.079560176 -0.02495921
-0.24322891 -0.26819977 0.044925384 -0.1129869 0.18581167 -0.26465395 0.20659493 -0.2621242
0.15946826 -0.0934216 -0.22581154 -0.113473006 -0.17663375 0.03918533 0.012646276 0.017849429
0.13700485 -0.19044684 0.0033743482 -0.072508626 -0.044288542 -0.016140416 -0.05671432 -0.11585557
-0.24284126 -0.0927084 -0.27092856 -0.3132655 -0.018321065 0.07911625 -0.24487993 -0.15899657
0.060029283 0.17134756 0.06325878 -0.0890593 0.20511027 -0.22716172 -0.13346337 -0.117674954
-0.093924545 -0.18855906 -0.30519277 -0.1948519 -0.10667058 -0.08339084 0.046881706 0.04671302
0.0065925843 -0.21138977 0.07841489 -0.05115053 -0.108510345 0.21037515 -0.20827651 0.16235961
-0.21917811 -0.20674136 0.20378196 -0.09839144 0.20172903 -0.106074795 0.18165638 0.06436272
0.11975338 -0.031627037 -0.061818454 -0.05873829 0.021715667 -0.13683656 0.060781173 -0.16855198
-0.12715863 -0.26862246 -0.0041175243 -0.1730676 -0.108206004 -0.027681252 -0.2510819 0.059992105
0.018260438 -0.25193033 -0.19452998 -0.18268552 -0.12863642 0.07412637 -0.28283662 -0.005023596

shared.2.weight f4 [128, 128]
00000000: 423d 0f3d 34cd 613d 6c78 853d 3c03 b2bc
00000010: 2cf3 7a3d d45d 803d 807d 2cbd e63b 023d
00000020: 06ab 45bb cacc 7e3d 8544 0f3c ecf3 a3bd
00000030: 5ffb b0bd 4bfe 433d f33f dc3c e68e a63d
00000040: 7295 223d b328 07bd fb47 98bb ccb7 513c
00000050: 4e72 413c cf43 9cbd ca5c 8cbd 6da8 a73c
00000060: 45c6 b93d 1861 a8bd 2940 c4bb 2363 efbb
00000070: 700c 0abe e3a1 80bd 12db 61bc a43d 6d3c
00000080: 0754 4ebc 01b7 adbb 117b 5d3d 0229 0abd
00000090: 2727 903d 98e3 babd a2fa 2f3d 61b2 85bd
000000a0: f2e8 d33c d6ac cdbd 970c a8bd a102 313d
000000b0: 0c16 fe3b ca7a 81bd ea07 78bd 58a7 653d
000000c0: 3b8a dabc 07fb 9ebd ff0f ea3c ccf3 37bd
000000d0: 4ac7 563d 63dc 953c 7aa1 f9bc 9279 633d
000000e0: cd66 643d 770d 85bd 851d fabb fe8b 2c3d
000000f0: c870 00bd 9c26 46bd 4d52 23bd 5b9f a8bd
00000100: 7a55 943d 4fdf 6f3d de7a 273b a648 f3bb
00000110: 7296 a3bd b32c 6f3c 2ad6 4ebd 5453 143d
00000120: 1e0e 90bc bef5 97bd 6f23 85bd b69f 2ebd
00000130: 5ae9 45bd 6987 80bd 1ca4 debc 3954 1c3d
00000140: 0adf 20bd 9b89 1ebd 41b1 01be 2f25 d6bd
00000150: d48b 24bc e936 13bd c88e 3db9 58d9 f1bd
00000160: b908 cbbd 6a9d 01bd cf66 e23c 1ded 41bd
00000170: cf91 f93c 774f 233d b8e9 5a3d 0179 21bd
00000180: e015 c2bd 965f 843c 311c 4fbd 3123 1f3d
00000190: e161 90bd a5f0 3c3d e43e 09be 5f04 f6bd
000001a0: 7a33 a5bd be06 513c 6827 b3bd 4115 3a3c
000001b0: d879 7a3d aeae 4abd 5a4e e23c 5c28 e7bc
000001c0: 56b9 babd 976f 133d 755d ae3a 5902 89bb
000001d0: e811 0b3d 2ebc a3bd 9120 62bd 2942 4cbb
000001e0: be5d 44bd 881a 3dbd 805b 4ebd 2238 3d3c
000001f0: bef1 283d 70c4 233c 590b 7fbd a56a d8bc
00000200: 04bf 99bc 16c8 863b f071 98bd b556 f4bd
00000210: 6496 a13c b6a9 243d deae 53bd 8698 a33d
00000220: b36b 793d 58b0 073c 0afd 46bd 9771 acbc
00000230: 9bb6 99bd 84a9 693d 9303 f13c b99f 863d
00000240: 960a 013d 1ee3 88bd 6687 10bd c2f7 073d
00000250: e2b1 ccbd a25e 45bc d96f 2bbd 526d 94ba
00000260: b450 91bc 4378 f63b debd 713d d532 60bd
00000270: 70cf a9bc e244 03bd 1043 04bb bfbe 8dbd
00000280: eff2 80bc 12c1 3ebd 1b12 2abc 1712 843d
00000290: 6ad5 a4bd e481 d03c 0666 4dbd 5a12 edbd
000002a0: 562f b9bd a473 423c 2e1e 833d af89 5f3a
000002b0: 4de1 423d aaa7 57bd f31c 1b3d 1c66 9e3d
000002c0: 624e 693c f25a 20bd e785 61bd 8c3a 90bd
000002d0: 7e2c 943d ff65 1f3d 6a82 743d 3f87 793d
000002e0: 258e b1bd 77cf 893b a7a4 84bd a95e 9d3d
000002f0: 9c6c 4ebd 00a8 c4bd f837 23bd ec36 a1bb
00000300: ed68 74bc df1b 0ebd aa08 5d3d 7d8f 63bd
00000310: db2c aa3d 0099 833d ebb9 043c 04c8 553d
00000320: cab5 d1bc 8ca5 4c3d b38c fbbd 1ece 0d3b
00000330: b5e4 61bd 0976 e2bc 4e4f 66bc 0aab 04be
00000340: cac2 093d 086d 643c b857 39bc 848f 243d
00000350: 943a 95bd bcab 353c 5cca 583d 4b12 f7bc
00000360: 96e2 9d3d d30b 7ebd e783 c3bb 4472 fc3c
00000370: adfa 88bd 7925 9bbd 1e66 96bd e3f6 463d
00000380: 5cab 82bc 5cfc 603b a491 dcbd 89c2 0ebe
00000390: dc6f cfbd 2067 983c 2d1b 813d 90e3 4abd
000003a0: a592 18bd ca10 88bd 09c6 8c3d 8633 03bd
000003b0: 7517 c13c f4e9 d03b 0aac bc3d 1eb8 29bd
000003c0: 7878 9e3d 04e5 d03b 54e7 f73b 4cb0 fc3c
000003d0: db3f e6bc c001 97bd 712e 673d 3a1a 66bc
000003e0: f288 a5bd 83cf bfbc 03a4 cfbd 098f 3fbd
000003f0: c712 ae3a f8cc e1bd 7c9d d6bd 50aa 21bc
0.03497053 0.055127338 0.06517109 -0.021730058 0.061267063 0.06267896 -0.042111874 0.031795405
-0.0030161752 0.06220702 0.008744364 -0.08005509 -0.08641695 0.047849935 0.026885962 0.081327245
0.039693303 -0.0329978 -0.0046472526 0.012800168 0.0118070375 -0.07630121 -0.068536356 0.020466054
0.0907102 -0.08221644 -0.005989094 -0.007305519 -0.13481307 -0.062808774 -0.013785141 0.014480028
-0.012593276 -0.005301357 0.054072443 -0.033730514 0.07038718 -0.09125441 0.04296363 -0.06528164
0.025867913 -0.100427315 -0.08205526 0.043215398 0.007754093 -0.06322248 -0.060554422 0.056067795
-0.026677242 -0.077627234 0.02857208 -0.044910237 0.05243615 0.018293565 -0.030472506 0.05553586
0.0557621 -0.06496709 -0.0076329135 0.042125694 -0.031357557 -0.048376665 -0.03987341 -0.0823352
0.07242866 0.058562573 0.0025555412 -0.007424432 -0.079876795 0.0145980595 -0.05049721 0.03621228
-0.017584857 -0.074199185 -0.06500899 -0.04263278 -0.048318245 -0.062758274 -0.027177863 0.03816626
-0.039275207 -0.03870545 -0.12665273 -0.10456311 -0.010043103 -0.03594104 -0.00018077635 -0.11809033
-0.09913773 -0.031644262 0.027636914 -0.04734527 0.030465035 0.039870705 0.053445548 -0.03942204
-0.094768286 0.01615886 -0.050563995 0.03885192 -0.07049919 0.046127934 -0.13402897 -0.120125525
-0.08066459 0.012757955 -0.087477505 0.011357606 0.061151356 -0.049482994 0.027625252 -0.028217487
-0.09117381 0.035995092 0.0013302999 -0.004181188 0.033952624 -0.07994877 -0.05520684 -0.0031167364
-0.047940962 -0.04616788 -0.05038023 0.011549028 0.04124617 0.009995565 -0.06226668 -0.02641804
-0.018767841 0.0041132076 -0.07443607 -0.119306006 0.019725032 0.04020091 -0.05168044 0.07988076
0.060893726 0.00828179 -0.04858116 -0.021050258 -0.07505532 0.05704643 0.02942065 0.065734334
0.031504236 -0.06683944 -0.035285376 0.033195265 -0.09994866 -0.012046488 -0.041854713 -0.0011324084
-0.017738678 0.0075216605 0.059018962 -0.054735977 -0.020728797 -0.032048114 -0.0020181574 -0.069211476
-0.01574084 -0.046570845 -0.010380293 0.06448763 -0.08048518 0.025452562 -0.050146125 -0.11575766
-0.09042232 0.011868391 0.06402241 0.00085272914 0.047578145 -0.05265013 0.037869405 0.077343196
0.014239879 -0.039149232 -0.05505934 -0.07042417 0.07235049 0.03891563 0.059694685 0.060919996
-0.0866969 0.00420564 -0.064767174 0.076840706 -0.050396547 -0.09602356 -0.039848298 -0.0049198773
-0.014917594 -0.03469455 0.05396334 -0.055556763 0.08309337 0.06425667 0.008100967 0.052192703
-0.02559938 0.049962565 -0.122826956 0.0021637748 -0.055149753 -0.027644174 -0.014056994 -0.12955871
0.03363303 0.013942011 -0.011312418 0.04017593 -0.072865635 0.011088308 0.05292736 -0.03016009
0.077092335 -0.062022995 -0.0059666517 0.030816205 -0.066884376 -0.07575507 -0.07343696 0.048575293
-0.015950851 0.0034330105 -0.10769966 -0.13941397 -0.10128757 0.018603861 0.063040115 -0.049533427
-0.037249226 -0.06643827 0.0687371 -0.03203156 0.023570755 0.0063755456 0.09212501 -0.041435353
0.07737821 0.006374957 0.0075654183 0.030845784 -0.02810662 -0.07373381 0.056440774 -0.014044339
-0.08082761 -0.023414379 -0.10138705 -0.04676727 0.0013280743 -0.11025423 -0.104792565 -0.009867266

shared.2.bias f4 [128]
00000000: 28be 39bd 2765 a3bd c780 d8bd b2a1 513d
00000010: 5a07 a7bb eb5b f53c 0f69 3d3d 563f 343d
00000020: bcdb bbbd c52c bb3c 00d6 5dbd a09d 67bc
00000030: 0080 cf3c 89ea 78bd 80f8 2a3b d0d1 d5bd
00000040: d221 a0bc ed47 81bd fe69 653d d0f3 a8bd
00000050: efad cbbd 17fe 5a3d 062e 83bd 27ea 2c3b
00000060: 5b04 c0bb 0daa 903c 0474 153d a591 b43c
00000070: 118a 8abd 207a 633b 1d37 cabd 4673 e63b
00000080: 6065 503d ee16 51bc 46e4 38bd 3b9d 383d
00000090: bbeb b1bd 6f56 eebc 7449 a9bd ccbb 84bd
000000a0: 68a0 95bd 6b12 c3ba e3e4 173d b567 9dbd
000000b0: d747 c8bd ddd0 39bd 3270 b03c 850d 313d
000000c0: e6e0 25bc 9e4c 98bd 799e 373c f163 3bbd
000000d0: 2d72 e9bd c626 8dbc d27f 65bc 6e2d 543d
000000e0: a497 693c 9784 e7bd 186e 9eba d23e 27bc
000000f0: 4272 b9bc b98a bebc e883 943d 8fd7 29bd
00000100: 7a60 bbbd 6814 6abd 1561 acbc 223e 26bd
00000110: b636 eebd c5ba 573d 632c 033a 05d0 84bd
00000120: 1ab9 a13c a362 1b3d 11a3 f9bd 49fa 633d
00000130: f7ec 683c 275d cebd a7d0 993b fe5b 843d
00000140: bdd1 e5bc e76e 103d 0f0f 1d3d b437 81bd
00000150: 6f64 e63c 085b f4bc 5559 0a3d a470 d7bd
00000160: bf82 2f3d 1a7a cbbd 996f c93c a6e4 bcbd
00000170: 5a23 693b 251d 67bd 797a 6bbd 0317 163d
00000180: 1c96 503d 7522 a1bd 6818 0bbd c1b5 713d
00000190: 77a5 8ebd 3b66 5cbc d8b7 b4bc 2aa9 333d
000001a0: 5388 82bd 6aae 1bbd 5c72 d2bd 8274 c3bd
000001b0: b611 ccbc 55ac 213d b04a cfbd 1520 043d
000001c0: 9cca 61bd 1c5f dd3c 803e 69bd ff6c e4bd
000001d0: b832 87bd 161e 78bd d785 23bd 12ab 8dbd
000001e0: 1d6f 58bd 4748 3e3d 2e7b fbbb 12fc 6ebd
000001f0: 19fe a5bd 6816 97bd d6f8 5d3d 2fda 86bd
-0.045347363 -0.07978278 -0.10571437 0.051179595 -0.005097312 0.029951056 0.04624277 0.044005714
-0.091727704 0.022848496 -0.054159164 -0.014136702 0.02532959 -0.060770545 0.002608806 -0.10440409
-0.019547377 -0.06312547 0.056009285 -0.082496285 -0.099452846 0.053464975 -0.06405263 0.0026384683
-0.005859894 0.017659212 0.036487594 0.022042105 -0.06764615 0.0034710243 -0.09873793 0.0070327846
0.05087793 -0.0127618145 -0.045139574 0.04507182 -0.0868754 -0.02909395 -0.08265963 -0.06481132
-0.07305986 -0.0014882808 0.037083518 -0.07685796 -0.09779327 -0.045365203 0.021537874 0.043225784
-0.010124421 -0.074364886 0.011207216 -0.04574961 -0.113987304 -0.017230403 -0.0140075255 0.051801138
0.014257345 -0.113045864 -0.0012087254 -0.010207849 -0.02263749 -0.023259507 0.072517216 -0.04146534
-0.09149261 -0.057148367 -0.021042386 -0.0405866 -0.11631529 0.05266835 0.00050038676 -0.06484989
0.019741584 0.037935864 -0.121893056 0.055658612 0.014216653 -0.10076361 0.0046940628 0.064628586
-0.028054113 0.035262015 0.03834444 -0.06309453 0.028124062 -0.029828563 0.0337766 -0.10519531
0.0428493 -0.099353984 0.024589347 -0.09223299 0.003557405 -0.05642428 -0.057489846 0.03664304
0.050924405 -0.078679 -0.033958822 0.059011225 -0.06965154 -0.013452108 -0.02206032 0.0438625
-0.06373658 -0.03800813 -0.102757186 -0.095437065 -0.024910789 0.03947099 -0.101216674 0.03225716
-0.055124864 0.02702289 -0.05694437 -0.11153602 -0.06601471 -0.060575567 -0.03992256 -0.06917395
-0.05284034 0.046455648 -0.0076745963 -0.05834586 -0.08105106 -0.073773205 0.054192387 -0.06584584

move_mean.weight f4 [2, 128]
00000000: 16ae 3b3c 8eaf 9cbc 628a f43c bb51 623c
00000010: c435 a33b c8c3 e93c 3444 e03b 2d07 1bbd
00000020: 8586 f43c 8ed5 3b3c 1dcf 78bc 5f65 dfba
00000030: 67f1 0d3c 5dda 663d 2beb 553c 9aad 0cbc
00000040: f3ca 113d 5d3d 60bc 0474 0ebd c35a f63b
00000050: 8f4c 0f3d b48a 503d 4353 69bd fb9b 0dbc
00000060: d4cd 52bb 5961 333d ea00 643d 9149 b5ba
00000070: 2f18 4f3c c4d6 9e3b 6f87 4f3c 8b0d 42bb
00000080: 0b95 b43c 65e9 9aba e0f9 373d 7fde 2c3c
00000090: c944 8dbc 975c 823d 190f 5cbd 3bea 003c
000000a0: 955d 08bd d8f7 a13c a7bb 0b39 d9ee 273c
000000b0: 17aa 4e39 714b 18bc 2abf 09bc e443 28bd
000000c0: f38b 9c3c 3270 c5bb c440 0c3b 0e95 373b
000000d0: 7298 1a3d 5c08 cdbb f367 7c3c b566 f3bc
000000e0: ceed 6bbd 3c4a dbbc 3ad4 d43c 1417 823b
000000f0: 86cd 213d a4dd ac3c 56c0 dfbc 0001 2bba
00000100: 815a debc 540d e33b e7d9 c23a 55b2 67bc
00000110: b7f3 1dbc 43ab 443d 5477 d8bc 0716 393d
00000120: 420a 0e3b bb07 f63c a724 ee3b 9900 96bb
00000130: d0ec 0fbc 5fa1 b1bc a40c 7d3d ef98 8f3c
00000140: 50b7 3d3c 62ad 993d 399f 093c 39de e33b
00000150: 6e59 273d 8a94 963b 1128 103d 4087 b9bb
00000160: ca49 053d 5e20 3c3c 2c73 143d 6b22 05bd
00000170: 97a3 173c 5930 61bd b4dd 5a3c 50a2 7a3d
00000180: 2cc6 503d 2600 87bc 1766 393d c7ed fd3c
00000190: 769c 6b3d fc23 193d 5a57 d4bc 8012 a63c
000001a0: c2f3 b8bb 919d 453b f533 3e3d 026a f73c
000001b0: bfdd fcbb 3b77 63bc 233a a23b 01d9 0bbc
000001c0: ab78 ebbc 868e 91bc c09b 4a3c 7943 2fbd
000001d0: 507a b33c 9edb e23b c91b 48bc aa47 af3c
000001e0: 63c5 20bc e359 a9bc ca40 483d 7870 cbbc
000001f0: baa4 ebb9 f936 6abc 3b73 afbb 2744 893a
00000200: a863 193c f369 00bd d454 573d 7729 13bd
00000210: 28f2 063d b7d5 333c 7d2a 2bbc d0ff 7dbd
00000220: ccdc 8ebc ff1c 76ba 745f 33bd b52f f93a
00000230: 895b 833d 3f09 6ebc 3ccc 71bb 7cba a6bc
00000240: 9906 c8bb 9105 a23c b4e1 c9bc f758 1e3d
00000250: e372 5d3d 4136 f0bb 1be1 ec3c 0a78 303c
00000260: a102 52bc f7d9 1ebd d165 f53c deb6 44bb
00000270: 86b5 ebbb 34f8 17bc a980 01bc c133 2b3b
00000280: 5c40 b3ba 37d8 85bc 71dc c33c 14be 87ba
00000290: 4f7c adbb 2b48 5abd d08e 183d acca 383b
000002a0: 931f 743c b4eb c23c 463a 3c3c 6254 263d
000002b0: a7ff 9fbc 7586 363c d2c9 e5bb 2e2e d1bc
000002c0: 0b8a 153c bb72 41bc 3899 363b 2bd6 6fbc
000002d0: bd41 e33b fd96 093d 3e56 563c 82c0 923d
000002e0: 3e94 25bd 2c9c 003c 960e 2c3d 8d99 d33b
000002f0: 1c2a 313c b6f1 00bc f87c 84bc a60c 0c3c
00000300: 1a7a 1f3d 2200 3ebc 1fdb adbc d6a6 abbc
00000310: 3071 58bc 117c 003c 6a1f 55bd d397 75bd
00000320: e5f7 82bc 5d10 973b c666 97bc f070 8cbb
00000330: 9409 ddbc 66e7 b1bc 8d0b 70bd 8b42 6abc
00000340: 0583 23bc 582e 64bd 87db 3abb ff1b fdbc
00000350: 83bf 733a a796 4abc 7d58 c8bc 53d8 f0bc
00000360: fe65 363a ee5b 9dbc b543 3d3b 6d2f 2b3c
00000370: 49c8 f63b 49d0 c23c b546 3b3d 6665 c63c
00000380: 6ca8 4b3c 55ef 9cbc e655 9a3c 0032 233c
00000390: d564 023d 8b3c 743d 1fad 9bbc 4b5d 833b
000003a0: e69e 463d c7e8 1d3c ff06 92bc 70c8 9c3c
000003b0: 8d44 c7ba 1bd0 e53c f845 d13c ce7c e639
000003c0: fe9e 62bd c660 49bd c883 4e3d 115b 253c
000003d0: 0649 3d3b ad1c 66bb a63a 06bd e742 d53c
000003e0: 3c24 6cbd 1708 9a3c e1dc a6bd fc7d 993c
000003f0: 67ab 62ba 2623 e43b e8e5 d73b 3f70 2d3d
0.01145508 -0.01912668 0.029851142 0.013813431 0.0049807746 0.028535739 0.006844068 -0.03784864
0.0298493 0.01146449 -0.015186098 -0.0017043761 0.008663512 0.05636059 0.013056557 -0.008586312
0.035593938 -0.013686505 -0.03477861 0.007518144 0.03498512 0.050913528 -0.05696417 -0.008643146
-0.003216614 0.04379401 0.055664934 -0.0013831129 0.012640043 0.0048473794 0.012666567 -0.0029610123
0.022043725 -0.0011818825 0.044916034 0.010551094 -0.017244713 0.06365316 -0.053725336 0.007868345
-0.03329237 0.019771501 0.00013325979 0.010249817 0.00019709054 -0.00929533 -0.0084073935 -0.04108037
0.019109702 -0.0060253376 0.0021400908 0.0028012428 0.03774304 -0.0062571 0.015405643 -0.02971206
-0.057599835 -0.026768796 0.025980104 0.0039700363 0.039502643 0.02110178 -0.027313393 -0.00065232813
-0.027142765 0.006929079 0.0014865965 -0.014141639 -0.009640626 0.04801489 -0.026424088 0.045187023
0.0021673595 0.030032983 0.007267553 -0.004577708 -0.008784488 -0.021683393 0.061779633 0.01752898
0.01157935 0.07503773 0.008399778 0.0069539812 0.04085677 0.004595344 0.03519446 -0.005661875
0.032541074 0.011482326 0.03624265 -0.032503527 0.009255311 -0.05497775 0.013358522 0.06118995
0.05097024 -0.016479563 0.045263376 0.03099717 0.05752226 0.037387833 -0.025920559 0.020272493
-0.0056442926 0.0030153731 0.04643627 0.030201916 -0.007716864 -0.013883407 0.004950778 -0.0085356245
-0.028744062 -0.017768156 0.012366235 -0.042788956 0.02190891 0.006923153 -0.012213656 0.021396477
-0.009812686 -0.020672744 0.048889913 -0.024833903 -0.00044945424 -0.014295333 -0.0053543127 0.0010472581
0.009362139 -0.03135104 0.052571133 -0.035928216 0.032945782 0.010976247 -0.010447142 -0.06201154
-0.017439269 -0.0009388476 -0.043792203 0.001901141 0.06413943 -0.014528572 -0.0036895415 -0.020352595
-0.006104302 0.019778045 -0.024643756 0.038659062 0.054064643 -0.0073306863 0.028915932 0.010770807
-0.01281801 -0.038782086 0.029955776 -0.0030016224 -0.00719327 -0.009275485 -0.00790421 0.0026123377
-0.0013675797 -0.01633845 0.023908826 -0.001035633 -0.0052943598 -0.05329148 0.03724557 0.0028196974
0.014900106 0.023794033 0.011488503 0.040607817 -0.019531084 0.0111404555 -0.0070125842 -0.025534716
0.00912715 -0.011807139 0.0027862322 -0.014638464 0.006935327 0.03359126 0.013082085 0.07165624
-0.040424578 0.007849734 0.042006098 0.0064575137 0.010813262 -0.007870128 -0.016172871 0.0085479375
0.038934804 -0.011596711 -0.02122265 -0.020953577 -0.01321058 0.00784208 -0.052031912 -0.059959244
-0.015987346 0.004610105 -0.018481623 -0.004285924 -0.026982106 -0.021716785 -0.058604766 -0.014298092
-0.009979968 -0.05570826 -0.0028512196 -0.030897139 0.0009298252 -0.01236502 -0.024456257 -0.029400026
0.0006957947 -0.019208875 0.0028879468 0.010448319 0.0075312 0.023780959 0.04572173 0.024218272
0.012430292 -0.019157091 0.018839788 0.009960651 0.031834442 0.05962805 -0.019003449 0.004008924
0.04849138 0.009638018 -0.017825602 0.019138545 -0.0015202925 0.028053334 0.025546059 0.00043962005
-0.055327408 -0.049164556 0.050418645 0.010092513 0.0028882637 -0.0035112307 -0.032770775 0.026032878
-0.057651743 0.018802686 -0.08147598 0.018736832 -0.0008646757 0.006962198 0.0065886863 0.042343374

move_mean.bias f4 [2]
00000000: 1912 04bd 1d2d 4ebd
-0.03224382 -0.050335992

food_logits.weight f4 [3, 128]
00000000: 2db2 6ebd 76f1 4b3b bc3f 363d 4d35 a2bc
00000010: b90d 683d 67be eabc df16 533c 80d8 203d
00000020: 0070 eebc 256d 19bd 5add 353d f807 19bd
00000030: 8256 84bd 6119 2cbd a0da 153c 6b3c c73c
00000040: ed57 02bd b00b 183c 45be 7f3d 52f2 96bd
00000050: f886 773d e46b e53c 5605 37bd a91e 513b
00000060: 911b 86bc 24ad 483d 9497 6d3d 8f8f 2fbd
00000070: 5cad 233c af4c 87bc e976 12bd 9c74 993c
00000080: 6b63 5e3d 8215 fc3c 7ed3 d33c 8e92 9bbc
00000090: 86c9 8b3d 1ad0 843b d25d 2c3d f9c2 77bd
000000a0: c2a6 8ebd 178b c43c 8701 803d a272 c6bc
000000b0: 325f 9b3c 7b5c 5f3d 121e 01bd 3a73 933d
000000c0: 0753 663d 9468 89bc f1f4 92bd 26c3 1b3d
000000d0: 500a 433d 6e01 86bb e1b4 89bd d563 41bd
000000e0: 755c f8bb 9d3f 4f3c db48 093c ef15 263d
000000f0: ee5f a93c 4a73 54bc 176d 373d 6574 3d3b
00000100: bb51 9d3d 3459 0a3d 8f24 893d da2b 223d
00000110: 42d7 f83b 9cd7 673d d011 e23c 3c68 8f3d
00000120: 72bf 0c3c 8741 f93c 921d 953b 1c4f 9dbc
00000130: 1e04 7d3d 0e1a 6c3d 28db 6e3d 690d 8a3d
00000140: 0849 103d a8e7 9d3d 0cd5 813d 4038 3c3d
00000150: 9e45 75bb 8e66 74bd cd8f 2f3d 8c35 ab3d
00000160: 5cd8 79bc 603f 083d 5f36 21bd b3cb a0bc
00000170: ff5a 2a3d 1c25 0c3d c8dd 1cbd e6ce 8cbc
00000180: 71d1 cebb 7db4 d9ba bb38 3bbd bb52 0fbd
00000190: 84c2 9cbd 9d77 27bd 10f1 b13c 75ef 8abc
000001a0: 6547 80bd 8a0f 0dbc 9cf1 85bd e2a4 933d
000001b0: 5924 953c 5a68 703d 9fb5 8abd f966 3c3c
000001c0: 1ca9 bdbc 4be6 c7bc 5d86 4a3d f211 883b
000001d0: 3752 163d 4802 a2ba 1ee4 a2bc d735 1f3d
000001e0: 1b43 67bd c01f 013d 29d2 b5bc c2eb 5cbd
000001f0: 7c6f 3a3c 0c33 f83c 55f3 51bc a515 663d
00000200: a314 03bd 1721 a23c d891 d4bc 9d20 fabc
00000210: 0bf1 2ebd 10a5 1e3d 5b89 823c b183 623d
00000220: 32f9 aabc bbbb 12bd c157 2a3b c206 733b
00000230: 6f1d 913c 65fd ad3d 85cb b7bb beb1 5f3c
00000240: 552e 413d 5fe0 9cbc 4935 2d3c 6662 95bd
00000250: e54b 02bd 6513 3a3d 2ce3 083c 3202 55bd
00000260: ddf6 4c3c 4501 863d c66f 2dbc a18b 1dbd
00000270: b4e5 bf3b aca3 1bbc 7c0b 8abc d9bc 143b
00000280: 916a 393d f21e 2a3d 873c 123d aa32 11bd
00000290: b2e3 923d e394 9b3d 23c1 7c3a ff37 56bd
000002a0: 119d 843c 2aad 5e3c 0bcf e6bc 5ce4 aabb
000002b0: e538 92bc b6cb 943d 9115 d5bc 1918 873d
000002c0: f4c0 80bc 7b6e 183c df7d 9ebd 4e2d 2abd
000002d0: 5ca8 b13c 465d 973d 3b9b c6bc 861e 94bd
000002e0: 52e1 703d f3b1 153b e3d2 343d 014b 163d
000002f0: 753d 923c 9610 82bc a32d 6e3d 079e ce3c
00000300: e394 833d 05d3 913d 6067 65ba 150a 893c
00000310: c3af b23c a102 623b c486 a43c da8b a4bd
00000320: d83f 24bd adf1 ab3c acb0 c33d ed35 18bd
00000330: 43c8 08bd b25b fa3a 31ba aa3d 3e24 583d
00000340: 5660 013d 3496 2bbd 81e7 803d 0e07 853d
00000350: bbc7 fdbc 49f0 83bd d3a7 953c bfbc 8c3b
00000360: 9fe0 88bd 5a8c 3bbb fc74 f7bc 1c36 a3bd
00000370: a058 023d a3ce 793d 0008 c33c c7f1 9d3c
00000380: b78f 41bd 3779 f1bc e33b e33c f04e febc
00000390: fef1 8fbd 79dc 79bc 3d67 be3d 9f18 32bd
000003a0: cc83 5f3d 6324 12bd 64dd 503c 000a 063c
000003b0: 1740 20bb 8cf5 063d b331 b9bc 6b76 803c
000003c0: 1f70 01bd fc02 25bd e4bb 23bd c2a3 1c3d
000003d0: 5892 c93c f880 793c 63d0 c0bc 6372 453d
000003e0: e49a 1abd 45b0 233d 7241 7fbd 4917 37bd
000003f0: a49b 4b3d 824e ccbc e88c 6dbc fd77 80bc
-0.05827539 0.0031119264 0.044494376 -0.019800806 0.056653712 -0.028655244 0.012883871 0.03926897
-0.02910614 -0.037457604 0.04440055 -0.037361115 -0.064618126 -0.04201639 0.009146363 0.024320802
-0.031822134 0.00928013 0.062437315 -0.07370438 0.06043145 0.028005548 -0.044682823 0.0031909144
-0.016370567 0.048993245 0.058005884 -0.042861518 0.009990063 -0.016516058 -0.035757933 0.018732361
0.05429403 0.030771974 0.025857683 -0.018990781 0.06825547 0.004053128 0.04208166 -0.060488675
-0.069654 0.023992104 0.06250291 -0.024224583 0.018966291 0.054531556 -0.031522818 0.07199712
0.056231525 -0.0167735 -0.07175625 0.038027905 0.047617257 -0.004089526 -0.06723953 -0.047214348
-0.007579381 0.012649444 0.0083791865 0.04054826 0.020675626 -0.01296694 0.04478177 0.0028908488
0.076816045 0.033776477 0.06696426 0.0395926 0.00759402 0.056602105 0.027596384 0.07002303
0.008590566 0.030426754 0.004550644 -0.019202761 0.061771505 0.057642035 0.058314472 0.06740839
0.035225898 0.077102005 0.063394636 0.04595208 -0.0037425528 -0.059668116 0.04286175 0.08359823
-0.015249338 0.033263564 -0.039358493 -0.019628381 0.041590687 0.034215078 -0.038297445 -0.0171885
-0.0063115885 -0.0016609576 -0.0457084 -0.034991007 -0.076542884 -0.040885556 0.021721393 -0.016959885
-0.062636174 -0.008609662 -0.06540224 0.07209183 0.018205808 0.058693267 -0.06772923 0.01149916
-0.023151927 -0.024401804 0.049444545 0.00415253 0.0366995 -0.0012360299 -0.019884165 0.038869705
-0.05646048 0.03152442 -0.022194939 -0.053935774 0.011379119 0.030297779 -0.0128143625 0.056172986
-0.032002103 0.01979117 -0.02594845 -0.03053313 -0.042710345 0.038731635 0.015934637 0.055301372
-0.020870779 -0.035823565 0.0025992247 0.0037082885 0.01771423 0.08495597 -0.005608978 0.013653217
0.047163326 -0.019149957 0.010571786 -0.07294159 -0.03181066 0.045428652 0.008354943 -0.052004047
0.012510029 0.06543211 -0.010585731 -0.03846324 0.00585624 -0.009499472 -0.01685118 0.002269557
0.045267645 0.041533418 0.035702255 -0.035448708 0.07172336 0.07596757 0.0009641817 -0.052299496
0.016188176 0.01359109 -0.028174898 -0.005215211 -0.017849395 0.07265417 -0.02601126 0.06596393
-0.015717007 0.009303684 -0.07738852 -0.041547112 0.021686725 0.07390837 -0.024243942 -0.072323844
0.058808632 0.0022841662 0.04414643 0.036692623 0.01785157 -0.01587705 0.05814899 0.025221838
0.06424882 0.07120327 -0.0008751061 0.01672844 0.021812325 0.003448643 0.020083793 -0.08034487
-0.04009995 0.020989263 0.09555182 -0.037160803 -0.03339411 0.0019100814 0.083362944 0.05276894
0.031586014 -0.04189129 0.06294156 0.06495486 -0.030979028 -0.06442315 0.018268501 0.004294961
-0.06683468 -0.0028617592 -0.03020715 -0.07969305 0.0318228 0.06098808 0.023807526 0.019280327
-0.047256198 -0.029476745 0.027738517 -0.0310435 -0.07028578 -0.015250319 0.09297035 -0.04348051
0.05456905 -0.035679232 0.012748096 0.008181095 -0.0024452263 0.032949015 -0.022606706 0.015681466
-0.031601068 -0.04028605 -0.03997411 0.03824211 0.024605915 0.015228502 -0.023536867 0.04820479
-0.03774537 0.039963026 -0.062318273 -0.04469994 0.049708977 -0.02493978 -0.014498927 -0.015682215

food_logits.bias f4 [3]
00000000: 31ec d2bc 94bc 32bd e9b0 883d
-0.02574739 -0.043636873 0.06674368

net.0.weight f4 [128, 17]
00000000: 3591 c33d 54eb efbd 9ed8 513d 7f27 bbbf
00000010: fd44 393e 7174 57be e1f9 a9be 83ae b33d
00000020: 77d6 1ebe 8263 423e 12f7 a93d 1fa7 b3bd
00000030: 8f39 653e c642 ce3c 19b6 d2bc a268 2c3e
00000040: 1889 983d 578f 783d 5d5a ffbd 2720 babe
00000050: 41c7 703f f45d f13d 94d4 42be 09f2 d73d
00000060: 2a8b 873d 28ec 953e 37b9 17bd 3052 38be
00000070: 998e 45be 7499 5dbe af58 58bd 2338 303e
00000080: 3a50 8abd db38 143d 19bf aabd f510 a43d
00000090: 24f0 24bd 2374 62bd b5ea c0be 5783 ff3d
000000a0: 59a9 933d ad24 903d 4742 2f3c 5552 463e
000000b0: 3de5 803e 23e3 133e 93b0 f83d 9b95 383e
000000c0: a07b 44be 0eda 61bd c17c 973d deb3 a0bd
000000d0: 22f9 cdbd 1b6b c73e c686 51bf 8616 99be
000000e0: 8b07 cfbd bfb0 823e e993 41be d1f0 333e
000000f0: 8886 6bbb 1b01 87be aeda 70be ffe7 8bbe
00000100: a8af 32be 635a 9b3d b22b 01bd 8433 423e
00000110: 919b 573e 9dc7 0fbe 8933 143c 403b d8be
00000120: b4b3 4abe 930d 05bb 219b 4ebe d11d 62be
00000130: e820 8cbe 8c44 e2bd 0910 27be 7b42 8f3d
00000140: a3af 4dbe 643f 493e 497d 0e3d 8b7e 0cbd
00000150: b83a 5cbe ef6d 27be 9cf4 1fbd 7711 443e
00000160: 3000 55be 8576 b8bd 8525 72be 0a2a 6abe
00000170: 2519 10be ef43 77be bcb6 42be ccff 3f3e
00000180: f840 e4bc 8fd2 5fbe 115f 2e3d 72c9 e3bd
00000190: 7c46 33be a1a7 67bd 631b 8abd 5ee6 f1bd
000001a0: 83d8 76be 65c4 d63f 4e2d 92be 2a21 c8bd
000001b0: 5dbc 0e3e cbef 293e a63f 0a3e c25c b5bd
000001c0: 2caf 403e de5e 9dbc 69bb 99bc 79bd 94bc
000001d0: 1093 35be d6a6 9abd c9fa 043e cff8 263e
000001e0: 8f1c f93d f4a4 c83c fdc3 fcbf 44cf 723c
000001f0: 4a76 393e ad04 d9bc af2d b53e fcc1 ec3d
00000200: db3a 103e b479 93bc 2a79 2dbd c4fd 6fbe
00000210: 6cc9 8cbd 1b2e 953d b66d af3d 30f4 00be
00000220: 5349 0bbd fdde c2bd c63d 6cbc 7b55 61be
00000230: 82d4 27ba 5b22 593e 4da1 8e3e 4c4d 843d
00000240: 3431 863d 8a32 0f3e 5d56 f73d 8aa2 49be
00000250: b8dd 553d 2c7f 0f3e 17ee 7d3e 581c 08be
00000260: e687 3bbe b3e6 f63b bd4a 013e c52b 20be
00000270: f348 e93f 25fc df3e 15e3 3abe fa53 913d
00000280: 045c 363c 5a96 88bc 80bc 213d ff5c 0f3e
00000290: 83e0 003e 656f 12be aeb6 82bd 7a03 763e
000002a0: 75c6 3f3e 5092 f6bc ebae 393e d9f3 f6bd
000002b0: 09d3 7abe c33a c73f ec3e 983e 7ab1 cdbd
000002c0: a520 fb3c 2341 3dbb 4e7f 123e d52d 63be
000002d0: c3f7 6dbe 67ce 4e3c dce4 b73d 8a51 783e
000002e0: 71d1 003e f382 c53d ebec 1fbe c301 0c3e
000002f0: a345 3abe 1c47 a43e 99e3 2bbe be48 59be
00000300: 6add b73d 129f b93d 99bf c03d 4662 4d3c
00000310: 201c 2cbd c22c 66be 4903 afbb 4e82 3f3e
00000320: 3bee cf3d fade dd3c 2698 83bd 9ddd 52bd
00000330: b53c f93c 9c1a 8c3d d975 09be 6b76 cf3f
00000340: c33c 88bd 458a f5ba 82e7 853d 87a2 003e
00000350: 4ba9 72be 1036 18ba 2546 5e3e e5c1 08be
00000360: f137 183e a94a 703d 69da c6bd e433 0a3e
00000370: 4000 1dbd ecd6 a8bd 0aec 5f3d 1811 483d
00000380: 6727 39be aebe ec3e 794c 903b e5e9 f23c
00000390: 77ed 4d3e 1a84 8fbd 0654 64bc b393 dabd
000003a0: 47c2 0abe 6743 3a3e 898d df3d 83e5 1c3d
000003b0: 2b59 d6bb ad76 10be 0eeb 28be d0e4 d53d
000003c0: 87a0 26bd d91d 0a40 8fc4 4d3e b4c6 aabc
000003d0: 6211 6cbe a50c 943d 6fd6 893e 7494 303e
000003e0: 62c7 86be 23f3 17be d0ef 7b3d 4f2d c03d
000003f0: 8aa4 023e b97e 05be 060a 55bd 49c3 b9bd
0.095491804 -0.11714807 0.051231973 -1.4621428 0.18092723 -0.21040513 -0.33198455 0.0877352
-0.155115 0.18983272 0.08299078 -0.0877211 0.22385238 0.025178324 -0.025721597 0.16836789
0.074480236 0.060683575 -0.12468407 -0.36352655 0.9405404 0.11785498 -0.19026405 0.105442114
0.0661834 0.29281735 -0.03704187 -0.18000102 -0.19292678 -0.21640569 -0.05281895 0.17208914
-0.06753583 0.036187034 -0.0833723 0.08011047 -0.04026808 -0.055286538 -0.37679067 0.12476223
0.07210035 0.07038245 0.010696954 0.19367345 0.25174895 0.14442115 0.12143054 0.1802582
-0.19187784 -0.055139594 0.07396842 -0.07846807 -0.10057284 0.38948902 -0.8184627 -0.29899997
-0.101088606 0.25525472 -0.1890408 0.17572333 -0.0035938341 -0.2636803 -0.2352092 -0.27325436
-0.1744982 0.07585599 -0.03153581 0.18964964 0.21055438 -0.1404099 0.00904549 -0.42232704
-0.19795114 -0.002030228 -0.20176364 -0.22081687 -0.27368855 -0.110482305 -0.1631471 0.06995102
-0.20086531 0.19653088 0.03478745 -0.03430037 -0.21506774 -0.1635053 -0.039051637 0.19147287
-0.20800853 -0.09006981 -0.23647125 -0.22867599 -0.14072092 -0.24147008 -0.1901502 0.18749923
-0.02786301 -0.21857665 0.04257113 -0.11122407 -0.17507356 -0.056556348 -0.06743505 -0.11811517
-0.2410603 1.6778685 -0.2855019 -0.097719505 0.13939042 0.1659538 0.13500842 -0.08855583
0.18816823 -0.019210275 -0.018766122 -0.018156754 -0.17731881 -0.07551353 0.12986292 0.1630585
0.1216365 0.024492718 -1.9747311 0.014819924 0.1811153 -0.026491487 0.35386416 0.11560437
0.14084952 -0.018002369 -0.04235188 -0.23436648 -0.06874356 0.072841845 0.085658476 -0.1259315
-0.034005474 -0.09515188 -0.014419025 -0.22005264 -0.00064022106 0.21204512 0.27857438 0.06460056
0.065523535 0.13984123 0.12077019 -0.1969091 0.0522134 0.14013356 0.24797855 -0.13292062
-0.1831356 0.0075348257 0.12626167 -0.15641697 1.8225387 0.4374706 -0.18250687 0.070960954
0.011130337 -0.016673256 0.03948641 0.14000319 0.12585644 -0.14300306 -0.063825 0.24024764
0.18728049 -0.030099064 0.18133132 -0.12058229 -0.24494566 1.5564808 0.29735506 -0.100436166
0.030655215 -0.0028877936 0.14306375 -0.22185452 -0.23239045 0.012622452 0.08979198 0.24249855
0.12579896 0.09644117 -0.15617721 0.13672547 -0.18190627 0.32085502 -0.1678604 -0.21219155
0.08977778 0.090635434 0.09411544 0.012535637 -0.04201901 -0.22478011 -0.005340968 0.18702051
0.10152861 0.027083863 -0.064255044 -0.05148088 0.030424455 0.06841013 -0.13423862 1.6208013
-0.066522144 -0.0018733224 0.06538297 0.12562 -0.23697393 -0.0005806396 0.21706446 -0.13355215
0.1486509 0.05866495 -0.09709627 0.13496357 -0.038330317 -0.08244118 0.054668464 0.048844427
-0.18081437 0.46239227 0.0044036475 0.029652545 0.20110117 -0.07007618 -0.013936048 -0.10672703
-0.13550673 0.18189774 0.109156676 0.038304817 -0.0065413914 -0.14107771 -0.16495916 0.10444033
-0.040680435 2.1580718 0.20094512 -0.020846702 -0.23053506 0.07228974 0.26921412 0.1724413
-0.26323992 -0.14838843 0.061508 0.09383642 0.12758079 -0.13036622 -0.052011512 -0.09070451

net.0.bias f4 [128]
00000000: f596 743e a679 a0bc ee18 eabd 77fd 27be
00000010: 7c01 3cbc 48c7 223e 32c3 89be d2d0 493d
00000020: 60a3 5fbe f6ee 6dbe b39e b83d 4864 63bc
00000030: f40b 853d 39e1 123d d86a 71bd b742 2e3c
00000040: fe8f f5bd 889e 183d 52a0 04be c970 00be
00000050: d1e0 6fbe 1281 34be 9777 153e 57f2 613e
00000060: c31d eabd ad7e 00bd 1fae 36be 7c15 003e
00000070: 7622 41be a0d8 273e 3062 04bd a4fb 043e
00000080: 0c16 13b9 203e a43d 46d7 233e bd52 c83c
00000090: d75a d2bd a6c7 ddbd f0b5 83be 6eee 46bd
000000a0: 0e3a 10be c260 84be f950 84bd 0539 963d
000000b0: 6213 053c b801 1bbe 6cc8 2fbe ac2b aabd
000000c0: a760 78bd 25f7 243e 45de 34be a8e4 81be
000000d0: cb40 813e b848 bf3d 99ee 793e d9cb 6bbe
000000e0: 339c d63d 4c1a 983d d284 bcbb 0141 023d
000000f0: 0736 a33d b9bc 413c 4db2 52be 35cf 233e
00000100: 2d60 8d3d f674 8dbe c399 87be 584a 553e
00000110: c686 273e 26ef 8bbe 54c1 823c d5ca 92be
00000120: 40d6 a53d caec 7bbe 2da6 843e b89f 35bc
00000130: 48f5 3e3e 32f9 473d 97f1 403d 5902 1d3e
00000140: 59bd c23d 1b7b 473e 02fd 003e ff14 1a3e
00000150: 58a5 093c c73c b63d 1dd0 21be 518b 38be
00000160: f79a b3bd ca38 ef3d b610 153d f42c 77bd
00000170: f201 c73d 80af 483d 4423 d0bd 60f5 843e
00000180: 4af0 1f3e 2838 52be 290a 53be d519 753d
00000190: 4044 8c3d 8d20 0abe 37ed 80bd 9be7 c63d
000001a0: 1748 c43d af0a dfbd 3815 eabd ecc6 a6bd
000001b0: 82ab 83be f995 753d fa6a 88bd e521 863e
000001c0: 57de b8bc 3341 b03d 797e 06be b63e 95be
000001d0: 14da 0cbe 5eef 6c3d c0d3 9bbd c638 573e
000001e0: 5491 08bd e66c 9bbc a2c6 45be 0860 453e
000001f0: 81f5 1fbe 3b91 4bbb 43cb 353e 71eb d03d
0.2388571 -0.019589256 -0.11430536 -0.16405283 -0.011474963 0.15896332 -0.26906735 0.049271412
-0.21839666 -0.23235688 0.090146445 -0.013878889 0.064964205 0.03585932 -0.058939785 0.010636023
-0.11990355 0.037260562 -0.12951782 -0.12543024 -0.23425604 -0.17627361 0.14596401 0.22065102
-0.11431458 -0.031370807 -0.1783986 0.12508196 -0.18860802 0.1639123 -0.0323202 0.12986618
-0.00014027226 0.08019662 0.16000089 0.024453515 -0.102712326 -0.108290955 -0.25724745 -0.048567228
-0.14084646 -0.2585507 -0.06460757 0.07335094 0.008122297 -0.15137374 -0.17166299 -0.08309111
-0.06063905 0.16109903 -0.17662914 -0.25369763 0.25244746 0.09340042 0.24407424 -0.2302698
0.104790114 0.07426891 -0.005753138 0.031800274 0.07969289 0.01182478 -0.20575829 0.15997012
0.0690311 -0.27628297 -0.26484498 0.20829141 0.16360006 -0.27330893 0.015961327 -0.28670374
0.080975056 -0.24602047 0.25908032 -0.011085443 0.18648255 0.048821636 0.047105398 0.15332927
0.095087714 0.19480555 0.12596515 0.15047072 0.008401237 0.08898311 -0.15802045 -0.18021895
-0.087697916 0.116807535 0.03639289 -0.060345605 0.09717168 0.048995495 -0.101629764 0.25968456
0.15619007 -0.20529234 -0.20609345 0.05983909 0.06848955 -0.1348898 -0.06295245 0.09712144
0.095840625 -0.108907096 -0.114298284 -0.0814341 -0.25716788 0.05995748 -0.06661029 0.26197734
-0.022566957 0.08606186 -0.13134183 -0.29149407 -0.13755065 0.057845466 -0.076087475 0.21017751
-0.03334172 -0.018972825 -0.19314054 0.19274914 -0.15620996 -0.0031061906 0.1775332 0.10201157

net.2.weight f4 [128, 128]
00000000: 0fb5 9abd 9181 86bc dff9 9dbd 2d2c fd3c
00000010: 3e86 8abd 75ec 983d 9472 583c 35bd 973d
00000020: 7f82 9fbb fe54 8b3c d619 90bb 446c 9b3d
00000030: ba41 52bd 732c 9b3c aa47 87bd 4790 96bd
00000040: ab8f b03c b6f2 adbd 8eef ddbc baa8 ccbd
00000050: 2965 94bd 1a3f 073d 67b5 a03d 5aee 693d
00000060: 9183 14bd 4bb0 14bd 74a2 b8bd 7ce9 8ebc
00000070: 8a1b 73bd 5e14 a13c 863c 69be 0101 793d
00000080: c7ee debd eb5f a8bd a97e 07be bb27 08bd
00000090: 6efd 32bc 20f2 68bb 1518 c43c 887f 5ebc
000000a0: d84d 21bd e770 0ebd c1ae f7bc dd98 e1bd
000000b0: 05bd 09be 8e2f 1b3d a422 0fbd 8217 7cbc
000000c0: c35c 21bc 09d7 a5bc d4cc 673d d439 81bd
000000d0: 379f 5b3c 4fe6 07bd 1ae9 5e3c 928f 5c3c
000000e0: 23ed 8bbd 1100 22bd fca5 d63c bf1a 6a3c
000000f0: 1d6d c3bd 35f0 a5bc f378 6ebd 0af2 96bd
00000100: 5d93 2e3d 747f 51be 406a cb3c 21a9 f3bc
00000110: ef42 b1bb ae36 a5bd 0eca 453c c965 6a3d
00000120: 220f c23c 0cb8 b9bd 0430 233d 42a4 d3bd
00000130: ab44 aabd 3928 9e3c 4d2d 4cbe 9043 9b3d
00000140: 3188 cf3b 3d10 7abd 47fb 3d3c a41f b63c
00000150: 1a9b 8c3d d3c5 06bd ec92 b4bd b109 db3c
00000160: 0832 4fbd c80e f6bd f7c0 0cbe b882 5c3c
00000170: cae8 d1bd 891d 12bd 68b0 453d e942 25be
00000180: 25a1 b3bd e45f fd3b de62 9abc 6915 72bc
00000190: c0ec 2b3c bd2f c1bb 8835 863c 07da 1dbc
000001a0: 7e2f 75be 6d1a 563d 2fad 9fbd f38f 4b3c
000001b0: 01fb 50bd 0651 633d c5b1 823d d27c 04be
000001c0: 3c50 0b3d bd9d 91bb da1c cebd b7c7 bd3b
000001d0: 3d8a 9d3d d311 adbd dc27 00be e0f5 3dbd
000001e0: 630d c3bd 2e67 bebb 5b72 6cbd ca23 6c3d
000001f0: ad21 97bd 9f2a 593c 45c1 adbd 0e84 82bd
00000200: 2c5b c0bd de09 e1bd 0731 3f3d b6cc 333d
00000210: d011 41bd 370f 1f3d 0c87 b83d 6c00 2e3d
00000220: 581b 1abe 2880 c13c 682b b23d c91f 99bd
00000230: 007f 3a3d 3863 5abd d27b 8abd 6cbf b03c
00000240: d284 04bd 0640 423d d1a1 2cbd df53 1c3d
00000250: a62f cb3c 46f2 45bd c324 dc3c 23ef 583d
00000260: 25e6 223d 8c76 3e3c f79a c9bd 504e 003d
00000270: 9d27 7fbc 3024 b5bb f37c 18bd 1ba3 aabd
00000280: 8a76 28bd 244c 83bd 7178 993d acc6 fcbd
00000290: a30a f7bc 927e 75bd b133 a0bd 6fc4 d23c
000002a0: b80a c5bd b102 3f3c 6240 4a3d 681f 1ebd
000002b0: 9aa9 fdbc 0fb0 58bd 3d09 d33c 0152 4abc
000002c0: 46e9 e4b9 3f7c 063d 844e 64bd 7d82 af3c
000002d0: 23c4 b6bd ef64 94bd 1050 793d b229 ffbd
000002e0: a7d5 433d b0a7 0ebe 0084 f23c 8278 b9bd
000002f0: 1d4f 68bb 1e7b 7d3d 124f c13d f715 9abd
00000300: f5e8 e7bc 1fb2 53bd 547a 8bbd 5f5e 2cbd
00000310: ad1a c3bd c56a cc3d e369 273d 591e 58bc
00000320: 0c82 89bd b7f1 fd3c dd75 88bd 5a50 2d3c
00000330: 295a 85bc 77b7 b0bd 4af5 febc 7bc5 4abc
00000340: da19 9cbc 2ad9 54bd 27d2 d2bc 03d7 1c3d
00000350: 21fa a8bd 9d36 a9bd e176 44bc feb8 283d
00000360: e7f3 93bd 1ef5 933d cd62 5c3c 64db e63c
00000370: 821f 163d 3d28 edbc faee 50bd d7d0 c23a
00000380: 3171 ac3c 98b0 84bd b98d a03d a26a c1bd
00000390: 3b8b 4bbd 7bfd 1fbe af05 383d f91f 62bd
000003a0: a6f1 84bd 6540 32be 688c d63c 5153 cfbd
000003b0: b421 d0bc 1bc5 a5bc d465 8abd 5871 ba3d
000003c0: 8dfd d53c 93c2 d3bc 0cf8 93bd 6f2e 57bc
000003d0: d9db 8bbd 83a4 e6ba a2f3 7fbd 03e5 20bd
000003e0: 7986 a03c 3227 793d 4ae7 7b3d b6ca 50bd
000003f0: 62e8 afbb 620d fe3c 9f38 6b3d 3165 70bb
-0.075540654 -0.016419204 -0.07713675 0.030904854 -0.06763886 0.074669756 0.013210911 0.07409135
-0.0048678513 0.0170083 -0.004397611 0.075890094 -0.051332213 0.018942093 -0.06605466 -0.073517375
0.021552881 -0.08493559 -0.027091768 -0.099931195 -0.07245857 0.033019163 0.078471 0.057112075
-0.036258284 -0.03630094 -0.090153605 -0.017445318 -0.059352435 0.019663032 -0.22776994 0.060791973
-0.10885387 -0.0822142 -0.13231911 -0.033241015 -0.01092468 -0.0035544708 0.023937264 -0.0135802105
-0.03938088 -0.03477564 -0.030234696 -0.110154845 -0.13451011 0.03788715 -0.034945145 -0.015386464
-0.009848776 -0.020244138 0.056591824 -0.06309858 0.013404659 -0.033178624 0.01360538 0.013461964
-0.068323396 -0.039550845 0.026202194 0.014288603 -0.09542296 -0.020256141 -0.058220815 -0.07370384
0.042621005 -0.20458776 0.024830937 -0.029743733 -0.0054095904 -0.0806707 0.012072099 0.057225976
0.023688857 -0.09068307 0.039840713 -0.10334064 -0.083138786 0.019306289 -0.19939156 0.07581246
0.006333374 -0.061050642 0.011595554 0.022231884 0.06865521 -0.032903504 -0.088170856 0.02673802
-0.050584823 -0.12014538 -0.13745485 0.0134589 -0.10249479 -0.0356727 0.048263937 -0.16138805
-0.0877097 0.0077323783 -0.018845972 -0.014775612 0.010493457 -0.0058955834 0.016382948 -0.009634501
-0.23943898 0.052271295 -0.07796704 0.012424457 -0.051020626 0.05549719 0.06381563 -0.1293824
0.034012064 -0.0044438527 -0.10064097 0.00579163 0.076923825 -0.08450665 -0.12515205 -0.046377063
-0.09524038 -0.00581064 -0.057726245 0.05765132 -0.0737947 0.013254791 -0.08484129 -0.06372844
-0.0939239 -0.1098821 0.046677615 0.0438964 -0.047136128 0.03883287 0.09010133 0.04248087
-0.15049493 0.02362068 0.08699685 -0.07476766 0.045531273 -0.05331728 -0.06761898 0.021575652
-0.03235323 0.04742434 -0.042146508 0.038165923 0.024802994 -0.048326753 0.026872998 0.052962434
0.039770264 0.011624943 -0.0984401 0.031324685 -0.015573409 -0.0055279955 -0.037228536 -0.08331891
-0.041128673 -0.06411007 0.074936755 -0.12342581 -0.03015644 -0.05993516 -0.07822359 0.025728432
-0.09621185 0.0116583565 0.049377806 -0.03860417 -0.030964661 -0.052902278 0.025761241 -0.012348653
-0.0004366135 0.032833334 -0.05573894 0.021424526 -0.08924129 -0.07245814 0.06086737 -0.124591246
0.047811177 -0.13931155 0.029603958 -0.09056188 -0.0035447546 0.06188499 0.094389096 -0.07523721
-0.028309325 -0.05168354 -0.068104416 -0.042082187 -0.095265724 0.09981302 0.040872466 -0.013190829
-0.067142576 0.030999048 -0.06663106 0.010578239 -0.016278343 -0.08628743 -0.031122822 -0.012376185
-0.019055296 -0.051964916 -0.025734974 0.03829099 -0.08250833 -0.0826237 -0.011991234 0.041192047
-0.07224255 0.07224487 0.01345129 0.028180785 0.036651142 -0.028949851 -0.051009156 0.0014863265
0.021050068 -0.06478995 0.078395315 -0.09444167 -0.049693327 -0.15624039 0.044927295 -0.055206273
-0.06491403 -0.17407377 0.026189998 -0.10123313 -0.025406696 -0.020235589 -0.067577034 0.0910365
0.026121879 -0.025849616 -0.072250456 -0.013133629 -0.06829042 -0.0017596636 -0.062488206 -0.039280903
0.019595372 0.060828395 0.06149987 -0.05097457 -0.0053682784 0.03101224 0.057427045 -0.0036681409
