src/training_logs_ppo/initial/ppo_checkpoint_328_1764189515.pt (torch, 480155 bytes, 42 tensors)

move_logstd f4 [2]
00000000: d41b 1540 403e 0a40
2.3298235 2.1600494

shared.0.weight f4 [128, 17]
00000000: 93f0 013e c785 e4bd 3452 89be f750 5b3e
00000010: fbcb 503e 507a 40be 54fe f3bd c7e0 833d
00000020: 1cad 5d3e eb13 39be 9208 173e ddf1 12be
00000030: 7166 e4bd cec6 c4bd 54ed 0f3d 9fc7 333e
00000040: 3437 03be 378a 79bd 7f86 d4bd c58b 143d
00000050: 1aeb 983d dc61 a5be 489a 763e 4a78 2dbe
00000060: 0064 b1bc c043 12bd 3234 b1be 4a3f 05be
00000070: 645d aabc ce37 2d3e 5e2b 503b cebf cf3d
00000080: a748 f0bd 26e0 08be 6764 703e 0765 923e
00000090: 90e4 073d 969f ae3d f58a c2be dafa 2abe
000000a0: cd4b 54bb e801 41be 9d58 bbba 3b6f a6bd
000000b0: 4886 a7bd c39b 11bd e364 ee3d 10be 09be
000000c0: b8c1 1d3e 0037 183d 7a84 4e3c 09be 3f3c
000000d0: b292 e4bd add3 96be b179 8dbd 396a e03d
000000e0: c223 423e ab17 193e 760a 263d b471 353e
000000f0: 23e3 1abe c9e8 dc3c fac5 3dbd 74b1 19bd
00000100: 6d32 80bd 0e4e 1b3d 365d 2ebe 3d14 483e
00000110: ebd0 b73d 8885 f93d dc95 a8be 9052 473d
00000120: 44cb 73bd 51e2 4f3d 6e93 dfbc 5653 c23d
00000130: e639 34be e05c 573e 1a09 d63d 0f52 0c3e
00000140: ee91 ed3d e3c6 0bbd 0c57 6b3d 2e5f 8bbd
00000150: 8505 bf3d 1ccc d0bd bc4b 213a 4702 47be
00000160: 2507 99be cbe6 9bbe 0f47 c93c 5751 783e
00000170: 91ed 3abe c9b3 863e 567b 8fbd 6c7b 093e
00000180: ca68 c53d d84c 033e 6b89 1ebd 5391 06be
00000190: 9309 59bd 43e9 2fbd cdd6 913d 25e1 bbbb
000001a0: cc11 37be 254c eb3d 6d26 0ebc 612e 863d
000001b0: 76ba aabe b85b aebd ab27 9e3e ef28 01bc
000001c0: b95d 69be adc9 f4bd c1d4 533d a416 59bd
000001d0: 0d33 583d 5fd4 f0bd 2672 db3c aea3 07be
000001e0: d911 8cbd 2de8 203e 2dc1 b13d f834 223c
000001f0: f49d 87be 966d 7cbd 001f 323e 1b7e 0cbe
00000200: ab70 0fbe 8fb8 81bd b1cb d4bc 3fa5 aabd
00000210: ffea eebd 7af9 283e 5576 b93b 50f5 6dbb
00000220: 67e6 dbbd f6ab b43d 3ffe dbbc 07e0 00be
00000230: 7529 dcbd 9c76 57be c78e 86bd ef7d 733e
00000240: 753d 073e f8f0 91be 34c0 a23d 8909 04be
00000250: db08 f23d 2d9c a7bd 5aaa 3bbe 9700 ec3c
00000260: e07b 0cbe b72a d43d 4aef e93b 624b de3d
00000270: bd1d 63be cc36 96be 42d0 dcbc 60ed 25bd
00000280: 4aea 413e 05cc 403e a01a 703e b11f 23bd
00000290: bd75 c03d a069 3ebe 4b5f 03be e2f6 063e
000002a0: 4bd7 583d 61ba bd3d f64f 04be dd0b 1a3e
000002b0: 5dd2 d5bd d2a7 84bc fbcc 7abe f75c 6c3e
000002c0: a9f6 b5bd 4caf 5ebe 1bf0 41be 17f6 0abe
000002d0: b343 913e 321f e7bd c4fa 2fbe 51d8 3f3d
000002e0: c5a6 ce3c df2a 663d e35f bdbd 851e adbd
000002f0: b7be 4abe 2991 b13d 2522 8abe 0b51 6c3d
00000300: 3c86 f63d 0fb7 8c3e 9ed3 423e 7612 16bd
00000310: 39d1 e9bd baa2 5bbe 7ff5 ce3d b13d 89bd
00000320: 5d3f b6bc 1088 04bd d683 e0bd d045 32bd
00000330: 5221 a5bc 736f 40be 8e57 cebd 8955 a1bd
00000340: 60be cdbd 3bcf 81be d12b 4d3e 4af3 52bc
00000350: 763b 04be 76f8 383d 33a2 efbd ec3f 2fbd
00000360: 06d2 b0bd ba06 c03c 7650 d13c c083 14bc
00000370: 65f6 63bd 988d 283e f08e 423d b298 7fbe
00000380: 1664 963d c10a 18be 57bb 583e 4e16 57be
00000390: ccfb 42bd 2cc7 393e f2c2 e0bd 42b9 96bd
000003a0: e801 083d 2d6f 883d c2c0 903d aecb a5bd
000003b0: b61e 893d 7558 9cbd 7209 bfbc 6075 89bd
000003c0: 4ace 89bd 5f93 54be 82fe 60be 11ae 87be
000003d0: f0ba 143c f6c3 67be 929f 993e 7c7c f33d
000003e0: a2ba b23d 7ec3 1cbc 9cdd 493d da59 543d
000003f0: 0b50 783e 558e 48be 01e6 88bd 669a 75bd
0.12689428 -0.111583285 -0.26820529 0.21417604 0.20390312 -0.18796659 -0.119137436 0.06439357
0.21648067 -0.18074004 0.14749363 -0.14350076 -0.11152352 -0.096082315 0.035138443 0.17556618
-0.12814027 -0.060922828 -0.103772156 0.036266107 0.07466717 -0.32301223 0.24082291 -0.16940418
-0.021654129 -0.035709143 -0.34610134 -0.13012424 -0.020796485 0.16915819 0.003176413 0.10144006
-0.11732607 -0.13366756 0.234758 0.28592703 0.03317696 0.08526532 -0.3799664 -0.16697255
-0.0032393814 -0.18848383 -0.0014293377 -0.08126684 -0.08179909 -0.035548937 0.11640336 -0.1345141
0.15405929 0.037161827 0.012604827 0.011703023 -0.111607924 -0.2945837 -0.069079764 0.1095776
0.18958953 0.14950435 0.04053732 0.17719156 -0.15125708 0.02696647 -0.046331383 -0.037522748
-0.06259618 0.037916236 -0.17027745 0.1953897 0.08975395 0.12183672 -0.32926834 0.048662722
-0.05952002 0.05075294 -0.02729198 0.09488551 -0.17600212 0.21031523 0.10450955 0.13703178
0.116000995 -0.03412522 0.05745606 -0.068052635 0.09327225 -0.10195181 0.0006152948 -0.19434462
-0.29888263 -0.3044952 0.024570016 0.24249779 -0.18254687 0.2630904 -0.07005946 0.13425988
0.096391276 0.12822282 -0.03870527 -0.13141374 -0.052987646 -0.042947065 0.07121048 -0.0057336264
-0.17877883 0.11489133 -0.008676154 0.06551815 -0.33345383 -0.08513588 0.3088964 -0.0078832945
-0.22789659 -0.11952529 0.05171657 -0.053000107 0.05278306 -0.117592566 0.026787829 -0.13246033
-0.06839342 0.15713568 0.086794235 0.009900324 -0.26487696 -0.061627947 0.17394638 -0.1371998
-0.14007823 -0.0633403 -0.025976034 -0.083322994 -0.11665916 0.16501418 0.005659858 -0.0036309548
-0.10737305 0.088218614 -0.026854632 -0.1258546 -0.10750095 -0.2104134 -0.06570201 0.23778509
0.13207038 -0.28504157 0.07946816 -0.12894262 0.11818095 -0.08184085 -0.18326703 0.028808875
-0.1371913 0.1035971 0.007139121 0.10854222 -0.22179313 -0.29338682 -0.026954774 -0.04050958
0.1893703 0.18827827 0.23447657 -0.039825145 0.09397457 -0.1859498 -0.1282932 0.13180116
0.052939694 0.092640646 -0.12921128 0.15043588 -0.10440514 -0.016193304 -0.24492256 0.23082338
-0.08884937 -0.21746558 -0.18939249 -0.13570438 0.28371963 -0.11285247 -0.17185503 0.046837155
0.025226006 0.05619323 -0.092468046 -0.08453087 -0.19799314 0.08670265 -0.26979175 0.057694476
0.12037322 0.27483413 0.19026038 -0.0366387 -0.11416859 -0.21448794 0.101054184 -0.0670122
-0.02224701 -0.03235632 -0.10962646 -0.04352361 -0.02015749 -0.18792515 -0.100752935 -0.07877643
-0.10046077 -0.25353417 0.20036246 -0.012875387 -0.12913308 0.045158826 -0.11700859 -0.04278557
-0.08633809 0.023440707 0.025551062 -0.009064615 -0.055654902 0.16460264 0.047499597 -0.24960592
0.07343309 -0.14847852 0.21165214 -0.21004602 -0.047603413 0.18142384 -0.10974683 -0.07359554
0.033204943 0.0666183 0.07068016 -0.080954894 0.06695311 -0.07634059 -0.023319934 -0.06711841
-0.067288 -0.20759343 -0.21972087 -0.2649999 0.0090777725 -0.22633347 0.30004555 0.11888978
0.08727004 -0.009568093 0.04928361 0.0518435 0.24249284 -0.19585545 -0.06684495 -0.0599617

shared.0.bias f4 [128]
00000000: 5fed 11bd 3afe b6be 166f f4bd d3e7 44be
00000010: df5b 44be 18e8 9cbd 97fa 89bd f833 bb3d
00000020: 0f48 b7be 7951 f6bd 32f6 c23d 3882 88be
00000030: b3eb f9bc dcaf 3cbe ea0d c7bc 8b78 c4bd
00000040: c378 50be fc48 903e 6bc3 ec3d b2b1 93be
00000050: 76ba f0bd 5ba2 8a3b eb10 2dbd f27a 253d
00000060: 5b57 00be 27e7 64be 521d 03bd 2b61 c1bd
00000070: 1670 88bb eb9c 97be d3fb 94bd ebc9 88be
00000080: 1f63 04be 4cde d0bd 7cd7 93be 31f1 9b3c
00000090: 67f1 82be f4ee b0be 3d73 4abd 5d93 15be
000000a0: 89be bdbe 09f2 80be a5c7 c0bc 8935 b5bc
000000b0: 1188 913d f9e0 c1be d76f 143e 6786 8bbe
000000c0: f1b8 053e add9 60be cf04 aabe 1650 30be
000000d0: c9ae 7fbe a039 21be 7976 4a3c ebe3 d9bc
000000e0: e0eb 473d 3664 7dbe bf95 37be fc12 12bd
000000f0: e84d 33bd 8c70 71bd da44 05be 3325 3cbe
00000100: 14cd cdbe 498e 4fbe 400b 8dbe 7e53 e1be
00000110: 936e 26be b9eb eaba 9ef6 eabe 35cb 8cbe
00000120: 407e d43c ebc4 623e eda1 9fbc f1a5 f0bd
00000130: 5bea 393e 5d75 a5be 84dd 11be 5cac 35be
00000140: 5026 04be ae37 8dbe 77e1 05bf 5bcd 06be
00000150: 653d 98be 6d8b 07be 59b2 68bd a38d f0bd
00000160: 3661 cabd 80ca 8abe 04a2 8c3d 7917 25be
00000170: 8bc4 f3bd 7a6e 263e 9c30 74be 95f3 203e
00000180: 1f0b 8bbe 5a48 9cbe c714 393e 5bb9 4ebe
00000190: d2c3 5a3e d43c 8ebe 2bf9 223c cff3 73bd
000001a0: 817b ad3c 751c 2dbe 4530 1dbe e8dc f7bd
000001b0: 9250 60bd e3b4 67be 5adc 48bd 6471 b5be
000001c0: 76ed 70be a168 babe 8474 baba e5e0 94be
000001d0: 4cea 86be 8bdc 1abe eaf5 9abe 2788 ffbd
000001e0: 66be 0abd da7f cfbe ce1c 2fbe 9e78 7abe
000001f0: 46c6 6cbe ea71 fe3d 400a d3be 97b2 303c
-0.035626765 -0.35740834 -0.119352505 -0.19229059 -0.19175671 -0.07661456 -0.06737249 0.091407716
-0.35797164 -0.120272584 0.09519614 -0.2666185 -0.030507898 -0.1842646 -0.024298627 -0.09593304
-0.20358567 0.28180683 0.115607105 -0.28846508 -0.117543146 0.00423078 -0.042252462 0.040400453
-0.12533323 -0.22353803 -0.032010384 -0.094423614 -0.0041637523 -0.29611906 -0.07274594 -0.2671655
-0.12928437 -0.1019865 -0.2887534 0.019035907 -0.255748 -0.34557307 -0.049426306 -0.14606996
-0.3705943 -0.25184658 -0.023532698 -0.022120254 0.07106031 -0.37866953 0.14495789 -0.27250978
0.13058831 -0.21958037 -0.33206794 -0.1721805 -0.24969019 -0.15744638 0.012357348 -0.026597938
0.048808932 -0.24745259 -0.17928217 -0.035662636 -0.04377547 -0.058945224 -0.13014546 -0.18373565
-0.40195525 -0.20269121 -0.27547646 -0.44009012 -0.16253118 -0.0017923034 -0.4589128 -0.27498785
0.025939107 0.2214543 -0.019486392 -0.11750401 0.18155806 -0.32316104 -0.14244658 -0.17741531
-0.1290524 -0.27581543 -0.5229716 -0.13164274 -0.2973434 -0.1323678 -0.05681071 -0.11745765
-0.09881823 -0.2710762 0.068668395 -0.16122235 -0.11902722 0.16253081 -0.23846668 0.15717919
-0.27156922 -0.3052395 0.18074332 -0.20187895 0.21363762 -0.27780783 0.009947102 -0.059558686
0.021177055 -0.16905387 -0.15350445 -0.121026814 -0.054764338 -0.22627597 -0.04903827 -0.35438073
-0.23528084 -0.3640795 -0.0014225398 -0.2907783 -0.2635063 -0.15123193 -0.30265743 -0.12477141
-0.033872984 -0.4052723 -0.17100832 -0.24460074 -0.2312251 0.12424071 -0.41218758 0.010784767

shared.2.weight f4 [128, 128]
00000000: 4380 833c edc1 023d 9a0b 413d f15b cdbc
00000010: 7d90 6f3d 4374 ed3c a684 34bd 4a37 0d3d
00000020: 4572 10bd cfb2 823d ef2c 0bbd 6078 9cbd
00000030: 3689 bbbd 4bc3 333c 5b5b fa3c ce39 913d
00000040: 86aa 2a3d d431 d8bc 7e3b 093c bed2 313b
00000050: 88bd ab3b 29c3 f2bd 8143 9ebd 2dd5 7c3c
00000060: 49be a93d c2ac 9fbd aaef 23bd a227 d4bb
00000070: 98d2 fdbd 62ef 7abd e48c f9bc 4dc8 f1bb
00000080: 32c3 0bbd 0a29 a9bb 2183 813d b1bb 01bd
00000090: 9f9b 603d 811c dabd 65ec 413d 09c3 aebd
000000a0: 2ff1 a73c 8129 03be c704 bebd 4ce1 f83c
000000b0: 3dbb bcbc 6ece a0bd 0b66 8bbd f8b7 063c
000000c0: 25da 03bd 83e4 a9bd 89b5 863c 7be1 8dbd
000000d0: 2afb 0b3c 113f 8dbc 39d4 fcbc e047 1b3d
000000e0: 003a 2e3d 77e3 82bd b24b a3bc 72bf 2b3d
000000f0: 1f13 04bd d398 2bbd c163 fdbc 83cf 96bd
00000100: 457f 223d 8d68 f03c 0fd4 82bc 3a73 eabc
00000110: ba4f 06be 85f2 1fbc 6605 4abd 8794 493b
00000120: 7289 36bd f7a8 9cbd 4aba 70bd a964 8abd
00000130: 04ae 3bbd 7fa3 fdbd db80 87bd 40dd f33c
00000140: f9a4 09bd 9b89 1ebd 41b1 01be c96a b6bd
00000150: 3d31 66bd fab3 00bd 7e1a f3bc a606 25be
00000160: ee2a bfbd 1a3d 42bd 3599 a9bc d841 75bd
00000170: f0a0 b13b cd0a d23c f022 5c3d eeff 4fbd
00000180: 931e e8bd 9927 dcbc a298 84bd b7dd 043d
00000190: 0005 bfbd ce50 da3b 3d8d 2dbe 8e6f e8bd
000001a0: d22c b6bd 8709 92bc 61e1 b8bd 65d6 4dbc
000001b0: 54d4 363d 93a4 a1bd fcd0 043d 90f2 58bd
000001c0: c46d d3bd d3ca cf3c caa2 24bc 9f7a 79bc
000001d0: 070d 293c 4288 f3bd c698 b8bd 942f 10bd
000001e0: 2d65 46bd 115e 9cbd d50f 4bbd e664 5f3c
000001f0: 3656 b13b 93fe 933c 9eba 8fbd 0274 d2bc
00000200: 46e3 42bd 1673 01bd 35d9 f2bd 245d 02be
00000210: cb11 c23c d2ce e23c 465b c1bd 35ea a33d
00000220: ad65 6f3d f7d8 c63c 64fe 8bbd 5473 08bd
00000230: c366 dbbd 565b 283d d407 953c 521b 523d
00000240: 460e a53c 0e9d 83bd 20b6 6cbd 6572 393d
00000250: 6e33 d4bd 8bfd 2dbd ac4a 90bd 1790 f43c
00000260: d817 163c 1427 563c 68f6 b6ba 3a0e 9cbd
00000270: ed2b 2abd 6057 62bd f9f1 efbc 116c bbbd
00000280: 56c7 343b 496e cbbd 77e5 1bbd db1c 443d
00000290: 577f d6bd e4d2 f63b ac6d 0dbd 6305 e0bd
000002a0: 7cc9 ccbd 3106 60bb 327a 1b3d 0abf aa3a
000002b0: 92d3 eb3c 3d78 9ebd 9344 733d f649 153d
000002c0: a2ba 71bc de1e 37bd e9c1 cdbd 6d45 a3bd
000002d0: 662f 263d 7910 c53c 4287 3a3d 243f 873d
000002e0: 4518 debd a8bf cdbc 8da8 83bd 5b55 203d
000002f0: 439e 21bd a6d3 f3bd 9924 84bd 5755 63bc
00000300: e1a0 3abd 0911 a7bd 5da0 d53c 67e6 8ebd
00000310: 0cd8 813d 8650 043d 5152 113c c94e e33c
00000320: b912 a6bd 81c6 f43c d41e e1bd 3d60 05bc
00000330: 3e15 d5bd 742a 94bd 7b25 32bd 2e76 0ebe
00000340: 8bd3 303d 4a05 943b 67e8 2a3a ae56 a33c
00000350: a7b5 bfbd 47b0 cebc 1a95 bd3c f375 09bd
00000360: f2d4 b03d 13e3 cebd b081 edbc 83dd 6c3b
00000370: a008 acbd 8dc2 c5bd 0c7c 97bd de85 d73c
00000380: 9e6b d53a 8f67 813c f4d6 0bbe 5c25 21be
00000390: 8f63 05be f911 9abc 3b22 d33c 3306 aabd
000003a0: 865a 3ebd 900d cbbd ca6c 803d 0941 5cbd
000003b0: b60b e7bc 2f35 7abc df89 043d b6a1 4fbd
000003c0: 4be6 b63d e11c 96bb c72a 80bc de66 003d
000003d0: de0e 76bd 766f abbd 9237 633d fa01 78bd
000003e0: 6483 c6bd 4b7c 84bd b073 d4bd 514e 76bd
000003f0: 71f8 c6bc f72f ccbd e74d e8bd 84f9 f6bc
0.01605237 0.031923223 0.047130205 -0.025068255 0.058487404 0.028986102 -0.044071816 0.034476556
-0.035265226 0.06381761 -0.0339784 -0.07640147 -0.0915703 0.010971854 0.03056114 0.070911035
0.04166653 -0.026390947 0.008376 0.0027133669 0.0052410997 -0.1185363 -0.07727719 0.015431684
0.08288247 -0.07796623 -0.040023483 -0.006474451 -0.12393683 -0.06126345 -0.03046269 -0.007378614
-0.0341217 -0.005162363 0.06323839 -0.031673137 0.05483591 -0.10649968 0.047344584 -0.08533294
0.020500747 -0.12808801 -0.09278255 0.030380867 -0.0230385 -0.07851873 -0.068065725 0.0082225725
-0.03219046 -0.08295538 0.016443985 -0.069277726 0.008543769 -0.017241986 -0.030862914 0.037910342
0.04253578 -0.06391042 -0.019933555 0.041930623 -0.032244798 -0.04189379 -0.030931355 -0.073637985
0.039672155 0.029346729 -0.015970258 -0.028619397 -0.13116351 -0.009762411 -0.049321555 0.0030758695
-0.04456467 -0.07649415 -0.05877141 -0.06757481 -0.04582025 -0.123847 -0.06616374 0.029768586
-0.033604596 -0.03870545 -0.12665273 -0.089070864 -0.0561993 -0.03142164 -0.029675718 -0.16115817
-0.0933436 -0.047421552 -0.020702938 -0.059877247 0.0054207966 0.025639916 0.053744256 -0.050781183
-0.113339566 -0.02687435 -0.06474425 0.032438006 -0.093271255 0.0066624647 -0.1694841 -0.11349402
-0.088952675 -0.017826809 -0.090273626 -0.012563323 0.044636086 -0.07892718 0.032425866 -0.0529657
-0.103236705 0.025365269 -0.010048578 -0.015226989 0.010318047 -0.118912235 -0.09013514 -0.035201624
-0.048436332 -0.07635129 -0.049575645 0.013634896 0.0054118885 0.018065726 -0.07018016 -0.025690082
-0.047580026 -0.031603895 -0.11857835 -0.12730843 0.023690125 0.02768651 -0.09441237 0.08003656
0.058446575 0.024273379 -0.068356305 -0.03331311 -0.107129596 0.04110273 0.01819221 0.051295586
0.020148408 -0.0642644 -0.057790875 0.04527511 -0.10361372 -0.042478126 -0.070454925 0.029853864
0.009160958 0.01307084 -0.0013958933 -0.07619901 -0.041545797 -0.05525911 -0.029290186 -0.091514714
0.0027584634 -0.099331446 -0.03806063 0.04787908 -0.10473507 0.0075324643 -0.03452842 -0.109385274
-0.099993676 -0.0034183378 0.03795833 0.0013026905 0.028787408 -0.077377774 0.05939157 0.036447488
-0.014753969 -0.04470717 -0.10046751 -0.07972226 0.040572546 0.024055706 0.04553915 0.0660384
-0.10844473 -0.025115803 -0.06428633 0.0391439 -0.03945757 -0.11905603 -0.06452293 -0.013875327
-0.045563582 -0.08157546 0.026077444 -0.069775395 0.06340036 0.032303356 0.008869723 0.027747529
-0.0810904 0.02987981 -0.10992208 -0.008140621 -0.10404442 -0.0723466 -0.043492775 -0.1391227
0.043170493 0.004517232 0.0006519616 0.019938793 -0.09360819 -0.02523054 0.023142386 -0.03355975
0.08634366 -0.10101905 -0.028992504 0.0036142773 -0.084000826 -0.09656248 -0.07396707 0.02630895
0.0016282683 0.01579645 -0.13656217 -0.15736908 -0.1302626 -0.018807398 0.025773158 -0.08301964
-0.04647305 -0.09914696 0.0627075 -0.05377296 -0.028203826 -0.015271469 0.032358047 -0.05069133
0.08930644 -0.0045810794 -0.015645398 0.0313481 -0.060072772 -0.08370869 0.055472918 -0.06054876
-0.096930295 -0.064690195 -0.10373628 -0.060133282 -0.024288388 -0.09970086 -0.11342984 -0.030148275

shared.2.bias f4 [128]
00000000: 7ca5 a6bd d9f1 e0bd 985c 05be ac75 bc3c
00000010: 2cc6 ecbc 5434 c63c 20ad 1c3d 96d6 e23c
00000020: 7afb e9bd 18b0 8c3c 5311 c8bd d053 0cbd
00000030: 7d17 133b f788 a1bd edab cdb9 2482 12be
00000040: d221 a0bc a5fc c2bd eb7c 383c 8f0a bfbd
00000050: d900 e5bd 0c23 2d3d 4d71 a3bd b0a6 1bbc
00000060: 64cb 7abc 5586 ae38 5bea ad3c 9481 3b3c
00000070: 61d4 99bd db7a 28bd e75f d0bd 6ab6 84bc
00000080: 6b90 0e3d 725b c5bc b5cb 99bd dfd9 063d
00000090: bad4 bbbd e59a 1cbd 2012 bcbd c900 98bd
000000a0: b0ec adbd 8f39 88bc 55c5 833c 93c9 aebd
000000b0: b73e 0dbe 8681 81bd 2628 78bb 9af9 ff3c
000000c0: f540 b0bc 92a1 e3bd a9bc da39 be4f 72bd
000000d0: 5e59 0dbe 92de d9bc d27f 65bc 7af7 133d
000000e0: 6bb0 81bb 60fa f8bd a183 f6bb 97d1 f0bc
000000f0: a810 81bd 13e7 2dbd 39e1 173c 0e7b 40bd
00000100: 2fed d9bd 5876 b2bd 0ffe d3bc b9a5 7bbd
00000110: 0a13 f3bd 4a61 223d 6be9 1cbc 05d0 84bd
00000120: 805f 37bb 6d09 ca3c 642c 00be 79dc 1f3d
00000130: 003e c03b f2f5 e6bd 160c fdba 36bd 0a3d
00000140: c893 5bbd 641a a53c 6377 023d 5a77 b6bd
00000150: 34b9 c5bc a0a6 6fbd e1d2 be3c f8db eabd
00000160: b642 883c 3646 cbbd 135d abbc 40b2 d5bd
00000170: 5f58 2fbc 251d 67bd 797a 6bbd cd06 df3c
00000180: 1e92 353d 14da b2bd a39d 8ebd acb9 153d
00000190: ee01 f6bd 3b66 5cbc ad32 53bd 769c ab3c
000001a0: 7309 89bd 436b 43bd f616 eebd b6a5 dfbd
000001b0: 5874 1abd 3f53 db3c b5f8 dcbd 1520 043d
000001c0: fee9 c4bd 9996 fcbc 8347 87bd d137 0abe
000001d0: b5db a3bd bf41 85bd 090e 80bd eeb6 a3bd
000001e0: da5e a6bd 2e16 fd3c 7912 a5bc 1b42 85bd
000001f0: 7e20 bebd aead a7bd 8fb4 373d 4aca a6bd
-0.081370324 -0.10983629 -0.13023603 0.02300533 -0.02890309 0.024194874 0.038251042 0.027690213
-0.114249185 0.017173812 -0.09768929 -0.034259617 0.002244442 -0.07887452 -0.00039228742 -0.14307457
-0.019547377 -0.09520844 0.0112602515 -0.09328186 -0.11181802 0.04226975 -0.07980595 -0.009500191
-0.015307281 8.321988e-05 0.021229913 0.011444468 -0.07511211 -0.04113279 -0.10174542 -0.016200263
0.034805696 -0.024091456 -0.07509557 0.03292262 -0.09171434 -0.038233656 -0.091831446 -0.07422025
-0.0849241 -0.016629009 0.016085306 -0.08534541 -0.13793455 -0.06323533 -0.0037865727 0.031246949
-0.021515349 -0.111148015 0.00041720763 -0.05915808 -0.13803622 -0.026595388 -0.0140075255 0.036124684
-0.0039577982 -0.1215713 -0.0075230156 -0.029396815 -0.06302005 -0.042456698 0.009270006 -0.046992354
-0.10640942 -0.087139785 -0.02587798 -0.061437342 -0.11868866 0.039643563 -0.009577136 -0.06484989
-0.0027980506 0.024662698 -0.12516934 0.03902862 0.005866766 -0.11277379 -0.001930597 0.03387185
-0.053607732 0.020154186 0.031852137 -0.08909483 -0.024136163 -0.058508515 0.023293914 -0.11467737
0.016633373 -0.09925501 -0.020918405 -0.10434389 -0.010702222 -0.05642428 -0.057489846 0.027224923
0.0443288 -0.08733001 -0.069636606 0.036554024 -0.12012087 -0.013452108 -0.051562 0.02094863
-0.066912554 -0.047709715 -0.11625473 -0.10920279 -0.03770861 0.026773093 -0.107896246 0.03225716
-0.09614943 -0.03083353 -0.06605437 -0.13497855 -0.0800089 -0.06506681 -0.06252677 -0.079938754
-0.0812356 0.030894365 -0.02015041 -0.06506749 -0.09283541 -0.08187424 0.04484993 -0.08144052

move_mean.weight f4 [2, 128]
00000000: d259 7c3b d260 22bd 2964 d6bb 4b61 b93c
00000010: 3222 253c 8684 103c 1ada d03b 9b88 3c3d
00000020: aa09 c33c 43e0 d438 ed83 1cbb 613c 6e3b
00000030: fd6e d3ba 1481 473d 8f91 763c 71c6 f6bb
00000040: f3ca 113d b0a9 a73c 67af 55bc 8603 f2bc
00000050: 8419 0d3d 3a4b 753d 9c66 e4bc 83af 853c
00000060: 6546 44bc 8037 453d 67d0 323d 2945 053c
00000070: 15dc 5c3c baff bebb 76c4 3f3c adfc 40bc
00000080: c912 c63c 6ff1 8f3b 535e 193d fa6a d8bc
00000090: 033d a73c 04c1 5d3d bc24 81bd 8ed4 8b3c
000000a0: c525 543b 8728 2a3c b510 5b3d aab2 7f3c
000000b0: 9017 5ebc bf2a 0cbb c902 c4bc b074 16bd
000000c0: 3ea6 ce3c 3784 3fbc 5ace afba 9226 dfbb
000000d0: f1e1 b6bb dae1 b03a f367 7c3c f9a7 f4bc
000000e0: 403f 2ebd 2898 e1bc 51c3 e73c bb98 cebb
000000f0: 6020 90bb d5ee f93b 08c3 78bb b8ec 51bb
00000100: f78b c5bb d303 ef3b e63e 113b 3985 15bc
00000110: beb1 78bb 9a9d 2a3d e663 463d 0716 393d
00000120: 8777 36bc 9db3 943c 22fa bb3b b02f 90bc
00000130: 6252 93bc c801 d9bc 5578 433d 944a 45bc
00000140: 618f 4cbc 375b 623d e954 b23b 3aeb 413c
00000150: 8330 b23a c15b 04ba a44a 203d b9b4 753b
00000160: a151 063d f29d 313d a271 3bbd d9dc 2dbd
00000170: dff2 553c 5930 61bd b4dd 5a3c ecc3 903d
00000180: 0061 583d 977b cebc 35b3 8a3d 097c a03c
00000190: 3004 cc3b fc23 193d d885 89bc 628b 0c3c
000001a0: 0039 213a d283 05bc 4a49 2d3d b95e eb3c
000001b0: 47d1 133c 2fa2 efba 2b2a 993b 01d9 0bbc
000001c0: cde4 4cbd 648c 083c f518 e53a d450 2fbc
000001d0: cc79 d13c aed8 633c 5dc4 093d e3ca ea3c
000001e0: 42db 38bd 0751 34bd 1b87 713d 068e cbbc
000001f0: 2ce7 253a 6761 72bc 731d 713b 4ef0 a73c
00000200: a37d df3c 1635 a33c 9784 633a 0169 38bb
00000210: 4f86 293d c734 8d3c a2d7 0c3c 8665 6ebc
00000220: 086b 4f3c 9778 47bc 09d8 f5bc bd67 053c
00000230: ea45 a63d 026f cebb 29b5 04ba 384a 05bc
00000240: 9906 c8bb 8d27 24bc e993 98bc ab9d 1c3d
00000250: d172 523d 6dd6 183b dff8 413d 2be2 e5bc
00000260: 33db aebc 2097 d4bc 4624 173d 6540 d53b
00000270: 46d9 0cbc 34aa 113c 0172 0ebc 317e ebbb
00000280: ed2e a4bc cb1a 1fbb 536c ab3c 2554 f8bc
00000290: 3061 dfbc cf47 33bd 8814 3e3d 00ed b6bb
000002a0: 06d5 043d 7246 1e3b 1f91 48bc cc5c ba3c
000002b0: 0822 17bc e23d f83c daae fc3b 6ab0 d7bc
000002c0: 172f 9d3b 9356 8abc b9ef c0ba 3702 39bb
000002d0: 9696 ac3c 7d07 2d3d 3e56 563c 263c 473d
000002e0: 9b9b 50bd 6b6e 633b 7f9d 073d ffc1 a23b
000002f0: 6f42 b63c 6efd 0ebc e499 98bc 6382 cf3c
00000300: 3885 4a3c 0112 27bc 2405 aebc 3152 b6bb
00000310: 3125 d3bc ae26 4c3c 4d48 fdbb d397 75bd
00000320: 7577 3f3c e968 3dbc 0516 18bd 2f38 3a3c
00000330: e77e 14bd 668e 02bd f346 6abd 10c0 c23b
00000340: 3f37 55bd 6ab1 62bd 06da ffbb b02d 893c
00000350: deb1 3abc 0d9f 30b9 1418 08bb 4f60 1fbd
00000360: e45c 2dbc 613d 67bc 3e94 303c 6132 6d3a
00000370: c5b1 143a 49d0 c23c b546 3b3d 88b6 713c
00000380: e9b0 873c 304d 3abd de2f c93c f8e1 9f3c
00000390: 76de 053d 8b3c 743d 6eb4 84bd cb9c 4dbc
000003a0: b3f5 2c3d 2f62 033c a4a0 abbc 02b9 803c
000003b0: be74 bd3c 7957 133d 4f4f 7dbb ce7c e639
000003c0: 6f73 f13c 70c9 11bc 1781 233d b106 8bbc
000003d0: 9fc2 16bb 17e1 913a 9754 84bc a550 5f3c
000003e0: bde9 753d f8ed 363c ecd8 abbd a5d8 9f3c
000003f0: a6ab f63a 5313 d23b fc3b 1ebb 7e00 b73c
0.0038505686 -0.039643116 -0.0065427017 0.0226294 0.010078954 0.008820659 0.006373656 0.046028715
0.02380832 0.0001015072 -0.0023882345 0.0036351907 -0.00161311 0.048707083 0.015049352 -0.0075309803
0.035593938 0.020466655 -0.013042307 -0.029542696 0.03444816 0.059886195 -0.02788096 0.016319042
-0.011979674 0.048148632 0.04365578 0.008134165 0.013480206 -0.005828825 0.011704555 -0.011778993
0.02417888 0.004392795 0.03744347 -0.026418198 0.020414835 0.054139152 -0.06305835 0.017069127
0.0032371145 0.010385639 0.05348273 0.015606562 -0.013555422 -0.0021387783 -0.02392711 -0.036732376
0.025225755 -0.011689237 -0.0013412938 -0.006810018 -0.0055811335 0.0013495043 0.015405643 -0.029865252
-0.04254079 -0.027538374 0.028291376 -0.006304828 -0.0043983907 0.007627348 -0.0037958045 -0.0032031965
-0.006028648 0.007294157 0.0022162735 -0.009126001 -0.003794774 0.041654207 0.048435114 0.045187023
-0.011136896 0.018152053 0.0057366053 -0.017600864 -0.01798362 -0.026490107 0.04772218 -0.012041707
-0.012485356 0.05526277 0.005442251 0.011835868 0.001359478 -0.0005049073 0.039133683 0.0037491752
0.03279269 0.04336352 -0.045762666 -0.042446945 0.013058393 -0.05497775 0.013358522 0.07068619
0.05282688 -0.025205417 0.06772462 0.019590395 0.006226085 0.037387833 -0.016787454 0.008578153
0.0006150156 -0.008149104 0.042306222 0.02873169 0.009022064 -0.0018282587 0.0046742163 -0.0085356245
-0.05002289 0.008334253 0.0017478751 -0.010700423 0.025570773 0.013906641 0.033634532 0.028661197
-0.045130976 -0.044022586 0.058966737 -0.024847995 0.0006328698 -0.01479373 0.0036791235 0.020500328
0.027281588 0.019922774 0.000867912 -0.002813876 0.041387852 0.01723708 0.008596333 -0.014550572
0.012659796 -0.012174747 -0.03001024 0.008142409 0.08118804 -0.0062998543 -0.00050623954 -0.008135371
-0.006104302 -0.010019195 -0.018625217 0.0382363 0.05137903 0.0023321167 0.047356483 -0.028061947
-0.021344757 -0.025950968 0.036899827 0.0065079206 -0.008596724 0.008890677 -0.008694173 -0.007186674
-0.020041907 -0.0024277444 0.020925676 -0.03031356 -0.027268022 -0.043769654 0.0464063 -0.005582452
0.032429717 0.0024150875 -0.012241631 0.022749327 -0.009224422 0.030302946 0.0077112736 -0.026329238
0.0047968733 -0.016886985 -0.001471988 -0.002823008 0.021067899 0.04224347 0.013082085 0.048641346
-0.050929647 0.0034703265 0.033109184 0.004966974 0.022248475 -0.0087274145 -0.018628068 0.025330728
0.012360863 -0.010197164 -0.021242686 -0.005563997 -0.02577457 0.012460394 -0.007729566 -0.059959244
0.011686196 -0.011560657 -0.037130374 0.011365934 -0.036253836 -0.031874083 -0.05719657 0.005943306
-0.05205464 -0.055344976 -0.007807973 0.016745418 -0.011394946 -0.00016843919 -0.0020766305 -0.038910206
-0.010581229 -0.014113755 0.010777531 0.00090483396 0.00056722417 0.023780959 0.04572173 0.0147529915
0.01656385 -0.045483768 0.024558958 0.01951693 0.03268286 0.05962805 -0.06479727 -0.012549589
0.042226505 0.008019014 -0.020950623 0.015713219 0.023126956 0.035972092 -0.0038652008 0.00043962005
0.029473988 -0.008898124 0.03991803 -0.016970964 -0.0023004187 0.0011129704 -0.016153617 0.013630067
0.060037363 0.011165135 -0.08390984 0.019512484 0.0018819466 0.006410995 -0.002414464 0.022339102

move_mean.bias f4 [2]
00000000: fcdf 663e 84cd a7be
0.22546381 -0.32773983

food_logits.weight f4 [3, 128]
00000000: cf1c 0ebd 7de7 a13c ddfd ac3c ced1 1ebc
00000010: 0a6a ca3c bdf1 b8bc a2ac 003c 33db 883d
00000020: 767e aebc 0993 d8bc 9af1 063d 566d 24bd
00000030: df7b 67bd 0857 cabc c76a 233c b455 363d
00000040: ed57 02bd db43 35bc 374e 5c3d 505d 7ebd
00000050: beff 4e3d ef8d 2f3c 46d3 58bd c988 8dbc
00000060: 3b2f efbb b6c8 553d f73c 2a3d f23c 08bd
00000070: 4203 ed3b be74 c3bc 1807 10bd a7f0 473d
00000080: 824d 693d 6b3f 473d 8b0c 333d 07e4 c1bc
00000090: 0d60 883d 30ed b1bb 87c6 053d 17ff 50bd
000000a0: d73b adbd eb28 9d39 fa07 bb3c 32e5 91bc
000000b0: 6322 36bc d359 103d fc39 1abd 1051 973d
000000c0: cb01 293d 4c17 d8ba 8795 a4bd 3a9f b63c
000000d0: 2155 373d 43df a33b e1b4 89bd c30a 42bd
000000e0: 37ea b43c e109 95bc e6c3 643c 061b e33c
000000f0: 812a 2b3d c807 36bd 4ada 813d 7206 803c
00000100: 8fab a43d 1d86 4d3d 036c 813d feef e83c
00000110: f6a1 dbbb 1001 323d 8853 d33c 3c68 8f3d
00000120: f39d 813b d4ec 043d 3ae3 423c 6841 dcbc
00000130: 1b49 553d f71f 383d e275 2c3d 7a8e 293d
00000140: 07ff 3d3d 4fb3 9f3d f78a 5c3d c728 6b3d
00000150: 4a59 bcbc 3445 55bd 477b d53c a1b2 973d
00000160: a4c8 f7bc f0de 043d 4a53 ecbc ac3f a1bc
00000170: aa54 fb3c 1c25 0c3d c8dd 1cbd efd9 dabc
00000180: 397a 59bb 30e4 dabc b518 efbc c037 ebbc
00000190: fc71 56bd 9d77 27bd 2ec5 6b3d 7dbc 22bd
000001a0: 72ca 93bd b5a8 b0bc 6d68 35bd edf3 6a3d
000001b0: 9159 283d e7a3 3e3d 3f3a 73bd f966 3c3c
000001c0: 7f1a 8cbc 99f8 57bd 81e6 2c3d c0f7 a43c
000001d0: bb68 aa3c a7e5 a23b 8d7e 213b eef2 d43c
000001e0: 7793 02bd 2a46 223c 409e 0ebd 504e 46bd
000001f0: 6f69 d53a e3c2 f03c e2eb afbc de12 1a3d
00000200: f0f9 29bd d7b6 c43b ea5f 4abc 6d9a f7bc
00000210: 0b41 67ba b529 073d a568 833c a82d 283d
00000220: 084d 0ebd 942a 00bd 9620 953c 11fd 25bc
00000230: e9a7 083b 1e0d 893d ba89 9cbb 6923 1b3c
00000240: 552e 413d a01c 6dbb d3b6 e43c dd14 96bd
00000250: 5eaf 34bc 5a7a 0a3d fc0c f7ba c805 cebb
00000260: ad3d 4a3b 694b 463d 62fc c83b d8f2 ecbc
00000270: 9416 f33b 8de0 b5bc f041 86bc cf7b dd3c
00000280: 3e8f ee3c d4d0 ee3c 73aa 2c3d fc59 d7bc
00000290: 1240 813d b0f3 ae3d 74e7 07bc 5fc7 2fbd
000002a0: 68ad 143c 30d4 aa3c 40e9 f8bb ad2e 06bb
000002b0: 669b 253c 8974 8f3d 2404 fbbc c7c7 883d
000002c0: c1c7 7c3b ac79 e23b 7c31 8bbd f7c1 bcbc
000002d0: 3b32 533d bd4e 843d 3b9b c6bc 4df8 82bd
000002e0: a265 003d e735 753b b3b8 203d 76e9 743d
000002f0: 512d 073d 2c5a 07bc 1bc8 913d 43bb 153d
00000300: ffaa 3f3d 8523 723d 0a12 04bd 162b 623a
00000310: f69f 60bc 2421 c43a cad7 2a3d da8b a4bd
00000320: e87e 613c 00b6 1c3d d34c 983d 78f5 b0bc
00000330: a928 bebc a43f eb3c 3934 a43d beeb 5b3d
00000340: 7b0f 053d b4bc 2ebd 701c 943d 744b 7c3d
00000350: 9857 9abc 329b 82bd a93d af3c 126f 623c
00000360: fd69 62bd 05c4 c13b e14e 5fbc 0abb 84bd
00000370: 790e a23c a3ce 793d 0008 c33c 6bcc 1f3c
00000380: 25dc 01bd dede 0dbd 404f f0ba 44e5 23bd
00000390: ace9 85bd 79dc 79bc b6c0 563d 07d9 f1bc
000003a0: ad3d 413d 8ab4 b8bc 14bf 403c 4352 bd3c
000003b0: 53f2 34bc 1538 a43c 4b37 b7bc 6b76 803c
000003c0: 4f6f 90bc 5179 c6bc 471f 32bd e80a 263d
000003d0: 62ca 193d 41f9 933c ae46 37bd 5121 743d
000003e0: 299a 10bd 072a e03c b897 4cbd ce26 42bd
000003f0: 25a4 433d b750 c7bc aeff c1bc 3922 ccbb
-0.034695443 0.019763703 0.021117145 -0.009693576 0.024708766 -0.022576207 0.007853659 0.06682434
-0.021300536 -0.0264373 0.032945253 -0.040143333 -0.056514617 -0.024699703 0.009974188 0.044515327
-0.031822134 -0.011063541 0.05378553 -0.06210071 0.050536864 0.010714992 -0.05293586 -0.017277138
-0.0072993315 0.052193366 0.041562047 -0.033261247 0.0072330544 -0.023859378 -0.035163015 0.04881349
0.056958683 0.048644464 0.043713134 -0.023668302 0.06658945 -0.0054298863 0.032660034 -0.051024523
-0.08458679 0.0002997586 0.022830952 -0.017809484 -0.011116597 0.035241913 -0.037652954 0.07388508
0.041261476 -0.0016486435 -0.080363326 0.022292722 0.04475892 0.00500098 -0.06723953 -0.047373544
0.022084339 -0.018193187 0.013962721 0.027722847 0.04178858 -0.044441015 0.063404635 0.015628073
0.08040535 0.05017673 0.0631943 0.02843475 -0.006702657 0.043458045 0.025796667 0.07002303
0.0039555966 0.03245242 0.011894995 -0.026886657 0.052071672 0.04495236 0.04210461 0.041395642
0.04638579 0.07797872 0.053843465 0.057411935 -0.022991795 -0.05206795 0.02605976 0.07407118
-0.03024704 0.032439172 -0.02884831 -0.019683681 0.03068002 0.034215078 -0.038297445 -0.026715247
-0.0033184423 -0.026720136 -0.029186586 -0.028713107 -0.052354798 -0.040885556 0.057561092 -0.039730538
-0.07216348 -0.02156482 -0.04428904 0.057361532 0.041101042 0.04654303 -0.05938172 0.01149916
-0.017102478 -0.052727316 0.042212013 0.020137668 0.020801893 0.0049712243 0.002464208 0.025994744
-0.031878915 0.009904424 -0.034818888 -0.04841453 0.0016282032 0.029389804 -0.021474782 0.03761565
-0.041498125 0.0060032415 -0.012351969 -0.030225003 -0.0008821643 0.03299876 0.01604111 0.041059166
-0.03474143 -0.031290606 0.018204015 -0.0101311365 0.0020852035 0.06691955 -0.0047771605 0.009468892
0.047163326 -0.0036180392 0.027919209 -0.07328198 -0.011028139 0.03380809 -0.0018848474 -0.0062873103
0.0030859516 0.04841176 0.006133602 -0.02892439 0.007418463 -0.0222018 -0.016388863 0.027036576
0.029121038 0.029152311 0.04215474 -0.026288025 0.063110486 0.085425735 -0.008294929 -0.042914744
0.009074546 0.020853132 -0.007596165 -0.0020474598 0.010107851 0.07004649 -0.030641623 0.066787295
0.003857121 0.006911477 -0.06796548 -0.023041708 0.051561575 0.06460331 -0.024243942 -0.06395016
0.031346925 0.0037416162 0.039238643 0.05979296 0.0330022 -0.008261245 0.07118245 0.03655554
0.046793934 0.059115905 -0.032243766 0.0008627636 -0.013710013 0.001496349 0.0417097 -0.08034487
0.013763167 0.038259506 0.07436528 -0.021601424 -0.023212748 0.02871687 0.08017773 0.05369162
0.032485466 -0.04266043 0.072319865 0.061595395 -0.018840596 -0.063772574 0.021391707 0.013820427
-0.05527686 0.00591326 -0.013629646 -0.06480987 0.019782292 0.06098808 0.023807526 0.009753327
-0.031704087 -0.03463637 -0.0018334165 -0.040013567 -0.0653871 -0.015250319 0.052429877 -0.029522432
0.04717796 -0.022547025 0.011764307 0.023110515 -0.011044103 0.020046273 -0.022365233 0.015681466
-0.017631201 -0.02422777 -0.04348686 0.040537745 0.037546523 0.01806319 -0.04474514 0.059602086
-0.03530327 0.02736379 -0.049949378 -0.04740029 0.047763962 -0.02433048 -0.023681488 -0.0062296656

food_logits.bias f4 [3]
00000000: e024 1cbe 4739 ad3d 5fdd 973d
-0.15248442 0.084581904 0.0741527

net.0.weight f4 [128, 17]
00000000: e47b 163e d380 39be 9817 b43f 5ca0 a3c0
00000010: 3e0e e9be d15e 9fbe bcb0 10be 6f57 0f3e
00000020: 3c3f 74bd 27c0 483d 2156 093e f85f 00be
00000030: 457d 323e 2dc3 8f39 385c 2fbd 42eb 463e
00000040: 91c5 003e 7fe0 d33d d8c9 babd 8671 12c0
00000050: 3d90 7040 1da0 f63f 0515 41be 3314 d63d
00000060: 0799 babd 1f76 3b3e c259 083d 9046 dfbd
00000070: 5683 2cbe 8b88 6ebe 4f39 c1bd a408 dd3d
00000080: fb0e b2bd 35a3 133c 3f37 41bc e598 fd3a
00000090: 818f 893f 7400 b8bf e1c4 43c0 be29 b93d
000000a0: 097e 8c3b f17c 543d 3223 d93d 3079 363c
000000b0: 57fd 093e f49d 7d3d 3e3a 083d c98c a03d
000000c0: 9cf9 c6bd f369 ef3c f2fc 38bd 95c9 d6bd
000000d0: 61af d1bd 36f0 963f edb2 88c0 2148 a3be
000000e0: b646 17bd 40f5 623e ddea 1ebe 405c e9bd
000000f0: c6de 4ebd b7cf 2abe e081 2cbe 93b8 2abe
00000100: b790 1dbe bd33 2a3e b6ba 593e 2cf3 bf3d
00000110: 2963 d53d a69c 4abe bb7f aa3f 236c 5d3f
00000120: 66d9 2cc0 6f1e 9bbc b4d5 4abe 8555 dabd
00000130: 58a8 3fbe 08ab 2a3e 930e dbbc c5e2 ae3d
00000140: 4c9e 43be 0634 563e de13 b33d 2873 ffbb
00000150: 3493 11be 95b5 e9bd df28 4bbd 89b3 de3f
00000160: 8e6f e2bf b916 f5bf 5551 a0be d75b ccbc
00000170: cd4d 02bd cfb3 38be 6e8c 3abe 7b56 393e
00000180: f492 02bb f6d7 bbbd b788 5b3d 81b0 5cbc
00000190: 5faa afbd af2f dbbd cd11 4cbd bff0 cbbd
000001a0: 6509 f0bf 8b64 ae40 225c 4f3f d2d3 f2bc
000001b0: 32b5 c03d 4a36 3d3e a997 fe3c 7754 7dbd
000001c0: b69f 753e 6d05 c6bb 0664 6f3c dfc7 023b
000001d0: 7ec6 0ebd 0107 ca3b e4f5 9f3d c403 3f3e
000001e0: 3338 c63d d795 0c40 0b7d bbc0 5754 5bbf
000001f0: b8d2 3a3e 0a40 acbc 7472 a03e b676 593e
00000200: 59c0 063e 878a 35bd 32bf 5abb a802 a2bd
00000210: 7204 95bc 16ca 383e cc87 0c3d aec8 89bd
00000220: 0cff babd 3480 b83c 595b ae3f f7f0 c5bf
00000230: 755f 03bf c266 743e a50d 5a3e 3428 afbd
00000240: 7452 b0bc fc40 c73c 2f04 ce3c 8924 47be
00000250: 5b83 123d e71d bf3d 69b5 a53d b1e4 5f3c
00000260: 7214 6abe 5e1e b13d 2a1b 413d 7dbf eabf
00000270: 4b13 c840 2f61 613f 2d96 8abd fdcd be3c
00000280: 8158 90bd 6d62 313d 163d 463d e362 963c
00000290: 9552 043d cc5d 2fbe 2220 91bd 97eb 643e
000002a0: a632 013e 5d9a 073d 5c71 0c3e 6afe 8dbd
000002b0: 7a83 febf 2ef7 3440 c018 6140 ba29 06bd
000002c0: 5279 663c efc5 5ebd 1f3f ee3d 7024 58be
000002d0: 5127 9fbe 32d5 a63c 374c 433d c1ea 6c3e
000002e0: b602 0e3d 2f31 3c3e 690c 10be 8a1d 213e
000002f0: c606 9abc d5b2 f43e a3c0 6ec0 a8b6 9e3e
00000300: 48cf 1e3e 4e76 593d b9ef 1dbd c58f d03d
00000310: d613 74bd c9bc 8bbe b4f7 fdbd 24f0 363d
00000320: 5ece 833d 4b14 62bd 6f91 79bd a5e1 453c
00000330: 1db3 213d 712b 8b3d 2e6b 3cbf 3b41 c240
00000340: db0f 4bbe ecd7 9f3d 2062 163e 7b04 1b3d
00000350: b03e 1bbe d1d9 bf3a 84ab 0c3d 3593 96bd
00000360: 56ae fa3d 9669 bd3c 73de 1bbd 9399 853d
00000370: bca0 e7bb d1cd 043d de81 da3b d041 5cbf
00000380: 1dca 14c0 7f28 6e40 8b6a 7a3d 125d 65bc
00000390: 0558 bc3c 79d4 65be 4618 47be 2aba 25be
000003a0: 9716 89be c6cb 0f3e c21c de3c 870b 403d
000003b0: 5407 8fbd b2a6 413e 827b d7bc b89e bd3d
000003c0: 235f b5bf b0cd ad40 938d 943f 272a 32bc
000003d0: 78cf 84be 8f8f e03c 1288 963e 5edc d73d
000003e0: 203d d4bc 9b8d debd eefe 0b3e 1b56 043e
000003f0: 6f1c 213e 517d 92bd ec61 20bd b68e e63b
0.14695698 -0.18115549 1.40697 -5.113325 -0.45518678 -0.31127027 -0.14129919 0.13998197
-0.059630617 0.049011376 0.13411762 -0.12536609 0.17430599 0.00027420503 -0.042812556 0.19425681
0.12575366 0.103455536 -0.0912053 -2.288179 3.7588036 1.9267613 -0.18855675 0.104530714
-0.09111219 0.18306778 0.033288725 -0.109021306 -0.16846976 -0.23294275 -0.09434759 0.10792664
-0.086942635 0.00901108 -0.011792957 0.0019347934 1.0746919 -1.4375138 -3.0588915 0.09041165
0.0042874855 0.051876966 0.10602416 0.011137292 0.13475548 0.061918214 0.03325867 0.07839353
-0.09715578 0.029225325 -0.045163102 -0.104876675 -0.10238529 1.1792057 -4.2718415 -0.31890967
-0.03693267 0.22163868 -0.1551928 -0.113945484 -0.050505422 -0.166808 -0.16846418 -0.16671972
-0.15387236 0.16621299 0.21262631 0.09372553 0.10419304 -0.19786319 1.332023 0.8649313
-2.700769 -0.01893541 -0.19808084 -0.10660843 -0.18716562 0.16666806 -0.026740348 0.085393466
-0.19103354 0.20918283 0.08744024 -0.00779571 -0.1421631 -0.11411587 -0.049599525 1.739854
-1.7690294 -1.914756 -0.3131205 -0.024946136 -0.031812478 -0.18037342 -0.18217632 0.18099396
-0.0019924017 -0.09172051 0.05359718 -0.013469816 -0.085774176 -0.10702454 -0.049821664 -0.09958028
-1.8752867 5.4497733 0.8099996 -0.02964202 0.0940956 0.18477741 0.031078177 -0.06184813
0.23986706 -0.0060431273 0.01461125 0.0019955558 -0.034857266 0.0061653857 0.07810572 0.1865378
0.09678688 2.1966455 -5.859014 -0.8567557 0.18244445 -0.02102663 0.3133732 0.21236691
0.13159312 -0.044321563 -0.0033378121 -0.07910663 -0.018190596 0.1804584 0.034309193 -0.0672773
-0.091306776 0.02252207 1.3621627 -1.5464162 -0.5131753 0.23867324 0.21294267 -0.0855259
-0.021523692 0.02432298 0.02514848 -0.19447531 0.0357698 0.09331875 0.08091242 0.013665364
-0.22859362 0.0864837 0.047145046 -1.8339688 6.252355 0.88038915 -0.06766925 0.023291582
-0.07048131 0.043306757 0.0483981 0.0183577 0.03230532 -0.17125624 -0.07086207 0.22355495
0.12616977 0.033106197 0.13715118 -0.06933291 -1.9883873 2.8275867 3.5171356 -0.032754637
0.014067011 -0.054387983 0.11633133 -0.2110765 -0.31084684 0.020365331 0.047680106 0.23136427
0.034670554 0.18378137 -0.14067234 0.15733925 -0.018802058 0.47792688 -3.7305076 0.3099873
0.15508759 0.05309134 -0.038558695 0.10183672 -0.05958923 -0.2729247 -0.12400761 0.04466261
0.06435846 -0.055195134 -0.060929712 0.012077724 0.039477456 0.06795395 -0.73601043 6.0704627
-0.19830267 0.07804856 0.14685869 0.03784607 -0.15160632 0.0014637058 0.034343258 -0.07352296
0.12240283 0.023121636 -0.03805394 0.065234326 -0.0070687216 0.032422844 0.0066683134 -0.8603792
-2.324836 3.7212217 0.061136764 -0.0139992405 0.02299119 -0.22444333 -0.19442853 -0.16184297
-0.26775047 0.14042577 0.027113322 0.046885993 -0.069838196 0.18911245 -0.02630401 0.09258789
-1.4169658 5.4313583 1.1605705 -0.010874308 -0.25939536 0.027412204 0.29400688 0.105400786
-0.025908053 -0.10866853 0.13671467 0.12923472 0.15733503 -0.071528085 -0.039155886 0.0070360554

net.0.bias f4 [128]
00000000: 7b59 aa3e 33d6 c5bc 2d06 c5be 56ad d2bd
00000010: d9d6 8abd f3c2 913d 308c 86be 6cac 733e
00000020: ffd8 a7be f809 b0be 9426 463e 6635 123d
00000030: 1249 173d e6c1 9d3e 781a fdbd 3499 09be
00000040: 0a78 dbbd ae92 32be 2efc c43d a558 58be
00000050: 3917 d8be dcab adbd 107b 383e 94b2 1a3f
00000060: 8b65 9fbd a090 61bd e3e3 4a3d f446 b43e
00000070: 6d41 3fbe f8ff 953e 7b78 8bbd 5f0f 823e
00000080: d3c6 adbd cd7d 673e 2b27 8b3e 17f7 9c3e
00000090: cb26 57be da76 cb3d a4de 76be ea37 50bd
000000a0: 6923 fc3d 4572 58be 9457 203e 3988 1d3e
000000b0: d5f0 8fbd ce7a 69be 4ee7 a5bb 8b73 b33c
000000c0: adf0 a03c 91cd b33c a3e7 80be f864 a5be
000000d0: caa3 b33e 281c 633d 6ba3 ef3e b49d 84be
000000e0: d4cf 6d3e 920c ac3e 078c 933d e0ff 95bc
000000f0: 7852 b23d b981 0bbe 0818 0cbf 994b 983e
00000100: 437e 483e fd70 05bf 3939 55be 85cc 8d3e
00000110: ce72 043e b39a 68be 4ba8 c33d df8d f9be
00000120: b041 47bc 1ad0 3fbe 156f 183f a297 8bbd
00000130: 7472 7f3e 1810 a43e 1ed3 d1bd 4c68 d53e
00000140: 52c9 a73e 22dc 473e 92e8 f03d e7f0 a33d
00000150: 18a9 5a3e a80c 0d3e 403e 59be 9245 3abe
00000160: 8e12 2a3e f19a 033e 2ffd 623d ffbb 30be
00000170: ad87 223e be6b 453e f38f fcbd e1f5 b13e
00000180: 5f4f 683e c6f3 2dbe 7a97 69be 2b88 803e
00000190: d5a3 cc3e cfeb 97bd 2205 90be eb0c 99bd
000001a0: 6ec4 b73e f47d c03e 7574 7c3d 4a54 013e
000001b0: 0edc 1e3e eee1 713c b7a0 343d 99ec 083e
000001c0: 0321 9dbe a86d 483e c678 ddbd 71ab 81be
000001d0: d524 00be 3da9 8c3e 6c73 4d3e 50f9 333e
000001e0: 06e6 2dbe 987b 893b 0413 cabd 699e 873e
000001f0: b7f4 c3be a233 463d a3a6 5e3e 3b23 bd3d
0.33271393 -0.02414999 -0.38481274 -0.102869675 -0.0677926 0.07117262 -0.2627883 0.23796242
-0.32782742 -0.34382606 0.19350654 0.035695456 0.03693492 0.30811995 -0.12358564 -0.13437349
-0.10716255 -0.17438766 0.09618412 -0.21127565 -0.42205217 -0.08480045 0.18015695 0.6042874
-0.0778304 -0.055069566 0.049533736 0.35210383 -0.18677302 0.2929685 -0.06810089 0.25402352
-0.08485188 0.22606583 0.2717832 0.30657265 -0.21010892 0.099347785 -0.24108368 -0.050834574
0.123114415 -0.2113734 0.15658408 0.15383996 -0.07028357 -0.22800753 -0.005062974 0.021905681
0.019646013 0.021948608 -0.25176725 -0.32303596 0.350859 0.055446774 0.46804366 -0.25901568
0.23223811 0.3360334 0.072044425 -0.018310487 0.08707136 -0.13623704 -0.5472417 0.29745176
0.19579415 -0.5212553 -0.2082261 0.276951 0.1293442 -0.22715263 0.09553584 -0.48741052
-0.012161657 -0.18731728 0.595445 -0.06816031 0.24946004 0.3204353 -0.102453455 0.41681135
0.32770783 0.19517568 0.11763109 0.08004933 0.21353567 0.13774359 -0.21215153 -0.18190601
0.1660864 0.12852074 0.055417236 -0.17259215 0.15872069 0.19279382 -0.12332144 0.34757903
0.22686528 -0.16987523 -0.2281169 0.25103888 0.39968744 -0.07418024 -0.28128916 -0.07473167
0.3589205 0.37596095 0.0616345 0.1262981 0.15513632 0.0147633385 0.044098582 0.13371505
-0.30689248 0.1957308 -0.10814051 -0.25326112 -0.1251405 0.2747287 0.20063561 0.17575574
-0.16982278 0.0041956417 -0.09866908 0.26488045 -0.3827264 0.048389085 0.21743254 0.09235235

net.2.weight f4 [128, 128]
00000000: 23c9 23be e166 c6ba 752c 54bd 90d8 953d
00000010: b7eb 953b ed2d 053e 834b b9bd f8f8 4c3d
00000020: 576e 3fbd 130c 2bbe d6a2 46be cf93 cc3d
00000030: 972c 6b3a d325 64bc c961 eebd 771b 2ebe
00000040: d5e0 133d 5bea febd cfb8 6dbd 5cce 18be
00000050: 9578 a9bd 6b40 8f3d 9492 813d 9a9e e93d
00000060: 8935 9cbd da3c c9bd 2d33 87bc d3ef 933d
00000070: 2540 b5bd d076 3d3e 9ebc 81be 0d8f 043e
00000080: 47a4 08be 8dc7 eabc 43b6 b7be 1c61 523d
00000090: 906d 2abd 6e3f 3abb c502 4b3d d59f b43d
000000a0: 87e1 293d e688 d53b 22ca 6dbd cdd5 e5bd
000000b0: be86 11be b1b2 c4bc 44c3 b5bd 6689 2abd
000000c0: f5e6 31bc da21 6a3d f620 1e3d 32fa 8cbe
000000d0: ce64 c6bc 2ae6 4cbe 33de cb3d 0a54 273d
000000e0: 27db f8bd 60d5 19bd 540e 2ebe 113e c8bd
000000f0: f56a 1bbc 972e 22bd f4bf 00bd 6a83 be3c
00000100: 01c9 0bbd 6402 3abd 239b f03d cdca 58bd
00000110: 886e abbd 52e3 b0bb 222a d53d e519 433c
00000120: 9bcd 8abd 7333 c9bd 2f1e f3bd 6b61 1bbe
00000130: 63a9 1bbe b0cb 843d faa4 98be cfb9 fc3d
00000140: e038 ab3d f3d8 9c3b 9c8f 02bd 0ce9 243c
00000150: 5a14 d53d 62d3 0dbe bc23 34be 2c2e 0c3e
00000160: 249d 00be 6b8e b93b d9b1 1fbe e0e6 5fbd
00000170: 0ab2 50bd 2d69 eabd efc2 1b3d 284f d3be
00000180: 8540 aa3c 2b32 913b d49f edbc 0413 44bc
00000190: eb8f d03c e595 0fbd eb0e b6bd 5342 9ebd
000001a0: d0e7 ebbe 8b54 193e fd34 61bd 6100 c13d
000001b0: d3cc 593c e4de 433d e6c3 b53d eaf9 90be
000001c0: 2870 af3d 4436 a13d 9128 43bc cd29 9fbd
000001d0: 13dd b3bd d140 9abd b7db d53c 79c5 73bd
000001e0: 95ee 81bd 2ce7 2bbe e85d 97bd ce32 0c3e
000001f0: 8c0e 05be e379 613d 8457 19be ec47 b4bd
00000200: afdd 2fbe a19b e4bd cc18 c1bd 6fd8 0cbc
00000210: 40f8 10be 905d fa3d adca 363e 9546 9a3b
00000220: 6edf a0be 4140 b53d 2761 ea3d 6bbb cbbd
00000230: c74c e13d e61b 22be 23da 4abe 724d 963c
00000240: 80a3 143b 928a 1f3e 9712 41be fe88 413c
00000250: ba76 163c 452b ebbc c043 913d 47f8 bbbc
00000260: bd44 f43d cd17 c03d 35ce 30be c37b 05be
00000270: 43d5 983d 1a68 2abd 5b89 6cbd 3524 a8be
00000280: a89d 44bd 9d11 c9bd 5ea7 263d 539d 54be
00000290: 218a babd e198 0ebe 16f8 07be 470e 003d
000002a0: 5c1e 2abe 8e19 dd3c db15 9b3b a3bf 213d
000002b0: 5250 2cbd 0d40 873c ad2b 2cbd 3674 543d
000002c0: 3dd1 f1bd ed3f e73d bf18 7bbc d4e6 d53d
000002d0: 8d81 6abd 8719 6ebc 1ff7 da3c 9032 68be
000002e0: 0447 243e d68c 66be e472 c03c 5b2a 80bd
000002f0: 799f 9abd d891 de3d 12a0 0e3e e661 02be
00000300: 9b76 52bb e292 0e3c b706 05be 6de3 863d
00000310: ffda bb3c 3d5b 503d 55a7 6a3d f8ef 943c
00000320: ced1 bcbd 3c15 b73d a48d 06be 680a febd
00000330: 7d73 d23d 5e6d eebd 358b 94bc f238 abbd
00000340: 3c0c 22be b868 d8bd 1dcc 1c3e 653b 423d
00000350: fe4d 06be 742e 9b3d 483f ef3d 1f50 b93c
00000360: 1f8e 5dbe e8c8 383d fc19 223c 33e6 743d
00000370: c871 7ebb 9147 0cbd 3a31 e7bd 44da 86bb
00000380: c553 83bc 237c 0bbd 5e72 3f3e 05d2 18be
00000390: 0db5 23be 9c58 04bf 33de ac3b e306 b23a
000003a0: 1771 08bc d166 b2be 8f3c 14be 8474 dcbd
000003b0: cfa6 2bbe 5516 9cbc ef73 bcbd afcc 033e
000003c0: 7141 b13d 0919 193c 56f6 e2be 688d 0c3e
000003d0: d1b4 473d 4755 2bbd 78d0 b1bd 5993 bfbd
000003e0: 6bf4 17bc 512b 093e 95c4 c63d f389 47be
000003f0: 4e01 0e3d 06cb 1a3e 7c93 b03d 75ac 193e
-0.15994696 -0.0015136861 -0.05180021 0.07316697 0.0045752185 0.130058 -0.09047606 0.050042123
-0.046736088 -0.16703825 -0.19398054 0.0998913 0.0008971183 -0.013925034 -0.11639745 -0.17002665
0.03610309 -0.124470435 -0.058037575 -0.1492247 -0.08274952 0.069947086 0.06326786 0.11407204
-0.076273985 -0.0982606 -0.016503895 0.07223477 -0.08850125 0.18502355 -0.25339216 0.12945195
-0.13343917 -0.028659606 -0.35881242 0.051362142 -0.041608393 -0.0028419155 0.049563188 0.08819548
0.041474845 0.0065165637 -0.058054097 -0.1122242 -0.14211556 -0.024010988 -0.088751346 -0.04163494
-0.010858287 0.05716119 0.038605653 -0.27534634 -0.02421799 -0.20009676 0.099544905 0.04085163
-0.12151175 -0.037557006 -0.16997653 -0.09777463 -0.00948595 -0.039595213 -0.03143306 0.023256022
-0.03412724 -0.045412436 0.1174834 -0.05292778 -0.083706915 -0.0053981924 0.10408427 0.011908029
-0.067774974 -0.09824266 -0.118709914 -0.15173881 -0.15201335 0.06484163 -0.29813367 0.12340128
0.083604574 0.0047866045 -0.031875238 0.010065328 0.104042724 -0.13850167 -0.17591757 0.13689488
-0.12559944 0.0056627295 -0.15595187 -0.05466354 -0.05095104 -0.11445842 0.0380277 -0.4127133
0.020782718 0.0044310293 -0.029006876 -0.011967424 0.02545925 -0.03505506 -0.08889564 -0.07727494
-0.46075296 0.14973657 -0.054982174 0.094239004 0.013293463 0.047819987 0.08875255 -0.2831567
0.08566314 0.078716785 -0.011911527 -0.07771645 -0.08782401 -0.07531894 0.026105745 -0.059514496
-0.06344334 -0.16787404 -0.07390958 0.13691255 -0.1299383 0.05504788 -0.14974791 -0.088027805
-0.1717441 -0.11162496 -0.09428558 -0.008596524 -0.141572 0.12224877 0.17850752 0.004708121
-0.31420463 0.08850146 0.114443116 -0.099478565 0.11000972 -0.15830955 -0.19809775 0.018347476
0.0022680461 0.15580204 -0.18854748 0.011812447 0.00918358 -0.028707156 0.070930004 -0.022945536
0.11927173 0.0937954 -0.17266162 -0.13035493 0.074625514 -0.041603185 -0.05774818 -0.32840124
-0.048001915 -0.098178126 0.040686958 -0.2076314 -0.09108377 -0.13925506 -0.13278231 0.031263616
-0.16613144 0.026989724 0.00473283 0.0394894 -0.042068787 0.016510034 -0.04203384 0.05186864
-0.11807487 0.1129149 -0.015325724 0.104444176 -0.057252456 -0.014532453 0.026729165 -0.22675538
0.16042715 -0.22514662 0.023492284 -0.06258079 -0.07549948 0.10867661 0.1392825 -0.12732658
-0.0032114151 0.008702012 -0.12990843 0.06586347 0.022931574 0.05086826 0.057288487 0.018180832
-0.092197046 0.08939597 -0.13139969 -0.124043286 0.10275934 -0.11641954 -0.018132785 -0.08360471
-0.1582498 -0.105668485 0.15312238 0.047419924 -0.13115689 0.075772196 0.11681992 0.022621213
-0.21636246 0.045113474 0.0098938905 0.059789848 -0.0038825143 -0.03424794 -0.11288686 -0.0041153748
-0.016031155 -0.034053933 0.18695971 -0.14923866 -0.15987034 -0.5169771 0.0052755116 0.0013582375
-0.008327744 -0.34844068 -0.14476226 -0.10764411 -0.16762851 -0.019053617 -0.092018 0.1287105
0.0865506 0.009344348 -0.44328564 0.13725817 0.048756424 -0.041829374 -0.086823404 -0.09354276
-0.009274582 0.1339543 0.09705464 -0.19486217 0.034669213 0.1511651 0.086218804 0.15007193
