src/training_logs_ppo/initial/ppo_checkpoint_341_1764189750.pt (torch, 480155 bytes, 42 tensors)

move_logstd f4 [2]
0	0x401958dd	2.3960488
1	0x400bde2d	2.1854355

shared.0.weight f4 [128, 17]
0	0x3e039400	0.12849426
1	0xbddf7cac	-0.10912451
2	0xbe61c582	-0.22048
3	0x3e669d83	0.22521023
4	0x3e517cf6	0.20457825
5	0xbe5c9dfc	-0.21544641
6	0xbde4f1a4	-0.11178902
7	0x3d82f12b	0.063936554
8	0x3e5d9f2e	0.21642753
9	0xbe36f9f2	-0.17868784
10	0x3e3ef484	0.18647963
11	0xbe1e846e	-0.15480205
12	0xbe02c078	-0.12768734
13	0xbdb4f748	-0.08836228
14	0x3d1c37f3	0.038139295
15	0x3e2ffb3f	0.17185687
16	0xbe10071f	-0.14065216
17	0xbd63d508	-0.055623084
18	0xbdcbf2d4	-0.09958425
19	0x3d5c20f4	0.053742364
20	0x3d597192	0.053086825
21	0xbe9e6e2b	-0.30943426
22	0x3e6aae74	0.22918111
23	0xbe220490	-0.15822053
24	0xbc0bc22f	-0.008530184
25	0xbd0a1865	-0.03371467
26	0xbeb08c44	-0.34482014
27	0xbe021e7c	-0.12706941
28	0xbcf8c149	-0.030365603
29	0x3e1c7425	0.1527868
30	0x3c34c557	0.011033378
31	0x3dd3d643	0.103436016
32	0xbe0d2628	-0.13784087
33	0xbe0a9d2a	-0.13536516
34	0x3e691a17	0.22763859
35	0x3e96024a	0.2929862
36	0x3c92d4c8	0.017923728
37	0x3daa7eb2	0.083249465
38	0xbebdcd8b	-0.3707088
39	0xbe26f13f	-0.16302966
40	0xbc8e895c	-0.017399482
41	0xbe3e576f	-0.18588041
42	0xbba3335f	-0.004980489
43	0xbdae78fa	-0.08519168
44	0xbda220dc	-0.07916424
45	0xbcf305fd	-0.029665941
46	0x3de0b77f	0.10972499
47	0xbe06b71c	-0.13155788
48	0x3e18e9ea	0.14932981
49	0x3d323ada	0.043513156
50	0x3c15f376	0.009152284
51	0x3c0ab034	0.008464862
52	0xbde476c5	-0.11155466
53	0xbe8a4810	-0.27008104
54	0xbd8d3e41	-0.068966396
55	0x3e126fac	0.14300412
56	0x3e465315	0.19367631
57	0x3e2d9974	0.16953069
58	0x3ceebf28	0.029143885
59	0x3e3cfed1	0.1845658
60	0xbe039617	-0.12850223
61	0x3cec362c	0.028834425
62	0xbd42cd14	-0.04755886
63	0xbc4786c2	-0.012178125
64	0xbd8a54d3	-0.0675446
65	0x3d26c03a	0.040710665
66	0xbe38e420	-0.18055773
67	0x3e5660c7	0.20935355
68	0x3e05e44e	0.13075373
69	0x3e0e1b3e	0.1387758
70	0xbe98f9ab	-0.29877982
71	0x3d51da84	0.051233783
72	0xbc1b07d0	-0.009462312
73	0x3d4d6e9c	0.050154313
74	0xbc2902d2	-0.010315614
75	0x3dbdca38	0.09267086
76	0xbe36a7ee	-0.17837498
77	0x3e519ff3	0.20471172
78	0x3def05e9	0.11671049
79	0x3dd8d80b	0.10588082
80	0x3de50358	0.111822784
81	0xbd54e338	-0.051974505
82	0x3cbf6af3	0.023366427
83	0xbdce00ab	-0.10058721
84	0x3db6798a	0.089099005
85	0xbdf5a057	-0.11993473
86	0xbcbff702	-0.023433212
87	0xbe43ae9c	-0.19109577
88	0xbe9264c1	-0.28592494
89	0xbea2b1a9	-0.3177617
90	0x3d1029ed	0.035196234
91	0x3e729e90	0.236933
92	0xbe4145a5	-0.18874224
93	0x3e8014a5	0.2501575
94	0xbd999a16	-0.07500093
95	0x3de3f75c	0.111311644
96	0x3dd77572	0.10520448
97	0x3e165f5c	0.14684814
98	0xbd04fb68	-0.032466322
99	0xbde172de	-0.11008237
100	0xbcdf5ff8	-0.027267441
101	0xbb484fc6	-0.0030565127
102	0x3d616086	0.055023693
103	0x3c0c85d1	0.008576826
104	0xbe58b34d	-0.21162148
105	0x3df22327	0.11823111
106	0xbd0d578c	-0.03450732
107	0x3d9f042d	0.07764468
108	0xbea1e202	-0.31617743
109	0xbd9d2042	-0.07672168
110	0x3ea8196c	0.32831895
111	0xbc0173b6	-0.007901123
112	0xbe642bcc	-0.22282332
113	0xbdf4ba18	-0.11949557
114	0x3d8812aa	0.06644185
115	0xbd0cc3b2	-0.034366317
116	0x3d58ec09	0.052959476
117	0xbdd4fc70	-0.10399711
118	0x3cd367bd	0.025806302
119	0xbe08723a	-0.13324824
120	0xbda105a7	-0.07862406
121	0x3e2ffa89	0.17185415
122	0x3d3ae9c0	0.045633078
123	0x3c6d1547	0.014470405
124	0xbe844ef7	-0.25841495
125	0xbd28b653	-0.041189503
126	0x3e336c31	0.1752174
127	0xbde65aca	-0.112477854
128	0xbe151dc6	-0.14562139
129	0xbd3b526d	-0.045732904
130	0xbceeceba	-0.02915131
131	0xbd9dd5ab	-0.077067696
132	0xbdda9896	-0.10673635
133	0x3e303f09	0.17211546
134	0x3c1eedc2	0.009700241
135	0xbb85ad28	-0.0040794797
136	0xbdfc971f	-0.123335116
137	0x3da54ebc	0.08071658
138	0xbd5d154d	-0.053975392
139	0xbe1522e2	-0.14564088
140	0xbdf961e3	-0.121768735
141	0xbe41d757	-0.18929802
142	0xbdae698d	-0.08516226
143	0x3e6b9b79	0.23008527
144	0x3df4947a	0.11942382
145	0xbe90a5b6	-0.28251427
146	0x3d56e664	0.05246581
147	0xbdeb5345	-0.11490492
148	0x3de66c5f	0.11251139
149	0xbdb6e8f8	-0.08931154
150	0xbe29810a	-0.16553131
151	0x3cdec841	0.027195098
152	0xbe05f631	-0.13082196
153	0x3deb2b58	0.114828765
154	0x3c85e25c	0.016343288
155	0x3d8f24af	0.06989419
156	0xbe55a074	-0.2086199
157	0xbe9835e4	-0.29728615
158	0xbd114a20	-0.03547108
159	0xbd541393	-0.05177648
160	0x3e47b245	0.19501598
161	0x3e3bd649	0.18343462
162	0x3e6fb60b	0.23409288
163	0xbb93f2e9	-0.004515041
164	0x3dca5dec	0.098811954
165	0xbe3cb903	-0.18429951
166	0xbdec3bbd	-0.11534832
167	0x3dfa53f6	0.122230455
168	0x3d64a1c1	0.055818323
169	0x3db7cd9b	0.08974763
170	0xbe1660b5	-0.14685328
171	0x3e11e872	0.14248827
172	0xbe1afca8	-0.15135443
173	0xbcb86a8a	-0.02251174
174	0xbe82cad3	-0.25545368
175	0x3e81008e	0.25195736
176	0xbde0e7a0	-0.10981679
177	0xbe5c3de1	-0.2150798
178	0xbe42f4de	-0.19038722
179	0xbe000c0a	-0.12504593
180	0x3e845703	0.25847635
181	0xbdb4d264	-0.08829191
182	0xbe273622	-0.16329244
183	0x3d517ae9	0.051142607
184	0x3d0ee219	0.034883592
185	0x3d87b9e3	0.06627252
186	0xbda118d8	-0.07866067
187	0xbdad0957	-0.08449047
188	0xbe518447	-0.20460616
189	0x3e096b83	0.13419919
190	0xbe93e6be	-0.2888698
191	0x3d8052bb	0.062657796
192	0x3df2aada	0.118489936
193	0x3e9e9745	0.30974784
194	0x3e50f30f	0.2040522
195	0xbc7eefca	-0.0155601
196	0xbddb88f0	-0.10719478
197	0xbe504f1e	-0.20342681
198	0x3dd1ca9a	0.10243721
199	0xbd5b0f30	-0.05348128
200	0xbc9dd4d5	-0.019266525
201	0xbd14b734	-0.03630753
202	0xbdd3e034	-0.10345498
203	0xbd3494bb	-0.044087153
204	0x38bfe4e9	9.1502276e-05
205	0xbe3e299c	-0.1857056
206	0xbdd81d8d	-0.10552511
207	0xbde35bea	-0.111015156
208	0xbda95d16	-0.08269708
209	0xbe882ee7	-0.26598284
210	0x3e480209	0.19532026
211	0xbca28a5c	-0.019841366
212	0xbe1292d2	-0.1431382
213	0x3d229fb5	0.03970309
214	0xbe0940c8	-0.13403618
215	0xbd29c100	-0.041443825
216	0xbdc8b313	-0.09799781
217	0x3be8a9f7	0.0071003395
218	0x3d1880f9	0.037232373
219	0xbcd60f0d	-0.026130224
220	0xbd69ee07	-0.057111766
221	0x3e15c751	0.14626814
222	0x3d2eaba4	0.042644158
223	0xbe8f66bd	-0.2800807
224	0x3d6b5745	0.057456274
225	0xbe27baec	-0.16379899
226	0x3e7d6afa	0.2474784
227	0xbe7248ff	-0.23660658
228	0xbce753c8	-0.028238192
229	0x3e3a9063	0.18219142
230	0xbdc671cd	-0.096896745
231	0xbdb8786a	-0.09007342
232	0x3d81305d	0.06308053
233	0x3d906fa4	0.07052544
234	0x3d8d8afe	0.06911276
235	0xbd714a24	-0.058908597
236	0x3d95cd13	0.073145054
237	0xbd8fbeaf	-0.07018792
238	0xbcf17f98	-0.029479787
239	0xbd95f660	-0.07322383
240	0xbd93e0a8	-0.07220584
241	0xbe5dcfe0	-0.2166133
242	0xbe603d6d	-0.21898432
243	0xbe866caf	-0.26254794
244	0x3c9bc2e5	0.019013831
245	0xbe6472e3	-0.22309451
246	0x3e967462	0.29385668
247	0x3de31afe	0.11089133
248	0x3daa9657	0.08329456
249	0x3b13af37	0.0022534856
250	0x3d512d25	0.051068444
251	0x3d3d9eda	0.04629407
252	0x3e81d499	0.25357512
253	0xbe4708b1	-0.1943691
254	0xbd6a4409	-0.05719379
255	0xbd8b4739	-0.06800694

shared.0.bias f4 [128]
0	0xbc34c6d2	-0.011033731
1	0xbeb08ad0	-0.34480906
2	0xbdf6020c	-0.12012109
3	0xbe32ff15	-0.17480119
4	0xbe28ed4d	-0.16496773
5	0xbd9c3e95	-0.07629124
6	0xbdad9bcf	-0.08476984
7	0x3db46ef8	0.08810228
8	0xbec06c79	-0.37582758
9	0xbe0b7473	-0.1361864
10	0x3d9c6822	0.07637049
11	0xbe77d2cf	-0.24201511
12	0xbd1f570e	-0.03890138
13	0xbe513e13	-0.20433836
14	0xbcce4985	-0.025181541
15	0xbdb4146e	-0.08792959
16	0xbe58d149	-0.21173586
17	0x3e9cad9f	0.30601212
18	0x3df1fefe	0.11816214
19	0xbe8b6082	-0.27222067
20	0xbe099892	-0.13437107
21	0xbb1d15e1	-0.002396934
22	0xbd0ff1fe	-0.03514289
23	0x3d77f537	0.06053659
24	0xbe03adc6	-0.12859258
25	0xbe6ca374	-0.23109227
26	0xbcf44f27	-0.029822899
27	0xbdab8325	-0.08374623
28	0x3b3082c1	0.0026933404
29	0xbe921f7c	-0.28539646
30	0xbda5b7aa	-0.08091672
31	0xbe9bfa3d	-0.30464354
32	0xbe044ed6	-0.12920699
33	0xbdb3667f	-0.08759784
34	0xbe9bada1	-0.30405906
35	0x3d08839d	0.03332864
36	0xbe8ad30d	-0.27114144
37	0xbeb72181	-0.3576775
38	0xbc900a3f	-0.01758301
39	0xbe0aba23	-0.13547568
40	0xbeb03eb7	-0.34422848
41	0xbe6490c8	-0.22320855
42	0xbb9c7a9e	-0.0047753593
43	0xbd3dc888	-0.04633382
44	0x3d9be9fc	0.07612988
45	0xbec39d89	-0.38206127
46	0x3e093bbd	0.13401695
47	0xbe9327e5	-0.28741375
48	0x3e1479a9	0.14499535
49	0xbe4ef1d9	-0.20209445
50	0xbeaacd36	-0.3335969
51	0xbe2a9c8d	-0.16661282
52	0xbe8a12bd	-0.2696742
53	0xbe31964d	-0.17342491
54	0x3d092685	0.033484
55	0xbc81637b	-0.015794506
56	0x3d419b80	0.047267437
57	0xbe855987	-0.26044866
58	0xbe26c466	-0.16285858
59	0xbd1909db	-0.037362915
60	0xbd60f048	-0.05491665
61	0xbd3260b5	-0.04354926
62	0xbdc01260	-0.09378505
63	0xbe2edf1b	-0.17077295
64	0xbed8d2d0	-0.42348337
65	0xbe57850f	-0.21046852
66	0xbe992e44	-0.2991811
67	0xbedcec2a	-0.4314893
68	0xbe3e3398	-0.18574369
69	0xbc174af7	-0.009234182
70	0xbee7e0ec	-0.4528879
71	0xbe94727f	-0.28993604
72	0x3bdd0e1f	0.006746068
73	0x3e811537	0.25211498
74	0x3c114a82	0.008867862
75	0xbdf9643f	-0.121773235
76	0x3e2dbb10	0.1696589
77	0xbeac7288	-0.3368113
78	0xbe16eece	-0.14739534
79	0xbe2e2b1b	-0.17008631
80	0xbdbb3b51	-0.09142173
81	0xbe94cc56	-0.29062146
82	0xbf0685bb	-0.52547807
83	0xbdbe4466	-0.0929039
84	0xbe9fc581	-0.3120537
85	0xbdf9b2d5	-0.12192313
86	0xbd1e6008	-0.0386658
87	0xbdf55ca2	-0.11980559
88	0xbdb0be02	-0.08629991
89	0xbe9043f9	-0.2817686
90	0x3d211eeb	0.039336126
91	0xbe0ad001	-0.1355591
92	0xbe00ef38	-0.12591255
93	0x3e24ce50	0.16094327
94	0xbe620193	-0.22070913
95	0x3e443719	0.19161643
96	0xbe94d43e	-0.29068178
97	0xbea1023b	-0.31447014
98	0x3e2db860	0.16964865
99	0xbe4fdf71	-0.2030008
100	0x3e65b666	0.2243286
101	0xbe8bfb80	-0.27340317
102	0x3c656f1e	0.014003543
103	0xbd8da7a1	-0.06916738
104	0x3d12f458	0.035877556
105	0xbe38f6e5	-0.18062933
106	0xbe196106	-0.14978418
107	0xbdf3a0f0	-0.11895931
108	0xbd8f08cc	-0.069841
109	0xbe7d922e	-0.24762794
110	0xbd38a5c0	-0.045079947
111	0xbeaebd3d	-0.34128752
112	0xbe695b90	-0.22788835
113	0xbec86ecd	-0.39147034
114	0x3c17594f	0.009237601
115	0xbe95ac4b	-0.29233012
116	0xbe8b7ac9	-0.27242115
117	0xbe29298c	-0.16519755
118	0xbea24265	-0.3169128
119	0xbe0f19db	-0.13974707
120	0xbd1ab49b	-0.037769895
121	0xbec41bcb	-0.38302454
122	0xbe3b95d1	-0.18318869
123	0xbe92c666	-0.2866699
124	0xbe6ab3cd	-0.22920151
125	0x3e1922e6	0.14954719
126	0xbed56953	-0.41681919
127	0x3b516442	0.0031950627

shared.2.weight f4 [128, 128]
0	0x3c838043	0.01605237
1	0x3d02c1ed	0.031923223
2	0x3d410b9a	0.047130205
3	0xbccd5bf1	-0.025068255
4	0x3d6f907d	0.058487404
5	0x3ced7443	0.028986102
6	0xbd3484a6	-0.044071816
7	0x3d0d374a	0.034476556
8	0xbd107245	-0.035265226
9	0x3d82b2cf	0.06381761
10	0xbd0b2cef	-0.0339784
11	0xbd9c7860	-0.07640147
12	0xbdbb8936	-0.0915703
13	0x3c33c34b	0.010971854
14	0x3cfa5b5b	0.03056114
15	0x3d9139ce	0.070911035
16	0x3d2aaa86	0.04166653
17	0xbcd831d4	-0.026390947
18	0x3c093b7e	0.008376
19	0x3b31d2be	0.0027133669
20	0x3babbd88	0.0052410997
21	0xbdf2c329	-0.1185363
22	0xbd9e4381	-0.07727719
23	0x3c7cd52d	0.015431684
24	0x3da9be49	0.08288247
25	0xbd9facc2	-0.07796623
26	0xbd23efaa	-0.040023483
27	0xbbd427a2	-0.006474451
28	0xbdfdd298	-0.12393683
29	0xbd7aef62	-0.06126345
30	0xbcf98ce4	-0.03046269
31	0xbbf1c84d	-0.007378614
32	0xbd0bc332	-0.0341217
33	0xbba9290a	-0.005162363
34	0x3d818321	0.06323839
35	0xbd01bbb1	-0.031673137
36	0x3d609b9f	0.05483591
37	0xbdda1c81	-0.10649968
38	0x3d41ec65	0.047344584
39	0xbdaec309	-0.08533294
40	0x3ca7f12f	0.020500747
41	0xbe032981	-0.12808801
42	0xbdbe04c7	-0.09278255
43	0x3cf8e14c	0.030380867
44	0xbcbcbb3d	-0.0230385
45	0xbda0ce6e	-0.07851873
46	0xbd8b660b	-0.068065725
47	0x3c06b7f8	0.0082225725
48	0xbd03da25	-0.03219046
49	0xbda9e483	-0.08295538
50	0x3c86b589	0.016443985
51	0xbd8de17b	-0.069277726
52	0x3c0bfb2a	0.008543769
53	0xbc8d3f11	-0.017241986
54	0xbcfcd439	-0.030862914
55	0x3d1b47e0	0.037910342
56	0x3d2e3a00	0.04253578
57	0xbd82e377	-0.06391042
58	0xbca34bb2	-0.019933555
59	0x3d2bbf72	0.041930623
60	0xbd04131f	-0.032244798
61	0xbd2b98d3	-0.04189379
62	0xbcfd63c1	-0.030931355
63	0xbd96cf83	-0.073637985
64	0x3d227f45	0.039672155
65	0x3cf0688d	0.029346729
66	0xbc82d40f	-0.015970258
67	0xbcea733a	-0.028619397
68	0xbe064fba	-0.13116351
69	0xbc1ff285	-0.009762411
70	0xbd4a0566	-0.049321555
71	0x3b499487	0.0030758695
72	0xbd368972	-0.04456467
73	0xbd9ca8f7	-0.07649415
74	0xbd70ba4a	-0.05877141
75	0xbd8a64a9	-0.06757481
76	0xbd3bae04	-0.04582025
77	0xbdfda37f	-0.123847
78	0xbd8780db	-0.06616374
79	0x3cf3dd40	0.029768586
80	0xbd09a4f9	-0.033604596
81	0xbd1e899b	-0.03870545
82	0xbe01b141	-0.12665273
83	0xbdb66ac9	-0.089070864
84	0xbd66313d	-0.0561993
85	0xbd00b3fa	-0.03142164
86	0xbcf31a7e	-0.029675718
87	0xbe2506a6	-0.16115817
88	0xbdbf2aee	-0.0933436
89	0xbd423d1a	-0.047421552
90	0xbca99935	-0.020702938
91	0xbd7541d8	-0.059877247
92	0x3bb1a0f0	0.0054207966
93	0x3cd20acd	0.025639916
94	0x3d5c22f0	0.053744256
95	0xbd4fffee	-0.050781183
96	0xbde81e93	-0.113339566
97	0xbcdc2799	-0.02687435
98	0xbd8498a2	-0.06474425
99	0x3d04ddb7	0.032438006
100	0xbdbf0500	-0.093271255
101	0x3bda50ce	0.0066624647
102	0xbe2d8d3d	-0.1694841
103	0xbde86f8e	-0.11349402
104	0xbdb62cd2	-0.088952675
105	0xbc920987	-0.017826809
106	0xbdb8e161	-0.090273626
107	0xbc4dd665	-0.012563323
108	0x3d36d454	0.044636086
109	0xbda1a493	-0.07892718
110	0x3d04d0fc	0.032425866
111	0xbd58f290	-0.0529657
112	0xbdd36dc4	-0.103236705
113	0x3ccfcad3	0.025365269
114	0xbc24a2ca	-0.010048578
115	0xbc797a9f	-0.015226989
116	0x3c290d07	0.010318047
117	0xbdf38842	-0.118912235
118	0xbdb898c6	-0.09013514
119	0xbd102f94	-0.035201624
120	0xbd46652d	-0.048436332
121	0xbd9c5e11	-0.07635129
122	0xbd4b0fd5	-0.049575645
123	0x3c5f64e6	0.013634896
124	0x3bb15636	0.0054118885
125	0x3c93fe93	0.018065726
126	0xbd8fba9e	-0.07018016
127	0xbcd27402	-0.025690082
128	0xbd42e346	-0.047580026
129	0xbd017316	-0.031603895
130	0xbdf2d935	-0.11857835
131	0xbe025d24	-0.12730843
132	0x3cc211cb	0.023690125
133	0x3ce2ced2	0.02768651
134	0xbdc15b46	-0.09441237
135	0x3da3ea35	0.08003656
136	0x3d6f65ad	0.058446575
137	0x3cc6d8f7	0.024273379
138	0xbd8bfe64	-0.068356305
139	0xbd087354	-0.03331311
140	0xbddb66c3	-0.107129596
141	0x3d285b56	0.04110273
142	0x3c9507d4	0.01819221
143	0x3d521b52	0.051295586
144	0x3ca50e46	0.020148408
145	0xbd839d0e	-0.0642644
146	0xbd6cb620	-0.057790875
147	0x3d397265	0.04527511
148	0xbdd4336e	-0.10361372
149	0xbd2dfd8b	-0.042478126
150	0xbd904aac	-0.070454925
151	0x3cf49017	0.029853864
152	0x3c1617d8	0.009160958
153	0x3c562714	0.01307084
154	0xbab6f668	-0.0013958933
155	0xbd9c0e3a	-0.07619901
156	0xbd2a2bed	-0.041545797
157	0xbd625760	-0.05525911
158	0xbceff1f9	-0.029290186
159	0xbdbb6c11	-0.091514714
160	0x3b34c756	0.0027584634
161	0xbdcb6e49	-0.099331446
162	0xbd1be577	-0.03806063
163	0x3d441cdb	0.04787908
164	0xbdd67f57	-0.10473507
165	0x3bf6d2e4	0.0075324643
166	0xbd0d6dac	-0.03452842
167	0xbde00563	-0.109385274
168	0xbdccc97c	-0.099993676
169	0xbb600631	-0.0034183378
170	0x3d1b7a32	0.03795833
171	0x3aaabf0a	0.0013026905
172	0x3cebd392	0.028787408
173	0xbd9e783d	-0.077377774
174	0x3d734493	0.05939157
175	0x3d1549f6	0.036447488
176	0xbc71baa2	-0.014753969
177	0xbd371ede	-0.04470717
178	0xbdcdc1e9	-0.10046751
179	0xbda3456d	-0.07972226
180	0x3d262f66	0.040572546
181	0x3cc51079	0.024055706
182	0x3d3a8742	0.04553915
183	0x3d873f24	0.0660384
184	0xbdde1845	-0.10844473
185	0xbccdbfa8	-0.025115803
186	0xbd83a88d	-0.06428633
187	0x3d20555b	0.0391439
188	0xbd219e43	-0.03945757
189	0xbdf3d3a6	-0.11905603
190	0xbd842499	-0.06452293
191	0xbc635557	-0.013875327
192	0xbd3aa0e1	-0.045563582
193	0xbda71109	-0.08157546
194	0x3cd5a05d	0.026077444
195	0xbd8ee667	-0.069775395
196	0x3d81d80c	0.06340036
197	0x3d045086	0.032303356
198	0x3c115251	0.008869723
199	0x3ce34ec9	0.027747529
200	0xbda612b9	-0.0810904
201	0x3cf4c681	0.02987981
202	0xbde11ed4	-0.10992208
203	0xbc05603d	-0.008140621
204	0xbdd5153e	-0.10404442
205	0xbd942a74	-0.0723466
206	0xbd32257b	-0.043492775
207	0xbe0e762e	-0.1391227
208	0x3d30d38b	0.043170493
209	0x3b94054a	0.004517232
210	0x3a2ae867	0.0006519616
211	0x3ca356ae	0.019938793
212	0xbdbfb5a7	-0.09360819
213	0xbcceb047	-0.02523054
214	0x3cbd951a	0.023142386
215	0xbd0975f3	-0.03355975
216	0x3db0d4f2	0.08634366
217	0xbdcee313	-0.10101905
218	0xbced81b0	-0.028992504
219	0x3b6cdd83	0.0036142773
220	0xbdac08a0	-0.084000826
221	0xbdc5c28d	-0.09656248
222	0xbd977c0c	-0.07396707
223	0x3cd785de	0.02630895
224	0x3ad56b9e	0.0016282683
225	0x3c81678f	0.01579645
226	0xbe0bd6f4	-0.13656217
227	0xbe21255c	-0.15736908
228	0xbe05638f	-0.1302626
229	0xbc9a11f9	-0.018807398
230	0x3cd3223b	0.025773158
231	0xbdaa0633	-0.08301964
232	0xbd3e5a86	-0.04647305
233	0xbdcb0d90	-0.09914696
234	0x3d806cca	0.0627075
235	0xbd5c4109	-0.05377296
236	0xbce70bb6	-0.028203826
237	0xbc7a352f	-0.015271469
238	0x3d0489df	0.032358047
239	0xbd4fa1b6	-0.05069133
240	0x3db6e64b	0.08930644
241	0xbb961ce1	-0.0045810794
242	0xbc802ac7	-0.015645398
243	0x3d0066de	0.0313481
244	0xbd760ede	-0.060072772
245	0xbdab6f76	-0.08370869
246	0x3d633792	0.055472918
247	0xbd7801fa	-0.06054876
248	0xbdc68364	-0.096930295
249	0xbd847c4b	-0.064690195
250	0xbdd473b0	-0.10373628
251	0xbd764e51	-0.060133282
252	0xbcc6f871	-0.024288388
253	0xbdcc2ff7	-0.09970086
254	0xbde84de7	-0.11342984
255	0xbcf6f984	-0.030148275

shared.2.bias f4 [128]
0	0xbda6a57c	-0.081370324
1	0xbde0f1d9	-0.10983629
2	0xbe055c98	-0.13023603
3	0x3c5fd5b5	0.013661792
4	0xbcecc62c	-0.02890309
5	0x3cc63454	0.024194874
6	0x3d1cad20	0.038251042
7	0x3c89de88	0.016829744
8	0xbde9fb7a	-0.114249185
9	0x3c8cb018	0.017173812
10	0xbdc81153	-0.09768929
11	0xbd0c53d0	-0.034259617
12	0x3b1315e3	0.0022443465
13	0xbda188f7	-0.07887452
14	0xb9cdabed	-0.00039228742
15	0xbe128224	-0.14307457
16	0xbca021d2	-0.019547377
17	0xbdc2fca5	-0.09520844
18	0x3c387ceb	0.0112602515
19	0xbdbf0a8f	-0.09328186
20	0xbde500d9	-0.11181802
21	0x3d2d230c	0.04226975
22	0xbda3714d	-0.07980595
23	0xbc1ba6b0	-0.009500191
24	0xbc7acb64	-0.015307281
25	0x38ae8655	8.321988e-05
26	0x3cadea5b	0.021229913
27	0x3c3b8194	0.011444468
28	0xbd99d461	-0.07511211
29	0xbd287adb	-0.04113279
30	0xbdd05fe7	-0.10174542
31	0xbc84b66a	-0.016200263
32	0x3d0e906b	0.034805696
33	0xbcc55b72	-0.024091456
34	0xbd99cbb5	-0.07509557
35	0x3d06d9df	0.03292262
36	0xbdbbd4ba	-0.09171434
37	0xbd436ef6	-0.047713242
38	0xbdbc1220	-0.091831446
39	0xbd9800c9	-0.07422025
40	0xbdadecb0	-0.0849241
41	0xbc88398f	-0.016629009
42	0x3c83c555	0.016085306
43	0xbdaec993	-0.08534541
44	0xbe16e945	-0.14737423
45	0xbd818186	-0.06323533
46	0xbb782826	-0.0037865727
47	0x3cfff99a	0.031246949
48	0xbcb040f5	-0.021515349
49	0xbde3a192	-0.111148015
50	0x39dabca9	0.00041720763
51	0xbd724fbe	-0.05915808
52	0xbe0d595e	-0.13803622
53	0xbcd9de92	-0.026595388
54	0xbc657fd2	-0.0140075255
55	0x3d13f77a	0.036124684
56	0xbb81b06b	-0.0039577982
57	0xbdf8fa60	-0.1215713
58	0xbbf683a1	-0.0075230156
59	0xbcf0d197	-0.029396815
60	0xbd8110a8	-0.06302005
61	0xbd2de713	-0.042456698
62	0x3c17e139	0.009270006
63	0xbd45ea0e	-0.048318915
64	0xbdd9ed2f	-0.10640942
65	0xbdb27658	-0.087139785
66	0xbcd3fe0f	-0.02587798
67	0xbd7ba5b9	-0.061437342
68	0xbdf3130a	-0.11868866
69	0x3cf6f72b	0.030147156
70	0x3b36e649	0.0027908257
71	0xbd84d005	-0.06484989
72	0xbb375f80	-0.0027980506
73	0x3cca096d	0.024662698
74	0xbe002c64	-0.12516934
75	0x3d1fdc79	0.03902862
76	0x3bc03e00	0.005866766
77	0xbde6f5f2	-0.11277379
78	0xbafd0c16	-0.001930597
79	0x3d0abd36	0.03387185
80	0xbd5b93c8	-0.053607732
81	0x3ca51a64	0.020154186
82	0x3d027763	0.031852137
83	0xbdb6775a	-0.08909483
84	0xbcc5b934	-0.024136163
85	0xbd6fa6a0	-0.058508515
86	0x3cbed2e1	0.023293914
87	0xbdeadbf8	-0.11467737
88	0x3c8842b6	0.016633373
89	0xbdcb4636	-0.09925501
90	0xbc51d3d8	-0.012806855
91	0xbdd5b240	-0.10434389
92	0xbc2f585f	-0.010702222
93	0xbd671d25	-0.05642428
94	0xbd6b7a79	-0.057489846
95	0x3cdf06cd	0.027224923
96	0x3d35921e	0.0443288
97	0xbdb2da14	-0.08733001
98	0xbd8e9da3	-0.069636606
99	0x3d037e4a	0.03210286
100	0xbdf601ee	-0.12012087
101	0xbc5c663b	-0.013452108
102	0xbd5332ad	-0.051562
103	0x3cab9c76	0.02094863
104	0xbd890973	-0.066912554
105	0xbd436b43	-0.047709715
106	0xbdee16f6	-0.11625473
107	0xbddfa5b6	-0.10920279
108	0xbd1a7458	-0.03770861
109	0x3cdb533f	0.026773093
110	0xbddcf8b5	-0.107896246
111	0x3d042015	0.03225716
112	0xbdcc17d1	-0.0996548
113	0xbcfc9699	-0.03083353
114	0xbd874783	-0.06605437
115	0xbe0a37d1	-0.13497855
116	0xbda3dbb5	-0.0800089
117	0xbd8541bf	-0.06506681
118	0xbd66176f	-0.05617469
119	0xbda3b6ee	-0.079938754
120	0xbdc15404	-0.09439853
121	0x3cfd162e	0.030894365
122	0xbca51279	-0.02015041
123	0xbd85421b	-0.06506749
124	0xbdbe207e	-0.09283541
125	0xbda7adae	-0.08187424
126	0x3d37b48f	0.04484993
127	0xbda6ca4a	-0.08144052

move_mean.weight f4 [2, 128]
0	0x3b7c59d2	0.0038505686
1	0xbd2260d2	-0.039643116
2	0xbbd66429	-0.0065427017
3	0x3d0315cc	0.03200321
4	0x3c252232	0.010078954
5	0x3c108486	0.008820659
6	0x3bd0da1a	0.006373656
7	0x3d325c14	0.043544844
8	0x3cc309aa	0.02380832
9	0x38d4e043	0.0001015072
10	0xbb1c83ed	-0.0023882345
11	0x3b6e3c61	0.0036351907
12	0xbad36b0a	-0.0016129923
13	0x3d478114	0.048707083
14	0x3c76918f	0.015049352
15	0xbbf6c671	-0.0075309803
16	0x3d11caf3	0.035593938
17	0x3ca7a9b0	0.020466655
18	0xbc55af67	-0.013042307
19	0xbcf20386	-0.029542696
20	0x3d0d1984	0.03444816
21	0x3d754b3a	0.059886195
22	0xbce4669c	-0.02788096
23	0x3c85af83	0.016319042
24	0xbc444665	-0.011979674
25	0x3d453780	0.048148632
26	0x3d32d067	0.04365578
27	0x3c054529	0.008134165
28	0x3c5cdc15	0.013480206
29	0xbbbeffba	-0.005828825
30	0x3c3fc476	0.011704555
31	0xbc40fcad	-0.011778993
32	0x3cc612c9	0.02417888
33	0x3b8ff16f	0.004392795
34	0x3d195e53	0.03744347
35	0xbcd86afa	-0.026418198
36	0x3ca73d03	0.020414835
37	0x3d80272f	0.06257474
38	0xbd8124bc	-0.06305835
39	0x3c8bd48e	0.017069127
40	0x3b5425c5	0.0032371145
41	0x3c2a2887	0.010385639
42	0x3d5b10b5	0.05348273
43	0x3c7fb2aa	0.015606562
44	0xbb85df44	-0.004085453
45	0xbb0c2abf	-0.0021387783
46	0xbcc402c9	-0.02392711
47	0xbd1674b0	-0.036732376
48	0x3ccea63e	0.025225755
49	0xbc3f8437	-0.011689237
50	0xbaafce5a	-0.0013412938
51	0xbbdf2692	-0.006810018
52	0xbbb6e1f1	-0.0055811335
53	0x3ab0e1da	0.0013495043
54	0x3c7c67f3	0.015405643
55	0xbcf4a7f9	-0.029865252
56	0xbd2e3f40	-0.04254079
57	0xbce19828	-0.027538374
58	0x3ce7c351	0.028291376
59	0xbbce98bb	-0.006304828
60	0xbb902060	-0.0043983907
61	0x3bf9eed5	0.007627348
62	0xbb78c308	-0.0037958045
63	0xbbfe9c92	-0.0077701295
64	0xbbc58bf7	-0.006028648
65	0x3bef03d3	0.007294157
66	0x3b113ee6	0.0022162735
67	0xbc158539	-0.009126001
68	0xbb78b1be	-0.003794774
69	0x3d51a0ae	0.051178627
70	0x3cb1b62f	0.021693317
71	0x3d391607	0.045187023
72	0xbc367787	-0.011136896
73	0x3c94b39d	0.018152053
74	0x3bbbfa22	0.0057366053
75	0xbc902fb0	-0.017600864
76	0xbc935262	-0.01798362
77	0xbcd901c8	-0.026490107
78	0x3d437855	0.04772218
79	0xbc454a94	-0.012041707
80	0xbc4c8f61	-0.012485356
81	0x3d625b37	0.05526277
82	0x3bb254e9	0.005442251
83	0x3c41eb3a	0.011835868
84	0x3ab23083	0.001359478
85	0xba045bc1	-0.0005049073
86	0x3d204aa4	0.039133683
87	0x3b75b4b9	0.0037491752
88	0x3d0651a1	0.03279269
89	0x3d319df2	0.04336352
90	0xbd7c3588	-0.06157449
91	0xbd2ddcd9	-0.042446945
92	0x3c55f2df	0.013058393
93	0xbd613059	-0.05497775
94	0x3c5addb4	0.013358522
95	0x3d90c3ec	0.07068619
96	0x3d586100	0.05282688
97	0xbcce7b97	-0.025205417
98	0x3d8ab335	0.06772462
99	0x3cd6064b	0.026126048
100	0x3bcc0430	0.006226085
101	0x3d1923fc	0.037387833
102	0xbc8985d8	-0.016787454
103	0x3c0c8b62	0.008578153
104	0x3a213900	0.0006150156
105	0xbc0583d2	-0.008149104
106	0x3d2d494a	0.042306222
107	0x3ceb5eb9	0.02873169
108	0x3c13d147	0.009022064
109	0xbaefa22f	-0.0018282587
110	0x3b992a2b	0.0046742163
111	0xbc0bd901	-0.0085356245
112	0xbd748a4b	-0.0597022
113	0x3c088c64	0.008334253
114	0x3ae518f5	0.0017478751
115	0xbc2f50d4	-0.010700423
116	0x3cd179cc	0.025570773
117	0x3c63d8ae	0.013906641
118	0x3d07fe17	0.033201303
119	0x3ceacae3	0.028661197
120	0xbd137daa	-0.036008514
121	0xbd345107	-0.044022586
122	0x3d71871b	0.058966737
123	0xbccb8e06	-0.024847995
124	0x3a25e72c	0.0006328698
125	0xbc726167	-0.01479373
126	0x3b711d73	0.0036791235
127	0x3ca7f04e	0.020500328
128	0x3cdf7da3	0.027281588
129	0x3ca33516	0.019922774
130	0x3a638497	0.000867912
131	0x3bd9f292	0.006651231
132	0x3d29864f	0.041387852
133	0x3c8d34c7	0.01723708
134	0x3c0cd7a2	0.008596333
135	0xbbcdfb0d	-0.006286031
136	0x3c4f6b08	0.012659796
137	0xbc477897	-0.012174747
138	0xbcf5d809	-0.03001024
139	0x3c0567bd	0.008142409
140	0x3da645e4	0.08118799
141	0xbbce6f02	-0.0062998543
142	0xba04b529	-0.00050623954
143	0xbc054a38	-0.008135371
144	0xbbc80699	-0.006104302
145	0xbc24278d	-0.010019195
146	0xbc9893e9	-0.018625217
147	0x3d1c9dab	0.0382363
148	0x3d5272d1	0.05137903
149	0x3b18d66d	0.0023321167
150	0x3d41f8df	0.047356483
151	0xbce5e22b	-0.028061947
152	0xbcaedb33	-0.021344757
153	0xbcd49720	-0.025950968
154	0x3d172446	0.036899827
155	0x3bd54065	0.0065079206
156	0xbc0cd946	-0.008596724
157	0x3c11aa34	0.008890677
158	0xbc0e7201	-0.008694173
159	0xbbeb7e31	-0.007186674
160	0xbca42eed	-0.020041907
161	0xbb1f1acb	-0.0024277444
162	0x3cab6c53	0.020925676
163	0xbcf85425	-0.03031356
164	0xbcdf6130	-0.027268022
165	0xbd57c4a4	-0.052677765
166	0x3d3e1488	0.0464063
167	0xbbb6ed00	-0.005582452
168	0x3d04d506	0.032429717
169	0x3b1e4672	0.0024150875
170	0xbc48911f	-0.012241631
171	0x3cba5ccc	0.022749327
172	0x397eec50	0.00024311361
173	0x3cf83de2	0.030302946
174	0x3bfcaeda	0.0077112736
175	0xbcd7b06a	-0.026329238
176	0x3b9d2f17	0.0047968733
177	0xbc8a5693	-0.016886985
178	0xbac0efb9	-0.001471988
179	0xbb390237	-0.002823008
180	0x3cac9696	0.021067899
181	0x3d2d077d	0.04224347
182	0x3c56563e	0.013082085
183	0x3d473c26	0.048641346
184	0xbd509b9b	-0.050929647
185	0x3b636e6b	0.0034703265
186	0x3d079d7f	0.033109184
187	0x3ba2c1ff	0.004966974
188	0x3cb6426f	0.022248475
189	0xbc0efd6e	-0.0087274145
190	0xbc9899e4	-0.018628068
191	0x3d0fd0dd	0.035111297
192	0x3c4a8538	0.012360863
193	0xbc271201	-0.010197164
194	0xbcae0524	-0.021242686
195	0xbbb65231	-0.005563997
196	0xbcd32531	-0.02577457
197	0x3cb3d04b	0.021949908
198	0xbbface78	-0.0076540075
199	0xbd7597d3	-0.059959244
200	0x3c3f7775	0.011686196
201	0xbc3d68e9	-0.011560657
202	0xbd181605	-0.037130374
203	0x3c3a382f	0.011365934
204	0xbd147ee7	-0.036253836
205	0xbd028e66	-0.031874083
206	0xbd6a46f3	-0.05719657
207	0x3bc2c010	0.005943306
208	0xbd55373f	-0.05205464
209	0xbd62b16a	-0.055344976
210	0xbbffda06	-0.007807973
211	0x3c892db0	0.016745418
212	0xbc3ab1de	-0.011394946
213	0xb9309f0d	-0.00016843919
214	0xbb081814	-0.0020766305
215	0xbd1f604f	-0.038910206
216	0xbc2d5ce4	-0.010581229
217	0xbc673d61	-0.014113755
218	0xbb252104	-0.002519668
219	0x3a6d3261	0.00090483396
220	0x3a14b1c5	0.00056722417
221	0x3cc2d049	0.023780959
222	0x3d3b46b5	0.04572173
223	0x3c71b688	0.0147529915
224	0x3c87b0e9	0.01656385
225	0xbd3a4d30	-0.045483768
226	0x3cc92fde	0.024558958
227	0x3d1ab2bd	0.037768114
228	0x3d05de76	0.03268286
229	0x3d743c8b	0.05962805
230	0xbd84b46e	-0.06479727
231	0xbc4d9ccb	-0.012549589
232	0x3d2cf5b3	0.042226505
233	0x3c03622f	0.008019014
234	0xbcaba0a4	-0.020950623
235	0x3c80b902	0.015713219
236	0x3cbd74be	0.023126956
237	0x3d135779	0.035972092
238	0xbb7d4f4f	-0.0038652008
239	0x39e67cce	0.00043962005
240	0x3d2440a6	0.040100716
241	0xbc11c970	-0.008898124
242	0x3d238117	0.03991803
243	0xbc8b06b1	-0.016970964
244	0xbb16c29f	-0.0023004187
245	0x3a91e117	0.0011129704
246	0xbcfa8124	-0.030579157
247	0x3c5f50a5	0.013630067
248	0x3d950b00	0.07277489
249	0x3c36edf8	0.011165135
250	0xbdabd8ec	-0.08390984
251	0x3c9fd8a5	0.019512484
252	0x3af6aba6	0.0018819466
253	0x3bd21353	0.006410995
254	0xbb1e3bfc	-0.002414464
255	0x3cb7007e	0.022339102

move_mean.bias f4 [2]
0	0x3e81f786	0.25384158
1	0xbe9e1acc	-0.3087982

food_logits.weight f4 [3, 128]
0	0xbd0e1ccf	-0.034695443
1	0x3ca1e77d	0.019763703
2	0x3cacfddd	0.021117145
3	0xbc9d6160	-0.019211471
4	0x3cca6a0a	0.024708766
5	0xbcb8f1bd	-0.022576207
6	0x3c00aca2	0.007853659
7	0x3d90e9e9	0.07075865
8	0xbcae7e76	-0.021300536
9	0xbcd89309	-0.0264373
10	0x3d06f19a	0.032945253
11	0xbd246d56	-0.040143333
12	0xbd677bc2	-0.05651451
13	0xbcca5708	-0.024699703
14	0x3c236ac7	0.009974188
15	0x3d3655b4	0.044515327
16	0xbd0257ed	-0.031822134
17	0xbc3543db	-0.011063541
18	0x3d5c4e37	0.05378553
19	0xbd7e5d50	-0.06210071
20	0x3d4effbe	0.050536864
21	0x3c2f8def	0.010714992
22	0xbd58d346	-0.05293586
23	0xbc8d88c9	-0.017277138
24	0xbbef2f3b	-0.0072993315
25	0x3d55c8b6	0.052193366
26	0x3d2a3cf7	0.041562047
27	0xbd083cf2	-0.033261247
28	0x3bed0342	0.0072330544
29	0xbcc374be	-0.023859378
30	0xbd100718	-0.035163015
31	0x3d47f0a7	0.04881349
32	0x3d694d82	0.056958683
33	0x3d473f6b	0.048644464
34	0x3d330c8b	0.043713134
35	0xbcc1e407	-0.023668302
36	0x3d88600d	0.06658945
37	0x3b64522d	0.003483902
38	0x3d05c687	0.032660034
39	0xbd50ff17	-0.051024523
40	0xbdad3bd7	-0.08458679
41	0x399d28eb	0.0002997586
42	0x3cbb07fa	0.022830952
43	0xbc91e532	-0.017809484
44	0xbca9187e	-0.020641562
45	0x3d1059d3	0.035241913
46	0xbd1a39fc	-0.037652954
47	0x3d975110	0.07388508
48	0x3d2901cb	0.041261476
49	0xbad8174c	-0.0016486435
50	0xbda49587	-0.080363326
51	0x3cb69f3a	0.022292722
52	0x3d375521	0.04475892
53	0x3ba3df43	0.00500098
54	0xbd89b4e1	-0.06723953
55	0xbd420ac3	-0.047373544
56	0x3cb4ea37	0.022084339
57	0xbc9509e1	-0.018193187
58	0x3c64c3e6	0.013962721
59	0x3ce31b06	0.027722847
60	0x3d2b2a81	0.04178858
61	0xbd3607c8	-0.044441015
62	0x3d81da4a	0.063404635
63	0xbc1bb903	-0.009504559
64	0x3da4ab8f	0.08040535
65	0x3d4d861d	0.05017673
66	0x3d816c03	0.0631943
67	0x3ce8effe	0.02843475
68	0xbbdba1f6	-0.006702657
69	0x3d0af910	0.03392893
70	0x3c9175d9	0.01775639
71	0x3d8f683c	0.07002303
72	0x3b819df3	0.0039555966
73	0x3d04ecd4	0.03245242
74	0x3c42e33a	0.011894995
75	0xbcdc4168	-0.026886657
76	0x3d55491b	0.052071672
77	0x3d381ff7	0.04495236
78	0x3d2c75e2	0.04210461
79	0x3d298e7a	0.041395642
80	0x3d3dff07	0.04638579
81	0x3d9fb34f	0.07797872
82	0x3d5c8af7	0.053843465
83	0x3d6b28c7	0.057411935
84	0xbcbc594a	-0.022991795
85	0xbd554534	-0.05206795
86	0x3cd57b47	0.02605976
87	0x3d97b2a1	0.07407118
88	0xbcf7c8a4	-0.03024704
89	0x3d04def0	0.032439172
90	0xbd0b173b	-0.0339577
91	0xbca13fac	-0.019683681
92	0x3cfb54aa	0.03068002
93	0x3d0c251c	0.034215078
94	0xbd1cddc8	-0.038297445
95	0xbcdad9ef	-0.026715247
96	0xbb597a39	-0.0033184423
97	0xbcdae430	-0.026720136
98	0xbcef18b5	-0.029186586
99	0xbccc2cd6	-0.024923723
100	0xbd5671fc	-0.052354798
101	0xbd27779d	-0.040885556
102	0x3d6bc52e	0.057561092
103	0xbd22bc7d	-0.039730538
104	0xbd93ca72	-0.07216348
105	0xbcb0a8b5	-0.02156482
106	0xbd35686d	-0.04428904
107	0x3d6af3ed	0.057361532
108	0x3d285991	0.041101042
109	0x3d3ea3e7	0.04654303
110	0xbd733a3f	-0.05938172
111	0x3c3c66f9	0.01149916
112	0xbbbae004	-0.0057029743
113	0xbd57f899	-0.052727316
114	0x3d2ce681	0.042212013
115	0x3ca4f7c0	0.020137668
116	0x3caa68bb	0.020801893
117	0x3ba2e5a7	0.0049712243
118	0x3c812e88	0.015769258
119	0x3cd4f2ee	0.025994744
120	0xbcfc7ea1	-0.0308221
121	0x3c22462a	0.009904424
122	0xbd0e9e40	-0.034818888
123	0xbd464e50	-0.04841453
124	0x3ad5696f	0.0016282032
125	0x3cf0c2e3	0.029389804
126	0xbcafebe2	-0.021474782
127	0x3d1a12de	0.03761565
128	0xbd29f9f0	-0.041498125
129	0x3bc4b6d7	0.0060032415
130	0xbc4a5fea	-0.012351969
131	0xbca9b7cd	-0.020717526
132	0xba67410b	-0.0008821643
133	0x3d0729b5	0.03299876
134	0x3c8368a5	0.01604111
135	0x3d3ab4b1	0.045582477
136	0xbd0e4d08	-0.03474143
137	0xbd002a94	-0.031290606
138	0x3c952096	0.018204015
139	0xbc25fd11	-0.0101311365
140	0x3b08a7d7	0.0020851993
141	0x3d890d1e	0.06691955
142	0xbb9c89ba	-0.0047771605
143	0x3c1b2369	0.009468892
144	0x3d412e55	0.047163326
145	0xbb6d1ca0	-0.0036180392
146	0x3ce4b6d3	0.027919209
147	0xbd9614dd	-0.07328198
148	0xbc34af5e	-0.011028139
149	0x3d0a7a5a	0.03380809
150	0xbaf70cfc	-0.0018848474
151	0xbbce05c8	-0.0062873103
152	0x3b4a3dad	0.0030859516
153	0x3d464b69	0.04841176
154	0x3bc8fc62	0.006133602
155	0xbcecf2d8	-0.02892439
156	0x3bf31694	0.007418463
157	0xbcb5e08d	-0.0222018
158	0xbc8641f0	-0.016388863
159	0x3cdd7bcf	0.027036576
160	0x3cee8f3e	0.029121038
161	0x3ceed0d4	0.029152311
162	0x3d2caa73	0.04215474
163	0xbcd759fc	-0.026288025
164	0x3d814012	0.063110486
165	0x3d9c05e2	0.076183096
166	0xbc07e774	-0.008294929
167	0xbd2fc75f	-0.042914744
168	0x3c14ad68	0.009074546
169	0x3caad430	0.020853132
170	0xbbf8e940	-0.007596165
171	0xbb062ead	-0.0020474598
172	0x3ca0c88e	0.019626882
173	0x3d8f7489	0.07004649
174	0xbcfb0424	-0.030641623
175	0x3d88c7c7	0.066787295
176	0x3b7cc7c1	0.003857121
177	0x3be279ac	0.006911477
178	0xbd8b317c	-0.06796548
179	0xbcbcc1f7	-0.023041708
180	0x3d53323b	0.051561575
181	0x3d844ebd	0.06460331
182	0xbcc69b3b	-0.024243942
183	0xbd82f84d	-0.06395016
184	0x3d0065a2	0.031346925
185	0x3b7535e7	0.0037416162
186	0x3d20b8b3	0.039238643
187	0x3d74e976	0.05979296
188	0x3d072d51	0.0330022
189	0xbc075a2c	-0.008261245
190	0x3d91c81b	0.07118245
191	0x3d3e3b6e	0.046443395
192	0x3d3faaff	0.046793934
193	0x3d722385	0.059115905
194	0xbd04120a	-0.032243766
195	0x3a622b16	0.0008627636
196	0xbc609ff6	-0.013710013
197	0x3c3496ad	0.011022252
198	0x3d20cabd	0.039255846
199	0xbda48bda	-0.08034487
200	0x3c617ee8	0.013763167
201	0x3d1cb600	0.038259506
202	0x3d984cd3	0.07436528
203	0xbcb0f578	-0.021601424
204	0xbcbe28a9	-0.023212748
205	0x3ceb3fa4	0.02871687
206	0x3da43439	0.08017773
207	0x3d5bebbe	0.05369162
208	0x3d050f7b	0.032485466
209	0xbd2ebcb4	-0.04266043
210	0x3d941c70	0.072319865
211	0x3d7c4b74	0.061595395
212	0xbc9a5798	-0.018840596
213	0xbd829b32	-0.063772574
214	0x3caf3da9	0.021391707
215	0x3c626f12	0.013820427
216	0xbd6269fd	-0.05527686
217	0x3bc1c405	0.00591326
218	0xbd024af8	-0.031809777
219	0xbd84bb0a	-0.06480987
220	0x3ca20e79	0.019782292
221	0x3d79cea3	0.06098808
222	0x3cc30800	0.023807526
223	0x3c1fcc6b	0.009753327
224	0xbd01dc25	-0.031704087
225	0xbd0ddede	-0.03463637
226	0xbaf04f40	-0.0018334165
227	0xbd574d3d	-0.052563895
228	0xbd85e9ac	-0.0653871
229	0xbc79dc79	-0.015250319
230	0x3d56c0b6	0.052429877
231	0xbcf1d907	-0.029522432
232	0x3d413dad	0.04717796
233	0xbcb8b48a	-0.022547025
234	0x3c40bf14	0.011764307
235	0x3cbd5243	0.023110515
236	0xbc34f253	-0.011044103
237	0x3ca43815	0.020046273
238	0xbcb7374b	-0.022365233
239	0x3c80766b	0.015681466
240	0xbb53a013	-0.0032291457
241	0xbcc67951	-0.02422777
242	0xbd321f47	-0.04348686
243	0x3d260ae8	0.040537745
244	0x3d19ca62	0.037546523
245	0x3c93f941	0.01806319
246	0xbd3e01c5	-0.046388406
247	0x3d742151	0.059602086
248	0xbced30d3	-0.028953945
249	0x3ce02a07	0.02736379
250	0xbd4c97b8	-0.049949378
251	0xbd4226ce	-0.04740029
252	0x3d43a425	0.047763962
253	0xbcc750b7	-0.02433048
254	0xbcc1ffae	-0.023681488
255	0xbbcc2239	-0.0062296656

food_logits.bias f4 [3]
0	0xbdd555cf	-0.10416757
1	0x3dd58142	0.104250446
2	0x3c371c90	0.011176243

net.0.weight f4 [128, 17]
0	0x3e19d068	0.15020907
1	0xbe275c1f	-0.16343735
2	0x3fb57332	1.417578
3	0xc0a4fb59	-5.155682
4	0xbf09ffdf	-0.53906053
5	0xbe92f82c	-0.28704965
6	0xbe1495bc	-0.14510244
7	0x3e11853a	0.14210978
8	0xbd2d0bd0	-0.042247593
9	0x3d75fbe6	0.060054682
10	0x3e04ff9f	0.12988137
11	0xbe014497	-0.12623821
12	0x3e218ba5	0.15775926
13	0x3c6ce79b	0.014459516
14	0xbd1d5af5	-0.03841682
15	0x3e376aa7	0.17911778
16	0x3dfa82ba	0.12231965
17	0x3db9ec26	0.09078245
18	0xbda2f4b3	-0.07956829
19	0xc014ed00	-2.3269653
20	0x40706a5e	3.7564921
21	0x40049111	2.0713542
22	0xbe35dd2a	-0.17760149
23	0x3e153f9a	0.14575043
24	0xbdae2ff7	-0.08505242
25	0x3e3bd734	0.18343812
26	0x3d73dec2	0.05953861
27	0xbdf29c4b	-0.11846217
28	0xbe2e96ee	-0.17049763
29	0xbe7dc328	-0.24781477
30	0xbdd53fb6	-0.104125425
31	0x3ddc2071	0.10748375
32	0xbd92ce78	-0.07168287
33	0xbc5b9ccb	-0.013404082
34	0xbd0320de	-0.032013766
35	0x3b8bf936	0.0042716516
36	0x3f8c1182	1.0942843
37	0xbfb42240	-1.4072952
38	0xc04993a0	-3.1496353
39	0x3db60231	0.08887137
40	0x3c15b6ea	0.009137848
41	0x3d3b4c4c	0.04572706
42	0x3da249dc	0.07924244
43	0xbcbbeee8	-0.022941068
44	0x3dfc24cc	0.12311706
45	0x3d899d81	0.067194946
46	0x3da43e00	0.08019638
47	0x3d888aa8	0.066670716
48	0xbdc11d61	-0.09429432
49	0x3c68be73	0.014205563
50	0xbd9d5180	-0.076815605
51	0xbde3227e	-0.11090563
52	0xbdb43a4e	-0.08800183
53	0x3f900b2c	1.1253409
54	0xc08ca978	-4.395687
55	0xbe88f726	-0.2675106
56	0xbd10e1fb	-0.03537176
57	0x3e671927	0.22568189
58	0xbe2a3adf	-0.1662402
59	0xbdff62fb	-0.12470051
60	0xbc9be50f	-0.019030122
61	0xbe2b7ebf	-0.16747569
62	0xbe319be6	-0.17344627
63	0xbe38eaca	-0.18058315
64	0xbe000b4b	-0.12504308
65	0x3e24471e	0.16042754
66	0x3e504ac1	0.20341016
67	0x3d8cc2aa	0.06873067
68	0x3dbba661	0.09162594
69	0xbe527f79	-0.2055644
70	0x3fb0337e	1.3765714
71	0x3f83c5fa	1.0294793
72	0xc0345408	-2.8176289
73	0x3a7f6006	0.00097417866
74	0xbe47a811	-0.19497706
75	0xbddc72e1	-0.10764099
76	0xbe08ab7f	-0.1334667
77	0x3e228649	0.15871538
78	0xbcc6f7e0	-0.024288118
79	0x3d8c4af6	0.06850235
80	0xbe3b6a90	-0.18302369
81	0x3e6196e2	0.22030213
82	0x3dbdc1bf	0.0926547
83	0x3c4f5aaa	0.012655893
84	0xbdff0347	-0.12451797
85	0xbde48342	-0.11157848
86	0xbd2c96ac	-0.04213588
87	0x3fdf15c4	1.7428517
88	0xbfde6004	-1.7373052
89	0xc004bd78	-2.0740643
90	0xbe9f59aa	-0.31123096
91	0xbd07a49b	-0.033115964
92	0xbd13d2da	-0.036089756
93	0xbe276913	-0.16348676
94	0xbe339090	-0.17535615
95	0x3e3f5754	0.18685657
96	0xbd0d38cc	-0.034477994
97	0xbd8cc391	-0.06873239
98	0x3caa7607	0.020808233
99	0xbc90755c	-0.017634086
100	0xbd9d6eb9	-0.07687134
101	0xbde986f2	-0.11402692
102	0xbd3be0cc	-0.04586868
103	0xbdcd991b	-0.10038968
104	0xbfec6617	-1.8468655
105	0x40b1e84b	5.559606
106	0x3f5f324b	0.87186116
107	0xbd3ffe2e	-0.046873264
108	0x3db5b46d	0.08872304
109	0x3e3a34c8	0.18184197
110	0x3c5be07c	0.01342022
111	0xbd1797fa	-0.03701017
112	0x3e68ce0e	0.22734854
113	0xbc4bd399	-0.0124405855
114	0x3ca10f2b	0.019660553
115	0xbcc07b68	-0.023496345
116	0xbd7c56ea	-0.061606325
117	0x3c31fd25	0.010863577
118	0x3da3ae87	0.07992273
119	0x3e34bd7e	0.1765041
120	0x3da991f5	0.08279792
121	0x400e74fa	2.2258897
122	0xc0bce2fd	-5.9027085
123	0xbf6920df	-0.9106578
124	0x3e3d7e97	0.18505321
125	0xbcdb5e06	-0.026778232
126	0x3e9e5ed2	0.30931717
127	0x3e60ade8	0.2194134
128	0x3dd82e53	0.10555711
129	0xbd5a39b3	-0.053277683
130	0x3c5b6ee2	0.013393136
131	0xbd8a81b8	-0.06763023
132	0xbc8f60c2	-0.017502192
133	0x3e3f4b08	0.18680966
134	0x3d3d36f2	0.046194978
135	0xbd66fd6a	-0.05639402
136	0xbdcb0489	-0.099129744
137	0xbc0cad27	-0.008586205
138	0x3faafb18	1.3357878
139	0xbfd756c5	-1.6823355
140	0xbed732a0	-0.4203081
141	0x3e8667b7	0.26251003
142	0x3e5eb585	0.21748932
143	0xbda30d6e	-0.07961546
144	0xbc3c1ff8	-0.011482231
145	0x3d0f0190	0.0349136
146	0x3cb2c4eb	0.021822413
147	0xbe24c7bb	-0.16091816
148	0x3d53cc71	0.051708642
149	0x3df18878	0.117936075
150	0x3dddd76a	0.108321026
151	0x3d0f9f0b	0.035063785
152	0xbe5e58ec	-0.21713609
153	0x3d97cfbd	0.0741267
154	0x3d47b381	0.048755173
155	0xbfee33b8	-1.8609533
156	0x40c9888a	6.2979174
157	0x3f6bccd7	0.92109436
158	0xbdb74915	-0.08949486
159	0x3d6820c2	0.056671865
160	0xbd7bb605	-0.061452884
161	0x3ce16354	0.027513184
162	0x3d965d6d	0.07342038
163	0x3d00c6ce	0.031439595
164	0x3d395bc7	0.04525354
165	0xbe1c4898	-0.15262067
166	0xbdbb0b0f	-0.09132969
167	0x3e54c4f9	0.20778264
168	0x3e126154	0.1429494
169	0x3cbc6162	0.022995654
170	0x3e1d28b9	0.15347566
171	0xbda5f880	-0.08104038
172	0xc000f6c7	-2.015062
173	0x402f6c2f	2.740978
174	0x406a14cc	3.6575193
175	0xbd7041a2	-0.058656342
176	0x3d03630a	0.032076873
177	0xbd806fe8	-0.062713444
178	0x3dcf35fe	0.1011772
179	0xbe4efd40	-0.20213795
180	0xbe9e92a7	-0.30971262
181	0x3c0ddb19	0.008658194
182	0x3d4eaa8f	0.050455626
183	0x3e4ea5b1	0.20180394
184	0x3ce629aa	0.028096039
185	0x3e2ae22f	0.16687845
186	0xbe18a4c1	-0.14906599
187	0x3e2a98e7	0.1665989
188	0xbcfe7df1	-0.031065913
189	0x3ecc74cf	0.39932868
190	0xc0776375	-3.8654454
191	0x3ec3730b	0.38173708
192	0x3e36165b	0.17781965
193	0x3df93fb7	0.12170356
194	0xbd916d6f	-0.07100951
195	0x3dcbd063	0.09951856
196	0xbd007828	-0.03136459
197	0xbe795d84	-0.2435208
198	0xbdd884af	-0.105721824
199	0x3d5c3e53	0.053770375
200	0x3d3c4125	0.045960564
201	0xbd2afada	-0.041743137
202	0xbd3a86f5	-0.04553886
203	0x3c0c7d1d	0.008574751
204	0x3cd1ee4c	0.025626324
205	0x3d7b80f0	0.06140226
206	0xbf3829b7	-0.7193865
207	0x40c4c18b	6.148626
208	0xbe43e871	-0.19131638
209	0x3d958f1d	0.07302687
210	0x3e017091	0.12640597
211	0x3d44b385	0.048022766
212	0xbe21cd83	-0.15801053
213	0x3bb17c7c	0.005416451
214	0x3d965ca7	0.07341891
215	0xbdae8126	-0.08520727
216	0x3dd273d5	0.102759995
217	0x3ca4320d	0.020043397
218	0xbcd07568	-0.025446609
219	0x3dac3701	0.08408929
220	0xbc1c5087	-0.009540684
221	0x3cd5f397	0.02611713
222	0x3b5c85e8	0.003364915
223	0xbf64962e	-0.89291656
224	0xc01efaa7	-2.4840486
225	0x40784ccc	3.8796873
226	0x3d67bedc	0.056578502
227	0x3c800c04	0.01563073
228	0x3a982d90	0.0011610258
229	0xbe868c56	-0.26278943
230	0xbe501653	-0.20321016
231	0xbe23e85e	-0.1600661
232	0xbe725ba8	-0.23667777
233	0x3e07eab0	0.1327312
234	0x3c840d23	0.016119545
235	0x3d90063d	0.0703244
236	0xbd8ca1db	-0.06866809
237	0x3e2bfbc1	0.16795255
238	0xbcd60e09	-0.02612974
239	0x3dcfeee1	0.101529844
240	0xbfb89cee	-1.4422891
241	0x40b0fd52	5.530923
242	0x3f9759cb	1.1824278
243	0xbd31fd6e	-0.04345458
244	0xbe774b1f	-0.2414975
245	0x3cd15457	0.025552912
246	0x3e956337	0.29177257
247	0x3deb182e	0.11479221
248	0xbd378264	-0.044802085
249	0xbdcd18e1	-0.10014511
250	0x3e07fe8b	0.13280694
251	0x3e02ffa0	0.12792826
252	0x3e1b5000	0.15167236
253	0xbd9141b0	-0.07092607
254	0xbd24fd6b	-0.04028074
255	0x3c34df27	0.011039532

net.0.bias f4 [128]
0	0x3eaa9d71	0.33323243
1	0xbc90984a	-0.017650742
2	0xbebe2c47	-0.37143156
3	0xbdcb4773	-0.09925737
4	0xbdb454cd	-0.08805237
5	0x3d52ddbc	0.051480994
6	0xbe798b00	-0.2436943
7	0x3e74882c	0.2388007
8	0xbead127f	-0.33803174
9	0xbeba9447	-0.36441252
10	0x3e4e9347	0.2017337
11	0x3cd5e2b9	0.026109086
12	0x3cbc888c	0.02301433
13	0x3e9d899f	0.3076906
14	0xbe00af93	-0.12566976
15	0xbe0c86c9	-0.13723291
16	0xbde36325	-0.11102895
17	0xbe2727be	-0.16323754
18	0x3deaac67	0.114586644
19	0xbe4c5e0e	-0.19957754
20	0xbee274b5	-0.44229665
21	0xbda2ba9f	-0.079457514
22	0x3e44ed11	0.19231059
23	0x3f1e3e63	0.61813945
24	0xbd965497	-0.07340353
25	0xbd55bcdb	-0.05218206
26	0x3d429889	0.04750875
27	0x3eb44a77	0.35213062
28	0xbe3b06f4	-0.18264371
29	0x3e9acfbf	0.30236623
30	0xbdacca82	-0.08437063
31	0x3e84fe87	0.2597544
32	0xbdb69f3b	-0.089170896
33	0x3e623ca7	0.2209345
34	0x3e8d33a7	0.2757847
35	0x3ea2fb81	0.31832507
36	0xbe445e12	-0.1917651
37	0x3d9b1ef9	0.07574267
38	0xbe7727f5	-0.24136336
39	0xbd16d03a	-0.036819674
40	0x3e132399	0.14369048
41	0xbe48b434	-0.19599992
42	0x3e1f39ae	0.15549347
43	0x3e2c9420	0.1685338
44	0xbd8cff04	-0.06884578
45	0xbe57528d	-0.21027584
46	0x3c0434a1	0.008069188
47	0x3bc9d40a	0.00615931
48	0x3c7d99cf	0.015478565
49	0x3c9d5d83	0.019209629
50	0xbe8621f7	-0.26197788
51	0xbeacbb79	-0.3373678
52	0x3eb01d46	0.34397334
53	0x3d4eec87	0.05051854
54	0x3ee499a4	0.44648468
55	0xbe7c14a5	-0.2461725
56	0x3e65bbb3	0.22434883
57	0x3eaa51cb	0.33265528
58	0x3d9ca9f0	0.076496005
59	0xbb82412c	-0.0039750542
60	0x3d819810	0.06327832
61	0xbe1398e3	-0.1441379
62	0xbf087d30	-0.5331602
63	0x3e8f64bf	0.2800655
64	0x3e542c0f	0.20719932
65	0xbf01cd04	-0.50703454
66	0xbe4c521c	-0.19953197
67	0x3e995787	0.2994959
68	0x3e0c28e7	0.13687478
69	0xbe759d61	-0.23985817
70	0x3dbbcc25	0.09169797
71	0xbef23e16	-0.47312993
72	0xbc398e29	-0.0113253975
73	0xbe386e12	-0.18010738
74	0x3f19fd45	0.60152084
75	0xbd909104	-0.070589095
76	0x3e824a98	0.25447536
77	0x3ea9024c	0.33009565
78	0xbdc9b693	-0.098492764
79	0x3ecf0e1d	0.40440455
80	0x3e9f269b	0.3108414
81	0x3e546bb8	0.20744216
82	0x3db729b5	0.08943502
83	0x3dd4be53	0.10387864
84	0x3e5ee226	0.21765956
85	0x3e0ad512	0.13557842
86	0xbe60c9a4	-0.2195192
87	0xbe36fc8c	-0.17869776
88	0x3e2a1c96	0.16612467
89	0x3e14fe8f	0.14550231
90	0x3d808019	0.06274433
91	0xbe21c113	-0.15796308
92	0x3e1d4993	0.15360098
93	0x3e3e1f42	0.18566611
94	0xbe05c14f	-0.13062023
95	0x3eb33b74	0.35006297
96	0x3e780cc6	0.24223623
97	0xbe27a215	-0.16370423
98	0xbe65c842	-0.22439674
99	0x3e7b99e8	0.2457043
100	0x3ece954d	0.40348282
101	0xbdada9a2	-0.084796205
102	0xbe9938f9	-0.2992628
103	0xbd957d9b	-0.07299348
104	0x3eb9d4e0	0.36295223
105	0x3ec84629	0.39116028
106	0x3daac603	0.08338549
107	0x3de6bd72	0.112666026
108	0x3e22f05a	0.15912
109	0x3ca622cb	0.020280262
110	0x3c4f9544	0.012669865
111	0x3e02d2e0	0.12775755
112	0xbe9b9344	-0.30385792
113	0x3e47be6a	0.19506231
114	0xbdb6eae0	-0.089315176
115	0xbe860dc3	-0.26182374
116	0xbe102449	-0.14076342
117	0x3e90203b	0.2814959
118	0x3e463037	0.1935433
119	0x3e2d3c4c	0.16917533
120	0xbe48ef26	-0.19622478
121	0xbb1d7cff	-0.0024030802
122	0xbdb388b7	-0.08766311
123	0x3e8c97b8	0.27459502
124	0xbecd16d3	-0.40056476
125	0x3d0b9567	0.034078028
126	0x3e5473f7	0.20747362
127	0x3db10a7c	0.08644578
