src/training_logs_ppo/initial/ppo_checkpoint_41_1764183786.pt (torch, 480089 bytes, 42 tensors)

move_logstd f4 [2]
000000 03 0b 4b 3f ce 51 4e 3f
       0.7931368 0.80593574

shared.0.weight f4 [128, 17]
000000 24 50 e2 3d 90 e1 0e be ec 36 24 be cf 3f 43 3e
       0.11050442 -0.13953233 -0.16036576 0.1906731
000010 1a 6d 4e 3e 66 bb 53 be 47 95 04 be ca 19 08 3e
       0.20158806 -0.20676956 -0.1294757 0.13291088
000020 0b 8d 5e 3e 82 2f 31 be f7 6a 26 3e aa 4e 09 be
       0.21733491 -0.17303279 0.16251741 -0.13408914
000030 79 84 36 bd 46 07 3a 3c 67 3d 3f 3d 88 f1 31 3e
       -0.04455993 0.011354273 0.046689417 0.17377293
000040 dc 84 27 be 35 1c 0b be e4 56 c0 bd 0b 96 81 3d
       -0.16359276 -0.13584979 -0.09391573 0.063274466
000050 5d dd 44 3d 3e d3 54 be ff c3 78 3e f8 fd 19 be
       0.04806267 -0.20783707 0.24293517 -0.15038288
000060 78 77 2a 3d 3a d1 17 be f2 65 62 be c8 32 cf bd
       0.04161784 -0.14825907 -0.22109202 -0.10117108
000070 8d c9 4a 3c 74 c1 31 3e 87 6b 96 3d f8 45 a0 3d
       0.012377155 0.17358953 0.07344728 0.078258455
000080 c0 3a c6 bd c0 a2 2a be 15 48 2f 3e 79 87 77 3e
       -0.096791744 -0.16663647 0.17117341 0.24172772
000090 ec fa fa 3d f1 28 8d 3d 71 cf 8b be d3 3f 5a be
       0.12254891 0.068925746 -0.27306703 -0.2131341
0000a0 a5 5b 69 bd d7 91 c2 bd c2 bb 34 3b d5 01 7c bd
       -0.056972165 -0.09500473 0.0027577733 -0.061525185
0000b0 34 de 1d be af 90 cf 3c 5d 83 6d 3e 9b d2 3f be
       -0.15416795 0.025337545 0.23194642 -0.18732683
0000c0 d4 f2 3c 3e 2b 6b 6f 3d 8e 1b 93 3d 43 7c 78 3d
       0.18452007 0.058451813 0.0718299 0.06066538
0000d0 d0 44 0b be 12 75 48 be 48 13 60 3d 5b 77 cb 3d
       -0.13600469 -0.19575909 0.054705888 0.099348746
0000e0 bd 18 df 3d f8 c7 fe 3d f4 f9 ad 3c 98 a3 35 3e
       0.1089339 0.12440485 0.021237351 0.17738187
0000f0 bc 9f 49 bd 7d ba 89 3d 7e 12 ed bc 16 53 7b bd
       -0.0492246 0.06725023 -0.028939482 -0.061358534
000100 d1 05 0f be 08 9f 10 3d 5e 6e 1e be b1 cb 65 3e
       -0.13967063 0.035307914 -0.15471789 0.22440983
000110 81 93 29 3e 83 50 2f 3e da 0a 4c be d4 e1 6a 3e
       0.16560175 0.17120557 -0.19926015 0.22937709
000120 8d bd 29 3d 56 d9 47 3e 7e 49 d4 bc 33 63 18 3d
       0.041440535 0.19516501 -0.02591395 0.03720398
000130 f2 99 18 be 49 6b 05 3e f3 c9 8f 3d 2f 2a d6 3d
       -0.14902475 0.13029207 0.07020941 0.10457265
000140 a7 fc c4 3d 8b 4d 5d 3d 7f 00 44 3c f6 16 a3 bd
       0.09618502 0.05402903 0.011963009 -0.07963364
000150 33 d5 ca 3d 4e 6a 64 bc 0d af d6 3d 34 19 1f bd
       0.09903946 -0.013941361 0.10482607 -0.038842395
000160 76 05 87 be 2a 7e 18 be 60 08 cd 3d 1f 31 38 3e
       -0.26371354 -0.14891878 0.10011363 0.17987488
000170 54 f4 1a be ad fd 4f 3e c2 dc 72 bc 46 9b 90 3d
       -0.15132266 0.20311613 -0.014823141 0.07060866
000180 4c bc c2 3d 6f 72 e3 3d b6 d0 26 be 33 b6 2d be
       0.09508571 0.11105811 -0.16290554 -0.16964035
000190 5a 88 ff bd 05 d9 ab bd c7 76 08 3d 29 6a 4b 3b
       -0.12477179 -0.083910026 0.0333164 0.0031038618
0001a0 1f 9c af bd 6d c4 dd 3d 28 84 a7 3d e0 5c ea 3d
       -0.085746996 0.10828481 0.08179504 0.11443496
0001b0 ad 2c 52 be 7a f6 e5 bd a8 c1 63 3e bb 15 91 3c
       -0.20524855 -0.11228652 0.22241843 0.017710557
0001c0 63 90 66 be 38 8c 47 be 1e fc 22 3d 7b 34 c7 bd
       -0.22516017 -0.19487083 0.03979122 -0.09726807
0001d0 a8 3f 80 3d 57 e2 ee bd 5a 14 a4 bd 11 08 10 be
       0.062621415 -0.11664265 -0.08011694 -0.14065577
0001e0 65 b4 b0 3b c0 2c e1 3b bf 74 07 3e f3 b5 f5 3c
       0.0053925985 0.0068717897 0.13228129 0.029993987
0001f0 df 5c 4b be c3 b3 5d be 8d 95 26 3e 62 77 99 bd
       -0.19859646 -0.21650605 0.16267987 -0.074934736
000200 f5 e1 37 be 3c 38 70 3d d9 1e c3 bc ef 32 3e be
       -0.1795729 0.05864738 -0.02381842 -0.18574117
000210 7d 1f 5d be 0e 52 54 3e eb f9 42 bb 66 d0 28 3c
       -0.21594043 0.20734426 -0.0029751013 0.010303592
000220 de 45 bc bd 16 da c4 3d 99 32 ab bc f7 80 62 3d
       -0.091930136 0.09611909 -0.02089815 0.05529877
000230 59 62 80 bc 0b 33 41 be 50 80 54 3b 72 47 75 3e
       -0.015671896 -0.18867128 0.0032425113 0.23953035
000240 bf 06 d7 3c 2e a0 6e be 8f 7b 9a 3d d0 89 f9 bd
       0.026248334 -0.23303291 0.07543098 -0.12184489
000250 ee f2 dc 3d a6 f2 1a be 02 c6 69 be 3d e1 8d 3d
       0.10788523 -0.15131626 -0.2282944 0.069277264
000260 8c 3a 32 be 95 2a 4a 3e 66 96 be bc a0 ae ec 3c
       -0.17405146 0.19742806 -0.023265075 0.028891861
000270 65 4c 42 be 8a 7c d9 bd 02 f9 43 bd 2e a8 d6 bc
       -0.18974455 -0.10619457 -0.047844894 -0.026203241
000280 88 8d 93 3d 13 d1 39 3e e3 09 60 3e 1c 05 09 be
       0.07204729 0.18146162 0.21878771 -0.13380855
000290 45 45 9d 3d 10 6c 55 be d7 de 38 be 8e 0c 39 3e
       0.07679228 -0.20842004 -0.18053757 0.18071195
0002a0 45 35 77 3d ac 84 63 3d 58 3c 05 be d5 a1 a7 3d
       0.060353536 0.055546448 -0.130113 0.08185164
0002b0 78 07 c8 bd a2 53 eb 3d 92 71 86 be 15 fe 23 3e
       -0.097670496 0.11490561 -0.26258522 0.16014893
0002c0 b4 f3 f8 bd 1d 8c 05 be 88 d4 4f be 8e 3c 2a be
       -0.12155858 -0.1304173 -0.20295918 -0.16624662
0002d0 77 b4 66 3e c3 5d 24 be 17 12 47 be ad c5 f2 3c
       0.2252978 -0.16051392 -0.19440494 0.029635275
0002e0 df a2 d1 3d 38 74 b9 3d b7 b7 06 be a1 6a 1d be
       0.10236143 0.0905537 -0.13156019 -0.15372707
0002f0 a5 19 27 be 57 61 43 3e bc 83 4a be 7d fd a9 3d
       -0.16318376 0.19080101 -0.19776815 0.08300302
000300 ab 22 02 3e 52 8a 6f 3e 9b 7d 64 3e f9 0b 42 bd
       0.12708537 0.23392609 0.2231354 -0.0473747
000310 5a 78 ff bc 55 8c 40 be e3 95 c4 3d 4e e8 dc bd
       -0.031185318 -0.18803532 0.09598901 -0.10786496
000320 00 fd ac bc c1 c4 95 bd 24 40 04 bd 20 cb 5a bd
       -0.021116734 -0.073129185 -0.03228773 -0.05341637
000330 47 29 8c bc 2a f1 40 be 64 d2 28 be 4a cc 10 3e
       -0.017109526 -0.18841997 -0.16486508 0.1414043
000340 a5 ec 1a bc c8 2a 4e be ff fa e2 3d 79 61 c4 bd
       -0.0094558345 -0.20133507 0.1108303 -0.09588904
000350 89 0e c0 bd 12 e0 e8 bc c0 90 d3 bd 61 11 b6 bc
       -0.09377772 -0.028427158 -0.10330343 -0.022225084
000360 cb 39 21 be 06 35 b1 bc 69 4c 3b 3c a0 4b bb 3d
       -0.15744703 -0.021631729 0.011431792 0.09145284
000370 00 ce 8f bd dd df 37 3e ef 0a 79 3c bf 10 56 be
       -0.07021713 0.17956491 0.015200361 -0.20904826
000380 db 27 1d 3e a4 6e d5 bc a5 4b 20 3e 9a 87 45 be
       0.15347235 -0.026053734 0.15653856 -0.19290009
000390 dc e7 a1 bb 81 78 8d 3d b9 79 0f bd ea 99 8e bd
       -0.00494097 0.0690775 -0.035028193 -0.069629505
0003a0 b4 9c 4a 3d 5b e6 76 3d fd 90 ca bb 64 61 d4 bd
       0.04946585 0.060278278 -0.0061818347 -0.10370138
0003b0 a1 e7 0b 3e b6 70 ad bd 32 c1 13 be 4a fb d1 3d
       0.13662578 -0.084687635 -0.14429167 0.10253008
0003c0 88 b1 7f bd 02 52 48 be 2c 6c ff bd cd b8 4d be
       -0.062425166 -0.19562533 -0.12471804 -0.20090027
0003d0 90 e1 3e 3e 8d 25 41 be f8 f0 3f 3e 7d 1a b2 3d
       0.18640733 -0.1886198 0.18744266 0.086964585
0003e0 09 68 45 3d 67 88 4a bc b2 a4 af bd ae bb 94 3d
       0.04819492 -0.012361622 -0.08576335 0.072623596
0003f0 e1 3f 33 3e f4 a4 55 be 10 b7 bc bd 20 c3 bc ba
       0.17504837 -0.20863706 -0.09214604 -0.0014401414

shared.0.bias f4 [128]
000000 69 e9 9f bc 67 7d 72 be 67 4a 16 bd 74 cf 29 be
       -0.019520478 -0.2368065 -0.03669205 -0.16583043
000010 f0 89 84 bd d4 19 5d 3d 27 e8 cc 3c f7 c9 5a 3e
       -0.06471622 0.05397971 0.025013043 0.21366106
000020 59 ea 7f be bd cc 32 3b 64 75 17 3e 91 47 35 be
       -0.2499174 0.0027282678 0.14790875 -0.17703082
000030 04 e4 04 3e e3 16 61 bd 3e 24 ff 3c f3 14 19 be
       0.12977606 -0.054953467 0.031145211 -0.14949398
000040 d2 27 56 bd 28 d8 48 3e 63 ca 0f 3e 3b 0b 30 be
       -0.05228407 0.19613707 0.14042048 -0.17191784
000050 dc 04 e2 3c 9d b7 bb 3c 67 43 66 3d 30 8e 8f 3d
       0.027590208 0.022914702 0.056216624 0.07009542
000060 54 95 bb bb 71 48 ef bd 32 f6 04 bc 35 be 4b 3d
       -0.0057245884 -0.11683739 -0.008115338 0.049741942
000070 87 d1 4d 3e ec 7c 58 be 80 fd 4f bc 1f 0a 69 be
       0.2009946 -0.21141404 -0.012694716 -0.22757767
000080 fc af b8 bd d9 6e 1f 3d 57 e0 57 be f6 2a 4c 3d
       -0.09017941 0.038924072 -0.21081673 0.04984566
000090 84 d9 37 be 24 e1 4e be a0 48 a0 bd 6c 7d 14 bc
       -0.1795407 -0.20203072 -0.07826352 -0.009063106
0000a0 5f e5 6e be 36 07 7b be a3 05 82 3d f8 32 ae bd
       -0.23329686 -0.2451447 0.06348731 -0.08505815
0000b0 51 6c 4c 3e 1d 02 81 be 05 40 5d 3e 16 73 8a be
       0.19963194 -0.25196925 0.21606453 -0.2704093
0000c0 3c 94 3d 3e 80 e8 a6 bd ee 2f 5e be 76 90 d0 bd
       0.18513578 -0.081498146 -0.21697971 -0.10183804
0000d0 8e 8d 18 be 52 df 28 3d 1c 09 1b 3c 46 79 39 3d
       -0.14897749 0.0412286 0.009462621 0.04528167
0000e0 b5 a1 2a 3e d4 64 44 be 6b 59 77 3c 5c bf 6b bd
       0.16663249 -0.19179088 0.0150970025 -0.05755554
0000f0 41 c6 f7 bc 76 6b d2 3a 7c 0e 5d bd 8b 41 14 be
       -0.030245902 0.0016053754 -0.05396889 -0.14478128
000100 d2 d7 64 be e3 9f 9a bd 90 e7 79 be 0c 0c 91 be
       -0.22347954 -0.07550027 -0.2440474 -0.28329504
000110 a2 dd 89 39 1b 28 c0 3d 83 57 68 be 35 7e fd bd
       0.00026295806 0.093826495 -0.22689633 -0.12377588
000120 6a 3e 80 3d 33 bf 3e 3e 79 c2 88 3d 9e 4b 83 bd
       0.062619045 0.18627624 0.06677718 -0.06410907
000130 d0 6d 51 3e 6f f8 74 be b1 78 e9 bd 2e 18 e0 bd
       0.20452046 -0.23922895 -0.11399973 -0.10942112
000140 c7 28 88 bd 14 ae 46 be 8f ad 89 be b1 e7 41 be
       -0.06648403 -0.19402343 -0.26890227 -0.1893604
000150 76 70 f6 bd 1e 34 9c bd 95 c9 a9 3d 2b ef 4a 3d
       -0.12033169 -0.07627128 0.08290402 0.049544495
000160 51 b0 b4 3c b6 88 50 be fc c9 8d 3d c4 0a 30 bd
       0.02205673 -0.20364651 0.06923291 -0.042979017
000170 5b 7c cb bd 51 4d 4d 3e 79 44 45 be 0f ff 21 3e
       -0.09935828 0.20049025 -0.19264401 0.15819953
000180 15 11 65 be d0 bf 4b be 42 ea 4d 3e 87 72 d1 bd
       -0.22369798 -0.1989739 0.20108894 -0.102269225
000190 4a db 56 3e b0 0c ec bd 59 a6 4f 3e 24 c9 8b 3d
       0.2098209 -0.115258574 0.202783 0.06825474
0001a0 41 ca f6 3d 35 96 3a bc e2 8a 1a bc e7 ab 9d bc
       0.120502956 -0.011388351 -0.009432526 -0.019247008
0001b0 85 7d 2c 3d 9f 47 0e be c3 1f 9c 3d e1 f7 18 be
       0.042111892 -0.13894509 0.076232456 -0.14938308
0001c0 29 c2 f7 bd aa 5a 85 be e7 7e 84 3b 2c 6f 35 be
       -0.1209758 -0.26045734 0.0040434483 -0.1771819
0001d0 69 08 ae bd 78 53 dd bc d6 52 85 be e0 1d 91 3d
       -0.08497698 -0.02701734 -0.2603976 0.07085776
0001e0 7d 3e 73 3c 3c d7 7d be 64 71 51 be 15 b7 40 be
       0.014846441 -0.24789137 -0.20453411 -0.1881984
0001f0 fc a0 fe bd 41 61 b6 3d 13 83 8a be 4f 8f 8b 3b
       -0.12433049 0.089052685 -0.27053127 0.004259027

shared.2.weight f4 [128, 128]
000000 dd 82 18 3d 86 e9 65 3d ef 22 8c 3d 3c 03 b2 bc
       0.037234176 0.05613091 0.068426006 -0.021730058
000010 61 1e 92 3d a6 9a 49 3d 73 9f 5b bd 80 30 3e 3d
       0.071347006 0.04921975 -0.05361886 0.046432972
000020 e9 c6 82 3b a1 a9 87 3d 6e 65 32 3c 94 0c 86 bd
       0.003990997 0.06624151 0.010888441 -0.06545368
000030 90 aa 9e bd 5c 93 50 3d fa fc b5 3c 6f 02 a1 3d
       -0.07747376 0.050921783 0.022215355 0.07861792
000040 5e f2 92 3b 3f fb bf bc 46 ea ee ba cf 80 90 3c
       0.004484459 -0.023435233 -0.0018227778 0.017639546
000050 7e 8b ad 3c 6b 6f 94 bd fc fc 68 bd c4 95 e5 3c
       0.02118468 -0.07247814 -0.05688189 0.028025515
000060 20 59 b2 3d 0a 05 84 bd 18 10 d0 bc d4 8d 29 bd
       0.087084055 -0.064462736 -0.0253983 -0.041395023
000070 13 04 eb bd 4b 84 50 bd 15 3e b3 bc a7 e2 cb 3b
       -0.114753865 -0.050907414 -0.021880189 0.0062220874
000080 78 37 0b 3c 7f 98 80 3b ce bf 40 3d 38 10 ad bc
       0.0084971115 0.003924429 0.04705792 -0.021125898
000090 e6 4b 69 3d 40 b9 ba bd 6d 23 68 3d 4d 5d a7 bd
       0.056957148 -0.09117365 0.05667441 -0.081720926
0000a0 62 2f 09 3d f2 4e c5 bd 70 9e a3 bd 0c 5e 49 3d
       0.033492453 -0.09634198 -0.07989204 0.049161956
0000b0 ea a1 42 3b 98 b6 9b bd 49 16 53 bd 7f d2 4e 3d
       0.002969856 -0.07603186 -0.051534925 0.050493713
0000c0 5f 44 ad bc 13 a9 97 bd bd 46 f1 3c 1e 52 0f bd
       -0.021150766 -0.07405295 0.029452676 -0.034990422
0000d0 0c 65 3d 3d 80 69 8c 3c 02 0b 63 bd c1 c7 7e 3d
       0.046238944 0.01714015 -0.05543042 0.06220222
0000e0 e1 53 54 3d 70 1f 95 bd 80 de e3 ba 57 da fe 3c
       0.051837806 -0.07281387 -0.0017385036 0.031109972
0000f0 c8 70 00 bd 45 49 27 bd 5e da 21 bd 65 b5 b1 bd
       -0.031357557 -0.04084136 -0.03951489 -0.086771764
000100 65 17 89 3d ad 89 59 3d 27 9a dc 3c f3 09 19 bc
       0.06693915 0.053109813 0.026928974 -0.009340751
000110 49 52 a4 bd ae ea eb 3c 38 d0 29 bd 11 d2 dc 3c
       -0.08023507 0.028798427 -0.04145834 0.026955636
000120 62 59 c0 bc 01 28 89 bd 24 9b 82 bd b6 0e 57 bd
       -0.023480121 -0.06697083 -0.06377247 -0.052504264
000130 db 1a 04 bd 1a 73 71 bd d7 97 b0 bc 36 6e 05 3d
       -0.032252174 -0.05894766 -0.021556778 0.03257581
000140 61 aa 39 bd ec 4c 13 bd 41 b1 01 be df 18 ca bd
       -0.0453285 -0.03596203 -0.12665273 -0.09868025
000150 20 7e b1 bb 5d be da bc 94 b2 2e 3a 3e 69 ed bd
       -0.0054166466 -0.0267021 0.00066641835 -0.11592339
000160 07 38 be bd d5 dc 03 bd e3 6e cd 3c 83 73 71 bd
       -0.0928803 -0.032193024 0.025077289 -0.05894805
000170 2d f8 16 3d 7b 36 4a 3d e7 1b 5e 3d 41 6b 2d bd
       0.036857773 0.049368363 0.05422583 -0.042338613
000180 c9 03 b2 bd 5d 6e eb 3c 07 66 69 bd 83 d5 de 3c
       -0.08692128 0.028739149 -0.056982066 0.02720142
000190 40 a2 ae bd 0d 29 ee 3c 09 7f e2 bd 2e 9c dc bd
       -0.085270405 0.029072309 -0.11059386 -0.107719764
0001a0 3d 16 b9 bd 25 d9 ad 3c 36 6c a2 bd 55 49 cc 3c
       -0.09037445 0.021221707 -0.07930796 0.024937311
0001b0 ed a8 be 3c 1b af 37 bd 94 9f 49 3c de 4b cb bc
       0.02327391 -0.044844728 0.012306113 -0.02481645
0001c0 a6 78 ac bd ef b3 27 3d 7a 3f cb 3b 88 5e b1 3a
       -0.08421449 0.040943082 0.0062026354 0.0013532201
0001d0 0e d1 1a 3d 78 f1 a6 bd 5f eb 62 bd cc f7 0b bc
       0.037797026 -0.08151525 -0.05540025 -0.008542966
0001e0 94 0d 60 bd c1 3c 0e bd 93 82 8e bd 8d d9 68 3c
       -0.05470045 -0.03472591 -0.06958499 0.014212024
0001f0 f6 0f 2c 3d a3 df 5b 3c 34 10 71 bd 1f 94 c8 bc
       0.04200741 0.013420018 -0.058853343 -0.024484692
000200 5b f3 2f bc 73 c8 f9 3c c2 5f 5f bd 56 a3 bb bd
       -0.010739173 0.03049109 -0.05453468 -0.09162013
000210 0c ae 03 3d e1 db 70 3d f4 31 1f bd bb df c2 3d
       0.032148406 0.058803443 -0.038866 0.095153295
000220 50 9e a3 3d 65 6c f4 3c 1b 5c ef bc a4 c2 bf bb
       0.0798918 0.029836843 -0.029218724 -0.0058520604
000230 ec bb 7c bd f9 c9 96 3d 6c 68 b4 3c 10 a2 91 3d
       -0.061702654 0.07362742 0.022022448 0.07110989
000240 67 91 03 3d 26 81 72 bd a0 95 04 bd 48 12 4f 3d
       0.03212109 -0.059205197 -0.032369256 0.050554544
000250 f3 2c bc bd b6 95 85 bb 51 ed f5 bc 97 66 a7 3c
       -0.09188261 -0.004076685 -0.030020388 0.02043466
000260 69 25 ae ba 1a e4 3a 3c e1 d2 56 3d a9 2d 46 bd
       -0.0013286296 0.011406923 0.052447204 -0.04838339
000270 b0 2f 11 bb 9d 72 b6 bc 3d 4a 17 3b ad 56 87 bd
       -0.0022153668 -0.022271449 0.002308502 -0.06608329
000280 9b a5 7f 3c 71 fc f5 bc 9c d2 db 3b 27 b4 8e 3d
       0.015603448 -0.0300276 0.006708456 0.06967955
000290 0e ba a4 bd 27 d7 2e 3d 8f d9 c7 bc 84 97 ec bd
       -0.080432996 0.042685654 -0.024395732 -0.11552337
0002a0 a3 35 85 bd d0 e4 fd 3c 57 cc 94 3d 4d 21 9a 3c
       -0.06504371 0.030992895 0.07265537 0.018814707
0002b0 8b 7b 6c 3d ed 4e 4d bd 6c 0e 76 3d 97 90 ab 3d
       0.057735007 -0.050124098 0.060072348 0.08377188
0002c0 12 a7 05 3d 37 5c 1b bd 5d e2 a2 bc af 60 72 bd
       0.032630034 -0.03792974 -0.019883329 -0.059174236
0002d0 bc 86 95 3d f8 c9 3b 3d df 16 75 3d 1a df 99 3d
       0.07301089 0.04584691 0.059836265 0.07513256
0002e0 9b b2 b8 bd a8 1d 58 3c 68 e5 6e bd 5a 21 a8 3d
       -0.09018441 0.013190664 -0.058324248 0.08209486
0002f0 bf f4 ba bc 23 56 bd bd de 82 02 bd 06 c4 92 3b
       -0.022821782 -0.09244945 -0.031863086 0.004478934
000300 cc 0b cb bb 82 9a d8 bc b7 02 6a 3d c8 e8 47 bd
       -0.0061964747 -0.026440863 0.057131495 -0.048805982
000310 8b 9e bd 3d 82 84 a8 3d 01 2c 53 3c 49 4a 4a 3d
       0.09258755 0.08228399 0.012888909 0.04938725
000320 50 ff 73 bc cd 79 80 3d 65 c7 b9 bd d3 a6 80 3c
       -0.014892414 0.06273232 -0.090712346 0.015704548
000330 3e 74 33 bd 6e 76 a2 bc 6b c1 28 3b 2f f6 ec bd
       -0.04381203 -0.019831862 0.0025750052 -0.11570393
000340 2d 07 46 3d 7f 15 58 3d 26 43 04 3c d0 e8 80 3d
       0.048346687 0.052754875 0.00807265 0.062944055
000350 8e 49 81 bd b9 1d 02 3d 16 b2 73 3d 8c 0b de bc
       -0.063128576 0.031766627 0.059496008 -0.027105115
000360 38 60 b8 3d 80 ed 41 bd 9d 1e 25 bc df d1 f5 3c
       0.09002727 -0.04734564 -0.0100781 0.0300073
000370 07 c8 76 bd ea 9b 81 bd 8d 69 83 bd c9 18 8e 3d
       -0.060249355 -0.06328566 -0.064166166 0.06938321
000380 56 19 86 3a e6 2d 98 3c 86 ac a2 bd 29 99 0a be
       0.0010230939 0.018576574 -0.079430625 -0.13534988
000390 12 c6 bc bd ed f1 ce 3c 65 e5 78 3d cc 17 46 bd
       -0.092174664 0.025261844 0.060765643 -0.04836254
0003a0 ff 0e c2 bc 71 b4 46 bd 01 14 a2 3d 7d b0 d1 bc
       -0.023688791 -0.048511926 0.07913972 -0.025596851
0003b0 51 f6 94 3c 7b 08 3d 3c c5 b8 b9 3d 63 d7 d5 bb
       0.018183859 0.011537666 0.09068445 -0.0065259202
0003c0 01 4a b4 3d 61 b0 c5 3c 3b 57 d1 3c 50 38 29 3d
       0.088031776 0.024131956 0.02555429 0.04131347
0003d0 be bd bd bc 1c 2a 7e bd 23 a7 95 3d c0 15 4c bc
       -0.023161765 -0.062051877 0.073072694 -0.0124563575
0003e0 1d cb 9f bd 2d aa cf bc aa 71 8d bd 2c 39 ab bc
       -0.07802413 -0.0253497 -0.06906445 -0.020901285
0003f0 b3 f7 61 3c e9 e5 c7 bd 42 3c a8 bd 0b e7 85 3c
       0.013791966 -0.09760649 -0.08214618 0.016345521

shared.2.bias f4 [128]
000000 2d 26 42 bd 86 2c 86 bd 1b bd c5 bd ab ad 41 3d
       -0.04739969 -0.06551461 -0.0965521 0.047284763
000010 e4 aa a2 3b 08 5d f5 3c 0f 69 3d 3d 2a ff 10 3d
       0.0049642194 0.029951587 0.04624277 0.035399593
000020 c3 c1 bd bd a9 76 06 3d 46 13 4e bd 2e 59 11 bb
       -0.09265473 0.032828007 -0.05031135 -0.00221784
000030 00 80 cf 3c 00 ae 68 bd 1f 39 18 3c b1 d1 b8 bd
       0.02532959 -0.056806564 0.0092909625 -0.090243705
000040 7c 83 91 bc 48 c3 4d bd ff 1d 87 3d 49 6a 85 bd
       -0.017762892 -0.050235063 0.06597518 -0.06514413
000050 43 cd c2 bd 49 79 6d 3d ca 22 57 bd 87 ae f0 3b
       -0.09511807 0.057976995 -0.05252341 0.007345024
000060 4f 9b 11 3c 0d aa 90 3c e9 ad 2a 3d 79 96 1a 3d
       0.008887126 0.017659212 0.04166976 0.03774116
000070 27 d7 80 bd 04 35 9f 3c 3a eb b5 bd 0e 12 3c 3c
       -0.06291037 0.01943446 -0.088827565 0.011478914
000080 a4 9f 7a 3d 25 2b 45 bc fc fd 00 bd fa aa 37 3d
       0.0611874 -0.012034212 -0.03149222 0.04484079
000090 67 4e 97 bd 6f 56 ee bc 74 49 a9 bd d3 2a 75 bd
       -0.07388001 -0.02909395 -0.08265963 -0.059855293
0000a0 68 a0 95 bd 49 84 9e 3c e3 e4 17 3d f9 89 84 bd
       -0.07305986 0.019350188 0.037083518 -0.06471629
0000b0 ac 79 ab bd e7 be 2f bd 28 5f e5 3c 0f d3 1e 3d
       -0.083728164 -0.042906668 0.027999476 0.0387755
0000c0 22 22 eb ba c6 71 84 bd 79 9e 37 3c e1 9c 4d bd
       -0.001793925 -0.06467013 0.011207216 -0.05019844
0000d0 c0 df d4 bd c6 26 8d bc 2d 5c 28 3b 92 fc 77 3d
       -0.103942394 -0.017230403 0.0025689707 0.060543604
0000e0 a4 97 69 3c aa dd ce bd 6b 48 4d 3c 75 5a 2a 3b
       0.014257345 -0.10100873 0.012529473 0.0025993858
0000f0 2d 6b 49 bc 4f 61 9f bc f3 2d 9e 3d ce 4a 02 bd
       -0.012293619 -0.01945558 0.07723608 -0.03180962
000100 7a 60 bb bd 60 12 49 bd 15 61 ac bc b2 ae d6 bc
       -0.09149261 -0.04908979 -0.021042386 -0.026206348
000110 44 7f ca bd c5 ba 57 3d e5 61 f3 ba 05 d0 84 bd
       -0.09887555 0.05266835 -0.0018568604 -0.06484989
000120 39 be c0 3c af 2e 3a 3d 58 bc eb bd bc d1 75 3d
       0.023528205 0.045454677 -0.11510533 0.06001447
000130 b8 85 79 3c 27 5d ce bd a7 d0 99 3b 6b df 9f 3d
       0.015229635 -0.10076361 0.0046940628 0.078062855
000140 f7 c9 91 bc e7 6e 10 3d 0f 0f 1d 3d 98 6a 6f bd
       -0.0177965 0.035262015 0.03834444 -0.058451265
000150 bd 02 d3 3c 58 d3 94 bc ef 12 12 3d a4 70 d7 bd
       0.025758142 -0.018167183 0.035662588 -0.10519531
000160 d1 c0 85 3d b4 1b c3 bd 01 2d de 3c c1 64 b3 bd
       0.065309174 -0.09526768 0.027121069 -0.08759452
000170 41 7c 55 3c 25 1d 67 bd 28 38 25 bd 94 76 22 3d
       0.013030113 -0.05642428 -0.040336758 0.039663866
000180 8f 1a 79 3d 24 de 8d bd a5 99 9d bc f5 5a 8f 3d
       0.060816344 -0.069271356 -0.019238302 0.069997706
000190 d0 ac 89 bd 3b 66 5c bc 6f de ac bc 51 b8 38 3d
       -0.067224145 -0.013452108 -0.021102158 0.045097653
0001a0 5b 74 5d bd bd 31 3a bd 4a f0 bf bd dc 42 ba bd
       -0.054066043 -0.04545759 -0.093720034 -0.09094784
0001b0 98 c1 5c bc 55 ac 21 3d b0 4a cf bd 47 4f 3c 3d
       -0.013473891 0.03947099 -0.101216674 0.045974042
0001c0 83 be 4d bd fc 15 fc 3c 80 3e 69 bd ff 6c e4 bd
       -0.050230514 0.030772202 -0.05694437 -0.11153602
0001d0 7f d3 50 bd b5 f6 6b bd c7 a4 00 bd 74 ec 7e bd
       -0.05098295 -0.057608325 -0.031407144 -0.062237218
0001e0 65 2e 6f bd 69 a1 4d 3d 2e 7b fb bb a7 d3 41 bd
       -0.058393855 0.05020276 -0.0076745963 -0.047320988
0001f0 48 58 a0 bd fd 1d 8e bd 45 ed 6b 3d 23 f9 6c bd
       -0.07829338 -0.069393136 0.057599325 -0.057854783

move_mean.weight f4 [2, 128]
000000 80 6b e2 b9 23 93 19 bc bb 1a 48 3d d4 6e c8 bb
       -0.00043186173 -0.009373459 0.048853617 -0.0061167274
000010 9c 7c e2 3c b1 c5 e9 3c 34 44 e0 3b 89 a8 16 bd
       0.027647309 0.02853665 0.006844068 -0.03678182
000020 02 03 d1 3c 89 ff 7a 3c 16 ef a5 bc 56 11 f6 3b
       0.02551413 0.015319713 -0.020255607 0.007509391
000030 67 f1 0d 3c a3 25 7d 3d 6e a4 d7 3b 29 50 29 3c
       0.008663512 0.06180347 0.006580881 0.010334053
000040 0f 64 30 3d 97 4b d0 bb f9 25 0b bd d2 55 8d 3c
       0.043064173 -0.0063566673 -0.03397176 0.017252836
000050 19 e7 51 3d b3 da 46 3d 2a d6 8d bd b6 6f 3a bc
       0.051245783 0.04854841 -0.06925614 -0.011379173
000060 82 1d d0 bb 59 61 33 3d 54 bf 8d 3d d9 8e 22 bb
       -0.006351174 0.04379401 0.069212586 -0.0024804382
000070 41 44 5c 3b 38 e8 00 3c 1f 5e 7c 3b 48 6e 8d bb
       0.0033610018 0.007867865 0.003850825 -0.004316125
000080 62 1c a9 3c be 68 98 ba 7b 42 2e 3d ce c8 03 3c
       0.020643417 -0.0011627895 0.04254387 0.008043481
000090 5c f2 5d bc 97 5c 82 3d 19 0f 5c bd 60 ab 05 3c
       -0.0135465525 0.06365316 -0.053725336 0.008158535
0000a0 95 5d 08 bd 90 0d 21 3d a7 bb 0b 39 7f fa 0a 3c
       -0.03329237 0.039319575 0.00013325979 0.0084825745
0000b0 37 b0 33 bc c5 85 2d bc 14 c0 0f bc 70 1c 41 bc
       -0.010967306 -0.010590975 -0.008773822 -0.011786565
0000c0 f4 0f 01 ba 53 e4 ab bb c4 40 0c 3b 1f c3 cc bc
       -0.00049233367 -0.005245724 0.0021400908 -0.024995385
0000d0 b6 f8 2e 3d 5c 08 cd bb c1 32 f0 3c 0d d7 f6 bc
       0.042717658 -0.0062571 0.029321076 -0.030131841
0000e0 ce ed 6b bd 8c cf 1d bd 60 98 03 3d af c0 49 3c
       -0.057599835 -0.03852801 0.032127738 0.012314006
0000f0 03 21 64 3d d4 ae b3 3c f2 b6 ca bc 77 37 c4 bb
       0.055695545 0.02193395 -0.024745438 -0.0059880572
000100 81 5a de bc d7 2f 70 b8 e7 d9 c2 3a ac 0b 05 bd
       -0.027142765 -5.7265013e-05 0.0014865965 -0.032481834
000110 c6 03 a0 bb 43 ab 44 3d 94 da c4 bc 07 16 39 3d
       -0.0048832623 0.04801489 -0.024030007 0.045187023
000120 66 51 0b bc c5 4a 25 3c 16 22 24 3c 03 98 20 3c
       -0.008503294 0.010088627 0.010017892 0.009801867
000130 6f 19 0d bc 5f a1 b1 bc a4 0c 7d 3d ea 0e f1 3c
       -0.008612021 -0.021683393 0.061779633 0.029426057
000140 97 1f 33 3c 62 ad 99 3d 39 9f 09 3c b0 69 8e 3c
       0.010932825 0.07503773 0.008399778 0.01738438
000150 f1 6e 4d 3d ac 83 00 3c 19 dd 15 3d 40 87 b9 bb
       0.05015463 0.007843893 0.03658781 -0.005661875
000160 88 f2 1b 3d 5b 0d 69 3c 18 cb 64 3d d5 98 10 bd
       0.038073093 0.014224376 0.055857748 -0.035302002
000170 5c 67 45 3c 59 30 61 bd 8a a4 00 3d e1 05 52 3d
       0.012048569 -0.05497775 0.031406917 0.051275138
000180 1d 30 6e 3d a9 32 b3 bc 3c 28 7b 3d 8c bb 6b 3d
       0.058151353 -0.021874743 0.061317667 0.057551906
000190 75 75 39 3d fc 23 19 3d bf 27 c7 bc a3 ce a2 3c
       0.04527803 0.037387833 -0.024310945 0.019873923
0001a0 57 1d f0 bb 7d f6 45 bb 8a fd 3c 3d 30 e6 04 3d
       -0.0073277163 -0.0030206733 0.04614023 0.032446086
0001b0 1a ce 96 bc 3b 77 63 bc 23 3a a2 3b 22 2b 3c bc
       -0.018408824 -0.013883407 0.004950778 -0.011484893
0001c0 4a 7f 30 bd 53 74 dd bc c0 9b 4a 3c 79 43 2f bd
       -0.043090142 -0.027033007 0.012366235 -0.042788956
0001d0 27 b8 88 3c 41 67 1c 3c 04 55 07 bd f5 2b 08 bc
       0.016689373 0.009546102 -0.03304006 -0.008311261
0001e0 6d 70 39 bc ff ac a6 bc ca 40 48 3d ae 4d cc bc
       -0.011318308 -0.020346163 0.048889913 -0.024939384
0001f0 ee b4 36 bb 29 fe 2d bc 17 97 ed ba bf 78 3c 3b
       -0.0027878839 -0.010619679 -0.0018126693 0.0028758494
000200 8b 6f 97 3b 88 5a 20 bd 52 35 6f 3d 65 16 1b bd
       0.0046214513 -0.039148837 0.05840046 -0.037863154
000210 56 28 25 3d b7 d4 33 3c 7d 2a 2b bc a9 f3 87 bd
       0.04032167 0.010976008 -0.010447142 -0.06638271
000220 e7 5f 15 bc 5d ac 31 bc 03 f7 61 bd 48 43 5d 3b
       -0.009117103 -0.010844317 -0.05516721 0.0033762027
000230 89 5b 83 3d f7 32 3f bc 02 a6 58 bc 8a cb bd bc
       0.06413943 -0.011669866 -0.013223173 -0.023168344
000240 d5 3a 66 3c 74 32 16 3d 72 50 c8 bc fd 37 02 3d
       0.014052113 0.03666921 -0.024452422 0.031791676
000250 fd c3 67 3d ca 3a 30 bc 84 77 53 3d c1 99 c6 3c
       0.056583393 -0.010756204 0.05162765 0.024243237
000260 04 0b 8c bc f7 d9 1e bd d5 c6 ed 3c d4 cf 56 3a
       -0.017095096 -0.038782086 0.029025475 0.0008194421
000270 12 ea 86 3c e7 9e d6 bc 77 e4 0a bb 79 b4 39 3b
       0.016469035 -0.026198817 -0.0021193305 0.002833633
000280 b2 05 a8 3b 1e 47 86 bc 9a 90 1f 3d 10 07 87 39
       0.005127632 -0.016391333 0.038956262 0.00025754469
000290 e9 7c f3 bb 2b 48 5a bd d0 8e 18 3d de 04 56 3b
       -0.007430662 -0.05329148 0.03724557 0.003265671
0002a0 93 1f 74 3c ae af f7 3c 46 3a 3c 3c 33 f8 1c 3d
       0.014900106 0.030235138 0.011488503 0.03832264
0002b0 e2 21 21 bd 24 61 3c 3c 2b 74 6c ba 93 76 10 bd
       -0.039338954 0.0114977695 -0.0009019996 -0.03526933
0002c0 6f b2 00 3d 43 96 f9 bc 38 99 36 3b c5 27 93 3b
       0.031420168 -0.030467158 0.0027862322 0.004490825
0002d0 0b f1 cf 3c fd 96 09 3d f8 34 08 3d ec 74 97 3d
       0.025383493 0.03359126 0.03325364 0.07395348
0002e0 3e 94 25 bd 53 6b 3b bc 1b 8d 12 3d c8 55 03 3c
       -0.040424578 -0.011439162 0.0357791 0.008016057
0002f0 8b 48 fd 3c 79 63 3d bc 0d 52 d4 bc c4 a6 85 bb
       0.03091838 -0.011559361 -0.025918031 -0.004078718
000300 1a 7a 1f 3d ae 24 45 bc 1f db ad bc 8c 5f cc bc
       0.038934804 -0.012032671 -0.02122265 -0.024947904
000310 a1 52 1f bc 11 7c 00 3c 2a 01 78 bd d3 97 75 bd
       -0.00972429 0.00784208 -0.060547985 -0.059959244
000320 f1 c0 06 bd d3 39 12 3d 58 83 bf bb 72 7b 58 bb
       -0.032898847 0.035699677 -0.005844515 -0.0033032564
000330 ed 31 dd bc 66 e7 b1 bc 8d 0b 70 bd 39 1b ac bc
       -0.027001346 -0.021716785 -0.058604766 -0.021009075
000340 64 4f 54 bc 58 2e 64 bd 87 db 3a bb a1 e6 08 bd
       -0.012958381 -0.05570826 -0.0028512196 -0.03342307
000350 8d bf 8a 3c c5 15 a6 bc d1 3b c5 bc 53 d8 f0 bc
       0.016937042 -0.020274052 -0.024076374 -0.029400026
000360 d8 ad 0b 3c b6 6f 5b bc 78 4d 29 bb 7c 90 25 3c
       0.008525334 -0.013393333 -0.0025833528 0.010105249
000370 e9 f0 8b 3a 49 d0 c2 3c 34 bb 22 3d 22 3b d8 3c
       0.0010676655 0.023780959 0.039729312 0.026395384
000380 68 ba 16 3d f0 c3 ea bc b5 a1 ff 3c fe f9 91 3c
       0.036798865 -0.028657883 0.031205038 0.0178194
000390 c5 25 54 3d 8b 3c 74 3d 80 b8 bb bc 0f 1d 24 3c
       0.051793832 0.05962805 -0.022915125 0.010016694
0003a0 5b 83 51 3d 6c 9c f3 bb 66 7b 92 bc c7 18 d1 3c
       0.05115066 -0.0074344184 -0.017881107 0.02552451
0003b0 ca 6a d2 bb 1b d0 e5 3c f8 45 d1 3c 4f 08 63 bb
       -0.0064214217 0.028053334 0.025546059 -0.0034642403
0003c0 01 3a 4f bd 69 3b 57 bd c8 83 4e 3d 11 5b 25 3c
       -0.050592426 -0.052546892 0.050418645 0.010092513
0003d0 1d 39 0e ba 25 8e 87 bb 99 81 e0 bc ed e9 1e bb
       -0.00054253807 -0.004136818 -0.027405547 -0.0024248317
0003e0 2d d2 5a bd d5 9d 9b 3c e1 dc a6 bd 0a 3d 5c 3c
       -0.053423095 0.018996159 -0.08147598 0.013442287
0003f0 8c fd 53 ba 54 5a 96 3c d2 0e c0 3b 92 a3 34 3d
       -0.00080867927 0.018353619 0.0058611417 0.044101305

move_mean.bias f4 [2]
000000 9e 21 3b bd ae 97 2e bd
       -0.045686357 -0.04262512

food_logits.weight f4 [3, 128]
000000 92 04 75 bd 57 65 e6 3c 15 98 86 3d 11 49 f4 bc
       -0.05981881 0.028124494 0.06571976 -0.029819997
000010 c5 ec 83 3d 56 be ea bc df 16 53 3c 80 4c 3d 3d
       0.064416446 -0.028655212 0.012883871 0.046215534
000020 78 0b e2 bc 03 e7 fb bc a7 32 3f 3d 07 83 ee bc
       -0.02759336 -0.030749803 0.046679165 -0.029115213
000030 82 56 84 bd 76 4f 56 bd 25 18 97 3b 2a 4a 30 3d
       -0.064618126 -0.052321874 0.0046110325 0.04303948
000040 72 5f 00 bd ba 1f 53 3d a0 b6 83 3d 63 6f 99 bd
       -0.031341024 0.05154393 0.06431317 -0.074919485
000050 35 6a 87 3d ce cc c6 3c d7 f5 65 bd 52 3e 35 b9
       0.06612054 0.02426758 -0.056142654 -0.00017284721
000060 29 36 f5 bc 24 ad 48 3d 4d ac 88 3d 41 4a 5b bd
       -0.029933052 0.048993245 0.06673489 -0.05353761
000070 aa 61 03 3c f3 5c 97 bc 86 4a 2d bd e1 66 0c 3c
       0.00801889 -0.018476939 -0.0423074 0.00856945
000080 10 02 33 3d fd 10 fc 3c a2 4a 9d 3c 98 8f 09 bd
       0.04370314 0.03076982 0.019200627 -0.033584207
000090 76 aa a2 3d 1a d0 84 3b d2 5d 2c 3d 1d 35 78 bd
       0.07942669 0.004053128 0.04208166 -0.060597528
0000a0 c2 a6 8e bd 88 f0 e8 3c 87 01 80 3d 2b 74 50 bb
       -0.069654 0.028435007 0.06250291 -0.0031807523
0000b0 42 06 30 3d cf b3 49 3d b4 be f5 bc 28 ba ab 3d
       0.042974718 0.049243744 -0.02999816 0.08385116
0000c0 39 b9 58 3d 03 4e e8 bc f1 f4 92 bd 8e 40 73 3d
       0.052911017 -0.028357511 -0.07175625 0.059387736
0000d0 30 d7 81 3d 6e 01 86 bb 89 50 8a bd 31 4b 2a bd
       0.06339872 -0.004089526 -0.06753642 -0.041575614
0000e0 75 5c f8 bb 46 bf 0e bc e0 2d 52 bb 5e 78 44 3d
       -0.007579381 -0.008712595 -0.00320708 0.047966354
0000f0 ee c3 43 bc 02 2e b8 bc 4f 30 4d 3d 88 dc be bb
       -0.011948569 -0.022482876 0.0500949 -0.005824629
000100 bb 51 9d 3d 67 8f 1d 3d 8f 24 89 3d 73 fb 28 3d
       0.076816045 0.038466837 0.06696426 0.041255426
000110 0b 5d f8 bb 9c d7 67 3d a7 18 8f 3c 3c 68 8f 3d
       -0.007579451 0.056602105 0.01746781 0.07002303
000120 d9 ef 06 bc a9 56 af 3c 08 40 9d 3c bc e9 5b bb
       -0.008235895 0.021403627 0.019195572 -0.0033556065
000130 55 88 7d 3d 0e 1a 6c 3d 28 db 6e 3d b3 ce 83 3d
       0.061897594 0.057642035 0.058314472 0.06435909
000140 d0 5d 4b 3d a8 e7 9d 3d 0c d5 81 3d 7a 90 5f 3d
       0.049650013 0.077102005 0.063394636 0.054581143
000150 36 82 c6 3b 2c 25 58 bd fc c3 24 3d 8c 35 ab 3d
       0.006058003 -0.052769825 0.040225968 0.08359823
000160 73 af f7 bc 74 45 24 3d 17 9b 06 bd 87 1f 9c bc
       -0.030235028 0.0401053 -0.03286275 -0.019058002
000170 0e 52 62 3d 1c 25 0c 3d a0 6c 54 bd 69 a4 e9 bc
       0.055254035 0.034215078 -0.051861405 -0.02852078
000180 db 1e d9 bb ba ab 00 3c 1b 62 77 bd d5 ca cd bc
       -0.0066259927 0.007853443 -0.060396295 -0.025121132
000190 be a8 98 bd 9d 77 27 bd a2 9f d7 3c 2a 6d 98 bc
       -0.0745406 -0.040885556 0.026321236 -0.018606741
0001a0 32 79 9a bd f7 b8 52 bd 8f f7 8c bd b1 19 94 3d
       -0.075426474 -0.051445927 -0.068831556 0.07231463
0001b0 f1 8d 7c bb 5a 68 70 3d 9f b5 8a bd 4c 08 f5 3b
       -0.0038536752 0.058693267 -0.06772923 0.0074777957
0001c0 e6 0d 9e bd 71 91 cb bc 5d 86 4a 3d f2 11 88 3b
       -0.07717495 -0.024849625 0.049444545 0.00415253
0001d0 93 74 e1 3c 68 4c 63 39 b1 ea a0 bc 85 ac df 3a
       0.027521407 0.0002167687 -0.01964316 0.0017064965
0001e0 7e 0c 92 bd ab 4a e4 3c 29 d2 b5 bc a6 9b 7b bd
       -0.07131289 0.027867636 -0.022194939 -0.061427735
0001f0 a6 ff 75 3c a7 38 20 3d b9 a7 b8 3c e4 6c 6b 3d
       0.015014565 0.039116528 0.022540914 0.057476893
000200 87 4d 35 bd 3c 20 4f bb a0 f3 29 bd e6 0a fb bc
       -0.04426339 -0.0031604907 -0.041492105 -0.030644845
000210 b5 d6 e1 bc c5 a4 1e 3d 5b 89 82 3c 93 58 78 3d
       -0.0275682 0.038731355 0.015934637 0.060631346
000220 d9 d7 52 bc dc 84 d3 bc 03 f5 d9 bc 52 62 29 3b
       -0.012868845 -0.025820188 -0.026606089 0.0025845957
000230 6f 1d 91 3c 19 0b c0 3d b8 69 ed bb ec 82 84 bb
       0.01771423 0.09377117 -0.0072452687 -0.0040439274
000240 2d 4f 1e 3d 03 1f 42 bd a3 41 99 bc 37 6f a8 bd
       0.038649727 -0.047392856 -0.018708056 -0.082243375
000250 de e0 b0 bc 89 c2 4d 3d 24 61 f1 bb 4a 3a 5e bd
       -0.0215916 0.05023435 -0.0073663164 -0.054254808
000260 2b 40 ab 3c 45 01 86 3d 2a 51 a6 bb ba 6a 40 bd
       0.020904621 0.06543211 -0.0050755935 -0.046976782
000270 75 62 f8 3a 34 b2 9b bc 78 b9 b8 bc 4a b4 25 3c
       0.0018950241 -0.019005872 -0.022549376 0.010113785
000280 ec b2 38 3d 0b 04 2a 3d bd b5 4e 3d 8e 4a 35 bd
       0.04509251 0.041507762 0.050466288 -0.044260554
000290 c5 d6 59 3d e3 94 9b 3d 23 c1 7c 3a 37 88 57 bd
       0.053183336 0.07596757 0.0009641817 -0.05262014
0002a0 11 9d 84 3c 9f c5 9d 3c 0b cf e6 bc d1 07 33 bc
       0.016188176 0.019259272 -0.028174898 -0.010927157
0002b0 49 a9 c5 bc 77 a8 9c 3d a6 46 de bc 7b 00 7f 3d
       -0.024128573 0.076493196 -0.027133297 0.062256318
0002c0 40 1b da bc 82 f5 9e 3c df 7d 9e bd db 99 d6 bc
       -0.026624322 0.019404177 -0.07738852 -0.02619641
0002d0 51 bf b0 3c 46 5d 97 3d 3c c2 b7 bc 3d 8c 93 bd
       0.021575602 0.07390837 -0.022431485 -0.07204483
0002e0 52 e1 70 3d e9 0c da 3c 95 bc 61 3d b1 37 49 3d
       0.058808632 0.026617484 0.055111486 0.049125377
0002f0 ab 0c 63 3d 29 90 eb b9 88 02 50 3d ac b2 d7 3c
       0.055432003 -0.000449301 0.050783664 0.026330315
000300 e3 94 83 3d 42 45 82 3d 60 67 65 ba ed 5e 98 bb
       0.06424882 0.06360866 -0.0008751061 -0.004649988
000310 f4 5d 0b 3d a1 02 62 3b 3a 62 c0 bb da 8b a4 bd
       0.034025148 0.003448643 -0.0058710845 -0.08034487
000320 57 b5 52 bd fe 4a d3 3c 9d 48 b5 3d 90 28 48 bd
       -0.05144247 0.025792595 0.088517405 -0.04886681
000330 4c c0 09 bd b2 5b fa 3a 31 ba aa 3d 7d 8d 56 3d
       -0.033630654 0.0019100814 0.083362944 0.052381027
000340 4e 74 70 3c 34 96 2b bd 81 e7 80 3d f0 c0 94 3d
       0.014676167 -0.04189129 0.06294156 0.072633624
000350 da 07 89 bd 25 4f 74 bd fb 56 99 3c bf bc 8c 3b
       -0.06690951 -0.05964579 0.018718233 0.004294961
000360 cc 76 83 bd 26 7f ab bc 07 c6 92 bc 49 33 a3 bd
       -0.06419143 -0.020934653 -0.017916692 -0.07968766
000370 a5 ad b4 3c a3 ce 79 3d da c5 f6 3b 27 69 10 3d
       0.022055456 0.06098808 0.00753091 0.03525653
000380 83 a4 8a bd b7 b8 1f bd 12 37 73 3d 86 12 2f bd
       -0.06769659 -0.038994517 0.05937869 -0.042742275
000390 11 97 c4 bd 79 dc 79 bc 25 58 c3 3d 3a d8 31 bd
       -0.09599126 -0.015250319 0.095382966 -0.0434191
0003a0 4b d9 94 3d 22 5c 44 bd 32 03 69 3c 54 bb 6a 3a
       0.07268008 -0.047939427 0.014221953 0.00089543057
0003b0 96 5e f8 b9 8c f5 06 3d b3 31 b9 bc 6c b5 81 3c
       -0.00047372718 0.032949015 -0.022606706 0.015833579
0003c0 72 13 c3 bc a4 24 5c bd e4 bb 23 bd c2 a3 1c 3d
       -0.023812983 -0.05374588 -0.03997411 0.03824211
0003d0 95 65 40 3d 03 1a 6e 3c 50 e4 56 bd bf 3f 62 3d
       0.046971876 0.014532569 -0.05246383 0.055236574
0003e0 ba e8 7a bc c8 1a 4e 3d 72 41 7f bd 19 98 27 bd
       -0.015314275 0.05031851 -0.062318273 -0.040916536
0003f0 14 92 ff 3c 9c 24 ed bc 8e 43 8f bc b4 d2 9a bc
       0.031197585 -0.02894812 -0.017488267 -0.0188993

food_logits.bias f4 [3]
000000 ee d4 09 bc 51 35 3c bd 3a 93 54 3d
       -0.008412583 -0.045949284 0.05189822

net.0.weight f4 [128, 17]
000000 93 8e 84 3d 0a 29 dc bd f0 55 0e be 9a 7c 74 bf
       0.064725064 -0.10750015 -0.1389997 -0.95502627
000010 73 3c ae 3e df 17 73 be 5c 09 ac be ae f0 c5 3d
       0.34030494 -0.23739575 -0.3360089 0.09665047
000020 9c 96 04 be bc 9a 05 3e d8 b0 74 3d df 75 af bd
       -0.12948078 0.13047308 0.059738964 -0.08567404
000030 e9 6c 54 3e ff 08 fe 3c cb 63 09 bd d8 dc 36 3e
       0.20744671 0.031010149 -0.033542436 0.17857683
000040 2c 76 58 3d 1c d7 18 3d 90 e5 13 be a3 15 4b be
       0.052847072 0.03731452 -0.1444304 -0.19832473
000050 4e 52 92 3e 95 9e 28 bd 57 1f 66 be 65 fb ca 3d
       0.28578418 -0.04116686 -0.22472893 0.09911231
000060 13 2a 87 3d 14 0b 9c 3e 98 0b cc 3c 2c 7b 3e be
       0.06599822 0.30477202 0.024907872 -0.18601674
000070 bd 13 21 be ce 29 62 be 5b d0 eb bc b7 08 42 3e
       -0.15730186 -0.2208626 -0.028785875 0.18948637
000080 a0 84 43 bd f2 ca c5 3d 94 71 a5 bd af 28 06 3e
       -0.047733903 0.09657849 -0.08078304 0.13101457
000090 c9 8d 41 bd 84 c7 20 3e 38 c4 c6 be b2 59 fd 3d
       -0.047254357 0.15701109 -0.38821578 0.12370624
0000a0 ea 8c fe 3d 66 a6 91 3d e0 ed 48 bd de ef 35 3e
       0.12429221 0.07111816 -0.04905498 0.17767283
0000b0 a6 a0 7a 3e c7 2c f8 3d 36 92 0f 3e d6 67 48 3e
       0.24475345 0.121179156 0.14020619 0.1957086
0000c0 f5 33 50 be 76 4a 50 bd bc 50 34 3d 10 2d 12 bd
       -0.2033232 -0.05085226 0.044022307 -0.035687506
0000d0 cc 9b de bd da cb a4 3e ad 98 98 be 40 53 12 be
       -0.1086956 0.32186776 -0.29803982 -0.1428957
0000e0 c8 88 ab bd e1 77 64 3e c7 76 3a be a5 fe 5e 3e
       -0.08375698 0.22311355 -0.18209372 0.21776827
0000f0 33 0c 21 3d 14 8e 80 be 03 23 80 be a1 9b 8c be
       0.039318275 -0.25108397 -0.25026712 -0.27462485
000100 a9 49 2d be 3c 2d 96 3d 47 b1 90 bd a1 03 63 3e
       -0.1692263 0.073328465 -0.07065063 0.22169353
000110 9e 66 80 3e 9e 19 a7 bd db ac 09 bc 0d 8e 05 bf
       0.2507829 -0.08159183 -0.008403028 -0.5216988
000120 eb b1 29 be 09 81 92 3d 48 d4 19 be 1e 94 4f be
       -0.16571777 0.07153518 -0.15022385 -0.20271346
000130 ce 48 83 be 80 d3 10 be 7b f7 47 be 4a a8 be 3d
       -0.25641483 -0.14143181 -0.19528 0.09309442
000140 65 52 38 be 50 bf 3b 3e 52 1b fa bb e0 1b 9c bd
       -0.18000181 0.18334699 -0.0076326514 -0.07622504
000150 ad 51 6a be bd d8 44 be e6 28 21 bd f3 da f7 3d
       -0.2288272 -0.19223304 -0.039345644 0.12102308
000160 cd a4 e4 3d 7d 48 9c 3d e7 66 99 be 75 37 6c be
       0.11164246 0.076310135 -0.2996132 -0.2306803
000170 61 bb 93 bd 68 cd 62 be 39 c0 2c be 4e 0a 26 3e
       -0.07213474 -0.22148669 -0.16870202 0.16214868
000180 50 4c 16 bd 4f 8b 58 be 45 77 a8 3d c1 15 00 be
       -0.03669387 -0.21146892 0.08225874 -0.12508298
000190 6e ee 1b be d6 a0 c7 bc a5 49 2f bd a0 72 e6 bd
       -0.15227672 -0.024368685 -0.042794842 -0.11252332
0001a0 35 cd 18 be c2 75 af 3f 69 95 b0 be ff 8b 90 bd
       -0.1492203 1.3707812 -0.3448899 -0.07057952
0001b0 8d 0f 37 3e 28 94 34 3e d8 a6 10 3e df 68 0e bd
       0.17877026 0.17634642 0.14126146 -0.03476798
0001c0 ac 63 2a 3e 20 aa e5 bb 1d 0f ad bc 03 88 32 bd
       0.16639584 -0.007008806 -0.02112537 -0.043586742
0001d0 5c 91 4b be 02 ad 04 be ef b1 f6 3d 23 ee 76 3e
       -0.19879669 -0.12956622 0.12045657 0.2411428
0001e0 47 d3 67 3d 98 83 46 be ac a2 9a bf b5 c1 3b 3e
       0.056597974 -0.19386137 -1.2080894 0.18335612
0001f0 7b 14 5b 3e f1 d2 f5 3c ed 58 9c 3e 97 ec 2f 3e
       0.21394531 0.030007811 0.30536595 0.17180096
000200 35 bd 26 3e 3c 03 27 bb a0 64 c0 bc 22 5d 5b be
       0.16283114 -0.0025484106 -0.023485482 -0.21422246
000210 86 ab af bd 06 c3 e6 3d 87 36 86 3d 43 19 bb bd
       -0.085776374 0.112676665 0.06553369 -0.09135678
000220 20 36 0f bd 1b b9 e3 bd 34 21 43 bd 6c 1e b1 be
       -0.034963727 -0.111192904 -0.047639087 -0.34593523
000230 84 24 61 3d d9 c0 5d 3e d8 e9 54 3e d4 a9 4d 3d
       0.054966465 0.21655597 0.2079233 0.05021079
000240 b4 0d bb 3c 61 9f eb 3d a1 cb f7 3d 11 57 26 be
       0.022833683 0.115050085 0.12099386 -0.1624415
000250 a2 45 08 3d 55 77 12 3e e9 aa 81 3e 81 71 ef bd
       0.033269532 0.14303334 0.25325707 -0.11691571
000260 a4 3f 36 be b3 f3 4e bc 67 a4 2a 3e e9 25 67 3d
       -0.17797714 -0.012631345 0.16664277 0.05643264
000270 28 21 9b 3f 2a b1 32 3e ec f6 48 be fb 7b b0 3b
       1.2119493 0.17450395 -0.19625443 0.0053858734
000280 99 0d 93 bc 32 4d 91 bc 94 d9 29 3d ce 79 61 3d
       -0.01795082 -0.017737005 0.041467264 0.055047803
000290 55 e8 10 3e 80 5a 2e be 4e d1 81 bd ab 67 70 3e
       0.14151128 -0.1702671 -0.0633875 0.23477046
0002a0 34 64 27 3e 3f c7 bc bc 7f 18 53 3e d1 03 dd bd
       0.16346818 -0.023044227 0.20614813 -0.107917435
0002b0 6b b5 a0 bd e5 05 70 3f b3 3a 1c 3e d0 49 92 bd
       -0.07847103 0.93758994 0.15256767 -0.07142985
0002c0 f5 27 00 bc 5e c6 43 bd c4 b8 db 3d 3a fe 3d be
       -0.0078220265 -0.0477966 0.107286006 -0.18554011
0002d0 c7 e0 69 be d8 13 d0 3c 4b 27 03 3e f6 9f 7f 3e
       -0.22839652 0.025400087 0.12807958 0.24963364
0002e0 b5 bf 00 3e 82 8c 8d 3d a8 e3 31 be 04 9c 1f 3e
       0.1257313 0.06911565 -0.17372 0.15586859
0002f0 8f 9c 38 be 83 7b b3 3e 16 cb 89 3d 50 56 34 be
       -0.18028472 0.3505517 0.06728189 -0.1761105
000300 09 4d a3 3d 04 b3 b8 3d 18 fe f5 3d 7a de 2f 3d
       0.07973678 0.090185195 0.12011355 0.04293678
000310 7c 69 5f 3c 80 04 49 be 01 5b 96 bd a0 12 3c 3e
       0.013635989 -0.19630623 -0.07341576 0.1836648
000320 e3 35 cb 3d 38 5f da 3c 37 d5 ee bd 09 3d 56 bd
       0.099223875 0.026656732 -0.11661761 -0.0523043
000330 82 43 1c 3d 8e 7b 03 3e 92 7e 05 3c 82 b7 96 3f
       0.038150318 0.12840101 0.0081478525 1.1774752
000340 d6 7c 2c be 20 3b b8 3d 13 d1 74 bc 80 cc 07 3e
       -0.16844496 0.08995652 -0.014942425 0.13261604
000350 4e b3 31 be 9d 76 51 3c 7d cc 60 3e 52 a0 f7 bd
       -0.17353556 0.012784627 0.21953006 -0.120911255
000360 7e c2 ef 3d cd fe 0a 3d ec a3 fc bd 0b 74 10 3e
       0.11707018 0.033934403 -0.12335953 0.14106767
000370 fe b6 4d bd 5e 70 ab bd 16 3b e1 3c 04 a1 03 3e
       -0.050223343 -0.08371042 0.027493995 0.12854391
000380 cc 30 32 be 46 9a c8 3e 31 e6 7a bc 2d cd 18 3c
       -0.17401427 0.391802 -0.015313671 0.0093262615
000390 07 40 80 3e b1 65 41 bd 96 9f 3c bd 2c a6 72 bd
       0.2504885 -0.04721612 -0.04605063 -0.059240505
0003a0 45 de ef bd 4e de 0a 3e eb 4a da 3d 6e 41 2c 3d
       -0.117123164 0.13561365 0.10658821 0.042054586
0003b0 a2 28 c7 3c 70 47 0b be eb b3 3b be 95 c0 ba 3d
       0.024311367 -0.1360147 -0.18330352 0.09118763
0003c0 25 48 62 bc c0 bc ca 3f ec 62 02 3e 24 85 34 3c
       -0.013811146 1.5838852 0.12733048 0.011018071
0003d0 3e c7 78 be 38 bb b0 3d 0e 42 7f 3e 4a 02 da 3d
       -0.24294755 0.08629459 0.24927542 0.10644968
0003e0 fc ac 82 be a4 e0 f2 bd 6e 5b 74 3d dd 8e bb 3d
       -0.25522602 -0.11859253 0.059657507 0.091581084
0003f0 80 36 2f 3e 3b 5c 09 be 3b 03 82 bd c7 03 28 be
       0.17110634 -0.1341409 -0.063482724 -0.16407691

net.0.bias f4 [128]
000000 ac 00 6a 3e 9a b6 27 bc 40 cb ca bd e3 98 06 be
       0.22851819 -0.010236407 -0.09902048 -0.13144259
000010 39 fa bc bc e2 a1 2e 3e 0c 0c 74 be 56 12 83 3d
       -0.023068534 0.17053941 -0.2383272 0.06399982
000020 b5 5c 52 be cb 86 82 be 97 10 ad 3d d1 7d 8e 3c
       -0.20543177 -0.25493464 0.0845043 0.017393978
000030 1b f4 ab 3d e4 18 d0 3c a4 6b a9 bd 5f 6f 9b 3d
       0.08396169 0.025402494 -0.08272484 0.07589602
000040 2d 1f 02 be f4 71 0f 3d 3d 94 d3 bd 23 a6 f9 bd
       -0.12707205 0.035020784 -0.103310086 -0.12189891
000050 00 30 81 be 09 48 2c be a7 c8 18 3e e7 9b 79 3e
       -0.25231934 -0.16824354 0.14920293 0.24375878
000060 8e 03 10 be 7a 0b aa bc 3e 75 4d be 99 f2 e5 3d
       -0.14063856 -0.020757426 -0.20064256 0.112279125
000070 3f 04 20 be 6a 0e 3d 3e ad 3b ce bc 89 37 0f 3e
       -0.1562662 0.1846253 -0.02517494 0.13986029
000080 42 a6 23 3d 19 07 d6 3d b6 5f 1d 3e 81 ff a7 3c
       0.039953478 0.104505725 0.15368542 0.020507576
000090 51 d0 7d bd f9 4d 0b be 3a a0 53 be fa 9a cf b8
       -0.061966244 -0.13603963 -0.2066659 -9.899396e-05
0000a0 d4 18 13 be 03 02 68 be 32 89 87 bd c3 d2 6d 3c
       -0.1436494 -0.22657017 -0.06617965 0.014515582
0000b0 20 01 1c 3d a0 88 23 be 52 17 6e be 66 8f 84 bd
       0.03808701 -0.15970087 -0.23251083 -0.064726636
0000c0 1d e4 a2 bd 54 fb 14 3e 7d af 1a be bb 55 80 be
       -0.079536654 0.14548999 -0.15106006 -0.25065407
0000d0 9d 08 82 3e da 1e b8 3d e5 0f 65 3e 4f 6c 65 be
       0.25397196 0.089902595 0.22369345 -0.22404598
0000e0 9d 29 d2 3d 70 21 2b 3c 5d 60 6c 3c 44 64 0d 3d
       0.10261843 0.010444984 0.014427272 0.03451945
0000f0 52 c9 90 3d 15 15 8f 3c c9 a9 4c be 30 5f 3a 3e
       0.07069649 0.017466107 -0.19986643 0.18200374
000100 26 5d 92 3d 5a e7 76 be 8e a6 68 be d1 6c 48 3e
       0.07146673 -0.24111691 -0.22719786 0.1957276
000110 14 a1 11 3e f0 98 6f be 5f ec 34 3c 9c ea 8a be
       0.14221603 -0.23398185 0.011042683 -0.27132118
000120 7f cf 1f 3d 25 18 96 be 09 74 6f 3e dd 99 23 bd
       0.039016243 -0.29315296 0.23384108 -0.039941657
000130 58 7a 1f 3e 32 ad 92 3c 2a 4d 6e 3d 45 d5 1e 3e
       0.15574014 0.017904852 0.058179058 0.15511043
000140 0d 0d 8d 3d a9 9a 29 3e 8f 82 06 3e 19 45 51 3e
       0.06887255 0.16562904 0.13135742 0.20436515
000150 72 1f 6a 3d 60 8f a7 3d 48 f0 41 be a8 61 42 be
       0.057158895 0.081816435 -0.18939316 -0.18982565
000160 8c b9 10 be a6 e4 ca 3d 19 bd af 3d bc 74 51 bd
       -0.1413328 0.099068925 0.085809894 -0.051136717
000170 06 f7 0b 3e 57 a9 7d 3d c1 42 e0 bd c4 93 6b 3e
       0.1366845 0.061929073 -0.10950232 0.23005587
000180 6c e2 2e 3e 41 5f 76 be f5 e7 39 be 18 69 74 3d
       0.1707856 -0.24059774 -0.18154891 0.059670538
000190 71 63 6b 3d dc a3 2e be d4 94 d2 bc cb a4 b3 3d
       0.05746788 -0.17054695 -0.025705732 0.08771666
0001a0 f9 d5 19 3e 82 ed ad bd f3 86 07 be f8 60 d4 bd
       0.1502303 -0.08492567 -0.13235073 -0.10370058
0001b0 24 82 8d be 06 57 f2 3d 6f a7 93 bd 14 79 7e 3e
       -0.27638352 0.11833005 -0.0720967 0.24850875
0001c0 6f cf 66 bc fe 22 af 3d c7 7c 02 be 6a 46 92 be
       -0.014087542 0.08551596 -0.12742911 -0.28569347
0001d0 c7 7b 2d be 07 47 94 3d 93 ad de bd db b6 4c 3e
       -0.16941749 0.0724011 -0.108729504 0.19991629
0001e0 6c a5 18 bd df ae bc bc 34 7a 4b be dc 61 39 3e
       -0.037267134 -0.023032604 -0.19870836 0.18103737
0001f0 cd f9 f8 bd 6c b2 f8 3b 00 ce 2c 3e 96 d0 cd 3d
       -0.12157021 0.007589629 0.16875458 0.1004955
