src/training_logs_ppo/initial/ppo_checkpoint_114_1764185386.pt (torch, 480155 bytes, 42 tensors)

move_logstd f4 [2]
0	0x3fa398f3	1.2781051
1	0x3fa76615	1.3078028

shared.0.weight f4 [128, 17]
0	0x3e18aaa5	0.14908846
1	0xbddcef12	-0.107877865
2	0xbe67cef8	-0.22637546
3	0x3e539995	0.20664056
4	0x3e2809f5	0.16410048
5	0xbe1b4274	-0.15162069
6	0xbd6568ca	-0.056008138
7	0x3ddc53e5	0.10758189
8	0x3e5f62ab	0.21814983
9	0xbe4345ab	-0.19069545
10	0x3dc0849f	0.094002955
11	0xbe1ba391	-0.15199114
12	0xbde0e9f0	-0.1098212
13	0xbd1ac3a1	-0.037784223
14	0x3d3dc78b	0.046332877
15	0x3dcc7b6b	0.099844776
16	0xbe0f06f4	-0.13967496
17	0xbd76a06c	-0.060211584
18	0xbdb3f20d	-0.08786402
19	0x3d4ceb9f	0.050029393
20	0x3d777ac1	0.0604198
21	0xbe89cd39	-0.26914385
22	0x3e61fa28	0.22068083
23	0xbe1325b2	-0.14369848
24	0x3c1fbd39	0.009749704
25	0xbde5dfea	-0.11224349
26	0xbe3396d9	-0.17538013
27	0xbe0e2978	-0.13883007
28	0x3ad61296	0.0016332443
29	0x3e480f2c	0.19537038
30	0x3d0923a3	0.03348125
31	0x3d6faa85	0.05851223
32	0xbdfada93	-0.12248721
33	0xbe08d6f5	-0.1336325
34	0x3e0e9188	0.13922703
35	0x3e86f2f8	0.26357245
36	0x3e02f8b5	0.12790187
37	0x3d7e3dfa	0.062070824
38	0xbeb4750e	-0.35245556
39	0xbe163dd1	-0.14672019
40	0xbd5e8806	-0.05432894
41	0xbdaea5f7	-0.08527749
42	0xbda00951	-0.07814277
43	0xbdfbcf1f	-0.122953646
44	0xbe0e5d37	-0.13902746
45	0x3cbfc667	0.023410035
46	0x3e5e0390	0.21681046
47	0xbe35130b	-0.17683046
48	0x3dda15f1	0.10648716
49	0x3d4a066f	0.04932254
50	0x3d5964c1	0.053074602
51	0xbbee8ab8	-0.00727972
52	0xbdf2a72f	-0.11848294
53	0xbe91703d	-0.28405944
54	0x3d87836c	0.066168636
55	0x3d644921	0.055733804
56	0x3e32615d	0.17419954
57	0x3e12085d	0.14261003
58	0xbb24cc44	-0.0025146166
59	0x3e350a2e	0.17679664
60	0xbd9037e2	-0.07041909
61	0x3db6fba6	0.08934717
62	0x3c2b11c1	0.010441245
63	0xbd1a2af0	-0.037638605
64	0xbdd61f2c	-0.10455164
65	0x3d219979	0.039453004
66	0xbde45b20	-0.11150193
67	0x3e3cb70d	0.18429203
68	0x3e1b3aba	0.15159121
69	0x3e080c8e	0.13286039
70	0xbe812763	-0.25225362
71	0x3e379d7c	0.1793117
72	0x3ca18583	0.019716984
73	0x3e322609	0.17397322
74	0xbd5a4b8d	-0.053294707
75	0x3d9b2943	0.075762294
76	0xbe23976e	-0.15975735
77	0x3e329806	0.17440805
78	0x3d7d5304	0.061846748
79	0x3dbcdbcc	0.092216104
80	0x3e074bc6	0.13212499
81	0x3cdfcbc5	0.027318845
82	0x3d11e4ba	0.03561852
83	0xbd5a863d	-0.053350676
84	0x3de8abe2	0.11360909
85	0xbdac7a85	-0.08421806
86	0x3d94c1bf	0.07263517
87	0xbda1f114	-0.0790731
88	0xbe65f63a	-0.22457209
89	0xbe69326a	-0.22773138
90	0x3dc04526	0.09388189
91	0x3e356262	0.17713311
92	0xbe1f0b40	-0.15531635
93	0x3e5c38fa	0.2150611
94	0x3c56e5e4	0.013116334
95	0x3dab2171	0.08355988
96	0x3de698b2	0.11259593
97	0x3dac8ccb	0.08425292
98	0xbe04d7d0	-0.12972951
99	0xbdcbbcc4	-0.099481136
100	0xbdc173b0	-0.09445894
101	0xbca01a14	-0.019543685
102	0x3cdae937	0.026722534
103	0xbcaf3248	-0.02138628
104	0xbdbea6f0	-0.093091846
105	0x3da8437a	0.08215995
106	0x3c6eba27	0.014570749
107	0x3dbc9432	0.092079535
108	0xbe8616a9	-0.26189163
109	0xbd92dfe4	-0.0717161
110	0x3e87043c	0.26370418
111	0xb9a1ef32	-0.00030886527
112	0xbe834790	-0.25640535
113	0xbe56aec4	-0.20965105
114	0x3d864391	0.06555856
115	0xbd8b57c9	-0.06803853
116	0x3b6104f5	0.003433523
117	0xbdc7bbf5	-0.09752647
118	0xbd455ebf	-0.04818606
119	0xbe376310	-0.17908883
120	0x3d4dfad5	0.05028804
121	0x3d259912	0.040429182
122	0x3df37944	0.11888364
123	0x3d134413	0.035953593
124	0xbe61ac9f	-0.22038506
125	0xbe487de8	-0.1957928
126	0x3e403a8c	0.18772334
127	0xbd7f31db	-0.062303405
128	0xbe29db9a	-0.16587678
129	0x3d88fd45	0.06688932
130	0xbb5fbfb0	-0.0034141354
131	0xbe3a1363	-0.18171458
132	0xbe2ec7ac	-0.17068356
133	0x3e2a8ec7	0.16656028
134	0x3c82b7fd	0.015956873
135	0xbd30ed09	-0.043194804
136	0xbdfea8ee	-0.124345645
137	0x3da82e5c	0.08211967
138	0xbc3eefd6	-0.011653861
139	0x3cdd17a8	0.02698882
140	0xbcabcba9	-0.020971136
141	0xbe39fd99	-0.18163146
142	0xbbb2cdc2	-0.005456657
143	0x3e753e0e	0.23949453
144	0x3d3a5244	0.04548861
145	0xbe80c969	-0.25153664
146	0x3d936d2b	0.071985565
147	0xbdb1145f	-0.086464636
148	0x3dc3e32e	0.095648155
149	0xbe11da8f	-0.1424353
150	0xbe589afa	-0.21152869
151	0x3da6ab76	0.08138172
152	0xbe2d52d5	-0.16926129
153	0x3e275ba6	0.16343555
154	0x3c9d620c	0.019211791
155	0x3d8e0082	0.069336906
156	0xbe8be279	-0.27321222
157	0xbe352668	-0.17690432
158	0xbda7a9d6	-0.081866905
159	0xbc5fb55a	-0.013654077
160	0x3dac635a	0.08417387
161	0x3e0e30be	0.13885781
162	0x3e808399	0.251004
163	0xbdcb6f0e	-0.099332914
164	0x3da07b01	0.07835961
165	0xbe670f23	-0.22564368
166	0xbe10ec3f	-0.1415262
167	0x3df25a3e	0.118336186
168	0x3d9d2575	0.0767316
169	0x3d596839	0.05307791
170	0xbe12a30c	-0.1432001
171	0x3dc18c48	0.09450585
172	0xbde4ed67	-0.111780934
173	0x3d77386a	0.060356535
174	0xbe420020	-0.1894536
175	0x3e2e1f4d	0.17004128
176	0xbdfb896a	-0.12282069
177	0xbe1b4393	-0.15162496
178	0xbe3c50f4	-0.18390256
179	0xbe30a01c	-0.17248577
180	0x3e833a30	0.2563033
181	0xbddd3698	-0.108014286
182	0xbe3805cf	-0.17970966
183	0x3d2c7c51	0.042110745
184	0x3dad4536	0.084604666
185	0x3dc1c363	0.09461095
186	0xbe02a376	-0.12757668
187	0xbdc9394a	-0.0982538
188	0xbe0d561c	-0.1380238
189	0x3df82045	0.1211553
190	0xbe2bc31e	-0.1677365
191	0x3d5505e2	0.052007563
192	0x3e560590	0.2090056
193	0x3e8292a4	0.25502503
194	0x3e7ce0b1	0.24695088
195	0xbd233fb3	-0.03985567
196	0xbd993495	-0.07480732
197	0xbe757b7b	-0.23972885
198	0x3dbfc5b6	0.09363882
199	0xbda1f378	-0.07907766
200	0xbd7e635f	-0.062106486
201	0xbd9fb163	-0.07797506
202	0xbd6c8bc6	-0.057750486
203	0xbda89c92	-0.082329884
204	0x3ba9dcdb	0.0051837987
205	0xbe031fde	-0.12805125
206	0xbe58b44a	-0.21162525
207	0x3da3982c	0.07988009
208	0xbce9e9fe	-0.028553959
209	0xbe692e19	-0.22771491
210	0x3e187d0f	0.14891456
211	0xbdad6e8b	-0.0846835
212	0xbd834a0f	-0.0641061
213	0x3d30e4cd	0.04318695
214	0xbe04deaa	-0.12975565
215	0xbb91dfac	-0.0044517126
216	0xbe0e1c3c	-0.13877958
217	0xbc551849	-0.013006278
218	0xbbc86b4a	-0.0061163055
219	0x3d8648e1	0.06556869
220	0xbdd67018	-0.10470599
221	0x3e10d92d	0.14145346
222	0x3cd62fc9	0.026145833
223	0xbe47319e	-0.19452521
224	0x3e0e85b6	0.13918194
225	0xbd9c35e7	-0.076274686
226	0x3e5dd618	0.21663702
227	0xbe514f1c	-0.20440334
228	0x3d2a61c0	0.041597128
229	0x3e0508d5	0.1299165
230	0xbcd98882	-0.02655435
231	0xbd8f18fa	-0.06987186
232	0x3d079cbb	0.033108454
233	0x3d968213	0.073490284
234	0x3cd9d635	0.0265914
235	0xbd7152fe	-0.05891704
236	0x3e2b0c6e	0.1670396
237	0xbdb295ac	-0.08719954
238	0xbdc75892	-0.0973369
239	0x3d775a00	0.060388565
240	0xbdd5bc2d	-0.10436282
241	0xbe2035df	-0.1564555
242	0xbe5457f1	-0.20736672
243	0xbe5cf380	-0.21577263
244	0x3e4f91ea	0.20270506
245	0xbe3b9d1a	-0.18321648
246	0x3e59c672	0.21267107
247	0x3dc9bd97	0.098506145
248	0x3d1fb93e	0.03899502
249	0xbd2eed54	-0.042706802
250	0xbd8e55bb	-0.069499455
251	0x3cf6a66d	0.030108655
252	0x3e384481	0.17994882
253	0xbe425856	-0.1897901
254	0xbdabe160	-0.08392596
255	0x3ad81982	0.0016487094

shared.0.bias f4 [128]
0	0xbddc22d6	-0.10748832
1	0xbe9b5239	-0.30336168
2	0xbddd84ab	-0.1081632
3	0xbe3c43f7	-0.18385302
4	0xbdc8797a	-0.09788795
5	0x3c049d28	0.00809411
6	0x3c3eb457	0.011639676
7	0x3e404b54	0.18778735
8	0xbe852ce7	-0.2601082
9	0xbd88b140	-0.06674433
10	0x3e11c30a	0.14234558
11	0xbe41c643	-0.18923287
12	0x3d3fed72	0.046857305
13	0xbd88e2fe	-0.0668392
14	0xbb842b55	-0.004033486
15	0xbe1bde4a	-0.15221515
16	0xbdaf1385	-0.08548645
17	0x3e43948f	0.1909964
18	0x3e00cda1	0.12578441
19	0xbe6127b9	-0.21987809
20	0xbd3824a4	-0.04495682
21	0x3c2b9ccf	0.010474398
22	0xbcfd2780	-0.030902624
23	0x3d19bfe0	0.037536502
24	0xbd206a31	-0.039163772
25	0xbe0c858c	-0.13722819
26	0x3ce2c7ff	0.027683256
27	0x3c2839d0	0.01026769
28	0x3e1a86d7	0.150905
29	0xbe62f8f6	-0.22165284
30	0xbc2bd763	-0.010488364
31	0xbe76012b	-0.24023883
32	0xbdb83e53	-0.089962624
33	0xba7ca6a3	-0.0009637868
34	0xbe5a6860	-0.21328878
35	0x3c54e9f7	0.012995235
36	0xbe270700	-0.16311264
37	0xbe8f6e8d	-0.2801403
38	0xbd7dd1bc	-0.061967596
39	0xbd5b88f5	-0.05359741
40	0xbe8c1738	-0.27361465
41	0xbe8dcbdc	-0.27694595
42	0xbce8bbb1	-0.02840981
43	0xbe03b569	-0.12862171
44	0x3e0c5a03	0.13706212
45	0xbe8a73b8	-0.2704141
46	0x3e6140d0	0.2199738
47	0xbe7d1b14	-0.2471736
48	0x3e030cda	0.12797871
49	0xbdddc70a	-0.10828979
50	0xbe8191bb	-0.25306496
51	0xbdf8a8b8	-0.121415555
52	0xbe24c864	-0.16092068
53	0xbc2a2252	-0.010384159
54	0xbae003ca	-0.0017090973
55	0xbc807d1a	-0.015684653
56	0x3dc92333	0.09821167
57	0xbe650829	-0.22366394
58	0xbd91fe72	-0.0712861
59	0xbdddaacd	-0.10823593
60	0xbd243301	-0.040087704
61	0xbd38d036	-0.04512044
62	0xbdda9dbd	-0.106746174
63	0xbdf2e7f5	-0.118606485
64	0xbe7431b5	-0.23847087
65	0xbdb88484	-0.0900965
66	0xbe8a33de	-0.26992697
67	0xbebc912a	-0.368295
68	0xbd5b4c64	-0.05353965
69	0x3cd0cb2f	0.02548751
70	0xbea533cf	-0.3226609
71	0xbe5dbefd	-0.21654887
72	0x3d2dec11	0.04246146
73	0x3e31adc8	0.17351449
74	0x3d0c437f	0.034244057
75	0xbde310d1	-0.11087192
76	0x3e545c82	0.20738414
77	0xbe69d178	-0.22833812
78	0xbe1ffef3	-0.15624599
79	0xbdda099d	-0.10646365
80	0xbdb1e951	-0.0868708
81	0xbe5fadf1	-0.21843697
82	0xbeb4cc3e	-0.35312074
83	0xbe4afee5	-0.19823797
84	0xbdf35ffb	-0.11883541
85	0xbdd25e55	-0.10271899
86	0x3ca48248	0.020081654
87	0xbb8314e6	-0.004000294
88	0xbd685c31	-0.056728546
89	0xbe499f4e	-0.19689676
90	0x3d6f2fca	0.058395185
91	0xbd8f7201	-0.070041664
92	0xbe081da2	-0.13292554
93	0x3e410d78	0.18852794
94	0xbe734f96	-0.23760828
95	0x3e0861e7	0.13318597
96	0xbe69f528	-0.22847426
97	0xbe87e163	-0.26539144
98	0x3e5f57c3	0.21810822
99	0xbdcd7aa9	-0.10033161
100	0x3e524226	0.20533046
101	0xbdf4beb0	-0.11950433
102	0x3e102823	0.14077811
103	0x3d4b9d11	0.049710337
104	0x3dd27a54	0.102772385
105	0xbd13fef5	-0.036131818
106	0xbd3eecf9	-0.046612713
107	0xbd90842c	-0.0705646
108	0xbc9dda0c	-0.019269012
109	0xbe19ca7f	-0.15018652
110	0x3b95ee10	0.0045754984
111	0xbe672b99	-0.22575225
112	0xbe3552c3	-0.17707352
113	0xbe89bc91	-0.26901677
114	0xbcc0ba3a	-0.0235263
115	0xbe2d1bf2	-0.16905192
116	0xbe15e85c	-0.1463942
117	0xbd28332c	-0.041064426
118	0xbe8aa6b9	-0.27080324
119	0x3d037c18	0.032100767
120	0xbc996a61	-0.018727483
121	0xbe95d21c	-0.29261863
122	0xbe42ad46	-0.19011411
123	0xbe425a36	-0.18979725
124	0xbe12d8c8	-0.14340508
125	0x3d8251da	0.06363268
126	0xbe9d6e88	-0.3074839
127	0xbbbe0c15	-0.00579978

shared.2.weight f4 [128, 128]
0	0x3cd1561a	0.025553752
1	0x3d467d5e	0.048459403
2	0x3d68029d	0.056643117
3	0xbcb2033c	-0.021730058
4	0x3d86cbad	0.06581817
5	0x3d599048	0.053116113
6	0xbd3484a6	-0.044071816
7	0x3d0d374a	0.034476556
8	0xbc78b9f2	-0.015181052
9	0x3d82b2cf	0.06381761
10	0xbb09bc74	-0.0021016868
11	0xbda419ef	-0.08012759
12	0xbda852a2	-0.08218886
13	0x3d0fc242	0.035097368
14	0x3cdc3ff3	0.026885962
15	0x3daa818f	0.083254926
16	0x3d13994e	0.036034875
17	0xbd132b3c	-0.035929903
18	0xba96d7fb	-0.0011508459
19	0x3b31d2be	0.0027133669
20	0x3c41724e	0.0118070375
21	0xbdbc8a34	-0.09206048
22	0xbd8c5cca	-0.068536356
23	0x3ccc718a	0.024956483
24	0x3da9be49	0.08288247
25	0xbda86118	-0.08221644
26	0xbcc2e557	-0.023790998
27	0xbbe1fa24	-0.006896274
28	0xbdfdd298	-0.12393683
29	0xbd80a1e3	-0.062808774
30	0xbca18c09	-0.019720094
31	0x3c628174	0.013824809
32	0xbc4cd768	-0.012502529
33	0xbba9290a	-0.005162363
34	0x3d818321	0.06323839
35	0xbd01bbb1	-0.031673137
36	0x3d843c73	0.06456842
37	0xbdc69fd5	-0.09698454
38	0x3d41ec65	0.047344584
39	0xbd95ee96	-0.07320897
40	0x3ca7f12f	0.020500747
41	0xbdcdacd6	-0.100427315
42	0xbdab6cdc	-0.08370373
43	0x3d36d770	0.04463905
44	0xbb24c4ed	-0.002514179
45	0xbda0ce6e	-0.07851873
46	0xbd85aefe	-0.06527518
47	0x3d341381	0.043963913
48	0xbcd11c42	-0.02552617
49	0xbda9e483	-0.08295538
50	0x3cd4b630	0.02596578
51	0xbd752fe1	-0.059860114
52	0x3d1af205	0.037828464
53	0x3beead0c	0.0072838124
54	0xbce70ec3	-0.028205281
55	0x3d520083	0.05127002
56	0x3d3816f3	0.04494376
57	0xbd808d3d	-0.06276939
58	0xbc03bac1	-0.008040131
59	0x3d143651	0.036184613
60	0xbd1648b4	-0.03669043
61	0xbd548057	-0.051880207
62	0xbd0b7f70	-0.03405708
63	0xbd5b016a	-0.053468145
64	0x3d8047e6	0.062637135
65	0x3d486096	0.048920237
66	0x3b93ab66	0.0045065163
67	0xbca2c052	-0.019867096
68	0xbdcbf9f2	-0.09959783
69	0x3b91a000	0.0044441223
70	0xbd4f78ba	-0.050652243
71	0x3cc1857c	0.02362322
72	0xbcc12a80	-0.023579836
73	0xbd90aa77	-0.070637636
74	0xbd80eb6b	-0.062949024
75	0xbd58bfd8	-0.05291733
76	0xbd4592e1	-0.048235778
77	0xbd971f2c	-0.073789924
78	0xbd20bab4	-0.039240554
79	0x3d163e40	0.03668046
80	0xbd09a4f9	-0.033604596
81	0xbd1e899b	-0.03870545
82	0xbe01b141	-0.12665273
83	0xbdc60704	-0.09669307
84	0xbcb95f10	-0.022628337
85	0xbd156611	-0.03647429
86	0xbc78e106	-0.0151903685
87	0xbe0dabc8	-0.1383506
88	0xbdb954bb	-0.09049364
89	0xbd019d6a	-0.031644262
90	0x3c9f590c	0.01945164
91	0xbd575c80	-0.05257845
92	0x3cc3d3fa	0.02390479
93	0x3d100aa4	0.035166398
94	0x3d508161	0.050904635
95	0xbd3fc2f4	-0.04681678
96	0xbdc215e0	-0.094768286
97	0x3b98aeb6	0.004659499
98	0xbd85a8d6	-0.065263435
99	0x3d147d01	0.036252026
100	0xbdaaa8db	-0.08332988
101	0x3d003371	0.03129906
102	0xbe17c447	-0.14820968
103	0xbde86f8e	-0.11349402
104	0xbd9f467b	-0.07777115
105	0xbb003dd1	-0.0019568095
106	0xbdc44a74	-0.09584513
107	0x3c412f19	0.011791014
108	0x3d952034	0.07281533
109	0xbd82de95	-0.063901104
110	0x3d180a4a	0.037119187
111	0xbd0cfe67	-0.034422304
112	0xbdc5414c	-0.09631595
113	0x3d0af13c	0.033921465
114	0x3a2109a3	0.00061430986
115	0xbc797a9f	-0.015226989
116	0x3d10f036	0.035385333
117	0xbdc6583c	-0.09684798
118	0xbd867b61	-0.065665014
119	0xbc6a0526	-0.014283454
120	0xbd355546	-0.044270776
121	0xbd4f42e3	-0.050600898
122	0xbd6270a1	-0.055283193
123	0x3c5f64e6	0.013634896
124	0x3cf7a753	0.030231154
125	0x3c93fe93	0.018065726
126	0xbd89b8fa	-0.067247346
127	0xbcd27402	-0.025690082
128	0xbd2e0cab	-0.04249255
129	0xbb53359c	-0.0032227999
130	0xbdb6af51	-0.08920158
131	0xbdee5eae	-0.116391525
132	0x3c8a803b	0.016906848
133	0x3d41d776	0.04732462
134	0xbda558a7	-0.0807355
135	0x3d82f14e	0.063936815
136	0x3d8526fc	0.06501576
137	0x3befe1cf	0.0073206197
138	0xbd8d823c	-0.06909606
139	0xbcb6a244	-0.022294171
140	0xbdefab5a	-0.117026046
141	0x3d1fb54c	0.038991258
142	0x3c9507d4	0.01819221
143	0x3d5683ff	0.052371975
144	0x3ce19a36	0.027539354
145	0xbd94a26c	-0.07257542
146	0xbd1a28f6	-0.03763672
147	0x3cc6deb3	0.024276113
148	0xbdcfa1cc	-0.10138282
149	0xbcca4093	-0.024688995
150	0xbd8189a8	-0.06325084
151	0x3c8488ae	0.016178455
152	0xbbc1ae31	-0.005910658
153	0xbc0d8f6d	-0.008640152
154	0x3d12a6c3	0.035803568
155	0xbd9da1f3	-0.07696905
156	0xbd3b1829	-0.045677338
157	0xbd532961	-0.051553134
158	0xbd5b020d	-0.053468753
159	0xbdbbd560	-0.091715574
160	0xbc489534	-0.012242604
161	0xbd88f439	-0.06687207
162	0xbd24c3b9	-0.04022572
163	0x3d2160d2	0.039398976
164	0xbddc6dd8	-0.107631385
165	0x3ca489a6	0.020085167
166	0xbd529e80	-0.05142069
167	0xbdf19d73	-0.11797609
168	0xbdd07ed6	-0.10180442
169	0xbba40be1	-0.005006299
170	0x3d61fbc0	0.055171728
171	0xbc08ad1e	-0.008342056
172	0x3d2d07a8	0.04224363
173	0xbd9f40a2	-0.077759996
174	0x3d7c8ff2	0.061660714
175	0x3d7ae261	0.061251048
176	0x3b8349c8	0.004006598
177	0xbd6aa1cf	-0.05728322
178	0xbd9b5379	-0.075842805
179	0xbd8cb60e	-0.06870662
180	0x3d658388	0.05603364
181	0x3cdf1017	0.027229352
182	0x3d389ce2	0.04507149
183	0x3d7481c5	0.05969407
184	0xbdc0bf87	-0.09411531
185	0xb933c718	-0.00017144938
186	0xbd96c46a	-0.07361682
187	0x3d347ab6	0.04406234
188	0xbd65bc1a	-0.05608759
189	0xbde3c7fd	-0.11122129
190	0xbd6cea79	-0.057840798
191	0xbbc2b395	-0.005941818
192	0xbd16ccb0	-0.0368163
193	0xbd885c76	-0.066582605
194	0x3d000798	0.031257242
195	0xbd8bb8f4	-0.068223864
196	0x3d9ac4c9	0.07557065
197	0x3d67c21b	0.056581598
198	0x3b91e8b0	0.0044527873
199	0x3d626e97	0.055281248
200	0xbd8460de	-0.064637884
201	0x3cf8ed2d	0.030386532
202	0xbdfd8d47	-0.12380462
203	0xbcacd821	-0.021099152
204	0xbd944850	-0.07240355
205	0xbd2bda5a	-0.041956283
206	0xbd3517c6	-0.044212125
207	0xbe1b9e31	-0.15197064
208	0x3ced094b	0.028935095
209	0xbab7729c	-0.0013995948
210	0xbba7a508	-0.005116109
211	0x3ccc4dba	0.024939407
212	0xbd9dfccb	-0.07714232
213	0xbbe0b3a6	-0.0068573533
214	0x3d158f2e	0.0365135
215	0xbd337831	-0.043815795
216	0x3d8776ba	0.06614442
217	0xbd825056	-0.06362979
218	0xbcdd4985	-0.027012596
219	0x3b6fa705	0.0036568057
220	0xbdafa002	-0.08575441
221	0xbdaf22f7	-0.08551591
222	0xbd967e5a	-0.073483184
223	0x3d019cc7	0.031643655
224	0xbce067ea	-0.0273933
225	0x393504fe	0.00017263365
226	0xbdc9d147	-0.098543696
227	0xbe1c24dc	-0.15248436
228	0xbe02fd22	-0.12791875
229	0x3a70b8d1	0.0009182813
230	0x3d3def14	0.04637058
231	0xbd72978f	-0.05922657
232	0xbd4d0aa5	-0.05005898
233	0xbd876b7a	-0.066122964
234	0x3d608e91	0.054823462
235	0xbcf67d03	-0.030088907
236	0x3b3a64f3	0.0028441518
237	0xbc58f458	-0.01324185
238	0x3d7cb405	0.061695118
239	0xbd7c486c	-0.061592504
240	0x3d92b715	0.071638264
241	0x39fc8524	0.00048164383
242	0xbbbeb44a	-0.005819832
243	0x3b9f91ca	0.0048696743
244	0xbd0a096d	-0.033700395
245	0xbd99aad1	-0.07503284
246	0x3d1fde05	0.039030094
247	0xbd150ced	-0.03638928
248	0xbdd6a578	-0.104807794
249	0xbd193bc6	-0.03741052
250	0xbdc5a8ff	-0.09651374
251	0xbd8253b9	-0.06363625
252	0xbc25ce28	-0.010119952
253	0xbdcdaf4d	-0.100432016
254	0xbdf2dfb2	-0.11859073
255	0xbcde2671	-0.02711794

shared.2.bias f4 [128]
0	0xbd5fc37f	-0.0546298
1	0xbdca48e4	-0.09877184
2	0xbde9e75a	-0.1142108
3	0x3d03c042	0.032165773
4	0xbc836623	-0.016039914
5	0x3cc63454	0.024194874
6	0x3d3d690f	0.04624277
7	0x3d46b49f	0.048512097
8	0xbde9fb7a	-0.114249185
9	0x3c8cb018	0.017173812
10	0xbdb4b7b2	-0.088240996
11	0xbccaaa0c	-0.024739288
12	0x3c82378a	0.015895624
13	0xbd78ea89	-0.060770545
14	0xb9cdabed	-0.00039228742
15	0xbdf61670	-0.12015998
16	0xbca021d2	-0.019547377
17	0xbdafdf69	-0.08587534
18	0x3ccfe0b9	0.02537571
19	0xbd9d8b2e	-0.07692562
20	0xbdcbadef	-0.099452846
21	0x3d5ff7f2	0.05467982
22	0xbda3714d	-0.07980595
23	0xbad9e617	-0.0016624358
24	0xbc7acb64	-0.015307281
25	0x3c1b79a4	0.009489451
26	0x3d157404	0.036487594
27	0x3cabb68f	0.020961074
28	0xbd99d461	-0.07511211
29	0xbc9ea4e5	-0.019365737
30	0xbdd05fe7	-0.10174542
31	0x3b2e87b9	0.002663119
32	0x3d2b03e7	0.04175177
33	0xbcc55b72	-0.024091456
34	0xbd35dd94	-0.044400766
35	0x3cfec093	0.031097686
36	0xbdb1ebbb	-0.0868754
37	0xbcee566f	-0.02909395
38	0xbdbc1220	-0.091831446
39	0xbd9800c9	-0.07422025
40	0xbd95a068	-0.07305986
41	0xbc08cc8b	-0.008349548
42	0x3d17e4e3	0.037083518
43	0xbdaec993	-0.08534541
44	0xbde4e8da	-0.111772254
45	0xbd818186	-0.06323533
46	0x3bf69fe6	0.0075263856
47	0x3cfff99a	0.031246949
48	0xbcb040f5	-0.021515349
49	0xbdbdb399	-0.09262771
50	0x39dabca9	0.00041720763
51	0xbd4bb7e3	-0.049735915
52	0xbddee72c	-0.10883936
53	0xbc8d26c6	-0.017230403
54	0xbc657fd2	-0.0140075255
55	0x3d542d6e	0.051801138
56	0x3b9e1b37	0.0048250216
57	0xbde6ea63	-0.112751745
58	0xbbf683a1	-0.0075230156
59	0xbcbbae6d	-0.022910321
60	0xbd21ef93	-0.039535116
61	0xbcfc0ce3	-0.030767864
62	0x3d29c6aa	0.041449226
63	0xbd407b0e	-0.046992354
64	0xbdaee903	-0.08540537
65	0xbd91e937	-0.0712456
66	0xbcd3fe0f	-0.02587798
67	0xbd7ba5b9	-0.061437342
68	0xbdee36b6	-0.11631529
69	0x3d22614a	0.039643563
70	0xbc124767	-0.008928156
71	0xbd84d005	-0.06484989
72	0x3c848a5d	0.016179258
73	0x3cca096d	0.024662698
74	0xbdf9a311	-0.121893056
75	0x3d463579	0.04839084
76	0x3c31600b	0.010826121
77	0xbde6f5f2	-0.11277379
78	0x3b99d0a7	0.0046940628
79	0x3d2e7f0f	0.04260164
80	0xbd136391	-0.035983626
81	0x3ce193a3	0.027536219
82	0x3d027763	0.031852137
83	0xbda34d82	-0.07973768
84	0xbba0c885	-0.0049067163
85	0xbd6fa6a0	-0.058508515
86	0x3cc8ed6d	0.024527276
87	0xbdeadbf8	-0.11467737
88	0x3cce5279	0.02518581
89	0xbdcb7a1a	-0.099353984
90	0x3b9b0783	0.00473112
91	0xbdc25a12	-0.09489836
92	0xbc241734	-0.010015298
93	0xbd671d25	-0.05642428
94	0xbd6b7a79	-0.057489846
95	0x3d161703	0.03664304
96	0x3d50961c	0.050924405
97	0xbda12275	-0.078679
98	0xbd8dce7b	-0.06924149
99	0x3d356c14	0.044292524
100	0xbdc128a2	-0.09431578
101	0xbc5c663b	-0.013452108
102	0xbd0603b1	-0.032718364
103	0x3d3dc1be	0.046327345
104	0xbd828853	-0.06373658
105	0xbd436b43	-0.047709715
106	0xbddadd96	-0.106867954
107	0xbdc37482	-0.095437065
108	0xbccc11b6	-0.024910789
109	0x3d21ac55	0.03947099
110	0xbdcf4ab0	-0.101216674
111	0x3d042015	0.03225716
112	0xbd6875c1	-0.056752924
113	0x3c8a395a	0.01687305
114	0xbd874783	-0.06605437
115	0xbde37e76	-0.11108105
116	0xbd8dffac	-0.06933531
117	0xbd781e16	-0.060575567
118	0xbd4c20c1	-0.049835924
119	0xbda0e977	-0.0785703
120	0xbd3e54ae	-0.046467476
121	0x3d2a5abf	0.04159045
122	0xbbfb7b2e	-0.0076745963
123	0xbd85421b	-0.06506749
124	0xbdb36375	-0.08759204
125	0xbda7adae	-0.08187424
126	0x3d37b48f	0.04484993
127	0xbd86da2f	-0.06584584

move_mean.weight f4 [2, 128]
0	0x3bc01d88	0.0058628954
1	0xbc5673b6	-0.013089111
2	0xbcd752c2	-0.02628458
3	0x3c5c6d92	0.013453858
4	0x3bca1b57	0.00616781
5	0x3c108486	0.008820659
6	0x3be04434	0.006844068
7	0xbc148aa1	-0.009066255
8	0x3cc309aa	0.02380832
9	0x38d4e043	0.0001015072
10	0xbc192dbd	-0.009349284
11	0xbbbcea7e	-0.0057652583
12	0xba15ab5f	-0.0005709435
13	0x3d66da5d	0.05636059
14	0x3c76918f	0.015049352
15	0xbcd65b11	-0.02616647
16	0x3d11caf3	0.035593938
17	0x3c33a308	0.010964163
18	0xbd07512d	-0.0330364
19	0xbcc8c611	-0.024508508
20	0x3d0f4c8f	0.03498512
21	0x3d3e2fc6	0.04643228
22	0xbce4669c	-0.02788096
23	0xbc5ccd54	-0.013476688
24	0xbc444665	-0.011979674
25	0x3d1e9642	0.038717516
26	0x3d6400ea	0.055664934
27	0xbab5addb	-0.0013861017
28	0x3c5cdc15	0.013480206
29	0x3b1b80b4	0.0023727836
30	0x3c3fc476	0.011704555
31	0xbc3d3bda	-0.011549914
32	0x3c4d8380	0.012543559
33	0x3b8ff16f	0.004392795
34	0x3d01016e	0.031495504
35	0x3b87ef23	0.0041483804
36	0xbc8d44c9	-0.017244713
37	0x3d825c97	0.06365316
38	0xbd8124bc	-0.06305835
39	0x3c8bd48e	0.017069127
40	0xbd085d95	-0.03329237
41	0x3bf0cf58	0.007348936
42	0x390bbba7	0.00013325979
43	0x3c7fb2aa	0.015606562
44	0x3c8c5d36	0.01713429
45	0xbb0c2abf	-0.0021387783
46	0xbc5ea22a	-0.013588468
47	0xbd1674b0	-0.036732376
48	0x3ccea63e	0.025225755
49	0xbc22f5ec	-0.009946328
50	0xbaafce5a	-0.0013412938
51	0x3b301891	0.0026870111
52	0x3ca1ae5e	0.019736465
53	0xbbcd085c	-0.0062571
54	0x3c7c67f3	0.015405643
55	0xbcf366b5	-0.02971206
56	0xbd450d90	-0.048108637
57	0xbd176327	-0.036959793
58	0x3ce7c351	0.028291376
59	0xb89a76cd	-7.3654206e-05
60	0x3c46f3d9	0.012143099
61	0x3c3f096c	0.011659961
62	0x3cc0e3f7	0.023546202
63	0xbb51ecb8	-0.0032031965
64	0xbc0302df	-0.00799629
65	0x3b743731	0.0037264342
66	0x3b113ee6	0.0022162735
67	0xbc158539	-0.009126001
68	0xbc1df3b7	-0.009640626
69	0x3d2a9d9a	0.041654207
70	0x3c4764da	0.012170041
71	0x3d391607	0.045187023
72	0xbc903ac5	-0.017606148
73	0x3c94b39d	0.018152053
74	0x3bee24a7	0.007267553
75	0xbc06b5c7	-0.00822205
76	0xbc125c95	-0.008933206
77	0xbcd901c8	-0.026490107
78	0x3d7d0ca4	0.061779633
79	0xbca391e7	-0.019967033
80	0x3c20f521	0.009824068
81	0x3d86374b	0.06553515
82	0x3bb254e9	0.005442251
83	0x3b918aff	0.0044416185
84	0x3c096853	0.008386689
85	0xba045bc1	-0.0005049073
86	0x3cebdf64	0.028793044
87	0x3b75b4b9	0.0037491752
88	0x3d0542b2	0.03253431
89	0x3c3c205e	0.011482326
90	0x3c483f57	0.012222133
91	0xbd0d3975	-0.034478623
92	0x3c55f2df	0.013058393
93	0xbd613059	-0.05497775
94	0x3c5addb4	0.013358522
95	0x3d7aa250	0.06118995
96	0x3d50c62c	0.05097024
97	0xbc870026	-0.016479563
98	0x3c81eced	0.015860045
99	0x3ce6b794	0.028163709
100	0x3c75e93d	0.015009222
101	0x3d1923fc	0.037387833
102	0xbbac7894	-0.0052633975
103	0x3cabd59d	0.020975882
104	0xbbb8f3c2	-0.0056442926
105	0xbc0583d2	-0.008149104
106	0x3d50847c	0.050907597
107	0x3cf76a02	0.030201916
108	0xbbfcddbf	-0.007716864
109	0xbc63773b	-0.013883407
110	0x3ba23a23	0.004950778
111	0xbc0bd901	-0.0085356245
112	0xbd45cfe0	-0.04829395
113	0x3bf7ca66	0.0075619696
114	0x3ae518f5	0.0017478751
115	0xbb542acd	-0.0032374144
116	0x3cbf4a94	0.023350991
117	0x3be2db9e	0.006923153
118	0x3c524b75	0.012835373
119	0x3cfb944a	0.030710358
120	0xbbaad6bf	-0.005213588
121	0xbd4133d0	-0.047168553
122	0x3d4840ca	0.048889913
123	0xbccb8e06	-0.024847995
124	0xba81b444	-0.0009895642
125	0xbc726167	-0.01479373
126	0x3b711d73	0.0036791235
127	0x3a894427	0.0010472581
128	0x3c16ca9a	0.009203577
129	0x3b332792	0.0027336818
130	0x3c7bf8ad	0.015379113
131	0xbc4180f4	-0.01181053
132	0x3ce10a73	0.027470803
133	0x3c8d34c7	0.01723708
134	0xbc2b2a7d	-0.010447142
135	0xbd96ff83	-0.07372954
136	0x3c4f6b08	0.012659796
137	0xbc477897	-0.012174747
138	0xbccdfbbb	-0.025144449
139	0xbab54b87	-0.0013831713
140	0x3d96dcfd	0.07366369
141	0xbc6e093f	-0.014528572
142	0xba04b529	-0.00050623954
143	0x3c1926e9	0.009347656
144	0xbbc80699	-0.006104302
145	0xba0841ce	-0.0005197794
146	0xbc9f325f	-0.019433198
147	0x3d48c52e	0.04901617
148	0x3d5d72e3	0.054064643
149	0x3c3ed83a	0.011648232
150	0x3d41f8df	0.047356483
151	0x3cdd4c03	0.027013784
152	0xbcaedb33	-0.021344757
153	0xbd115096	-0.035477243
154	0x3cf565d1	0.029955776
155	0xbb441206	-0.002991797
156	0xbc0cd946	-0.008596724
157	0xbbc3d34b	-0.005976116
158	0xbc0e7201	-0.008694173
159	0xbbed94bc	-0.0072503965
160	0xbbfe6a55	-0.0077641406
161	0xbb1f1acb	-0.0024277444
162	0x3ca54ec4	0.02017916
163	0xbc4da4d8	-0.012551509
164	0xbbad7c4f	-0.0052943598
165	0xbd5a482b	-0.05329148
166	0x3d3e1488	0.0464063
167	0xbbb6ed00	-0.005582452
168	0x3c741f93	0.014900106
169	0x3c13a072	0.009010421
170	0x3c3c3a46	0.011488503
171	0x3cba5ccc	0.022749327
172	0x3b11aaf2	0.0022227135
173	0x3cf83de2	0.030302946
174	0xbc22525d	-0.009907332
175	0xbcd7b06a	-0.026329238
176	0x3b9d2f17	0.0047968733
177	0xbb812e4f	-0.003942288
178	0xbac0efb9	-0.001471988
179	0xbc486606	-0.0122313555
180	0x3cd1b7b8	0.0256003
181	0x3d0996fd	0.03359126
182	0x3c56563e	0.013082085
183	0x3d92c082	0.07165624
184	0xbd4c0258	-0.049806923
185	0x3c54d20c	0.012989532
186	0x3d079d7f	0.033109184
187	0xbc7f2d81	-0.015574814
188	0x3cc1dc89	0.02366473
189	0xbccf3583	-0.025294071
190	0xbca15e10	-0.019698173
191	0x3ccf8263	0.025330728
192	0x3c4712a0	0.012150437
193	0xbc2deeb3	-0.010615992
194	0xbcae0524	-0.021242686
195	0xbbb65231	-0.005563997
196	0xbc587130	-0.01321058
197	0x3c4c26ae	0.012460394
198	0xbca903d0	-0.0206317
199	0xbd7597d3	-0.059959244
200	0x3b8ec642	0.0043571303
201	0xbc3d68e9	-0.011560657
202	0xbc9766c6	-0.018481623
203	0x3b0219bd	0.0019851767
204	0xbcdcb606	-0.026942264
205	0xbd028e66	-0.031874083
206	0xbd700b8d	-0.058604766
207	0x3bb22123	0.005436079
208	0xbd06d3c1	-0.032916788
209	0xbd8593b8	-0.06522316
210	0xbbffda06	-0.007807973
211	0x397fbf3d	0.00024389937
212	0xbc21e144	-0.009880368
213	0xb9309f0d	-0.00016843919
214	0xbc8a69f5	-0.016896227
215	0xbd1f604f	-0.038910206
216	0xbc0a7637	-0.008451036
217	0xbc9d5bee	-0.019208875
218	0x3b8c66a0	0.004284695
219	0xbb349684	-0.0027555535
220	0x3a14b1c5	0.00056722417
221	0x3cc2d049	0.023780959
222	0x3d3b46b5	0.04572173
223	0x3cc66566	0.024218272
224	0x3c4ba86c	0.012430292
225	0xbc9cef55	-0.019157091
226	0xbcd3a627	-0.025836064
227	0x3c2ccc58	0.010546766
228	0x3cf12146	0.029434811
229	0x3d743c8b	0.05962805
230	0xbd6554a6	-0.05598893
231	0xbc37b733	-0.011213112
232	0x3d469ee6	0.04849138
233	0x3c03622f	0.008019014
234	0xbc3bc5d7	-0.011460743
235	0x3c9cc870	0.019138545
236	0xbac7448d	-0.0015202925
237	0x3ce5d01b	0.028053334
238	0x3cd145f8	0.025546059
239	0x39e67cce	0.00043962005
240	0xbd175733	-0.036948394
241	0xbca38b39	-0.019963847
242	0x3d238117	0.03991803
243	0xbc1b5396	-0.009480378
244	0x3bd5905a	0.006517452
245	0xbb661cad	-0.0035112307
246	0xbc3e2326	-0.01160506
247	0x3c87a032	0.01655588
248	0xbd83c976	-0.0643491
249	0x3cd70346	0.026246678
250	0xbda6dce1	-0.08147598
251	0x3c9fd8a5	0.019512484
252	0x3a26ff94	0.00063704816
253	0x3bd21353	0.006410995
254	0xbb1e3bfc	-0.002414464
255	0x3d2d703f	0.042343374

move_mean.bias f4 [2]
0	0xbba68fa8	-0.005083043
1	0xbe00412e	-0.12524864

food_logits.weight f4 [3, 128]
0	0xbd31879e	-0.043342225
1	0x3c12b35a	0.008953894
2	0x3d1b6c6d	0.0379452
3	0xbc9c7b75	-0.019101838
4	0x3d198c4f	0.037487324
5	0xbcb8f1bd	-0.022576207
6	0x3c5316df	0.012883871
7	0x3d248403	0.04016496
8	0xbcae7e76	-0.021300536
9	0xbcd89309	-0.0264373
10	0x3d2b6191	0.041841093
11	0xbcfad228	-0.030617788
12	0xbd61a861	-0.05509222
13	0xbd2c1961	-0.04201639
14	0x3c236ac7	0.009974188
15	0x3cdb1c4c	0.026746891
16	0xbd0257ed	-0.031822134
17	0xbac974f2	-0.0015369935
18	0x3d601914	0.054711416
19	0xbd8152fc	-0.06314656
20	0x3d7786f8	0.06043145
21	0x3cc5e999	0.02415924
22	0xbd58d346	-0.05293586
23	0xbb8e12b5	-0.004335726
24	0xbbef2f3b	-0.0072993315
25	0x3d7cc17a	0.06170795
26	0x3d6d9794	0.058005884
27	0xbd2f4467	-0.042789843
28	0x3bed0342	0.0072330544
29	0xbc5f51be	-0.013630329
30	0xbd100718	-0.035163015
31	0x3cf654b7	0.030069692
32	0x3d82932a	0.063757256
33	0x3d473f6b	0.048644464
34	0x3cd508f2	0.026005242
35	0xbcc62fa5	-0.02419264
36	0x3d8bc986	0.06825547
37	0x3b84d01a	0.004053128
38	0x3d05c687	0.032660034
39	0xbd50ff17	-0.051024523
40	0xbd8ea6c2	-0.069654
41	0x3c1f5bb5	0.0097264545
42	0x3d800187	0.06250291
43	0xbc91e532	-0.017809484
44	0x3b99aaf7	0.00468957
45	0x3d1059d3	0.035241913
46	0xbd207f9d	-0.0391842
47	0x3d975110	0.07388508
48	0x3d2901cb	0.041261476
49	0xbc8d1922	-0.017223898
50	0xbda49587	-0.080363326
51	0x3d025082	0.03181506
52	0x3d5e5136	0.054276668
53	0xbb86016e	-0.004089526
54	0xbd89b4e1	-0.06723953
55	0xbd4163d5	-0.047214348
56	0x3afe45ad	0.0019399427
57	0xbc0e2aea	-0.008677224
58	0x3c64c3e6	0.013962721
59	0x3cc37827	0.023861004
60	0x3cd151c2	0.02555168
61	0xbd204287	-0.039125945
62	0x3d706fae	0.058700256
63	0x3c800672	0.015628073
64	0x3dbd5740	0.09245157
65	0x3d08c6cc	0.033392712
66	0x3d816c03	0.0631943
67	0x3ce8effe	0.02843475
68	0x3bf8d742	0.00759402
69	0x3d320110	0.043458045
70	0x3d0bc849	0.034126554
71	0x3d8f683c	0.07002303
72	0xbc9bf90c	-0.019039653
73	0x3d04ecd4	0.03245242
74	0x3b951d92	0.004550644
75	0xbc8e7008	-0.017387405
76	0x3d7c1027	0.06153884
77	0x3d381ff7	0.04495236
78	0x3d6edb28	0.058314472
79	0x3d3c50a5	0.045975346
80	0x3cf2b7e2	0.029628698
81	0x3db15f33	0.08660736
82	0x3d5c8af7	0.053843465
83	0x3d39bc08	0.045345336
84	0x3ae9300a	0.0017790806
85	0xbd554534	-0.05206795
86	0x3d08c213	0.03338821
87	0x3d97b2a1	0.07407118
88	0xbcda49ec	-0.026646577
89	0x3d083f60	0.033263564
90	0xbd275abc	-0.040858015
91	0xbcd08da2	-0.02545816
92	0x3cb633d2	0.022241507
93	0x3d0c251c	0.034215078
94	0xbd1cddc8	-0.038297445
95	0xbc8ccee6	-0.0171885
96	0xbbced171	-0.0063115885
97	0xbad9b47d	-0.0016609576
98	0x3cabb019	0.020957993
99	0xbd1a7893	-0.037712645
100	0xbd6c0362	-0.057620414
101	0xbd27779d	-0.040885556
102	0x3d2b6c85	0.04185154
103	0xbc91853e	-0.01776373
104	0xbd804765	-0.062636174
105	0xbcb0a8b5	-0.02156482
106	0xbd5c619d	-0.05380403
107	0x3d93a4e2	0.07209183
108	0x3c952459	0.018205808
109	0x3d70685a	0.058693267
110	0xbd8ab59f	-0.06772923
111	0x3c3c66f9	0.01149916
112	0xba444a75	-0.00074879016
113	0xbc868722	-0.016421858
114	0x3d2ce681	0.042212013
115	0x3ce34fa4	0.027747937
116	0x3d04a9b0	0.03238839
117	0xbaa20248	-0.0012360299
118	0xbca80e65	-0.020514676
119	0x3cf0d99c	0.02940064
120	0xbd4a3929	-0.04937092
121	0x38fffd62	0.00012206544
122	0xbcb5d229	-0.022194939
123	0xbd464e50	-0.04841453
124	0x3c32cb42	0.010912718
125	0x3cf0c2e3	0.029389804
126	0xbcafebe2	-0.021474782
127	0x3d6615a5	0.056172986
128	0xbd13d8c0	-0.03609538
129	0x3a8a75f6	0.001056372
130	0xbc27a61e	-0.0102324765
131	0xbcc9f1a6	-0.02465136
132	0xbc8bea17	-0.017079396
133	0x3d0729b5	0.03299876
134	0x3c82895b	0.015934637
135	0x3d3caea8	0.046065003
136	0xbd0e4d08	-0.03474143
137	0xbd002a94	-0.031290606
138	0x3cd8f04b	0.026481768
139	0xba1ea05e	-0.0006051118
140	0x3c06ac7a	0.008219833
141	0x3dadfd65	0.08495597
142	0xbb9c89ba	-0.0047771605
143	0x3cc28b8a	0.023748178
144	0x3d412e55	0.047163326
145	0xbc5755c1	-0.013143004
146	0x3cec0944	0.028813012
147	0xbd88e855	-0.06684939
148	0xbd024be5	-0.03181066
149	0x3d43451d	0.047673333
150	0xbaf70cfc	-0.0018848474
151	0xbd337617	-0.04381379
152	0x3b4a3dad	0.0030859516
153	0x3d1f6248	0.038912088
154	0xbc2d6fc6	-0.010585731
155	0xbd1d7c33	-0.038448524
156	0x3bf31694	0.007418463
157	0xbc8c215d	-0.017105753
158	0xbc8641f0	-0.016388863
159	0x3cdd947b	0.02704834
160	0x3d12ef89	0.03587297
161	0x3ceed0d4	0.029152311
162	0x3cb70ef1	0.022345992
163	0xbcf0fbb5	-0.029416898
164	0x3d92e3b2	0.07172336
165	0x3d9b94e3	0.07596757
166	0xbc07e774	-0.008294929
167	0xbd2fc75f	-0.042914744
168	0x3c849d11	0.016188176
169	0x3ce803c3	0.028322106
170	0xbce6cf0b	-0.028174898
171	0xbb062ead	-0.0020474598
172	0xbbbb1891	-0.0057097157
173	0x3d8f7489	0.07004649
174	0xbcd279dd	-0.025692875
175	0x3d88c7c7	0.066787295
176	0x3b7cc7c1	0.003857121
177	0x3c907ab3	0.017636633
178	0xbd8b317c	-0.06796548
179	0xbd055c17	-0.032558527
180	0x3c23f9c6	0.010008281
181	0x3d975d46	0.07390837
182	0xbcc69b3b	-0.024243942
183	0xbd941e86	-0.072323844
184	0x3d49e335	0.049288947
185	0xbbbaa281	-0.0056956415
186	0x3d20b8b3	0.039238643
187	0x3d7cb909	0.0616999
188	0xbcb96d7c	-0.022635214
189	0xba5ecd31	-0.0008499204
190	0x3d66d341	0.05635381
191	0x3d15bb43	0.03655554
192	0x3caff28e	0.021477964
193	0x3d86def6	0.06585495
194	0xbd04120a	-0.032243766
195	0x3a622b16	0.0008627636
196	0x3cb2afc3	0.021812325
197	0x3ac42124	0.001496349
198	0x3d045da3	0.03231586
199	0xbda48bda	-0.08034487
200	0x3c6078e2	0.013700696
201	0x3d1cb600	0.038259506
202	0x3dc3b0ac	0.09555182
203	0xbcfede92	-0.03111199
204	0xbd04ed1b	-0.032452684
205	0x3ceb3fa4	0.02871687
206	0x3daaba31	0.083362944
207	0x3d79e123	0.061005723
208	0x3d503175	0.050828416
209	0xbd04ab25	-0.03238978
210	0x3d941c70	0.072319865
211	0x3d8e0dd7	0.069362335
212	0xbd15680d	-0.036476184
213	0xbd829b32	-0.063772574
214	0x3ce23db7	0.027617319
215	0x3c626f12	0.013820427
216	0xbd6cfb90	-0.057857096
217	0xbb3b8c5a	-0.0028617592
218	0xbd191dfd	-0.037382115
219	0xbd976750	-0.07392752
220	0x3ce9e95b	0.028553655
221	0x3d79cea3	0.06098808
222	0x3cc30800	0.023807526
223	0x3c9df1c7	0.019280327
224	0xbd418fb7	-0.047256198
225	0xbcf17937	-0.029476745
226	0x3b0c005c	0.002136252
227	0xbcfec648	-0.031100407
228	0xbd8a07ba	-0.06739755
229	0xbc79dc79	-0.015250319
230	0x3d8d4c07	0.06899267
231	0xbd2a79f4	-0.04162021
232	0x3d5f83cc	0.05456905
233	0xbcb8b48a	-0.022547025
234	0x3cae638b	0.0212877
235	0x3c060a00	0.008181095
236	0xbb204017	-0.0024452263
237	0x3d06f58c	0.032949015
238	0xbcb931b3	-0.022606706
239	0x3c80766b	0.015681466
240	0xbccee8e3	-0.025257533
241	0xbd33ac4f	-0.0438655
242	0xbd321f47	-0.04348686
243	0x3d57eb05	0.052714366
244	0x3cdb0c47	0.026739253
245	0x3c7980f8	0.015228502
246	0xbbcb3f64	-0.006202625
247	0x3d6c09c7	0.057626512
248	0xbd3ba800	-0.045814514
249	0x3d215338	0.039386004
250	0xbd7f4172	-0.062318273
251	0xbd4226ce	-0.04740029
252	0x3d455062	0.048172362
253	0xbcc750b7	-0.02433048
254	0xbcc1ffae	-0.023681488
255	0xbc8077fd	-0.015682215

food_logits.bias f4 [3]
0	0xbcbc6208	-0.022995964
1	0xbd7334ca	-0.059376515
2	0x3da497f0	0.08036792

net.0.weight f4 [128, 17]
0	0x3e12f1ed	0.143501
1	0xbe0c9b16	-0.13731036
2	0x3f059928	0.5218682
3	0xc0159c33	-2.3376586
4	0xbdbf6cfa	-0.093469575
5	0xbe476f3b	-0.19476025
6	0xbe5d6fdf	-0.21624707
7	0x3d9f5420	0.077797174
8	0xbd4a0a6d	-0.04932635
9	0x3db24e32	0.08706321
10	0x3e063123	0.13104682
11	0xbe3c28a9	-0.18374886
12	0x3e902bb8	0.28158355
13	0x3c923421	0.017847123
14	0xbd04a581	-0.0323844
15	0x3e2bad7f	0.16765402
16	0x3d911186	0.070834205
17	0x3d5416d4	0.051779583
18	0xbdda5061	-0.10659862
19	0xbf913403	-1.1343998
20	0x3fef43c0	1.8692551
21	0x3eea883c	0.45807064
22	0xbe432d4e	-0.19060251
23	0x3e13d795	0.14437707
24	0xbd99848c	-0.074959844
25	0x3e3b5b5b	0.18296568
26	0xbc3e0f7b	-0.0116003705
27	0xbe510c70	-0.20414901
28	0xbe07ccaa	-0.13261667
29	0xbe5747eb	-0.21023528
30	0xbca3a56a	-0.019976337
31	0x3e369711	0.17831065
32	0xbd986918	-0.0744192
33	0xbd1ba29e	-0.03799688
34	0xbd32d421	-0.043659333
35	0x3d67fcea	0.056637682
36	0x3e7500c2	0.2392607
37	0xbeab1d53	-0.3342081
38	0xbf29f2c1	-0.6638604
39	0x3e0503a4	0.1298967
40	0x3c9570c7	0.018242253
41	0x3e0b17f0	0.1358335
42	0x3ce49524	0.027903147
43	0x3e4555c1	0.19270994
44	0x3e5013ad	0.20320006
45	0x3dfc212a	0.12311013
46	0x3db1b798	0.08677596
47	0x3e0b4251	0.13599516
48	0xbe36fd78	-0.17870128
49	0xbc2b8221	-0.010468037
50	0x3caaca5f	0.020848451
51	0xbd2c29f3	-0.042032193
52	0xbde59c3c	-0.1121144
53	0x3f7a6624	0.97812104
54	0xbfceb4b5	-1.6148897
55	0xbf1b1b2f	-0.60588354
56	0xbe436ebb	-0.19085209
57	0x3e648307	0.22315608
58	0xbe3e38f2	-0.1857641
59	0x3d23840e	0.03992086
60	0xbd3ea3f7	-0.046543088
61	0xbeaeeddd	-0.3416585
62	0xbe72d1bd	-0.23712821
63	0xbe71d6ad	-0.23617049
64	0xbe39e016	-0.18151888
65	0x3d83fae3	0.06444337
66	0xbdb7fab5	-0.089833654
67	0x3e12b976	0.1432856
68	0x3e3eed59	0.18645228
69	0xbe2d16dd	-0.16903253
70	0x3e3854ed	0.18001147
71	0xbecf880d	-0.40533486
72	0xbeea6826	-0.45782584
73	0xbc365883	-0.011129501
74	0xbe4a8261	-0.19776298
75	0xbe06c36d	-0.13160487
76	0xbe0e37ed	-0.13888521
77	0xbd0b8902	-0.034066208
78	0xbe12812c	-0.14307088
79	0x3d9a4cd2	0.075341836
80	0xbe7a9990	-0.24472642
81	0x3e5bd8b6	0.21469387
82	0x3dc4e110	0.0961324
83	0x3d4efba1	0.05053294
84	0xbe5f0233	-0.21778183
85	0xbe3d6336	-0.18494877
86	0xbac74941	-0.0015204326
87	0x3f48894d	0.78334504
88	0xbf528ae9	-0.8224321
89	0xbed381da	-0.41310006
90	0xbe9755db	-0.2955769
91	0xbe13494c	-0.1438343
92	0xbd905ecc	-0.07049331
93	0xbeacf7a0	-0.33782673
94	0xbe4bdf02	-0.1990929
95	0x3e10e6e9	0.14150585
96	0xbd40fd13	-0.04711635
97	0xbe086495	-0.13319619
98	0x3d34fa97	0.044184294
99	0xbdff4b9e	-0.12465595
100	0xbdc9cc0c	-0.09853372
101	0xbdaa9cdf	-0.08330702
102	0xbda173b2	-0.07883395
103	0xbdea645e	-0.11444925
104	0xbf518f6a	-0.8185946
105	0x402d7be5	2.710687
106	0xbd2ef1e8	-0.04271117
107	0xbda57368	-0.080786526
108	0x3e79b03c	0.24383634
109	0x3e2fd02e	0.17169258
110	0x3dc903bd	0.09815166
111	0xbd171e0f	-0.0368939
112	0x3e3fa3a1	0.18714763
113	0x3d2629ba	0.040567137
114	0xbcb71762	-0.022350017
115	0x3d0fec7c	0.03513764
116	0xbdfa610e	-0.12225543
117	0xbc4c5862	-0.012472244
118	0x3db998af	0.09062325
119	0x3e35baf1	0.17747094
120	0x3da28160	0.079348326
121	0x3f6a3a38	0.91495085
122	0xc04bfd8c	-3.1873503
123	0xbf02269b	-0.5084016
124	0x3e5685f9	0.20949544
125	0x3c99934b	0.018746993
126	0x3e691515	0.22761948
127	0x3dd4b08d	0.10385237
128	0x3e4743c3	0.19459443
129	0x3d2d0165	0.042237658
130	0x3c8b3cf6	0.016996842
131	0xbe8a8a64	-0.2705871
132	0xbd8e763c	-0.06956145
133	0x3e252b90	0.16129899
134	0x3d6f2984	0.0583892
135	0xbd5030da	-0.05082784
136	0xbde0e1bf	-0.10980558
137	0x3baa1c4b	0.005191361
138	0x3ec938c4	0.3930112
139	0xbf227e02	-0.6347352
140	0xbe6cfb42	-0.23142722
141	0x3e8f5316	0.27993077
142	0x3eabf346	0.3358404
143	0x3c2ff173	0.010738718
144	0xbc325759	-0.010885083
145	0x3e320074	0.17382985
146	0x3da55a48	0.080738604
147	0xbe465626	-0.193688
148	0xbc16ce89	-0.009204515
149	0x3e1b1fb8	0.15148818
150	0x3dd46387	0.10370546
151	0xbcca5a89	-0.024701374
152	0xbe7d1fcc	-0.24719161
153	0x3c7e2f18	0.015514158
154	0x3d99d7f5	0.07511894
155	0xbf88664f	-1.0656222
156	0x4046847d	3.1018364
157	0x3f54d1ba	0.8313252
158	0xbe22cce8	-0.15898478
159	0x3c926bb3	0.01787362
160	0xbc932815	-0.017963449
161	0xbcfa2b6f	-0.030538289
162	0x3c4d7028	0.012538947
163	0x3e0ad753	0.13558702
164	0x3dcfd7ec	0.10148606
165	0xbdc01641	-0.093792446
166	0xbd841f9e	-0.06451343
167	0x3e836551	0.25663236
168	0x3e492b81	0.19645502
169	0xba08d97a	-0.0005220395
170	0x3e3d2b8a	0.1847364
171	0xbdfe1257	-0.12405842
172	0xbf5144ad	-0.81745416
173	0x401d153b	2.4544208
174	0x3f4a8058	0.7910209
175	0xbcc9a82f	-0.024616329
176	0x3c8bbe0b	0.017058393
177	0xbddea6e3	-0.10871675
178	0x3dce2109	0.10064895
179	0xbe82a59f	-0.25516984
180	0xbe357e66	-0.17723998
181	0xbc1c50da	-0.009540761
182	0x3dafa61e	0.08576606
183	0x3e3ee32e	0.1864135
184	0x3dd24cc1	0.10268546
185	0x3e041134	0.12897187
186	0xbe199072	-0.14996508
187	0x3e2be6ff	0.16787337
188	0xbdff3094	-0.124604374
189	0x3f359566	0.7093109
190	0xbf7529fd	-0.95767194
191	0xbeb7a5b4	-0.3586861
192	0x3e061980	0.13095665
193	0x3d86f879	0.06590361
194	0x3d9a679a	0.07539292
195	0xbd9b27a8	-0.07575923
196	0xbc1b0e68	-0.009463884
197	0xbe92e83e	-0.28692812
198	0xbcf81cb7	-0.03028713
199	0x3dead897	0.114670925
200	0x3d4de6e3	0.05026902
201	0x3cb82308	0.022477642
202	0xbdf33903	-0.118761085
203	0xbdc75c75	-0.09734432
204	0x3dee75d1	0.116435654
205	0x3d963442	0.07334186
206	0xbf4873e5	-0.7830184
207	0x40393db3	2.8943908
208	0x3e57a992	0.2106078
209	0xbe01b0d1	-0.12665106
210	0x3dcd3ff4	0.10021964
211	0x3db2400a	0.08703621
212	0xbe8e5bd3	-0.2780443
213	0x3b24082a	0.002502928
214	0x3e312c88	0.17302144
215	0xbdf0a2bf	-0.11749791
216	0x3d85be3d	0.06530426
217	0x3cd1f6e5	0.025630424
218	0xbd8d0399	-0.06885452
219	0x3d9a9694	0.07548252
220	0xbcbce96c	-0.023060523
221	0x3bac038b	0.005249446
222	0xbb7ea1b9	-0.0038853718
223	0x3e9e0019	0.3085945
224	0xbf558363	-0.83403605
225	0x3ea49715	0.32146516
226	0x3d78974c	0.060691163
227	0x3d4ebeea	0.05047504
228	0x3da82d20	0.08211732
229	0xbe04ba64	-0.12961727
230	0xbe0b3793	-0.13595419
231	0xbdc0d233	-0.09415092
232	0xbe925eec	-0.28588045
233	0x3e76de3a	0.2410821
234	0x3d7ee9cb	0.06223468
235	0x3db2bfc5	0.087279834
236	0xbd33fc4e	-0.04394179
237	0xbc536b7b	-0.012904043
238	0xbdd9b7e3	-0.10630777
239	0x3e153a7d	0.14573093
240	0xbedba9c9	-0.42902973
241	0x402e9d29	2.7283423
242	0x3ecb77d3	0.39739856
243	0xbc9f8daf	-0.01947674
244	0xbe6ca4f1	-0.23109795
245	0x3d72a8bf	0.05924296
246	0x3e54250b	0.20717256
247	0x3e3fc428	0.18727171
248	0xbe2b1122	-0.16705754
249	0xbd4f52e4	-0.05061616
250	0x3d8530c2	0.065034404
251	0x3df6f27c	0.12057969
252	0x3e03d8c9	0.12875666
253	0xbe0da469	-0.13832249
254	0xbdc75497	-0.09732931
255	0xbdcd9240	-0.100376606

net.0.bias f4 [128]
0	0x3e681936	0.22665867
1	0xbd174dd2	-0.03693945
2	0xbe3054ab	-0.17219798
3	0xbe3cb73e	-0.18429276
4	0xbb130bad	-0.002243738
5	0x3da14c94	0.07875934
6	0xbe98930b	-0.29799685
7	0x3c9914b9	0.01868664
8	0xbe8a5cc2	-0.27023894
9	0xbe87341f	-0.26406953
10	0x3def1f3b	0.116758786
11	0xbd6e2209	-0.058137927
12	0x3d5dcd72	0.054151006
13	0x3da9b677	0.082867555
14	0xbdc7d141	-0.09756709
15	0xbc6eaf6b	-0.01456819
16	0xbe2a9577	-0.16658579
17	0xbd3ee2fb	-0.046603184
18	0xbd9c9077	-0.07644742
19	0xbe2f3725	-0.1711088
20	0xbe756cb1	-0.23967244
21	0xbe207d8c	-0.15672892
22	0x3e2845c6	0.16432866
23	0x3eac52ab	0.3365682
24	0xbdff9a21	-0.1248057
25	0xbd8bcfe5	-0.06826762
26	0xbe4c871b	-0.19973414
27	0x3e1b1ca5	0.15147646
28	0xbdf7b24b	-0.120945536
29	0x3e380f98	0.17974699
30	0xbd8640bc	-0.06555316
31	0x3e4e90dd	0.20172448
32	0x3b5b5777	0.003346888
33	0x3da54a29	0.080707856
34	0x3e6f9bbf	0.23399256
35	0x3da4763a	0.080303624
36	0xbdad1f89	-0.084532805
37	0xbd3dc3c0	-0.04632926
38	0xbe967dfe	-0.29393
39	0xbd14330d	-0.0361815
40	0xbe0aca2b	-0.13553683
41	0xbe8f5ec9	-0.28002003
42	0xbdbe1dc7	-0.09283023
43	0x3d86a01e	0.06573509
44	0xbd803133	-0.06259384
45	0xbe3aca33	-0.18241195
46	0xbe2c908e	-0.16852018
47	0xbd4802f2	-0.048830934
48	0xbd6f366d	-0.058401514
49	0x3e03ca8d	0.12870236
50	0xbe7ea1ec	-0.24866456
51	0xbe621b2e	-0.2208068
52	0x3e71a698	0.23598707
53	0x3ddae85b	0.106888495
54	0x3e9981e7	0.2998192
55	0xbe8c4070	-0.27392912
56	0x3e14a7d3	0.14517145
57	0x3e21502e	0.15753242
58	0xbc19f5fd	-0.009397027
59	0x39086504	0.00013007602
60	0x3d40b8d3	0.047051262
61	0xbdb50ed6	-0.0884072
62	0xbe634d4b	-0.22197454
63	0x3dbd70f7	0.09250062
64	0x3dd3c26f	0.1033982
65	0xbed0452e	-0.4067778
66	0xbea59f04	-0.32347882
67	0x3e504829	0.20340027
68	0x3e1dbf86	0.15405092
69	0xbe97b25d	-0.29628268
70	0x3d1fc396	0.039004885
71	0xbea0aa6d	-0.31380025
72	0x3d1a8002	0.037719734
73	0xbe888439	-0.26663378
74	0x3ea263b7	0.317167
75	0xb971b422	-0.00023050656
76	0x3e3cd99e	0.1844239
77	0x3dc51c2c	0.09624514
78	0x3c3fb018	0.011699699
79	0x3e54d640	0.20784855
80	0x3e340396	0.17579493
81	0x3e35b403	0.1774445
82	0x3deebae2	0.11656739
83	0x3d93b411	0.07212079
84	0x3d2d423c	0.042299494
85	0x3dc1c431	0.09461249
86	0xbe54cd82	-0.2078152
87	0xbe126fc5	-0.14300449
88	0xbd74a480	-0.059727192
89	0x3dae5677	0.085125856
90	0x3c951a63	0.018201059
91	0xbde01fcf	-0.10943567
92	0x3d025745	0.031821508
93	0x3daab1b5	0.08334676
94	0xbdac4964	-0.08412436
95	0x3e857e45	0.26072899
96	0x3e21beb2	0.157954
97	0xbe1fd34f	-0.15607952
98	0xbe98e36d	-0.29861012
99	0x3dba8926	0.0910819
100	0x3d848888	0.06471354
101	0xbe5d5c98	-0.21617353
102	0xbe1ae976	-0.15128121
103	0x3d4f3a73	0.05059285
104	0x3e40f6d7	0.18844162
105	0xbdccc4b3	-0.09998455
106	0xbd8cfecd	-0.06884537
107	0xbdb14d4a	-0.0865732
108	0xbe2adf73	-0.16686802
109	0x3d2f013a	0.04272578
110	0xbd0c301b	-0.034225564
111	0x3e685efc	0.22692484
112	0xbdbcab80	-0.092123985
113	0x3d3de476	0.046360455
114	0xbe21b3db	-0.15791266
115	0xbea4ed99	-0.32212523
116	0xbe0ecdc2	-0.13945678
117	0x3ddcaf2b	0.10775598
118	0x3d36a00f	0.044586238
119	0x3e0a758e	0.13521406
120	0xbdc3a0ce	-0.095521554
121	0x3d2711c8	0.040788442
122	0xbe412196	-0.18860468
123	0x3df3b9eb	0.119006954
124	0xbe903c08	-0.281708
125	0xbb3ada30	-0.0028511398
126	0x3e5493db	0.20759527
127	0x3dfb92ba	0.12283845
