src/training_logs_ppo/initial/ppo_checkpoint_300_1764188999.pt (torch, 480155 bytes, 42 tensors)

move_logstd f4 [2]
0	0x400fe4f7	2.24835
1	0x3ffda7b3	1.9816803

shared.0.weight f4 [128, 17]
0	0x3df67257	0.12033527
1	0xbe19b2e9	-0.15009655
2	0xbe983473	-0.29727516
3	0x3e377d63	0.17918925
4	0x3e41734d	0.1889164
5	0xbe49aff4	-0.19696027
6	0xbe1f808a	-0.15576378
7	0x3d4b8d7c	0.049695477
8	0x3e5d4e8c	0.21611995
9	0xbe42f920	-0.19040346
10	0x3e17adf8	0.14812458
11	0xbe3c9356	-0.18415579
12	0xbdc67730	-0.09690702
13	0xbdbd5c07	-0.092460684
14	0x3cdad112	0.02671102
15	0x3e136331	0.14393307
16	0xbdd6c8bc	-0.10487506
17	0xbd8f8f33	-0.07009735
18	0xbdc4c4c3	-0.09607842
19	0x3cb098a8	0.021557167
20	0x3db8b89f	0.09019589
21	0xbea028df	-0.31281182
22	0x3e5cc6ff	0.21560286
23	0xbe427b83	-0.18992428
24	0xbd0074c4	-0.031361356
25	0xbd855729	-0.06510765
26	0xbeb133db	-0.34609875
27	0xbe101018	-0.1406864
28	0xbcc68f57	-0.024238272
29	0x3e531269	0.20612492
30	0x3c1c1ce9	0.009528377
31	0x3da9702e	0.0827335
32	0xbdbe616f	-0.09295928
33	0xbdf9942d	-0.121864654
34	0x3e740cdc	0.2383303
35	0x3e834fdd	0.25646868
36	0x3d4e9a48	0.050440103
37	0x3d655ab2	0.055994697
38	0xbec14a1d	-0.37751856
39	0xbe13aec3	-0.14422135
40	0xbbf73d7f	-0.0075451727
41	0xbe263675	-0.16231711
42	0x3af8440a	0.0018941176
43	0xbdc20da5	-0.09475259
44	0xbd5a54d5	-0.05330356
45	0xbd4f8917	-0.05066785
46	0x3e2ecb7a	0.17069808
47	0xbdce830d	-0.1008359
48	0x3e3cd619	0.18441047
49	0x3cb9b658	0.022669956
50	0x3d480d1b	0.048840623
51	0x3a495e2e	0.00076815754
52	0xbdb49745	-0.08817915
53	0xbea7dc02	-0.3278504
54	0xbd37f673	-0.044912767
55	0x3db59948	0.08867127
56	0x3e4d8eed	0.20074053
57	0x3e1f59e1	0.1556163
58	0x3d935249	0.07193429
59	0x3e246dbb	0.16057484
60	0xbe081335	-0.13288577
61	0x3cca22b1	0.024674745
62	0xbd5439d7	-0.051812973
63	0xbd1f1f1f	-0.03884804
64	0xbd65c748	-0.056098253
65	0x3caf8d6a	0.021429736
66	0xbe3129f0	-0.17301154
67	0x3e4965fc	0.1966781
68	0x3d8ce412	0.068794385
69	0x3e0e3a2d	0.1388938
70	0xbea81930	-0.32831717
71	0x3d87196a	0.06596644
72	0xbc9ba181	-0.01899791
73	0x3dc20059	0.094727226
74	0xbd0df4dc	-0.034657344
75	0x3dcb5b85	0.09929565
76	0xbe3dcf7b	-0.18536179
77	0x3e40bef5	0.18822844
78	0x3d4d40c8	0.05011061
79	0x3e15e52b	0.14638202
80	0x3df41378	0.11917776
81	0xbd4e0521	-0.05029786
82	0x3d0d911c	0.034562215
83	0xbd6d435d	-0.05792557
84	0x3dd15e41	0.10223056
85	0xbe1174b4	-0.14204675
86	0x3cf80590	0.03027609
87	0xbe38f785	-0.18063171
88	0xbe87e588	-0.26542306
89	0xbe8b1811	-0.271668
90	0x3b6bb782	0.0035967533
91	0x3e71117c	0.23541826
92	0xbe2e81d4	-0.17041713
93	0x3e8509dc	0.25984085
94	0xbd2639a5	-0.040582318
95	0x3e1d86ea	0.15383497
96	0x3df8a37b	0.121405564
97	0x3dcc5068	0.09976274
98	0xbcb38e96	-0.021918576
99	0xbe0d5d95	-0.1380523
100	0xbd1ed45f	-0.03877675
101	0xbc2f0957	-0.010683379
102	0x3d5466d4	0.051855877
103	0xb7a4b576	-1.9634823e-05
104	0xbe22f3c3	-0.159133
105	0x3dc7576c	0.09733471
106	0xbd08fd48	-0.033444673
107	0x3d3844a5	0.04498734
108	0xbeaa2b0e	-0.33235973
109	0xbdbb8f94	-0.09158245
110	0x3ea1a0d7	0.31568024
111	0xbbb1e670	-0.0054290816
112	0xbe73eb78	-0.23820293
113	0xbdf02837	-0.117264204
114	0x3d3e63f4	0.04648204
115	0xbd2a1185	-0.041520614
116	0x3d898b17	0.067159824
117	0xbe05f6a5	-0.13082369
118	0x3c984be4	0.018590875
119	0xbe1aa37d	-0.15101428
120	0xbd1f8f1c	-0.03895484
121	0x3e03d5e5	0.12874563
122	0x3d86a9ef	0.06575381
123	0x3d2a900f	0.04164129
124	0xbe7ee5b0	-0.24892306
125	0xbdb05e02	-0.086116806
126	0x3e2e3aae	0.17014572
127	0xbe0895c9	-0.13338389
128	0xbde988e1	-0.11403061
129	0xbd817ac2	-0.06322242
130	0xbc99356e	-0.018702235
131	0xbddd60d0	-0.10809481
132	0xbe03a2f8	-0.12855136
133	0x3e0f3cf7	0.139881
134	0x3c2018a0	0.009771496
135	0x3c57e87d	0.013177988
136	0xbda2246f	-0.079171054
137	0x3daf8bf1	0.085716136
138	0xbd39fd78	-0.045407742
139	0xbdfcd69c	-0.12345621
140	0xbdd2822e	-0.10278736
141	0xbe57d035	-0.21075518
142	0xba8a48b2	-0.0010550229
143	0x3e6d4385	0.23170288
144	0x3dffc67c	0.1248903
145	0xbe848357	-0.25881454
146	0x3d93975b	0.07206603
147	0xbdf957d3	-0.12174954
148	0x3d834f21	0.06411577
149	0xbdd121f2	-0.10211553
150	0xbe4357fc	-0.19076532
151	0x3d3c1f59	0.045928333
152	0xbdee3ebb	-0.11633059
153	0x3dfcf99e	0.12352298
154	0xbcce88fd	-0.025211805
155	0x3dea9f6d	0.11456189
156	0xbe6b29c8	-0.22965157
157	0xbea8afa2	-0.32946497
158	0xbc82c8ac	-0.015964828
159	0xbd33447e	-0.04376649
160	0x3e25df3f	0.16198443
161	0x3e368ec8	0.17827904
162	0x3e5b047c	0.2138843
163	0xbd438d6c	-0.047742292
164	0x3dd549fa	0.104145005
165	0xbe34ebb6	-0.17668042
166	0xbdeed2c4	-0.11661294
167	0x3db64612	0.089000836
168	0x3d1c0825	0.038093705
169	0x3dc0d71b	0.09416028
170	0xbdf1e1a9	-0.118106194
171	0x3e255ff4	0.16149884
172	0xbde7ecc4	-0.11324456
173	0xbcd931fc	-0.026513092
174	0xbe6ff467	-0.23433076
175	0x3e6d934d	0.23200722
176	0xbd5d8d38	-0.054089755
177	0xbe5dc6bc	-0.21657842
178	0xbe2cb020	-0.16864061
179	0xbdee8bf7	-0.1164779
180	0x3e98f1d7	0.2987201
181	0xbdc6a5ee	-0.09699617
182	0xbe47e44d	-0.19520684
183	0x3d60be75	0.054869134
184	0x3d18126a	0.037126936
185	0x3d9b069e	0.075696215
186	0xbdb8e629	-0.090282746
187	0xbda5cb1f	-0.08095383
188	0xbe52a712	-0.20571545
189	0x3d8af2b9	0.06784577
190	0xbe83ca92	-0.25740486
191	0x3d934e84	0.0719271
192	0x3e06f949	0.13181032
193	0x3e726c8c	0.2367422
194	0x3e3c9025	0.18414362
195	0xbd8052ac	-0.062657684
196	0xbdeff546	-0.11716704
197	0xbe7b4d6d	-0.24541254
198	0x3dc507df	0.09620642
199	0xbda1679d	-0.07881091
200	0xbc78cfc2	-0.015186252
201	0xbd1da9f9	-0.038492177
202	0xbdc42157	-0.095766716
203	0xbc8adc2c	-0.01695069
204	0xbc1148ec	-0.008867484
205	0xbe369a58	-0.17832315
206	0xbe12a51c	-0.14320797
207	0xbda367af	-0.079787605
208	0xbd9dfb69	-0.07713968
209	0xbe734712	-0.2375758
210	0x3e36e61d	0.17861219
211	0xbd10b277	-0.035326447
212	0xbe03dfce	-0.12878343
213	0x3d93d3c4	0.072181255
214	0xbe0ddbb7	-0.13853346
215	0xbd8df608	-0.06931692
216	0xbdf8b551	-0.12143958
217	0xbb96b070	-0.0045986697
218	0x3c9c59d8	0.01908581
219	0x3a599ecd	0.0008301556
220	0xbd24c7df	-0.040229674
221	0x3e3c401e	0.18383834
222	0x3d3f85ec	0.046758577
223	0xbe707f2b	-0.2348601
224	0x3d812095	0.06305043
225	0xbe08597e	-0.13315389
226	0x3e61f9f7	0.2206801
227	0xbe21f057	-0.15814339
228	0xbd6aa34e	-0.057284646
229	0x3e44607b	0.1917743
230	0xbd9c238e	-0.07623969
231	0xbd8607b2	-0.065444365
232	0x3d873316	0.06601541
233	0x3d34e8b0	0.04416722
234	0x3d8cf924	0.06883457
235	0xbd8e2514	-0.06940666
236	0x3daa36ed	0.083112575
237	0xbd6ba2ad	-0.057528187
238	0xbd4ae8da	-0.04953847
239	0xbd3756c9	-0.0447605
240	0xbd04f82e	-0.032463245
241	0xbe2a487c	-0.16629213
242	0xbe3d9de3	-0.1851726
243	0xbe88c11f	-0.2670984
244	0x3d62c9a1	0.05536807
245	0xbe73cafc	-0.23807901
246	0x3e9aaa0a	0.30207855
247	0x3def20bc	0.116761655
248	0x3db2cf42	0.087309375
249	0xb9b1c02d	-0.00033903253
250	0x3cb8097d	0.022465462
251	0x3d7ba804	0.06143953
252	0x3e8364b1	0.2566276
253	0xbe2f424c	-0.17115134
254	0xbdc24b40	-0.09487009
255	0xbd2f52bb	-0.042803507

shared.0.bias f4 [128]
0	0xbd75b884	-0.05999042
1	0xbeb13ba6	-0.3461582
2	0xbe0b17f5	-0.13583358
3	0xbe423cf0	-0.18968558
4	0xbe2b824f	-0.16748928
5	0xbd347cb4	-0.04406424
6	0xbd74d9cf	-0.05977803
7	0x3df06d70	0.117396235
8	0xbeba6379	-0.36404017
9	0xbdfd38b9	-0.123643346
10	0x3dcbd1f5	0.099521555
11	0xbe86c8a1	-0.26324943
12	0xbd18a27c	-0.037264332
13	0xbe2ed143	-0.17072015
14	0x3b87aca9	0.0041404557
15	0xbde24ee2	-0.11050202
16	0xbe2bc7b9	-0.16775407
17	0x3ea1c832	0.3159805
18	0x3dc4e1e8	0.09613401
19	0xbea47749	-0.32122257
20	0xbe009d26	-0.12559947
21	0x3af4aa51	0.0018666481
22	0xbc915c10	-0.017744094
23	0x3d9f5443	0.077797435
24	0xbdd5afd6	-0.10433929
25	0xbe52139b	-0.20515291
26	0xbd48415c	-0.048890457
27	0xbdbc1cd1	-0.09185184
28	0x3c4fc1b2	0.012680458
29	0xbe8fca16	-0.28083867
30	0xbd8704c0	-0.06592703
31	0xbe897b66	-0.26851958
32	0xbdf99644	-0.12186864
33	0xbdde3235	-0.1084942
34	0xbe8d4a61	-0.2759581
35	0x3c98bd22	0.018644873
36	0xbe815cde	-0.25266165
37	0xbea4d65f	-0.32194802
38	0xbd625c9b	-0.055264097
39	0xbe23627c	-0.15955538
40	0xbec75060	-0.3892851
41	0xbe7a8489	-0.2446462
42	0xbcbd1295	-0.02308015
43	0xbda2317e	-0.07919596
44	0x3da22d02	0.07918741
45	0xbebafcf0	-0.365211
46	0x3e2ad8e4	0.166843
47	0xbe8d78af	-0.27631137
48	0x3e0da401	0.13832094
49	0xbe6616c3	-0.2246962
50	0xbe9e6284	-0.30934536
51	0xbe31fc38	-0.1738137
52	0xbe85fe0b	-0.26170382
53	0xbe0a923f	-0.13532351
54	0xbcb8dc21	-0.022565903
55	0x3b875c93	0.0041309088
56	0x3cf22a60	0.029561222
57	0xbe64bd16	-0.22337756
58	0xbe311825	-0.17294367
59	0xbd476723	-0.048682343
60	0xbd6d784a	-0.057976045
61	0xbd87f125	-0.066377915
62	0xbe08cbff	-0.13359068
63	0xbe294d41	-0.16533376
64	0xbeb169e3	-0.34651098
65	0xbe22c3f6	-0.15895066
66	0xbe8fceb9	-0.28087404
67	0xbed06478	-0.40701652
68	0xbe25f1ad	-0.16205473
69	0x3b3aa021	0.0028476792
70	0xbee357f6	-0.44403046
71	0xbe8e96cf	-0.27849433
72	0x3d16a2e3	0.036776435
73	0x3e6bf83f	0.23043917
74	0x3c4816ef	0.012212499
75	0xbddc4575	-0.107554354
76	0x3e3ea1b2	0.1861637
77	0xbeab459a	-0.3345154
78	0xbe1c621a	-0.15271798
79	0xbe4a0a8d	-0.19730587
80	0xbe239390	-0.1597426
81	0xbe89f814	-0.2694708
82	0xbf02245f	-0.5083675
83	0xbe23151a	-0.15926018
84	0xbe84882f	-0.2588515
85	0xbe102d76	-0.14079842
86	0xbd52a162	-0.051423438
87	0xbdf1a37a	-0.11798759
88	0xbdb30559	-0.08741254
89	0xbe7b474f	-0.24538921
90	0x3d785319	0.060626123
91	0xbe214d56	-0.15752158
92	0xbd9cbb0c	-0.07652864
93	0x3e1b3e26	0.15160426
94	0xbe714948	-0.23563111
95	0x3e0c1baf	0.13682435
96	0xbe82e096	-0.2556197
97	0xbe8e4708	-0.27788568
98	0x3e37dff6	0.17956528
99	0xbe4a4060	-0.1975112
100	0x3e6dbde5	0.2321697
101	0xbe78ed5c	-0.24309295
102	0x3d462c11	0.04838187
103	0xbd986771	-0.07441605
104	0x3d460714	0.048346594
105	0xbe04647c	-0.12928957
106	0xbe0106e9	-0.12600292
107	0xbde9aa41	-0.114094265
108	0xbda3666c	-0.0797852
109	0xbe5b5572	-0.21419314
110	0xbd4b564b	-0.049642842
111	0xbeb00ecd	-0.34386292
112	0xbe5aa343	-0.21351342
113	0xbebdbd98	-0.3705871
114	0xbad3d79f	-0.0016162283
115	0xbe8c2f70	-0.27379942
116	0xbe615a9c	-0.22007221
117	0xbe301af1	-0.17197777
118	0xbe9c0fcf	-0.3048081
119	0xbe06eb0a	-0.13175598
120	0xbc769aef	-0.0150515875
121	0xbeb7c411	-0.35891774
122	0xbe087bfe	-0.1332855
123	0xbe80c669	-0.25151375
124	0xbe5ce690	-0.21572328
125	0x3da8d8d2	0.0824448
126	0xbed5fb00	-0.4179306
127	0x3beced9f	0.007230475

shared.2.weight f4 [128, 128]
0	0x3c838043	0.01605237
1	0x3d02c1ed	0.031923223
2	0x3d410b9a	0.047130205
3	0xbccd5bf1	-0.025068255
4	0x3d6f907d	0.058487404
5	0x3d220664	0.039556876
6	0xbd3484a6	-0.044071816
7	0x3d0d374a	0.034476556
8	0xbceb4389	-0.028718727
9	0x3d82b2cf	0.06381761
10	0xbcbfdddc	-0.02342122
11	0xbd9c7860	-0.07640147
12	0xbdbb8936	-0.0915703
13	0x3c33c34b	0.010971854
14	0x3cfa5b5b	0.03056114
15	0x3d9ebba1	0.07750631
16	0x3d2aaa86	0.04166653
17	0xbcd831d4	-0.026390947
18	0x3c093b7e	0.008376
19	0x3b31d2be	0.0027133669
20	0x3c41724e	0.0118070375
21	0xbde5264d	-0.11188946
22	0xbd9e4381	-0.07727719
23	0x3c7cd52d	0.015431684
24	0x3da9be49	0.08288247
25	0xbd9facc2	-0.07796623
26	0xbd03f2a6	-0.03221383
27	0xbbd427a2	-0.006474451
28	0xbdfdd298	-0.12393683
29	0xbd7aef62	-0.06126345
30	0xbcf98ce4	-0.03046269
31	0x3b482138	0.0030537378
32	0xbd0bc332	-0.0341217
33	0xbba9290a	-0.005162363
34	0x3d818321	0.06323839
35	0xbd01bbb1	-0.031673137
36	0x3d609b9f	0.05483591
37	0xbdda1c81	-0.10649968
38	0x3d41ec65	0.047344584
39	0xbdaec309	-0.08533294
40	0x3ca7f12f	0.020500747
41	0xbe032981	-0.12808801
42	0xbdb5dd64	-0.088801175
43	0x3cf8e14c	0.030380867
44	0xbcbcbb3d	-0.0230385
45	0xbda0ce6e	-0.07851873
46	0xbd8b660b	-0.068065725
47	0x3c99fb45	0.018796572
48	0xbcd11c42	-0.02552617
49	0xbda9e483	-0.08295538
50	0x3c86b589	0.016443985
51	0xbd8de17b	-0.069277726
52	0x3c9caf8e	0.01912668
53	0xbbd9434b	-0.0066303364
54	0xbcfcd439	-0.030862914
55	0x3d1b47e0	0.037910342
56	0x3d2e3a00	0.04253578
57	0xbd82e377	-0.06391042
58	0xbca34bb2	-0.019933555
59	0x3d2bbf72	0.041930623
60	0xbd04131f	-0.032244798
61	0xbd2b98d3	-0.04189379
62	0xbcfd63c1	-0.030931355
63	0xbd96cf83	-0.073637985
64	0x3d4c20f6	0.04983612
65	0x3d1b65a4	0.03793873
66	0xbc146663	-0.009057614
67	0xbcea733a	-0.028619397
68	0xbdf8b4c9	-0.12143857
69	0xbc1ff285	-0.009762411
70	0xbd4a0566	-0.049321555
71	0x3c5f98b6	0.013647249
72	0xbd368972	-0.04456467
73	0xbd8e4b51	-0.06947959
74	0xbd70ba4a	-0.05877141
75	0xbd8a64a9	-0.06757481
76	0xbd3bae04	-0.04582025
77	0xbdea0777	-0.11427205
78	0xbd8780db	-0.06616374
79	0x3d163e40	0.03668046
80	0xbd09a4f9	-0.033604596
81	0xbd1e899b	-0.03870545
82	0xbe01b141	-0.12665273
83	0xbdb66ac9	-0.089070864
84	0xbd488989	-0.04895929
85	0xbd00b3fa	-0.03142164
86	0xbcf31a7e	-0.029675718
87	0xbe2506a6	-0.16115817
88	0xbdb15371	-0.08658493
89	0xbd423d1a	-0.047421552
90	0xbc5ed994	-0.013601679
91	0xbd7541d8	-0.059877247
92	0x3c82f0bc	0.015983932
93	0x3cd20acd	0.025639916
94	0x3d5c22f0	0.053744256
95	0xbd4fffee	-0.050781183
96	0xbde81e93	-0.113339566
97	0xbcdc2799	-0.02687435
98	0xbd8498a2	-0.06474425
99	0x3d04ddb7	0.032438006
100	0xbdbf0500	-0.093271255
101	0x3c5e99e6	0.013586497
102	0xbe2d8d3d	-0.1694841
103	0xbde86f8e	-0.11349402
104	0xbdb62cd2	-0.088952675
105	0xbc920987	-0.017826809
106	0xbdb8e161	-0.090273626
107	0xbbc45236	-0.0059912456
108	0x3d5f7aad	0.054560352
109	0xbd937708	-0.07200438
110	0x3d2060d9	0.03915486
111	0xbd58f290	-0.0529657
112	0xbdc5414c	-0.09631595
113	0x3ccfcad3	0.025365269
114	0xbc24a2ca	-0.010048578
115	0xbc797a9f	-0.015226989
116	0x3c290d07	0.010318047
117	0xbde6107f	-0.11233615
118	0xbdb898c6	-0.09013514
119	0xbcded395	-0.0272005
120	0xbd46652d	-0.048436332
121	0xbd9c5e11	-0.07635129
122	0xbd4b0fd5	-0.049575645
123	0x3c5f64e6	0.013634896
124	0x3c822aaf	0.015889494
125	0x3c93fe93	0.018065726
126	0xbd8fba9e	-0.07018016
127	0xbcd27402	-0.025690082
128	0xbd42e346	-0.047580026
129	0xbd017316	-0.031603895
130	0xbdf2d935	-0.11857835
131	0xbe025d24	-0.12730843
132	0x3cc211cb	0.023690125
133	0x3ce2ced2	0.02768651
134	0xbdc15b46	-0.09441237
135	0x3da3ea35	0.08003656
136	0x3d6f65ad	0.058446575
137	0x3cc6d8f7	0.024273379
138	0xbd8bfe64	-0.068356305
139	0xbd087354	-0.03331311
140	0xbddb66c3	-0.107129596
141	0x3d285b56	0.04110273
142	0x3c9507d4	0.01819221
143	0x3d521b52	0.051295586
144	0x3ca50e46	0.020148408
145	0xbd839d0e	-0.0642644
146	0xbd6cb620	-0.057790875
147	0x3d397265	0.04527511
148	0xbdd4336e	-0.10361372
149	0xbd2dfd8b	-0.042478126
150	0xbd904aac	-0.070454925
151	0x3cf49017	0.029853864
152	0x3c1617d8	0.009160958
153	0x3c562714	0.01307084
154	0xbab6f668	-0.0013958933
155	0xbd9c0e3a	-0.07619901
156	0xbd2a2bed	-0.041545797
157	0xbd625760	-0.05525911
158	0xbceff1f9	-0.029290186
159	0xbdbb6c11	-0.091514714
160	0x3b34c756	0.0027584634
161	0xbdcb6e49	-0.099331446
162	0xbd1be577	-0.03806063
163	0x3d441cdb	0.04787908
164	0xbdd67f57	-0.10473507
165	0x3bf6d2e4	0.0075324643
166	0xbd0d6dac	-0.03452842
167	0xbde00563	-0.109385274
168	0xbdccc97c	-0.099993676
169	0xbb600631	-0.0034183378
170	0x3d1b7a32	0.03795833
171	0x3aaabf0a	0.0013026905
172	0x3cebd392	0.028787408
173	0xbd9e783d	-0.077377774
174	0x3d734493	0.05939157
175	0x3d1549f6	0.036447488
176	0xbc71baa2	-0.014753969
177	0xbd371ede	-0.04470717
178	0xbdcdc1e9	-0.10046751
179	0xbda3456d	-0.07972226
180	0x3d262f66	0.040572546
181	0x3cc51079	0.024055706
182	0x3d3a8742	0.04553915
183	0x3d873f24	0.0660384
184	0xbdde1845	-0.10844473
185	0xbccdbfa8	-0.025115803
186	0xbd83a88d	-0.06428633
187	0x3d20555b	0.0391439
188	0xbd219e43	-0.03945757
189	0xbdf3d3a6	-0.11905603
190	0xbd842499	-0.06452293
191	0xbc635557	-0.013875327
192	0xbd3aa0e1	-0.045563582
193	0xbda71109	-0.08157546
194	0x3cd5a05d	0.026077444
195	0xbd8ee667	-0.069775395
196	0x3d81d80c	0.06340036
197	0x3d045086	0.032303356
198	0x3c115251	0.008869723
199	0x3ce34ec9	0.027747529
200	0xbda612b9	-0.0810904
201	0x3cf4c681	0.02987981
202	0xbde11ed4	-0.10992208
203	0xbc05603d	-0.008140621
204	0xbdd5153e	-0.10404442
205	0xbd942a74	-0.0723466
206	0xbd32257b	-0.043492775
207	0xbe0e762e	-0.1391227
208	0x3d30d38b	0.043170493
209	0x3b94054a	0.004517232
210	0x3a2ae867	0.0006519616
211	0x3ca356ae	0.019938793
212	0xbdbfb5a7	-0.09360819
213	0xbcceb047	-0.02523054
214	0x3cbd951a	0.023142386
215	0xbd0975f3	-0.03355975
216	0x3db0d4f2	0.08634366
217	0xbdcee313	-0.10101905
218	0xbced81b0	-0.028992504
219	0x3b6cdd83	0.0036142773
220	0xbdac08a0	-0.084000826
221	0xbdc5c28d	-0.09656248
222	0xbd977c0c	-0.07396707
223	0x3cd785de	0.02630895
224	0x3ad56b9e	0.0016282683
225	0x3c81678f	0.01579645
226	0xbe0bd6f4	-0.13656217
227	0xbe21255c	-0.15736908
228	0xbe05638f	-0.1302626
229	0xbc9a11f9	-0.018807398
230	0x3cd3223b	0.025773158
231	0xbdaa0633	-0.08301964
232	0xbd3e5a86	-0.04647305
233	0xbdcb0d90	-0.09914696
234	0x3d806cca	0.0627075
235	0xbd5c4109	-0.05377296
236	0xbce70bb6	-0.028203826
237	0xbc7a352f	-0.015271469
238	0x3d0489df	0.032358047
239	0xbd4fa1b6	-0.05069133
240	0x3db6e64b	0.08930644
241	0xbb961ce1	-0.0045810794
242	0xbc802ac7	-0.015645398
243	0x3d0066de	0.0313481
244	0xbd760ede	-0.060072772
245	0xbdab6f76	-0.08370869
246	0x3d633792	0.055472918
247	0xbd7801fa	-0.06054876
248	0xbdc68364	-0.096930295
249	0xbd847c4b	-0.064690195
250	0xbdd473b0	-0.10373628
251	0xbd764e51	-0.060133282
252	0xbcc6f871	-0.024288388
253	0xbdcc2ff7	-0.09970086
254	0xbde84de7	-0.11342984
255	0xbcf6f984	-0.030148275

shared.2.bias f4 [128]
0	0xbd911feb	-0.07086166
1	0xbde0f1d9	-0.10983629
2	0xbe055c98	-0.13023603
3	0x3cbc75ac	0.02300533
4	0xbcecc62c	-0.02890309
5	0x3cc63454	0.024194874
6	0x3d1cad20	0.038251042
7	0x3cd86b27	0.026418282
8	0xbde9fb7a	-0.114249185
9	0x3c8cb018	0.017173812
10	0xbdc81153	-0.09768929
11	0xbd0c53d0	-0.034259617
12	0x3bf830e0	0.0075741857
13	0xbda188f7	-0.07887452
14	0xb9cdabed	-0.00039228742
15	0xbe128224	-0.14307457
16	0xbca021d2	-0.019547377
17	0xbdafdf69	-0.08587534
18	0x3c387ceb	0.0112602515
19	0xbdbf0a8f	-0.09328186
20	0xbddd860f	-0.10816585
21	0x3d2d230c	0.04226975
22	0xbda3714d	-0.07980595
23	0x3bfea690	0.0077713206
24	0xbc7acb64	-0.015307281
25	0x38ae8655	8.321988e-05
26	0x3cadea5b	0.021229913
27	0x3cabb68f	0.020961074
28	0xbd99d461	-0.07511211
29	0xbd287adb	-0.04113279
30	0xbdd05fe7	-0.10174542
31	0xbc84b66a	-0.016200263
32	0x3d0e906b	0.034805696
33	0xbcc55b72	-0.024091456
34	0xbd8ab08c	-0.06771955
35	0x3d06d9df	0.03292262
36	0xbdc38934	-0.09547654
37	0xbd1c9ae5	-0.038233656
38	0xbdbc1220	-0.091831446
39	0xbd9800c9	-0.07422025
40	0xbdadecb0	-0.0849241
41	0xbc88398f	-0.016629009
42	0x3c83c555	0.016085306
43	0xbdaec993	-0.08534541
44	0xbe0d3eb7	-0.13793455
45	0xbd818186	-0.06323533
46	0xbb0f2bf2	-0.0021846262
47	0x3cfff99a	0.031246949
48	0xbcb040f5	-0.021515349
49	0xbdd026c2	-0.101636425
50	0x39dabca9	0.00041720763
51	0xbd724fbe	-0.05915808
52	0xbe0d595e	-0.13803622
53	0xbcd9de92	-0.026595388
54	0xbc657fd2	-0.0140075255
55	0x3d369db7	0.044584002
56	0x3b59ebae	0.0033252048
57	0xbdf8fa60	-0.1215713
58	0xbbf683a1	-0.0075230156
59	0xbcbbae6d	-0.022910321
60	0xbd8110a8	-0.06302005
61	0xbd2de713	-0.042456698
62	0x3c17e139	0.009270006
63	0xbd407b0e	-0.046992354
64	0xbdd9ed2f	-0.10640942
65	0xbdb27658	-0.087139785
66	0xbcd3fe0f	-0.02587798
67	0xbd7ba5b9	-0.061437342
68	0xbdee36b6	-0.11631529
69	0x3d22614a	0.039643563
70	0xbc96f09d	-0.01842528
71	0xbd84d005	-0.06484989
72	0x3bd483b1	0.0064854254
73	0x3cca096d	0.024662698
74	0xbe002c64	-0.12516934
75	0x3d1fdc79	0.03902862
76	0x3bc03e00	0.005866766
77	0xbde6f5f2	-0.11277379
78	0xbafd0c16	-0.001930597
79	0x3d0abd36	0.03387185
80	0xbd5b93c8	-0.053607732
81	0x3ca51a64	0.020154186
82	0x3d027763	0.031852137
83	0xbdb6775a	-0.08909483
84	0xbcc5b934	-0.024136163
85	0xbd6fa6a0	-0.058508515
86	0x3cc8ed6d	0.024527276
87	0xbdeadbf8	-0.11467737
88	0x3c8842b6	0.016633373
89	0xbdcb7a1a	-0.099353984
90	0xbc6f7a9a	-0.014616633
91	0xbdd5b240	-0.10434389
92	0xbc2f585f	-0.010702222
93	0xbd671d25	-0.05642428
94	0xbd6b7a79	-0.057489846
95	0x3cdf06cd	0.027224923
96	0x3d35921e	0.0443288
97	0xbdb2da14	-0.08733001
98	0xbd8e9da3	-0.069636606
99	0x3d15b9ac	0.036554024
100	0xbdf601ee	-0.12012087
101	0xbc5c663b	-0.013452108
102	0xbd5332ad	-0.051562
103	0x3cab9c76	0.02094863
104	0xbd890973	-0.066912554
105	0xbd436b43	-0.047709715
106	0xbdee16f6	-0.11625473
107	0xbddfa5b6	-0.10920279
108	0xbd0c9f70	-0.03433174
109	0x3cdb533f	0.026773093
110	0xbddcf8b5	-0.107896246
111	0x3d042015	0.03225716
112	0xbdc36721	-0.09541155
113	0xbcfc9699	-0.03083353
114	0xbd874783	-0.06605437
115	0xbe0a37d1	-0.13497855
116	0xbda3dbb5	-0.0800089
117	0xbd781e16	-0.060575567
118	0xbd697ddf	-0.057004806
119	0xbda0e977	-0.0785703
120	0xbdc159f5	-0.09440986
121	0x3cfd162e	0.030894365
122	0xbca51279	-0.02015041
123	0xbd85421b	-0.06506749
124	0xbdbe207e	-0.09283541
125	0xbda7adae	-0.08187424
126	0x3d37b48f	0.04484993
127	0xbd9a3bbe	-0.07530926

move_mean.weight f4 [2, 128]
0	0x3a1b5529	0.00059254706
1	0xbd2260d2	-0.039643116
2	0xbbd66429	-0.0065427017
3	0x3cb9614b	0.0226294
4	0x3c252232	0.010078954
5	0x3c108486	0.008820659
6	0x3bd0da1a	0.006373656
7	0x3d1a87ce	0.03772717
8	0x3cc309aa	0.02380832
9	0x38d4e043	0.0001015072
10	0xbb1c83ed	-0.0023882345
11	0x3b6e3c61	0.0036351907
12	0xbc1e4212	-0.009659307
13	0x3d478114	0.048707083
14	0x3c76918f	0.015049352
15	0xbbf6c671	-0.0075309803
16	0x3d11caf3	0.035593938
17	0x3c33a308	0.010964163
18	0xbc55af67	-0.013042307
19	0xbcf20386	-0.029542696
20	0x3d43bc12	0.04778678
21	0x3d754b3a	0.059886195
22	0xbce4669c	-0.02788096
23	0x3cfd5a36	0.030926805
24	0xbc444665	-0.011979674
25	0x3d453780	0.048148632
26	0x3d32d067	0.04365578
27	0xbab5addb	-0.0013861017
28	0x3c5cdc15	0.013480206
29	0xbbbeffba	-0.005828825
30	0x3c3fc476	0.011704555
31	0xbc40fcad	-0.011778993
32	0x3cc612c9	0.02417888
33	0x3b8ff16f	0.004392795
34	0x3d28affc	0.041183457
35	0xbcd86afa	-0.026418198
36	0xbbffe241	-0.007808954
37	0x3d5dc104	0.054139152
38	0xbd8124bc	-0.06305835
39	0x3c8bd48e	0.017069127
40	0x3b5425c5	0.0032371145
41	0x3c2a2887	0.010385639
42	0x3d5b10b5	0.05348273
43	0x3c7fb2aa	0.015606562
44	0xbc5e1790	-0.013555422
45	0xbb0c2abf	-0.0021387783
46	0xbc9b7dc0	-0.01898086
47	0xbd1674b0	-0.036732376
48	0x3ccea63e	0.025225755
49	0xbb14cf75	-0.0022706662
50	0xbaafce5a	-0.0013412938
51	0xbbdf2692	-0.006810018
52	0xbbb6e1f1	-0.0055811335
53	0x3ab0e1da	0.0013495043
54	0x3c7c67f3	0.015405643
55	0xbd19ebb0	-0.037578285
56	0xbd16bea3	-0.0368029
57	0xbce19828	-0.027538374
58	0x3ce7c351	0.028291376
59	0xb89a76cd	-7.3654206e-05
60	0xbb902060	-0.0043983907
61	0x3bf9eed5	0.007627348
62	0xbb78c308	-0.0037958045
63	0xbb51ecb8	-0.0032031965
64	0xbbc58bf7	-0.006028648
65	0x3bef03d3	0.007294157
66	0x3b113ee6	0.0022162735
67	0xbc158539	-0.009126001
68	0xbc1df3b7	-0.009640626
69	0x3d2a9d9a	0.041654207
70	0x3c21bcfb	0.009871717
71	0x3d391607	0.045187023
72	0xbca93946	-0.020657193
73	0x3c94b39d	0.018152053
74	0x3bbbfa22	0.0057366053
75	0xbc902fb0	-0.017600864
76	0xbc935262	-0.01798362
77	0xbcd901c8	-0.026490107
78	0x3d437855	0.04772218
79	0xbc454a94	-0.012041707
80	0xbc4c8f61	-0.012485356
81	0x3d625b37	0.05526277
82	0x3bb254e9	0.005442251
83	0x3c41eb3a	0.011835868
84	0x3ab23083	0.001359478
85	0xba045bc1	-0.0005049073
86	0x3cebdf64	0.028793044
87	0x3b75b4b9	0.0037491752
88	0x3d0651a1	0.03279269
89	0x3c3c205e	0.011482326
90	0xbd32c1f6	-0.043642007
91	0xbd2ddcd9	-0.042446945
92	0x3c55f2df	0.013058393
93	0xbd613059	-0.05497775
94	0x3c5addb4	0.013358522
95	0x3d90c3ec	0.07068619
96	0x3d586100	0.05282688
97	0xbcce7b97	-0.025205417
98	0x3d8ab335	0.06772462
99	0x3ca07c09	0.019590395
100	0x3bcc0430	0.006226085
101	0x3d1923fc	0.037387833
102	0xbc8985d8	-0.016787454
103	0x3c0c8b62	0.008578153
104	0x3a213900	0.0006150156
105	0xbc0583d2	-0.008149104
106	0x3d2d494a	0.042306222
107	0x3ceb5eb9	0.02873169
108	0x3ae7d0d4	0.0017686137
109	0xbaefa22f	-0.0018282587
110	0x3b992a2b	0.0046742163
111	0xbc0bd901	-0.0085356245
112	0xbd7a3d60	-0.061093688
113	0x3c088c64	0.008334253
114	0x3ae518f5	0.0017478751
115	0xbc2f50d4	-0.010700423
116	0x3cd179cc	0.025570773
117	0x3be2db9e	0.006923153
118	0x3ccf7217	0.025322957
119	0x3cfb944a	0.030710358
120	0xbd81d6d7	-0.063398056
121	0xbd345107	-0.044022586
122	0x3d71871b	0.058966737
123	0xbccb8e06	-0.024847995
124	0x3a25e72c	0.0006328698
125	0xbc726167	-0.01479373
126	0x3b711d73	0.0036791235
127	0x3c2c8b44	0.01053125
128	0x3cfc2186	0.030777704
129	0x3ca33516	0.019922774
130	0x3a638497	0.000867912
131	0xbb386901	-0.002813876
132	0x3d29864f	0.041387852
133	0x3c8d34c7	0.01723708
134	0x3c0cd7a2	0.008596333
135	0x3cf9c094	0.030487336
136	0x3c4f6b08	0.012659796
137	0xbc477897	-0.012174747
138	0xbcf5d809	-0.03001024
139	0x3c0567bd	0.008142409
140	0x3da94195	0.08264462
141	0xbbce6f02	-0.0062998543
142	0xba04b529	-0.00050623954
143	0xbc054a38	-0.008135371
144	0xbbc80699	-0.006104302
145	0xba0841ce	-0.0005197794
146	0xbc9893e9	-0.018625217
147	0x3d1c9dab	0.0382363
148	0x3d820f77	0.06350606
149	0x3b18d66d	0.0023321167
150	0x3d41f8df	0.047356483
151	0xbcf95f60	-0.030440986
152	0xbcaedb33	-0.021344757
153	0xbcd49720	-0.025950968
154	0x3d172446	0.036899827
155	0xbb441206	-0.002991797
156	0xbc0cd946	-0.008596724
157	0x3c11aa34	0.008890677
158	0xbc0e7201	-0.008694173
159	0xbbeb7e31	-0.007186674
160	0xbca42eed	-0.020041907
161	0xbb1f1acb	-0.0024277444
162	0x3ca4c1fa	0.020112026
163	0xbcf85425	-0.03031356
164	0xbc72160b	-0.014775763
165	0xbd3347cf	-0.043769654
166	0x3d3e1488	0.0464063
167	0xbbb6ed00	-0.005582452
168	0x3d04d506	0.032429717
169	0x3b1e4672	0.0024150875
170	0xbc48911f	-0.012241631
171	0x3cba5ccc	0.022749327
172	0xbc172208	-0.009224422
173	0x3cf83de2	0.030302946
174	0xba8da371	-0.0010806156
175	0xbcd7b06a	-0.026329238
176	0x3b9d2f17	0.0047968733
177	0xbbf74c7c	-0.0075469594
178	0xbac0efb9	-0.001471988
179	0xbb390237	-0.002823008
180	0x3cac9696	0.021067899
181	0x3d2d077d	0.04224347
182	0x3c56563e	0.013082085
183	0x3d714d5e	0.058911674
184	0xbd7817ee	-0.060569696
185	0x3b636e6b	0.0034703265
186	0x3d079d7f	0.033109184
187	0xbc7f2d81	-0.015574814
188	0x3cb6426f	0.022248475
189	0xbc0efd6e	-0.0087274145
190	0xbc9899e4	-0.018628068
191	0x3ccf8263	0.025330728
192	0x3c4a8538	0.012360863
193	0xbc271201	-0.010197164
194	0xbcae0524	-0.021242686
195	0xbbb65231	-0.005563997
196	0xbc587130	-0.01321058
197	0x3c4c26ae	0.012460394
198	0xbc42ef2e	-0.011897845
199	0xbd7597d3	-0.059959244
200	0x3b0e9129	0.0021754003
201	0xbc3d68e9	-0.011560657
202	0xbd181605	-0.037130374
203	0x3c3a382f	0.011365934
204	0xbd147ee7	-0.036253836
205	0xbd028e66	-0.031874083
206	0xbd6a46f3	-0.05719657
207	0x3bc2c010	0.005943306
208	0xbd55373f	-0.05205464
209	0xbd62b16a	-0.055344976
210	0xbbffda06	-0.007807973
211	0x3c892db0	0.016745418
212	0xbc3ab1de	-0.011394946
213	0xb9309f0d	-0.00016843919
214	0xbc8a69f5	-0.016896227
215	0xbd1f604f	-0.038910206
216	0xbc2d5ce4	-0.010581229
217	0xbc9d5bee	-0.019208875
218	0x3c53efbc	0.012935575
219	0x3a6d3261	0.00090483396
220	0x3a14b1c5	0.00056722417
221	0x3cc2d049	0.023780959
222	0x3d3b46b5	0.04572173
223	0x3c71b688	0.0147529915
224	0x3c87b0e9	0.01656385
225	0xbd3a4d30	-0.045483768
226	0x3cc92fde	0.024558958
227	0x3c9fe1f8	0.01951693
228	0x3d05de76	0.03268286
229	0x3d743c8b	0.05962805
230	0xbd84b46e	-0.06479727
231	0xbc4d9ccb	-0.012549589
232	0x3d2cf5b3	0.042226505
233	0x3c03622f	0.008019014
234	0xbcaba0a4	-0.020950623
235	0x3c80b902	0.015713219
236	0x3c011d98	0.007880591
237	0x3d135779	0.035972092
238	0xbb7d4f4f	-0.0038652008
239	0x39e67cce	0.00043962005
240	0xbca72957	-0.020405455
241	0xbc11c970	-0.008898124
242	0x3d238117	0.03991803
243	0xbc8b06b1	-0.016970964
244	0xbb16c29f	-0.0023004187
245	0xbb661cad	-0.0035112307
246	0xbd29a363	-0.041415583
247	0x3c87a032	0.01655588
248	0x3cb080bf	0.021545766
249	0x3c36edf8	0.011165135
250	0xbdabd8ec	-0.08390984
251	0x3c9fd8a5	0.019512484
252	0x3af6aba6	0.0018819466
253	0x3bd21353	0.006410995
254	0xbb1e3bfc	-0.002414464
255	0x3d067526	0.032826565

move_mean.bias f4 [2]
0	0x3e0c0cac	0.13676709
1	0xbea1b213	-0.31581172

food_logits.weight f4 [3, 128]
0	0xbd2a8104	-0.041626945
1	0x3ca1e77d	0.019763703
2	0x3cacfddd	0.021117145
3	0xbc1ed1ce	-0.009693576
4	0x3cca6a0a	0.024708766
5	0xbcb8f1bd	-0.022576207
6	0x3c00aca2	0.007853659
7	0x3d1c7a90	0.038202822
8	0xbcae7e76	-0.021300536
9	0xbcd89309	-0.0264373
10	0x3d06f19a	0.032945253
11	0xbd246d56	-0.040143333
12	0xbd842556	-0.06452434
13	0xbcca5708	-0.024699703
14	0x3c236ac7	0.009974188
15	0x3d3655b4	0.044515327
16	0xbd0257ed	-0.031822134
17	0xbac974f2	-0.0015369935
18	0x3d5c4e37	0.05378553
19	0xbd7e5d50	-0.06210071
20	0x3d559c40	0.052150965
21	0x3c2f8def	0.010714992
22	0xbd58d346	-0.05293586
23	0xbc025319	-0.007954382
24	0xbbef2f3b	-0.0072993315
25	0x3d55c8b6	0.052193366
26	0x3d2a3cf7	0.041562047
27	0xbd2f4467	-0.042789843
28	0x3bed0342	0.0072330544
29	0xbcc374be	-0.023859378
30	0xbd100718	-0.035163015
31	0x3d47f0a7	0.04881349
32	0x3d694d82	0.056958683
33	0x3d473f6b	0.048644464
34	0x3d2a13a4	0.041522637
35	0xbcc1e407	-0.023668302
36	0x3d70a6f4	0.05875297
37	0xbbb1ed30	-0.0054298863
38	0x3d05c687	0.032660034
39	0xbd50ff17	-0.051024523
40	0xbdad3bd7	-0.08458679
41	0x399d28eb	0.0002997586
42	0x3cbb07fa	0.022830952
43	0xbc91e532	-0.017809484
44	0xbc362263	-0.011116597
45	0x3d1059d3	0.035241913
46	0xbd0a4fb8	-0.033767432
47	0x3d975110	0.07388508
48	0x3d2901cb	0.041261476
49	0xbc35cb4c	-0.011095833
50	0xbda49587	-0.080363326
51	0x3cb69f3a	0.022292722
52	0x3d375521	0.04475892
53	0x3ba3df43	0.00500098
54	0xbd89b4e1	-0.06723953
55	0xbd0bc51c	-0.034123525
56	0x3c1afd37	0.009459785
57	0xbc9509e1	-0.018193187
58	0x3c64c3e6	0.013962721
59	0x3cc37827	0.023861004
60	0x3d2b2a81	0.04178858
61	0xbd3607c8	-0.044441015
62	0x3d81da4a	0.063404635
63	0x3c800672	0.015628073
64	0x3da4ab8f	0.08040535
65	0x3d4d861d	0.05017673
66	0x3d816c03	0.0631943
67	0x3ce8effe	0.02843475
68	0x3bf8d742	0.00759402
69	0x3d320110	0.043458045
70	0x3c8ce90b	0.017200967
71	0x3d8f683c	0.07002303
72	0xbbb693aa	-0.005571802
73	0x3d04ecd4	0.03245242
74	0x3c42e33a	0.011894995
75	0xbcdc4168	-0.026886657
76	0x3d55491b	0.052071672
77	0x3d381ff7	0.04495236
78	0x3d2c75e2	0.04210461
79	0x3d298e7a	0.041395642
80	0x3d3dff07	0.04638579
81	0x3d9fb34f	0.07797872
82	0x3d5c8af7	0.053843465
83	0x3d6b28c7	0.057411935
84	0xbcbc594a	-0.022991795
85	0xbd554534	-0.05206795
86	0x3d08c213	0.03338821
87	0x3d97b2a1	0.07407118
88	0xbcf7c8a4	-0.03024704
89	0x3d083f60	0.033263564
90	0xbce8a2fd	-0.028398031
91	0xbca13fac	-0.019683681
92	0x3cfb54aa	0.03068002
93	0x3d0c251c	0.034215078
94	0xbd1cddc8	-0.038297445
95	0xbcdad9ef	-0.026715247
96	0xbb597a39	-0.0033184423
97	0xbcdae430	-0.026720136
98	0xbcef18b5	-0.029186586
99	0xbceb37c0	-0.028713107
100	0xbd5671fc	-0.052354798
101	0xbd27779d	-0.040885556
102	0x3d6bc52e	0.057561092
103	0xbd22bc7d	-0.039730538
104	0xbd93ca72	-0.07216348
105	0xbcb0a8b5	-0.02156482
106	0xbd35686d	-0.04428904
107	0x3d6af3ed	0.057361532
108	0x3ce32498	0.02772741
109	0x3d3ea3e7	0.04654303
110	0xbd733a3f	-0.05938172
111	0x3c3c66f9	0.01149916
112	0xbcb0a6cd	-0.021563912
113	0xbd57f899	-0.052727316
114	0x3d2ce681	0.042212013
115	0x3ca4f7c0	0.020137668
116	0x3caa68bb	0.020801893
117	0xbaa20248	-0.0012360299
118	0xbcd7fca8	-0.026365593
119	0x3cf0d99c	0.02940064
120	0xbcff9138	-0.031197175
121	0x3c22462a	0.009904424
122	0xbd0e9e40	-0.034818888
123	0xbd464e50	-0.04841453
124	0x3ad5696f	0.0016282032
125	0x3cf0c2e3	0.029389804
126	0xbcafebe2	-0.021474782
127	0x3d3f2a01	0.046670917
128	0xbcddb2da	-0.027062822
129	0x3bc4b6d7	0.0060032415
130	0xbc4a5fea	-0.012351969
131	0xbcf79a6d	-0.030225003
132	0xba67410b	-0.0008821643
133	0x3d0729b5	0.03299876
134	0x3c8368a5	0.01604111
135	0x3d8bafb8	0.06820625
136	0xbd0e4d08	-0.03474143
137	0xbd002a94	-0.031290606
138	0x3c952096	0.018204015
139	0xbc25fd11	-0.0101311365
140	0xba9dcbc6	-0.0012038879
141	0x3d890d1e	0.06691955
142	0xbb9c89ba	-0.0047771605
143	0x3c1b2369	0.009468892
144	0x3d412e55	0.047163326
145	0xbc5755c1	-0.013143004
146	0x3ce4b6d3	0.027919209
147	0xbd9614dd	-0.07328198
148	0xbc3333d3	-0.010937649
149	0x3d0a7a5a	0.03380809
150	0xbaf70cfc	-0.0018848474
151	0xbc3f1a91	-0.011664049
152	0x3b4a3dad	0.0030859516
153	0x3d464b69	0.04841176
154	0x3bc8fc62	0.006133602
155	0xbd1d7c33	-0.038448524
156	0x3bf31694	0.007418463
157	0xbcb5e08d	-0.0222018
158	0xbc8641f0	-0.016388863
159	0x3cdd7bcf	0.027036576
160	0x3cee8f3e	0.029121038
161	0x3ceed0d4	0.029152311
162	0x3d33a9d4	0.043863133
163	0xbcd759fc	-0.026288025
164	0x3da63faa	0.08117612
165	0x3daef3b0	0.085425735
166	0xbc07e774	-0.008294929
167	0xbd2fc75f	-0.042914744
168	0x3c14ad68	0.009074546
169	0x3caad430	0.020853132
170	0xbbf8e940	-0.007596165
171	0xbb062ead	-0.0020474598
172	0x3c259b66	0.010107851
173	0x3d8f7489	0.07004649
174	0xbd145045	-0.036209363
175	0x3d88c7c7	0.066787295
176	0x3b7cc7c1	0.003857121
177	0x3c865d81	0.016402008
178	0xbd8b317c	-0.06796548
179	0xbcbcc1f7	-0.023041708
180	0x3d53323b	0.051561575
181	0x3d844ebd	0.06460331
182	0xbcc69b3b	-0.024243942
183	0xbd96c513	-0.07361808
184	0x3d2e720e	0.04258924
185	0x3b7535e7	0.0037416162
186	0x3d20b8b3	0.039238643
187	0x3d7cb909	0.0616999
188	0x3d072d51	0.0330022
189	0xbc075a2c	-0.008261245
190	0x3d91c81b	0.07118245
191	0x3d15bb43	0.03655554
192	0x3d3faaff	0.046793934
193	0x3d722385	0.059115905
194	0xbd04120a	-0.032243766
195	0x3a622b16	0.0008627636
196	0x3cb2afc3	0.021812325
197	0x3ac42124	0.001496349
198	0x3d3d851f	0.046269532
199	0xbda48bda	-0.08034487
200	0x3cbec68c	0.023288034
201	0x3d1cb600	0.038259506
202	0x3d984cd3	0.07436528
203	0xbcb0f578	-0.021601424
204	0xbcbe28a9	-0.023212748
205	0x3ceb3fa4	0.02871687
206	0x3da43439	0.08017773
207	0x3d5bebbe	0.05369162
208	0x3d050f7b	0.032485466
209	0xbd2ebcb4	-0.04266043
210	0x3d941c70	0.072319865
211	0x3d7c4b74	0.061595395
212	0xbc9a5798	-0.018840596
213	0xbd829b32	-0.063772574
214	0x3ce23db7	0.027617319
215	0x3c626f12	0.013820427
216	0xbd6269fd	-0.05527686
217	0xbb3b8c5a	-0.0028617592
218	0xbc3d3750	-0.011548832
219	0xbd84bb0a	-0.06480987
220	0x3ca20e79	0.019782292
221	0x3d79cea3	0.06098808
222	0x3cc30800	0.023807526
223	0x3c1fcc6b	0.009753327
224	0xbd01dc25	-0.031704087
225	0xbd0ddede	-0.03463637
226	0xbaf04f40	-0.0018334165
227	0xbd23e544	-0.040013567
228	0xbd85e9ac	-0.0653871
229	0xbc79dc79	-0.015250319
230	0x3d56c0b6	0.052429877
231	0xbcf1d907	-0.029522432
232	0x3d413dad	0.04717796
233	0xbcb8b48a	-0.022547025
234	0x3c40bf14	0.011764307
235	0x3cbd5243	0.023110515
236	0xbc43e643	-0.011956754
237	0x3ca43815	0.020046273
238	0xbcb7374b	-0.022365233
239	0x3c80766b	0.015681466
240	0x3aeecabd	0.001821838
241	0xbcc67951	-0.02422777
242	0xbd321f47	-0.04348686
243	0x3d260ae8	0.040537745
244	0x3d19ca62	0.037546523
245	0x3c7980f8	0.015228502
246	0xbd01a050	-0.031647027
247	0x3d6c09c7	0.057626512
248	0xbd62772c	-0.055289432
249	0x3ce02a07	0.02736379
250	0xbd4c97b8	-0.049949378
251	0xbd4226ce	-0.04740029
252	0x3d43a425	0.047763962
253	0xbcc750b7	-0.02433048
254	0xbcc1ffae	-0.023681488
255	0xbcce72d8	-0.025201246

food_logits.bias f4 [3]
0	0xbe0cd0fc	-0.13751596
1	0x3d62b95d	0.055352557
2	0x3db4b8e3	0.08824327

net.0.weight f4 [128, 17]
0	0x3e3c42f4	0.18384916
1	0xbe2a97a9	-0.16659416
2	0x3fb5922d	1.4185234
3	0xc0a192a8	-5.0491524
4	0xbea94337	-0.33059093
5	0xbe90f91f	-0.28315064
6	0xbe0d56ab	-0.13802592
7	0x3dce6a3f	0.100788586
8	0xbd808e10	-0.06277096
9	0x3d67f3f4	0.056629136
10	0x3e0bda3d	0.1365747
11	0xbe10aa20	-0.14127398
12	0x3e134bb9	0.14384355
13	0xbbd91969	-0.0066253436
14	0xbc7ce273	-0.015434849
15	0x3e3119cf	0.17295001
16	0x3e0d3209	0.13788618
17	0x3ddc5ba9	0.1075967
18	0xbd7ed270	-0.062212408
19	0xc0149290	-2.3214455
20	0x406eab41	3.7292025
21	0x3fc6a46c	1.5518928
22	0xbe3bddfd	-0.183464
23	0x3e09e5ed	0.13466616
24	0xbdace257	-0.084416084
25	0x3e2ff8ec	0.171848
26	0x3cdf61d4	0.027268328
27	0xbdd06096	-0.10174672
28	0xbe1594a6	-0.14607486
29	0xbe83bdbd	-0.25730696
30	0xbdabca05	-0.083881415
31	0x3e004616	0.12526736
32	0xbda3be4c	-0.079952806
33	0xbb65af52	-0.0035047126
34	0xbca37be7	-0.019956542
35	0x3b722ef4	0.0036954256
36	0x3f8899c1	1.0671922
37	0xbfb7c115	-1.4355799
38	0xc026eedb	-2.6083286
39	0x3dbfa343	0.093573116
40	0xbb9face8	-0.004872907
41	0x3d5b3a93	0.053522658
42	0x3d307f3a	0.043090083
43	0xbc190efb	-0.0093419505
44	0x3df4fdd3	0.11962476
45	0x3dd04c89	0.10170848
46	0x3d4c41c7	0.049867418
47	0x3db90520	0.09034181
48	0xbd9dce77	-0.07705396
49	0x3d1c0062	0.038086303
50	0x3c01d13c	0.0079234205
51	0xbdaf1f5f	-0.085509054
52	0xbde7a8b3	-0.11311474
53	0x3f976e7c	1.1830592
54	0xc0830da5	-4.0954156
55	0xbec2e16c	-0.38062608
56	0xbd854b69	-0.06508524
57	0x3e809757	0.25115463
58	0xbe144763	-0.14480357
59	0xbdb70e8e	-0.08938323
60	0xbd7964bc	-0.060887083
61	0xbe0d1761	-0.1377845
62	0xbe4586d0	-0.19289708
63	0xbe2c690e	-0.1683695
64	0xbe23a857	-0.15982185
65	0x3e3ebe6f	0.18627332
66	0x3e50b198	0.20380247
67	0x3dd7e3e7	0.10541516
68	0x3def7afe	0.11693381
69	0xbe520d14	-0.20512801
70	0x3fac10a7	1.3442582
71	0x3f283e70	0.6572027
72	0xc01ea818	-2.4790096
73	0x3cba93de	0.022775587
74	0xbe61028d	-0.2197363
75	0xbdba2038	-0.090881765
76	0xbe272a29	-0.16324677
77	0x3def3c18	0.11681384
78	0xbcc70afd	-0.024297232
79	0x3dc1c6a4	0.09461716
80	0xbe4d9a73	-0.20078449
81	0x3e50f5ef	0.20406316
82	0x3dc53423	0.09629085
83	0x3b5973f1	0.0033180679
84	0xbdf0d34e	-0.11759053
85	0xbddefd04	-0.10888103
86	0xbd28c8ec	-0.04120724
87	0x3fdcf890	1.7263355
88	0xbfecaa94	-1.8489556
89	0xbfc046eb	-1.5021642
90	0xbe9a2237	-0.3010423
91	0xbb5cd10f	-0.0033693945
92	0xbc91d985	-0.017803917
93	0xbe443188	-0.1915952
94	0xbe3b0846	-0.18264875
95	0x3e64ce19	0.22344245
96	0x3c95372c	0.018214785
97	0xbdcbfee6	-0.099607274
98	0x3d0c744b	0.034290593
99	0xbd7ac46d	-0.061222482
100	0xbddbb387	-0.107276015
101	0xbdde3528	-0.108499825
102	0xbd87472b	-0.06605371
103	0xbdddf09f	-0.108369105
104	0xbff04b3d	-1.8772961
105	0x40aa789b	5.3272223
106	0x3f3fe167	0.7495331
107	0xbb18c5e7	-0.0023311318
108	0x3dc99e97	0.09844702
109	0x3e3f06a5	0.18654878
110	0x3d00f8e9	0.03148738
111	0xbcf848a3	-0.030308073
112	0x3e74ad6c	0.2389428
113	0x3bcb2e56	0.006200592
114	0x3cead918	0.028667971
115	0xb9d21e6c	-0.00040076987
116	0xbd847738	-0.06468052
117	0x3c7a7be8	0.015288331
118	0x3d92d10a	0.07168777
119	0x3e49f6b8	0.19723022
120	0x3dd701e6	0.10498409
121	0x4010d8fa	2.2632432
122	0xc0b6d8f9	-5.713986
123	0xbf26b4fc	-0.6511991
124	0x3e42230a	0.18958679
125	0xbcfa0302	-0.030519012
126	0x3e82306a	0.25427562
127	0x3e5d1901	0.2159157
128	0x3e1fa212	0.15589169
129	0xbd301ab9	-0.042994235
130	0xbb43464b	-0.0029796537
131	0xbdc5f5d5	-0.09666029
132	0xbceb7e4e	-0.02874675
133	0x3e2116b4	0.15731317
134	0x3ca77318	0.020440623
135	0xbdc42a2e	-0.09578358
136	0xbdc401d3	-0.095706604
137	0x3cb861a7	0.022507502
138	0x3fae655d	1.3624684
139	0xbfaf8fa5	-1.3715712
140	0xbf214ae1	-0.6300488
141	0x3e8ce811	0.27520803
142	0x3e80182b	0.2501844
143	0xbdb5eefb	-0.088834725
144	0x3d0f4a4c	0.034982964
145	0x3d00db48	0.031459123
146	0x3d3731ab	0.0447251
147	0xbe59338c	-0.2121107
148	0x3d35363b	0.04424117
149	0x3dd4c392	0.103888646
150	0x3db63445	0.08896688
151	0x3d32673b	0.04355548
152	0xbe633b05	-0.22190483
153	0x3d930834	0.07179299
154	0x3d356a69	0.044290934
155	0xbff0eb9e	-1.8821905
156	0x40c48d2b	6.1422324
157	0x3f2420d5	0.641126
158	0xbdbcd907	-0.09221082
159	0x3d227697	0.039663877
160	0xbce8891c	-0.028385691
161	0x3d138ff8	0.03602597
162	0x3d376aa5	0.04477944
163	0x3c55ed16	0.013057014
164	0x3d32a064	0.04360999
165	0xbe13b921	-0.1442609
166	0xbd901e23	-0.07036998
167	0x3e680edc	0.22661918
168	0x3dfdbb09	0.1238919
169	0x3c8fd47a	0.017557371
170	0x3e256cc6	0.16154775
171	0xbd72eb97	-0.059306707
172	0xbffbf251	-1.9683324
173	0x403aa012	2.91602
174	0x403bd347	2.9347703
175	0xbd7ae1e6	-0.06125059
176	0xbcd8a204	-0.026444443
177	0xbd9cfaf2	-0.076650515
178	0x3d76aa1d	0.060220826
179	0xbe49ff51	-0.19726302
180	0xbe95bb0f	-0.29244277
181	0x3d365c2e	0.044521503
182	0x3d2ccea3	0.04218925
183	0x3e52a0d6	0.20569167
184	0x3cc59fd8	0.024124071
185	0x3e1c908e	0.15289518
186	0xbe38f372	-0.18061617
187	0x3e2c3ab7	0.16819273
188	0xbc1f5e08	-0.009727009
189	0x3f0c13d0	0.5471773
190	0xc060faa5	-3.5152981
191	0x3e5371d7	0.20648895
192	0x3e3832a6	0.17988071
193	0x3dc44145	0.09582762
194	0xbccdfa0e	-0.02514365
195	0x3d8c730a	0.068578795
196	0xbd0ef68c	-0.034903094
197	0xbe7dcfca	-0.24786296
198	0xbdf29268	-0.11844331
199	0x3d1d5b74	0.038417295
200	0x3d1d3c4f	0.038387593
201	0xbd8f11f8	-0.06985849
202	0xbd8d10ee	-0.06887995
203	0xbd63d441	-0.055622343
204	0x3d339984	0.043847576
205	0x3dc17977	0.09446996
206	0xbf5117a8	-0.8167672
207	0x40bc3d49	5.882481
208	0xbe3a5c5a	-0.18199292
209	0x3ce5f611	0.028071435
210	0x3dd7d375	0.10538379
211	0x3d2f0dbb	0.042737704
212	0xbe1d03da	-0.153335
213	0xbd373c6f	-0.04473537
214	0x3d618b95	0.055064756
215	0xbdb614d4	-0.088906914
216	0x3de1e01b	0.11029073
217	0x3cf172fe	0.029473778
218	0xbd2b532b	-0.041827362
219	0x3d9dfefa	0.077146485
220	0x3a926b1b	0.0011170836
221	0x3d0c2fd3	0.034225296
222	0x3ca82a16	0.02052788
223	0xbf597b80	-0.8495407
224	0xc0066cf1	-2.1003993
225	0x40584df8	3.3797588
226	0x3d0ea03e	0.034820788
227	0x3c09f771	0.008420811
228	0x3d4579db	0.048211914
229	0xbe42c691	-0.1902106
230	0xbe4cc93a	-0.19998637
231	0xbe1d38d3	-0.15353708
232	0xbe8332bd	-0.25624648
233	0x3e13f617	0.14449345
234	0x3a959ac7	0.0011413925
235	0x3d260c97	0.04053935
236	0xbd2c9655	-0.042135555
237	0x3e242c84	0.16032606
238	0xbd32217c	-0.043488964
239	0x3debdff6	0.115173265
240	0xbfb55d5c	-1.4169116
241	0x40aba56f	5.3639445
242	0x3f68c607	0.90927166
243	0x3abe91a0	0.0014539249
244	0xbe87a77d	-0.2649497
245	0x3cbbdb27	0.022931648
246	0x3e9bd429	0.30435303
247	0x3de8c0e7	0.11364918
248	0xba6a4e07	-0.00089380186
249	0xbdc71012	-0.09719862
250	0x3db9ccd5	0.09072272
251	0x3e200448	0.15626633
252	0x3e09ec3b	0.13469021
253	0xbda0416a	-0.07824977
254	0xbd74c7bb	-0.05976079
255	0xbbca3acb	-0.0061715594

net.0.bias f4 [128]
0	0x3ea4c57e	0.32181925
1	0xbcfdb702	-0.030971054
2	0xbec417d0	-0.38299417
3	0xbe043adb	-0.12913077
4	0xbd80df7b	-0.062926255
5	0x3d75cbbd	0.060008753
6	0xbe7186f1	-0.23586632
7	0x3e849c86	0.25900668
8	0xbe98fbf9	-0.2987974
9	0xbeb9e108	-0.36304498
10	0x3e3746d5	0.17898114
11	0x3d0e9557	0.03481039
12	0x3d872e0c	0.066005796
13	0x3e81a785	0.2532312
14	0xbde72063	-0.11285474
15	0xbe0b52ea	-0.13605848
16	0xbdde2760	-0.10847354
17	0xbe2af168	-0.16693652
18	0x3d8a1bfa	0.06743617
19	0xbe4a5f7b	-0.19762985
20	0xbeca82f8	-0.39553046
21	0xbdeff45f	-0.11716532
22	0x3e2f062e	0.17092201
23	0x3f15e168	0.5854707
24	0xbd59d130	-0.053178012
25	0xbd807b37	-0.06273501
26	0x3af4c7b2	0.0018675236
27	0x3ea74990	0.3267331
28	0xbe47f4e5	-0.19527014
29	0x3e906b37	0.28206798
30	0xbdada351	-0.08478416
31	0x3e7e8738	0.2485627
32	0xbd8aff39	-0.06786961
33	0x3e5bdfa1	0.21472026
34	0x3e916aff	0.28401944
35	0x3e9d4947	0.3071997
36	0xbe4de4c8	-0.20106804
37	0x3e0fde0e	0.14049551
38	0xbe81874b	-0.25298533
39	0xbcb6d5eb	-0.0223188
40	0x3dc03ce9	0.09386618
41	0xbe653006	-0.223816
42	0x3e1657de	0.14681956
43	0x3e2cceed	0.16875811
44	0xbdc86672	-0.09785165
45	0xbe60698c	-0.21915263
46	0xbd43d016	-0.047805868
47	0xbb372865	-0.002794766
48	0x3d2da076	0.042389356
49	0xb94be2a3	-0.00019444017
50	0xbe7de811	-0.24795558
51	0xbeabbbbb	-0.33541664
52	0x3ebcf273	0.36903724
53	0x3da14eb4	0.078763396
54	0x3efa5985	0.48896423
55	0xbe97c479	-0.29642084
56	0x3e73f573	0.238241
57	0x3ea1c165	0.3159286
58	0x3d3336e6	0.043753527
59	0xbd336576	-0.043797933
60	0x3dc3805a	0.095459655
61	0xbdecbb7b	-0.115591966
62	0xbefea2d7	-0.49733612
63	0x3e940e46	0.2891714
64	0x3e49400b	0.19653337
65	0xbeffcc99	-0.49960783
66	0xbe5fd867	-0.21859895
67	0x3e84dab8	0.2594812
68	0x3e06a1de	0.13147685
69	0xbe480f22	-0.19537023
70	0x3e018089	0.12646689
71	0xbf046e5f	-0.5173091
72	0x3c6ab54f	0.014325454
73	0xbe47f98e	-0.19528791
74	0x3f1697f1	0.58825594
75	0xbd85bdc1	-0.06530333
76	0x3e80c07f	0.25146863
77	0x3ea68284	0.3252145
78	0xbdd61a67	-0.104542546
79	0x3ec90b58	0.39266467
80	0x3ea8e2c8	0.3298552
81	0x3e317c6c	0.1733262
82	0x3e032ae2	0.12809327
83	0x3da46117	0.08026331
84	0x3e587a41	0.21140386
85	0x3e0b4b59	0.13602962
86	0xbe453c65	-0.1926132
87	0xbe3d9886	-0.18515214
88	0x3e189543	0.14900689
89	0x3e10448d	0.1408865
90	0x3d3c206c	0.045929357
91	0xbe3ce4c9	-0.1844665
92	0x3e0e950b	0.13924043
93	0x3e3a8d07	0.1821786
94	0xbe055c50	-0.13023496
95	0x3ea7b433	0.3275467
96	0x3e4bf6ad	0.19918318
97	0xbe517647	-0.20455275
98	0xbe812d79	-0.25230005
99	0x3e838e43	0.25694475
100	0x3ec72bfd	0.38900748
101	0xbdf62cfe	-0.120203
102	0xbe7acd75	-0.24492438
103	0xbd785f41	-0.060637716
104	0x3eb409c0	0.3516369
105	0x3eb55c44	0.35421956
106	0x3d4458f5	0.0479364
107	0x3df98cc9	0.12185056
108	0x3e2b1e02	0.16710666
109	0x3d003703	0.031302463
110	0x3d830a4d	0.06398449
111	0x3e146474	0.14491445
112	0xbe8d5472	-0.2760349
113	0x3e42345b	0.18965285
114	0xbdf165bf	-0.11786985
115	0xbe8189a1	-0.25300315
116	0xbdf8457a	-0.121226266
117	0x3e841874	0.25799906
118	0x3e3c3ae5	0.18381841
119	0x3e179234	0.14801866
120	0xbe28acf4	-0.16472226
121	0x3c2c0c12	0.010500925
122	0xbdc0c764	-0.09413031
123	0x3e8515dc	0.2599324
124	0xbeb36a12	-0.35041863
125	0x3cb33042	0.021873597
126	0x3e66131e	0.2246823
127	0x3da878ab	0.082261406
