src/training_logs_ppo/initial/ppo_checkpoint_32_1764183562.pt (torch, 480089 bytes, 42 tensors)

move_logstd f4 [2]
000000 3d e8 2d 3f 07 a9 2f 3f
       0.6793249 0.6861729

shared.0.weight f4 [128, 17]
000000 ef 30 de 3d 44 2e 09 be a6 65 1a be 3d f3 52 3e
       0.10849177 -0.13396555 -0.15077838 0.206006
000010 01 7d 53 3e 65 d7 43 be 1e 5c 0c be 0f 9e f1 3d
       0.20653154 -0.19125135 -0.13707015 0.117977254
000020 5a a7 53 3e 2d aa 36 be 41 41 20 3e 34 b6 03 be
       0.20669308 -0.17838354 0.15649892 -0.12862474
000030 89 a6 26 bd 2a b3 fc 3b 2e 2b 49 3d 9b 88 34 3e
       -0.040686164 0.0077117877 0.049113445 0.17630236
000040 aa 2b 36 be f4 b8 15 be 2b 33 de bd cf 8a 5a 3d
       -0.17790094 -0.14621335 -0.10849603 0.053355034
000050 28 04 09 3d c1 e5 4f be 52 d1 6c 3e b9 75 21 be
       0.03345123 -0.20302488 0.23126724 -0.15767564
000060 59 4b 00 3d 15 a9 1c be 5d db 68 be e6 c3 e0 bd
       0.031321857 -0.15298875 -0.2273993 -0.10974865
000070 6c 64 8c 3c be 32 37 3e 8f db a0 3d 54 a2 b7 3d
       0.017137729 0.1789045 0.078543775 0.089665085
000080 ac a7 d0 bd b4 36 20 be 23 71 36 3e 76 1f 74 3e
       -0.10188231 -0.15645868 0.17816596 0.23840126
000090 ad 61 e9 3d 9c 3f 93 3d 3b 69 81 be 4f 5c 67 be
       0.11395583 0.07189867 -0.25275597 -0.22593807
0000a0 53 41 88 bd d3 d5 ab bd 6e b5 97 3c bb 6c 26 bd
       -0.066530846 -0.08390393 0.01851913 -0.040631037
0000b0 a8 e2 20 be 89 41 09 3d 35 70 6b 3e cd 33 43 be
       -0.15711462 0.033509765 0.22992022 -0.19062729
0000c0 f9 a0 42 3e 8e 62 8a 3d 63 4b 97 3d b3 5b 8a 3d
       0.19006719 0.06757079 0.07387426 0.067557715
0000d0 0d 7c 0c be 26 38 4a be 33 44 be 3d 37 a6 c3 3d
       -0.13719197 -0.19747981 0.09290352 0.09553187
0000e0 f3 4f 04 3e a6 c2 05 3e 1c 01 a2 3c 3a 39 41 3e
       0.12921123 0.13062534 0.01977592 0.18869486
0000f0 3e a5 5e bd a4 08 6d 3d 88 ea d1 bc c1 a5 88 bd
       -0.054356806 0.05786957 -0.025624529 -0.0667224
000100 71 80 15 be 7c f5 e9 3c 6e 46 22 be 9e 65 66 3e
       -0.14599778 0.028559439 -0.1584718 0.22499701
000110 9a be 32 3e 1c ab 2e 3e fc bf 3f be 2a a5 41 3e
       0.17455521 0.1705746 -0.1872558 0.18910661
000120 55 7b 9f 3d 8b 39 47 3e c4 0f f0 bc 37 1a 16 3d
       0.077871956 0.19455545 -0.029304393 0.036646094
000130 24 c5 1b be d3 04 10 3e 21 45 9b 3d 1e 9c bf 3d
       -0.15211922 0.1406434 0.07581545 0.09355949
000140 6b be c4 3d ae d1 40 3d a2 39 31 3c bf 7b a0 bd
       0.09606632 0.047074966 0.010816963 -0.07836103
000150 2f ec c3 3d 7f 79 8d bc f2 a3 d7 3d d5 13 c7 bc
       0.09566533 -0.017269848 0.10529317 -0.024301449
000160 64 e2 75 be de a4 1c be 2e 77 d1 3d 7c 54 33 3e
       -0.24012142 -0.15297267 0.1022781 0.17512697
000170 69 f3 03 be 7f fa 48 3e 1d 67 30 bc 23 07 92 3d
       -0.12885822 0.19626807 -0.010766772 0.071302675
000180 e7 0d d8 3d 1d 9f ec 3d e9 83 30 be dc 28 34 be
       0.10549527 0.11553786 -0.1723782 -0.17593712
000190 3b f7 00 be fa 08 af bd 41 d1 ea 3c 8d 0e 76 3b
       -0.12594311 -0.08546634 0.028664233 0.0037545294
0001a0 9e 41 cd bd 82 9c cd 3d 8c 1e 8f 3d 75 ed e2 3d
       -0.10022281 0.10039617 0.06988248 0.110804476
0001b0 ef 03 45 be 6b 92 d0 bd 54 17 67 3e 74 b1 c8 3c
       -0.19239782 -0.10184177 0.22567493 0.024498679
0001c0 8e 73 5f be 02 68 42 be bc ee 2d 3d 79 70 d4 bd
       -0.21821424 -0.18984988 0.042464003 -0.10373015
0001d0 3b 8d 8f 3d 0f 7c f5 bd 51 5a 96 bd 36 f1 0b be
       0.070093594 -0.11986553 -0.07341445 -0.13666233
0001e0 a3 fe ec 3b ce c4 90 3c 20 29 09 3e 89 6b f3 3c
       0.0072325035 0.017671969 0.13394594 0.029714363
0001f0 39 45 53 be 3f cd 68 be 1b 2b 2d 3e 3d 0c a5 bd
       -0.20631875 -0.22734545 0.16910975 -0.08058975
000200 a4 26 3e be 77 16 7a 3d fc aa 15 bd 99 95 39 be
       -0.18569428 0.06105658 -0.036540017 -0.18123473
000210 81 99 5e be 6b fa 5c 3e a3 1b 78 bb 89 d3 0c 3c
       -0.21738245 0.21579902 -0.003785827 0.008595356
000220 dc ec d1 bd 4d 50 cc 3d fb 6b 80 bc dd b8 a4 3c
       -0.102502555 0.09976254 -0.01567649 0.020107681
000230 67 5c 20 bd ea d8 36 be b3 be 8b 3c 97 44 6b 3e
       -0.03915062 -0.17856184 0.017058706 0.22975384
000240 04 d6 cc 3c 78 a3 6a be 6f a6 79 3d e7 ff 00 be
       0.025004394 -0.22913921 0.06094974 -0.12597619
000250 74 47 e3 3d 57 cd 18 be 7c 16 6e be d1 03 8d 3d
       0.11097613 -0.14922081 -0.23250765 0.068854935
000260 f4 aa 35 be b1 e2 50 3e 18 5a 9e bc 37 3d d4 3c
       -0.17740995 0.20398976 -0.01933007 0.025908096
000270 8d ab 44 be 39 4d df bd 83 2d c5 bc c0 75 14 bd
       -0.19206066 -0.10903401 -0.024069553 -0.036245108
000280 1d 30 a2 3d fa 3a 29 3e eb dd 59 3e 9e b6 03 be
       0.07919333 0.16526404 0.21276061 -0.12862632
000290 ac 69 ab 3d dd 10 57 be ca 98 45 be 3a 59 3e 3e
       0.08369765 -0.21002527 -0.19296566 0.18588725
0002a0 cf 96 50 3d 2c 19 48 3d 94 9f 0b be 69 13 9a 3d
       0.050925072 0.04885213 -0.13635093 0.075232334
0002b0 4e 47 9c bd f5 55 e7 3d e4 6c 83 be ec df 1f 3e
       -0.07630788 0.11295692 -0.25669014 0.15612763
0002c0 ac fc ca bd ed 03 f3 bd a5 6b 56 be 1e bc 45 be
       -0.099114746 -0.11865983 -0.209395 -0.19310042
0002d0 6f 3b 4e 3e 08 42 2d be 09 13 4b be 53 87 02 3d
       0.2013986 -0.1691972 -0.1983148 0.031867336
0002e0 47 fc e2 3d d0 c7 c1 3d aa 11 fb bd fb 79 21 be
       0.11083274 0.09461939 -0.122592285 -0.15769188
0002f0 df 43 2f be 2f a4 4c 3e e2 1f 3e be 1a 82 c7 3d
       -0.17115735 0.19984506 -0.1856685 0.09741612
000300 07 31 1e 3e 9d b9 65 3e 91 ba 58 3e a9 ec 46 bd
       0.1544839 0.22434087 0.2116492 -0.04856554
000310 26 8c bc bc 67 7e 3e be 5b af e3 3d 1f 93 e0 bd
       -0.023016047 -0.18602906 0.11117431 -0.10965561
000320 ac c3 bd bc 94 28 91 bd e4 6d f6 bc 5c e3 46 bd
       -0.023164593 -0.07087818 -0.030081697 -0.04855667
000330 d5 04 ae bc 76 0e 42 be e5 a7 14 be 92 f4 11 3e
       -0.021242538 -0.18950829 -0.14517172 0.14253452
000340 65 24 10 bc c6 6b 61 be eb ba d9 3d fd 41 d7 bd
       -0.00879774 -0.22013769 0.10631355 -0.10510633
000350 fb 26 ef bd d0 83 17 bd ed 8e e6 bd c2 db d5 bc
       -0.11677357 -0.03699094 -0.1125773 -0.026105765
000360 80 e2 17 be a3 f0 0b bc 41 61 6d 3c eb cd ba 3d
       -0.14832497 -0.008541259 0.014488519 0.09121307
000370 7c 44 88 bd 3c 67 32 3e ae 17 bd 3c be bf 5a be
       -0.06653687 0.17422193 0.02308258 -0.21362206
000380 19 d0 23 3e ce 04 21 bd 25 61 0b 3e 99 e8 53 be
       0.15997352 -0.039311223 0.13611276 -0.20694198
000390 a5 c2 25 bc b1 a8 81 3d 36 68 31 bd 03 22 a0 bd
       -0.010117208 0.063310035 -0.043312274 -0.07818987
0003a0 0a 0c 13 3d cc 70 83 3d 94 9b 52 bc fe 09 de bd
       0.035900153 0.06417999 -0.0128544755 -0.108417496
0003b0 37 dc 0c 3e f4 d6 c2 bd dc 92 18 be 54 4a d6 3d
       0.1375588 -0.09513655 -0.14899772 0.10463396
0003c0 60 61 22 bd 30 c5 49 be c3 3b 09 be 31 02 44 be
       -0.039643645 -0.19704127 -0.13401704 -0.19141461
0003d0 66 e5 2a 3e 4f a5 34 be 71 b0 4c 3e 85 88 bb 3d
       0.16689071 -0.17641185 0.19989182 0.091568984
0003e0 c1 35 69 3d 1c 67 50 bc ed c3 ad bd f7 37 af 3d
       0.05693603 -0.012719896 -0.084846355 0.08555596
0003f0 7d 41 28 3e b1 d0 5e be bb 9d bc bd b3 cf 77 bc
       0.16431232 -0.21759297 -0.09209772 -0.015125203

shared.0.bias f4 [128]
000000 25 ed 88 bb 6c 5c 70 be 4e 22 c8 bc 3f 2c 20 be
       -0.0041786605 -0.23472756 -0.02443042 -0.15641879
000010 25 41 75 bd 73 6b 82 3d 8a f9 ad 3c be 2c 64 3e
       -0.05987658 0.063681506 0.021237154 0.22282693
000020 c4 94 80 be ab ef 20 3c b9 36 24 3e 66 d0 28 be
       -0.251135 0.009822766 0.160365 -0.16485748
000030 03 c5 0e 3e 16 2c 88 bd 16 76 31 3d dc 7a 0b be
       0.13942342 -0.06649034 0.043325506 -0.13621086
000040 1d 37 6c bd 8e 47 51 3e 06 7f 21 3e 77 d1 27 be
       -0.057669748 0.20437452 0.15771112 -0.16388498
000050 71 cf 06 3d f9 64 01 3d fc 33 82 3d 2d 56 a7 3d
       0.032912675 0.031590436 0.063575715 0.081707336
000060 31 bf e8 bb 65 5e e5 bd a1 eb 1e 3b 94 97 65 3d
       -0.00710287 -0.11199645 0.0024249332 0.05605276
000070 9d 83 59 3e e9 15 5b be 1b bb f0 3a a6 48 58 be
       0.21241613 -0.21395077 0.0018366309 -0.21121463
000080 ed 0d b1 bd 45 de 35 3d ed 5e 50 be a9 7d 1b 3d
       -0.08645234 0.044401426 -0.20348711 0.037961636
000090 59 26 3a be 12 b7 43 be e0 00 87 bd bb 0d c7 3b
       -0.18178691 -0.19112805 -0.06591964 0.006074635
0000a0 95 b7 66 be 1b 8c 74 be d5 83 9b 3d bc aa a2 bd
       -0.22530968 -0.23881571 0.07593504 -0.07942721
0000b0 54 3d 53 3e 42 d5 73 be ed 07 54 3e 74 b1 8a be
       0.20628864 -0.2381182 0.20706148 -0.2708851
0000c0 bc e5 3b 3e 7a f7 85 bd 85 04 5e be 8b 7f c0 bd
       0.18349355 -0.06541343 -0.21681412 -0.09399327
0000d0 7f eb 0a be 2e f9 80 3d 32 32 05 3b ab e6 61 3d
       -0.13566397 0.06297527 0.0020324108 0.055151623
0000e0 e9 e2 2d 3e 87 84 4a be 13 34 12 3d 6c a7 47 bd
       0.1698109 -0.19777118 0.035694193 -0.04874365
0000f0 9a fd fa bc e9 73 da 3b ba 2d 31 bd 80 07 0b be
       -0.030638505 0.0066666496 -0.0432565 -0.1357708
000100 f8 b7 56 be e9 f0 83 bd 2b 2c 67 be ec 20 89 be
       -0.20968616 -0.06442434 -0.22575442 -0.2678293
000110 ba 1a 96 3c c2 5e ba 3d 7a 7b 50 be 20 bd fa bd
       0.018323291 0.09100105 -0.20359603 -0.12243104
000120 a9 ac b2 3d 71 4f 43 3e be 1a 97 3d 48 83 73 bd
       0.087243386 0.19073273 0.073781475 -0.05945137
000130 fd 8c 53 3e 46 b6 6a be f5 2d f1 bd 81 a5 db bd
       0.20659252 -0.22921094 -0.11776344 -0.10724927
000140 c6 f5 8d bd 42 70 46 be 3a 82 87 be a4 31 3c be
       -0.06931643 -0.1937876 -0.26466542 -0.18378311
000150 45 90 f1 bd 88 34 87 bd f6 d8 a2 3d 03 47 36 3d
       -0.11795095 -0.066018164 0.07951538 0.044501316
000160 b9 cb 55 3c c9 b7 45 be 7d 22 8d 3d a2 92 aa bc
       0.01304906 -0.1930839 0.06891344 -0.020821873
000170 83 80 9f bd f6 58 4d 3e ad 58 3c be f5 b9 2e 3e
       -0.077881835 0.20053467 -0.18393202 0.17063124
000180 5e 54 62 be 6c 0c 53 be 36 d7 53 3e 73 8a b2 bd
       -0.22102496 -0.20610207 0.20687565 -0.08717813
000190 ee 71 4d 3e a4 c5 00 be 07 66 51 3e ff ba ab 3d
       0.20062992 -0.12575394 0.20449077 0.08385276
0001a0 ce de e0 3d f3 09 55 bc ab b1 84 bb 4c 1c ce b9
       0.109799966 -0.01300286 -0.0040495 -0.00039312465
0001b0 e6 6b 53 3d f9 0f 0e be 9e 7d ac 3d a5 b6 0d be
       0.05161657 -0.1387328 0.08422397 -0.13839205
0001c0 b1 e4 f7 bd 80 33 7c be 55 cb e6 bb 6d 2f 3c be
       -0.12104166 -0.2462902 -0.007043282 -0.18377466
0001d0 3b eb d0 bd 24 8d 8f bc 2b 83 80 be 79 05 90 3d
       -0.10201117 -0.017523356 -0.25100073 0.07032294
0001e0 77 4d 1a 3c 1b 1c 70 be a1 75 5a be 3a 05 3a be
       0.009417883 -0.23448221 -0.21333934 -0.18166056
0001f0 c3 d7 de bd a0 5b b7 3d b1 3e 85 be 96 d3 de b8
       -0.10880997 0.08953023 -0.26024392 -0.00010625196

shared.2.weight f4 [128, 128]
000000 dd 82 18 3d 86 e9 65 3d ef 22 8c 3d 3c 03 b2 bc
       0.037234176 0.05613091 0.068426006 -0.021730058
000010 61 1e 92 3d a6 9a 49 3d 73 9f 5b bd 80 30 3e 3d
       0.071347006 0.04921975 -0.05361886 0.046432972
000020 e9 c6 82 3b a1 a9 87 3d 6e 65 32 3c 94 0c 86 bd
       0.003990997 0.06624151 0.010888441 -0.06545368
000030 90 aa 9e bd 5c 93 50 3d fa fc b5 3c 6f 02 a1 3d
       -0.07747376 0.050921783 0.022215355 0.07861792
000040 5e f2 92 3b 3f fb bf bc 46 ea ee ba cf 80 90 3c
       0.004484459 -0.023435233 -0.0018227778 0.017639546
000050 7e 8b ad 3c 6b 6f 94 bd fc fc 68 bd c4 95 e5 3c
       0.02118468 -0.07247814 -0.05688189 0.028025515
000060 20 59 b2 3d 0a 05 84 bd 18 10 d0 bc d4 8d 29 bd
       0.087084055 -0.064462736 -0.0253983 -0.041395023
000070 13 04 eb bd 4b 84 50 bd 15 3e b3 bc a7 e2 cb 3b
       -0.114753865 -0.050907414 -0.021880189 0.0062220874
000080 78 37 0b 3c 7f 98 80 3b ce bf 40 3d 38 10 ad bc
       0.0084971115 0.003924429 0.04705792 -0.021125898
000090 e6 4b 69 3d 40 b9 ba bd 6d 23 68 3d 4d 5d a7 bd
       0.056957148 -0.09117365 0.05667441 -0.081720926
0000a0 62 2f 09 3d f2 4e c5 bd 70 9e a3 bd 0c 5e 49 3d
       0.033492453 -0.09634198 -0.07989204 0.049161956
0000b0 ea a1 42 3b 98 b6 9b bd 49 16 53 bd 7f d2 4e 3d
       0.002969856 -0.07603186 -0.051534925 0.050493713
0000c0 5f 44 ad bc 13 a9 97 bd bd 46 f1 3c 1e 52 0f bd
       -0.021150766 -0.07405295 0.029452676 -0.034990422
0000d0 0c 65 3d 3d 80 69 8c 3c 02 0b 63 bd c1 c7 7e 3d
       0.046238944 0.01714015 -0.05543042 0.06220222
0000e0 e1 53 54 3d 70 1f 95 bd 80 de e3 ba 57 da fe 3c
       0.051837806 -0.07281387 -0.0017385036 0.031109972
0000f0 c8 70 00 bd 45 49 27 bd 5e da 21 bd 65 b5 b1 bd
       -0.031357557 -0.04084136 -0.03951489 -0.086771764
000100 65 17 89 3d ad 89 59 3d 27 9a dc 3c f3 09 19 bc
       0.06693915 0.053109813 0.026928974 -0.009340751
000110 49 52 a4 bd ae ea eb 3c 38 d0 29 bd 11 d2 dc 3c
       -0.08023507 0.028798427 -0.04145834 0.026955636
000120 62 59 c0 bc 01 28 89 bd 24 9b 82 bd b6 0e 57 bd
       -0.023480121 -0.06697083 -0.06377247 -0.052504264
000130 db 1a 04 bd 1a 73 71 bd d7 97 b0 bc 36 6e 05 3d
       -0.032252174 -0.05894766 -0.021556778 0.03257581
000140 61 aa 39 bd ec 4c 13 bd 41 b1 01 be df 18 ca bd
       -0.0453285 -0.03596203 -0.12665273 -0.09868025
000150 20 7e b1 bb 5d be da bc 94 b2 2e 3a 3e 69 ed bd
       -0.0054166466 -0.0267021 0.00066641835 -0.11592339
000160 07 38 be bd d5 dc 03 bd e3 6e cd 3c 83 73 71 bd
       -0.0928803 -0.032193024 0.025077289 -0.05894805
000170 2d f8 16 3d 7b 36 4a 3d e7 1b 5e 3d 41 6b 2d bd
       0.036857773 0.049368363 0.05422583 -0.042338613
000180 c9 03 b2 bd 5d 6e eb 3c 07 66 69 bd 83 d5 de 3c
       -0.08692128 0.028739149 -0.056982066 0.02720142
000190 40 a2 ae bd 0d 29 ee 3c 09 7f e2 bd 2e 9c dc bd
       -0.085270405 0.029072309 -0.11059386 -0.107719764
0001a0 3d 16 b9 bd 25 d9 ad 3c 36 6c a2 bd 55 49 cc 3c
       -0.09037445 0.021221707 -0.07930796 0.024937311
0001b0 ed a8 be 3c 1b af 37 bd 94 9f 49 3c de 4b cb bc
       0.02327391 -0.044844728 0.012306113 -0.02481645
0001c0 a6 78 ac bd ef b3 27 3d 7a 3f cb 3b 88 5e b1 3a
       -0.08421449 0.040943082 0.0062026354 0.0013532201
0001d0 0e d1 1a 3d 78 f1 a6 bd 5f eb 62 bd cc f7 0b bc
       0.037797026 -0.08151525 -0.05540025 -0.008542966
0001e0 94 0d 60 bd c1 3c 0e bd 93 82 8e bd 8d d9 68 3c
       -0.05470045 -0.03472591 -0.06958499 0.014212024
0001f0 f6 0f 2c 3d a3 df 5b 3c 34 10 71 bd 1f 94 c8 bc
       0.04200741 0.013420018 -0.058853343 -0.024484692
000200 27 d7 84 bc cd 87 dd 3c b6 43 70 bd 60 a8 cd bd
       -0.016215874 0.027042294 -0.058658324 -0.100418806
000210 a8 9a 05 3d 27 65 82 3d 62 f5 32 bd a1 3b c7 3d
       0.032618195 0.063669495 -0.043691047 0.0972817
000220 54 e8 a9 3d 7c 53 c1 3c 3c 05 01 bd 57 ea 16 39
       0.08296266 0.023599379 -0.031499133 0.00014392413
000230 e2 2d 4a bd 32 70 83 3d 6c 9b 07 3d 61 e7 95 3d
       -0.049360164 0.06417884 0.033107206 0.07319523
000240 42 62 ff 3c 7f 05 8a bd 28 e7 e9 bc 10 45 54 3d
       0.031174783 -0.067393295 -0.028552607 0.051823676
000250 64 61 af bd 91 1c 60 bb 84 f9 0d bd 5e 83 a5 3c
       -0.08563498 -0.0034196714 -0.034661785 0.020204242
000260 16 a0 24 39 5b b7 84 3c 05 b0 4c 3d e3 bb 5d bd
       0.00015699895 0.016200712 0.049972553 -0.05413426
000270 c9 81 01 bb a6 55 c9 bc 8d 6a 06 bc 1a b8 91 bd
       -0.0019761196 -0.024576973 -0.008204115 -0.07115193
000280 31 f7 d0 3c 8e 0f 02 bd 13 75 b3 3b 46 cd 86 3d
       0.025508495 -0.031753115 0.005476603 0.065821216
000290 dd 1e a4 bd 52 ba 32 3d 28 2a d9 bc b3 18 eb bd
       -0.08013699 0.04363472 -0.02650936 -0.114793204
0002a0 78 6c 80 bd 9c fb b0 3c 03 33 9c 3d 1a e8 5c 3c
       -0.06270689 0.021604352 0.07626917 0.013483072
0002b0 69 3f 44 3d ed 77 4d bd cf 68 80 3d ba 59 ae 3d
       0.047912035 -0.0501632 0.06269991 0.08513208
0002c0 c3 83 df 3c ac 20 39 bd 47 46 9a bc b3 d0 71 bd
       0.027284509 -0.045197174 -0.018832339 -0.05903692
0002d0 2a 9c 95 3d 16 ee 0c 3d 08 bf 8a 3d b4 d4 8b 3d
       0.073051766 0.034406744 0.067747176 0.06827679
0002e0 98 66 b1 bd fc 04 38 3c 75 a6 78 bd 92 ed 94 3d
       -0.08662146 0.011231657 -0.06070562 0.072718754
0002f0 3a f8 02 bd 3c 27 ca bd 9a 26 b6 bc e2 43 27 3c
       -0.03197501 -0.098707646 -0.022235204 0.010209056
000300 bc 90 14 bb f4 c7 be bc 29 47 56 3d 97 24 41 bd
       -0.0022669276 -0.023288704 0.052313957 -0.047154035
000310 c0 c9 ba 3d 08 3a aa 3d 1c f9 95 3c 30 bc 38 3d
       0.09120512 0.0831185 0.018307261 0.045101345
000320 83 76 b2 bc c5 cc 83 3d 4d c6 b2 bd 7b 2e 7b 3c
       -0.021785026 0.06435541 -0.08729229 0.015330906
000330 f6 de 2c bd 93 27 01 bd 0e 95 30 bc c7 af f8 bd
       -0.04220482 -0.03153188 -0.010777725 -0.12142902
000340 d7 b6 47 3d 4d 46 4a 3d ad 98 30 3c 00 e1 64 3d
       0.048758354 0.04938345 0.010778588 0.05587864
000350 17 02 7b bd 76 40 13 3d 65 93 55 3d 01 16 e6 bc
       -0.06128129 0.035950147 0.05214252 -0.028086664
000360 9b 27 d6 3d 58 ee 38 bd f8 38 5a bc 2d 2c e6 3c
       0.10456773 -0.045149177 -0.0133192465 0.028097237
000370 ff ac 79 bd ce 22 95 bd 51 de 9a bd f6 02 97 3d
       -0.060955998 -0.07282029 -0.07561935 0.07373612
000380 05 a3 3b 39 28 bb 9c 3c 01 e4 91 bd eb 6d 00 be
       0.00017894439 0.019132212 -0.071235664 -0.1254193
000390 fe e5 af bd 4b b9 d8 3c a3 aa 72 3d bd 3f 73 bd
       -0.085887894 0.026455542 0.059244763 -0.059386957
0003a0 f3 c9 88 bc f8 9b 3e bd 97 7f a7 3d 13 29 0d bd
       -0.01669786 -0.046535462 0.08178633 -0.034463
0003b0 f2 b3 d4 3c 70 66 39 3c 18 b6 bb 3d 6e 7f cd 3b
       0.02596471 0.011315927 0.09165591 0.0062712943
0003c0 a7 f3 a7 3d 35 9d c6 3c ea 66 94 3c 4a 7b 27 3d
       0.0820077 0.024244884 0.01811548 0.040889062
0003d0 e7 b7 8a bc 85 15 6b bd b0 e8 95 3d 03 20 32 bc
       -0.016933395 -0.05739357 0.07319772 -0.01087189
0003e0 cd 5a a2 bd 1d 93 bf bc 80 2f 72 bd c7 23 45 bc
       -0.07927475 -0.023385579 -0.05912733 -0.012032456
0003f0 7c c6 34 3b ea 49 c6 bd dc b9 ac bd 4d 6d 89 3c
       0.0027584126 -0.09682067 -0.08433887 0.016775751

shared.2.bias f4 [128]
000000 2d 26 42 bd 33 33 8d bd fd 83 bf bd dc 45 62 3d
       -0.04739969 -0.06894531 -0.09351347 0.055242404
000010 fe 97 03 3c 12 a6 24 3d 0f 69 3d 3d d5 d4 10 3d
       0.008031843 0.04019744 0.04624277 0.035359222
000020 31 88 97 bd d5 46 2c 3d 9c 45 34 bd 9c 1b 96 3b
       -0.07399023 0.04205974 -0.044011697 0.004580928
000030 00 80 cf 3c 00 ae 68 bd 59 28 43 3c 9a 94 b1 bd
       0.02532959 -0.056806564 0.011911475 -0.086709216
000040 7c 83 91 bc a5 59 2e bd 9b f3 75 3d e3 a0 5a bd
       -0.017762892 -0.04256596 0.060046773 -0.05337609
000050 43 cd c2 bd 4a ec 5f 3d ae f1 83 bd a6 8f 37 3c
       -0.09511807 0.054668702 -0.06442581 0.011203682
000060 d6 76 9f 3c d8 1a e3 3c e9 ad 2a 3d 11 4e 16 3d
       0.019465845 0.027722761 0.04166976 0.036695544
000070 32 dd 7d bd e8 89 ac 3c 17 2d 99 bd 76 e6 5b 3c
       -0.061978526 0.021061853 -0.07479303 0.013421645
000080 d2 fe 81 3d ac d9 0e bc 98 ad b9 bc bb 79 55 3d
       0.06347431 -0.008718889 -0.022665784 0.052118044
000090 ca 94 81 bd 6f 56 ee bc 68 cc a0 bd 42 be 58 bd
       -0.063272074 -0.02909395 -0.078514874 -0.05291582
0000a0 68 a0 95 bd 4a 94 e2 3c a2 b5 35 3d 5e 9c 84 bd
       -0.07305986 0.0276586 0.04436267 -0.06475137
0000b0 40 30 9a bd c6 be 03 bd 77 24 1d 3d 0f d3 1e 3d
       -0.07528734 -0.032164358 0.038364854 0.0387755
0000c0 04 31 b5 ba 04 41 86 bd 79 9e 37 3c 9b 3b 2f bd
       -0.0013823812 -0.065553695 0.011207216 -0.042781454
0000d0 cc ab c6 bd 68 93 8e bb 7b 9b 95 3b 13 b8 7a 3d
       -0.097007364 -0.0043510683 0.004565654 0.061210703
0000e0 a4 97 69 3c 94 5a bc bd 24 1a bb 3c 9a 69 2c 3c
       0.014257345 -0.09196964 0.022839613 0.010523224
0000f0 2a ae 11 bc d7 37 6a bc f6 89 9e 3d 91 cd d9 bc
       -0.008891622 -0.01429554 0.07741158 -0.02658728
000100 7a 60 bb bd f4 c6 2a bd 4f b8 e2 bb a7 db db bc
       -0.09149261 -0.041693643 -0.006918944 -0.026838137
000110 b5 a0 bc bd c5 ba 57 3d ee 7c e0 39 05 d0 84 bd
       -0.0921034 0.05266835 0.0004281769 -0.06484989
000120 77 25 f0 3c 2e 3a 3c 3d 93 ff d8 bd b8 80 8c 3d
       0.02931474 0.045953922 -0.10595622 0.06860489
000130 d8 21 d6 3c 23 f3 ba bd a7 d0 99 3b 7a 60 a7 3d
       0.026139185 -0.09128406 0.0046940628 0.08172698
000140 52 e7 b2 bb e7 6e 10 3d 4f 18 3d 3d 66 9b 59 bd
       -0.0054597044 0.035262015 0.04616576 -0.053126715
000150 22 63 18 3d 6f c7 27 bc 73 bb 25 3d 8a 46 d1 bd
       0.037203915 -0.01024042 0.04046197 -0.102185324
000160 85 9d 91 3d 5a 92 b5 bd 89 84 e1 3c f7 32 9f bd
       0.071101226 -0.08865805 0.027529018 -0.07773393
000170 13 ae c5 3c 9e 04 52 bd 7f 0a ce bc 94 76 22 3d
       0.024130857 -0.051273935 -0.02515149 0.039663866
000180 70 70 70 3d 24 de 8d bd c1 92 51 bc ef 5b 93 3d
       0.05870098 -0.069271356 -0.0127913365 0.07195269
000190 4c 4b 84 bd 8c b4 60 3a 6e 3f 95 bc 5b cc 56 3d
       -0.06459674 0.00085718255 -0.018218722 0.052440982
0001a0 6f be 47 bd bd 31 3a bd 7a 5a 98 bd 27 7b a7 bd
       -0.048765596 -0.04545759 -0.07439132 -0.08177786
0001b0 55 d5 99 bb 9f 30 37 3d ae 3f bc bd 54 af 5d 3d
       -0.0046946206 0.044724103 -0.091918334 0.054122284
0001c0 4a f1 3e bd 16 a7 e6 3c 50 d3 45 bd 6b 95 db bd
       -0.04661683 0.028155845 -0.048297226 -0.107218586
0001d0 f1 c7 0e bd 76 b2 52 bd 68 36 d1 bc 74 ec 7e bd
       -0.034858648 -0.051439725 -0.025538638 -0.062237218
0001e0 33 a6 71 bd 69 a1 4d 3d 2e 7b fb bb 32 16 24 bd
       -0.05899639 0.05020276 -0.0076745963 -0.04006023
0001f0 c4 58 8f bd 43 a4 88 bd 8f f3 80 3d 23 f9 6c bd
       -0.069993526 -0.066719554 0.06296455 -0.057854783

move_mean.weight f4 [2, 128]
000000 80 6b e2 b9 e8 69 65 bc ee 65 8a 3d 9b 4b ec bb
       -0.00043186173 -0.014002301 0.06757723 -0.0072111613
000010 fb 8f c9 3c 74 2d 13 3d 34 44 e0 3b b6 79 1f bd
       0.024604788 0.03593202 0.006844068 -0.038934432
000020 39 91 0c 3d 91 04 82 3c e2 03 ec bc f4 a7 54 3b
       0.034318183 0.015871318 -0.028810445 0.003244874
000030 67 f1 0d 3c a3 25 7d 3d d3 aa f7 3b fd 17 04 3c
       0.008663512 0.06180347 0.0075582056 0.00806236
000040 0f 64 30 3d 3f 25 fd bc 26 ff ec bc 28 bd ed 3c
       0.043064173 -0.03090155 -0.028930258 0.02902086
000050 19 e7 51 3d 93 08 92 3d 2c b4 91 bd b8 28 84 bc
       0.051245783 0.07130542 -0.07114443 -0.016132697
000060 c7 37 09 bc ed 89 47 3d 54 bf 8d 3d 90 fb 68 bb
       -0.008375115 0.04871552 0.069212586 -0.0035550334
000070 d8 cc dc 3b 0a a2 8b 3c 2e 36 0b 3c 16 08 e9 bb
       0.0067382865 0.01704504 0.008496804 -0.0071115596
000080 1a 06 ac 3c 1c 7e 9a b9 c6 e8 1e 3d 12 c3 f9 3b
       0.020999003 -0.00029467128 0.03879621 0.007622131
000090 3f e0 b0 bb 97 5c 82 3d a9 fe 65 bd c5 49 11 3c
       -0.005397826 0.06365316 -0.056151066 0.008867686
0000a0 95 5d 08 bd 28 aa 2e 3d 50 a9 e1 ba f9 f7 53 3c
       -0.03329237 0.042642742 -0.0017216597 0.012937539
0000b0 0c 10 07 bc 32 47 34 bc 56 cc 74 bc 70 1c 41 bc
       -0.008243572 -0.011003302 -0.014941296 -0.011786565
0000c0 6b 6d 8f 3a 5a 1a 8c bb c4 40 0c 3b ad 61 cd bc
       0.0010942643 -0.0042756023 0.0021400908 -0.02507099
0000d0 51 c1 79 3d d3 58 74 bb b4 78 f3 3c c5 d0 ef bc
       0.060975377 -0.0037284389 0.029720642 -0.029274354
0000e0 ce ed 6b bd fa 20 3a bd c1 ad 4b 3d 15 04 4d 3b
       -0.057599835 -0.045441605 0.04972625 0.003128295
0000f0 8b eb 6f 3d 33 7f dd 3c c1 cd 1d bd 17 d1 b8 bb
       0.05857424 0.027038192 -0.0385263 -0.00564016
000100 81 5a de bc fc 83 c7 bb e3 d2 d9 3b a8 08 0d bd
       -0.027142765 -0.006088732 0.006647454 -0.034432083
000110 f2 ac 96 3b 43 ab 44 3d 1a 52 e8 bc 07 16 39 3d
       0.0045982534 0.04801489 -0.028359462 0.045187023
000120 45 fe 57 bc 2e 8e 20 3c 19 67 b5 3c 31 14 37 3c
       -0.013183181 0.009799523 0.022143887 0.011174248
000130 9c 9e 06 bc 8c f2 ae bc a4 0c 7d 3d 57 fb 26 3d
       -0.008216526 -0.02135589 0.061779633 0.04076704
000140 c2 86 c8 3c 62 ad 99 3d f6 85 98 3b 60 a0 c5 3c
       0.02447832 0.07503773 0.0046546413 0.024124324
000150 a8 7b 68 3d ac 94 cf 3b 92 6a 52 3d 34 ce c2 bb
       0.056758553 0.0063348617 0.051371165 -0.0059449915
000160 84 d9 2d 3d a3 9c 09 3d cf 2f 63 3d 24 36 20 bd
       0.042443767 0.033596646 0.055465516 -0.039114133
000170 43 72 46 3c 8c bf 73 bd 89 54 7d 3d e1 05 52 3d
       0.012112203 -0.059508845 0.061848197 0.051275138
000180 5c c4 77 3d a9 32 b3 bc 70 90 54 3d a8 1a 89 3d
       0.060489997 -0.021874743 0.05189556 0.066945374
000190 10 9b 25 3d ee f2 de 3c d0 3f 35 bd 7d 0f 1c 3d
       0.040431082 0.027215447 -0.04425031 0.03810071
0001a0 5c cf 96 bc 7d f6 45 bb 17 d0 5b 3d a9 02 0a 3d
       -0.018409424 -0.0030206733 0.053665247 0.033693943
0001b0 fb 7c ad bc 43 fc e4 bc 10 7e b9 3b 9a b2 99 bc
       -0.02117776 -0.027952319 0.00566078 -0.018761922
0001c0 4e ed 38 bd 45 71 04 bd ca e1 93 3c 48 d2 20 bd
       -0.045148186 -0.032334585 0.018052 -0.03926304
0001d0 76 5a f3 3c fe 09 16 3c ae b4 08 bd f5 2b 08 bc
       0.029706221 0.009157656 -0.033375435 -0.008311261
0001e0 07 08 05 bc ff ac a6 bc ca 40 48 3d 14 22 08 bd
       -0.00811959 -0.020346163 0.048889913 -0.033235624
0001f0 fa d8 62 bc c4 f0 96 bc 06 e8 05 bb bf 78 3c 3b
       -0.013845677 -0.018425353 -0.0020432486 0.0028758494
000200 8b 6f 97 3b 47 d2 35 bd 09 b3 66 3d 24 ca 37 bd
       0.0046214513 -0.04438999 0.056323085 -0.04487051
000210 39 58 28 3d 69 c0 0d 3a 7d 2a 2b bc 20 0d 8f bd
       0.04109976 0.00054073945 -0.010447142 -0.06984925
000220 df a7 58 bc 47 be 49 bc 8f 07 7c bd 8c f7 0a bc
       -0.013223617 -0.012313432 -0.061530646 -0.008481871
000230 89 5b 83 3d f7 32 3f bc 56 2f 45 bc 29 d9 0b bd
       0.06413943 -0.011669866 -0.012035212 -0.034142647
000240 d5 3a 66 3c b0 f3 38 3d 84 bd a6 bc 72 80 10 3d
       0.014052113 0.045154274 -0.02035404 0.035278745
000250 fd c3 67 3d c0 2e 29 bb 07 73 5b 3d 88 83 0c 3d
       0.056583393 -0.0025815219 0.053576495 0.034305125
000260 be cf 65 bc 77 3e 1f bd d5 c6 ed 3c 60 4b c5 3b
       -0.01402658 -0.03887793 0.029025475 0.0060209483
000270 84 b4 92 3c 33 65 02 bd 93 8d a3 bb f2 59 bd 3b
       0.017908342 -0.031834792 -0.004991242 0.0057785446
000280 cb b0 c4 3b 9f de ad bc 70 30 0f 3d 14 ba 2e 3b
       0.0060025207 -0.021224318 0.034958303 0.0026661204
000290 a5 79 9c bc 2b 48 5a bd 19 1d 29 3d 24 60 5c 3b
       -0.019100973 -0.05329148 0.041287515 0.003362664
0002a0 93 1f 74 3c e9 0f 3b 3d 0a 40 7b 3c ac e1 0f 3d
       0.014900106 0.04566947 0.015335092 0.035127327
0002b0 29 84 34 bd 39 1d 8c 3c 5d a6 d1 bb 93 76 10 bd
       -0.04407135 0.017103778 -0.006398006 -0.03526933
0002c0 93 91 f2 3c 25 84 19 bd 38 99 36 3b d5 32 70 3c
       0.02961043 -0.03747954 0.0027862322 0.014660557
0002d0 cd b7 0d 3d dd c6 40 3d c3 93 09 3d fc 65 98 3d
       0.034599114 0.04706465 0.033588182 0.07441327
0002e0 3e 94 25 bd 0f 93 94 bc b6 3f 38 3d fa ef b2 3c
       -0.040424578 -0.01813653 0.044982634 0.021842945
0002f0 90 e0 12 3d cc 20 52 bc e1 d0 c7 bc 7f 0f f2 ba
       0.03585869 -0.012825202 -0.024391593 -0.0018467753
000300 1a 7a 1f 3d 95 0b a6 bc 3a ef 05 bd 05 52 ef bc
       0.038934804 -0.020269195 -0.032698847 -0.029213915
000310 45 9e 3d bb 11 7c 00 3c 90 7a 6b bd d3 97 75 bd
       -0.0028933447 0.00784208 -0.05748993 -0.059959244
000320 99 0e 11 bd a1 48 13 3d 2f 22 18 3b b4 73 c4 bb
       -0.035414312 0.035957936 0.0023213734 -0.005995238
000330 e3 b7 48 bd 62 da bd bc 8d 0b 70 bd 3c 12 aa bc
       -0.049003493 -0.023175422 -0.058604766 -0.020760648
000340 bc 34 13 bc 58 2e 64 bd e7 e0 af bb 81 b2 ef bc
       -0.008984741 -0.05570826 -0.0053673866 -0.029259922
000350 66 4a 49 3c 41 58 86 bc f1 2b c2 bc 76 44 05 bd
       0.012285804 -0.016399505 -0.023702594 -0.032535993
000360 c4 8b 26 3c 82 45 ed bc 49 d4 b0 3b f5 3c 8f 3c
       0.010165159 -0.028963808 0.0053964 0.017485121
000370 a0 87 dd b9 63 8a 2e 3d ca 8a 3a 3d 22 3b d8 3c
       -0.00042253453 0.042612445 0.045542516 0.026395384
000380 93 24 18 3d f0 c3 ea bc ce 20 0b 3d 70 f1 d3 3c
       0.037144255 -0.028657883 0.033966832 0.025871962
000390 15 f3 50 3d 00 c3 7c 3d 9b 09 17 bd f0 d9 aa 3c
       0.05101307 0.061709404 -0.036874395 0.020855874
0003a0 a0 37 7c 3d 6c 9c f3 bb a2 f2 b5 bc e8 70 e9 3c
       0.061576486 -0.0074344184 -0.022210423 0.02849622
0003b0 35 eb c1 bb 4d 2b a5 3c d8 00 ed 3c 7b a2 86 bc
       -0.0059179314 0.020162249 0.028931066 -0.016434899
0003c0 8b b3 33 bd 03 7a 55 bd 3c 56 5c 3d f1 df db 3b
       -0.043872397 -0.052118313 0.053793177 0.0067100455
0003d0 67 f7 72 3b d4 8f d6 bb 69 3d b9 bc ed e9 1e bb
       0.0037073733 -0.0065479074 -0.02261229 -0.0024248317
0003e0 ee 07 45 bd d5 9d 9b 3c e1 dc a6 bd 47 dc 9a 3c
       -0.048103265 0.018996159 -0.08147598 0.018903865
0003f0 92 db 9d 3b ae 04 bf 3c 47 cc c2 3b 92 a3 34 3d
       0.0048174346 0.023317661 0.005944762 0.044101305

move_mean.bias f4 [2]
000000 b3 fe 41 bd d9 d3 f7 bc
       -0.04736204 -0.030252384

food_logits.weight f4 [3, 128]
000000 92 04 75 bd aa b9 00 3d b7 d5 8b 3d 0b 38 c6 bc
       -0.05981881 0.031427063 0.06827872 -0.024196645
000010 99 73 8c 3d 57 f6 08 bd df 16 53 3c bb 34 f8 3c
       0.06857986 -0.033438053 0.012883871 0.030298581
000020 a9 36 f4 bc da 79 15 bd 2c 3c 44 3d 81 e4 e4 bc
       -0.02981122 -0.03649316 0.047908947 -0.02794099
000030 82 56 84 bd 76 4f 56 bd 36 99 69 3b 05 eb 46 3d
       -0.064618126 -0.052321874 0.00356443 0.048563976
000040 72 5f 00 bd d7 84 83 3d 06 a8 86 3d 76 4b b1 bd
       -0.031341024 0.064218216 0.06575017 -0.08656971
000050 35 6a 87 3d 38 55 ac 3c cd 85 35 bd 6f b5 84 3c
       0.06612054 0.02103673 -0.044317055 0.016199796
000060 3b 73 e0 bc ec 4e 14 3d 4d ac 88 3d 9f 71 74 bd
       -0.027398696 0.03620808 0.06673489 -0.05967867
000070 cd 71 37 3c 6e af b7 bc 5d 39 6d bd 19 25 02 3c
       0.011196566 -0.022422519 -0.057916034 0.007943415
000080 86 2a 45 3d 51 f3 b8 3c 64 dc b0 3c cf 4d 14 bd
       0.048136257 0.02257696 0.021589465 -0.036207017
000090 41 19 98 3d 1a d0 84 3b a0 50 2c 3d f7 8a 81 bd
       0.07426692 0.004053128 0.042069077 -0.063253336
0000a0 c2 a6 8e bd 04 bb 2b 3d 7a 8d 8f 3d 68 06 3d bc
       -0.069654 0.0419264 0.070094064 -0.011537172
0000b0 3f a1 23 3d 9d c3 5f 3d b3 d1 30 bd 28 ba ab 3d
       0.039948698 0.05462991 -0.043168735 0.08385116
0000c0 59 22 69 3d a6 29 f4 bc f1 f4 92 bd b6 0e 82 3d
       0.056917522 -0.029805016 -0.07175625 0.06350462
0000d0 6d 6c 6b 3d 15 d4 eb 3a b0 bd 8c bd 43 dd 29 bd
       0.05747645 0.0017992283 -0.068721175 -0.041470777
0000e0 75 5c f8 bb aa 1d c7 bc 45 c7 b3 bc ce 63 c3 3c
       -0.007579381 -0.024306137 -0.021945605 0.023851302
0000f0 72 69 b1 bc ee b2 1b bd 5a 1a 44 3d ee e9 8a bc
       -0.021656726 -0.038012438 0.047876693 -0.01695725
000100 bb 51 9d 3d e3 be 1b 3d 2d 75 8f 3d bd 41 2c 3d
       0.076816045 0.03802384 0.070047714 0.04205488
000110 22 32 75 bc 9c d7 67 3d 83 eb 19 3b 3c 68 8f 3d
       -0.014965566 0.056602105 0.0023486323 0.07002303
000120 c2 d6 3a 38 8a 7a ac 3c 8e 1e 1e 3d ae 1e 9d bb
       4.4545865e-05 0.021054525 0.038603358 -0.004794917
000130 de a9 71 3d ac 9a 78 3d 28 db 6e 3d 9f 96 83 3d
       0.05899989 0.06069438 0.058314472 0.06425213
000140 f5 1f 60 3d a8 e7 9d 3d ca 61 93 3d 71 b0 3b 3d
       0.054717977 0.077102005 0.07196386 0.045822565
000150 cc a5 87 3c f1 62 49 bd f0 9b 31 3d e0 d2 9d 3d
       0.01655855 -0.049166624 0.043361604 0.07706237
000160 4a 17 61 bc 87 14 36 3d 8b 42 52 bd 31 a9 f9 bc
       -0.013738463 0.04445317 -0.05133299 -0.030476185
000170 45 7d 8a 3d 04 c6 c9 3c f9 de 94 bd 69 a4 e9 bc
       0.067621745 0.024630554 -0.07269091 -0.02852078
000180 7f 96 95 bc ba ab 00 3c 69 97 9d bd 98 72 ac bc
       -0.018260239 0.007853443 -0.07694895 -0.021050736
000190 1b 97 b1 bd 8a c6 62 bd f4 28 47 3d ca 5e 41 bc
       -0.08671399 -0.055365123 0.04862304 -0.011802385
0001a0 bc 60 a4 bd f7 b8 52 bd d9 0c c4 bd 66 2e a6 3d
       -0.08026263 -0.051445927 -0.09572763 0.081143185
0001b0 ed 1a 11 bd da 9a 81 3d 9d 55 a5 bd e1 4c 24 3c
       -0.03542607 0.06328364 -0.0807297 0.010028095
0001c0 ed 5e b1 bd fb 92 19 bc 65 95 41 3d 2e 49 05 3d
       -0.08660684 -0.009373422 0.047261614 0.032540493
0001d0 da 50 a6 3c b3 cc a7 bb 1e 98 c8 bc 85 ac df 3a
       0.020302225 -0.0051208376 -0.024486598 0.0017064965
0001e0 c0 45 9f bd ab 4a e4 3c 29 d2 b5 bc 4d 99 52 bd
       -0.07776976 0.027867636 -0.022194939 -0.05141573
0001f0 da fa f8 3c 43 27 3b 3d 10 66 bd 3c e4 6c 6b 3d
       0.030393053 0.04569174 0.023119956 0.057476893
000200 87 4d 35 bd 6a c2 06 bc ab 6d 01 bd 5e cb 0d bd
       -0.04426339 -0.008225063 -0.03159873 -0.034617774
000210 6f 3c 37 bd 9e ec b1 3b 5b 89 82 3c 6b b9 9f 3d
       -0.04473537 0.0054298183 0.015934637 0.077990375
000220 0a c8 27 bc 55 ea a2 bc ac 76 1a bd 5d 69 f1 3a
       -0.010240564 -0.019887129 -0.03771083 0.0018418242
000230 6f 1d 91 3c 19 0b c0 3d 77 b3 e4 bb bc 88 5b 3b
       0.01771423 0.09377117 -0.0069794017 0.0033498248
000240 2d 4f 1e 3d 34 76 62 bd 31 84 fd bc 3d 94 9e bd
       0.038649727 -0.05528851 -0.030946823 -0.07743118
000250 de e0 b0 bc 13 e2 62 3d 56 36 8b 3c bb 3b 86 bd
       -0.0215916 0.055391382 0.016993683 -0.065543614
000260 e3 56 fd 3c 41 6d 99 3d 2a 51 a6 bb 5d d2 4d bd
       0.03092522 0.07491542 -0.0050755935 -0.050249446
000270 0d bd d4 ba 9f ac a6 bc 0c 67 d1 bc 65 a3 25 3c
       -0.0016230658 -0.020345984 -0.025561832 0.010109757
000280 21 37 34 3d 4c 22 81 3d 87 0c 7a 3d 81 51 2f bd
       0.043997888 0.0630537 0.061047103 -0.042802338
000290 fa 53 6f 3d e3 94 9b 3d 79 a8 76 3a da 71 56 bd
       0.058429696 0.07596757 0.00094092597 -0.05235467
0002a0 11 9d 84 3c 29 b2 a0 3c fa 0f f3 bc 24 aa e5 ba
       0.016188176 0.019616203 -0.029670704 -0.0017522019
0002b0 c6 78 23 bc ba e8 93 3d c0 a0 9f bc 7b 00 7f 3d
       -0.009977525 0.072221234 -0.019485831 0.062256318
0002c0 90 1b 41 bd 1d 72 04 3d df 7d 9e bd c4 f8 d5 bc
       -0.047145426 0.03233539 -0.07738852 -0.026119597
0002d0 f3 a1 af 3b ce 35 97 3d ae 2b ae bc f0 c0 91 bd
       0.005359882 0.07383309 -0.021261062 -0.07116878
0002e0 52 e1 70 3d 32 ba 0f 3d f6 70 57 3d bc 60 a2 3d
       0.058808632 0.03508968 0.052597962 0.07928607
0002f0 f3 54 98 3d 76 5c 86 3c a1 28 33 3d 2d c0 d7 3c
       0.07438078 0.01640151 0.04373992 0.026336754
000300 e3 94 83 3d ea 08 98 3d 57 25 a3 3b a8 79 95 bc
       0.06424882 0.07423575 0.0049788165 -0.018246487
000310 1a 45 f8 3c a1 02 62 3b 24 bd 33 bc da 8b a4 bd
       0.030306388 0.003448643 -0.010970388 -0.08034487
000320 a1 8a 75 bd 73 a5 d5 3c 64 6c 9c 3d 22 65 52 bd
       -0.05994666 0.026079869 0.07637861 -0.05136598
000330 02 53 24 bd eb f4 37 bb 31 ba aa 3d 81 50 58 3d
       -0.040118225 -0.0028069566 0.083362944 0.05281115
000340 d7 6f d9 3a 34 96 2b bd da 6c 76 3d c1 3c 9b 3d
       0.0016589117 -0.04189129 0.060162403 0.07579947
000350 ba 33 69 bd 47 5a 74 bd 11 41 92 3c cb e8 fe 3c
       -0.056934096 -0.059656408 0.017853292 0.031116864
000360 49 2d 8c bd f0 d4 0d bd fc 81 fe 3b f3 a4 aa bd
       -0.06844575 -0.0346269 0.00776696 -0.08332243
000370 46 3d da 3c d4 e9 9a 3d 49 b5 4e 3c 27 69 10 3d
       0.026640546 0.075641304 0.012616464 0.03525653
000380 82 3a 86 bd b7 b8 1f bd 54 6d ad 3d 26 da 44 bd
       -0.06554128 -0.038994517 0.08468118 -0.048059605
000390 af a4 9c bd 16 6c 02 ba fd e4 8c 3d 37 61 69 bd
       -0.076485984 -0.00049752125 0.068796135 -0.056977477
0003a0 57 52 a2 3d 22 5c 44 bd dd f3 44 3c 66 47 0a 3c
       0.07925861 -0.047939427 0.012021032 0.008439874
0003b0 b9 7d b3 3b 62 67 f6 3c f9 d7 69 bc 87 19 94 3c
       0.005477634 0.030078594 -0.014272683 0.018078579
0003c0 0a 1e 06 bd cf 6e 88 bd f6 44 1b bd e3 8f 92 3c
       -0.03274349 -0.0666176 -0.037907563 0.017890876
0003d0 28 37 5e 3d 65 bb 85 3c 48 30 52 bd bf 3f 62 3d
       0.05425182 0.016324708 -0.051315576 0.055236574
0003e0 e5 b0 1d bc c8 1a 4e 3d 72 41 7f bd 95 63 44 bd
       -0.0096246945 0.05031851 -0.062318273 -0.04794653
0003f0 a8 25 b5 3c f2 62 62 bc 1c 8c 93 bc b4 d2 9a bc
       0.022112682 -0.013817536 -0.018011145 -0.0188993

food_logits.bias f4 [3]
000000 85 af dd bc d0 90 08 bd 41 d1 68 3d
       -0.027061233 -0.03334123 0.056840185

net.0.weight f4 [128, 17]
000000 47 ab 6f 3d 97 a5 00 be 29 33 3a be 6b cb 60 bf
       0.058512952 -0.12563168 -0.18183579 -0.8781039
000010 0a 40 96 3e 50 2e 68 be 14 74 98 be 0b bd 96 3d
       0.29345733 -0.22673917 -0.2977606 0.07360276
000020 ff d0 f1 bd e2 51 1d 3e 96 3a 6e 3d f0 23 a8 bd
       -0.11807441 0.15363267 0.05816134 -0.082099795
000030 20 c0 62 3e 9c 32 e7 3c f0 4c e2 bc 1a 30 2c 3e
       0.22143602 0.028222375 -0.027624577 0.16815224
000040 a7 3d 5a 3d 2e 15 95 3d 70 73 0f be cc c8 44 be
       0.053281453 0.0727943 -0.1400888 -0.19217223
000050 20 67 6f 3e 1f f4 87 bc 1a 55 4a be 72 d7 da 3d
       0.23379183 -0.016595898 -0.19759026 0.10685624
000060 d2 c0 a4 3d f1 0b a6 3e 0c a4 c0 3c ae c7 12 be
       0.0804459 0.32430986 0.023515724 -0.14333984
000070 e8 5b 23 be 50 91 5e be 7d e4 a4 bd 48 be 61 3e
       -0.15953028 -0.2173512 -0.08051393 0.22045243
000080 8e 98 8d bd 5f f7 bb 3d d8 f5 5a bd fd 01 19 3e
       -0.06913863 0.09178042 -0.05345711 0.14942165
000090 b4 87 e1 bd 34 2f a2 3e 51 73 ba be ef 7f e3 3d
       -0.110122114 0.31676638 -0.36416104 0.11108386
0000a0 b9 71 26 3e 67 77 c3 3d 1c 26 8a bd a9 83 5d 3e
       0.16254319 0.095442586 -0.0674555 0.21632256
0000b0 28 8c 76 3e dc 5b df 3d 44 36 c7 3d 18 79 22 3e
       0.24076903 0.10906193 0.09727147 0.15866506
0000c0 4c c9 68 be 1a c5 58 bd 54 98 56 3c 93 fa f5 bc
       -0.22733039 -0.052922346 0.013097841 -0.03002671
0000d0 13 4e d2 bd 15 6a 91 3e 4e 15 2a 3c 8b 20 e4 bd
       -0.10268798 0.28401247 0.010381056 -0.111390196
0000e0 ad c5 85 bd 10 42 41 3e bf d9 4c be 6a 08 48 3e
       -0.06531844 0.18872857 -0.20004939 0.1953446
0000f0 28 05 67 3d f8 8c 35 be 76 f6 85 be 10 1a 78 be
       0.0564014 -0.17729557 -0.26164597 -0.24228692
000100 07 84 28 be d4 d9 f6 3d 8e b4 dc bd 66 73 63 3e
       -0.16456614 0.12053266 -0.107766256 0.2221199
000110 fb 41 88 3e 48 d8 80 bd e3 3e a1 bc 38 17 95 be
       0.2661284 -0.062912524 -0.019683307 -0.29119277
000120 92 e1 2f be ba 77 84 3d 5c 17 1d be bf f1 3e be
       -0.17175892 0.064681485 -0.15340942 -0.18646906
000130 84 71 85 be 8f d2 07 be ea c4 7b be d4 26 87 3d
       -0.26063168 -0.13263915 -0.24586836 0.06599203
000140 a5 78 22 be ff 14 4f 3e ea 5c 4e bc 4a 68 2e bd
       -0.15866335 0.20222853 -0.012595395 -0.042579927
000150 3e 44 51 be 4f ee 3d be aa 67 69 bc 72 a2 47 3d
       -0.20436189 -0.18547939 -0.014245907 0.048738904
000160 85 18 b3 3e fc 9b c6 3d 1a f1 82 be 36 52 59 be
       0.34979644 0.096977204 -0.2557457 -0.21222767
000170 8f fb 43 bd 41 9f 81 be b3 15 29 be 00 01 32 3e
       -0.047847327 -0.25316814 -0.16512184 0.17383194
000180 a2 82 45 bd 4c 71 6b be c0 a7 b9 3d 4d ec 1f be
       -0.048220284 -0.22992438 0.09065199 -0.15617485
000190 71 0e de bd 7d 62 0d bd d3 93 29 bd 4e 08 01 be
       -0.10842598 -0.034517754 -0.04140074 -0.12600824
0001a0 5e 78 c6 bd b0 6a 96 3f 65 1d 8f be fe 9c 8c bd
       -0.09690927 1.1751308 -0.27952114 -0.068658814
0001b0 c4 8e 1e 3e bf 16 1f 3e 42 4a e5 3d a8 7a 55 bc
       0.15484148 0.1553602 0.11195804 -0.013029732
0001c0 37 71 0b 3e 04 df 28 bc ec a0 50 bc ea 7f 09 bd
       0.13617407 -0.010307077 -0.012733679 -0.033569254
0001d0 76 92 4c be 0b 56 fc bd ae de 06 3e 07 52 65 3e
       -0.19977745 -0.12321099 0.13170883 0.22394572
0001e0 2a 35 91 3d 02 90 75 be d5 b6 8a bf 8f 49 23 3e
       0.07090218 -0.23980716 -1.0837046 0.15946029
0001f0 63 86 52 3e e1 ee d4 3d 18 7d 89 3e ce 10 32 3e
       0.20559077 0.10397125 0.2685325 0.17389223
000200 7f bb d4 3d bf 6a a5 bc 2c 41 2a bc 96 4d 59 be
       0.103873245 -0.020192502 -0.010391515 -0.21221003
000210 33 52 f2 bd f5 90 f8 3d e2 13 1c 3d cc 00 e4 bd
       -0.118320845 0.12137023 0.0381049 -0.111329645
000220 61 00 d0 bc c3 8c d2 bd 2e 55 c2 bd 7d 97 d9 bd
       -0.025390806 -0.102807544 -0.09488903 -0.10624597
000230 92 00 95 3d db 04 6c 3e eb ac 20 3e 20 b2 7f 3d
       0.072754994 0.23048727 0.15690963 0.062425733
000240 a9 55 20 3d 11 5f dc 3d c5 8e 01 3e 99 14 1b be
       0.039144192 0.1076032 0.12652119 -0.15144576
000250 6c b7 42 3d 81 7c 14 3e 1d 56 83 3e 7a ae 0b be
       0.047538206 0.1450062 0.25651637 -0.13640776
000260 74 ba 2f be 42 a6 19 39 f1 f4 37 3e 96 7b 07 3e
       -0.1716097 0.00014653153 0.17964531 0.13230738
000270 4f 71 70 3f 70 51 ea 3d f8 d7 7b be f0 e3 3e bb
       0.93922895 0.11441314 -0.24594104 -0.002912756
000280 41 76 f3 3b 08 88 de bc ee c9 62 3d 7e 80 15 3d
       0.0074298684 -0.027164474 0.055368356 0.036499493
000290 7a 8f fb 3d 34 dd 34 be 96 36 c8 bd 64 14 56 3e
       0.12283225 -0.17662507 -0.097760364 0.20906216
0002a0 c1 bc 18 3e 4a ec 9b bd 3c ca 5b 3e f5 bd c9 bd
       0.14915754 -0.07613428 0.21463865 -0.098506846
0002b0 71 4c 1a 3c 8e 5e 23 3f fb 30 e1 3d 21 d0 bc bd
       0.009417639 0.63816154 0.109956704 -0.09219385
0002c0 36 58 e9 3c 31 b3 82 bd 3f b1 c2 3d bb dc 38 be
       0.028484445 -0.06381834 0.09506463 -0.18052952
0002d0 ad 71 69 be 8e 08 b6 3c cb b4 da 3d db a9 7a 3e
       -0.2279727 0.022220876 0.10679015 0.24478857
0002e0 aa 1b ea 3d 16 eb 93 3d 15 e6 44 be 25 4c 42 3e
       0.11431058 0.072225735 -0.19228394 0.1897436
0002f0 93 6b 3e be 9b b4 37 3e 40 50 7d 3e c3 fc ac bd
       -0.18595724 0.1793999 0.24737644 -0.08446648
000300 9c cd e1 3d 2d 33 a2 3d 52 7a ee 3d 4a d1 34 3d
       0.11025545 0.07919917 0.116444245 0.044144906
000310 ec 45 83 3c 93 4c 15 be f2 f4 96 bd e6 0a 2b 3e
       0.016024552 -0.14579992 -0.07370938 0.16703376
000320 c7 1d b6 3d e6 6f 09 3d b6 d5 f4 bd fe bf 2d bd
       0.08892398 0.03355398 -0.119548246 -0.042419426
000330 7f 40 c4 3c f8 fb 08 3e 85 b5 a5 3d fd ca 6e 3f
       0.023956535 0.13377368 0.08091263 0.93278486
000340 64 60 18 be a9 99 8b 3d 6f 34 b4 3c 35 b4 12 3e
       -0.1488052 0.06816418 0.021997659 0.14326556
000350 78 45 32 be 9d de 0e 3d 87 07 65 3e 78 51 05 be
       -0.17409313 0.03488027 0.22366153 -0.13019359
000360 0a bc c7 3d 8a e9 31 3d 12 a4 f6 bd 03 90 1b 3e
       0.097526625 0.04343561 -0.12043013 0.15191655
000370 6f 4c 62 bd e0 66 35 bd 67 f9 93 3c 31 30 21 3e
       -0.055248674 -0.044287562 0.01806326 0.1574104
000380 34 a4 12 be f8 f8 b7 3e 61 61 14 3c 55 82 f0 ba
       -0.14320451 0.35932136 0.00905642 -0.0018349389
000390 ac f7 83 3e 94 1a 85 bc 8a e0 0a bc c0 de be bc
       0.25774896 -0.016248025 -0.008476386 -0.023299575
0003a0 2a 13 ed bd 3a cd 1b 3e 03 6a c7 3d 6c a5 ad 3d
       -0.11575921 0.15215006 0.09737017 0.08478817
0003b0 55 22 47 bb 6b 64 f0 bd 19 e8 2e be 4f 50 9e 3d
       -0.0030385454 -0.11737903 -0.17080726 0.077301614
0003c0 b9 22 90 3c 40 5f a9 3f 9b 6b e7 3d d0 6d 1b 3d
       0.017594682 1.3232193 0.11299821 0.037946522
0003d0 e2 da 85 be b8 cf 04 3e ad 40 6e 3e 4f 11 ab 3d
       -0.26143557 0.12969863 0.2326686 0.08352911
0003e0 72 73 4e be 10 ee d0 bd ea 27 34 3d 36 dc 73 3d
       -0.20161226 -0.10201657 0.043983378 0.05953618
0003f0 6d 87 42 3e c8 df 18 be 9b 75 93 bd e0 9b 1c be
       0.18996973 -0.14929116 -0.07200166 -0.15293837

net.0.bias f4 [128]
000000 91 9c 6c 3e e6 48 37 3a 20 a3 0c be bf 14 10 be
       0.231066 0.0006991759 -0.13734102 -0.14070414
000010 2f f4 6a bc 82 23 21 3e e5 17 67 be 31 39 93 3c
       -0.0143404445 0.15736201 -0.22567709 0.017971607
000020 a2 c5 3f be 1a ad 74 be 20 1e ce 3d 1a e4 87 bc
       -0.18727735 -0.23894158 0.1006434 -0.01658826
000030 f4 74 e8 3d db 5b 6b 3c 43 18 b9 bd eb c5 f2 3d
       0.11350432 0.014365162 -0.09037831 0.11854156
000040 95 58 bc bd 2f 1b ac 3c 0f 52 c8 bd 6b a1 13 be
       -0.09196583 0.021009056 -0.097812764 -0.14417045
000050 98 e6 62 be 9f 3c 39 be 84 54 15 3e db 83 51 3e
       -0.22158277 -0.18089531 0.14583021 0.20460455
000060 4b aa 1a be 60 a6 8b 3b e9 2f 3d be 9e d6 e7 3d
       -0.15104024 0.004261777 -0.18475308 0.11320232
000070 8c fa 0f be 05 20 32 3e c4 76 bc bc 0b 30 02 3e
       -0.1406042 0.17395027 -0.02300585 0.1271364
000080 04 7c ac 3c b2 18 f3 3d 09 44 15 3e 0d d8 c9 3b
       0.021055229 0.11869945 0.14576735 0.0061597885
000090 44 09 89 bc 6d 76 12 be 3d 30 49 be 75 a6 30 bb
       -0.016728051 -0.14302988 -0.19647308 -0.0026954685
0000a0 b3 87 f9 bd 11 bb 62 be cc 7a 5a bd 98 e8 de 3c
       -0.12184086 -0.22141673 -0.053339764 0.027210519
0000b0 2c 56 88 3d 80 bb 36 be 3a b6 59 be 9c 13 8e bd
       0.06657061 -0.17844963 -0.2126092 -0.06937334
0000c0 ef ac 8c bd 83 d8 e0 3d 41 d4 ed bd 43 23 72 be
       -0.06868922 0.10978796 -0.1161275 -0.23646264
0000d0 02 5e 8a 3e d3 7e c0 3d e9 85 5c 3e 30 49 75 be
       0.27024847 0.0939919 0.21535458 -0.239537
0000e0 a2 05 c6 3d 47 b7 a9 3c ea 8f dc 3c a1 6f 77 3d
       0.09669043 0.020717276 0.026924092 0.060409192
0000f0 a6 ad 81 3d 44 46 c0 ba 39 c7 69 be 0f 2b 1f 3e
       0.06331949 -0.0014669378 -0.22829904 0.1554377
000100 b3 40 90 3d 8a 16 6e be 5a 2d 53 be 0a f1 50 3e
       0.070435904 -0.23250785 -0.20622769 0.20404449
000110 b9 b0 29 3e 93 91 5b be 47 ac 60 3b b3 ea 68 be
       0.1657132 -0.21442251 0.0034282373 -0.2274578
000120 e8 db 70 3d a7 55 8c be c5 ab 5a 3e ea ce 3e bd
       0.05880347 -0.27409098 0.21354587 -0.046584047
000130 20 90 33 3e f9 24 8b 3a 25 4b 82 3d e5 83 09 3e
       0.17535448 0.0010615877 0.06361989 0.1342922
000140 ba 81 8b 3d 3c 94 1d 3e 90 54 1b 3e 22 41 61 3e
       0.06811853 0.15388578 0.15168977 0.21997502
000150 f0 65 87 3d 99 ab c8 3d 1a f3 1d be fd 2e 2d be
       0.0661124 0.09798355 -0.15424767 -0.16912456
000160 ad 94 18 be 08 a0 d3 3d b6 3b 8a 3d 4e 11 43 bd
       -0.14900465 0.10333258 0.0674967 -0.047623925
000170 62 81 f0 3d 3d 3e cd 3d 9f 3f ca bd 82 19 77 3e
       0.11743428 0.10021637 -0.09875416 0.24130824
000180 ba 78 3a 3e f1 de 6e be 39 9f 32 be fe 97 9c 3d
       0.18210116 -0.23327233 -0.17443551 0.07646178
000190 81 ca 4e 3d a1 d0 12 be 10 f3 d1 bc 00 a5 e5 3d
       0.05048609 -0.14337398 -0.025628597 0.11213112
0001a0 2b 96 33 3e 04 33 9d bd a0 2e 26 be 5f 47 d1 bd
       0.17537753 -0.07675746 -0.16228724 -0.10218691
0001b0 1d e5 91 be a8 58 b9 3d d5 33 d2 bd 1e 46 68 3e
       -0.28495112 0.09050113 -0.102637924 0.22682998
0001c0 f6 db 44 bc 2c b7 f6 3d b6 25 17 be bb a8 8b be
       -0.012015333 0.12046656 -0.1476048 -0.2727717
0001d0 12 7e 12 be d8 5e ad 3d 72 0e df bd 49 8a 4c 3e
       -0.14305905 0.08465356 -0.10891427 0.19974627
0001e0 8b 30 80 bc 88 eb b5 bc 29 6f 36 be a6 a7 32 3e
       -0.015648147 -0.022207037 -0.17815842 0.17446765
0001f0 ac 7f 01 be 9d ae 32 bb da 66 1c 3e 2c 81 fe 3d
       -0.12646359 -0.0027264722 0.1527361 0.12426981
