src/training_logs_ppo/initial/ppo_checkpoint_319_1764189356.pt (torch, 480155 bytes, 42 tensors)

move_logstd f4 [2]
000000 24 08 12 40 22 ac 07 40
       2.2817469 2.1198812

shared.0.weight f4 [128, 17]
000000 a1 fd 0b 3e 3e ea f1 bd 61 6b 84 be fd a1 39 3e
       0.1367097 -0.11812256 -0.25863174 0.181282
000010 ae 05 57 3e 72 a4 29 be 08 b2 d1 bd ef e3 99 3d
       0.2099826 -0.16566637 -0.10239035 0.07514178
000020 52 a7 66 3e 94 4b 4f be dd 69 07 3e 19 40 21 be
       0.22524765 -0.20243675 0.13223977 -0.15747108
000030 5e e9 ea bd 8a 19 a1 bd f3 00 dc 3c af eb 2b 3e
       -0.114702925 -0.07866199 0.026855921 0.16789125
000040 04 e9 fa bd de 4e 4f bd ea 37 cd bd b1 7a e6 3c
       -0.122514755 -0.050612323 -0.100204304 0.028134676
000050 32 fd dd 3d 18 4b a1 be 4f e3 60 3e 09 f4 2c be
       0.10839309 -0.31502604 0.21961711 -0.16889967
000060 94 62 bc bc 5e 8b 8d bc 60 34 b7 be e1 b4 02 be
       -0.022996224 -0.01727837 -0.35782146 -0.12764312
000070 9f fd 7b bc 59 87 27 3e b2 c6 90 3b 23 6b b5 3d
       -0.015380292 0.16360225 0.0044182176 0.08858325
000080 b7 a8 f5 bd 86 37 07 be 7c 87 64 3e 11 ed 8f 3e
       -0.119950704 -0.13204774 0.22317308 0.28110555
000090 8a 2c 23 3d a9 3b b4 3d 67 e9 b6 be ad 92 08 be
       0.039837398 0.08800442 -0.35724947 -0.13337202
0000a0 06 51 11 bd 9d 4c 36 be 00 df f5 bb d4 0b c7 bd
       -0.03547766 -0.17802663 -0.0075033903 -0.09719053
0000b0 ed 62 8d bd ff da ea bc 6d b9 15 3e f4 8c 08 be
       -0.06903634 -0.028668879 0.14621516 -0.1333502
0000c0 a1 8f 2a 3e 25 81 0f 3d a0 5f 8e 3c 65 db 13 3a
       0.16656353 0.03503527 0.017379582 0.00056402973
0000d0 3d 22 ea bd 17 ef 9c be 6a 0e 50 bd 7e ab f5 3d
       -0.11432312 -0.3065116 -0.050794996 0.119956
0000e0 a3 44 3d 3e 7f bf 0d 3e e1 b0 6e 3d 12 20 26 3e
       0.18483214 0.13842581 0.058274154 0.16223171
0000f0 35 60 33 be 05 31 df 3c 9f 0f 0c bd e1 5a 2c bd
       -0.17517169 0.027245054 -0.034194585 -0.042078856
000100 51 a8 6f bd 31 1e 02 3d 49 79 24 be fe 06 4c 3e
       -0.05851013 0.031767074 -0.16061892 0.19924542
000110 2c b8 99 3d 67 19 0c 3e 5b 9e a6 be 62 60 1f 3d
       0.07505831 0.13681565 -0.3254269 0.038910277
000120 54 7a 17 bd 29 81 50 3d 24 cb 46 bc d3 59 ec 3d
       -0.036981896 0.050904427 -0.012133393 0.1154057
000130 6d 89 29 be 49 39 4d 3e 22 51 db 3d d7 cc 19 3e
       -0.1655633 0.20041384 0.10708834 0.15019546
000140 e1 d9 e3 3d b7 e7 fe bc 73 3c 18 3d 55 61 59 bd
       0.111255415 -0.03111635 0.037167024 -0.05307134
000150 e9 50 b6 3d dc 29 db bd 4d f6 83 3c 24 54 49 be
       0.08902151 -0.107013434 0.016108656 -0.19661003
000160 d7 a4 8f be e7 26 9b be bc 22 9b ba 5b bf 6d 3e
       -0.2805545 -0.30303118 -0.0011835913 0.23217528
000170 b3 d8 46 be 61 61 7b 3e a1 44 a5 bd c5 d3 05 3e
       -0.19418602 0.24548866 -0.080697306 0.13069065
000180 14 0d dd 3d 2b 59 e4 3d 53 ca 10 bd f8 c9 09 be
       0.1079351 0.1114982 -0.0353492 -0.13455951
000190 b7 be 69 bd f3 25 51 bd 67 d9 78 3d 81 72 6b bc
       -0.057066645 -0.05106158 0.060754206 -0.014370562
0001a0 bd f6 24 be 07 f2 ce 3d ce c3 bb bc 57 c4 89 3d
       -0.16109748 0.10104757 -0.022920515 0.06726902
0001b0 3a f8 a9 be 7d 49 c8 bd 4c 53 9b 3e 8d 7a 67 3b
       -0.33197194 -0.09779642 0.30336988 0.0035320849
0001c0 f7 e6 75 be 06 8f fb bd 21 4e 5c 3d f2 ca 47 bd
       -0.24013887 -0.12283139 0.053785447 -0.048777528
0001d0 ba f2 94 3d f2 25 f6 bd 3c 8c af 3c a1 b5 03 be
       0.07272859 -0.12018956 0.021429174 -0.12862255
0001e0 01 6c 96 bd ee fd 0b 3e 56 6d a6 3d 61 94 b0 3c
       -0.07344819 0.13671085 0.08126323 0.021555128
0001f0 5b e6 8c be 66 9d 90 bd ca 4a 2c 3e 3b 5b 05 be
       -0.27519497 -0.07061271 0.16825405 -0.13023083
000200 6b 67 17 be 42 7e 88 bd b9 94 f7 bc aa e0 cb bd
       -0.14785545 -0.06664707 -0.030222284 -0.09954961
000210 14 2f e3 bd b8 e5 14 3e 70 87 e1 bb 47 c6 9f 3b
       -0.11092964 0.14540756 -0.0068826005 0.0048759314
000220 f3 4e d7 bd 04 da c1 3d 07 90 54 bd ce 9b c4 bd
       -0.10513105 0.09465411 -0.051895168 -0.0960003
000230 90 e4 e5 bd af d2 58 be 84 af 8d bd b4 d9 58 3e
       -0.112252355 -0.2117412 -0.069182426 0.21176797
000240 3d 43 06 3e 43 55 85 be 62 fa 81 3d 04 cb 09 be
       0.13111587 -0.26041612 0.06346585 -0.1345635
000250 32 9d c3 3d c9 b9 dd bd a5 7c 39 be 91 2d 09 3d
       0.09551467 -0.10826451 -0.18113954 0.03349072
000260 6d 3d 0e be a4 43 db 3d 83 09 92 bb 08 07 f4 3d
       -0.1389062 0.10706261 -0.0044567003 0.119154036
000270 68 a5 76 be 16 64 a7 be a5 38 a5 bc 73 7a 40 bd
       -0.24086535 -0.32693547 -0.020168612 -0.046991777
000280 b3 4b 3d 3e 50 f9 3c 3e 23 fa 7c 3e 07 28 e8 bc
       0.18485908 0.1845448 0.24704795 -0.028339399
000290 61 83 c8 3d 98 c7 41 be 68 24 e2 bd ae 72 00 3e
       0.097906835 -0.18923795 -0.110421 0.12543747
0002a0 38 53 19 3d 98 0c d2 3d 5d fa 05 be 74 18 2a 3e
       0.03743288 0.10256308 -0.13083787 0.1661089
0002b0 00 2c 01 be fd 5c aa 3c e2 ad 70 be af d5 60 3e
       -0.12614441 0.020796293 -0.23503831 0.21956514
0002c0 bd 96 cb bd 50 01 63 be 27 a4 3d be 69 af f7 bd
       -0.099408604 -0.2216847 -0.1851965 -0.12094004
0002d0 ee f8 8d 3e 62 18 e5 bd fa 34 27 be 79 da 0e 3d
       0.2772898 -0.11186291 -0.16328803 0.03487632
0002e0 ce 80 f0 3c 8a b1 82 3d 43 c9 d1 bd 65 39 ab bd
       0.029358294 0.06381519 -0.10243466 -0.083605565
0002f0 c1 77 50 be fb 58 92 3d da 1b 86 be 42 38 90 3d
       -0.20358182 0.07145878 -0.26193124 0.0704198
000300 3b 00 fe 3d 51 50 86 3e 07 02 43 3e 37 7b 27 bd
       0.12402388 0.26233152 0.19043742 -0.04088899
000310 d5 9e f1 bd ea 16 60 be 10 ca c8 3d af bb 92 bd
       -0.11797873 -0.21883741 0.09804165 -0.07164704
000320 d7 7f d7 bc 01 11 18 bd 4f 8f d8 bd 65 c5 c1 bc
       -0.026306076 -0.03712559 -0.10574209 -0.023653695
000330 b6 a6 a6 bc 99 a6 3e be e8 ae 05 be 69 e5 88 bd
       -0.020343166 -0.1861824 -0.13055003 -0.066843815
000340 ac 05 76 bd 79 2e 83 be c1 d3 46 3e 2d fc 20 bc
       -0.060064003 -0.25621393 0.19416715 -0.009825748
000350 41 0f e6 bd 81 e5 17 3d 85 9f 0e be 17 c7 2f bd
       -0.11233378 0.037084106 -0.1392804 -0.042914476
000360 7d eb c3 bd 51 33 4a 3c 3a 9e d4 3c 61 a3 fa 3a
       -0.095664 0.012341336 0.025954355 0.0019122177
000370 45 7e 18 bd 7a d9 26 3e 7e 79 5c 3d fc e2 87 be
       -0.037229795 0.16293898 0.0538268 -0.26540363
000380 95 5a b8 3d d3 1a 1a be 09 ee 53 3e e0 f8 5c be
       0.09001652 -0.15049295 0.20696272 -0.21579313
000390 49 14 82 bd 36 1e 3c 3e e0 45 ad bd bd bb 95 bd
       -0.06351525 0.183709 -0.08460593 -0.07311199
0003a0 fb 51 1a 3d 1f 66 7c 3d 9d a8 47 3d 31 8d 84 bd
       0.03767584 0.061620828 0.048744787 -0.064722426
0003b0 bf 0f 86 3d ab 84 a8 bd 38 11 37 bd c2 28 56 bd
       0.06545972 -0.082284294 -0.044694155 -0.052284963
0003c0 9a aa 57 bd 61 96 30 be a1 ac 54 be 59 0b 85 be
       -0.052652933 -0.17244865 -0.20768978 -0.2598522
0003d0 13 0c 3e 3d 04 ad 6c be a7 08 9e 3e 42 d4 fb 3d
       0.046398234 -0.23112875 0.30865976 0.12296344
0003e0 03 63 81 3d 56 19 69 ba 01 82 2d 3d 5d 83 93 3d
       0.06317713 -0.000889202 0.04236031 0.0720279
0003f0 ef b1 7c 3e e2 8c 39 be c2 a4 c5 bd 3f 22 84 bd
       0.24677251 -0.18120149 -0.09650566 -0.064518444

shared.0.bias f4 [128]
000000 10 2f 23 bd af 04 b5 be b7 f7 dc bd a5 15 3f be
       -0.039839804 -0.35355136 -0.10789435 -0.186606
000010 dc a8 32 be fa 43 9b bd 7c 47 80 bd ea a4 b0 3d
       -0.17447227 -0.07581325 -0.062636346 0.08625205
000020 78 5a b9 be bf bd 04 be 17 9c c7 3d 1a 6a 8c be
       -0.36201835 -0.12963007 0.09746569 -0.274247
000030 6f 3b 09 bd 2b 26 37 be 16 be 96 bb f8 f7 bc bd
       -0.033503946 -0.17885654 -0.0046002967 -0.09226984
000040 5a a5 3f be 55 55 9b 3e 6b 7d 01 3e d7 88 a0 be
       -0.1871542 0.3033854 0.126455 -0.313544
000050 49 19 de bd 2a e5 f6 3a f0 81 f0 bc 3b 6e 82 3d
       -0.108446665 0.0018836607 -0.029358834 0.06368681
000060 2f 33 f4 bd f0 a3 5c be a6 34 ec bc ed 7a aa bd
       -0.11923825 -0.21546912 -0.028833698 -0.083242275
000070 4b bd 6b 3c c0 38 93 be c5 d1 68 bd bd e8 8b be
       0.014388393 -0.28754234 -0.056840677 -0.27326003
000080 ec de 0a be 05 2d e8 bd 26 b4 95 be 48 e3 ee 3c
       -0.135616 -0.11336712 -0.29239005 0.02916111
000090 56 c2 76 be 91 6d ae be b8 fd 42 bd 1a 38 16 be
       -0.24097571 -0.34067968 -0.047605246 -0.14669839
0000a0 3b a5 c4 be d3 46 79 be 33 2f a3 bc fc 8e 1e bd
       -0.3840731 -0.24343424 -0.019919967 -0.03871058
0000b0 12 a5 92 3d 55 3a bd be 81 9d 0f 3e 69 14 90 be
       0.07160391 -0.36958566 0.14024927 -0.28140572
0000c0 c3 53 0c 3e d1 29 5f be 86 4e a5 be 26 9a 30 be
       0.13703828 -0.21793295 -0.3228647 -0.17246303
0000d0 99 57 7c be 5a a5 15 be 52 5b b0 3c da 77 31 bc
       -0.24642791 -0.14613858 0.02152792 -0.0108317975
0000e0 0c 54 90 3d d1 08 6d be a1 c0 2e be a1 8c 27 bd
       0.07047281 -0.23147894 -0.1706567 -0.0409056
0000f0 a2 20 c8 bc 87 db 4d bd 29 7e d7 bd 27 be 32 be
       -0.024429623 -0.050258186 -0.1052211 -0.1745535
000100 a9 14 c0 be 33 84 39 be 52 87 8e be 44 db d8 be
       -0.37515762 -0.18116836 -0.27837616 -0.42354786
000110 52 43 2d be 9d f6 7e bc a7 7d e7 be 7e 75 8b be
       -0.16920212 -0.015561727 -0.45213053 -0.27238077
000120 0a 6d 42 3d 8c cc 79 3e 8c fd fa bb 8b 53 d9 bd
       0.04746727 0.24394435 -0.0076596197 -0.10611638
000130 d3 48 35 3e 9a 1a ad be c0 b4 16 be 2e b4 37 be
       0.17703561 -0.33809358 -0.14717388 -0.17939827
000140 e4 5f 03 be f3 50 8d be 65 6d 06 bf 18 c9 0b be
       -0.12829548 -0.27600822 -0.5251067 -0.1365093
000150 53 14 91 be f6 d7 f1 bd ce 9e 86 bd ee e5 eb bd
       -0.2833582 -0.118087694 -0.06573258 -0.11518465
000160 57 73 cd bd 6e e7 8c be 8f 0e 79 3d 97 0e 24 be
       -0.10031765 -0.27520317 0.0608049 -0.1602119
000170 07 4c b0 bd e9 11 2b 3e 27 bf 5f be f0 0d 21 3e
       -0.08608251 0.16706051 -0.21850263 0.15727973
000180 39 40 8a be 03 de a3 be 5a 09 2c 3e 99 a4 46 be
       -0.27002123 -0.3200532 0.16800442 -0.19398727
000190 99 39 67 3e 31 b6 8a be bb 42 91 3c d3 c6 87 bd
       0.22580566 -0.27092126 0.017732015 -0.066297196
0001a0 f4 c9 c0 3c 40 71 19 be a8 dc 20 be 7f 80 ec bd
       0.023533799 -0.14984608 -0.15709174 -0.11547946
0001b0 87 19 a0 bd 9e 11 6b be f6 e9 50 bd a1 5b b2 be
       -0.07817369 -0.22955939 -0.051004373 -0.34835532
0001c0 8c cf 5d be 77 ea be be fc 82 ab 3c 39 a9 8c be
       -0.21661204 -0.37288257 0.020936482 -0.27472857
0001d0 da 0d 8b be 72 b6 2d be b7 80 a1 be f4 0e 01 be
       -0.27159005 -0.16964129 -0.31543514 -0.1260336
0001e0 b2 18 c2 bc 61 65 cb be b9 5a 22 be c0 f7 7e be
       -0.023693416 -0.39725783 -0.1585492 -0.24899197
0001f0 37 ba 69 be ac 41 e8 3d 54 ed d2 be 89 cf d9 3c
       -0.22824942 0.11340651 -0.41196692 0.026588218

shared.2.weight f4 [128, 128]
000000 43 80 83 3c ed c1 02 3d 9a 0b 41 3d f1 5b cd bc
       0.01605237 0.031923223 0.047130205 -0.025068255
000010 7d 90 6f 3d 43 74 ed 3c a6 84 34 bd 4a 37 0d 3d
       0.058487404 0.028986102 -0.044071816 0.034476556
000020 45 72 10 bd cf b2 82 3d ef 2c 0b bd 60 78 9c bd
       -0.035265226 0.06381761 -0.0339784 -0.07640147
000030 36 89 bb bd 4b c3 33 3c 5b 5b fa 3c ce 39 91 3d
       -0.0915703 0.010971854 0.03056114 0.070911035
000040 86 aa 2a 3d d4 31 d8 bc 7e 3b 09 3c be d2 31 3b
       0.04166653 -0.026390947 0.008376 0.0027133669
000050 88 bd ab 3b 29 c3 f2 bd 81 43 9e bd 2d d5 7c 3c
       0.0052410997 -0.1185363 -0.07727719 0.015431684
000060 49 be a9 3d c2 ac 9f bd aa ef 23 bd a2 27 d4 bb
       0.08288247 -0.07796623 -0.040023483 -0.006474451
000070 98 d2 fd bd 62 ef 7a bd e4 8c f9 bc 4d c8 f1 bb
       -0.12393683 -0.06126345 -0.03046269 -0.007378614
000080 32 c3 0b bd 0a 29 a9 bb 21 83 81 3d b1 bb 01 bd
       -0.0341217 -0.005162363 0.06323839 -0.031673137
000090 9f 9b 60 3d 81 1c da bd 65 ec 41 3d 09 c3 ae bd
       0.05483591 -0.10649968 0.047344584 -0.08533294
0000a0 2f f1 a7 3c 81 29 03 be c7 04 be bd 4c e1 f8 3c
       0.020500747 -0.12808801 -0.09278255 0.030380867
0000b0 3d bb bc bc 6e ce a0 bd 0b 66 8b bd f8 b7 06 3c
       -0.0230385 -0.07851873 -0.068065725 0.0082225725
0000c0 25 da 03 bd 83 e4 a9 bd 89 b5 86 3c 7b e1 8d bd
       -0.03219046 -0.08295538 0.016443985 -0.069277726
0000d0 2a fb 0b 3c 11 3f 8d bc 39 d4 fc bc e0 47 1b 3d
       0.008543769 -0.017241986 -0.030862914 0.037910342
0000e0 00 3a 2e 3d 77 e3 82 bd b2 4b a3 bc 72 bf 2b 3d
       0.04253578 -0.06391042 -0.019933555 0.041930623
0000f0 1f 13 04 bd d3 98 2b bd c1 63 fd bc 83 cf 96 bd
       -0.032244798 -0.04189379 -0.030931355 -0.073637985
000100 45 7f 22 3d 8d 68 f0 3c 0f d4 82 bc 3a 73 ea bc
       0.039672155 0.029346729 -0.015970258 -0.028619397
000110 ba 4f 06 be 85 f2 1f bc 66 05 4a bd 87 94 49 3b
       -0.13116351 -0.009762411 -0.049321555 0.0030758695
000120 72 89 36 bd f7 a8 9c bd 4a ba 70 bd a9 64 8a bd
       -0.04456467 -0.07649415 -0.05877141 -0.06757481
000130 04 ae 3b bd 7f a3 fd bd db 80 87 bd 40 dd f3 3c
       -0.04582025 -0.123847 -0.06616374 0.029768586
000140 f9 a4 09 bd 9b 89 1e bd 41 b1 01 be c9 6a b6 bd
       -0.033604596 -0.03870545 -0.12665273 -0.089070864
000150 3d 31 66 bd fa b3 00 bd 7e 1a f3 bc a6 06 25 be
       -0.0561993 -0.03142164 -0.029675718 -0.16115817
000160 ee 2a bf bd 1a 3d 42 bd 35 99 a9 bc d8 41 75 bd
       -0.0933436 -0.047421552 -0.020702938 -0.059877247
000170 f0 a0 b1 3b cd 0a d2 3c f0 22 5c 3d ee ff 4f bd
       0.0054207966 0.025639916 0.053744256 -0.050781183
000180 93 1e e8 bd 99 27 dc bc a2 98 84 bd b7 dd 04 3d
       -0.113339566 -0.02687435 -0.06474425 0.032438006
000190 00 05 bf bd ce 50 da 3b 3d 8d 2d be 8e 6f e8 bd
       -0.093271255 0.0066624647 -0.1694841 -0.11349402
0001a0 d2 2c b6 bd 87 09 92 bc 61 e1 b8 bd 65 d6 4d bc
       -0.088952675 -0.017826809 -0.090273626 -0.012563323
0001b0 54 d4 36 3d 93 a4 a1 bd fc d0 04 3d 90 f2 58 bd
       0.044636086 -0.07892718 0.032425866 -0.0529657
0001c0 c4 6d d3 bd d3 ca cf 3c ca a2 24 bc 9f 7a 79 bc
       -0.103236705 0.025365269 -0.010048578 -0.015226989
0001d0 07 0d 29 3c 42 88 f3 bd c6 98 b8 bd 94 2f 10 bd
       0.010318047 -0.118912235 -0.09013514 -0.035201624
0001e0 2d 65 46 bd 11 5e 9c bd d5 0f 4b bd e6 64 5f 3c
       -0.048436332 -0.07635129 -0.049575645 0.013634896
0001f0 36 56 b1 3b 93 fe 93 3c 9e ba 8f bd 02 74 d2 bc
       0.0054118885 0.018065726 -0.07018016 -0.025690082
000200 46 e3 42 bd 16 73 01 bd 35 d9 f2 bd 24 5d 02 be
       -0.047580026 -0.031603895 -0.11857835 -0.12730843
000210 cb 11 c2 3c d2 ce e2 3c 46 5b c1 bd 35 ea a3 3d
       0.023690125 0.02768651 -0.09441237 0.08003656
000220 ad 65 6f 3d f7 d8 c6 3c 64 fe 8b bd 54 73 08 bd
       0.058446575 0.024273379 -0.068356305 -0.03331311
000230 c3 66 db bd 56 5b 28 3d d4 07 95 3c 52 1b 52 3d
       -0.107129596 0.04110273 0.01819221 0.051295586
000240 46 0e a5 3c 0e 9d 83 bd 20 b6 6c bd 65 72 39 3d
       0.020148408 -0.0642644 -0.057790875 0.04527511
000250 6e 33 d4 bd 8b fd 2d bd ac 4a 90 bd 17 90 f4 3c
       -0.10361372 -0.042478126 -0.070454925 0.029853864
000260 d8 17 16 3c 14 27 56 3c 68 f6 b6 ba 3a 0e 9c bd
       0.009160958 0.01307084 -0.0013958933 -0.07619901
000270 ed 2b 2a bd 60 57 62 bd f9 f1 ef bc 11 6c bb bd
       -0.041545797 -0.05525911 -0.029290186 -0.091514714
000280 56 c7 34 3b 49 6e cb bd 77 e5 1b bd db 1c 44 3d
       0.0027584634 -0.099331446 -0.03806063 0.04787908
000290 57 7f d6 bd e4 d2 f6 3b ac 6d 0d bd 63 05 e0 bd
       -0.10473507 0.0075324643 -0.03452842 -0.109385274
0002a0 7c c9 cc bd 31 06 60 bb 32 7a 1b 3d 0a bf aa 3a
       -0.099993676 -0.0034183378 0.03795833 0.0013026905
0002b0 92 d3 eb 3c 3d 78 9e bd 93 44 73 3d f6 49 15 3d
       0.028787408 -0.077377774 0.05939157 0.036447488
0002c0 a2 ba 71 bc de 1e 37 bd e9 c1 cd bd 6d 45 a3 bd
       -0.014753969 -0.04470717 -0.10046751 -0.07972226
0002d0 66 2f 26 3d 79 10 c5 3c 42 87 3a 3d 24 3f 87 3d
       0.040572546 0.024055706 0.04553915 0.0660384
0002e0 45 18 de bd a8 bf cd bc 8d a8 83 bd 5b 55 20 3d
       -0.10844473 -0.025115803 -0.06428633 0.0391439
0002f0 43 9e 21 bd a6 d3 f3 bd 99 24 84 bd 57 55 63 bc
       -0.03945757 -0.11905603 -0.06452293 -0.013875327
000300 e1 a0 3a bd 09 11 a7 bd 5d a0 d5 3c 67 e6 8e bd
       -0.045563582 -0.08157546 0.026077444 -0.069775395
000310 0c d8 81 3d 86 50 04 3d 51 52 11 3c c9 4e e3 3c
       0.06340036 0.032303356 0.008869723 0.027747529
000320 b9 12 a6 bd 81 c6 f4 3c d4 1e e1 bd 3d 60 05 bc
       -0.0810904 0.02987981 -0.10992208 -0.008140621
000330 3e 15 d5 bd 74 2a 94 bd 7b 25 32 bd 2e 76 0e be
       -0.10404442 -0.0723466 -0.043492775 -0.1391227
000340 8b d3 30 3d 4a 05 94 3b 67 e8 2a 3a ae 56 a3 3c
       0.043170493 0.004517232 0.0006519616 0.019938793
000350 a7 b5 bf bd 47 b0 ce bc 1a 95 bd 3c f3 75 09 bd
       -0.09360819 -0.02523054 0.023142386 -0.03355975
000360 f2 d4 b0 3d 13 e3 ce bd b0 81 ed bc 83 dd 6c 3b
       0.08634366 -0.10101905 -0.028992504 0.0036142773
000370 a0 08 ac bd 8d c2 c5 bd 0c 7c 97 bd de 85 d7 3c
       -0.084000826 -0.09656248 -0.07396707 0.02630895
000380 9e 6b d5 3a 8f 67 81 3c f4 d6 0b be 5c 25 21 be
       0.0016282683 0.01579645 -0.13656217 -0.15736908
000390 8f 63 05 be f9 11 9a bc 3b 22 d3 3c 33 06 aa bd
       -0.1302626 -0.018807398 0.025773158 -0.08301964
0003a0 86 5a 3e bd 90 0d cb bd ca 6c 80 3d 09 41 5c bd
       -0.04647305 -0.09914696 0.0627075 -0.05377296
0003b0 b6 0b e7 bc 2f 35 7a bc df 89 04 3d b6 a1 4f bd
       -0.028203826 -0.015271469 0.032358047 -0.05069133
0003c0 4b e6 b6 3d e1 1c 96 bb c7 2a 80 bc de 66 00 3d
       0.08930644 -0.0045810794 -0.015645398 0.0313481
0003d0 de 0e 76 bd 76 6f ab bd 92 37 63 3d fa 01 78 bd
       -0.060072772 -0.08370869 0.055472918 -0.06054876
0003e0 64 83 c6 bd 4b 7c 84 bd b0 73 d4 bd 51 4e 76 bd
       -0.096930295 -0.064690195 -0.10373628 -0.060133282
0003f0 71 f8 c6 bc f7 2f cc bd e7 4d e8 bd 84 f9 f6 bc
       -0.024288388 -0.09970086 -0.11342984 -0.030148275

shared.2.bias f4 [128]
000000 7c a5 a6 bd d9 f1 e0 bd 98 5c 05 be ac 75 bc 3c
       -0.081370324 -0.10983629 -0.13023603 0.02300533
000010 2c c6 ec bc 54 34 c6 3c 20 ad 1c 3d c8 64 f3 3c
       -0.02890309 0.024194874 0.038251042 0.029711142
000020 7a fb e9 bd 18 b0 8c 3c 53 11 c8 bd d0 53 0c bd
       -0.114249185 0.017173812 -0.09768929 -0.034259617
000030 e0 30 f8 3b f7 88 a1 bd ed ab cd b9 24 82 12 be
       0.0075741857 -0.07887452 -0.00039228742 -0.14307457
000040 d2 21 a0 bc a5 fc c2 bd eb 7c 38 3c 8f 0a bf bd
       -0.019547377 -0.09520844 0.0112602515 -0.09328186
000050 d9 00 e5 bd 0c 23 2d 3d 4d 71 a3 bd 16 9f aa bb
       -0.11181802 0.04226975 -0.07980595 -0.005206953
000060 64 cb 7a bc 55 86 ae 38 5b ea ad 3c 8f b6 ab 3c
       -0.015307281 8.321988e-05 0.021229913 0.020961074
000070 61 d4 99 bd db 7a 28 bd e7 5f d0 bd 6a b6 84 bc
       -0.07511211 -0.04113279 -0.10174542 -0.016200263
000080 6b 90 0e 3d 72 5b c5 bc b5 cb 99 bd df d9 06 3d
       0.034805696 -0.024091456 -0.07509557 0.03292262
000090 72 f1 b4 bd e5 9a 1c bd 20 12 bc bd c9 00 98 bd
       -0.088351145 -0.038233656 -0.091831446 -0.07422025
0000a0 b0 ec ad bd 8f 39 88 bc 55 c5 83 3c 93 c9 ae bd
       -0.0849241 -0.016629009 0.016085306 -0.08534541
0000b0 b7 3e 0d be 86 81 81 bd 26 28 78 bb 9a f9 ff 3c
       -0.13793455 -0.06323533 -0.0037865727 0.031246949
0000c0 f5 40 b0 bc 92 a1 e3 bd a9 bc da 39 be 4f 72 bd
       -0.021515349 -0.111148015 0.00041720763 -0.05915808
0000d0 5e 59 0d be 92 de d9 bc d2 7f 65 bc b7 9d 36 3d
       -0.13803622 -0.026595388 -0.0140075255 0.044584002
0000e0 ae eb 59 3b 60 fa f8 bd a1 83 f6 bb 6d ae bb bc
       0.0033252048 -0.1215713 -0.0075230156 -0.022910321
0000f0 a8 10 81 bd 13 e7 2d bd 39 e1 17 3c 0e 7b 40 bd
       -0.06302005 -0.042456698 0.009270006 -0.046992354
000100 2f ed d9 bd 58 76 b2 bd 0f fe d3 bc b9 a5 7b bd
       -0.10640942 -0.087139785 -0.02587798 -0.061437342
000110 b6 36 ee bd 4a 61 22 3d dd af 72 bc 05 d0 84 bd
       -0.11631529 0.039643563 -0.014812437 -0.06484989
000120 80 5f 37 bb 6d 09 ca 3c 64 2c 00 be 79 dc 1f 3d
       -0.0027980506 0.024662698 -0.12516934 0.03902862
000130 00 3e c0 3b f2 f5 e6 bd 16 0c fd ba 36 bd 0a 3d
       0.005866766 -0.11277379 -0.001930597 0.03387185
000140 c8 93 5b bd 64 1a a5 3c 63 77 02 3d 5a 77 b6 bd
       -0.053607732 0.020154186 0.031852137 -0.08909483
000150 34 b9 c5 bc a0 a6 6f bd 37 3d c2 3c f8 db ea bd
       -0.024136163 -0.058508515 0.02371083 -0.11467737
000160 b6 42 88 3c 36 46 cb bd 13 5d ab bc 40 b2 d5 bd
       0.016633373 -0.09925501 -0.020918405 -0.10434389
000170 5f 58 2f bc 25 1d 67 bd 79 7a 6b bd cd 06 df 3c
       -0.010702222 -0.05642428 -0.057489846 0.027224923
000180 1e 92 35 3d 14 da b2 bd a3 9d 8e bd ac b9 15 3d
       0.0443288 -0.08733001 -0.069636606 0.036554024
000190 ee 01 f6 bd 3b 66 5c bc ad 32 53 bd 76 9c ab 3c
       -0.12012087 -0.013452108 -0.051562 0.02094863
0001a0 73 09 89 bd 43 6b 43 bd f6 16 ee bd b6 a5 df bd
       -0.066912554 -0.047709715 -0.11625473 -0.10920279
0001b0 70 9f 0c bd 3f 53 db 3c b5 f8 dc bd 15 20 04 3d
       -0.03433174 0.026773093 -0.107896246 0.03225716
0001c0 00 bc e3 bd 99 96 fc bc 83 47 87 bd d1 37 0a be
       -0.111198425 -0.03083353 -0.06605437 -0.13497855
0001d0 b5 db a3 bd 16 1e 78 bd 09 0e 80 bd ee b6 a3 bd
       -0.0800089 -0.060575567 -0.06252677 -0.079938754
0001e0 2b c3 b4 bd 2e 16 fd 3c 79 12 a5 bc 1b 42 85 bd
       -0.08826288 0.030894365 -0.02015041 -0.06506749
0001f0 7e 20 be bd ae ad a7 bd 8f b4 37 3d 4a ca a6 bd
       -0.09283541 -0.08187424 0.04484993 -0.08144052

move_mean.weight f4 [2, 128]
000000 d2 59 7c 3b d2 60 22 bd 29 64 d6 bb 4b 61 b9 3c
       0.0038505686 -0.039643116 -0.0065427017 0.0226294
000010 32 22 25 3c 86 84 10 3c 1a da d0 3b 07 6e 65 3d
       0.010078954 0.008820659 0.006373656 0.056013133
000020 aa 09 c3 3c 43 e0 d4 38 ed 83 1c bb 61 3c 6e 3b
       0.02380832 0.0001015072 -0.0023882345 0.0036351907
000030 12 42 1e bc 14 81 47 3d 8f 91 76 3c 71 c6 f6 bb
       -0.009659307 0.048707083 0.015049352 -0.0075309803
000040 f3 ca 11 3d b0 a9 a7 3c 67 af 55 bc 86 03 f2 bc
       0.035593938 0.020466655 -0.013042307 -0.029542696
000050 84 19 0d 3d 3a 4b 75 3d 9c 66 e4 bc 7e b2 94 3c
       0.03444816 0.059886195 -0.02788096 0.018151518
000060 65 46 44 bc 80 37 45 3d 67 d0 32 3d db ad b5 ba
       -0.011979674 0.048148632 0.04365578 -0.0013861017
000070 15 dc 5c 3c ba ff be bb 76 c4 3f 3c ad fc 40 bc
       0.013480206 -0.005828825 0.011704555 -0.011778993
000080 c9 12 c6 3c 6f f1 8f 3b 53 5e 19 3d fa 6a d8 bc
       0.02417888 0.004392795 0.03744347 -0.026418198
000090 82 85 b7 3c 04 c1 5d 3d bc 24 81 bd 8e d4 8b 3c
       0.022402529 0.054139152 -0.06305835 0.017069127
0000a0 c5 25 54 3b 87 28 2a 3c b5 10 5b 3d aa b2 7f 3c
       0.0032371145 0.010385639 0.05348273 0.015606562
0000b0 90 17 5e bc bf 2a 0c bb c9 02 c4 bc b0 74 16 bd
       -0.013555422 -0.0021387783 -0.02392711 -0.036732376
0000c0 3e a6 ce 3c 37 84 3f bc 5a ce af ba 92 26 df bb
       0.025225755 -0.011689237 -0.0013412938 -0.006810018
0000d0 f1 e1 b6 bb da e1 b0 3a f3 67 7c 3c b0 eb 19 bd
       -0.0055811335 0.0013495043 0.015405643 -0.037578285
0000e0 a3 be 16 bd 28 98 e1 bc 51 c3 e7 3c cd 76 9a b8
       -0.0368029 -0.027538374 0.028291376 -7.3654206e-05
0000f0 60 20 90 bb d5 ee f9 3b 08 c3 78 bb b8 ec 51 bb
       -0.0043983907 0.007627348 -0.0037958045 -0.0032031965
000100 f7 8b c5 bb d3 03 ef 3b e6 3e 11 3b 39 85 15 bc
       -0.006028648 0.007294157 0.0022162735 -0.009126001
000110 b7 f3 1d bc 9a 9d 2a 3d e0 36 28 3d 07 16 39 3d
       -0.009640626 0.041654207 0.041067958 0.045187023
000120 87 77 36 bc 9d b3 94 3c 22 fa bb 3b b0 2f 90 bc
       -0.011136896 0.018152053 0.0057366053 -0.017600864
000130 62 52 93 bc c8 01 d9 bc 55 78 43 3d 94 4a 45 bc
       -0.01798362 -0.026490107 0.04772218 -0.012041707
000140 61 8f 4c bc 37 5b 62 3d e9 54 b2 3b 3a eb 41 3c
       -0.012485356 0.05526277 0.005442251 0.011835868
000150 83 30 b2 3a c1 5b 04 ba 9d 7a 21 3d b9 b4 75 3b
       0.001359478 -0.0005049073 0.039423574 0.0037491752
000160 a1 51 06 3d f2 9d 31 3d a2 71 3b bd d9 dc 2d bd
       0.03279269 0.04336352 -0.045762666 -0.042446945
000170 df f2 55 3c 59 30 61 bd b4 dd 5a 3c ec c3 90 3d
       0.013058393 -0.05497775 0.013358522 0.07068619
000180 00 61 58 3d 97 7b ce bc 35 b3 8a 3d 09 7c a0 3c
       0.05282688 -0.025205417 0.06772462 0.019590395
000190 30 04 cc 3b fc 23 19 3d d8 85 89 bc 62 8b 0c 3c
       0.006226085 0.037387833 -0.016787454 0.008578153
0001a0 00 39 21 3a d2 83 05 bc 4a 49 2d 3d b9 5e eb 3c
       0.0006150156 -0.008149104 0.042306222 0.02873169
0001b0 d4 d0 e7 3a 2f a2 ef ba 2b 2a 99 3b 01 d9 0b bc
       0.0017686137 -0.0018282587 0.0046742163 -0.0085356245
0001c0 76 65 88 bd 64 8c 08 3c f5 18 e5 3a d4 50 2f bc
       -0.06659977 0.008334253 0.0017478751 -0.010700423
0001d0 cc 79 d1 3c 9e db e2 3b 5d c4 09 3d e3 ca ea 3c
       0.025570773 0.006923153 0.033634532 0.028661197
0001e0 b8 c3 88 bd 07 51 34 bd 1b 87 71 3d 06 8e cb bc
       -0.066779554 -0.044022586 0.058966737 -0.024847995
0001f0 2c e7 25 3a 67 61 72 bc 73 1d 71 3b 4e f0 a7 3c
       0.0006328698 -0.01479373 0.0036791235 0.020500328
000200 a3 7d df 3c 16 35 a3 3c 97 84 63 3a 01 69 38 bb
       0.027281588 0.019922774 0.000867912 -0.002813876
000210 4f 86 29 3d c7 34 8d 3c a2 d7 0c 3c 54 9e 2c bc
       0.041387852 0.01723708 0.008596333 -0.010535795
000220 08 6b 4f 3c 97 78 47 bc 09 d8 f5 bc bd 67 05 3c
       0.012659796 -0.012174747 -0.03001024 0.008142409
000230 95 41 a9 3d 02 6f ce bb 29 b5 04 ba 38 4a 05 bc
       0.08264462 -0.0062998543 -0.00050623954 -0.008135371
000240 99 06 c8 bb 8d 27 24 bc e9 93 98 bc ab 9d 1c 3d
       -0.006104302 -0.010019195 -0.018625217 0.0382363
000250 d1 72 52 3d 6d d6 18 3b df f8 41 3d 49 23 03 bd
       0.05137903 0.0023321167 0.047356483 -0.032016072
000260 33 db ae bc 20 97 d4 bc 46 24 17 3d 06 12 44 bb
       -0.021344757 -0.025950968 0.036899827 -0.002991797
000270 46 d9 0c bc 34 aa 11 3c 01 72 0e bc 31 7e eb bb
       -0.008596724 0.008890677 -0.008694173 -0.007186674
000280 ed 2e a4 bc cb 1a 1f bb 53 6c ab 3c 25 54 f8 bc
       -0.020041907 -0.0024277444 0.020925676 -0.03031356
000290 06 58 ea bc cf 47 33 bd 88 14 3e 3d 00 ed b6 bb
       -0.028606426 -0.043769654 0.0464063 -0.005582452
0002a0 06 d5 04 3d 72 46 1e 3b 1f 91 48 bc cc 5c ba 3c
       0.032429717 0.0024150875 -0.012241631 0.022749327
0002b0 08 22 17 bc e2 3d f8 3c da ae fc 3b 6a b0 d7 bc
       -0.009224422 0.030302946 0.0077112736 -0.026329238
0002c0 17 2f 9d 3b 93 56 8a bc b9 ef c0 ba 37 02 39 bb
       0.0047968733 -0.016886985 -0.001471988 -0.002823008
0002d0 96 96 ac 3c 7d 07 2d 3d 3e 56 56 3c 5e 4d 71 3d
       0.021067899 0.04224347 0.013082085 0.058911674
0002e0 ee 17 78 bd 6b 6e 63 3b 7f 9d 07 3d 81 2d 7f bc
       -0.060569696 0.0034703265 0.033109184 -0.015574814
0002f0 6f 42 b6 3c 6e fd 0e bc e4 99 98 bc 63 82 cf 3c
       0.022248475 -0.0087274145 -0.018628068 0.025330728
000300 38 85 4a 3c 01 12 27 bc 24 05 ae bc 31 52 b6 bb
       0.012360863 -0.010197164 -0.021242686 -0.005563997
000310 30 71 58 bc ae 26 4c 3c b3 e0 d7 bb d3 97 75 bd
       -0.01321058 0.012460394 -0.0065880655 -0.059959244
000320 75 77 3f 3c e9 68 3d bc 05 16 18 bd 2f 38 3a 3c
       0.011686196 -0.011560657 -0.037130374 0.011365934
000330 e7 7e 14 bd 66 8e 02 bd f3 46 6a bd 10 c0 c2 3b
       -0.036253836 -0.031874083 -0.05719657 0.005943306
000340 3f 37 55 bd 6a b1 62 bd 06 da ff bb b0 2d 89 3c
       -0.05205464 -0.055344976 -0.007807973 0.016745418
000350 de b1 3a bc 0d 9f 30 b9 73 98 14 bb 4f 60 1f bd
       -0.011394946 -0.00016843919 -0.0022673875 -0.038910206
000360 e4 5c 2d bc 61 3d 67 bc 3e 94 30 3c 61 32 6d 3a
       -0.010581229 -0.014113755 0.010777531 0.00090483396
000370 c5 b1 14 3a 49 d0 c2 3c b5 46 3b 3d 88 b6 71 3c
       0.00056722417 0.023780959 0.04572173 0.0147529915
000380 e9 b0 87 3c 30 4d 3a bd de 2f c9 3c f8 e1 9f 3c
       0.01656385 -0.045483768 0.024558958 0.01951693
000390 76 de 05 3d 8b 3c 74 3d 6e b4 84 bd cb 9c 4d bc
       0.03268286 0.05962805 -0.06479727 -0.012549589
0003a0 b3 f5 2c 3d 2f 62 03 3c a4 a0 ab bc 02 b9 80 3c
       0.042226505 0.008019014 -0.020950623 0.015713219
0003b0 98 1d 01 3c 79 57 13 3d 4f 4f 7d bb ce 7c e6 39
       0.007880591 0.035972092 -0.0038652008 0.00043962005
0003c0 25 4f 7c 3b 70 c9 11 bc 17 81 23 3d b1 06 8b bc
       0.0038499322 -0.008898124 0.03991803 -0.016970964
0003d0 9f c2 16 bb ad 1c 66 bb 97 54 84 bc a5 50 5f 3c
       -0.0023004187 -0.0035112307 -0.016153617 0.013630067
0003e0 2a 4f 1a 3d f8 ed 36 3c ec d8 ab bd a5 d8 9f 3c
       0.037673153 0.011165135 -0.08390984 0.019512484
0003f0 a6 ab f6 3a 53 13 d2 3b fc 3b 1e bb 7e 00 b7 3c
       0.0018819466 0.006410995 -0.002414464 0.022339102

move_mean.bias f4 [2]
000000 26 98 50 3e 9a a2 b1 be
       0.2037054 -0.34694368

food_logits.weight f4 [3, 128]
000000 cf 1c 0e bd 7d e7 a1 3c dd fd ac 3c ce d1 1e bc
       -0.034695443 0.019763703 0.021117145 -0.009693576
000010 0a 6a ca 3c bd f1 b8 bc a2 ac 00 3c d4 7c 6f 3d
       0.024708766 -0.022576207 0.007853659 0.058468655
000020 76 7e ae bc 09 93 d8 bc 9a f1 06 3d 56 6d 24 bd
       -0.021300536 -0.0264373 0.032945253 -0.040143333
000030 56 25 84 bd 08 57 ca bc c7 6a 23 3c b4 55 36 3d
       -0.06452434 -0.024699703 0.009974188 0.044515327
000040 ed 57 02 bd db 43 35 bc 37 4e 5c 3d 50 5d 7e bd
       -0.031822134 -0.011063541 0.05378553 -0.06210071
000050 be ff 4e 3d ef 8d 2f 3c 46 d3 58 bd 63 07 6a bc
       0.050536864 0.010714992 -0.05293586 -0.014283988
000060 3b 2f ef bb b6 c8 55 3d f7 3c 2a 3d 67 44 2f bd
       -0.0072993315 0.052193366 0.041562047 -0.042789843
000070 42 03 ed 3b be 74 c3 bc 18 07 10 bd a7 f0 47 3d
       0.0072330544 -0.023859378 -0.035163015 0.04881349
000080 82 4d 69 3d 6b 3f 47 3d 8b 0c 33 3d 07 e4 c1 bc
       0.056958683 0.048644464 0.043713134 -0.023668302
000090 ae 01 8c 3d 30 ed b1 bb 87 c6 05 3d 17 ff 50 bd
       0.06836258 -0.0054298863 0.032660034 -0.051024523
0000a0 d7 3b ad bd eb 28 9d 39 fa 07 bb 3c 32 e5 91 bc
       -0.08458679 0.0002997586 0.022830952 -0.017809484
0000b0 63 22 36 bc d3 59 10 3d fc 39 1a bd 10 51 97 3d
       -0.011116597 0.035241913 -0.037652954 0.07388508
0000c0 cb 01 29 3d 4c 17 d8 ba 87 95 a4 bd 3a 9f b6 3c
       0.041261476 -0.0016486435 -0.080363326 0.022292722
0000d0 21 55 37 3d 43 df a3 3b e1 b4 89 bd 1c c5 0b bd
       0.04475892 0.00500098 -0.06723953 -0.034123525
0000e0 37 fd 1a 3c e1 09 95 bc e6 c3 64 3c 27 78 c3 3c
       0.009459785 -0.018193187 0.013962721 0.023861004
0000f0 81 2a 2b 3d c8 07 36 bd 4a da 81 3d 72 06 80 3c
       0.04178858 -0.044441015 0.063404635 0.015628073
000100 8f ab a4 3d 1d 86 4d 3d 03 6c 81 3d fe ef e8 3c
       0.08040535 0.05017673 0.0631943 0.02843475
000110 42 d7 f8 3b 10 01 32 3d dd c3 fc 3c 3c 68 8f 3d
       0.00759402 0.043458045 0.030855114 0.07002303
000120 f3 9d 81 3b d4 ec 04 3d 3a e3 42 3c 68 41 dc bc
       0.0039555966 0.03245242 0.011894995 -0.026886657
000130 1b 49 55 3d f7 1f 38 3d e2 75 2c 3d 7a 8e 29 3d
       0.052071672 0.04495236 0.04210461 0.041395642
000140 07 ff 3d 3d 4f b3 9f 3d f7 8a 5c 3d c7 28 6b 3d
       0.04638579 0.07797872 0.053843465 0.057411935
000150 4a 59 bc bc 34 45 55 bd 1f 55 d7 3c a1 b2 97 3d
       -0.022991795 -0.05206795 0.026285706 0.07407118
000160 a4 c8 f7 bc f0 de 04 3d 4a 53 ec bc ac 3f a1 bc
       -0.03024704 0.032439172 -0.02884831 -0.019683681
000170 aa 54 fb 3c 1c 25 0c 3d c8 dd 1c bd ef d9 da bc
       0.03068002 0.034215078 -0.038297445 -0.026715247
000180 39 7a 59 bb 30 e4 da bc b5 18 ef bc c0 37 eb bc
       -0.0033184423 -0.026720136 -0.029186586 -0.028713107
000190 fc 71 56 bd 9d 77 27 bd 2e c5 6b 3d 7d bc 22 bd
       -0.052354798 -0.040885556 0.057561092 -0.039730538
0001a0 72 ca 93 bd b5 a8 b0 bc 6d 68 35 bd ed f3 6a 3d
       -0.07216348 -0.02156482 -0.04428904 0.057361532
0001b0 98 24 e3 3c e7 a3 3e 3d 3f 3a 73 bd f9 66 3c 3c
       0.02772741 0.04654303 -0.05938172 0.01149916
0001c0 7d 7c b3 bc 99 f8 57 bd 81 e6 2c 3d c0 f7 a4 3c
       -0.021909947 -0.052727316 0.042212013 0.020137668
0001d0 bb 68 aa 3c 48 02 a2 ba 8d 7e 21 3b ee f2 d4 3c
       0.020801893 -0.0012360299 0.002464208 0.025994744
0001e0 dc 46 12 bd 2a 46 22 3c 40 9e 0e bd 50 4e 46 bd
       -0.035712108 0.009904424 -0.034818888 -0.04841453
0001f0 6f 69 d5 3a e3 c2 f0 3c e2 eb af bc de 12 1a 3d
       0.0016282032 0.029389804 -0.021474782 0.03761565
000200 f0 f9 29 bd d7 b6 c4 3b ea 5f 4a bc 6d 9a f7 bc
       -0.041498125 0.0060032415 -0.012351969 -0.030225003
000210 0b 41 67 ba b5 29 07 3d a5 68 83 3c 5e 59 4e 3d
       -0.0008821643 0.03299876 0.01604111 0.050378196
000220 08 4d 0e bd 94 2a 00 bd 96 20 95 3c 11 fd 25 bc
       -0.03474143 -0.031290606 0.018204015 -0.0101311365
000230 c6 cb 9d ba 1e 0d 89 3d ba 89 9c bb 69 23 1b 3c
       -0.0012038879 0.06691955 -0.0047771605 0.009468892
000240 55 2e 41 3d a0 1c 6d bb d3 b6 e4 3c dd 14 96 bd
       0.047163326 -0.0036180392 0.027919209 -0.07328198
000250 5e af 34 bc 5a 7a 0a 3d fc 0c f7 ba c5 81 fa bb
       -0.011028139 0.03380809 -0.0018848474 -0.0076448643
000260 ad 3d 4a 3b 69 4b 46 3d 62 fc c8 3b 33 7c 1d bd
       0.0030859516 0.04841176 0.006133602 -0.038448524
000270 94 16 f3 3b 8d e0 b5 bc f0 41 86 bc cf 7b dd 3c
       0.007418463 -0.0222018 -0.016388863 0.027036576
000280 3e 8f ee 3c d4 d0 ee 3c 73 aa 2c 3d fc 59 d7 bc
       0.029121038 0.029152311 0.04215474 -0.026288025
000290 8c e5 7e 3d b0 f3 ae 3d 74 e7 07 bc 5f c7 2f bd
       0.06223063 0.085425735 -0.008294929 -0.042914744
0002a0 68 ad 14 3c 30 d4 aa 3c 40 e9 f8 bb ad 2e 06 bb
       0.009074546 0.020853132 -0.007596165 -0.0020474598
0002b0 66 9b 25 3c 89 74 8f 3d 24 04 fb bc c7 c7 88 3d
       0.010107851 0.07004649 -0.030641623 0.066787295
0002c0 c1 c7 7c 3b ac 79 e2 3b 7c 31 8b bd f7 c1 bc bc
       0.003857121 0.006911477 -0.06796548 -0.023041708
0002d0 3b 32 53 3d bd 4e 84 3d 3b 9b c6 bc 13 c5 96 bd
       0.051561575 0.06460331 -0.024243942 -0.07361808
0002e0 0e 72 2e 3d e7 35 75 3b b3 b8 20 3d 09 b9 7c 3d
       0.04258924 0.0037416162 0.039238643 0.0616999
0002f0 51 2d 07 3d 2c 5a 07 bc 1b c8 91 3d 43 bb 15 3d
       0.0330022 -0.008261245 0.07118245 0.03655554
000300 ff aa 3f 3d 85 23 72 3d 0a 12 04 bd 16 2b 62 3a
       0.046793934 0.059115905 -0.032243766 0.0008627636
000310 c3 af b2 3c 24 21 c4 3a bd fa 31 3d da 8b a4 bd
       0.021812325 0.001496349 0.043452013 -0.08034487
000320 e8 7e 61 3c 00 b6 1c 3d d3 4c 98 3d 78 f5 b0 bc
       0.013763167 0.038259506 0.07436528 -0.021601424
000330 a9 28 be bc a4 3f eb 3c 39 34 a4 3d be eb 5b 3d
       -0.023212748 0.02871687 0.08017773 0.05369162
000340 7b 0f 05 3d b4 bc 2e bd 70 1c 94 3d 74 4b 7c 3d
       0.032485466 -0.04266043 0.072319865 0.061595395
000350 98 57 9a bc 32 9b 82 bd fa 24 ad 3c 12 6f 62 3c
       -0.018840596 -0.063772574 0.021135796 0.013820427
000360 fd 69 62 bd 05 c4 c1 3b e1 4e 5f bc 0a bb 84 bd
       -0.05527686 0.00591326 -0.013629646 -0.06480987
000370 79 0e a2 3c a3 ce 79 3d 00 08 c3 3c 6b cc 1f 3c
       0.019782292 0.06098808 0.023807526 0.009753327
000380 25 dc 01 bd de de 0d bd 40 4f f0 ba 44 e5 23 bd
       -0.031704087 -0.03463637 -0.0018334165 -0.040013567
000390 ac e9 85 bd 79 dc 79 bc b6 c0 56 3d 07 d9 f1 bc
       -0.0653871 -0.015250319 0.052429877 -0.029522432
0003a0 ad 3d 41 3d 8a b4 b8 bc 14 bf 40 3c 43 52 bd 3c
       0.04717796 -0.022547025 0.011764307 0.023110515
0003b0 43 e6 43 bc 15 38 a4 3c 4b 37 b7 bc 6b 76 80 3c
       -0.011956754 0.020046273 -0.022365233 0.015681466
0003c0 aa c3 10 bc 51 79 c6 bc 47 1f 32 bd e8 0a 26 3d
       -0.008835712 -0.02422777 -0.04348686 0.040537745
0003d0 62 ca 19 3d f8 80 79 3c ae 46 37 bd 51 21 74 3d
       0.037546523 0.015228502 -0.04474514 0.059602086
0003e0 ae 9b 0f bd 07 2a e0 3c b8 97 4c bd ce 26 42 bd
       -0.035060577 0.02736379 -0.049949378 -0.04740029
0003f0 25 a4 43 3d b7 50 c7 bc ae ff c1 bc 39 22 cc bb
       0.047763962 -0.02433048 -0.023681488 -0.0062296656

food_logits.bias f4 [3]
000000 0f 33 09 be 72 4c 78 3d 2c 34 a6 3d
       -0.13398384 0.06061978 0.0811542

net.0.weight f4 [128, 17]
000000 08 d9 1e 3e 3a 74 42 be 2e e2 b2 3f 23 d8 a2 c0
       0.15512478 -0.1898965 1.3975275 -5.088884
000010 1a e6 d0 be b2 b9 96 be 77 d1 13 be ae 59 06 3e
       -0.40800554 -0.2943855 -0.14435373 0.13120148
000020 09 f2 4e bd 70 2e 39 3d 89 ba 0b 3e 76 21 17 be
       -0.05052379 0.045210302 0.13645376 -0.14758858
000030 8f 74 34 3e 3f ae 38 3b 0e 1a 1d bd 05 62 2e 3e
       0.17622589 0.002818003 -0.038354926 0.17029579
000040 13 0e 0f 3e 8c a9 b7 3d 36 d1 b6 bd f9 19 12 c0
       0.13970213 0.089678854 -0.089266226 -2.2828352
000050 75 7e 70 40 80 42 ea 3f 4f 2e 43 be a9 9d d1 3d
       3.7577183 1.8301544 -0.19060634 0.102351494
000060 14 70 c4 bd a0 ad 3b 3e e9 21 6c 3d 54 88 cf bd
       -0.0959169 0.18327951 0.057649527 -0.101334244
000070 03 2b 26 be 74 b2 7c be 37 f6 cf bd 2d e1 c2 3d
       -0.16227345 -0.2467745 -0.10154384 0.09515605
000080 77 5c ab bd 15 4e 56 3b 84 92 07 bd 13 11 0e bc
       -0.08367246 0.003270035 -0.033098713 -0.008671063
000090 5f e5 86 3f 25 e4 ba bf 14 e8 36 c0 91 ac db 3d
       1.0538749 -1.4600874 -2.857915 0.10726274
0000a0 11 63 98 bc a1 19 2a 3d 6a 94 84 3d 2c 92 3b bc
       -0.018601926 0.041528348 0.0647362 -0.011448424
0000b0 9a 03 07 3e cd e1 38 3d 8f 33 64 3d 2a b2 d0 3d
       0.13184968 0.045137215 0.055713233 0.10190232
0000c0 9f 37 ca bd ce eb 10 3d af cd ee bc ad da ce bd
       -0.0987389 0.03538113 -0.029150812 -0.10100303
0000d0 9f 2e b1 bd 32 3e 97 3f 0e 11 86 c0 71 e2 bc be
       -0.086514704 1.1815856 -4.189582 -0.3689151
0000e0 79 17 05 bd 77 73 70 3e 1b ec 01 be 93 e5 c8 bd
       -0.03249309 0.23481546 -0.12687723 -0.09809413
0000f0 e7 51 87 bd c6 40 2e be 6b e8 4f be 61 37 36 be
       -0.066074185 -0.17016897 -0.20303504 -0.17794563
000100 d2 64 1d be ac 61 26 3e 31 7f 5a 3e 54 e7 a9 3d
       -0.15370491 0.16248196 0.21337582 0.082960755
000110 0b f6 ea 3d b2 af 4e be fa 29 aa 3f 5f 6d 49 3f
       0.1147271 -0.2018421 1.329406 0.7868251
000120 0f f3 25 c0 70 d8 b3 3c 33 65 43 be 28 05 da bd
       -2.5929601 0.021953791 -0.19081573 -0.10645515
000130 40 2a 34 be 0f 56 10 3e e8 ab e9 bc 64 e0 b3 3d
       -0.17594242 0.14095329 -0.028524354 0.087830335
000140 42 fd 46 be b1 71 59 3e 68 f0 af 3d 2f 65 e5 bc
       -0.19432548 0.21234776 0.08590776 -0.02800235
000150 48 b6 0d be f1 be e3 bd 70 6b 46 bd 79 8b dc 3f
       -0.13839066 -0.111204036 -0.048442304 1.7230064
000160 28 db e6 bf 1f 49 de bf 57 64 96 be 2b c1 08 bd
       -1.8035631 -1.7366065 -0.29373428 -0.033387344
000170 de 36 67 bc 8e bc 49 be 3e 7a 3d be 8c a0 41 3e
       -0.014112202 -0.19700834 -0.18503663 0.189089
000180 81 b2 db ba 45 b8 c5 bd 0e bf 88 3d b6 8e 81 bc
       -0.0016761572 -0.09654287 0.06677066 -0.01581512
000190 12 59 c7 bd a1 d2 ca bd 93 43 5d bd d1 08 da bd
       -0.09733786 -0.099034555 -0.054019522 -0.10646213
0001a0 4b e1 ee bf 73 dd ac 40 69 45 49 3f d2 0c 07 bc
       -1.8662504 5.4020324 0.78621536 -0.008242803
0001b0 a1 9a a2 3d 3a 39 2e 3e b5 76 14 3d 4f e2 43 bd
       0.079396494 0.17014018 0.03624602 -0.047823247
0001c0 b9 16 72 3e 93 9d 99 bb 75 2a 96 3c 85 40 1b bb
       0.2364148 -0.0046879738 0.018330792 -0.002368958
0001d0 e8 f9 19 bd 21 17 6a 3c 36 bf 83 3d 79 09 3a 3e
       -0.037591845 0.014287741 0.06432955 0.18167676
0001e0 d3 be e2 3d bb d3 0b 40 70 6f b9 c0 63 31 54 bf
       0.11071553 2.184798 -5.794853 -0.8288786
0001f0 88 d6 43 3e 9f 0c 64 bc 7a 32 94 3e 69 a2 56 3e
       0.19124806 -0.013919025 0.2894476 0.20960392
000200 91 68 d2 3d cb 0d 51 bd 93 09 01 3c cc d1 bd bd
       0.10273851 -0.051038545 0.007875818 -0.09268531
000210 db 51 b7 bc 39 58 2c 3e 4e 1c 02 3d bf aa ba bd
       -0.022377899 0.1683053 0.031765275 -0.091145985
000220 11 7d bf bd ba 0e cb 3c 88 e2 ad 3f 8c 67 bb bf
       -0.093500264 0.024787296 1.3584757 -1.4640975
000230 6d e2 1a bf 95 db 89 3e e3 5f 80 3e c7 86 b0 bd
       -0.6050175 0.2692534 0.25073156 -0.08619457
000240 a2 83 1c 3c 11 8f 24 3d 51 14 ef 3c 8c 50 6b be
       0.009552868 0.0401755 0.029184492 -0.22979945
000250 59 cc 29 3d 5e 9d eb 3d 80 f2 9b 3d 75 fb cc 3c
       0.041454647 0.11504625 0.076146126 0.025022248
000260 da f4 4b be 02 7c 77 3d 66 11 86 3d 29 f3 e8 bf
       -0.19917622 0.060420997 0.06546287 -1.8199207
000270 e0 80 c6 40 53 0d 55 3f ef 2b cc bd 96 98 1d 3d
       6.203232 0.83223456 -0.09969317 0.038475595
000280 54 52 83 bd ca 0a 3a 3d 70 24 95 3d 1d eb ed 3c
       -0.06412187 0.045420446 0.072823405 0.029042775
000290 e6 16 8d 3d 8d 9a 34 be 29 0e 8b bd 81 58 55 3e
       0.06889133 -0.17637081 -0.0678981 0.20834543
0002a0 0c c1 15 3e 2e b5 b3 3c 2e 60 05 3e 02 c9 8f bd
       0.14624423 0.02193698 0.13024971 -0.07020761
0002b0 2b 4d fa bf d7 25 37 40 35 c4 56 40 3b 0a 8b bd
       -1.95548 2.8616846 3.3557255 -0.06789061
0002c0 eb e5 25 bc 51 a8 88 bd 8b 6f b6 3d aa 9a 59 be
       -0.0101256175 -0.06672729 0.08907994 -0.21250406
0002d0 90 e0 94 be a3 bc 43 3d e5 71 31 3d 15 d3 73 3e
       -0.29077578 0.04778732 0.04332151 0.2381099
0002e0 ff 70 40 3d 5a 4a 36 3e e2 1d 10 be c3 2f 16 3e
       0.04698276 0.178018 -0.140739 0.14666657
0002f0 a4 1c e5 bb b2 04 0b 3f 4d cc 67 c0 97 70 7e 3e
       -0.0069919396 0.5430404 -3.6218445 0.24847637
000300 64 de 08 3e 25 d4 99 3d b3 c0 59 bd 38 8e ec 3d
       0.13366085 0.075111665 -0.053162288 0.115505636
000310 11 92 e6 bc 03 53 85 be 1d da 0a be c7 ad ec 3c
       -0.028145822 -0.26039895 -0.13559766 0.028891457
000320 89 48 ac 3d cd a2 91 bd 41 d5 62 bd 69 ec 30 bb
       0.084122725 -0.0711113 -0.055379156 -0.002699638
000330 94 09 0d 3d cc f6 94 3d 34 49 45 bf 2f e1 bf 40
       0.034432963 0.07273635 -0.77064824 5.996238
000340 9b 5c 3c be 5a 9a 5b 3d 83 50 24 3e be f8 23 3d
       -0.18394701 0.053613998 0.16046338 0.04003214
000350 1a 4b 24 be 47 80 a5 bc 67 3d 1f 3d 47 8d 8b bd
       -0.16044274 -0.020202769 0.038876917 -0.06814056
000360 3e 4c dc 3d 75 c7 25 3d 5e 56 01 bd 28 fd b6 3d
       0.107567295 0.04047342 -0.031576507 0.089350045
000370 01 8b a4 3b 7e 75 e6 3c ab 95 83 bb df ce 59 bf
       0.0050214534 0.028132197 -0.0040156445 -0.85081285
000380 dd 76 0f c0 e1 7b 64 40 19 e8 29 3d 08 cf a5 bc
       -2.2416298 3.570061 0.04148111 -0.020240322
000390 c5 7c bf 3c 0a d4 5b be f7 0f 2d be ed 59 16 be
       0.023374924 -0.21467605 -0.16900621 -0.14682741
0003a0 a7 f8 82 be 42 25 10 3e 28 b5 ba 3c d2 5b 37 3d
       -0.25580332 0.14076713 0.02279146 0.0447653
0003b0 26 ad 99 bd e0 74 47 3e de cc 96 bc 69 d3 c9 3d
       -0.075037286 0.19478178 -0.018408235 0.098547764
0003c0 cb 7c b4 bf d4 f5 ac 40 4e 1e 8c 3f 2e a4 05 bc
       -1.4100584 5.4050083 1.0946748 -0.008156819
0003d0 ff ef 88 be ce 23 37 3d 24 44 a2 3e 9a ae e7 3d
       -0.26745602 0.04471188 0.31692612 0.113125995
0003e0 67 53 90 bc ea 1e b9 bd 99 c2 ee 3d d0 b6 f9 3d
       -0.017617894 -0.090390995 0.1165821 0.12193072
0003f0 2f 8f 17 3e d6 21 a6 bd 8d 5c 19 bd b2 5f df 3c
       0.14800714 -0.081119224 -0.03744178 0.02726731

net.0.bias f4 [128]
000000 d4 65 ac 3e 01 14 ed bc e6 08 c4 be 1a 7c f6 bd
       0.3367144 -0.028940203 -0.3828804 -0.12035389
000010 e0 90 81 bd a6 fd af 3d 6b 6f 80 be a7 79 75 3e
       -0.06326461 0.085933015 -0.25085005 0.23972188
000020 a8 9e ab be a0 1c af be 2e de 45 3e 23 0e 2a 3d
       -0.33519483 -0.34201527 0.19323036 0.041517388
000030 91 c9 35 3d d7 18 8e 3e 43 23 01 be 57 73 08 be
       0.04438168 0.27753326 -0.12611108 -0.13325249
000040 29 27 e9 bd d4 a3 37 be 3d 16 89 3d 12 c5 52 be
       -0.11384422 -0.17933589 0.06693695 -0.20582989
000050 db 56 d1 be f6 84 b6 bd 89 77 2a 3e 61 4c 17 3f
       -0.40886578 -0.08912079 0.16647162 0.5910092
000060 01 c8 71 bd 06 24 30 bd e9 fa 06 3d 39 d3 ac 3e
       -0.05902863 -0.043003105 0.03295413 0.337549
000070 5e 73 34 be ce cf 91 3e 6e 4a 9f bd f3 46 81 3e
       -0.17622134 0.28478855 -0.07777868 0.25249442
000080 c5 2b a4 bd 52 28 65 3e a5 6b 8e 3e 39 f2 9f 3e
       -0.08016161 0.22378662 0.278165 0.3123949
000090 14 a0 54 be ab 8c ea 3d f2 bb 7b be a0 79 43 bd
       -0.2076419 0.114526115 -0.24583414 -0.047723413
0000a0 a8 ed ea 3d ec b7 5c be da 1d 24 3e 51 8d 1b 3e
       0.114711106 -0.21554536 0.16027012 0.15190627
0000b0 a3 99 9b bd 11 6c 60 be 06 b3 98 bc 90 d9 93 3c
       -0.07597663 -0.21916224 -0.018640053 0.018048078
0000c0 41 b4 a8 3c 03 00 1d 3c a1 66 78 be bf 0b aa be
       0.020593764 0.009582522 -0.242579 -0.33212087
0000d0 64 ef b6 3e 41 f3 6d 3d 5a 66 f0 3e 69 8e 8d be
       0.35729516 0.058093313 0.46953088 -0.27647713
0000e0 03 38 6f 3e 74 5d 9a 3e 4d c8 68 3d fc 2e 8c bc
       0.2336121 0.30149424 0.056831647 -0.017112248
0000f0 cd 39 d7 3d 01 bf 01 be d5 86 0a bf f1 16 92 3e
       0.105090715 -0.12670518 -0.5411199 0.28533128
000100 7c 91 48 3e 98 f5 fd be c7 6d 55 be 95 38 92 3e
       0.19586748 -0.49601436 -0.20842658 0.28558794
000110 51 a6 ff 3d 69 38 64 be a0 d2 dc 3d e8 01 fd be
       0.12482894 -0.22287144 0.10782361 -0.49415517
000120 1d 59 03 3c 05 98 36 be 54 cd 17 3f b8 89 88 bd
       0.008016852 -0.17831428 0.5929768 -0.06666893
000130 c2 d6 85 3e d8 1b 9d 3e 9f c3 d1 bd 64 32 d4 3e
       0.2614041 0.30685306 -0.1024239 0.41444695
000140 39 9b ac 3e c3 e9 3e 3e 28 7c ef 3d 0b ea a0 3d
       0.33712175 0.1864386 0.11693603 0.0785714
000150 b8 48 5f 3e 52 60 08 3e d1 0b 45 be 7e bc 40 be
       0.21805084 0.13317993 -0.19242789 -0.18821904
000160 cd 3a 1c 3e f4 b5 04 3e 4c 27 55 3d 0c 1b 24 be
       0.15256806 0.12960035 0.05203943 -0.16025943
000170 86 85 15 3e 30 ce 4e 3e 30 e0 f4 bd 81 2a b1 3e
       0.14601716 0.20195842 -0.11956823 0.3460274
000180 04 05 57 3e 2b 04 45 be b1 fc 77 be 09 d6 7d 3e
       0.20998007 -0.19239871 -0.24217488 0.24788679
000190 f3 d7 c8 3e de 59 c7 bd f2 cc 8d be b8 86 8c bd
       0.39227256 -0.09733938 -0.27695423 -0.06861633
0001a0 d0 97 bb 3e 00 29 bc 3e a3 a8 3a 3d c3 e0 f1 3d
       0.3663926 0.3675003 0.04557098 0.11810448
0001b0 e8 db 11 3e db 82 21 3d d3 25 04 3d 06 d9 13 3e
       0.14244044 0.039431434 0.032262634 0.14438257
0001c0 b9 5b 9d be e6 f1 45 3e ef 14 e5 bd 4d 54 84 be
       -0.3073404 0.19330558 -0.111856334 -0.25845566
0001d0 eb 9f f7 bd 60 13 8a 3e 4d 68 3c 3e 87 ef 25 3e
       -0.12091049 0.26967907 0.18399163 0.16204654
0001e0 52 ee 36 be e7 f4 3e 3c b9 da 9b bd 01 e2 87 3e
       -0.1786435 0.011655069 -0.076100774 0.26539615
0001f0 0d 2c c5 be 45 d8 18 3d 80 83 5d 3e e0 18 9c 3d
       -0.3851017 0.037315626 0.21632195 0.07621932
