src/training_logs_ppo/initial/ppo_checkpoint_292_1764188868.pt (torch, 480155 bytes, 42 tensors)

move_logstd f4 [2]
0	0x400fae9d	2.2450325
1	0x3ffcb9bf	1.9744185

shared.0.weight f4 [128, 17]
0	0x3dfc86c3	0.12330391
1	0xbe0aae6b	-0.13543098
2	0xbe97ad38	-0.29624343
3	0x3e3a2547	0.18178283
4	0x3e579c81	0.21055795
5	0xbe4e9a5b	-0.2017607
6	0xbe174315	-0.14771684
7	0x3d8e3ada	0.06944819
8	0x3e561902	0.20907977
9	0xbe4a74c1	-0.197711
10	0x3e17038e	0.1474745
11	0xbe3d1b18	-0.18467367
12	0xbddce758	-0.10786313
13	0xbdc34401	-0.09534455
14	0x3c931d80	0.017958403
15	0x3e26f46a	0.16304174
16	0xbddfaa5a	-0.10921164
17	0xbd9ef812	-0.077621594
18	0xbdb8b8fd	-0.09019659
19	0x3c0e888c	0.0086995475
20	0x3d69ecc1	0.05711055
21	0xbe92f3c3	-0.287016
22	0x3e687714	0.22701675
23	0xbe37fbf0	-0.179672
24	0xbd0b464b	-0.034002583
25	0xbd8b7883	-0.06810095
26	0xbeaf230c	-0.34206426
27	0xbe142440	-0.14466953
28	0xbc6c953f	-0.01443988
29	0x3e59ae8c	0.2125799
30	0x3bfe1336	0.007753755
31	0x3dae205d	0.085022666
32	0xbda71cfa	-0.08159824
33	0xbdf4078b	-0.11915501
34	0x3e736738	0.23769844
35	0x3e7d1a89	0.24717154
36	0x3d8eaad1	0.069661744
37	0x3d5c218a	0.053742923
38	0xbecf3ed6	-0.40477628
39	0xbe2792e3	-0.16364627
40	0xbc6c49ca	-0.01442189
41	0xbe338632	-0.1753166
42	0x3af09cb8	0.0018357253
43	0xbdbfb2a1	-0.09360243
44	0xbd76b90d	-0.060235072
45	0xbd333c58	-0.04375872
46	0x3e3f3742	0.18673423
47	0xbde6f4fa	-0.11277194
48	0x3e3fd396	0.18733057
49	0x3c9fe8b8	0.019520149
50	0x3d7af5a9	0.061269436
51	0x3cba1f8a	0.022720117
52	0xbda59a3c	-0.080860585
53	0xbeaed53a	-0.34147054
54	0xbd2c2392	-0.04202611
55	0x3d8dabf7	0.06917565
56	0x3e4cfbf1	0.20017983
57	0x3e143cbd	0.14476295
58	0x3d8c0dcf	0.06838571
59	0x3e2f28f8	0.17105472
60	0xbdf68ffe	-0.12039183
61	0xbb4ae1ea	-0.003095741
62	0xbd279114	-0.04090984
63	0xbd3613ee	-0.0444526
64	0xbd88d9f4	-0.06682196
65	0xb99ff513	-0.00030509438
66	0xbe3fc975	-0.18729194
67	0x3e33e99b	0.17569582
68	0x3d9e47cb	0.07728537
69	0x3e19ec32	0.15031508
70	0xbeaac3cf	-0.33352515
71	0x3d8179cb	0.06322058
72	0xbb974fc8	-0.004617665
73	0x3deb104d	0.114777185
74	0xbca5b20f	-0.020226507
75	0x3dd4b799	0.10386581
76	0xbe3985a6	-0.18117389
77	0x3e2eb3bd	0.17060752
78	0x3d3e19c3	0.046411287
79	0x3e118b94	0.14213401
80	0x3de4b31e	0.111669764
81	0xbd62e7cd	-0.055396844
82	0x3cfbdf6d	0.030746186
83	0xbd375ba1	-0.04476512
84	0x3dc4db23	0.096121095
85	0xbe0e0650	-0.13869596
86	0x3ce78ab2	0.028264377
87	0xbe31ba5c	-0.17356247
88	0xbe87bb6e	-0.26510185
89	0xbe9054e9	-0.2818978
90	0xba8d4b2a	-0.0010779847
91	0x3e5cbd40	0.21556568
92	0xbe3c96af	-0.18416856
93	0x3e8118f9	0.25214365
94	0xbd1705d5	-0.036870796
95	0x3e211575	0.15730841
96	0x3deabf8f	0.11462318
97	0x3dca5da2	0.0988114
98	0xbcb634e9	-0.022242026
99	0xbe1907c9	-0.14944376
100	0xbd360a2f	-0.044443306
101	0xbc21fb3e	-0.009886561
102	0x3d3c04ac	0.045902893
103	0xbc80d8f1	-0.015728446
104	0xbe1cf061	-0.15326072
105	0x3df43f50	0.119261384
106	0xbcd149a5	-0.025547812
107	0x3d36fe59	0.04467616
108	0xbea6d747	-0.3258612
109	0xbdc09e0e	-0.094051465
110	0x3e9a12be	0.30092424
111	0xbbf0b282	-0.0073454985
112	0xbe79f519	-0.24409904
113	0xbe009606	-0.1255723
114	0x3d617321	0.055041436
115	0xbd367f9e	-0.0445553
116	0x3d97839c	0.07398149
117	0xbe0abac3	-0.13547806
118	0x3cc0ea3e	0.023549195
119	0xbe1a70d5	-0.15082105
120	0xbcffa005	-0.031204233
121	0x3e0612a4	0.13093048
122	0x3d81d9c4	0.063403636
123	0x3d573f00	0.052550316
124	0xbe6c1f13	-0.23058729
125	0xbdb0bc00	-0.08629608
126	0x3e3c5a0a	0.18393722
127	0xbe148818	-0.1450504
128	0xbe043822	-0.12912038
129	0xbd7ecbcb	-0.06220607
130	0xbca93ac6	-0.020657908
131	0xbdd7467e	-0.10511492
132	0xbdfa854a	-0.12232454
133	0x3e0878a3	0.1332727
134	0x3c90e1d6	0.017685812
135	0x3b2cc4a4	0.0026362324
136	0xbdadca5c	-0.084858626
137	0x3da50803	0.08058169
138	0xbd2407ce	-0.040046506
139	0xbdd90afc	-0.10597798
140	0xbe0810f4	-0.13287717
141	0xbe57b8ec	-0.21066636
142	0xbaf73823	-0.0018861335
143	0x3e5560be	0.20837685
144	0x3dfdf549	0.124003
145	0xbe825ccb	-0.2546142
146	0x3d7f7e14	0.062376097
147	0xbe0a52f2	-0.13508204
148	0x3d9efd1c	0.077631205
149	0xbdbf0631	-0.09327353
150	0xbe369b98	-0.17832792
151	0x3d03f36b	0.032214563
152	0xbde51a11	-0.111866124
153	0x3e051bdb	0.12998907
154	0xbc5546a7	-0.013017333
155	0x3dfecc04	0.12441257
156	0xbe6ef850	-0.23336911
157	0xbea1e701	-0.31621554
158	0xbca2ce27	-0.019873692
159	0xbd5509d9	-0.052011345
160	0x3e1a6c46	0.15080366
161	0x3e3725e3	0.17885546
162	0x3e4afe32	0.1982353
163	0xbd9a9458	-0.075478256
164	0x3de3b5a6	0.11118631
165	0xbe424d63	-0.18974833
166	0xbe032742	-0.12807944
167	0x3daaee31	0.08346213
168	0x3d388af6	0.0450544
169	0x3da06f6a	0.078337505
170	0xbde1a879	-0.11018462
171	0x3e243369	0.16035236
172	0xbdd85344	-0.10562757
173	0xb9a4a9f4	-0.00031407143
174	0xbe8ad414	-0.27114928
175	0x3e6ea06b	0.23303382
176	0xbd8b5aea	-0.0680445
177	0xbe6d60db	-0.23181479
178	0xbe332e63	-0.17498164
179	0xbdf43005	-0.119232215
180	0x3e94065e	0.28911108
181	0xbde2f77d	-0.11082361
182	0xbe4c0785	-0.19924743
183	0x3d754e2f	0.059889015
184	0x3d17480e	0.03693395
185	0x3d70c6f2	0.05878348
186	0xbdbb33b5	-0.09140722
187	0xbd97e687	-0.074170165
188	0xbe41f7dc	-0.18942207
189	0x3d69bd14	0.057065085
190	0xbe813c9f	-0.25241563
191	0x3da5e3c5	0.08100084
192	0x3e10da44	0.14145762
193	0x3e800093	0.25000438
194	0x3e432af8	0.1905936
195	0xbd53abc8	-0.051677495
196	0xbe077493	-0.13228063
197	0xbe7e7d59	-0.24852504
198	0x3dd04f2d	0.101713516
199	0xbdae8a00	-0.08522415
200	0xbcc6d7e1	-0.024272861
201	0xbd395e1c	-0.045255765
202	0xbdc3fe86	-0.09570031
203	0xbcba6771	-0.022754403
204	0xbc44d0d9	-0.012012684
205	0xbe2e38e1	-0.17013885
206	0xbe2009af	-0.15628694
207	0xbdb12143	-0.08648922
208	0xbd8b9276	-0.068150446
209	0xbe6b9a40	-0.2300806
210	0x3e3f3017	0.18670689
211	0xbd20ed49	-0.039288793
212	0xbdf23f1e	-0.11828445
213	0x3da1c60f	0.07899105
214	0xbe112dfc	-0.14177698
215	0xbd885082	-0.06655981
216	0xbdfad870	-0.122483134
217	0x3a9e6426	0.001208429
218	0x3c8a4de3	0.016882842
219	0x3bf54800	0.0074853897
220	0xbd310e56	-0.043226562
221	0x3e34059f	0.1758027
222	0x3d2d1ae5	0.042261977
223	0xbe603e81	-0.21898843
224	0x3d97f90e	0.0742055
225	0xbe13d137	-0.14435278
226	0x3e603b1d	0.2189755
227	0xbe26b738	-0.1628083
228	0xbd919407	-0.07108312
229	0x3e47394c	0.19455451
230	0xbd931032	-0.071808234
231	0xbd9d5376	-0.076819345
232	0x3d7a50ac	0.06111209
233	0x3d72cfe4	0.05928029
234	0x3d9dac96	0.07698934
235	0xbd67d67d	-0.056601036
236	0x3da437dc	0.08018467
237	0xbd896dd1	-0.06710399
238	0xbd5292c4	-0.051409498
239	0xbcfb18db	-0.0306515
240	0xbd20dbfd	-0.039272297
241	0xbe41e9b8	-0.18936813
242	0xbe3013e3	-0.17195086
243	0xbe8d14c9	-0.2755492
244	0x3d8cbc28	0.068718255
245	0xbe647e90	-0.22313905
246	0x3e9a11f2	0.30091816
247	0x3dd1038a	0.10205753
248	0x3dc0a183	0.09405806
249	0xba4f6155	-0.0007910927
250	0x3c7427f0	0.0149021
251	0x3d53308d	0.051559974
252	0x3e8505cb	0.25980982
253	0xbe2fdacc	-0.17173308
254	0xbdd2fb98	-0.10301894
255	0xbcc3bfe5	-0.023895213

shared.0.bias f4 [128]
0	0xbd476b50	-0.048686326
1	0xbeaf0edd	-0.34191027
2	0xbe0b055a	-0.1357626
3	0xbe543b77	-0.20725809
4	0xbe2cce1c	-0.168755
5	0xbd4dc4bf	-0.05023646
6	0xbd48bf82	-0.04901076
7	0x3df6cf3d	0.12051246
8	0xbeba8991	-0.3643308
9	0xbde8019a	-0.113284305
10	0x3dbcaf70	0.092131495
11	0xbe886aac	-0.26643884
12	0xbd19b0fe	-0.03752231
13	0xbe247af9	-0.16062535
14	0x3c7bb615	0.015363236
15	0xbe036519	-0.12831534
16	0xbe23f106	-0.16009912
17	0x3ea3f39e	0.32021803
18	0x3dbe0781	0.09278775
19	0xbe9d8c27	-0.3077099
20	0xbe0aabd6	-0.13542113
21	0x3b3af39d	0.0028526552
22	0xbb8e76be	-0.0043476513
23	0x3da29327	0.07938223
24	0xbdcabde5	-0.09899501
25	0xbe51b8c1	-0.20480634
26	0xbd288166	-0.04113903
27	0xbda7fd53	-0.08202615
28	0x3c98794a	0.018612523
29	0xbe8e9e9f	-0.27855393
30	0xbd71141b	-0.058857065
31	0xbe8d6318	-0.27614665
32	0xbdf55071	-0.119782336
33	0xbddee2c0	-0.10883093
34	0xbe8d241a	-0.27566606
35	0x3c4ea157	0.012611709
36	0xbe7b617d	-0.24548908
37	0xbe994f74	-0.2994343
38	0xbd6fb8be	-0.058525793
39	0xbe2ab2df	-0.16669796
40	0xbec4e320	-0.38454533
41	0xbe6dbbdb	-0.23216192
42	0xbc10edc4	-0.00884575
43	0xbd90ea65	-0.07075957
44	0x3da7c2b4	0.081914335
45	0xbebd8446	-0.3701498
46	0x3e309c1b	0.1724705
47	0xbe8bd2e5	-0.27309337
48	0x3e1ead85	0.1549588
49	0xbe59af4b	-0.21258275
50	0xbe9c287a	-0.3049963
51	0xbe2a041d	-0.16603132
52	0xbe811833	-0.25213775
53	0xbdf3e729	-0.11909325
54	0xbccc575f	-0.024944006
55	0x3bffc4df	0.0078054513
56	0x3d2f8ce2	0.042858966
57	0xbe629e5d	-0.22130723
58	0xbe381507	-0.17976771
59	0xbd06c5ad	-0.032903362
60	0xbd6bc688	-0.05756238
61	0xbd78dcf1	-0.06075758
62	0xbe104ff3	-0.14092998
63	0xbe2fd1a4	-0.17169815
64	0xbeada740	-0.33916664
65	0xbe19e01b	-0.15026896
66	0xbe94c3cd	-0.29055634
67	0xbecc879f	-0.3994722
68	0xbe2926e0	-0.16518736
69	0x3ad1434b	0.001596549
70	0xbeea8412	-0.45803887
71	0xbe90b72d	-0.28264752
72	0x3d1b7a8c	0.037958667
73	0x3e63113e	0.22174546
74	0x3cf3846a	0.029726226
75	0xbdde3808	-0.10850531
76	0x3e3bbcc1	0.18333723
77	0xbeaca3e2	-0.33718783
78	0xbe14fb97	-0.14549099
79	0xbe4b99f1	-0.19882943
80	0xbe23f2a7	-0.16010533
81	0xbe8cf443	-0.27530107
82	0xbf00e04b	-0.50342244
83	0xbe30c0d7	-0.17261063
84	0xbe8423df	-0.25808617
85	0xbe12f513	-0.14351301
86	0xbd428fba	-0.04750035
87	0xbdeef995	-0.11668698
88	0xbda61482	-0.0810938
89	0xbe7ccedf	-0.2468829
90	0x3d53293e	0.051553003
91	0xbe117b80	-0.14207268
92	0xbda149dd	-0.078754164
93	0x3e27d298	0.16388929
94	0xbe751df9	-0.23937215
95	0x3e09945d	0.13435502
96	0xbe85c14e	-0.26124042
97	0xbe8a75f1	-0.27043107
98	0x3e2c1f40	0.16808796
99	0xbe480848	-0.19534409
100	0x3e68b14d	0.22723885
101	0xbe75f2e3	-0.24018435
102	0x3d67839d	0.056522
103	0xbda2166b	-0.07914432
104	0x3d5a1b18	0.053248495
105	0xbe04abc2	-0.12956145
106	0xbdfe6349	-0.12421281
107	0xbde7693e	-0.1129937
108	0xbd8f672c	-0.070021
109	0xbe5b2f68	-0.21404803
110	0xbd3d84ac	-0.046269104
111	0xbea5f9c9	-0.32417133
112	0xbe5f084e	-0.21780512
113	0xbeb97aae	-0.3622641
114	0xbae3267b	-0.0017330194
115	0xbe87a389	-0.26491955
116	0xbe648ef7	-0.22320162
117	0xbe38b2ff	-0.18037032
118	0xbe9a22b9	-0.30104616
119	0xbdfb1dd5	-0.122615494
120	0xbb4eb1ba	-0.0031539039
121	0xbeb50db5	-0.3536202
122	0xbe132689	-0.14370169
123	0xbe8399c7	-0.2570326
124	0xbe5bc6be	-0.21462533
125	0x3daba440	0.083809376
126	0xbed0e2df	-0.4079809
127	0x3c05bd49	0.008162805

shared.2.weight f4 [128, 128]
0	0x3c838043	0.01605237
1	0x3d1b6dad	0.03794639
2	0x3d410b9a	0.047130205
3	0xbccd5bf1	-0.025068255
4	0x3d6f907d	0.058487404
5	0x3d38f418	0.04515466
6	0xbd3484a6	-0.044071816
7	0x3d0d374a	0.034476556
8	0xbceb4389	-0.028718727
9	0x3d82b2cf	0.06381761
10	0xbc8bd834	-0.017070867
11	0xbd9c7860	-0.07640147
12	0xbdbb8936	-0.0915703
13	0x3c85dbb5	0.016340116
14	0x3d151cf6	0.036404572
15	0x3d9ebba1	0.07750631
16	0x3d2aaa86	0.04166653
17	0xbcd831d4	-0.026390947
18	0x3c093b7e	0.008376
19	0x3b31d2be	0.0027133669
20	0x3c41724e	0.0118070375
21	0xbde5264d	-0.11188946
22	0xbd9314ec	-0.07181725
23	0x3c7cd52d	0.015431684
24	0x3da9be49	0.08288247
25	0xbda86118	-0.08221644
26	0xbce04b30	-0.027379602
27	0xbbd427a2	-0.006474451
28	0xbdfdd298	-0.12393683
29	0xbd7aef62	-0.06126345
30	0xbcf98ce4	-0.03046269
31	0x3c13f208	0.009029873
32	0xbd0bc332	-0.0341217
33	0xbba9290a	-0.005162363
34	0x3d818321	0.06323839
35	0xbd01bbb1	-0.031673137
36	0x3d609b9f	0.05483591
37	0xbdda1c81	-0.10649968
38	0x3d41ec65	0.047344584
39	0xbda1c275	-0.07898418
40	0x3ca7f12f	0.020500747
41	0xbe032981	-0.12808801
42	0xbdb5dd64	-0.088801175
43	0x3cf8e14c	0.030380867
44	0xbc9f2d25	-0.019430706
45	0xbda0ce6e	-0.07851873
46	0xbd8b660b	-0.068065725
47	0x3ccae5bc	0.024767749
48	0xbcd11c42	-0.02552617
49	0xbda9e483	-0.08295538
50	0x3c86b589	0.016443985
51	0xbd8de17b	-0.069277726
52	0x3ccd3f34	0.025054552
53	0xba3b8ed3	-0.00071547664
54	0xbcfcd439	-0.030862914
55	0x3d1b47e0	0.037910342
56	0x3d3816f3	0.04494376
57	0xbd82e377	-0.06391042
58	0xbca34bb2	-0.019933555
59	0x3d2bbf72	0.041930623
60	0xbd04131f	-0.032244798
61	0xbd2b98d3	-0.04189379
62	0xbcfd63c1	-0.030931355
63	0xbd96cf83	-0.073637985
64	0x3d60939f	0.054828282
65	0x3d335e08	0.043790847
66	0xbaecf094	-0.0018077069
67	0xbcbdfd2f	-0.023192016
68	0xbdebdd90	-0.11516869
69	0xbb67e7ac	-0.003538589
70	0xbd4a0566	-0.049321555
71	0x3c9dc0d6	0.01925699
72	0xbd1ec1b5	-0.038758952
73	0xbd8e4b51	-0.06947959
74	0xbd70ba4a	-0.05877141
75	0xbd7fb7b8	-0.062431067
76	0xbd3bae04	-0.04582025
77	0xbddd0a65	-0.10792998
78	0xbd8780db	-0.06616374
79	0x3d163e40	0.03668046
80	0xbd09a4f9	-0.033604596
81	0xbd1e899b	-0.03870545
82	0xbe01b141	-0.12665273
83	0xbdb66ac9	-0.089070864
84	0xbd488989	-0.04895929
85	0xbd00b3fa	-0.03142164
86	0xbcc16e88	-0.023612276
87	0xbe2506a6	-0.16115817
88	0xbdb15371	-0.08658493
89	0xbd423d1a	-0.047421552
90	0xbbc74ece	-0.0060823923
91	0xbd7541d8	-0.059877247
92	0x3cb31eb8	0.021865234
93	0x3cd20acd	0.025639916
94	0x3d5c22f0	0.053744256
95	0xbd4fffee	-0.050781183
96	0xbddbaa7b	-0.10725876
97	0xbcac5ce4	-0.021040387
98	0xbd8498a2	-0.06474425
99	0x3d04ddb7	0.032438006
100	0xbdbf0500	-0.093271255
101	0x3c5e99e6	0.013586497
102	0xbe2d8d3d	-0.1694841
103	0xbde86f8e	-0.11349402
104	0xbda766a5	-0.08173875
105	0xbc47894c	-0.01217873
106	0xbdb8e161	-0.090273626
107	0xbbc45236	-0.0059912456
108	0x3d77b2e5	0.06047334
109	0xbd937708	-0.07200438
110	0x3d2060d9	0.03915486
111	0xbd58f290	-0.0529657
112	0xbdc5414c	-0.09631595
113	0x3ccfcad3	0.025365269
114	0xbc24a2ca	-0.010048578
115	0xbc797a9f	-0.015226989
116	0x3c290d07	0.010318047
117	0xbde6107f	-0.11233615
118	0xbdb898c6	-0.09013514
119	0xbcc7a1b1	-0.024369093
120	0xbd46652d	-0.048436332
121	0xbd8c074f	-0.068373315
122	0xbd4b0fd5	-0.049575645
123	0x3c5f64e6	0.013634896
124	0x3cb09637	0.021556003
125	0x3c93fe93	0.018065726
126	0xbd8fba9e	-0.07018016
127	0xbcd27402	-0.025690082
128	0xbd42e346	-0.047580026
129	0xbd017316	-0.031603895
130	0xbdf2d935	-0.11857835
131	0xbe025d24	-0.12730843
132	0x3cc211cb	0.023690125
133	0x3ce2ced2	0.02768651
134	0xbdc15b46	-0.09441237
135	0x3da3ea35	0.08003656
136	0x3d6f65ad	0.058446575
137	0x3cc6d8f7	0.024273379
138	0xbd8bfe64	-0.068356305
139	0xbd087354	-0.03331311
140	0xbddb66c3	-0.107129596
141	0x3d285b56	0.04110273
142	0x3c9507d4	0.01819221
143	0x3d521b52	0.051295586
144	0x3ca50e46	0.020148408
145	0xbd839d0e	-0.0642644
146	0xbd6cb620	-0.057790875
147	0x3d397265	0.04527511
148	0xbdd4336e	-0.10361372
149	0xbd2dfd8b	-0.042478126
150	0xbd904aac	-0.070454925
151	0x3cf49017	0.029853864
152	0x3c1617d8	0.009160958
153	0x3c562714	0.01307084
154	0xbab6f668	-0.0013958933
155	0xbd9c0e3a	-0.07619901
156	0xbd2a2bed	-0.041545797
157	0xbd625760	-0.05525911
158	0xbceff1f9	-0.029290186
159	0xbdbb6c11	-0.091514714
160	0x3b34c756	0.0027584634
161	0xbdcb6e49	-0.099331446
162	0xbd1be577	-0.03806063
163	0x3d441cdb	0.04787908
164	0xbdd67f57	-0.10473507
165	0x3bf6d2e4	0.0075324643
166	0xbd0d6dac	-0.03452842
167	0xbde00563	-0.109385274
168	0xbdccc97c	-0.099993676
169	0xbb600631	-0.0034183378
170	0x3d1b7a32	0.03795833
171	0x3aaabf0a	0.0013026905
172	0x3cebd392	0.028787408
173	0xbd9e783d	-0.077377774
174	0x3d734493	0.05939157
175	0x3d1549f6	0.036447488
176	0xbc71baa2	-0.014753969
177	0xbd371ede	-0.04470717
178	0xbdcdc1e9	-0.10046751
179	0xbda3456d	-0.07972226
180	0x3d262f66	0.040572546
181	0x3cc51079	0.024055706
182	0x3d3a8742	0.04553915
183	0x3d873f24	0.0660384
184	0xbdde1845	-0.10844473
185	0xbccdbfa8	-0.025115803
186	0xbd83a88d	-0.06428633
187	0x3d20555b	0.0391439
188	0xbd219e43	-0.03945757
189	0xbdf3d3a6	-0.11905603
190	0xbd842499	-0.06452293
191	0xbc635557	-0.013875327
192	0xbd3aa0e1	-0.045563582
193	0xbda71109	-0.08157546
194	0x3cd5a05d	0.026077444
195	0xbd8ee667	-0.069775395
196	0x3d81d80c	0.06340036
197	0x3d045086	0.032303356
198	0x3c115251	0.008869723
199	0x3ce34ec9	0.027747529
200	0xbda612b9	-0.0810904
201	0x3cf4c681	0.02987981
202	0xbde11ed4	-0.10992208
203	0xbc05603d	-0.008140621
204	0xbdd5153e	-0.10404442
205	0xbd942a74	-0.0723466
206	0xbd32257b	-0.043492775
207	0xbe0e762e	-0.1391227
208	0x3d30d38b	0.043170493
209	0x3b94054a	0.004517232
210	0x3a2ae867	0.0006519616
211	0x3ca356ae	0.019938793
212	0xbdbfb5a7	-0.09360819
213	0xbcceb047	-0.02523054
214	0x3cbd951a	0.023142386
215	0xbd0975f3	-0.03355975
216	0x3db0d4f2	0.08634366
217	0xbdcee313	-0.10101905
218	0xbced81b0	-0.028992504
219	0x3b6cdd83	0.0036142773
220	0xbdac08a0	-0.084000826
221	0xbdc5c28d	-0.09656248
222	0xbd977c0c	-0.07396707
223	0x3cd785de	0.02630895
224	0x3ad56b9e	0.0016282683
225	0x3c81678f	0.01579645
226	0xbe0bd6f4	-0.13656217
227	0xbe21255c	-0.15736908
228	0xbe05638f	-0.1302626
229	0xbc9a11f9	-0.018807398
230	0x3cd3223b	0.025773158
231	0xbdaa0633	-0.08301964
232	0xbd3e5a86	-0.04647305
233	0xbdcb0d90	-0.09914696
234	0x3d806cca	0.0627075
235	0xbd5c4109	-0.05377296
236	0xbce70bb6	-0.028203826
237	0xbc7a352f	-0.015271469
238	0x3d0489df	0.032358047
239	0xbd4fa1b6	-0.05069133
240	0x3db6e64b	0.08930644
241	0xbb961ce1	-0.0045810794
242	0xbc802ac7	-0.015645398
243	0x3d0066de	0.0313481
244	0xbd760ede	-0.060072772
245	0xbdab6f76	-0.08370869
246	0x3d633792	0.055472918
247	0xbd7801fa	-0.06054876
248	0xbdc68364	-0.096930295
249	0xbd847c4b	-0.064690195
250	0xbdd473b0	-0.10373628
251	0xbd764e51	-0.060133282
252	0xbcc6f871	-0.024288388
253	0xbdcc2ff7	-0.09970086
254	0xbde84de7	-0.11342984
255	0xbcf6f984	-0.030148275

shared.2.bias f4 [128]
0	0xbd84cc05	-0.06484226
1	0xbde0f1d9	-0.10983629
2	0xbe055c98	-0.13023603
3	0x3cbc75ac	0.02300533
4	0xbcecc62c	-0.02890309
5	0x3cc63454	0.024194874
6	0x3d1cad20	0.038251042
7	0x3c88c17c	0.016693823
8	0xbde9fb7a	-0.114249185
9	0x3c8cb018	0.017173812
10	0xbdc81153	-0.09768929
11	0xbd0c53d0	-0.034259617
12	0x3bf830e0	0.0075741857
13	0xbda188f7	-0.07887452
14	0xb9cdabed	-0.00039228742
15	0xbe128224	-0.14307457
16	0xbca021d2	-0.019547377
17	0xbdafdf69	-0.08587534
18	0x3c387ceb	0.0112602515
19	0xbdbf0a8f	-0.09328186
20	0xbddd860f	-0.10816585
21	0x3d2d230c	0.04226975
22	0xbda3714d	-0.07980595
23	0x3c6f0b93	0.014590162
24	0xbc7acb64	-0.015307281
25	0x3c1b79a4	0.009489451
26	0x3cadea5b	0.021229913
27	0x3cabb68f	0.020961074
28	0xbd99d461	-0.07511211
29	0xbd287adb	-0.04113279
30	0xbdd05fe7	-0.10174542
31	0xbbdce448	-0.0067410804
32	0x3d0e906b	0.034805696
33	0xbcc55b72	-0.024091456
34	0xbd8ab08c	-0.06771955
35	0x3d06d9df	0.03292262
36	0xbdc38934	-0.09547654
37	0xbd1c9ae5	-0.038233656
38	0xbdbc1220	-0.091831446
39	0xbd9800c9	-0.07422025
40	0xbdadecb0	-0.0849241
41	0xbc88398f	-0.016629009
42	0x3c83c555	0.016085306
43	0xbdaec993	-0.08534541
44	0xbe0d3eb7	-0.13793455
45	0xbd818186	-0.06323533
46	0xbb0f2bf2	-0.0021846262
47	0x3cfff99a	0.031246949
48	0xbcb040f5	-0.021515349
49	0xbdd026c2	-0.101636425
50	0x39dabca9	0.00041720763
51	0xbd724fbe	-0.05915808
52	0xbe0d595e	-0.13803622
53	0xbcd9de92	-0.026595388
54	0xbc657fd2	-0.0140075255
55	0x3d369db7	0.044584002
56	0x3b59ebae	0.0033252048
57	0xbdf8fa60	-0.1215713
58	0xbbf683a1	-0.0075230156
59	0xbcbbae6d	-0.022910321
60	0xbd8110a8	-0.06302005
61	0xbd2de713	-0.042456698
62	0x3c17e139	0.009270006
63	0xbd407b0e	-0.046992354
64	0xbdd9ed2f	-0.10640942
65	0xbdb27658	-0.087139785
66	0xbcd3fe0f	-0.02587798
67	0xbd7ba5b9	-0.061437342
68	0xbdee36b6	-0.11631529
69	0x3d22614a	0.039643563
70	0xbc84951b	-0.01618438
71	0xbd84d005	-0.06484989
72	0x3bd483b1	0.0064854254
73	0x3cca096d	0.024662698
74	0xbe002c64	-0.12516934
75	0x3d1fdc79	0.03902862
76	0x3bc03e00	0.005866766
77	0xbde6f5f2	-0.11277379
78	0xbafd0c16	-0.001930597
79	0x3d0abd36	0.03387185
80	0xbd5b93c8	-0.053607732
81	0x3ca51a64	0.020154186
82	0x3d027763	0.031852137
83	0xbdb6775a	-0.08909483
84	0xbcc5b934	-0.024136163
85	0xbd6fa6a0	-0.058508515
86	0x3cc8ed6d	0.024527276
87	0xbdeadbf8	-0.11467737
88	0x3c8842b6	0.016633373
89	0xbdcb7a1a	-0.099353984
90	0xbc2ebd87	-0.010665304
91	0xbdd5b240	-0.10434389
92	0xbc2f585f	-0.010702222
93	0xbd671d25	-0.05642428
94	0xbd6b7a79	-0.057489846
95	0x3cdf06cd	0.027224923
96	0x3d35921e	0.0443288
97	0xbdb2da14	-0.08733001
98	0xbd8e9da3	-0.069636606
99	0x3d15b9ac	0.036554024
100	0xbdf601ee	-0.12012087
101	0xbc5c663b	-0.013452108
102	0xbd5332ad	-0.051562
103	0x3cab9c76	0.02094863
104	0xbd890973	-0.066912554
105	0xbd436b43	-0.047709715
106	0xbdee16f6	-0.11625473
107	0xbddfa5b6	-0.10920279
108	0xbccc11b6	-0.024910789
109	0x3cdb533f	0.026773093
110	0xbddcf8b5	-0.107896246
111	0x3d042015	0.03225716
112	0xbdcc4df1	-0.09975804
113	0xbcfc9699	-0.03083353
114	0xbd874783	-0.06605437
115	0xbe0a37d1	-0.13497855
116	0xbda3dbb5	-0.0800089
117	0xbd781e16	-0.060575567
118	0xbd697ddf	-0.057004806
119	0xbda0e977	-0.0785703
120	0xbdc92208	-0.09820944
121	0x3cfd162e	0.030894365
122	0xbca51279	-0.02015041
123	0xbd85421b	-0.06506749
124	0xbdbe207e	-0.09283541
125	0xbda7adae	-0.08187424
126	0x3d37b48f	0.04484993
127	0xbd9a3bbe	-0.07530926

move_mean.weight f4 [2, 128]
0	0xbc005421	-0.007832558
1	0xbd2260d2	-0.039643116
2	0xbbd66429	-0.0065427017
3	0x3cb9614b	0.0226294
4	0x3c252232	0.010078954
5	0x3c108486	0.008820659
6	0x3bd0da1a	0.006373656
7	0x3ccebad1	0.025235565
8	0x3cc309aa	0.02380832
9	0x38d4e043	0.0001015072
10	0xbb1c83ed	-0.0023882345
11	0x3b6e3c61	0.0036351907
12	0xbc1e4212	-0.009659307
13	0x3d478114	0.048707083
14	0x3c76918f	0.015049352
15	0xbbf6c671	-0.0075309803
16	0x3d11caf3	0.035593938
17	0x3c33a308	0.010964163
18	0xbc55af67	-0.013042307
19	0xbcf20386	-0.029542696
20	0x3d43bc12	0.04778678
21	0x3d754b3a	0.059886195
22	0xbce4669c	-0.02788096
23	0x3d0e425d	0.034731258
24	0xbc444665	-0.011979674
25	0x3d1e9642	0.038717516
26	0x3d32d067	0.04365578
27	0xbab5addb	-0.0013861017
28	0x3c5cdc15	0.013480206
29	0xbbbeffba	-0.005828825
30	0x3c3fc476	0.011704555
31	0xbb192b96	-0.0023371927
32	0x3cc612c9	0.02417888
33	0x3b8ff16f	0.004392795
34	0x3d28affc	0.041183457
35	0xbcd86afa	-0.026418198
36	0xbbffe241	-0.007808954
37	0x3d5dc104	0.054139152
38	0xbd8124bc	-0.06305835
39	0x3c8bd48e	0.017069127
40	0x3b5425c5	0.0032371145
41	0x3c2a2887	0.010385639
42	0x3d5b10b5	0.05348273
43	0x3c7fb2aa	0.015606562
44	0xbc5e1790	-0.013555422
45	0xbb0c2abf	-0.0021387783
46	0xbc9b7dc0	-0.01898086
47	0xbd1674b0	-0.036732376
48	0x3ccea63e	0.025225755
49	0xbb14cf75	-0.0022706662
50	0xbaafce5a	-0.0013412938
51	0xbbdf2692	-0.006810018
52	0xbbb6e1f1	-0.0055811335
53	0x3ab0e1da	0.0013495043
54	0x3c7c67f3	0.015405643
55	0xbd19ebb0	-0.037578285
56	0xbd16bea3	-0.0368029
57	0xbce19828	-0.027538374
58	0x3ce7c351	0.028291376
59	0xb89a76cd	-7.3654206e-05
60	0xbb902060	-0.0043983907
61	0x3bf9eed5	0.007627348
62	0xbb78c308	-0.0037958045
63	0xbb51ecb8	-0.0032031965
64	0xbbc58bf7	-0.006028648
65	0x3bef03d3	0.007294157
66	0x3b113ee6	0.0022162735
67	0xbc158539	-0.009126001
68	0xbc1df3b7	-0.009640626
69	0x3d2a9d9a	0.041654207
70	0x3ca666f4	0.020312764
71	0x3d391607	0.045187023
72	0xbca93946	-0.020657193
73	0x3c94b39d	0.018152053
74	0x3bbbfa22	0.0057366053
75	0xbc902fb0	-0.017600864
76	0xbc935262	-0.01798362
77	0xbcd901c8	-0.026490107
78	0x3d437855	0.04772218
79	0xbc454a94	-0.012041707
80	0xbc4c8f61	-0.012485356
81	0x3d625b37	0.05526277
82	0x3bb254e9	0.005442251
83	0x3c41eb3a	0.011835868
84	0x3ab23083	0.001359478
85	0xba045bc1	-0.0005049073
86	0x3cebdf64	0.028793044
87	0x3b75b4b9	0.0037491752
88	0x3d0651a1	0.03279269
89	0x3c3c205e	0.011482326
90	0xbd40b29a	-0.047045328
91	0xbd2ddcd9	-0.042446945
92	0x3c55f2df	0.013058393
93	0xbd613059	-0.05497775
94	0x3c5addb4	0.013358522
95	0x3d90c3ec	0.07068619
96	0x3d586100	0.05282688
97	0xbcce7b97	-0.025205417
98	0x3d8ab335	0.06772462
99	0x3ca07c09	0.019590395
100	0x3bcc0430	0.006226085
101	0x3d1923fc	0.037387833
102	0xbc8985d8	-0.016787454
103	0x3c0c8b62	0.008578153
104	0x3a213900	0.0006150156
105	0xbc0583d2	-0.008149104
106	0x3d2d494a	0.042306222
107	0x3ceb5eb9	0.02873169
108	0xbbfcddbf	-0.007716864
109	0xbaefa22f	-0.0018282587
110	0x3b992a2b	0.0046742163
111	0xbc0bd901	-0.0085356245
112	0xbd733b86	-0.059382938
113	0x3c088c64	0.008334253
114	0x3ae518f5	0.0017478751
115	0xbc2f50d4	-0.010700423
116	0x3cd179cc	0.025570773
117	0x3be2db9e	0.006923153
118	0x3ccf7217	0.025322957
119	0x3cfb944a	0.030710358
120	0xbd81205c	-0.06305
121	0xbd345107	-0.044022586
122	0x3d71871b	0.058966737
123	0xbccb8e06	-0.024847995
124	0x3a25e72c	0.0006328698
125	0xbc726167	-0.01479373
126	0x3b711d73	0.0036791235
127	0x3c2c8b44	0.01053125
128	0x3cb9ac6f	0.02266523
129	0x3ca33516	0.019922774
130	0x3a638497	0.000867912
131	0xbb386901	-0.002813876
132	0x3d29864f	0.041387852
133	0x3c8d34c7	0.01723708
134	0x3c0cd7a2	0.008596333
135	0x3c13779d	0.009000686
136	0x3c4f6b08	0.012659796
137	0xbc477897	-0.012174747
138	0xbcf5d809	-0.03001024
139	0x3c0567bd	0.008142409
140	0x3da94195	0.08264462
141	0xbbce6f02	-0.0062998543
142	0xba04b529	-0.00050623954
143	0xbc054a38	-0.008135371
144	0xbbc80699	-0.006104302
145	0xba0841ce	-0.0005197794
146	0xbc9893e9	-0.018625217
147	0x3d1c9dab	0.0382363
148	0x3d820f77	0.06350606
149	0x3b18d66d	0.0023321167
150	0x3d41f8df	0.047356483
151	0xbc81a603	-0.01582623
152	0xbcaedb33	-0.021344757
153	0xbd115096	-0.035477243
154	0x3d172446	0.036899827
155	0xbb441206	-0.002991797
156	0xbc0cd946	-0.008596724
157	0x3c11aa34	0.008890677
158	0xbc0e7201	-0.008694173
159	0xbc881dde	-0.016615804
160	0xbca42eed	-0.020041907
161	0xbb1f1acb	-0.0024277444
162	0x3ca4c1fa	0.020112026
163	0xbcf85425	-0.03031356
164	0xbc72160b	-0.014775763
165	0xbd3347cf	-0.043769654
166	0x3d3e1488	0.0464063
167	0xbbb6ed00	-0.005582452
168	0x3d04d506	0.032429717
169	0x3b1e4672	0.0024150875
170	0xbc48911f	-0.012241631
171	0x3cba5ccc	0.022749327
172	0xbc172208	-0.009224422
173	0x3cf83de2	0.030302946
174	0xba8da371	-0.0010806156
175	0xbcd7b06a	-0.026329238
176	0x3b9d2f17	0.0047968733
177	0xbbf74c7c	-0.0075469594
178	0xbac0efb9	-0.001471988
179	0xbb390237	-0.002823008
180	0x3cac9696	0.021067899
181	0x3d2d077d	0.04224347
182	0x3c56563e	0.013082085
183	0x3d714d5e	0.058911674
184	0xbd7817ee	-0.060569696
185	0x3b636e6b	0.0034703265
186	0x3d079d7f	0.033109184
187	0xbc7f2d81	-0.015574814
188	0x3cb6426f	0.022248475
189	0xbc0efd6e	-0.0087274145
190	0xbc9899e4	-0.018628068
191	0x3ccf8263	0.025330728
192	0x3c4a8538	0.012360863
193	0xbc271201	-0.010197164
194	0xbcae0524	-0.021242686
195	0xbbb65231	-0.005563997
196	0xbc587130	-0.01321058
197	0x3c4c26ae	0.012460394
198	0x3bd156d8	0.0063885264
199	0xbd7597d3	-0.059959244
200	0x3b0e9129	0.0021754003
201	0xbc3d68e9	-0.011560657
202	0xbd181605	-0.037130374
203	0x3c3a382f	0.011365934
204	0xbd147ee7	-0.036253836
205	0xbd028e66	-0.031874083
206	0xbd6a46f3	-0.05719657
207	0x3bc2c010	0.005943306
208	0xbd55373f	-0.05205464
209	0xbd62b16a	-0.055344976
210	0xbbffda06	-0.007807973
211	0x3c892db0	0.016745418
212	0xbc3ab1de	-0.011394946
213	0xb9309f0d	-0.00016843919
214	0xbc8a69f5	-0.016896227
215	0xbd1f604f	-0.038910206
216	0xbc2d5ce4	-0.010581229
217	0xbc9d5bee	-0.019208875
218	0x3c817ae6	0.015805673
219	0x3a6d3261	0.00090483396
220	0x3a14b1c5	0.00056722417
221	0x3cc2d049	0.023780959
222	0x3d3b46b5	0.04572173
223	0x3c71b688	0.0147529915
224	0x3c87b0e9	0.01656385
225	0xbd3a4d30	-0.045483768
226	0x3cc92fde	0.024558958
227	0x3c9fe1f8	0.01951693
228	0x3d05de76	0.03268286
229	0x3d743c8b	0.05962805
230	0xbd84b46e	-0.06479727
231	0xbc4d9ccb	-0.012549589
232	0x3d2cf5b3	0.042226505
233	0x3c03622f	0.008019014
234	0xbcaba0a4	-0.020950623
235	0x3c80b902	0.015713219
236	0xbac7448d	-0.0015202925
237	0x3d135779	0.035972092
238	0xbb7d4f4f	-0.0038652008
239	0x39e67cce	0.00043962005
240	0xbcd6f1ab	-0.026238283
241	0xbc11c970	-0.008898124
242	0x3d238117	0.03991803
243	0xbc8b06b1	-0.016970964
244	0xbb16c29f	-0.0023004187
245	0xbb661cad	-0.0035112307
246	0xbd29a363	-0.041415583
247	0x3c87a032	0.01655588
248	0xbbe438e0	-0.006964788
249	0x3c36edf8	0.011165135
250	0xbdabd8ec	-0.08390984
251	0x3c9fd8a5	0.019512484
252	0x3af6aba6	0.0018819466
253	0x3bd21353	0.006410995
254	0xbb1e3bfc	-0.002414464
255	0x3d067526	0.032826565

move_mean.bias f4 [2]
0	0x3de79d81	0.11309338
1	0xbe8c364f	-0.27385184

food_logits.weight f4 [3, 128]
0	0xbd0a5b08	-0.03377822
1	0x3ca1e77d	0.019763703
2	0x3cacfddd	0.021117145
3	0xbc1ed1ce	-0.009693576
4	0x3cca6a0a	0.024708766
5	0xbcb8f1bd	-0.022576207
6	0x3c00aca2	0.007853659
7	0x3d021f23	0.031767976
8	0xbcae7e76	-0.021300536
9	0xbcd89309	-0.0264373
10	0x3d06f19a	0.032945253
11	0xbd246d56	-0.040143333
12	0xbd842556	-0.06452434
13	0xbcca5708	-0.024699703
14	0x3c236ac7	0.009974188
15	0x3d3655b4	0.044515327
16	0xbd0257ed	-0.031822134
17	0xbac974f2	-0.0015369935
18	0x3d5c4e37	0.05378553
19	0xbd7e5d50	-0.06210071
20	0x3d559c40	0.052150965
21	0x3c2f8def	0.010714992
22	0xbd58d346	-0.05293586
23	0xbc18efeb	-0.009334545
24	0xbbef2f3b	-0.0072993315
25	0x3d7cc17a	0.06170795
26	0x3d2a3cf7	0.041562047
27	0xbd2f4467	-0.042789843
28	0x3bed0342	0.0072330544
29	0xbcc374be	-0.023859378
30	0xbd100718	-0.035163015
31	0x3d2106be	0.03931307
32	0x3d694d82	0.056958683
33	0x3d473f6b	0.048644464
34	0x3d2a13a4	0.041522637
35	0xbcc1e407	-0.023668302
36	0x3d70a6f4	0.05875297
37	0xbbb1ed30	-0.0054298863
38	0x3d05c687	0.032660034
39	0xbd50ff17	-0.051024523
40	0xbdad3bd7	-0.08458679
41	0x399d28eb	0.0002997586
42	0x3cbb07fa	0.022830952
43	0xbc91e532	-0.017809484
44	0xbc362263	-0.011116597
45	0x3d1059d3	0.035241913
46	0xbd0a4fb8	-0.033767432
47	0x3d975110	0.07388508
48	0x3d2901cb	0.041261476
49	0xbc35cb4c	-0.011095833
50	0xbda49587	-0.080363326
51	0x3cb69f3a	0.022292722
52	0x3d375521	0.04475892
53	0x3ba3df43	0.00500098
54	0xbd89b4e1	-0.06723953
55	0xbd0bc51c	-0.034123525
56	0x3c1afd37	0.009459785
57	0xbc9509e1	-0.018193187
58	0x3c64c3e6	0.013962721
59	0x3cc37827	0.023861004
60	0x3d2b2a81	0.04178858
61	0xbd3607c8	-0.044441015
62	0x3d81da4a	0.063404635
63	0x3c800672	0.015628073
64	0x3da4ab8f	0.08040535
65	0x3d4d861d	0.05017673
66	0x3d816c03	0.0631943
67	0x3ce8effe	0.02843475
68	0x3bf8d742	0.00759402
69	0x3d320110	0.043458045
70	0x3cc3754c	0.023859642
71	0x3d8f683c	0.07002303
72	0xbbb693aa	-0.005571802
73	0x3d04ecd4	0.03245242
74	0x3c42e33a	0.011894995
75	0xbcdc4168	-0.026886657
76	0x3d55491b	0.052071672
77	0x3d381ff7	0.04495236
78	0x3d2c75e2	0.04210461
79	0x3d298e7a	0.041395642
80	0x3d3dff07	0.04638579
81	0x3d9fb34f	0.07797872
82	0x3d5c8af7	0.053843465
83	0x3d6b28c7	0.057411935
84	0xbcbc594a	-0.022991795
85	0xbd554534	-0.05206795
86	0x3d08c213	0.03338821
87	0x3d97b2a1	0.07407118
88	0xbcf7c8a4	-0.03024704
89	0x3d083f60	0.033263564
90	0xbd02b330	-0.031909168
91	0xbca13fac	-0.019683681
92	0x3cfb54aa	0.03068002
93	0x3d0c251c	0.034215078
94	0xbd1cddc8	-0.038297445
95	0xbcdad9ef	-0.026715247
96	0xbb597a39	-0.0033184423
97	0xbcdae430	-0.026720136
98	0xbcef18b5	-0.029186586
99	0xbceb37c0	-0.028713107
100	0xbd5671fc	-0.052354798
101	0xbd27779d	-0.040885556
102	0x3d6bc52e	0.057561092
103	0xbd22bc7d	-0.039730538
104	0xbd93ca72	-0.07216348
105	0xbcb0a8b5	-0.02156482
106	0xbd35686d	-0.04428904
107	0x3d6af3ed	0.057361532
108	0x3c952459	0.018205808
109	0x3d3ea3e7	0.04654303
110	0xbd733a3f	-0.05938172
111	0x3c3c66f9	0.01149916
112	0xbc24e7d3	-0.010065037
113	0xbd57f899	-0.052727316
114	0x3d2ce681	0.042212013
115	0x3ca4f7c0	0.020137668
116	0x3caa68bb	0.020801893
117	0xbaa20248	-0.0012360299
118	0xbcd7fca8	-0.026365593
119	0x3cf0d99c	0.02940064
120	0xbd436924	-0.04770769
121	0x3c22462a	0.009904424
122	0xbd0e9e40	-0.034818888
123	0xbd464e50	-0.04841453
124	0x3ad5696f	0.0016282032
125	0x3cf0c2e3	0.029389804
126	0xbcafebe2	-0.021474782
127	0x3d3f2a01	0.046670917
128	0xbcc6b221	-0.02425486
129	0x3bc4b6d7	0.0060032415
130	0xbc4a5fea	-0.012351969
131	0xbcf79a6d	-0.030225003
132	0xba67410b	-0.0008821643
133	0x3d0729b5	0.03299876
134	0x3c8368a5	0.01604111
135	0x3d8df7a5	0.06932
136	0xbd0e4d08	-0.03474143
137	0xbd002a94	-0.031290606
138	0x3c952096	0.018204015
139	0xbc25fd11	-0.0101311365
140	0xba9dcbc6	-0.0012038879
141	0x3d890d1e	0.06691955
142	0xbb9c89ba	-0.0047771605
143	0x3c1b2369	0.009468892
144	0x3d412e55	0.047163326
145	0xbc5755c1	-0.013143004
146	0x3ce4b6d3	0.027919209
147	0xbd9614dd	-0.07328198
148	0xbc3333d3	-0.010937649
149	0x3d0a7a5a	0.03380809
150	0xbaf70cfc	-0.0018848474
151	0xbcd472a1	-0.025933566
152	0x3b4a3dad	0.0030859516
153	0x3d1f6248	0.038912088
154	0x3bc8fc62	0.006133602
155	0xbd1d7c33	-0.038448524
156	0x3bf31694	0.007418463
157	0xbcb5e08d	-0.0222018
158	0xbc8641f0	-0.016388863
159	0x3d1597a8	0.036521584
160	0x3cee8f3e	0.029121038
161	0x3ceed0d4	0.029152311
162	0x3d33a9d4	0.043863133
163	0xbcd759fc	-0.026288025
164	0x3da63faa	0.08117612
165	0x3daef3b0	0.085425735
166	0xbc07e774	-0.008294929
167	0xbd2fc75f	-0.042914744
168	0x3c14ad68	0.009074546
169	0x3caad430	0.020853132
170	0xbbf8e940	-0.007596165
171	0xbb062ead	-0.0020474598
172	0x3c259b66	0.010107851
173	0x3d8f7489	0.07004649
174	0xbd145045	-0.036209363
175	0x3d88c7c7	0.066787295
176	0x3b7cc7c1	0.003857121
177	0x3c865d81	0.016402008
178	0xbd8b317c	-0.06796548
179	0xbcbcc1f7	-0.023041708
180	0x3d53323b	0.051561575
181	0x3d844ebd	0.06460331
182	0xbcc69b3b	-0.024243942
183	0xbd96c513	-0.07361808
184	0x3d2e720e	0.04258924
185	0x3b7535e7	0.0037416162
186	0x3d20b8b3	0.039238643
187	0x3d7cb909	0.0616999
188	0x3d072d51	0.0330022
189	0xbc075a2c	-0.008261245
190	0x3d91c81b	0.07118245
191	0x3d15bb43	0.03655554
192	0x3d3faaff	0.046793934
193	0x3d722385	0.059115905
194	0xbd04120a	-0.032243766
195	0x3a622b16	0.0008627636
196	0x3cb2afc3	0.021812325
197	0x3ac42124	0.001496349
198	0x3d72dfd2	0.059295483
199	0xbda48bda	-0.08034487
200	0x3cbec68c	0.023288034
201	0x3d1cb600	0.038259506
202	0x3d984cd3	0.07436528
203	0xbcb0f578	-0.021601424
204	0xbcbe28a9	-0.023212748
205	0x3ceb3fa4	0.02871687
206	0x3da43439	0.08017773
207	0x3d5bebbe	0.05369162
208	0x3d050f7b	0.032485466
209	0xbd2ebcb4	-0.04266043
210	0x3d941c70	0.072319865
211	0x3d7c4b74	0.061595395
212	0xbc9a5798	-0.018840596
213	0xbd829b32	-0.063772574
214	0x3ce23db7	0.027617319
215	0x3c626f12	0.013820427
216	0xbd6269fd	-0.05527686
217	0xbb3b8c5a	-0.0028617592
218	0xbc1b4b83	-0.009478453
219	0xbd84bb0a	-0.06480987
220	0x3ca20e79	0.019782292
221	0x3d79cea3	0.06098808
222	0x3cc30800	0.023807526
223	0x3c1fcc6b	0.009753327
224	0xbd01dc25	-0.031704087
225	0xbd0ddede	-0.03463637
226	0xbaf04f40	-0.0018334165
227	0xbd23e544	-0.040013567
228	0xbd85e9ac	-0.0653871
229	0xbc79dc79	-0.015250319
230	0x3d56c0b6	0.052429877
231	0xbcf1d907	-0.029522432
232	0x3d413dad	0.04717796
233	0xbcb8b48a	-0.022547025
234	0x3c40bf14	0.011764307
235	0x3cbd5243	0.023110515
236	0xbb204017	-0.0024452263
237	0x3ca43815	0.020046273
238	0xbcb7374b	-0.022365233
239	0x3c80766b	0.015681466
240	0xbc77298d	-0.01508559
241	0xbcc67951	-0.02422777
242	0xbd321f47	-0.04348686
243	0x3d260ae8	0.040537745
244	0x3d19ca62	0.037546523
245	0x3c7980f8	0.015228502
246	0xbd01a050	-0.031647027
247	0x3d6c09c7	0.057626512
248	0xbcf14f6c	-0.029456817
249	0x3ce02a07	0.02736379
250	0xbd4c97b8	-0.049949378
251	0xbd4226ce	-0.04740029
252	0x3d43a425	0.047763962
253	0xbcc750b7	-0.02433048
254	0xbcc1ffae	-0.023681488
255	0xbcce72d8	-0.025201246

food_logits.bias f4 [3]
0	0xbe17bf27	-0.14819013
1	0x3d6b232e	0.057406597
2	0x3dc5d72b	0.09660181

net.0.weight f4 [128, 17]
0	0x3e33f2f6	0.17573151
1	0xbe274102	-0.16333392
2	0x3fb6bee1	1.4277002
3	0xc09fa606	-4.9890165
4	0xbe9d0b3f	-0.30672643
5	0xbe8b952f	-0.27262256
6	0xbe181016	-0.14849886
7	0x3dd1410b	0.10217484
8	0xbda0d14b	-0.078524195
9	0x3d5a08ac	0.053230926
10	0x3e0fd335	0.14045413
11	0xbe0dc875	-0.13846
12	0x3e0f707f	0.14007758
13	0x3b481cb9	0.0030534698
14	0xbcef01b9	-0.029175626
15	0x3e329daa	0.17442957
16	0x3e18c4cc	0.14918822
17	0x3e048a0e	0.12943289
18	0xbd49ef49	-0.049300466
19	0xc0139ec8	-2.3065662
20	0x406d796c	3.710536
21	0x3fc2d42c	1.5221
22	0xbe30d618	-0.1726917
23	0x3e1b0cf2	0.15141657
24	0xbdc26bdf	-0.09493231
25	0x3e2b3059	0.16717662
26	0x3d20d2d7	0.039263573
27	0xbdd074d1	-0.10178531
28	0xbe199b3a	-0.1500062
29	0xbe79f90a	-0.24411407
30	0xbde1c1d9	-0.11023302
31	0x3de55708	0.111982405
32	0xbdb540e1	-0.08850265
33	0xbbe50a10	-0.006989725
34	0xbbe08e8c	-0.0068529304
35	0x3c807b97	0.015683932
36	0x3f86f357	1.0543011
37	0xbfb4296f	-1.4075145
38	0xc0243b33	-2.5661132
39	0x3def56c7	0.11686473
40	0xbc48c59a	-0.012254143
41	0x3d448db5	0.047986705
42	0x3d16f0d9	0.036850784
43	0x3bd1ea58	0.00640611
44	0x3e01c121	0.12671329
45	0x3dcdae2c	0.10042986
46	0x3d2d75a8	0.042348534
47	0x3db7d465	0.08976058
48	0xbda3899c	-0.07985231
49	0x3d159b56	0.036525093
50	0xbb67452d	-0.0035289035
51	0xbd9bc025	-0.07605008
52	0xbdfb7943	-0.12278988
53	0x3f99b7d5	1.2009226
54	0xc080ce62	-4.025193
55	0xbea8970c	-0.3292774
56	0xbd9c86cf	-0.076429
57	0x3e7d3208	0.24726117
58	0xbe15a22d	-0.14612646
59	0xbda8d3b9	-0.08243508
60	0xbd9a93a2	-0.0754769
61	0xbe158868	-0.14602816
62	0xbe477502	-0.19478229
63	0xbe2b2f9e	-0.16717383
64	0xbe3778a8	-0.1791712
65	0x3e315e21	0.17321064
66	0x3e415c2c	0.18882817
67	0x3e04532e	0.12922356
68	0x3de0e6c6	0.109815165
69	0xbe4a16c8	-0.19735253
70	0x3fab7875	1.3396136
71	0x3f2498b2	0.64295495
72	0xc01e158d	-2.4700654
73	0x3d0ac3ca	0.033878125
74	0xbe5b63c1	-0.21424772
75	0xbdcb7bf5	-0.09935752
76	0xbe24bc78	-0.1608752
77	0x3df2163a	0.11820646
78	0xbccb40ea	-0.024811227
79	0x3db90873	0.09034815
80	0xbe592b9e	-0.21208045
81	0x3e53a07e	0.20666692
82	0x3dc079f3	0.0939826
83	0x3ba6d90e	0.005091793
84	0xbe0aa929	-0.13541092
85	0xbe073a98	-0.13205945
86	0xbd433f29	-0.047667656
87	0x3fdc7803	1.7224125
88	0xbfeaebeb	-1.8353246
89	0xbfbaada4	-1.4584241
90	0xbe9826f0	-0.29717207
91	0xbd0b7fbb	-0.03405736
92	0xbd06331d	-0.03276359
93	0xbe3c5922	-0.18393376
94	0xbe4900d7	-0.19629227
95	0x3e4e77cc	0.20162886
96	0x3c2f299f	0.010691076
97	0xbddbc047	-0.10730033
98	0x3d79dc12	0.06100089
99	0xbd61e6c9	-0.055151735
100	0xbdb7e969	-0.08980066
101	0xbde6cb44	-0.112692386
102	0xbd5884eb	-0.052861135
103	0xbdd768d1	-0.10518039
104	0xbff23215	-1.8921534
105	0x40a89154	5.2677402
106	0x3f356296	0.70853555
107	0xbce06279	-0.027390705
108	0x3deaff14	0.114744335
109	0x3e53cc6b	0.20683448
110	0x3d40206e	0.046905927
111	0xbd0faa56	-0.035074554
112	0x3e8035e5	0.25041118
113	0x3c688146	0.014190977
114	0x3cc46908	0.023975864
115	0xbc8d18b3	-0.017223692
116	0xbd73791f	-0.059441682
117	0x3ba64f66	0.005075383
118	0x3d64543b	0.05574439
119	0x3e3a39f6	0.18186173
120	0x3dc539d7	0.09630173
121	0x400ffcb4	2.2497988
122	0xc0b69d51	-5.7067037
123	0xbf25d6ea	-0.6478106
124	0x3e2bfbd8	0.1679529
125	0xbd2a5fb8	-0.04159519
126	0x3e838ae2	0.25691897
127	0x3e6846ae	0.22683212
128	0x3e207d65	0.15672834
129	0xbd3752c7	-0.044756677
130	0xbbf2306a	-0.0073910253
131	0xbdbf7416	-0.093483135
132	0xbbebf59c	-0.00720091
133	0x3e26b41c	0.16279644
134	0x3cf11e7d	0.029433483
135	0xbdded8dd	-0.10881207
136	0xbdc3f040	-0.095673084
137	0x3cc393ab	0.023874125
138	0x3faf031c	1.3672824
139	0xbfaae78a	-1.335191
140	0xbf1ed9a0	-0.6205082
141	0x3e95e9e9	0.29280022
142	0x3e88fe91	0.2675672
143	0xbdc57012	-0.09640516
144	0x3d4144e7	0.04718485
145	0x3d53a75e	0.051673286
146	0x3d574cba	0.052563407
147	0xbe51106b	-0.20416419
148	0x3d47ba93	0.048761915
149	0x3dcb8e5c	0.09939262
150	0x3da2358a	0.07920368
151	0x3d4f83d4	0.05066283
152	0xbe5cbbbe	-0.21555993
153	0x3d7f951c	0.06239806
154	0x3d6337b0	0.05547303
155	0xbff03abd	-1.8767926
156	0x40c345e6	6.1022825
157	0x3f1b3021	0.60620314
158	0xbdc9b001	-0.09848023
159	0x3d141292	0.036150523
160	0xbd152865	-0.036415476
161	0x3d39bbdb	0.04534517
162	0x3d0d5177	0.03450152
163	0x3cd092e0	0.02546066
164	0x3d27999a	0.04091797
165	0xbe0618b3	-0.1309536
166	0xbda7d580	-0.08195019
167	0x3e6897ef	0.22714208
168	0x3e116b42	0.14201072
169	0x3c1b7349	0.009487935
170	0x3e1f8f6c	0.15582055
171	0xbd930687	-0.07178979
172	0xbffa906d	-1.9575325
173	0x403b7009	2.928713
174	0x40392fd1	2.8935435
175	0xbda035ff	-0.07822799
176	0xbd067419	-0.032825563
177	0xbd99b37f	-0.07504939
178	0x3d6a54ee	0.0572099
179	0xbe5a50de	-0.21319911
180	0xbe968af6	-0.29402894
181	0x3d3ae2b0	0.045626342
182	0x3d4af05e	0.04954564
183	0x3e49ff57	0.1972631
184	0x3cbd2036	0.023086648
185	0x3e1c2fa1	0.15252544
186	0xbe33394d	-0.17502327
187	0x3e28bc3b	0.16478054
188	0xbce7c5d4	-0.028292574
189	0x3f1393fb	0.57647675
190	0xc05e8a95	-3.4772084
191	0x3e5e308f	0.21698211
192	0x3e38cc0c	0.18046588
193	0x3dee9dde	0.116512045
194	0xbc06de73	-0.008231747
195	0x3d918702	0.07105829
196	0xbce815c1	-0.028330686
197	0xbe8102a3	-0.25197324
198	0xbdc18261	-0.09448696
199	0x3d308d3d	0.043103445
200	0x3d124c59	0.035717342
201	0xbd0e8203	-0.034791958
202	0xbd9c616d	-0.0763577
203	0xbd10740a	-0.035266913
204	0x3d86aa08	0.065754
205	0x3dd63481	0.10459233
206	0xbf56bb90	-0.8387995
207	0x40bab6d5	5.8348184
208	0xbe5e4fac	-0.2171008
209	0x3d537c16	0.05163201
210	0x3e0d2ca3	0.13786559
211	0x3d2e909a	0.04261837
212	0xbe25d8f9	-0.1619605
213	0xbd345577	-0.044026818
214	0x3d8783e5	0.06616954
215	0xbdab7373	-0.083716296
216	0x3dbbabaa	0.09163602
217	0x3ce583f3	0.02801702
218	0xbd229747	-0.03969505
219	0x3d8d60c5	0.06903223
220	0xbacefb8d	-0.0015791521
221	0x3d14af55	0.036300022
222	0x3b9cdc1b	0.004786981
223	0xbf54848a	-0.8301474
224	0xc001d1f3	-2.0284393
225	0x4055c713	3.3402755
226	0x3ca4d3b7	0.020120485
227	0x3d04d466	0.03242912
228	0x3d240ee6	0.04005327
229	0xbe45bfa5	-0.19311388
230	0xbe3572d0	-0.17719579
231	0xbe2e8597	-0.17043148
232	0xbe777698	-0.24166334
233	0x3e26d84c	0.16293448
234	0xbaa64009	-0.0012683879
235	0x3d8a5bda	0.067558005
236	0xbce61339	-0.028085338
237	0x3e348728	0.17629683
238	0xbd75a6ab	-0.0599734
239	0x3de07878	0.109604776
240	0xbfb4d986	-1.4128883
241	0x40a97ace	5.296241
242	0x3f618234	0.880893
243	0xbbf0b9e3	-0.007346378
244	0xbe82b641	-0.25529674
245	0x3c95caf4	0.018285252
246	0x3e8ee3dd	0.2790822
247	0x3e0125bc	0.12612051
248	0xbcda0784	-0.026614912
249	0xbdbf3989	-0.09337146
250	0x3dcd6423	0.10028865
251	0x3e1c61ab	0.15271632
252	0x3e13cbfd	0.14433284
253	0xbd8f6288	-0.07001215
254	0xbd770344	-0.06030585
255	0xbc145500	-0.009053469

net.0.bias f4 [128]
0	0x3eab59a2	0.33466822
1	0xbcb75e68	-0.022383884
2	0xbec4a324	-0.38405716
3	0xbde9a0f1	-0.1140765
4	0xbd797104	-0.060898796
5	0x3d93409c	0.07190058
6	0xbe8291c1	-0.25501826
7	0x3e6fffd1	0.2343743
8	0xbe984231	-0.29738
9	0xbeb80f3c	-0.35949123
10	0x3e35fb41	0.17771627
11	0x3cdb4a27	0.026768757
12	0x3d78de98	0.060759157
13	0x3e81c1cf	0.25343177
14	0xbdff44a9	-0.12464268
15	0xbe109155	-0.1411794
16	0xbdd9521a	-0.10611363
17	0xbe376d93	-0.17912893
18	0x3d8f718f	0.070040815
19	0xbe4abd27	-0.19798718
20	0xbec79ec8	-0.38988328
21	0xbdec7a00	-0.11546707
22	0x3e2fc6f7	0.17165743
23	0x3f169071	0.5881415
24	0xbd5cbfff	-0.05389404
25	0xbd9baf45	-0.076017894
26	0xbae10573	-0.0017167762
27	0x3ea4950a	0.32144958
28	0xbe38bca9	-0.18040718
29	0x3e964944	0.29352772
30	0xbdc49c9a	-0.09600182
31	0x3e735447	0.23762618
32	0xbd8741be	-0.06604336
33	0x3e5c9173	0.2153986
34	0x3e947928	0.28998685
35	0x3e974031	0.29541162
36	0xbe4cf013	-0.20013456
37	0x3e061762	0.13094857
38	0xbe7929ef	-0.24332403
39	0xbd1c35ec	-0.03813736
40	0x3db5095c	0.08839676
41	0xbe62ec4c	-0.22160453
42	0x3e0d4b7f	0.1379833
43	0x3e182fef	0.14862035
44	0xbdb826b2	-0.089917555
45	0xbe5cff15	-0.21581681
46	0xbd622bdb	-0.055217605
47	0xbb310749	-0.00270124
48	0x3cd4b42f	0.025964824
49	0x3c64fac2	0.013975801
50	0xbe7f9e63	-0.24962763
51	0xbea1b982	-0.31586844
52	0x3eb7fd15	0.35935274
53	0x3da6ed5b	0.08150741
54	0x3efaac2f	0.4895949
55	0xbe99a0b7	-0.30005428
56	0x3e7f9e7e	0.24962804
57	0x3e9f625a	0.31129724
58	0x3d2c54ac	0.042072937
59	0xbd0d0b74	-0.03443475
60	0x3dca6199	0.098818965
61	0xbdd75499	-0.105141826
62	0xbefdf3ff	-0.49600217
63	0x3e90cd17	0.2828147
64	0x3e500e7d	0.20318027
65	0xbefadc2f	-0.48996112
66	0xbe66709e	-0.22503898
67	0x3e843329	0.25820282
68	0x3dfe6ed9	0.12423486
69	0xbe4a4a32	-0.19754866
70	0x3e08250c	0.13295382
71	0xbf0497e4	-0.51794267
72	0x3c69be90	0.014266625
73	0xbe434c90	-0.19072175
74	0x3f14b064	0.5808165
75	0xbd7d8e55	-0.061903317
76	0x3e812d93	0.25230083
77	0x3ea59484	0.3233987
78	0xbddc0c97	-0.10744589
79	0x3ec78967	0.38972017
80	0x3ea3841b	0.31936726
81	0x3e30cd8f	0.17265914
82	0x3df795db	0.120891295
83	0x3daca506	0.08429913
84	0x3e597f54	0.21239978
85	0x3e0cbb7a	0.13743392
86	0xbe3de2c1	-0.18543531
87	0xbe2f2428	-0.17103636
88	0x3e194e5b	0.14971296
89	0x3e036d16	0.12834582
90	0x3d2d78c0	0.042351484
91	0xbe47540f	-0.1946566
92	0x3e115c11	0.14195277
93	0x3e43cd2a	0.19121233
94	0xbe059ac3	-0.13047318
95	0x3eaaffe0	0.33398342
96	0x3e34b189	0.1764585
97	0xbe658776	-0.22414955
98	0xbe73efb9	-0.23821916
99	0x3e84d1ca	0.25941306
100	0x3ebb0d17	0.36533424
101	0xbe012b3e	-0.12614152
102	0xbe803c55	-0.2504603
103	0xbd6b317a	-0.05742023
104	0x3eb4124f	0.35170218
105	0x3eb236cf	0.3480744
106	0x3d43ca05	0.047800083
107	0x3de5c01e	0.11218284
108	0x3e229547	0.15877257
109	0x3d0c45de	0.034246318
110	0x3d5fe6e5	0.054663558
111	0x3e2b9e2f	0.16759561
112	0xbe9219e0	-0.28535366
113	0x3e42fc82	0.19041637
114	0xbe00fc86	-0.1259633
115	0xbe6fbb75	-0.23411353
116	0xbe02decd	-0.12780304
117	0x3e88c78a	0.26714736
118	0x3e4a809e	0.19775626
119	0x3e098a62	0.13431695
120	0xbe2db2da	-0.16962758
121	0x3ced4caf	0.02896723
122	0xbddde2c3	-0.10834267
123	0x3e87c922	0.2652064
124	0xbeaeebdd	-0.34164324
125	0x3d15f1a1	0.03660739
126	0x3e6c4fb9	0.23077287
127	0x3db758e3	0.08952501
