src/training_logs_ppo/ppo_checkpoint_18_1764200120.pt (torch, 480089 bytes, 42 tensors)

move_logstd f4 [2]
0	0x41030570	8.1888275
1	0x40eb6372	7.3558893

shared.0.weight f4 [128, 17]
0	0x3dbe387b	0.092881165
1	0xbe0671c0	-0.1312933
2	0x3d3f354e	0.046681695
3	0x3e01fd5b	0.12694304
4	0x3bea7292	0.007154771
5	0x3e8f5068	0.27991033
6	0x3d8899ee	0.06669985
7	0x3d3251f6	0.043535195
8	0xbed65faa	-0.4186986
9	0x3d84a393	0.06476512
10	0x3f2d38c2	0.6766473
11	0xbd9f2f7f	-0.07772731
12	0x3daef940	0.085436344
13	0x3f23a392	0.63921463
14	0xbea4ee0b	-0.32212862
15	0x3dadf497	0.084939174
16	0xbddc3414	-0.107521206
17	0xbe081c35	-0.1329201
18	0xbd2a9a0d	-0.04165082
19	0x3e4c0af9	0.1992606
20	0xbde194b1	-0.11014689
21	0xbe4339de	-0.19065043
22	0xbe7c4f04	-0.24639517
23	0x3e8536d1	0.26018384
24	0xbe8a12af	-0.2696738
25	0xbe863c54	-0.26217902
26	0x3e80a571	0.25126222
27	0x3f243776	0.64147127
28	0x3e87028f	0.2636914
29	0x3f019ee2	0.5063306
30	0xbdc9cec4	-0.098538905
31	0xbedc2e86	-0.43004245
32	0x3d9563b6	0.07294409
33	0xbb072e4e	-0.0020626965
34	0x3e58c0fe	0.2116737
35	0x3e4dd746	0.20101652
36	0x3ee40354	0.4453379
37	0xbf1320a8	-0.57471704
38	0x3d5459b6	0.051843368
39	0x3ede5f96	0.434323
40	0x3ee47754	0.4462229
41	0x3e69335d	0.227735
42	0xbf58f1f5	-0.847442
43	0xbda45c10	-0.08025372
44	0x3f3c138a	0.73467314
45	0x3ecda2d4	0.4016329
46	0x3da02093	0.07818713
47	0x3f25610e	0.6460122
48	0xbe65e718	-0.22451437
49	0xbf05e8c0	-0.52308273
50	0xbf091bce	-0.5355805
51	0x3c96962a	0.01838215
52	0xbe3c1bce	-0.18369982
53	0xbea958cb	-0.33075556
54	0xbd943cc1	-0.072381504
55	0x3e0df14f	0.13861583
56	0xbe82b3a7	-0.2552769
57	0xbe3490c3	-0.17633347
58	0x3de0cdba	0.10976739
59	0xbeed0cc4	-0.46298802
60	0xbd88cdbc	-0.06679866
61	0x3d9ed56a	0.07755549
62	0xbdcc8c81	-0.099877365
63	0xbf1f85af	-0.6231336
64	0xbef532bb	-0.47890267
65	0x3e464ada	0.19364491
66	0x3c9fc6ed	0.019504035
67	0x3d8e457f	0.06946849
68	0xbd3a473d	-0.045478094
69	0x3e1afb27	0.1513487
70	0x3f2c465f	0.6729488
71	0x3e87cbdc	0.2652272
72	0x3e70f216	0.23529848
73	0xbcd64e4e	-0.026160385
74	0xbe4f2c45	-0.20231731
75	0xbf3fcc34	-0.74920964
76	0xbd8fd1a5	-0.070224084
77	0xbe9a3bfb	-0.30123886
78	0x3f9e5d0b	1.2372144
79	0x3ea4f06b	0.32214674
80	0x3e66324e	0.22480127
81	0x3ecb3deb	0.39695677
82	0xbf4f20be	-0.80909336
83	0x3d9557a9	0.072921105
84	0xbe4c8039	-0.19970788
85	0xbe6368fd	-0.22208019
86	0xbce4d4b2	-0.027933452
87	0x3e72612e	0.23669884
88	0xbf164313	-0.586961
89	0xbf0364f9	-0.5132595
90	0xbd39adbf	-0.045331713
91	0x3e96c1ab	0.29444632
92	0xbf00a57e	-0.5025252
93	0x3e915ead	0.28392544
94	0xbe04255c	-0.12904876
95	0x3e9288f5	0.28620115
96	0x3c40090c	0.011720907
97	0xbe55b681	-0.20870401
98	0x3e13cf28	0.14434493
99	0xbf0e4531	-0.5557433
100	0x3eefbf9f	0.46825883
101	0x3eaee633	0.34160003
102	0x3db85ac6	0.09001689
103	0x3d299f1d	0.041411508
104	0xbd17150d	-0.03688531
105	0xbe5ed599	-0.21761169
106	0xbe4bcdba	-0.19902697
107	0x3d850365	0.06494788
108	0xbdb68abf	-0.089131825
109	0xbed285c0	-0.41117668
110	0xbe3c5b4c	-0.18394202
111	0xbe2fc38c	-0.17164439
112	0xbe340b9c	-0.17582554
113	0xbe98a29e	-0.29811567
114	0xbe24bce6	-0.16087684
115	0x3e044e7a	0.12920561
116	0x3ce40856	0.027836006
117	0x3e32c1a0	0.17456675
118	0x3e8eb458	0.27871966
119	0xbe1443ac	-0.1447894
120	0xbd9ee895	-0.07759205
121	0xbe4448db	-0.19168417
122	0xbec7e769	-0.3904374
123	0xbebc4a40	-0.36775398
124	0xbef527cb	-0.47881922
125	0x3eb2fd9a	0.34959108
126	0x3f0db31f	0.5535144
127	0x3e413f78	0.18871868
128	0x3f00ec18	0.5036025
129	0xbc6eb77b	-0.014570112
130	0x3e3726ae	0.17885849
131	0xbe90f6ca	-0.28313285
132	0x3deb2f9f	0.114836924
133	0x3e373866	0.17892608
134	0xbdfc0c8c	-0.123070806
135	0x3d59c394	0.053165033
136	0xbee16dd2	-0.440291
137	0xbe9af0d1	-0.30261853
138	0xbe700c14	-0.23442107
139	0xbf3a8ddd	-0.72872716
140	0xbf45f7cf	-0.7733125
141	0xbda35943	-0.0797601
142	0xbebf1808	-0.37323022
143	0xbf37e844	-0.71838784
144	0x3ee0b569	0.43888405
145	0xbe4b6395	-0.19862206
146	0xbee9230c	-0.4553455
147	0x3da64b87	0.081198744
148	0xbd102943	-0.0351956
149	0x3e84c380	0.25930405
150	0xbf41bccc	-0.75678706
151	0x3e85b17e	0.26111978
152	0x3e9fe8e7	0.31232378
153	0x3b870065	0.00411992
154	0xbe3ebae2	-0.18625978
155	0xbf0439ac	-0.516505
156	0xbf0b3884	-0.5438311
157	0xbea4a3d9	-0.32156256
158	0x3ef9faec	0.4882425
159	0x3e8af3b6	0.27139062
160	0xbe0f5a3f	-0.1399927
161	0xbdc9fe2f	-0.09862935
162	0xbba3d7ec	-0.005000105
163	0x3f42dc7b	0.76117676
164	0xbc412b50	-0.011790112
165	0x3d4a45d0	0.049382985
166	0x3f72dbfb	0.94866914
167	0xbf157e07	-0.5839543
168	0x3d1f8f3d	0.038954962
169	0x3cd79057	0.026313944
170	0xbdcdbf67	-0.10046273
171	0xbe03ca32	-0.128701
172	0xbe054797	-0.1301559
173	0x3ea7d924	0.32782853
174	0x3b0220f8	0.0019856077
175	0x3ec23da7	0.37937662
176	0xbe838f95	-0.25695482
177	0x3bf7b20b	0.007559066
178	0xbe072dc7	-0.13201056
179	0x3e1ecd1e	0.15507933
180	0x3df857c3	0.12126114
181	0xbe4744fa	-0.19459906
182	0x3e0272fc	0.12739176
183	0x3f278eaf	0.6545209
184	0xbd83e8af	-0.06440865
185	0xbeb436d8	-0.35198092
186	0xbdbc6372	-0.09198655
187	0xbe050fad	-0.12994261
188	0xbd485214	-0.0489064
189	0xbeecfc51	-0.46286252
190	0xbe24fe7c	-0.16112703
191	0xbf142e6f	-0.5788335
192	0x3eab2054	0.33423102
193	0x3d066389	0.032809768
194	0x3dcd748f	0.100319974
195	0xbe38005d	-0.17968889
196	0xbe1f8888	-0.15579426
197	0x3e1f30b1	0.15545918
198	0xbde4c8d4	-0.111711174
199	0x3d24535f	0.04011857
200	0x3e047d6f	0.12938474
201	0xbe6c493e	-0.23074815
202	0x3de5666d	0.11201177
203	0x3d1b081b	0.037849527
204	0xbe0b5841	-0.13607885
205	0xbd98def8	-0.07464403
206	0x3e61e5f7	0.22060381
207	0x3e18bd4c	0.14915961
208	0xbf7495d8	-0.95541143
209	0xbe93ffe0	-0.28906155
210	0x3eb295f3	0.34880027
211	0xbe7d6f55	-0.24749501
212	0xbda8917d	-0.08230875
213	0x3e5070ca	0.20355526
214	0x3dd642c4	0.10461953
215	0xbdcc1d69	-0.09966547
216	0x3da46a4d	0.08028088
217	0xbe53b4ab	-0.20674388
218	0xbe9d5986	-0.30732363
219	0xbd64521a	-0.05574236
220	0x3e550d19	0.20805778
221	0xbed43723	-0.41448316
222	0xbe79bdc5	-0.24388798
223	0x3ec912bd	0.3927211
224	0xbf16ca93	-0.58902854
225	0xbc404c1a	-0.011736894
226	0xbf33f5f8	-0.70297194
227	0x3e96d116	0.29456395
228	0xbf08274f	-0.5318498
229	0x3f7386f3	0.9512779
230	0xbe183c5e	-0.14866778
231	0xbdb5b9db	-0.0887334
232	0xbdd9702d	-0.10617099
233	0xbcdc8e55	-0.026923338
234	0x3edd39e5	0.43208233
235	0xbf36301c	-0.7116716
236	0x3efbbb0a	0.49166137
237	0x3f45d2f0	0.7727499
238	0x3a82c27e	0.0009976176
239	0x3dd8dbd5	0.10588805
240	0xbe15c51b	-0.14625971
241	0x3d7a422a	0.061098255
242	0xbef80cfb	-0.48447403
243	0x3ede7f62	0.4345656
244	0x3e9a51a3	0.3014041
245	0xbf0e732e	-0.556445
246	0x3ecb753e	0.39737886
247	0xbe393e42	-0.18090156
248	0x3e36c2dc	0.1784777
249	0x3e3e07bf	0.18557642
250	0x3e17ea46	0.14835462
251	0x3e2b734a	0.16743198
252	0xbe3449df	-0.17606305
253	0x3eb61dc7	0.35569593
254	0x3cbe40d0	0.023224264
255	0xbf089889	-0.5335775

shared.0.bias f4 [128]
0	0x3e9ca300	0.3059311
1	0xbda3b389	-0.07993228
2	0x3e9447ad	0.28960934
3	0x3daf54fd	0.08561132
4	0x3e389eab	0.18029277
5	0xbe019dcd	-0.12657852
6	0xbdde5f97	-0.10858076
7	0xbeb80ffa	-0.3594969
8	0xbe30ecba	-0.17277804
9	0xbe8045e7	-0.2505333
10	0xbdd53c5b	-0.104119025
11	0xbf06e9fb	-0.52700776
12	0xbdb8162d	-0.08988605
13	0xbbebe8aa	-0.0071993666
14	0xbe818029	-0.2529309
15	0x3d26f9e3	0.040765654
16	0x3f009aa0	0.5023594
17	0xbe09456f	-0.13405393
18	0x3ddb34de	0.10703443
19	0x3e5a7cb7	0.21336637
20	0x3ca17ecf	0.019713787
21	0xbf3e293a	-0.74281657
22	0xbe381358	-0.17976129
23	0xbcd414f7	-0.025888903
24	0xbe135e1b	-0.14391367
25	0xbe09eebe	-0.13469979
26	0xbb19ed3e	-0.0023487355
27	0x3d0b00ba	0.03393624
28	0x3ee1979f	0.4406099
29	0x3f01ad0c	0.50654674
30	0xbeb2dbdb	-0.3493336
31	0x3e814d36	0.2525422
32	0x3dc15791	0.0944053
33	0xbe8f645e	-0.28006262
34	0xbddc19d0	-0.10747111
35	0x3d688345	0.056765813
36	0x3dc41dde	0.09576009
37	0xbea3c8d7	-0.31989166
38	0x3e6b0f02	0.22954944
39	0x3e91ccaa	0.2847646
40	0x3dc605a6	0.09669046
41	0xbf333979	-0.7000957
42	0x3c24ad5e	0.0100511
43	0xbefc532e	-0.4928221
44	0xbe60cc5d	-0.21952958
45	0x3dcf8563	0.101328634
46	0x3e5d1938	0.21591651
47	0xbe0fe9d3	-0.1405404
48	0xbe56fa72	-0.20993975
49	0xbedd07bc	-0.43169963
50	0xbdfd14d8	-0.12357491
51	0x3ec3ed7a	0.38267118
52	0x3f03e647	0.5152325
53	0xbdac88bf	-0.0842452
54	0x3ee18d3c	0.44053066
55	0xbc9cd4f5	-0.019144515
56	0xbf6fb937	-0.9364199
57	0x3d884780	0.066542625
58	0xbeb2c97e	-0.3491935
59	0x3e7b0f20	0.24517488
60	0xbe673ecb	-0.22582547
61	0xbe5f88e6	-0.21829566
62	0xbe9a4cfc	-0.3013686
63	0x3ec4cff9	0.3843992
64	0xbce5e0f4	-0.028061368
65	0xbe328c80	-0.17436409
66	0xbeea7e7a	-0.4579962
67	0x3ec16010	0.37768602
68	0xbceb2766	-0.02870531
69	0x3f14df3b	0.5815312
70	0x3e6320f1	0.22180535
71	0xbf069c97	-0.5258269
72	0xbcfbc33f	-0.030732749
73	0xbeef5f40	-0.46752357
74	0xbe39c823	-0.18142752
75	0xbf6e0492	-0.92975724
76	0xbe3f66c3	-0.18691544
77	0x3f12fa9e	0.5741366
78	0xbbe6a64e	-0.007038868
79	0xbe47c640	-0.1950922
80	0x3cf4581e	0.029827174
81	0x3e1a094d	0.1504261
82	0x3dc1a50c	0.09455308
83	0xbe136ddd	-0.14397378
84	0x3e960db9	0.29307345
85	0x3ed38b47	0.41317198
86	0xbebd5dbe	-0.36985582
87	0xbe8277f8	-0.25482154
88	0x3ed3c4a5	0.41360965
89	0xbe8246cb	-0.25444636
90	0xbea356c4	-0.31902134
91	0xbdf0702a	-0.117401436
92	0xbe839edb	-0.25707135
93	0xbe827fef	-0.2548823
94	0xbe9a2ede	-0.30113882
95	0x3f013ef4	0.50486684
96	0xbec18136	-0.37793893
97	0xbe3246c3	-0.17409806
98	0xbf24f9fd	-0.6444395
99	0xbd73a95c	-0.059487686
100	0x3e6eba6b	0.233133
101	0xbef7d383	-0.48403558
102	0xbefa09b1	-0.4883552
103	0x3ea875e9	0.32902458
104	0xbdafc825	-0.085830964
105	0xbee81e36	-0.4533555
106	0xbe22343a	-0.15840235
107	0xbdfd8543	-0.12378933
108	0xbed2180b	-0.41033968
109	0xbef053ce	-0.46938938
110	0xbefc68c9	-0.49298695
111	0xbe427506	-0.18989953
112	0xbe10618a	-0.14099708
113	0xbec6b582	-0.38810354
114	0x3e9a64c1	0.30154994
115	0xbe7f4b9b	-0.24931185
116	0x3c9121da	0.017716337
117	0xbdeda62f	-0.11603963
118	0xbc0aa11c	-0.008461263
119	0x3e2c4352	0.16822556
120	0xbcc838fe	-0.024441238
121	0xbd5f064b	-0.05444936
122	0x3e565d6f	0.2093408
123	0xbd28f799	-0.041251753
124	0xbe86df52	-0.26342255
125	0xbda1beb3	-0.07897701
126	0x3c287b24	0.010283265
127	0x3f0a36b5	0.53989726

shared.2.weight f4 [128, 128]
0	0x3c46e6b4	0.012139965
1	0xbda85e8b	-0.08221158
2	0xbda9a3d7	-0.08283203
3	0xbdc2896b	-0.09498867
4	0xba449fdc	-0.00075006275
5	0xbd8d8355	-0.06909815
6	0x3d110cd9	0.035412643
7	0xbdc72504	-0.09723857
8	0x3c97ce97	0.018531127
9	0xbda20fba	-0.07913156
10	0xbe152477	-0.14564691
11	0xbe159bb9	-0.14610185
12	0xbd57408f	-0.052551802
13	0xbdbac120	-0.09118867
14	0xbdc3b765	-0.09556464
15	0xbe0f5acc	-0.1399948
16	0xbdaf69d2	-0.085651055
17	0xbd99c0e6	-0.075074956
18	0xbb0905dc	-0.0020908033
19	0xbd8bd925	-0.068285264
20	0x3c9aaa68	0.018880084
21	0x3b9bd580	0.004755676
22	0xbd23f632	-0.040029712
23	0xbd956188	-0.07293993
24	0xbde343d4	-0.110969216
25	0xbdcc409a	-0.09973259
26	0xbdfe02e5	-0.12402896
27	0xbcd87b76	-0.026426058
28	0xbdc504ef	-0.09620082
29	0xbd895e37	-0.06707423
30	0xbdc59ef0	-0.096494555
31	0x39f804ad	0.0004730573
32	0xbdb8046c	-0.089852184
33	0xbcd85312	-0.026406799
34	0xbda769aa	-0.08174451
35	0xbdba76f4	-0.0910472
36	0xbda0e2e9	-0.0785578
37	0x3c4ff06e	0.0126916
38	0xbd806fbf	-0.06271314
39	0xbda5913c	-0.08084342
40	0xbd13228b	-0.035921615
41	0xbe0a42a4	-0.13501984
42	0x3c5d5531	0.013509081
43	0x3d875feb	0.06610092
44	0x3c1c8111	0.009552256
45	0xbd012d58	-0.031537384
46	0xbdb4e328	-0.08832389
47	0x3b42885e	0.0029683332
48	0xbdc3e90b	-0.09565934
49	0xbc71a0de	-0.014747826
50	0x3bc0b4b1	0.005880915
51	0xbbf30b02	-0.0074170837
52	0xbcd3a5ff	-0.025835989
53	0xbd74354e	-0.059621148
54	0x3b64d785	0.0034918499
55	0xbdff8120	-0.124758005
56	0xbd0117cd	-0.03151684
57	0xbe1518e1	-0.14560272
58	0xbdf2546a	-0.11832507
59	0x3c51f918	0.012815736
60	0xbbd0de6e	-0.006374172
61	0xbd949e4d	-0.07256756
62	0xbddcc23c	-0.10779235
63	0xbc617234	-0.013760138
64	0x3cca1eec	0.024672948
65	0xbd5ad06e	-0.05342143
66	0xbdf508b0	-0.11964548
67	0xbd36a98a	-0.04459528
68	0xbdb3232f	-0.08746945
69	0xbbedff76	-0.0072631193
70	0xbdcad296	-0.09903447
71	0xbdab2bef	-0.08357989
72	0xbe05b6c1	-0.13057996
73	0xbe09a32d	-0.13441153
74	0xbbfd3c24	-0.0077281166
75	0xbd774d5b	-0.060376506
76	0xbddf419e	-0.10901187
77	0xbd00e9f7	-0.031473126
78	0xbc1fe3be	-0.009758888
79	0xbbd1052f	-0.0063787918
80	0xbe05dfe2	-0.13073686
81	0xbe01dd31	-0.12682034
82	0xbe0f5639	-0.13997735
83	0xbe0d0fdf	-0.13775586
84	0xbd3de4c5	-0.04636075
85	0x3c67ca1e	0.01414731
86	0xbcf79b2a	-0.030225355
87	0xbd8fd8f6	-0.07023804
88	0x3c93e26e	0.018052306
89	0xbd5654eb	-0.052327078
90	0xbdd45fd0	-0.10369837
91	0xbc4ad73a	-0.012380416
92	0xbce6e88c	-0.028187059
93	0x3c582ec5	0.0131947445
94	0xbcca73ad	-0.024713362
95	0xbdd55d4a	-0.10418184
96	0xbdf35541	-0.11881495
97	0xbc953005	-0.018211374
98	0x3cada63e	0.021197435
99	0x3c3f4561	0.011674256
100	0xbd86765d	-0.06565545
101	0xbd87e76e	-0.066359386
102	0xbcd1ddd5	-0.025618473
103	0x3ce57939	0.028011905
104	0xbe13d336	-0.1443604
105	0xbde521cb	-0.11188086
106	0xbdd9336a	-0.106055096
107	0xbd9e4ece	-0.077298746
108	0xbda22599	-0.079173274
109	0xbd2cc51d	-0.04218017
110	0xbdbf415b	-0.093386374
111	0xbc50663d	-0.012719688
112	0x3c2531f1	0.010082708
113	0xbda38d8d	-0.07985983
114	0xbdac83db	-0.08423587
115	0xbdd96620	-0.10615182
116	0xbcbbdd4e	-0.022932675
117	0xbdb2752b	-0.08713754
118	0xbe073529	-0.13203873
119	0xbd3f4efa	-0.046706177
120	0xbddcb474	-0.10776606
121	0xbc8bde4e	-0.017073777
122	0xbd65d12e	-0.056107692
123	0xbd0dd404	-0.034626022
124	0xbd4eb2ef	-0.050463613
125	0xbd70784f	-0.058708485
126	0xbd8fe187	-0.07025438
127	0xbd3da272	-0.046297498
128	0x3c9391bd	0.01801383
129	0xbe10fe16	-0.14159426
130	0xbdc32205	-0.09527973
131	0xbda0cf53	-0.07852044
132	0xbdddc1d3	-0.10827985
133	0xbdb871cc	-0.0900608
134	0xbdbb36a9	-0.09141285
135	0x3c2b15cc	0.0104422085
136	0x3c360f0f	0.011111989
137	0x3deddc29	0.11614258
138	0x3d85236b	0.06500896
139	0xbd6b12fc	-0.05739115
140	0xbe03a5ef	-0.12856267
141	0xbca8a88b	-0.02058818
142	0xbda52820	-0.08064294
143	0x3d56aa0f	0.052408274
144	0x3b945c13	0.0045275777
145	0xbdea9c5a	-0.11455603
146	0x3c740952	0.0148948
147	0x3d0d9c21	0.034572724
148	0xbe3709ac	-0.17874783
149	0xbd27f48a	-0.041004695
150	0x3d298015	0.041381914
151	0xbd647013	-0.055770945
152	0x3d37cc74	0.044872716
153	0x3ce24688	0.027621523
154	0xbd5f0b5c	-0.054454193
155	0xbd35c25e	-0.044374816
156	0x39e11fed	0.0004293913
157	0xbe16c62a	-0.14724031
158	0x3d2d06e7	0.04224291
159	0xbd80fc02	-0.06298067
160	0xbb8a72e0	-0.00422512
161	0x3dbf3c97	0.093377285
162	0xbd8e23ac	-0.069403976
163	0x3c248e1e	0.010043649
164	0xbcd1ec3d	-0.025625343
165	0x3d00373c	0.031302676
166	0xbc068adf	-0.00821182
167	0x3c3e3f2f	0.011611744
168	0x3c06d5d1	0.008229689
169	0x3be0405f	0.006843611
170	0xbdb30d90	-0.08742821
171	0x3ccf8cb7	0.025335653
172	0x3cfb78fe	0.030697342
173	0x3d577fc0	0.052612066
174	0xbde5b099	-0.11215324
175	0xbe03694d	-0.12833138
176	0x3d867e95	0.06567112
177	0xbdac9435	-0.08426706
178	0xbe0353bf	-0.12824915
179	0xbe2244f6	-0.15846619
180	0x3deacd4c	0.114649385
181	0xbd97dd54	-0.07415262
182	0x3b08cf0b	0.002087536
183	0x3dbed5e8	0.09318143
184	0xbe06160c	-0.13094348
185	0xbde853fa	-0.11344142
186	0xbacf5379	-0.0015817723
187	0xbdef6967	-0.11690026
188	0xbe0f6c3c	-0.14006132
189	0xbd9806fb	-0.074232064
190	0xbc853f99	-0.016265677
191	0xbd51ef6d	-0.051253725
192	0xbd9b8a69	-0.07594759
193	0xbe0f040a	-0.13966385
194	0x39c996fb	0.00038450197
195	0xbce70653	-0.028201258
196	0xbd438efe	-0.04774379
197	0xbd8838c9	-0.06651456
198	0xbd8060b9	-0.062684484
199	0xbdf2e3db	-0.11859866
200	0xbd40fa2d	-0.047113586
201	0xbd9636a0	-0.07334638
202	0x3baba725	0.005238431
203	0xbd6fa45f	-0.058506366
204	0xbdee8149	-0.11645753
205	0xbddebd44	-0.10875943
206	0xbd80c32d	-0.06287227
207	0xbcecdf22	-0.028914992
208	0xbc79f712	-0.01525666
209	0xbd3ec0d0	-0.0465706
210	0xbdbb8c2c	-0.09157595
211	0xbdd123d5	-0.102119125
212	0x3d5e4bdd	0.054271568
213	0xbe31491a	-0.17313042
214	0x3d7aa60f	0.061193522
215	0xbdd6553a	-0.104654744
216	0x3dab2721	0.083570726
217	0xbd4359bf	-0.04769301
218	0xbd16f330	-0.036853015
219	0xbd2b8275	-0.04187246
220	0x3db81461	0.08988262
221	0xbe32dd2a	-0.1746718
222	0x3c8a47d3	0.016879952
223	0xbd1843f3	-0.037174176
224	0xbcc608ba	-0.024174083
225	0xbdef05a5	-0.116709985
226	0x3c981ec1	0.018569352
227	0x3d9780ce	0.073976144
228	0x3da62fd7	0.081145935
229	0xbc43538f	-0.011921777
230	0x3b1f08a1	0.0024266618
231	0xbddaa1d3	-0.10675397
232	0x3cbff7be	0.023433562
233	0x3e01d20f	0.12677787
234	0xbe00b535	-0.12569125
235	0xbd5643c1	-0.05231071
236	0xbd9a9065	-0.07547072
237	0xbe1c5fdf	-0.15270947
238	0x3d0a63de	0.033786647
239	0xbda67f83	-0.0812979
240	0xbd764858	-0.060127586
241	0x3d13a49d	0.03604566
242	0xbd0f8b17	-0.035044756
243	0xbdb4b5aa	-0.08823712
244	0xbd9b4c18	-0.07582873
245	0xbde85feb	-0.1134642
246	0xbd862955	-0.06550852
247	0xbd110a55	-0.035410244
248	0xbe16dbd4	-0.14732295
249	0x3da5a2a6	0.08087663
250	0x3db15b32	0.08659972
251	0xbd9d1907	-0.07670789
252	0xbd188667	-0.03723755
253	0xbe1b2221	-0.15149738
254	0xbe43c4ba	-0.19118014
255	0x3aceaba4	0.0015767706

shared.2.bias f4 [128]
0	0xbbc21eb4	-0.0059240703
1	0xbcdc7f93	-0.0269163
2	0xbddd1569	-0.10795099
3	0xbcd9a5c7	-0.026568307
4	0x3e524c0d	0.20536824
5	0xbd60b52a	-0.05486027
6	0xbc200597	-0.009766958
7	0xbb475920	-0.0030418113
8	0x3e87fccc	0.26560056
9	0xbccac307	-0.0247512
10	0x3d170902	0.036873825
11	0xbd75e027	-0.06002822
12	0x3dd2bb5a	0.10289641
13	0xbd829758	-0.06376523
14	0x3da6a9ae	0.081378326
15	0xbda7d312	-0.08194555
16	0xbd9405be	-0.07227658
17	0xbd86b5af	-0.06577622
18	0xbbcf1d72	-0.006320649
19	0x3d7f0a66	0.062265776
20	0xbe26782b	-0.16256778
21	0xbd955d93	-0.072932385
22	0xbe48048c	-0.19532984
23	0xbdbf8ea1	-0.09353376
24	0xbe0dc970	-0.13846374
25	0x3d99548f	0.074868314
26	0x3d569e3a	0.05239699
27	0xbb112d5a	-0.0022152276
28	0xbde5bc3d	-0.11217544
29	0x3c9e0e1f	0.019293843
30	0xbddfb639	-0.10923428
31	0xbd6895d1	-0.0567835
32	0xbd66e74d	-0.05637293
33	0x3c81cb19	0.015843915
34	0xbc87c368	-0.01657267
35	0xbe07c5d9	-0.13259067
36	0x3c7a5f9c	0.015281584
37	0xbe1f496c	-0.15555352
38	0x3e65aaef	0.22428487
39	0x3e56c88c	0.2097494
40	0xbd341e0b	-0.043973964
41	0x3d283b59	0.041072223
42	0x3df7b6d0	0.120954156
43	0x3e5a98c8	0.21347344
44	0x3e8943f1	0.26809648
45	0xbc60fe92	-0.013732569
46	0xbd9dba67	-0.07701569
47	0xbe0fc4c9	-0.14039911
48	0x3ddf32dd	0.10898373
49	0xbe1fbc9b	-0.15599291
50	0xbe21869f	-0.1577401
51	0xbe16f793	-0.1474288
52	0x3c601d28	0.013678826
53	0xbcdb91dc	-0.02680295
54	0x3c3283b5	0.010895659
55	0xbc8c49f0	-0.0171251
56	0xbd6cd1e8	-0.05781737
57	0x3e1ab1ee	0.15106937
58	0xbd2daa4f	-0.042398747
59	0x3e3fd0fa	0.18732062
60	0x3e74f451	0.23921324
61	0xbe18b384	-0.1491223
62	0xbd87738d	-0.066138364
63	0x3dd81339	0.105505414
64	0x3c175d58	0.0092385635
65	0x3e96eb47	0.29476377
66	0xbc294f45	-0.010333841
67	0xbe25bc62	-0.16185144
68	0xbe2e5e2a	-0.17028108
69	0x3d773d8d	0.060361434
70	0x3e2e4d75	0.17021735
71	0xbd381ed5	-0.04495128
72	0xbca941bb	-0.020661226
73	0xbdfe422e	-0.124149665
74	0xbb8c4c32	-0.004281544
75	0x3d2b766d	0.041860987
76	0xbda9a9c5	-0.08284334
77	0xbe4f9c4d	-0.20274468
78	0xbe1d2d52	-0.1534932
79	0xbd7b8279	-0.061403725
80	0xbe036bfc	-0.12834162
81	0x3ce7a584	0.028277166
82	0x3ca05033	0.019569492
83	0xbe8d1bc1	-0.27560237
84	0x3e1e4060	0.15454245
85	0xbe1677e1	-0.14694168
86	0xbd856d8c	-0.06515035
87	0xbe059418	-0.13044775
88	0xbdc347a7	-0.09535151
89	0xbdd4a969	-0.10383875
90	0x3e47aff1	0.1950071
91	0x3d2a40b0	0.041565597
92	0xbdfdac44	-0.12386373
93	0xbd669a8f	-0.056299742
94	0x3c4f94bb	0.012669737
95	0xbe93d30f	-0.28871962
96	0x3dee40c0	0.11633444
97	0xbdab600d	-0.083679296
98	0xbd3acfa9	-0.045608196
99	0xbdaa6eff	-0.08321952
100	0xbd31a365	-0.043368716
101	0xbe207a02	-0.15671542
102	0xbd6ab8e9	-0.05730525
103	0xbd3bf52e	-0.04588812
104	0xbc96136c	-0.018319808
105	0x3984ae9b	0.00025307093
106	0x3e2e6d34	0.17033845
107	0xbd9e8c84	-0.07741645
108	0x3db73431	0.089455016
109	0x3df13aac	0.11778769
110	0xbddabeeb	-0.10680946
111	0xbdab5914	-0.083666
112	0x3e4e6d57	0.20158897
113	0x3cd7ad24	0.026327677
114	0xbc6e43d1	-0.014542536
115	0xbdc18e86	-0.09451012
116	0x3d6b296d	0.057412554
117	0x3e3a189c	0.1817345
118	0xbd56b645	-0.05241992
119	0x3e020dcf	0.1270058
120	0xbde6f5a7	-0.11277323
121	0xbdd8c675	-0.10584728
122	0x3ba2c497	0.004967283
123	0xbe021e06	-0.12706766
124	0xbdf9d3cf	-0.121986024
125	0xbe15d44f	-0.1463177
126	0xbe240cbb	-0.16020481
127	0xbe37cf9b	-0.17950289

move_mean.weight f4 [2, 128]
0	0x3c5af526	0.013364112
1	0x3cc0744a	0.023492951
2	0x3ce2bbfd	0.02767753
3	0xbd16d4f2	-0.036824174
4	0x3e9e7e28	0.30955625
5	0xbda30812	-0.07960524
6	0x3d661990	0.056176722
7	0xbe32afa0	-0.17449808
8	0x3e481c1b	0.19541971
9	0x3e55d093	0.20880346
10	0xbe0820bb	-0.13293736
11	0xbccc66f5	-0.024951437
12	0x3e82c65f	0.2554197
13	0x3dc815c0	0.097697735
14	0xbe110c02	-0.14164737
15	0x3d923404	0.071388274
16	0xbe270319	-0.16309775
17	0x3c327191	0.010891334
18	0x3e7e6d5e	0.24846408
19	0xbac3ac42	-0.0014928656
20	0xbe1f5265	-0.15558775
21	0xbb41b814	-0.0029559182
22	0xbd906df5	-0.07052223
23	0x3d6bb19a	0.05754242
24	0x3d350075	0.04418989
25	0x3d4b8f2c	0.049697086
26	0x3cae187a	0.021251906
27	0xbe969cce	-0.29416507
28	0xbc85125a	-0.016244102
29	0x3c0fad0e	0.008769287
30	0xbcc6c4f7	-0.024263842
31	0x3d9295d0	0.07157481
32	0x3dbccfbf	0.09219312
33	0xbd005bd4	-0.031337574
34	0xbda27f68	-0.07934457
35	0x3cc3ba15	0.023892442
36	0x3c291f4c	0.010322403
37	0xbde0e843	-0.109818004
38	0x3e759e51	0.23986174
39	0x3e66330d	0.22480412
40	0x3ba3c845	0.004998239
41	0x3d670df6	0.0564098
42	0x3e9ed8cf	0.31024787
43	0x3e84c932	0.2593475
44	0x3e8148e2	0.25250918
45	0x3cd86586	0.026415598
46	0x3d143d09	0.03619102
47	0x3cc25f6e	0.023727145
48	0x3e75d544	0.24007136
49	0x3d14bc0f	0.03631216
50	0x3dc759e1	0.0973394
51	0x3d34f522	0.04417909
52	0x3deef6db	0.11668178
53	0xbd12436e	-0.035708837
54	0xbe9b730e	-0.30361217
55	0x3dbc1881	0.09184361
56	0x3e2dcc02	0.16972354
57	0x3eaff3e8	0.34365773
58	0x3df6be26	0.12047987
59	0x3e6aa1a6	0.22913226
60	0xbe27f8be	-0.16403481
61	0x3e944a3c	0.28962886
62	0xbd9e8da8	-0.077418625
63	0x3d0baa75	0.034098107
64	0x3ca32a4c	0.01991763
65	0x3ea68310	0.32521868
66	0x3d49f235	0.049303252
67	0xbe09e084	-0.13464552
68	0xbd824ea7	-0.06362658
69	0x3c9d5d0f	0.019209413
70	0xbe0998f4	-0.13437253
71	0xbc00e54e	-0.0078671705
72	0xbd03cef5	-0.03217979
73	0xbc96c5b3	-0.018404817
74	0xbda0e0db	-0.07855388
75	0xbcf01321	-0.029305996
76	0xbd8166b8	-0.0631842
77	0xbdbaca0a	-0.09120567
78	0x3dcc07f5	0.09962455
79	0xbe93a366	-0.288356
80	0xbb077029	-0.0020666218
81	0x3d0ce0ba	0.034394003
82	0xbdc0af62	-0.094084516
83	0x3e9a8ecf	0.3018708
84	0x3e05a47c	0.13051027
85	0x3d526fcf	0.05137616
86	0x3c9b7ca1	0.018980326
87	0x3dd13687	0.102154784
88	0xbdbaa9e3	-0.091144346
89	0x3dd1e1f2	0.10248174
90	0x3e3756c3	0.1790419
91	0x3c53dd25	0.012931143
92	0x3e5cbeb4	0.21557122
93	0xbe0db262	-0.13837579
94	0xbd294cbe	-0.041332953
95	0x3ccb40db	0.024811199
96	0x3dc60aca	0.096700266
97	0x3cca5599	0.02469902
98	0x3daf07e1	0.08546425
99	0xbcde4931	-0.02713451
100	0xbc314bc0	-0.010821283
101	0x3dca9768	0.0989216
102	0x3cf1f37f	0.029535053
103	0xbd9f0b22	-0.07765795
104	0xbe6d95ec	-0.23201722
105	0xbe7de629	-0.2479483
106	0x3e6d436a	0.23170248
107	0x3d267dbf	0.040647265
108	0x3d9c30a4	0.07626465
109	0x3e956a32	0.29182583
110	0x3da8f8ce	0.08250581
111	0xbd2eb10a	-0.042649306
112	0x3e8bd55b	0.27311215
113	0xbe8b0030	-0.2714858
114	0x3dba7c1a	0.09105702
115	0x3ba32300	0.0049785376
116	0xbd1eb4ce	-0.038746648
117	0x3e96ebbb	0.29476723
118	0x3d6b8696	0.057501398
119	0xbe6593df	-0.2241969
120	0x3b273def	0.0025519093
121	0x3cde4113	0.02713064
122	0x3be6812e	0.0070344424
123	0xbe3d95de	-0.18514201
124	0xbd76a251	-0.06021339
125	0xbc963bc7	-0.018339051
126	0x3c95430b	0.018220445
127	0x3beae46c	0.0071683433
128	0x3cd7fa00	0.026364326
129	0x3c176370	0.009240016
130	0xbb7126d0	-0.0036796816
131	0x3d544510	0.051823676
132	0xbe5407aa	-0.20706049
133	0xbcbdd8cf	-0.023174671
134	0xbc9b1ce5	-0.018934676
135	0x3da5ac3e	0.08089493
136	0xbe82cc5b	-0.25546536
137	0xbdca6885	-0.09883217
138	0x3d1afaa3	0.037836682
139	0x3d4c261f	0.049841043
140	0xbe4df0ab	-0.20111339
141	0x3c9e10bc	0.019295089
142	0x3d1f907e	0.038956158
143	0x3bf34fde	0.0074252924
144	0x3dc47ef7	0.09594529
145	0xbd728016	-0.059204184
146	0xbdfdfa22	-0.12401225
147	0xbd61ef3d	-0.055159796
148	0x3cf19ac8	0.02949275
149	0x3cd2c644	0.025729306
150	0x3dcb1083	0.09915259
151	0x3ab67582	0.0013920518
152	0xbda275b8	-0.07932609
153	0xbc58e22b	-0.013237516
154	0xbcb0b222	-0.021569315
155	0x3db27102	0.08712961
156	0xbd35ab98	-0.044353098
157	0xbbaea590	-0.005329795
158	0xbd98509b	-0.07437249
159	0x3c062726	0.008188045
160	0x3d1a4271	0.03766102
161	0xbc04c828	-0.008104362
162	0x3c150a7b	0.009096737
163	0x3c71260d	0.014718545
164	0x3ba04fa7	0.004892308
165	0x3d95f23b	0.073215924
166	0xbdb52ec7	-0.08846813
167	0xbe08a0e2	-0.13342622
168	0xbdde4d94	-0.108546406
169	0x3b4a375a	0.0030855746
170	0xbe753a9e	-0.23948142
171	0xbe289ad3	-0.16465311
172	0xbe287de9	-0.16454281
173	0xbade836f	-0.0016976426
174	0x3cf86732	0.030322645
175	0x3cbcfe93	0.02307061
176	0xbe92c866	-0.28668517
177	0xbd357b14	-0.04430683
178	0x3cbb2ea6	0.022849392
179	0xb9c5e92e	-0.000377485
180	0xbcd7f718	-0.02636294
181	0x3c94d1af	0.018166391
182	0x3d66c9b6	0.05634471
183	0x3b8262e3	0.0039790734
184	0xbdceadf1	-0.100917704
185	0xbeccc98e	-0.39997524
186	0xbc6ccd8c	-0.014453303
187	0xbde7d192	-0.11319269
188	0xbe47d6f4	-0.19515592
189	0x3d90f4b7	0.07077926
190	0x3d258415	0.040409166
191	0x3b122fdd	0.002230636
192	0xbc6aace1	-0.014323444
193	0xbebb550c	-0.36588323
194	0xbd4a5a9d	-0.04940282
195	0x3d7b3222	0.061327107
196	0xbad11dfc	-0.0015954371
197	0xbcccbefa	-0.024993408
198	0xbe2385c2	-0.15968993
199	0x3cb0b92a	0.021572668
200	0xbbd7e774	-0.0065888707
201	0xbd6dc2f5	-0.058047254
202	0xbbb46f93	-0.0055064647
203	0xbbe7a20a	-0.007068877
204	0xbe487a04	-0.19577795
205	0x3d518e08	0.051160842
206	0x3e2edc69	0.17076267
207	0x3dbbf67e	0.09177874
208	0xbca6c49f	-0.020357428
209	0xbd1bac81	-0.03800631
210	0x3cb0863a	0.02154838
211	0x3ccace7c	0.024756663
212	0xbceb7549	-0.02874245
213	0xbcf9b34d	-0.030481005
214	0xbd6bb6c1	-0.057547335
215	0x3d76b248	0.060228616
216	0xbdcc5035	-0.09976236
217	0xbcf6d080	-0.030128717
218	0xbe96b23a	-0.2943285
219	0xbd800536	-0.06250994
220	0x3e9953e4	0.29946816
221	0xbc532d6b	-0.012889246
222	0x3ca7eccd	0.020498658
223	0xbd6eaefa	-0.05827234
224	0x3cf48592	0.029848848
225	0xbcfb9879	-0.030712353
226	0x3c832f64	0.016013809
227	0xbd2fee0c	-0.04295163
228	0x3c997b44	0.018735535
229	0xbbe0eb02	-0.0068639526
230	0x3e117274	0.14203817
231	0xbd396941	-0.045266394
232	0x3dc7fd25	0.0976508
233	0x3d60d8f4	0.054894403
234	0xbe2d9d0a	-0.16954437
235	0xba9f6bef	-0.0012162904
236	0xbd9fc129	-0.07800514
237	0xbe7c5cde	-0.24644801
238	0xbd2a5bae	-0.04159134
239	0xbb953bba	-0.004554239
240	0xbe7f9e82	-0.2496281
241	0x3bcabdc8	0.0061871745
242	0xbcb1087a	-0.021610487
243	0xbd975d74	-0.07390872
244	0x3b30a1f4	0.0026952
245	0xbe81ae22	-0.25328165
246	0xbd4aae6f	-0.04948276
247	0x3cc5df99	0.024154471
248	0xbcef10df	-0.02918285
249	0x3de909f8	0.113788545
250	0x3a946c9b	0.0011323871
251	0x3d0db4a9	0.03459612
252	0xbe043251	-0.12909819
253	0x3c28d6c0	0.010305107
254	0xbd16d627	-0.036825325
255	0xbd8a89a2	-0.067645326

move_mean.bias f4 [2]
0	0x3e493ec1	0.19652845
1	0xbdd82c21	-0.10555292

food_logits.weight f4 [3, 128]
0	0x3d97edf5	0.074184336
1	0xbd44c63a	-0.048040606
2	0x3c33dbc1	0.010977686
3	0xbe30d8da	-0.17270222
4	0xbe73eeed	-0.23821612
5	0x3d9f3635	0.07774011
6	0x3e0de341	0.13856222
7	0xbdfd8173	-0.12378206
8	0xbe1e9487	-0.15486346
9	0xbe2d6079	-0.16931333
10	0xbe40a57c	-0.18813127
11	0xbe158e65	-0.146051
12	0x3c844333	0.016145324
13	0x3cd73054	0.026268162
14	0xbd8c5890	-0.068528295
15	0x3da2d355	0.07950465
16	0xbdc4d6a2	-0.096112505
17	0xbdeb7b80	-0.11498165
18	0xbdc8f350	-0.09812033
19	0x3d5812ea	0.052752413
20	0xbd895152	-0.06704964
21	0x3d61aa92	0.05509431
22	0xbe054e87	-0.13018237
23	0xbe20d56d	-0.15706415
24	0xbe0d7b9b	-0.13816683
25	0x3d890d61	0.06692005
26	0xbdb5f9f0	-0.088855624
27	0xbdae4c23	-0.08510616
28	0x3c8c1968	0.017101958
29	0x3d116fc1	0.035506967
30	0xbdcce66f	-0.10004889
31	0x3e0bfe08	0.13671124
32	0x3d376d42	0.04478193
33	0x3c62ad9a	0.013835335
34	0x3de42a6b	0.11140903
35	0x3c55bd2f	0.013045593
36	0xb9fbfb8a	-0.00048061862
37	0x3dc4930c	0.095983595
38	0xbdb54c46	-0.08852439
39	0xbe49d9f5	-0.1971205
40	0x3df63aa3	0.12022903
41	0xbd99c271	-0.0750779
42	0xbde31e43	-0.11089756
43	0xbdf5de41	-0.12005282
44	0xbd012488	-0.03152898
45	0x3de46e71	0.111538775
46	0xbe673386	-0.22578248
47	0x3caa3e20	0.020781577
48	0x39d0c1a2	0.0003981712
49	0xbe528ecd	-0.20562287
50	0xbdc054b6	-0.09391157
51	0xbc863216	-0.016381305
52	0x3b5a152c	0.003327678
53	0x3d25c4da	0.040470935
54	0x3d8c77a2	0.06858756
55	0x3dd878c2	0.10569908
56	0x3d3da3ba	0.04629872
57	0xbec6f2a3	-0.38856992
58	0xbe27fb3d	-0.16404434
59	0x3db4d9f0	0.08830631
60	0xbe7580eb	-0.2397496
61	0xbd831872	-0.06401147
62	0x3d691ce8	0.056912333
63	0x3d59ec43	0.053203832
64	0x3e0e21f8	0.13880146
65	0x3e050b1a	0.12992516
66	0x3ce687c3	0.028140908
67	0xbe08885b	-0.13333265
68	0x3cdca0d5	0.02693216
69	0xbd80df3b	-0.06292578
70	0x3d747aa5	0.059687275
71	0xbe14a990	-0.14517808
72	0xbe05cf0c	-0.13067263
73	0xbd86f56a	-0.06589778
74	0x3cc4ab6e	0.024007525
75	0x3be535c9	0.006994937
76	0xbc3da1ba	-0.011574203
77	0xbdae0dee	-0.084987506
78	0x3d0744e5	0.033024687
79	0x3cdfaa59	0.027302908
80	0x3d71aaea	0.059000887
81	0xbe0adf42	-0.13561729
82	0x3d9332c4	0.07187417
83	0x3e0c98e6	0.13730201
84	0xbe829e1c	-0.25511253
85	0x3cf3c222	0.029755656
86	0xbda9f81b	-0.082992755
87	0xbe07b390	-0.13252091
88	0xbdde49bd	-0.10853908
89	0x3d1a613b	0.037690382
90	0xbd8c8f91	-0.068633206
91	0x3d79bb23	0.060969483
92	0xbd77909f	-0.060440656
93	0xbc27c766	-0.010240411
94	0x3d3717a7	0.04470029
95	0x3e1958d7	0.14975296
96	0x3d99fa6b	0.075184666
97	0xbdd77989	-0.10521228
98	0x3c0360e9	0.008018711
99	0x3dd4be4c	0.10387859
100	0x3df8db5a	0.12151213
101	0xbe0d3e4c	-0.13793296
102	0xbd6320a8	-0.055451065
103	0x3da429ce	0.08015786
104	0x3cc70da1	0.024298491
105	0x3dc99231	0.09842337
106	0xbe266674	-0.1625002
107	0x3deeb246	0.11655097
108	0xbe1936d6	-0.14962325
109	0xbdd500d6	-0.1040055
110	0x3cb9b8ec	0.022671185
111	0xbd681f6a	-0.056670584
112	0xbcbb685b	-0.022876909
113	0xbde75d52	-0.11297096
114	0x3d6396a3	0.05556358
115	0x3c62f8da	0.013853276
116	0xbda4bdb0	-0.080439925
117	0x3bb778c0	0.0055991113
118	0xbe452cfc	-0.19255441
119	0xbd9bbf4b	-0.076048456
120	0x3cbc48b7	0.022983892
121	0xbdb8ae47	-0.09017616
122	0xbd8e1dfd	-0.069393136
123	0x3dcaca18	0.099018276
124	0xbe51a6df	-0.20473813
125	0x3d7e3d6d	0.0620703
126	0x3e014bcd	0.12626572
127	0xbdc6533e	-0.09683846
128	0xbcacf00e	-0.02111056
129	0xbd0b14fc	-0.03395556
130	0xbd7cc00f	-0.0617066
131	0x3ce91375	0.02845166
132	0x3e1bdb51	0.15220381
133	0x3b0093fe	0.001961946
134	0x3d463d94	0.04839857
135	0x3e063c50	0.13108945
136	0x390ce364	0.0001343615
137	0x3d6b60df	0.05746543
138	0x3e0d18ed	0.1377904
139	0xbcd8c571	-0.026461335
140	0x3e0c8886	0.13723955
141	0x3e147829	0.14498962
142	0x3dae2899	0.08503837
143	0xbdfc6dc9	-0.12325627
144	0x3c90dca1	0.017683329
145	0x3e90e763	0.28301534
146	0x3cdb24ae	0.026750889
147	0xbc3e2e2a	-0.011607686
148	0x3dbc46ec	0.09193215
149	0x3b1ab904	0.0023608813
150	0x3e3de74d	0.18545265
151	0x3d663f14	0.0562125
152	0x3da6c70c	0.08143434
153	0xbd07f8f4	-0.033196405
154	0x3c851455	0.016245047
155	0x3def6098	0.11688346
156	0xbe1b818a	-0.15186134
157	0xbd809b63	-0.06279638
158	0x3e17da30	0.14829326
159	0xbd50a4de	-0.05093848
160	0xbdca4fbc	-0.098784894
161	0xbd1c8bd1	-0.038219277
162	0xbc9c042b	-0.019044956
163	0x3dbc5df3	0.09197607
164	0xbdfb38b2	-0.12266673
165	0x3cf57028	0.029960707
166	0x3debf88b	0.11522015
167	0x3ddf2bb2	0.10897006
168	0xbddb96bb	-0.10722109
169	0x3d68c9ff	0.056833263
170	0x3d8c1b63	0.06841161
171	0x3e0f4d07	0.13994227
172	0x3d136b95	0.03599127
173	0xbdf87c35	-0.121330656
174	0x3e18684b	0.14883535
175	0x3da4a73f	0.08039712
176	0x3d6653a1	0.0562321
177	0x3e38b152	0.18036392
178	0xb997a2c3	-0.0002892223
179	0x3e2679cd	0.16257401
180	0xbbbc3898	-0.005744051
181	0x3cacee1f	0.021109639
182	0x3db52b0c	0.08846101
183	0xbc8dae0b	-0.017294904
184	0xbdcc9de7	-0.09991055
185	0x3ea9a511	0.33133748
186	0x3e513c68	0.204332
187	0xbd6b1606	-0.05739405
188	0x3e9d66a7	0.3074238
189	0x3d76a3b6	0.06021472
190	0x3d228e18	0.039686292
191	0x3d6cf70b	0.057852786
192	0xbd84a8fd	-0.064775445
193	0xbdf8ea53	-0.12154069
194	0x3ce4da90	0.02793625
195	0x3befb82b	0.0073156557
196	0xbc585f50	-0.013206318
197	0x3dca95eb	0.09891876
198	0xbdc85f24	-0.09783772
199	0x3de402f3	0.11133375
200	0x3e071b5e	0.13194034
201	0x3d23c832	0.039985843
202	0x3bb32578	0.005467113
203	0x3dae63c8	0.085151255
204	0xbc9dec9c	-0.019277863
205	0x3dad98be	0.08476399
206	0xbd5e8a24	-0.05433096
207	0xbdc42071	-0.095765
208	0xbcce6250	-0.025193363
209	0x3e12e1af	0.14343904
210	0xbdf3a905	-0.11897472
211	0xbdfd3134	-0.123629004
212	0x3eaf789b	0.34271702
213	0xbd78126a	-0.060564436
214	0x3c389d56	0.011267981
215	0x3d204ca4	0.03913559
216	0x3d492155	0.049104054
217	0x3d06b65b	0.03288875
218	0xbc3dde7f	-0.011588692
219	0xbca9d902	-0.02073336
220	0x3dae4b59	0.08510465
221	0x3cb42d1a	0.021994162
222	0xbe177b17	-0.14793049
223	0xbe1b4378	-0.15162456
224	0xbdbd7b1a	-0.092519954
225	0x3d9b907d	0.07595918
226	0xbc849879	-0.016185986
227	0xbe0632df	-0.13105343
228	0x3bfed191	0.007776447
229	0x3e6500dd	0.2236361
230	0x3cec71e1	0.028862895
231	0xbd1f3f04	-0.038878456
232	0xbc17e931	-0.009271906
233	0xbcfdcc8f	-0.03098133
234	0x3ddf027e	0.10889147
235	0xbc03d3e3	-0.008046123
236	0x3dca0db7	0.09865897
237	0x3de06789	0.10957248
238	0xbddd6367	-0.10809975
239	0x3d0ca203	0.034334194
240	0x3e3b6496	0.18300089
241	0xbc625804	-0.01381493
242	0x3cb723ea	0.022355992
243	0xbbf532ba	-0.0074828537
244	0xbbcce113	-0.006252417
245	0x3debd229	0.11514694
246	0x3e88e78c	0.26739156
247	0x3d2ccf27	0.042189743
248	0x3da3c677	0.079968385
249	0x3db4c610	0.0882684
250	0x3c7adf79	0.015312069
251	0xbd54dd06	-0.051968597
252	0x3dff271c	0.124586314
253	0x3d87a30b	0.06622895
254	0x3cc481f2	0.023987744
255	0x3dd4c1e3	0.103885435

food_logits.bias f4 [3]
0	0xbcf03e41	-0.02932656
1	0x3e05fbb9	0.13084306
2	0xbdead514	-0.11466423

net.0.weight f4 [128, 17]
0	0xbdeb03d5	-0.1147534
1	0xbd8057cc	-0.06266746
2	0x3dc5d49e	0.09659694
3	0x3e759182	0.23981288
4	0x3ece285d	0.4026517
5	0xbeb23fc3	-0.3481427
6	0xbf1dd5b2	-0.616542
7	0x3c75e7a9	0.015008845
8	0xbe8b3ba8	-0.27193952
9	0xbc62df38	-0.013847165
10	0x3d6bfa3a	0.05761168
11	0xbdc73635	-0.09727136
12	0x3e91f9dd	0.28510943
13	0xbd6f0d2f	-0.058362182
14	0xbe00063c	-0.12502378
15	0x3e2284c1	0.15870954
16	0x3d900109	0.070314474
17	0xbd9d4062	-0.07678296
18	0x3de01657	0.10941761
19	0xbea05fb5	-0.3132302
20	0xbf9955dc	-1.1979327
21	0xbe80eaca	-0.2517913
22	0xbc68f83e	-0.014219342
23	0x3e4811d4	0.19538051
24	0x3d4762c2	0.048678167
25	0xbdb38952	-0.08766426
26	0x3e444196	0.19165644
27	0x3cf7ae4a	0.030234475
28	0xbd745585	-0.05965187
29	0xbe4cfe5e	-0.20018908
30	0x3d917e47	0.071041636
31	0x3b820945	0.00396839
32	0x3e32841e	0.17433211
33	0x3ccfb0c4	0.025352843
34	0x3dd3ef3b	0.10348364
35	0xbd8170d9	-0.06320352
36	0xbd751188	-0.059831172
37	0x3fecba50	1.8494358
38	0xbf17f5d8	-0.593595
39	0x3e613f50	0.21996808
40	0xbe7fe75c	-0.249906
41	0xbcf355d4	-0.029704012
42	0xbe4dd51d	-0.20100828
43	0xbc0191b7	-0.007908276
44	0xbd67377b	-0.056449395
45	0x3bb3fe21	0.005492941
46	0xbcb84216	-0.02249245
47	0x3edee566	0.43534392
48	0x3e14b244	0.14521128
49	0xbd4eec31	-0.05051822
50	0x3d98f8d0	0.07469332
51	0x3d899846	0.06718497
52	0xbe8996a6	-0.26872748
53	0xbdf005c8	-0.11719853
54	0xbfef419e	-1.86919
55	0x3de6ab8d	0.112631895
56	0xbd8edcb6	-0.06975691
57	0x3daff63d	0.08591888
58	0xbb1fc34a	-0.0024377876
59	0x3c8ef3a0	0.017450154
60	0x3dc74671	0.097302325
61	0xbcb5ba15	-0.022183457
62	0xbdfc7adf	-0.12328123
63	0xbe3a885c	-0.1821608
64	0xbe0dfe7c	-0.1386661
65	0x3d7eb8eb	0.06218807
66	0xbb76aff6	-0.0037641502
67	0x3ba3e002	0.005001069
68	0xbe15dbf3	-0.14634685
69	0xbd5fb334	-0.05461426
70	0xbd09bb93	-0.03362615
71	0x3faa2eb4	1.3295503
72	0xbfb1035d	-1.3829151
73	0x3e6cf99a	0.2314209
74	0x3f30fcdf	0.6913585
75	0x3e1bf205	0.15229042
76	0xbf434edf	-0.7629222
77	0xbee32b2d	-0.44368878
78	0xbcf00615	-0.029299775
79	0xbead9230	-0.33900595
80	0x3ec96db3	0.39341506
81	0xbd74f09e	-0.059799783
82	0x3f075ef8	0.52879286
83	0xbe41c96a	-0.1892449
84	0x3d908c8b	0.070580564
85	0x3dbd8ba5	0.09255151
86	0x3e504d09	0.20341887
87	0xbe17c8e2	-0.14822724
88	0x3bb80ea7	0.005616981
89	0xbf0e615a	-0.55617297
90	0x3e89841f	0.26858613
91	0x3dab6c1d	0.0837023
92	0xbe28f9f1	-0.16501595
93	0xbe47768e	-0.19478819
94	0x3d3b5656	0.045736633
95	0xbdd8ba8c	-0.10582456
96	0xbd0285a2	-0.031865723
97	0xbba74c3f	-0.005105525
98	0xbd4facc7	-0.050701883
99	0xbdca4a8b	-0.09877499
100	0x3dc2a71b	0.09504529
101	0xbe97b72a	-0.2963193
102	0x3dde1aba	0.108449414
103	0xbc377330	-0.011196896
104	0xbed28b19	-0.41121748
105	0xc023513b	-2.551833
106	0xbe31e8fa	-0.1737403
107	0xbe0479e6	-0.12937126
108	0xbf1d7b3a	-0.61516154
109	0x3ea8c822	0.3296519
110	0xbcf5a7a8	-0.029987171
111	0xbe914f59	-0.2838085
112	0x3daa6cd0	0.083215356
113	0xbe5172f6	-0.2045401
114	0x3e9652c2	0.29360014
115	0xbe97784d	-0.2958397
116	0xbe2db161	-0.16962196
117	0x3e513f93	0.20434408
118	0x3d4cc7e2	0.04999531
119	0x3da7ee70	0.08199775
120	0x3d725d5b	0.059171062
121	0xbe173732	-0.14767149
122	0x3fc4c7ef	1.5373515
123	0xbedeb250	-0.43495417
124	0x3f0f4a16	0.5597242
125	0xbf17077f	-0.58995813
126	0x3e3255c7	0.17415534
127	0x3e2bb471	0.16768052
128	0x3ec2ce1a	0.38047868
129	0x3d93435f	0.071905844
130	0xbe005eaa	-0.12536111
131	0x3e1f0de0	0.15532637
132	0xbd91e4f0	-0.071237445
133	0xbe4d42d0	-0.20045018
134	0xbe01ab91	-0.12663104
135	0x3e6dc37a	0.232191
136	0xbe55e1a2	-0.20886853
137	0xbe0ea23c	-0.13929075
138	0xbe424ff2	-0.18975809
139	0x3d13a133	0.036042403
140	0xbee0d6eb	-0.4391397
141	0x3ea998a0	0.33124256
142	0x3eb754d9	0.3580692
143	0x3ec46509	0.38358334
144	0x3e0a8e64	0.1353088
145	0xbeb6e481	-0.3572121
146	0x3e809a65	0.25117794
147	0xbe30e53a	-0.17274943
148	0x3e910b1b	0.28328785
149	0x3e69f641	0.22847845
150	0xbb72b234	-0.0037032487
151	0xbddadef3	-0.106870554
152	0xbd869a90	-0.06572449
153	0xbdbe122c	-0.0928081
154	0x3df597e9	0.11991865
155	0x3d26e369	0.04074422
156	0x3e8f163f	0.2794666
157	0xbe83b8da	-0.25726968
158	0xbdefbd3e	-0.11706017
159	0xbcb46220	-0.022019446
160	0x3e319709	0.17342772
161	0x3dc7cb8f	0.097556226
162	0x3e5ae8e8	0.21377909
163	0x3bcfe2e0	0.0063441843
164	0xbd46320d	-0.048387576
165	0xbdaf1dde	-0.085506186
166	0x3de50389	0.11182315
167	0x3d90f8f3	0.07078733
168	0x3dff497a	0.124651864
169	0xbd6f98b6	-0.058495246
170	0x3e1d0704	0.15334707
171	0xbe2daab6	-0.16959652
172	0x3d98d87b	0.074631654
173	0xbe8c6cde	-0.2742681
174	0xbf9b6a87	-1.2141885
175	0x3eb993d4	0.36245596
176	0xbeae36eb	-0.34026274
177	0x3e47a48e	0.19496366
178	0x3e094bbe	0.134078
179	0xbc272950	-0.010202721
180	0xbd18e45f	-0.037327167
181	0x3dde7738	0.10862583
182	0x3e26bdf2	0.16283396
183	0x3e773a06	0.24143228
184	0xbe81d834	-0.25360262
185	0x3e713442	0.23555091
186	0x3df4bb0d	0.119497396
187	0x3d174a98	0.036936373
188	0x3d1baf1a	0.038008787
189	0xbdb1c8d8	-0.08680886
190	0x3fcbea95	1.5930964
191	0xbe912df1	-0.28355363
192	0x3ddf7dbf	0.10912656
193	0xbe89caa7	-0.26912424
194	0x3eda5690	0.42644167
195	0xbdc91dc7	-0.09820133
196	0xbe6ec7f1	-0.23318459
197	0xbdb2f6e0	-0.08738494
198	0xbdbec4e3	-0.09314897
199	0xbd6ed5c2	-0.058309324
200	0x3e51933a	0.20466319
201	0xbe57da51	-0.21079375
202	0x3da0ccde	0.07851575
203	0x3d4d3f98	0.050109476
204	0xbd0777cc	-0.03307323
205	0x3e678b61	0.22611763
206	0x3dbd9ede	0.09258817
207	0xbcde0985	-0.027104149
208	0xbf26440d	-0.6494759
209	0xbe43d2f8	-0.19123447
210	0xbd30636c	-0.043063566
211	0x3ce5082f	0.027958004
212	0xbe2ac1e8	-0.16675532
213	0x3ce2cf5f	0.027686773
214	0xbe9bf4af	-0.30460116
215	0xbe0e9813	-0.13925199
216	0xbe29ef64	-0.16595227
217	0xbd24b49d	-0.04021131
218	0x3acb27b9	0.0015499509
219	0x3a8fdad9	0.0010975256
220	0xbd4872ff	-0.048937794
221	0xbdde70cc	-0.10861358
222	0x3b36a4cf	0.002786923
223	0xbd2d64b2	-0.04233236
224	0x3eef9e7c	0.468006
225	0xbf0a9408	-0.5413213
226	0xbd18d1ad	-0.037309337
227	0xbe8ba324	-0.27272904
228	0xbe12d1fc	-0.14337915
229	0xbd9d4526	-0.07679205
230	0xbda0b8fe	-0.078477845
231	0xbcd7be18	-0.026335761
232	0xbd97c804	-0.07411197
233	0x3cfe61cf	0.031052498
234	0x3d9378dd	0.07200787
235	0x3ded3b9b	0.115836345
236	0x3dae7dee	0.08520113
237	0xbcff61d0	-0.03117457
238	0xbc8fe522	-0.017565314
239	0xbc1f1be3	-0.009711239
240	0xbdfbbbf7	-0.12291711
241	0xbe552601	-0.20815279
242	0xbef1e2e9	-0.4724343
243	0x3e73c2ed	0.23804827
244	0xbcb03b21	-0.02151257
245	0x3dc91817	0.09819048
246	0xbe607ad0	-0.21921849
247	0x3df3a37c	0.118964165
248	0xbc645ede	-0.013938634
249	0x3c9efccc	0.019407652
250	0x3c4bc0c9	0.0124361
251	0x3e9134a5	0.28360477
252	0xbe0fd252	-0.14045075
253	0x3e0f989e	0.14023063
254	0x3d31d8b5	0.04341956
255	0xbea02cfb	-0.31284317

net.0.bias f4 [128]
0	0xbe20ff60	-0.15722418
1	0xbeac03d2	-0.33596665
2	0x3d428191	0.047486845
3	0xbe67da34	-0.22641832
4	0xbdd0227c	-0.101628274
5	0xbdc205a5	-0.09473733
6	0xbd1406bd	-0.03613924
7	0xbd851b78	-0.0649938
8	0xbe84758f	-0.2587094
9	0x3cac324e	0.02102008
10	0xbef18403	-0.4717103
11	0xbe93dc9d	-0.28879252
12	0xbe976325	-0.2956783
13	0x3d94281e	0.07234214
14	0xbd0d16dd	-0.034445632
15	0xbe704eb0	-0.23467517
16	0x3da3c036	0.07995646
17	0xbdc1148b	-0.094277464
18	0xbeb796b8	-0.35857177
19	0x3d09897d	0.033578385
20	0xbd69a07a	-0.057037808
21	0xbdf1fccb	-0.118157946
22	0xbde66b38	-0.11250919
23	0xbed6ab4b	-0.4192756
24	0x3de0dd57	0.10979717
25	0xbd909771	-0.07060135
26	0xbf00402f	-0.50097936
27	0xbdd9f6c0	-0.10642767
28	0x3e4d6479	0.20057859
29	0xbd1b5656	-0.037924133
30	0x3d9e0643	0.07716038
31	0xbe90c21c	-0.28273094
32	0x3dc066c4	0.09394601
33	0xbe0df667	-0.13863526
34	0xbf57077b	-0.8399579
35	0xbe92f313	-0.28701076
36	0xbec725a1	-0.38895896
37	0xbedbf2cf	-0.42958686
38	0xbd645285	-0.05574276
39	0x3da5b4d0	0.08091128
40	0xbe18a9b4	-0.14908487
41	0xbc6af6b6	-0.014341047
42	0xbe6ee1b2	-0.23328283
43	0xbe27ee09	-0.16399397
44	0xbf1235c7	-0.5711331
45	0xbdd9e099	-0.10638542
46	0x3e49f3b9	0.19721879
47	0x3cb13397	0.021631045
48	0xbe2af7ec	-0.16696137
49	0xbd9c687b	-0.076371156
50	0xbc08c061	-0.008346648
51	0x3da6982a	0.08134492
52	0xbf1b7c2c	-0.60736346
53	0xbc8cd453	-0.017191088
54	0xbe1c426a	-0.1525971
55	0xbde21032	-0.11038245
56	0xbf10a21b	-0.56497353
57	0x3dc0fa7a	0.094227746
58	0xbf269c01	-0.65081793
59	0xbd374071	-0.04473919
60	0xbd58c212	-0.052919455
61	0x3e18cde9	0.14922298
62	0xbdfb0cda	-0.122583106
63	0xbf113ae9	-0.56730515
64	0xbdec09fc	-0.11525342
65	0xbe822f80	-0.25426865
66	0xbebd74b8	-0.37003112
67	0xbe9763d9	-0.29568365
68	0x3d844afc	0.06459615
69	0xbe77f49c	-0.24214405
70	0xbe68bff9	-0.22729482
71	0xbe700b7c	-0.23441881
72	0xbea7b0f5	-0.32752195
73	0xbe69b0d7	-0.22821365
74	0x3eba872a	0.36431247
75	0xbeef1fd1	-0.46703961
76	0xbe9be90b	-0.30451235
77	0xbecc662a	-0.39921695
78	0xbea068d1	-0.3132997
79	0xbdda2aa9	-0.10652668
80	0xbeaf5eb0	-0.34251928
81	0xbe3f00db	-0.1865267
82	0xbea43fdf	-0.3207998
83	0x3da736cd	0.08164749
84	0xbe9e14d5	-0.3087527
85	0x3e1b7940	0.15182972
86	0xbef86e13	-0.4852148
87	0x3e6c3d90	0.23070359
88	0xbe257ba3	-0.16160445
89	0x3e0dd93b	0.13852398
90	0xbe045071	-0.12921311
91	0x3e0a5bef	0.13511632
92	0xbefe7a53	-0.497027
93	0x3ccae305	0.024766454
94	0xbdcebd93	-0.10094752
95	0xbd652336	-0.055941783
96	0xbed27275	-0.4110295
97	0x3dbc3dcc	0.09191474
98	0xbf165dba	-0.58736765
99	0xbc06b0ec	-0.008220892
100	0xbf084203	-0.53225726
101	0xbe02cdd8	-0.12773836
102	0xbd5f6c4d	-0.054546643
103	0xbf06e18b	-0.526879
104	0xbee458b1	-0.44598916
105	0xbe42bd07	-0.1901742
106	0xbefa646c	-0.4890474
107	0xbd8b5b50	-0.06804526
108	0xbd814734	-0.06312409
109	0xbdd67b1a	-0.104726985
110	0x3d0df6e6	0.03465929
111	0xbe4545b8	-0.19264877
112	0xbe91712b	-0.28406653
113	0xbe277a84	-0.1635533
114	0xbd890637	-0.066906385
115	0xbef4b991	-0.47797826
116	0xbe8c513b	-0.27405724
117	0xbefa39ae	-0.4887213
118	0xbdb0969c	-0.086224765
119	0xbe8e249f	-0.27762315
120	0xbcbc18c0	-0.02296102
121	0xbd9fd407	-0.07804113
122	0xbe5c1144	-0.21490961
123	0xbea54559	-0.3227947
124	0x3e742b78	0.23844707
125	0xbeb3533c	-0.3502444
126	0xbde80a72	-0.11330117
127	0x3dd88b2e	0.105734214
