src/training_logs_ppo/ppo_checkpoint_16_1764200085.pt (torch, 480089 bytes, 42 tensors)

move_logstd f4 [2]
00000000: 37ef 0041 cb0b e940
8.058402 7.2826896

shared.0.weight f4 [128, 17]
00000000: 6510 ca3d a0ad b9bd 2e32 383d d1bf 653d
00000010: 3ef4 10bd e863 8a3e c17f a93d a10d 053d
00000020: 285d ccbe c10e d43d 12b4 303f f4d9 f7bd
00000030: dca6 b33d d140 1d3f 605c b0be d4bc 973d
00000040: 32a6 54bd c151 04be c915 09bd 040b 793e
00000050: a31e a6bd 55d8 40be c049 7dbe 0271 483e
00000060: 574d 56be 12b2 0dbe 5b5d 0c3e e74e 383f
00000070: cb73 823e 7fd7 043f 52d7 02be d864 cbbe
00000080: 7026 793d 9bcf 91bb 05e6 473e 4e45 2d3e
00000090: c3fd ed3e aa6d 18bf 95e6 183d edf1 c93e
000000a0: 8d8e ed3e bee5 443e 6c86 48bf 276d 03be
000000b0: 5e72 3f3f c17d bf3e dbae b93d 97c7 263f
000000c0: 4ae2 6dbe ac75 03bf 55c7 eabe 3fad f6ba
000000d0: 49c5 3bbe 2314 a1be f9c9 17bd 1ee9 d73d
000000e0: ca71 80be c443 1ebe 8177 643d 0d4c e8be
000000f0: 554a 193c c3e9 a53d 37b2 a53c 24ff 1abf
00000100: 35a3 d4be e82e 6b3e b530 803d 5a23 153e
00000110: 6de0 08bd cacc 103e 00a6 243f 9e25 583e
00000120: 9469 2d3e 1798 89bd 2547 40be f1fd 42bf
00000130: 913b 62bd 244d a9be 8ead 9a3f 1e1f 643e
00000140: f56d 793e bf0c cf3e 87d0 4ebf d058 873d
00000150: 9c8e 24be 122a 65be 66a1 20bc 0b41 703e
00000160: 82b1 27bf 81a2 0ebf 8d08 73bd 2c93 8d3e
00000170: 3e34 fbbe 3a68 a33e 3aed 21be 0da4 8c3e
00000180: 290c 003d 331c 71be 1516 443e 394a 08bf
00000190: 1e36 f43e ccec a73e ad32 913d 2122 363d
000001a0: 5ead 07bd 0a27 57be f335 54be 8d58 aa3d
000001b0: 020a c7bd ef0e ccbe 442c 35be 24ba 22be
000001c0: 77de 28be fd4a 79be 05c1 2dbe ea4e 2a3e
000001d0: 028a 1d3d 5e0d 4a3e 273f 8e3e e530 edbd
000001e0: 73cc 9abd ff72 4abe 4ac4 abbe d4e6 eabe
000001f0: 2358 99be 178a b43e 5ba7 1b3f 2451 033e
00000200: 20d1 033f 0f8d b7bd 8fd5 ec3d 624f a4be
00000210: e3af 283d df0e 333e bc0f 0ebe c98b e13d
00000220: 8d46 d3be cecb 90be 3f87 91be 6f4b 54bf
00000230: 9dad 60bf fcbe 2fbe 7efa b6be 9ee5 2bbf
00000240: 6df0 f73e ae4f 2cbe ff5e f6be 32cf 1e3d
00000250: a862 ecbc 8611 863e 72c4 3cbf 77fd 843e
00000260: 8ce8 b63e 7535 a63c 1c38 44be 019d 04bf
00000270: b2e5 1ebf cfc1 b6be f259 e23e 5151 8f3e
00000280: e4ea 05be 7cff 20bd 2901 3e3c 276c 473f
00000290: 0e51 dcbc 23ea f33c 7aba 743f 4544 0fbf
000002a0: 025c 2a3d d030 2e3d c516 d0bd 5791 05be
000002b0: 297e d4bd 1b32 a73e f795 43bb 3a44 b83e
000002c0: 96e6 80be 273a c23c 522a 07be 37a3 013e
000002d0: beb9 f53d 7e91 7bbe 5d78 ed3d e02b 223f
000002e0: a2a8 94bd 1b53 b5be aee3 b8bd 5f63 1cbe
000002f0: 5415 90bd 1c41 d7be fe71 07be 86ad 10bf
00000300: 695c a63e 0df8 4ebb 03ba ec3d 4da5 09be
00000310: 609a 1fbe a5cc 293e 5399 e1bd 92e0 033d
00000320: c226 0d3e 3d48 4fbe 9f57 1a3e 4209 c73c
00000330: ad1b 47be 2805 6fbd 651c 713e f263 523e
00000340: cf75 8fbf 2b51 81be d467 8e3e f46d 7fbe
00000350: 75d2 12bd 5ca0 c43d 3754 2b3e da7c cc3d
00000360: c3fe 8e3d 836f febd 026a 6fbe fd34 833d
00000370: 89d6 3b3e aa51 d0be ea09 65be 7d8c c83e
00000380: deb1 2abf 3219 f5b8 2327 43bf 51ed 8f3e
00000390: be81 07bf 6d56 833f a0e4 25be caa2 abbd
000003a0: d9c2 24be 9c8c 13bd 8fdd e43e f461 38bf
000003b0: d4ad e73e 784c 443f 91d7 ffbb 5764 0c3e
000003c0: d6dd 20be 6502 3c3d 7b85 01bf ebf0 d53e
000003d0: ea31 9d3e 85cb 06bf 617e d73e 24be 4cbe
000003e0: 8acf 473e ce75 1f3e cbed 113e 60d2 353e
000003f0: e2b8 2cbe 180e b83e ba25 663c cfbd 0fbf
0.09866408 -0.090663195 0.04496973 0.056091134 -0.035389178 0.27029347 0.0827632 0.0324837
-0.39914823 0.103543766 0.69024765 -0.12102118 0.0877206 0.61427027 -0.34445477 0.07409063
-0.05191631 -0.12921812 -0.03346804 0.24320608 -0.08111312 -0.18832524 -0.24735165 0.19574359
-0.2092794 -0.1383746 0.13707487 0.71995395 0.25478968 0.5189132 -0.1277745 -0.39725375
0.060827672 -0.0044497973 0.19521339 0.16920969 0.46482667 -0.59542334 0.037329275 0.39442387
0.4639782 0.19228265 -0.7833011 -0.12834607 0.74783885 0.3740063 0.09066554 0.651483
-0.23230854 -0.5135143 -0.45855203 -0.0018819942 -0.18336977 -0.31460676 -0.03705785 0.105425104
-0.25086814 -0.15455538 0.05577803 -0.45370522 0.009356101 0.08101227 0.020226581 -0.60545564
-0.41530767 0.22967112 0.0625929 0.14564267 -0.033417154 0.14140621 0.64315796 0.211081
0.16934806 -0.06718462 -0.1877714 -0.76168734 -0.05523259 -0.33066666 1.2084215 0.22277495
0.24358352 0.40439412 -0.8078694 0.066087365 -0.16070026 -0.2237933 -0.009804105 0.23462312
-0.6550523 -0.5571671 -0.059334327 0.27651346 -0.49063295 0.31915456 -0.15813151 0.2746891
0.031261597 -0.23545913 0.19149049 -0.53238255 0.47697538 0.3279785 0.07089744 0.04446614
-0.03312432 -0.21010986 -0.20723705 0.08317671 -0.09718706 -0.39855143 -0.17692667 -0.1589132
-0.16491114 -0.24345012 -0.16968162 0.16631666 0.038461693 0.19731662 0.27782556 -0.115815915
-0.07558527 -0.1977043 -0.33548194 -0.45879233 -0.29950055 0.35261604 0.6080224 0.12823921
0.51490974 -0.08962452 0.115641706 -0.32091814 0.041183364 0.17486142 -0.1387319 0.1101299
-0.41264763 -0.2828049 -0.28423497 -0.829276 -0.8776491 -0.17162699 -0.35737985 -0.67147243
0.48425618 -0.1682727 -0.4811935 0.038771816 -0.028855637 0.26185244 -0.7373725 0.25974628
0.35724294 0.020289162 -0.19162029 -0.5180207 -0.6206924 -0.3569474 0.44209248 0.27991727
-0.13077885 -0.03930615 0.011596956 0.778994 -0.026894119 0.029774731 0.9559704 -0.55963546
0.04159165 0.04252702 -0.10160593 -0.13043724 -0.10375626 0.32655415 -0.0029844025 0.35989553
-0.25175923 0.02370937 -0.13199738 0.12659918 0.11998318 -0.2456722 0.11595223 0.633482
-0.07258727 -0.35414967 -0.090278015 -0.15272282 -0.07035318 -0.42041862 -0.13227078 -0.56514776
0.32492378 -0.0031580955 0.115589164 -0.13441963 -0.15586233 0.16581972 -0.110155724 0.03219659
0.13784316 -0.202424 0.15072487 0.024296407 -0.19444151 -0.058354527 0.23545988 0.20545939
-1.1207827 -0.2525724 0.2781359 -0.24944288 -0.03584524 0.096008986 0.16731344 0.09984751
0.06982186 -0.12423613 -0.23380283 0.06406591 0.18343557 -0.40687305 -0.22367063 0.39169684
-0.66677654 -0.000116872034 -0.7623159 0.28110746 -0.52932346 1.026075 -0.16200495 -0.08380659
-0.16089953 -0.036022767 0.44700286 -0.72024465 0.45249808 0.7667918 -0.00780768 0.13710152
-0.15709624 0.04590072 -0.505943 0.41785368 0.30702144 -0.52654296 0.42088607 -0.19994408
0.19512764 0.15572283 0.14250867 0.17756033 -0.16867402 0.35948253 0.014047081 -0.56149

shared.0.bias f4 [128]
00000000: 53d8 833e 923a 21bd 4762 873e ec06 7d3d
00000010: 5557 ef3d f520 18be 1a54 e5bd 4bb3 bfbe
00000020: d872 7cbe 4d03 8cbe a8e8 c3bd 2bf4 fcbe
00000030: 918c 13be 519a 39bc 04b4 7ebe 267f 21bb
00000040: 6e54 fd3e 7436 e2bd d98f 083e 7060 683e
00000050: dbc9 f3bb 5213 3fbf f5dc 32be 0341 76bd
00000060: 5c2d 06be 40c9 f4bd ac51 2fbb 0bb7 043d
00000070: 2b25 a63e ad01 e73e a079 b4be 3e7c 903e
00000080: e743 2b3e ff6d 99be a487 c7bd 9f93 523d
00000090: 3ed9 f73d 19e0 abbe 00a1 353e aa4d 8e3e
000000a0: bc7b a63d da91 30bf 2d08 b9bc bcf4 f3be
000000b0: f297 58be cc8a ea3d dda8 673e e52b 08be
000000c0: c988 53be f42c cfbe 8079 09be b3c4 cb3e
000000d0: ebee ec3e 4639 bebd 7e82 e13e 4c63 93bd
000000e0: 8ffd 6dbf 8918 d43d 7b87 babe 64e4 803e
000000f0: 3191 2abe 5951 5bbe 3ea9 94be 67af be3e
00000100: 561d 4a3c 116c 1cbe 675a fbbe f875 a93e
00000110: 63b8 3dbc a89e 143f cdbf 443e 8f89 05bf
00000120: 699f 6bbd 6f84 e9be 1996 3dbe 2aad 66bf
00000130: e5e3 0fbe 7322 093f 8eb7 c2bb 99e8 4ebe
00000140: f4c1 b93c d67e 183e b25a b53d b259 18be
00000150: f574 863e b681 c73e c18a c3be 6822 6ebe
00000160: 3c28 cf3e 2c89 68be 94ee 9fbe 5a5c 2cbe
00000170: d3aa 74be e761 80be ea27 9bbe 6b18 f13e
00000180: 8cc3 bfbe f96e f9bd 2fa3 20bf 97b3 79bd
00000190: 1c49 883e a741 dcbe 0fa4 e7be 282f 943e
000001a0: 337a a4bd f6e3 eebe 50e5 16be f52c d7bd
000001b0: ce78 c2be 6c6e e9be 998d d6be 56d0 46be
000001c0: ad64 08be ab47 a5be 7eaf 913e 19e1 82be
000001d0: 985a 32bb 55eb 9fbd 41c4 50bd c060 093e
000001e0: 9bce 4bbd 75b7 d9bd 6476 3b3e fc98 babd
000001f0: 79dc 87be 090c 50bd f0f5 833c a29e 043f
0.2575098 -0.039362498 0.26442167 0.06177418 0.11686579 -0.14856322 -0.11197682 -0.37441477
-0.24653184 -0.27346268 -0.0956586 -0.49405035 -0.1440909 -0.011328296 -0.24873358 -0.0024642437
0.49478477 -0.11045542 0.13336124 0.22693038 -0.0074398345 -0.74638855 -0.17467101 -0.060120594
-0.1310324 -0.11952448 -0.002675156 0.032401126 0.32450232 0.45118466 -0.35249043 0.2821979
0.16725121 -0.29966733 -0.09742668 0.051410314 0.121019825 -0.3356941 0.17737198 0.27793628
0.08129069 -0.6897255 -0.022586906 -0.47647655 -0.21151713 0.11452255 0.2262301 -0.13297994
-0.20657648 -0.40463984 -0.13425255 0.39798507 0.4627603 -0.09288268 0.4404487 -0.07196674
-0.92965025 0.10356242 -0.36431488 0.25174248 -0.16656949 -0.2141775 -0.29035372 0.37243196
0.012336096 -0.15275599 -0.4909241 0.33097816 -0.011579606 0.5805459 0.19213791 -0.5216302
-0.057525072 -0.4560885 -0.18514289 -0.9010798 -0.14051779 0.5356819 -0.0059422916 -0.20205916
0.022675492 0.14892134 0.088551894 -0.14877966 0.26261106 0.3896615 -0.38191798 -0.23255312
0.40460384 -0.22708577 -0.31236708 -0.16832104 -0.2389329 -0.25074694 -0.3030389 0.47088942
-0.37453878 -0.121793695 -0.62749 -0.060962286 0.26618278 -0.4301884 -0.45242354 0.28942227
-0.0803112 -0.46658295 -0.14735913 -0.10506622 -0.37982792 -0.45592058 -0.41904905 -0.19415411
-0.13319655 -0.3228124 0.28454202 -0.2556236 -0.0027214643 -0.07808558 -0.050968412 0.13415813
-0.04975758 -0.10630695 0.18306881 -0.09111211 -0.26535395 -0.050792728 0.016108483 0.51804554

shared.2.weight f4 [128, 128]
00000000: b4e6 463c 8b5e a8bd d7a3 a9bd 6b89 c2bd
00000010: dc9f 44ba 5583 8dbd d90c 113d 0425 c7bd
00000020: 97ce 973c ba0f a2bd 7724 15be b99b 15be
00000030: 8f40 57bd 20c1 babd 65b7 c3bd cc5a 0fbe
00000040: d269 afbd e6c0 99bd dc05 09bb 25d9 8bbd
00000050: 68aa 9a3c 80d5 9b3b 32f6 23bd 8861 95bd
00000060: d443 e3bd 9a40 ccbd e502 febd 767b d8bc
00000070: ef04 c5bd 375e 89bd f09e c5bd ad04 f839
00000080: 6c04 b8bd 1253 d8bc aa69 a7bd f476 babd
00000090: e9e2 a0bd 6ef0 4f3c bf6f 80bd 3c91 a5bd
000000a0: 8b22 13bd a442 0abe 3155 5d3c eb5f 873d
000000b0: 1181 1c3c 582d 01bd 28e3 b4bd 5e88 423b
000000c0: 0be9 c3bd dea0 71bc b1b4 c03b 020b f3bb
000000d0: ffa5 d3bc 4e35 74bd 85d7 643b 2081 ffbd
000000e0: cd17 01bd e118 15be 6a54 f2bd 18f9 513c
000000f0: 6ede d0bb 4d9e 94bd 3cc2 dcbd 3472 61bc
00000100: ec1e ca3c 6ed0 5abd b008 f5bd 8aa9 36bd
00000110: 2f23 b3bd 76ff edbb 96d2 cabd ef2b abbd
00000120: c1b6 05be 2da3 09be 243c fdbb 5b4d 77bd
00000130: 9e41 dfbd f7e9 00bd bee3 1fbc 2f05 d1bb
00000140: e2df 05be 31dd 01be 3956 0fbe df0f 0dbe
00000150: c5e4 3dbd 1eca 673c 2a9b f7bc f6d8 8fbd
00000160: 6ee2 933c eb54 56bd d05f d4bd 3ad7 4abc
00000170: 8ce8 e6bc c52e 583c ad73 cabc 4a5d d5bd
00000180: 4155 f3bd 0530 95bc 3ea6 ad3c 6145 3f3c
00000190: 5d76 86bd 6ee7 87bd d5dd d1bc 3979 e53c
000001a0: 36d3 13be cb21 e5bd 6a33 d9bd ce4e 9ebd
000001b0: 9925 a2bd 1dc5 2cbd 5b41 bfbd 3d66 50bc
000001c0: f131 253c 8d8d a3bd db83 acbd 2066 d9bd
000001d0: 4edd bbbc 2b75 b2bd 2935 07be fa4e 3fbd
000001e0: 74b4 dcbd 4ede 8bbc 2ed1 65bd 04d4 0dbd
000001f0: efb2 4ebd 4f78 70bd 87e1 8fbd 72a2 3dbd
00000200: bd91 933c 16fe 10be 0522 c3bd 53cf a0bd
00000210: d3c1 ddbd cc71 b8bd a936 bbbd cc15 2b3c
00000220: 0f0f 363c 29dc ed3d 6b23 853d fc12 6bbd
00000230: efa5 03be 8ba8 a8bc 2028 a5bd 0faa 563d
00000240: 135c 943b 5a9c eabd 5209 743c 219c 0d3d
00000250: ac09 37be 8af4 27bd 1580 293d 1370 64bd
00000260: 74cc 373d 8846 e23c 5c0b 5fbd 5ec2 35bd
00000270: ed1f e139 2ac6 16be e706 2d3d 02fc 80bd
00000280: e072 8abb 973c bf3d ac23 8ebd 1e8e 243c
00000290: 3dec d1bc 3c37 003d df8a 06bc 2f3f 3e3c
000002a0: d1d5 063c 5f40 e03b 900d b3bd b78c cf3c
000002b0: fe78 fb3c c07f 573d 99b0 e5bd 4d69 03be
000002c0: 957e 863d 3594 acbd bf53 03be f644 22be
000002d0: 4ccd ea3d 54dd 97bd 0bcf 083b e8d5 be3d
000002e0: 0c16 06be fa53 e8bd 7953 cfba 6769 efbd
000002f0: 3c6c 0fbe fb06 98bd 993f 85bc 6def 51bd
00000300: 698a 9bbd 0a04 0fbe fb96 c939 5306 e7bc
00000310: fe8e 43bd c938 88bd b960 80bd dbe3 f2bd
00000320: 2dfa 40bd a036 96bd 25a7 ab3b 5fa4 6fbd
00000330: 4981 eebd 44bd debd 2dc3 80bd 22df ecbc
00000340: 12f7 79bc d0c0 3ebd 2c8c bbbd d523 d1bd
00000350: dd4b 5e3d 1a49 31be 0fa6 7a3d 3a55 d6bd
00000360: 2127 ab3d bf59 43bd 30f3 16bd 7582 2bbd
00000370: 6114 b83d 2add 32be d347 8a3c f343 18bd
00000380: ba08 c6bc a505 efbd c11e 983c ce80 973d
00000390: d72f a63d 8f53 43bc a108 1f3b d3a1 dabd
000003a0: bef7 bf3c 0fd2 013e 35b5 00be c143 56bd
000003b0: 6590 9abd df5f 1cbe de63 0a3d 837f a6bd
000003c0: 5848 76bd 9da4 133d 178b 0fbd aab5 b4bd
000003d0: 184c 9bbd eb5f e8bd 5529 86bd 550a 11bd
000003e0: d4db 16be a6a2 a53d 325b b13d 0719 9dbd
000003f0: 6786 18bd 2122 1bbe bac4 43be a4ab ce3a
0.012139965 -0.08221158 -0.08283203 -0.09498867 -0.00075006275 -0.06909815 0.035412643 -0.09723857
0.018531127 -0.07913156 -0.14564691 -0.14610185 -0.052551802 -0.09118867 -0.09556464 -0.1399948
-0.085651055 -0.075074956 -0.0020908033 -0.068285264 0.018880084 0.004755676 -0.040029712 -0.07293993
-0.110969216 -0.09973259 -0.12402896 -0.026426058 -0.09620082 -0.06707423 -0.096494555 0.0004730573
-0.089852184 -0.026406799 -0.08174451 -0.0910472 -0.0785578 0.0126916 -0.06271314 -0.08084342
-0.035921615 -0.13501984 0.013509081 0.06610092 0.009552256 -0.031537384 -0.08832389 0.0029683332
-0.09565934 -0.014747826 0.005880915 -0.0074170837 -0.025835989 -0.059621148 0.0034918499 -0.124758005
-0.03151684 -0.14560272 -0.11832507 0.012815736 -0.006374172 -0.07256756 -0.10779235 -0.013760138
0.024672948 -0.05342143 -0.11964548 -0.04459528 -0.08746945 -0.0072631193 -0.09903447 -0.08357989
-0.13057996 -0.13441153 -0.0077281166 -0.060376506 -0.10901187 -0.031473126 -0.009758888 -0.0063787918
-0.13073686 -0.12682034 -0.13997735 -0.13775586 -0.04636075 0.01414731 -0.030225355 -0.07023804
0.018052306 -0.052327078 -0.10369837 -0.012380416 -0.028187059 0.0131947445 -0.024713362 -0.10418184
-0.11881495 -0.018211374 0.021197435 0.011674256 -0.06565545 -0.066359386 -0.025618473 0.028011905
-0.1443604 -0.11188086 -0.106055096 -0.077298746 -0.079173274 -0.04218017 -0.093386374 -0.012719688
0.010082708 -0.07985983 -0.08423587 -0.10615182 -0.022932675 -0.08713754 -0.13203873 -0.046706177
-0.10776606 -0.017073777 -0.056107692 -0.034626022 -0.050463613 -0.058708485 -0.07025438 -0.046297498
0.01801383 -0.14159426 -0.09527973 -0.07852044 -0.10827985 -0.0900608 -0.09141285 0.0104422085
0.011111989 0.11614258 0.06500896 -0.05739115 -0.12856267 -0.02058818 -0.08064294 0.052408274
0.0045275777 -0.11455603 0.0148948 0.034572724 -0.17874783 -0.041004695 0.041381914 -0.055770945
0.044872716 0.027621523 -0.054454193 -0.044374816 0.0004293913 -0.14724031 0.04224291 -0.06298067
-0.00422512 0.093377285 -0.069403976 0.010043649 -0.025625343 0.031302676 -0.00821182 0.011611744
0.008229689 0.006843611 -0.08742821 0.025335653 0.030697342 0.052612066 -0.11215324 -0.12833138
0.06567112 -0.08426706 -0.12824915 -0.15846619 0.114649385 -0.07415262 0.002087536 0.09318143
-0.13094348 -0.11344142 -0.0015817723 -0.11690026 -0.14006132 -0.074232064 -0.016265677 -0.051253725
-0.07594759 -0.13966385 0.00038450197 -0.028201258 -0.04774379 -0.06651456 -0.062684484 -0.11859866
-0.047113586 -0.07334638 0.005238431 -0.058506366 -0.11645753 -0.10875943 -0.06287227 -0.028914992
-0.01525666 -0.0465706 -0.09157595 -0.102119125 0.054271568 -0.17313042 0.061193522 -0.104654744
0.083570726 -0.04769301 -0.036853015 -0.04187246 0.08988262 -0.1746718 0.016879952 -0.037174176
-0.024174083 -0.116709985 0.018569352 0.073976144 0.081145935 -0.011921777 0.0024266618 -0.10675397
0.023433562 0.12677787 -0.12569125 -0.05231071 -0.07547072 -0.15270947 0.033786647 -0.0812979
-0.060127586 0.03604566 -0.035044756 -0.08823712 -0.07582873 -0.1134642 -0.06550852 -0.035410244
-0.14732295 0.08087663 0.08659972 -0.07670789 -0.03723755 -0.15149738 -0.19118014 0.0015767706

shared.2.bias f4 [128]
00000000: b41e c2bb 937f dcbc 6915 ddbd c7a5 d9bc
00000010: 3c75 4c3e 2ab5 60bd 9705 20bc c302 72bb
00000020: 2b11 7c3e 0659 50bb 4507 313d 27e0 75bd
00000030: 7790 cb3d 5897 82bd 5924 c63d 12d3 a7bd
00000040: 97f9 93bd afb5 86bd 4145 54bc 2f18 823d
00000050: a775 26be 935d 95bd 8c04 48be a18e bfbd
00000060: 70c9 0dbe 8f54 993d 96a3 813d 0829 ab3c
00000070: a609 f3bd 1d1c a13c 39b6 dfbd d195 68bd
00000080: 4de7 66bd 19cb 813c 68c3 87bc d9c5 07be
00000090: e535 9e3c 6c49 1fbe 874c 573e 34dc 433e
000000a0: d44c 39bd d7bb 293d 5450 b33d 43bc 5c3e
000000b0: 5747 873e 92fe 60bc 7257 97bd c9c4 0fbe
000000c0: 0903 c33d 9bbc 1fbe 9f86 21be 93f7 16be
000000d0: 281d 603c dc91 dbbc 6a53 0c3c f049 8cbc
000000e0: 0bfc 81bd 3122 003e 9be0 39bd 3433 3b3e
000000f0: 36be 6e3e 2d25 0ebe 9e2d 84bd 73da da3d
00000100: 585d 173c 3cad 8e3e 454f 29bc c7b9 25be
00000110: 2a5e 2ebe d7d4 ad3d 5fd7 3c3e d51e 38bd
00000120: bb41 a9bc 5407 06be 324c 8cbb 6b29 2f3d
00000130: c5a9 a9bd 4d9c 4fbe 522d 1dbe 07f9 32bd
00000140: fc6b 03be 84a5 e73c 3350 a03c 039e 8abe
00000150: e345 0d3e e177 16be c96c 85bd 1894 05be
00000160: a747 c3bd 69a9 d4bd 7e25 453e b040 2a3d
00000170: 44ac fdbd 8626 44bd d37c b03c 0fd3 93be
00000180: 2238 df3d 0d60 abbd a9cf 3abd ff6e aabd
00000190: 65a3 31bd 027a 20be e9b8 6abd 2ef5 3bbd
000001a0: 0509 c13b 4fae c93c bfdc 403e be9d a1bd
000001b0: c4dd 9f3d 41dd 013e ebbe dabd 0f3f abbd
000001c0: f41a 513e 5f5f 2e3d d143 6ebc c78e c1bd
000001d0: 6d29 6b3d bb2b 533e 45b6 56bd a583 193e
000001e0: a7f5 e6bd 75c6 d8bd 97c4 a23b f015 02be
000001f0: cfd3 f9bd f24b 0dbe bb0c 24be 8ccf 37be
-0.0059240703 -0.0269163 -0.10795099 -0.026568307 0.19966596 -0.05486027 -0.009766958 -0.0036927916
0.24615924 -0.0031791343 0.043219823 -0.06002822 0.09939664 -0.06376523 0.096749015 -0.08194555
-0.0722534 -0.06577622 -0.012955965 0.06352269 -0.16255818 -0.072932385 -0.19532984 -0.09353376
-0.13846374 0.074868314 0.0633003 0.020893589 -0.11867075 0.019666726 -0.10923428 -0.0567835
-0.05637293 0.015843915 -0.01657267 -0.13259067 0.019312808 -0.15555352 0.21025287 0.1912697
-0.045239285 0.041438904 0.08755556 0.21556191 0.26421615 -0.013732569 -0.07389726 -0.14039911
0.09522063 -0.15599291 -0.1577401 -0.1474288 0.013678826 -0.02680295 0.008564809 -0.0171251
-0.063469015 0.12513043 -0.045380216 0.18281251 0.23314747 -0.13881369 -0.06454013 0.10686197
0.0092385635 0.27866542 -0.010333841 -0.1618415 -0.17028108 0.084878616 0.18441533 -0.04495128
-0.020661226 -0.13088733 -0.004281544 0.04276411 -0.08284334 -0.20274468 -0.1534932 -0.043694522
-0.12834162 0.028277166 0.019569492 -0.27073678 0.13796191 -0.14694168 -0.0651489 -0.13044775
-0.09535151 -0.10383875 0.19252583 0.041565597 -0.12386373 -0.0478883 0.021543896 -0.28871962
0.10899378 -0.083679296 -0.045608196 -0.08321952 -0.043368716 -0.15671542 -0.05730525 -0.04588812
0.005890968 0.02461925 0.18834208 -0.07891415 0.0780597 0.12682058 -0.10680946 -0.08361637
0.20420438 0.04257142 -0.014542536 -0.09451061 0.057412554 0.2062215 -0.05241992 0.14991625
-0.11277323 -0.10584728 0.004967283 -0.12703681 -0.121986024 -0.13798502 -0.16020481 -0.17950267

move_mean.weight f4 [2, 128]
00000000: 26f5 5a3c 4a74 c03c fdbb e23c f2d4 16bd
00000010: d6f1 9f3e 1208 a3bd 9019 663d 06e8 33be
00000020: ad4d 4f3e 0321 613e ed38 0ebe f566 ccbc
00000030: 7e83 833e c015 c83d 365b 11be 0434 923d
00000040: 4d03 27be 9171 323c 6fe8 813e a921 3dbc
00000050: 7352 1fbe 14b8 41bb f56d 90bd 9ab1 6b3d
00000060: 7500 353d 2c8f 4b3d 50fe ae3c e7fd 96be
00000070: 9690 7abc 881b 123c f7c4 c6bc d095 923d
00000080: bfcf bc3d d45b 00bd 687f a2bd 15ba c33c
00000090: 18aa 2e3a 43e8 e0bd 4322 7b3e 51a3 6b3e
000000a0: 3490 be3b 1b4e 653d 3c68 9f3e 9303 873e
000000b0: 9992 833e 8665 d83c c646 233d 6e5f c23c
000000c0: 456a 783e 0fbc 143d e159 c73d 22f5 343d
000000d0: dbf6 ee3d 6e43 12bd 173f a0be 8118 bc3d
000000e0: 8e6e 273e dbc8 b13e f683 f83d 40cc 703e
000000f0: f062 48be 7f23 943e 9777 9fbd faa6 1a3d
00000100: 4c2a a33c 0053 a93e 35f2 493d 91e0 09be
00000110: a74e 82bd e079 b23c fce1 35be 4ee5 00bc
00000120: f5ce 03bd de1a 80bc dbe0 a0bd d91f e3bc
00000130: b866 81bd 0aca babd f507 cc3d 4f9c 93be
00000140: 2970 07bb bae0 0c3d 62af c0bd 966b 9b3e
00000150: 0cfa 0e3e cf6f 523d 937c 9b3c 8736 d13d
00000160: e3a9 babd f2e1 d13d f7ab 3a3e 25dd 533c
00000170: b4be 5c3e d191 29be 1596 1cbd db40 cb3c
00000180: 2b3b ba3d 9955 ca3c e107 af3d 3149 debc
00000190: c04b 31bc 6897 ca3d 7ff3 f13c 220b 9fbd
000001a0: b2a8 6cbe 4128 84be 25e3 723e 2188 153d
000001b0: f1fd 963d 975d 963e cef8 a83d edb5 2ebd
000001c0: 7dff 8c3e cb47 8cbe 1a7c ba3d 4f23 a33b
000001d0: ceb4 1ebd 48d3 963e 9686 6b3d 3b0c 76be
000001e0: ef3d 273b 1341 de3c 2e81 e63b fe96 3dbe
000001f0: 51a2 76bd 1b5a 8e3c 0b43 953c 6ce4 ea3b
00000200: 00fa d73c 7063 173c d026 71bb 1045 543d
00000210: 8fe1 43be cfd8 bdbc e51c 9bbc 2ff6 ae3d
00000220: 15c0 75be 9f96 d1bd 8009 1d3d 1f26 4c3d
00000230: 507e 3dbe bc10 9e3c ac78 463d de4f f33b
00000240: 637f c43d 1680 72bd da2c e7bd f53b 31bd
00000250: 509b f13c 44c6 d23c 8310 cb3d 8275 b63a
00000260: b875 a2bd 2be2 58bc 5af1 ddbc fdde de3d
00000270: 07b8 2dbd 1b68 b6bb 9b50 98bd 2627 063c
00000280: 7142 1a3d 28c8 04bc 7b0a 153c 0d26 713c
00000290: ed49 cb3b 3bf2 953d fbb6 99bd adf6 fcbd
000002a0: 0a5c e7bd 88a2 4a3a 61d3 6cbe 14c6 19be
000002b0: 17a2 1abe 6f83 deba a2ef 193d 93fe bc3c
000002c0: 8253 8cbe 147b 35bd a62e bb3c 2ee9 c5b9
000002d0: 18f7 d7bc afd1 943c e9f2 783d e362 823b
000002e0: 449b b6bd 7e6b c4be 8346 49ba 69b8 cebd
000002f0: 6ee8 5ebe be9e 933d 6a3d ba3c ce26 0dbb
00000300: e1ac 6abc 3710 b3be 9d5a 4abd 5532 7b3d
00000310: fc1d d1ba c333 99bc 5a8b 29be 2ab9 b03c
00000320: 74e7 d7bb 2c2e 6dbd 936f b4bb 921c 09bc
00000330: 047a 48be 088e 513d 69dc 2e3e 2f91 c03d
00000340: 9fc4 a6bc 81ac 1bbd 3a86 b03c 4a21 0f3d
00000350: 2f9e e0bc 4db3 f9bc 19b7 6bbd 48b2 763d
00000360: 3550 ccbd 80d0 f6bc e9ef 8ebe 3605 80bd
00000370: e453 993e 3c09 d6bc f28a 153d faae 6ebd
00000380: b3d4 fb3c 7998 fbbc 642f 833c 0cee 2fbd
00000390: 447b 993c 02eb e0bb 7472 113e 4169 39bd
000003a0: 7bfd d23d 8b36 763d 9098 1fbe 5c43 913a
000003b0: f7e3 abbd 58d1 6dbe ae5b 2abd cb77 91bb
000003c0: 4e11 75be c4c4 463c 7a08 b1bc 745d 97bd
000003d0: f4a1 303b 527c 81be 6fae 4abd d2d8 d13c
000003e0: df10 efbc f809 e93d 9b6c 943a 68c4 0d3d
000003f0: 5132 04be 656f dd3b 27d6 16bd a289 8abd
0.013364112 0.023492951 0.02767753 -0.036824174 0.31239194 -0.07960524 0.056176722 -0.17568979
0.20244475 0.21985249 -0.13888903 -0.024951437 0.25686258 0.097697735 -0.1419495 0.071388274
-0.16309853 0.010891334 0.25372645 -0.01154367 -0.15558796 -0.0029559182 -0.07052223 0.05754242
0.04418989 0.049697086 0.0213615 -0.29490587 -0.015293261 0.008917697 -0.024263842 0.07157481
0.09219312 -0.031337574 -0.07934457 0.023892442 0.0006662919 -0.109818004 0.24524789 0.23011519
0.00581553 0.05598269 0.31134212 0.26369914 0.25697783 0.026415598 0.039862417 0.023727145
0.24259289 0.03631216 0.0973394 0.04417909 0.11668178 -0.035708837 -0.31298134 0.09184361
0.16350767 0.34723553 0.121345446 0.23515415 -0.19568992 0.2893333 -0.07786482 0.037756898
0.01991763 0.33071136 0.049303252 -0.13464572 -0.06362658 0.02178663 -0.17761987 -0.0078671705
-0.03217979 -0.015637811 -0.07855388 -0.027725147 -0.0631842 -0.09120567 0.09962455 -0.28830191
-0.0020666218 0.034394003 -0.094084516 0.3035552 0.13962573 0.05137616 0.0189803 0.102154784
-0.091144346 0.10248174 0.18229662 0.012931143 0.21557122 -0.16559531 -0.038229067 0.024811199
0.09093317 0.02469902 0.08546425 -0.02713451 -0.010821283 0.0989216 0.029535053 -0.07765795
-0.23111227 -0.2581196 0.23719461 0.036506776 0.07372654 0.29368278 0.08250581 -0.042653967
0.27538672 -0.27398524 0.09105702 0.0049785743 -0.038746648 0.2945807 0.057501398 -0.24028103
0.0025519093 0.02713064 0.0070344424 -0.1851463 -0.06021339 0.01737695 0.018220445 0.0071683433
0.026364326 0.009240016 -0.0036796816 0.051823676 -0.19129013 -0.023174671 -0.018934676 0.085430495
-0.23999055 -0.10233807 0.038339138 0.049841043 -0.18505216 0.019295089 0.048454925 0.0074252924
0.095946096 -0.059204184 -0.11287852 -0.04327007 0.029493004 0.025729306 0.09915259 0.0013920518
-0.07932609 -0.013237516 -0.027092624 0.108823754 -0.04241183 -0.0055666096 -0.07437249 0.008188045
0.03766102 -0.008104362 0.009096737 0.014718545 0.006203881 0.073215924 -0.07505604 -0.12351737
-0.11296852 0.00077299075 -0.2312751 -0.15016967 -0.15100895 -0.0016976426 0.037582047 0.02307061
-0.2740746 -0.04430683 0.022849392 -0.000377485 -0.02636294 0.018166391 0.060778532 0.0039790734
-0.08916333 -0.3836326 -0.00076780486 -0.10093767 -0.21768352 0.07208012 0.022734363 -0.0021538022
-0.014323444 -0.34973308 -0.04940282 0.061327297 -0.0015954371 -0.01870144 -0.16557065 0.021572668
-0.0065888707 -0.05790536 -0.0055064647 -0.008368628 -0.19577795 0.051160842 0.17076267 0.094026916
-0.020357428 -0.03800631 0.02154838 0.034943856 -0.027419178 -0.030481005 -0.057547662 0.060228616
-0.09976236 -0.030128717 -0.27917412 -0.06250994 0.29946816 -0.02612745 0.03650946 -0.05827234
0.030741071 -0.030712353 0.016013809 -0.04295163 0.018735535 -0.0068639526 0.14203817 -0.045266394
0.10302254 0.06011061 -0.15585542 0.0011082697 -0.0839309 -0.2322439 -0.04159134 -0.0044393293
-0.23932382 0.0121318735 -0.021610487 -0.07390872 0.0026952 -0.2529016 -0.04948276 0.025616083
-0.02918285 0.113788545 0.0011323871 0.034611136 -0.12909819 0.006757664 -0.036825325 -0.067645326

move_mean.bias f4 [2]
00000000: 68f4 483e f3c8 f0bd
0.19624484 -0.11757078

food_logits.weight f4 [3, 128]
00000000: f5ed 973d 3ac6 44bd c1db 333c dad8 30be
00000010: edee 73be 3536 9f3d 41e3 0d3e 7381 fdbd
00000020: 8794 1ebe 7960 2dbe 7ca5 40be 658e 15be
00000030: 3343 843c 5430 d73c 9058 8cbd 55d3 a23d
00000040: a2d6 c4bd 807b ebbd 50f3 c8bd ea12 583d
00000050: 5251 89bd 92aa 613d 874e 05be 6dd5 20be
00000060: 9b7b 0dbe 610d 893d f0f9 b5bd 234c aebd
00000070: 6819 8c3c c16f 113d 6fe6 ccbd 08fe 0b3e
00000080: 426d 373d 9aad 623c 6b2a e43d 2fbd 553c
00000090: 8afb fbb9 0c93 c43d 464c b5bd f5d9 49be
000000a0: a33a f63d 71c2 99bd 431e e3bd 41de f5bd
000000b0: 8824 01bd 716e e43d 8633 67be 203e aa3c
000000c0: a2c1 d039 cd8e 52be b654 c0bd 1632 86bc
000000d0: 2c15 5a3b dac4 253d a277 8c3d c278 d83d
000000e0: baa3 3d3d a3f2 c6be 3dfb 27be f0d9 b43d
000000f0: eb80 75be 7218 83bd e81c 693d 43ec 593d
00000100: f821 0e3e 1a0b 053e c387 e63c 5b88 08be
00000110: d5a0 dc3c 3bdf 80bd a57a 743d 90a9 14be
00000120: 0ccf 05be 6af5 86bd 6eab c43c c935 e53b
00000130: baa1 3dbc ee0d aebd e544 073d 59aa df3c
00000140: eaaa 713d 42df 0abe c432 933d e698 0c3e
00000150: 1c9e 82be 22c2 f33c 1bf8 a9bd 90b3 07be
00000160: bd49 debd 3b61 1a3d 918f 8cbd 23bb 793d
00000170: 9f90 77bd 66c7 27bc a717 373d d758 193e
00000180: 6bfa 993d 8979 d7bd e960 033c 4cbe d43d
00000190: 5adb f83d 4c3e 0dbe a820 63bd ce29 a43d
000001a0: a10d c73c 3192 c93d 7466 26be 46b2 ee3d
000001b0: d636 19be d600 d5bd ecb8 b93c 6a1f 68bd
000001c0: 5b68 bbbc 525d e7bd a396 633d daf8 623c
000001d0: b0bd a4bd c078 b73b fc2c 45be 4bbf 9bbd
000001e0: b748 bc3c 47ae b8bd fd1d 8ebd 18ca ca3d
000001f0: dfa6 51be 6d3d 7e3d cd4b 013e 3e53 c6bd
00000200: 0ef0 acbc fc14 0bbd 0fc0 7cbd 7513 e93c
00000210: 51db 1b3e fe93 003b 943d 463d 503c 063e
00000220: 64e3 0c39 df60 6b3d ed18 0d3e 71c5 d8bc
00000230: 8688 0c3e 2978 143e 9928 ae3d c96d fcbd
00000240: a1dc 903c 63e7 903e ae24 db3c 2a2e 3ebc
00000250: ec46 bc3d 04b9 1a3b 4de7 3d3e 143f 663d
00000260: 0cc7 a63d f4f8 07bd 5514 853c 9860 ef3d
00000270: 8a81 1bbe 639b 80bd 30da 173e dea4 50bd
00000280: bc4f cabd d18b 1cbd 2b04 9cbc f35d bc3d
00000290: b238 fbbd 2870 f53c 8bf8 eb3d b22b df3d
000002a0: bb96 dbbd ffc9 683d 631b 8c3d 074d 0f3e
000002b0: 956b 133d 357c f8bd 4b68 183e 3fa7 a43d
000002c0: a153 663d 52b1 383e c3a2 97b9 cd79 263e
000002d0: 9838 bcbb 1fee ac3c 0c2b b53d 0bae 8dbc
000002e0: e79d ccbd 11a5 a93e 683c 513e 0616 6bbd
000002f0: a766 9d3e b6a3 763d 188e 223d 0bf7 6c3d
00000300: fda8 84bd 53ea f8bd 90da e43c 2bb8 ef3b
00000310: 505f 58bc eb95 ca3d 245f c8bd f302 e43d
00000320: 5e1b 073e 32c8 233d 7825 b33b c863 ae3d
00000330: 9cec 9dbc be98 ad3d 248a 5ebd 7120 c4bd
00000340: 5062 cebc afe1 123e 05a9 f3bd 3431 fdbd
00000350: 9b78 af3e 6a12 78bd 569d 383c a44c 203d
00000360: 5521 493d 5bb6 063d 7fde 3dbc 02d9 a9bc
00000370: 594b ae3d 1a2d b43c 177b 17be 7843 1bbe
00000380: 1a7b bdbd 7d90 9b3d 7998 84bc df32 06be
00000390: 91d1 fe3b dd00 653e e171 ec3c 043f 1fbd
000003a0: 31e9 17bc 8fcc fdbc 7e02 df3d e3d3 03bc
000003b0: b70d ca3d 8967 e03d 6763 ddbd 03a2 0c3d
000003c0: 9664 3b3e 0458 62bc ea23 b73c ba32 f5bb
000003d0: 13e1 ccbb 29d2 eb3d 8ce7 883e 27cf 2c3d
000003e0: 77c6 a33d 10c6 b43d 79df 7a3c 06dd 54bd
000003f0: 1c27 ff3d 0ba3 873d f281 c43c e3c1 d43d
0.074184336 -0.048040606 0.010977686 -0.17270222 -0.23821612 0.07774011 0.13856222 -0.12378206
-0.15486346 -0.16931333 -0.18813127 -0.146051 0.016145324 0.026268162 -0.068528295 0.07950465
-0.096112505 -0.11498165 -0.09812033 0.052752413 -0.06704964 0.05509431 -0.13018237 -0.15706415
-0.13816683 0.06692005 -0.088855624 -0.08510616 0.017101958 0.035506967 -0.10004889 0.13671124
0.04478193 0.013835335 0.11140903 0.013045593 -0.00048061862 0.095983595 -0.08852439 -0.1971205
0.12022903 -0.0750779 -0.11089756 -0.12005282 -0.03152898 0.111538775 -0.22578248 0.020781577
0.0003981712 -0.20562287 -0.09391157 -0.016381305 0.003327678 0.040470935 0.06858756 0.10569908
0.04629872 -0.38856992 -0.16404434 0.08830631 -0.2397496 -0.06401147 0.056912333 0.053203832
0.13880146 0.12992516 0.028140908 -0.13333265 0.02693216 -0.06292578 0.059687275 -0.14517808
-0.13067263 -0.06589778 0.024007525 0.006994937 -0.011574203 -0.084987506 0.033024687 0.027302908
0.059000887 -0.13561729 0.07187417 0.13730201 -0.25511253 0.029755656 -0.082992755 -0.13252091
-0.10853908 0.037690382 -0.068633206 0.060969483 -0.060440656 -0.010240411 0.04470029 0.14975296
0.075184666 -0.10521228 0.008018711 0.10387859 0.12151213 -0.13793296 -0.055451065 0.08015786
0.024298491 0.09842337 -0.1625002 0.11655097 -0.14962325 -0.1040055 0.022671185 -0.056670584
-0.022876909 -0.11297096 0.05556358 0.013853276 -0.080439925 0.0055991113 -0.19255441 -0.076048456
0.022983892 -0.09017616 -0.069393136 0.099018276 -0.20473813 0.0620703 0.12626572 -0.09683846
-0.02111056 -0.03395556 -0.0617066 0.02845166 0.15220381 0.001961946 0.04839857 0.13108945
0.0001343615 0.05746543 0.1377904 -0.026461335 0.13723955 0.14498962 0.08503837 -0.12325627
0.017683329 0.28301534 0.026750889 -0.011607686 0.09193215 0.0023608813 0.18545265 0.0562125
0.08143434 -0.033196405 0.016245047 0.11688346 -0.15186134 -0.06279638 0.14829326 -0.05093848
-0.098784894 -0.038219277 -0.019044956 0.09197607 -0.12266673 0.029960707 0.11522015 0.10897006
-0.10722109 0.056833263 0.06841161 0.13994227 0.03599127 -0.121330656 0.14883535 0.08039712
0.0562321 0.18036392 -0.0002892223 0.16257401 -0.005744051 0.021109639 0.08846101 -0.017294904
-0.09991055 0.33133748 0.204332 -0.05739405 0.3074238 0.06021472 0.039686292 0.057852786
-0.064775445 -0.12154069 0.02793625 0.0073156557 -0.013206318 0.09891876 -0.09783772 0.11133375
0.13194034 0.039985843 0.005467113 0.085151255 -0.019277863 0.08476399 -0.05433096 -0.095765
-0.025193363 0.14343904 -0.11897472 -0.123629004 0.34271702 -0.060564436 0.011267981 0.03913559
0.049104054 0.03288875 -0.011588692 -0.02073336 0.08510465 0.021994162 -0.14793049 -0.15162456
-0.092519954 0.07595918 -0.016185986 -0.13105343 0.007776447 0.2236361 0.028862895 -0.038878456
-0.009271906 -0.03098133 0.10889147 -0.008046123 0.09865897 0.10957248 -0.10809975 0.034334194
0.18300089 -0.01381493 0.022355992 -0.0074828537 -0.006252417 0.11514694 0.26739156 0.042189743
0.079968385 0.0882684 0.015312069 -0.051968597 0.124586314 0.06622895 0.023987744 0.103885435

food_logits.bias f4 [3]
00000000: 413e f0bc b9fb 053e 14d5 eabd
-0.02932656 0.13084306 -0.11466423

net.0.weight f4 [128, 17]
00000000: d503 ebbd cc57 80bd 9ed4 c53d 8291 753e
00000010: 5d28 ce3e c33f b2be b2d5 1dbf a9e7 753c
00000020: a83b 8bbe 38df 62bc 3afa 6b3d 3536 c7bd
00000030: ddf9 913e 2f0d 6fbd 3c06 00be c184 223e
00000040: 0901 903d 6240 9dbd 5716 e03d b55f a0be
00000050: dc55 99bf caea 80be 3ef8 68bc d411 483e
00000060: c262 473d 5289 b3bd 9641 443e 4aae f73c
00000070: 8555 74bd 5efe 4cbe 477e 913d 4509 823b
00000080: 1e84 323e c4b0 cf3c 3bef d33d d970 81bd
00000090: 8811 75bd 50ba ec3f d8f5 17bf 503f 613e
000000a0: 5ce7 7fbe d455 f3bc 1dd5 4dbe b791 01bc
000000b0: 7b37 67bd 21fe b33b 1642 b8bc 66e5 de3e
000000c0: 44b2 143e 31ec 4ebd d0f8 983d 4698 893d
000000d0: a696 89be c805 f0bd 9e41 efbf 8dab e63d
000000e0: b6dc 8ebd 3df6 af3d 4ac3 1fbb a0f3 8e3c
000000f0: 7146 c73d 15ba b5bc df7a fcbd 5c88 3abe
00000100: 7cfe 0dbe ebb8 7e3d f6af 76bb 02e0 a33b
00000110: f3db 15be 34b3 5fbd 93bb 09bd b42e aa3f
00000120: 5d03 b1bf 9af9 6c3e dffc 303f 05f2 1b3e
00000130: df4e 43bf 2d2b e3be 1506 f0bc 3092 adbe
00000140: b36d c93e 9ef0 74bd f85e 073f 6ac9 41be
00000150: 8b8c 903d a58b bd3d 094d 503e e2c8 17be
00000160: a70e b83b 5a61 0ebf 1f84 893e 1d6c ab3d
00000170: f1f9 28be 8e76 47be 5656 3b3d 8cba d8bd
00000180: a285 02bd 3f4c a7bb c7ac 4fbd 8b4a cabd
00000190: 1ba7 c23d 2ab7 97be ba1a de3d 3073 37bc
000001a0: 198b d2be 3b51 23c0 fae8 31be e679 04be
000001b0: 3a7b 1dbf 22c8 a83e a8a7 f5bc 594f 91be
000001c0: d06c aa3d f672 51be c252 963e 4d78 97be
000001d0: 61b1 2dbe 933f 513e e2c7 4c3d 70ee a73d
000001e0: 5b5d 723d 3237 17be efc7 c43f 50b2 debe
000001f0: 164a 0f3f 7f07 17bf c755 323e 71b4 2b3e
00000200: 1ace c23e 5f43 933d aa5e 00be e00d 1f3e
00000210: f0e4 91bd d042 4dbe 91ab 01be 7ac3 6d3e
00000220: a2e1 55be 3ca2 0ebe f24f 42be 33a1 133d
00000230: ebd6 e0be a098 a93e d954 b73e 0965 c43e
00000240: 648e 0a3e 81e4 b6be 659a 803e 3ae5 30be
00000250: 1b0b 913e 41f6 693e 34b2 72bb f3de dabd
00000260: 909a 86bd 2c12 bebd e997 f53d 69e3 263d
00000270: 3f16 8f3e dab8 83be 3ebd efbd 2062 b4bc
00000280: 0997 313e 8fcb c73d e8e8 5a3e e0e2 cf3b
00000290: 0d32 46bd de1d afbd 8903 e53d f3f8 903d
000002a0: 7a49 ff3d b698 6fbd 0407 1d3e b6aa 2dbe
000002b0: 7bd8 983d de6c 8cbe 876a 9bbf d493 b93e
000002c0: eb36 aebe 8ea4 473e be4b 093e 5029 27bc
000002d0: 5fe4 18bd 3877 de3d f2bd 263e 063a 773e
000002e0: 34d8 81be 4234 713e 0dbb f43d 984a 173d
000002f0: 1aaf 1b3d d8c8 b1bd 95ea cb3f f12d 91be
00000300: bf7d df3d a7ca 89be 9056 da3e c71d c9bd
00000310: f1c7 6ebe e0f6 b2bd e3c4 bebd c2d5 6ebd
00000320: 3a93 513e 51da 57be decc a03d 983f 4d3d
00000330: cc77 07bd 618b 673e de9e bd3d 8509 debc
00000340: 0d44 26bf f8d2 43be 6c63 30bd 2f08 e53c
00000350: e8c1 2abe 5fcf e23c aff4 9bbe 1398 0ebe
00000360: 64ef 29be 9db4 24bd b927 cb3a d9da 8f3a
00000370: ff72 48bd cc70 debd cfa4 363b b264 2dbd
00000380: 7c9e ef3e 0894 0abf add1 18bd 24a3 8bbe
00000390: fcd1 12be 2645 9dbd feb8 a0bd 18be d7bc
000003a0: 04c8 97bd cf61 fe3c dd78 933d 9b3b ed3d
000003b0: ee7d ae3d d061 ffbc 22e5 8fbc e31b 1fbc
000003c0: f7bb fbbd 0126 55be e9e2 f1be edc2 733e
000003d0: 213b b0bc 1718 c93d d07a 60be 7ca3 f33d
000003e0: de5e 64bc ccfc 9e3c c9c0 4b3c a534 913e
000003f0: 52d2 0fbe 9e98 0f3e b5d8 313d fb2c a0be
-0.1147534 -0.06266746 0.09659694 0.23981288 0.4026517 -0.3481427 -0.616542 0.015008845
-0.27193952 -0.013847165 0.05761168 -0.09727136 0.28510943 -0.058362182 -0.12502378 0.15870954
0.070314474 -0.07678296 0.10941761 -0.3132302 -1.1979327 -0.2517913 -0.014219342 0.19538051
0.048678167 -0.08766426 0.19165644 0.030234475 -0.05965187 -0.20018908 0.071041636 0.00396839
0.17433211 0.025352843 0.10348364 -0.06320352 -0.059831172 1.8494358 -0.593595 0.21996808
-0.249906 -0.029704012 -0.20100828 -0.007908276 -0.056449395 0.005492941 -0.02249245 0.43534392
0.14521128 -0.05051822 0.07469332 0.06718497 -0.26872748 -0.11719853 -1.86919 0.112631895
-0.06975691 0.08591888 -0.0024377876 0.017450154 0.097302325 -0.022183457 -0.12328123 -0.1821608
-0.1386661 0.06218807 -0.0037641502 0.005001069 -0.14634685 -0.05461426 -0.03362615 1.3295503
-1.3829151 0.2314209 0.6913585 0.15229042 -0.7629222 -0.44368878 -0.029299775 -0.33900595
0.39341506 -0.059799783 0.52879286 -0.1892449 0.070580564 0.09255151 0.20341887 -0.14822724
0.005616981 -0.55617297 0.26858613 0.0837023 -0.16501595 -0.19478819 0.045736633 -0.10582456
-0.031865723 -0.005105525 -0.050701883 -0.09877499 0.09504529 -0.2963193 0.108449414 -0.011196896
-0.41121748 -2.551833 -0.1737403 -0.12937126 -0.61516154 0.3296519 -0.029987171 -0.2838085
0.083215356 -0.2045401 0.29360014 -0.2958397 -0.16962196 0.20434408 0.04999531 0.08199775
0.059171062 -0.14767149 1.5373515 -0.43495417 0.5597242 -0.58995813 0.17415534 0.16768052
0.38047868 0.071905844 -0.12536111 0.15532637 -0.071237445 -0.20045018 -0.12663104 0.232191
-0.20886853 -0.13929075 -0.18975809 0.036042403 -0.4391397 0.33124256 0.3580692 0.38358334
0.1353088 -0.3572121 0.25117794 -0.17274943 0.28328785 0.22847845 -0.0037032487 -0.106870554
-0.06572449 -0.0928081 0.11991865 0.04074422 0.2794666 -0.25726968 -0.11706017 -0.022019446
0.17342772 0.097556226 0.21377909 0.0063441843 -0.048387576 -0.085506186 0.11182315 0.07078733
0.124651864 -0.058495246 0.15334707 -0.16959652 0.074631654 -0.2742681 -1.2141885 0.36245596
-0.34026274 0.19496366 0.134078 -0.010202721 -0.037327167 0.10862583 0.16283396 0.24143228
-0.25360262 0.23555091 0.119497396 0.036936373 0.038008787 -0.08680886 1.5930964 -0.28355363
0.10912656 -0.26912424 0.42644167 -0.09820133 -0.23318459 -0.08738494 -0.09314897 -0.058309324
0.20466319 -0.21079375 0.07851575 0.050109476 -0.03307323 0.22611763 0.09258817 -0.027104149
-0.6494759 -0.19123447 -0.043063566 0.027958004 -0.16675532 0.027686773 -0.30460116 -0.13925199
-0.16595227 -0.04021131 0.0015499509 0.0010975256 -0.048937794 -0.10861358 0.002786923 -0.04233236
0.468006 -0.5413213 -0.037309337 -0.27272904 -0.14337915 -0.07679205 -0.078477845 -0.026335761
-0.07411197 0.031052498 0.07200787 0.115836345 0.08520113 -0.03117457 -0.017565314 -0.009711239
-0.12291711 -0.20815279 -0.4724343 0.23804827 -0.02151257 0.09819048 -0.21921849 0.118964165
-0.013938634 0.019407652 0.0124361 0.28360477 -0.14045075 0.14023063 0.04341956 -0.31284317

net.0.bias f4 [128]
00000000: 60ff 20be d203 acbe 9181 423d 34da 67be
00000010: 7c22 d0bd a505 c2bd bd06 14bd 781b 85bd
00000020: 8f75 84be 4e32 ac3c 0384 f1be 9ddc 93be
00000030: 2563 97be 1e28 943d dd16 0dbd b04e 70be
00000040: 36c0 a33d 8b14 c1bd b896 b7be 7d89 093d
00000050: 7aa0 69bd cbfc f1bd 386b e6bd 4bab d6be
00000060: 57dd e03d 7197 90bd 2f40 00bf c0f6 d9bd
00000070: 7964 4d3e 5656 1bbd 4306 9e3d 1cc2 90be
00000080: c466 c03d 67f6 0dbe 7b07 57bf 13f3 92be
00000090: a125 c7be cff2 dbbe 8552 64bd d0b4 a53d
000000a0: b4a9 18be b6f6 6abc b2e1 6ebe 09ee 27be
000000b0: c735 12bf 99e0 d9bd b9f3 493e 9733 b13c
000000c0: ecf7 2abe 7b68 9cbd 61c0 08bc 2a98 a63d
000000d0: 2c7c 1bbf 53d4 8cbc 6a42 1cbe 3210 e2bd
000000e0: 1ba2 10bf 7afa c03d 019c 26bf 7140 37bd
000000f0: 12c2 58bd e9cd 183e da0c fbbd e93a 11bf
00000100: fc09 ecbd 802f 82be b874 bdbe d963 97be
00000110: fc4a 843d 9cf4 77be f9bf 68be 7c0b 70be
00000120: f5b0 a7be d7b0 69be 2a87 ba3e d11f efbe
00000130: 0be9 9bbe 2a66 ccbe d168 a0be a92a dabd
00000140: b05e afbe db00 3fbe df3f a4be cd36 a73d
00000150: d514 9ebe 4079 1b3e 136e f8be 903d 6c3e
00000160: a37b 25be 3bd9 0d3e 7150 04be ef5b 0a3e
00000170: 537a febe 05e3 ca3c 93bd cebd 3623 65bd
00000180: 7572 d2be cc3d bc3d ba5d 16bf ecb0 06bc
00000190: 0342 08bf d8cd 02be 4d6c 5fbd 8be1 06bf
000001a0: b158 e4be 07bd 42be 6c64 fabe 505b 8bbd
000001b0: 3447 81bd 1a7b d6bd e6f6 0d3d b845 45be
000001c0: 2b71 91be 847a 27be 3706 89bd 91b9 f4be
000001d0: 3b51 8cbe ae39 fabe 9c96 b0bd 9f24 8ebe
000001e0: c018 bcbc 07d4 9fbd 4411 5cbe 5945 a5be
000001f0: 782b 743e 3c53 b3be 720a e8bd 2e8b d83d
-0.15722418 -0.33596665 0.047486845 -0.22641832 -0.101628274 -0.09473733 -0.03613924 -0.0649938
-0.2587094 0.02102008 -0.4717103 -0.28879252 -0.2956783 0.07234214 -0.034445632 -0.23467517
0.07995646 -0.094277464 -0.35857177 0.033578385 -0.057037808 -0.118157946 -0.11250919 -0.4192756
0.10979717 -0.07060135 -0.50097936 -0.10642767 0.20057859 -0.037924133 0.07716038 -0.28273094
0.09394601 -0.13863526 -0.8399579 -0.28701076 -0.38895896 -0.42958686 -0.05574276 0.08091128
-0.14908487 -0.014341047 -0.23328283 -0.16399397 -0.5711331 -0.10638542 0.19721879 0.021631045
-0.16696137 -0.076371156 -0.008346648 0.08134492 -0.60736346 -0.017191088 -0.1525971 -0.11038245
-0.56497353 0.094227746 -0.65081793 -0.04473919 -0.052919455 0.14922298 -0.122583106 -0.56730515
-0.11525342 -0.25426865 -0.37003112 -0.29568365 0.06459615 -0.24214405 -0.22729482 -0.23441881
-0.32752195 -0.22821365 0.36431247 -0.46703961 -0.30451235 -0.39921695 -0.3132997 -0.10652668
-0.34251928 -0.1865267 -0.3207998 0.08164749 -0.3087527 0.15182972 -0.4852148 0.23070359
-0.16160445 0.13852398 -0.12921311 0.13511632 -0.497027 0.024766454 -0.10094752 -0.055941783
-0.4110295 0.09191474 -0.58736765 -0.008220892 -0.53225726 -0.12773836 -0.054546643 -0.526879
-0.44598916 -0.1901742 -0.4890474 -0.06804526 -0.06312409 -0.104726985 0.03465929 -0.19264877
-0.28406653 -0.1635533 -0.066906385 -0.47797826 -0.27405724 -0.4887213 -0.086224765 -0.27762315
-0.02296102 -0.07804113 -0.21490961 -0.3227947 0.23844707 -0.3502444 -0.11330117 0.105734214

net.2.weight f4 [128, 128]
00000000: 83cb 883a d690 64bd b84d 52bd df0c e63c
00000010: 89df f23c 1a9d 89bd 2d03 373c 2f1a 563d
00000020: b67c 0f3d 6a12 303b c37e a2bd c1a9 033d
00000030: b238 923d c7b2 17bd c578 a93d 2849 17bd
00000040: 3104 c5bc 7a45 e5bd a37f 02be 1563 21bd
00000050: 4332 39bd 19c5 3ebd 9620 83bd b652 89bd
00000060: 2b63 20bd 184b d4bd 5923 1d3d 344e 89bd
00000070: 102a 843c 39b5 54bd fbd3 1fbd 37b9 e83c
00000080: 82c6 1b3c 377e cabd 1d66 07ba 841d 88bb
00000090: b744 e1bd 77ca 9ebd 60bf d7bc 6085 3ebc
000000a0: 2427 92bc 160c ebbb 5b85 2a3d ec69 e5bc
000000b0: 4354 d2bb 6600 9ebc 2c57 98bd c90d dbbd
000000c0: 4644 53bc f41d 20bd 7f1c 5ebd aebb e5bd
000000d0: 6712 0bbe 6524 f4bc 9833 c1bc 7e95 8dbc
000000e0: 44a3 dcbd 5451 dabb a621 a6bd 0e6d 123d
000000f0: 9e06 5bbd 366c bebd 811d 14bd fe4c b9bc
00000100: c008 71bd 9b3e 82bc 4861 e6bd 3064 9cbd
00000110: 4d35 ddbd 5e42 e0bd 6ab7 95bd ea6a 9c3d
00000120: 3594 c2bc f090 6cbd 30a6 18be 4ce8 5d3d
00000130: 9b89 d9bd 4100 12be 7099 c0bc 855c 95bd
00000140: 293d 973d f759 21bd b22a 1ebd 097d 1fbd
00000150: eb8e 04bc 64d3 8fbd 8d55 a4bd 074a f6bc
00000160: 4533 d4bd cbec 38bd 63c4 39bd 5020 ffbd
00000170: 67aa 433d fdc4 c9bd 26f2 eabb cf9c 3dbd
00000180: b886 16bc fd4d 173d cfe0 d63c e475 babd
00000190: 6df8 92bd 2125 45bd adbf 053d bf5e b5bd
000001a0: d4ae 54bd 9af9 d5bd bbf0 cabc 83d6 9ebd
000001b0: 4974 fdbd 5136 99bb 6917 783c b4d2 01bd
000001c0: 7d9a 94bd f0ea 903d 6b10 babd 950e 35bd
000001d0: a7b2 90bd 06ca be3d 3eeb e6bd 3d18 b9bc
000001e0: f7ca 82bd a761 20bd 539d d1bd 9211 8c3d
000001f0: d338 3cbc ef67 d8bd 5c22 ffbd 96f0 94bc
00000200: 954d 87bb e298 15be 66d6 f4bc fb65 7ebd
00000210: 7b80 aebd 8643 16be ff86 8fbd 0dfe c5bd
00000220: 3c2d aabc aa15 96bc 4df1 f0bb 35ca d0bd
00000230: 9289 95bd 4a03 b2bc 52db fdbd 78ec 18bd
00000240: 7c57 3fbd 6986 e93c ea85 56bc d437 9abd
00000250: 852b 143c 3095 0bbd 9a0b b0bd bdae 19be
00000260: 34ef 2ebe eb24 7abd 8f8d 14bc d1a3 7e3d
00000270: 98f0 01bd 2e6a c63b f2e4 393d b14f adbd
00000280: 1775 073c 43cd b0bd a903 8d3d 825a 03be
00000290: 3d77 b8bd cbcc 533c 55b5 ddbd 19c7 1bbe
000002a0: 060c 10be 24bb 50bd 413f f2bc 3ac0 13be
000002b0: 5fa5 eebd 1ef9 b1bd f45b 7a3d 6852 45bd
000002c0: 1c6c c4bd 07b8 52bd 3c81 e8bd 264e 90bd
000002d0: 7eb5 d6bd 6d83 8f3c 4f61 8dbd 86f7 06be
000002e0: 9d88 a53d 433a dd3a 72a9 0bbe 5063 e0bb
000002f0: 42e9 bbbd 041f b6bd 4ffd 65bd 4573 9cbc
00000300: 8429 d5bd d0a0 51bd 7b8f e0bd f5aa 95bd
00000310: 7752 bfbd 1ba7 17be 6443 a8bd 26dc a9bd
00000320: 3b47 863d 8e7c 7fbd f078 a0bd 7493 2bbd
00000330: 09f5 3a3c 8340 87bd 5d20 b4bd 6e9b 3ebd
00000340: 42bd b9bd d430 823d dabd f4bc b0a0 02bd
00000350: bb70 c8bc d2dc b3bd 854e 963d 16da 7abd
00000360: b6c0 f3bd 30e4 e4bd 541a f6bb a554 fa3a
00000370: b6d8 ffbd 1717 d5bd ea91 63bd 794c 08bd
00000380: 65e4 2fbc 1b7b d4bc 6332 58bd 7902 bbbd
00000390: f25f a9bd cde8 cdbd af29 b8bd c3c5 fcbc
000003a0: b280 163d 6cba 1dbd 9d7d dbbc 0402 b2bc
000003b0: 8e08 2abd 2beb 13be e2d4 a8bc 3caf 9ebd
000003c0: 45ff 273c 93cd c6ba 18af 92bc 4671 d8bc
000003d0: 8c47 893c 0152 68bd a8ad 22bd 7b2c f3bb
000003e0: 6d19 18be 8803 2ebc 0cf6 73bd b439 8abd
000003f0: 1162 cfbb d3a0 063d 8c36 26bd be41 51bd
0.0010436628 -0.05580219 -0.05134365 0.02808231 0.029647605 -0.06719418 0.011170191 0.052271064
0.035031043 0.0026866444 -0.07934334 0.03214431 0.0713972 -0.03703573 0.08274988 -0.036935
-0.02404985 -0.11194892 -0.12744002 -0.039401133 -0.04521395 -0.046574686 -0.064027 -0.06705229
-0.039157074 -0.103658855 0.03836379 -0.06704369 0.016133338 -0.05193064 -0.03902052 0.02840863
0.009507777 -0.09887355 -0.00051650574 -0.004153909 -0.109994344 -0.07753461 -0.026336372 -0.011628479
-0.01784093 -0.0071730716 0.041631084 -0.028004609 -0.006418736 -0.0192873 -0.07438502 -0.10695989
-0.012894696 -0.039091066 -0.054226395 -0.11217438 -0.13581239 -0.02980251 -0.023584172 -0.017283197
-0.10773328 -0.006662527 -0.08111887 0.035748534 -0.053473108 -0.09297983 -0.03616095 -0.02261972
-0.058846235 -0.015898993 -0.11249024 -0.07636297 -0.10801182 -0.109501585 -0.07310374 0.0763758
-0.023752311 -0.05775541 -0.14907146 0.054176614 -0.10621949 -0.1425791 -0.023510665 -0.07293037
0.07384712 -0.039392438 -0.038614936 -0.038937602 -0.008090715 -0.070227414 -0.0802413 -0.030064596
-0.103613414 -0.0451477 -0.045353305 -0.12457335 0.04776993 -0.09852026 -0.0071699796 -0.046292122
-0.009187393 0.03693961 0.026230244 -0.09104517 -0.0717629 -0.048131112 0.0326535 -0.08855962
-0.05192454 -0.10447998 -0.024772992 -0.077557586 -0.12375695 -0.0046756645 0.0151423 -0.031695083
-0.07256029 0.07076061 -0.09085163 -0.04420336 -0.07065325 0.09315877 -0.11275338 -0.022594566
-0.06386369 -0.03915563 -0.10235085 0.06839289 -0.011488157 -0.10566699 -0.124577254 -0.018181127
-0.0041291215 -0.14609101 -0.02988739 -0.062108975 -0.085205995 -0.14674196 -0.0700817 -0.09667597
-0.020773523 -0.018320877 -0.007352984 -0.10194818 -0.0730163 -0.021730084 -0.12395348 -0.03733489
-0.04671429 0.028506475 -0.013093451 -0.075301796 0.009043579 -0.034077823 -0.08595963 -0.15008064
-0.17083436 -0.061070364 -0.009066953 0.062167946 -0.03172359 0.006055138 0.045384355 -0.084624656
0.0082676625 -0.086329006 0.06885464 -0.12827495 -0.09007118 0.012927244 -0.10825602 -0.15212668
-0.14067087 -0.05095972 -0.029571177 -0.14428797 -0.11652636 -0.086900935 0.06112285 -0.04817429
-0.09590933 -0.051445033 -0.113527745 -0.07046156 -0.10483836 0.017518723 -0.06903326 -0.1318036
0.080826975 0.0016878325 -0.13638857 -0.0068477765 -0.0917535 -0.088926345 -0.056149777 -0.019097934
-0.10408309 -0.051178753 -0.10964867 -0.07307998 -0.09341901 -0.1480984 -0.08215979 -0.08293943
0.06556555 -0.062374644 -0.07835567 -0.04188867 0.01141096 -0.066041015 -0.08795235 -0.046534948
-0.09069301 0.063569695 -0.029875685 -0.031891525 -0.024467817 -0.087823525 0.07339195 -0.06124314
-0.11901991 -0.11176336 -0.007510463 0.0019098712 -0.12492506 -0.10404795 -0.055559076 -0.033276055
-0.010735606 -0.025937608 -0.052782428 -0.09131331 -0.08270253 -0.10054169 -0.089923255 -0.030856019
0.036743827 -0.038507864 -0.026793296 -0.021729477 -0.041512065 -0.14445178 -0.020609323 -0.07748267
0.010253732 -0.0015167467 -0.017905757 -0.0264212 0.016757749 -0.05671883 -0.039716393 -0.007421074
-0.14853449 -0.010620959 -0.05956082 -0.06749287 -0.006328829 0.032868218 -0.040579364 -0.051088087
