src/training_logs_ppo/ppo_checkpoint_9_1764199944.pt (torch, 480023 bytes, 42 tensors)

move_logstd f4 [2]
0	0x41021b5a	8.131678
1	0x40e70e1e	7.2204733

shared.0.weight f4 [128, 17]
0	0x3d9cb43c	0.076515645
1	0xbd41462e	-0.04718607
2	0xbdc6e04a	-0.097107485
3	0xbc9b48ab	-0.01895555
4	0x3d90ff07	0.070798926
5	0x3e7a7a3b	0.2446069
6	0x3db5aeca	0.08871229
7	0x3cfa33a0	0.030542195
8	0xbec95612	-0.3932348
9	0x3e1b02fb	0.15137856
10	0x3f2bce5c	0.67111754
11	0xbb94966d	-0.0045345337
12	0x3d60843f	0.05481362
13	0x3f2d141d	0.67608815
14	0xbe8cfd5d	-0.2753705
15	0x3df0fbd2	0.11766781
16	0xbdb955bf	-0.09049558
17	0xbe32820c	-0.17432421
18	0xbd2371b0	-0.039903343
19	0x3e7bbb3b	0.24583142
20	0xbd3257a3	-0.04354061
21	0xbea83b5d	-0.3285779
22	0xbe7a51ef	-0.24445318
23	0x3e24f1d1	0.1610787
24	0xbe4d7401	-0.20063783
25	0xbe1bba16	-0.15207705
26	0x3daa448d	0.08313856
27	0x3f352bb8	0.70769835
28	0x3e7c3061	0.2462783
29	0x3efe65cd	0.49687043
30	0xbd9dd7a4	-0.07707146
31	0xbebb78b9	-0.36615542
32	0x3dc50136	0.096193716
33	0xbc8ebaf1	-0.017423125
34	0x3e1c9a65	0.15293272
35	0x3e441a1d	0.19150586
36	0x3eb1359d	0.34611216
37	0xbf2fc867	-0.68665165
38	0x3e02f94a	0.12790409
39	0x3ed593d5	0.4171435
40	0x3ecb0434	0.39651644
41	0x3e54e670	0.2079103
42	0xbf308c94	-0.68964505
43	0xbe084909	-0.1330911
44	0x3f3397b7	0.70153373
45	0x3ef60dc6	0.48057383
46	0x3c089136	0.008335402
47	0x3f377727	0.7166619
48	0xbe627080	-0.22113228
49	0xbeeee2b7	-0.46657345
50	0xbeef2030	-0.46704245
51	0xbca7e7e5	-0.020496318
52	0xbdc01eee	-0.09380899
53	0xbec20919	-0.37897566
54	0xbcbf97ef	-0.023387877
55	0x3ddae789	0.10688693
56	0xbe7a1645	-0.24422558
57	0xbe5964b2	-0.21229818
58	0x3d586820	0.052833676
59	0xbed912ad	-0.4239706
60	0xbd85a807	-0.06526189
61	0x3de4fac9	0.11180646
62	0x3d76f387	0.06029084
63	0xbf1b9982	-0.6078111
64	0xbed77412	-0.42080742
65	0x3e3ced06	0.18449792
66	0x3ce6378b	0.028102657
67	0x3ddbee7d	0.107388474
68	0xbcdc5253	-0.026894724
69	0x3e55cca2	0.20878842
70	0x3efe5ef5	0.4968182
71	0x3db71523	0.089395784
72	0x3e1f2878	0.15542781
73	0xbe012245	-0.12610729
74	0xbe7618f8	-0.24032962
75	0xbf3feb1f	-0.7496814
76	0xbd45ca19	-0.04828844
77	0xbec1ba0f	-0.37837264
78	0x3f93a116	1.1533535
79	0x3e92c7b3	0.28667983
80	0x3e3df325	0.18549784
81	0x3edb0832	0.4277969
82	0xbf42e558	-0.761312
83	0x3d6e083c	0.05811332
84	0xbe15094f	-0.14554332
85	0xbe78ca62	-0.24295953
86	0xbd8b9cc6	-0.068170115
87	0x3e6b76b0	0.22994494
88	0xbf130581	-0.57430273
89	0xbf072d74	-0.5280373
90	0xbd9e7424	-0.07736996
91	0x3ebf7f49	0.37401798
92	0xbee07cde	-0.43845266
93	0x3e72549d	0.2366509
94	0xbe1d193b	-0.15341656
95	0x3e99ca44	0.3003713
96	0x3cad326e	0.02114221
97	0xbe87f0d1	-0.26550916
98	0x3e54d387	0.20783816
99	0xbee29a9c	-0.44258583
100	0x3f08ebcf	0.53484815
101	0x3eaf01a6	0.34180945
102	0x3d9bb2f3	0.07602491
103	0x3bb50c3b	0.0055251396
104	0xbcb7b775	-0.022426346
105	0xbe3d8bb3	-0.18510322
106	0xbe48070e	-0.19533941
107	0x3dcbdbe0	0.09954047
108	0xbda77490	-0.081765294
109	0xbec9cc13	-0.3941351
110	0xbe2e8af3	-0.17045192
111	0xbe294b59	-0.16532649
112	0xbe2c7999	-0.16843261
113	0xbe7a9b1d	-0.24473234
114	0xbe26891b	-0.16263239
115	0x3e2b293b	0.16714947
116	0x3d611450	0.054951012
117	0x3e50c264	0.20386654
118	0x3e924815	0.2857062
119	0xbe1462f7	-0.14490877
120	0x3dc3bd56	0.09557597
121	0xbddd77d9	-0.10813875
122	0xbe87ec34	-0.26547396
123	0xbf0c4de0	-0.5480633
124	0xbea69a33	-0.3253952
125	0x3e891cfb	0.26779923
126	0x3f115ff4	0.5678704
127	0x3e656582	0.22402003
128	0x3eecab62	0.46224505
129	0xbe3a7f0f	-0.18212532
130	0x3e665300	0.224926
131	0xbe8bed86	-0.27329654
132	0xbcd194a0	-0.025583565
133	0x3e26ac24	0.16276604
134	0xbe0c3b05	-0.13694389
135	0x3d7826bc	0.060583815
136	0xbec8bd08	-0.3920672
137	0xbe896309	-0.2683337
138	0xbea7cfbc	-0.32775676
139	0xbf4c4035	-0.7978547
140	0xbf5d9cf2	-0.86567605
141	0xbe7688d0	-0.24075627
142	0xbe9f2ce2	-0.3108893
143	0xbf2ca39d	-0.67437154
144	0x3edc940f	0.4308171
145	0xbe2b3259	-0.16718425
146	0xbf097016	-0.53686655
147	0x3c9a805b	0.018860033
148	0xbd297975	-0.041375596
149	0x3e839e18	0.25706553
150	0xbf37adf1	-0.7174979
151	0x3e865fc3	0.26244935
152	0x3ec5f306	0.38661975
153	0x3c987849	0.018612044
154	0xbe52812c	-0.20557088
155	0xbf2ad90c	-0.6673744
156	0xbf1eeeeb	-0.6208331
157	0xbea25543	-0.31705675
158	0x3ed05adc	0.4069432
159	0x3eb6fc91	0.35739568
160	0xbe11cfa0	-0.14239359
161	0xbc18d496	-0.009328028
162	0x3d7dbe67	0.06194916
163	0x3f503492	0.81330216
164	0x3c4e96b6	0.0126091745
165	0x3a545d3f	0.0008101053
166	0x3f7bd43d	0.98370725
167	0xbef06229	-0.4694989
168	0x3d838fac	0.064238876
169	0xbc9c289f	-0.019062338
170	0xbddfa4ff	-0.109201424
171	0xbe1cbb80	-0.153059
172	0xbe299cfe	-0.16563794
173	0x3e8bca2a	0.27302676
174	0x3d8a59dd	0.06755421
175	0x3ec16925	0.3777553
176	0xbe6fa395	-0.23402245
177	0x3cff63e8	0.031175569
178	0xbddf3109	-0.108980246
179	0x3e055102	0.13019183
180	0x3dca24a3	0.09870269
181	0xbe50a7b3	-0.20376472
182	0x3d872590	0.06598961
183	0x3f27d3ea	0.6555773
184	0xbd306654	-0.043066338
185	0xbeac578d	-0.33660546
186	0xbdb4fbfc	-0.08837125
187	0xbe3286c2	-0.17434219
188	0xbd399b2d	-0.045314003
189	0xbed4c0d9	-0.4155338
190	0xbe02b9b5	-0.12766154
191	0xbef584f4	-0.47952998
192	0x3e9ed4e6	0.31021804
193	0x3a996328	0.0011702524
194	0x3e0be874	0.13662893
195	0xbe29f0d9	-0.16595782
196	0xbe34a6dd	-0.17641778
197	0x3e16e09f	0.14734124
198	0xbda3d4df	-0.07999586
199	0x3d4670df	0.048447486
200	0x3e2ead91	0.17058398
201	0xbe4038d6	-0.18771681
202	0x3e568b7c	0.20951647
203	0x3cd6b4d2	0.026209269
204	0xbe38e1f1	-0.1805494
205	0xbd70225c	-0.058626518
206	0x3e6f3f41	0.23363973
207	0x3e50c5e4	0.2038799
208	0xbf8891dd	-1.0669514
209	0xbe8d0257	-0.27540848
210	0x3e557090	0.2084372
211	0xbea2ea87	-0.31819555
212	0xbce6d135	-0.02817593
213	0x3dfe6ecc	0.124234766
214	0x3e06cdc0	0.13164425
215	0x3dc91e19	0.09820194
216	0x3dac35af	0.08408677
217	0xbde1e204	-0.11029437
218	0xbe8ab61c	-0.27092063
219	0x3da057a5	0.07829217
220	0x3e54e008	0.20788586
221	0xbeb1d506	-0.34732836
222	0xbe941f4f	-0.28930137
223	0x3edfa791	0.4368253
224	0xbf14b96a	-0.5809542
225	0x3e0211c7	0.12702094
226	0xbf3ca726	-0.7369255
227	0x3ed58721	0.41704658
228	0xbf074784	-0.528435
229	0x3f809cc1	1.0047837
230	0xbdc3a911	-0.09553731
231	0xbdb9bc90	-0.090691686
232	0xbe28a94c	-0.16470832
233	0xbdd15416	-0.10221116
234	0x3ee77741	0.4520817
235	0xbf1d2384	-0.6138232
236	0x3ee1bcf9	0.44089487
237	0x3f52b5ec	0.8230884
238	0xbce39e76	-0.027785521
239	0x3e0e1258	0.13874185
240	0xbe491acb	-0.19639127
241	0x3cd351c6	0.025795829
242	0xbf053234	-0.5202973
243	0x3ee405fc	0.44535816
244	0x3eab8bb5	0.33505026
245	0xbf028c65	-0.50995475
246	0x3ec93de7	0.3930504
247	0xbe683a4d	-0.2267849
248	0x3e34a519	0.17641105
249	0x3e324cc1	0.17412092
250	0x3e00427c	0.12525362
251	0x3e6f7f0d	0.2338831
252	0xbe2705b0	-0.16310763
253	0x3ebf2943	0.37336168
254	0x3b16f9b9	0.002303703
255	0xbf0f5a2c	-0.55996966

shared.0.bias f4 [128]
0	0x3e891e92	0.26781136
1	0xbdfeccb0	-0.12441385
2	0x3e9d21b2	0.3068977
3	0x3d62f297	0.055407133
4	0x3d5ed59f	0.054402944
5	0xbdfa94ec	-0.12235436
6	0xbdd27cda	-0.1027772
7	0xbec61c43	-0.38693437
8	0xbe7c39fe	-0.24631497
9	0xbe9ba110	-0.30396318
10	0xbd8127eb	-0.06306442
11	0xbedfcce1	-0.43710998
12	0xbddf983b	-0.109177075
13	0x3da22b04	0.07918361
14	0xbe8b8eb4	-0.2725731
15	0xbccfd349	-0.025369303
16	0x3eef6a57	0.46760818
17	0xbdf76bd9	-0.12081117
18	0x3e0b0d7a	0.1357936
19	0x3e26733b	0.16254894
20	0x3be9ab04	0.0071309824
21	0xbf3300bc	-0.69922996
22	0xbe04d439	-0.12971582
23	0xbd57672b	-0.052588623
24	0xbd5e1280	-0.05421686
25	0xbd3c3f4a	-0.045958795
26	0x3c443ed8	0.011977874
27	0x3d852029	0.06500275
28	0x3e9dd291	0.30824712
29	0x3ece1169	0.40247658
30	0xbe8429d6	-0.25813168
31	0x3e8d52c5	0.2760221
32	0x3e8f17e2	0.2794791
33	0xbe970920	-0.2949915
34	0xbd12a37e	-0.03580045
35	0x3d52aac7	0.051432397
36	0x3e5c3d17	0.21507679
37	0xbea6009f	-0.3242235
38	0x3e63d55f	0.22249363
39	0x3ea5593b	0.3229464
40	0x3dd8b71c	0.105818
41	0xbf361ad0	-0.7113466
42	0xbd8c4a79	-0.06850142
43	0xbee8f519	-0.45499495
44	0xbe330413	-0.17482023
45	0x3d8859d8	0.06657761
46	0x3e31b4b5	0.1735409
47	0xbe0abc26	-0.13548335
48	0xbe39182a	-0.18075624
49	0xbec7b286	-0.3900339
50	0xbe046930	-0.12930751
51	0x3eb7fd34	0.35935366
52	0x3ed64771	0.4185138
53	0xbdc8c51f	-0.09803223
54	0x3ed62562	0.41825396
55	0xbdf24046	-0.118286654
56	0xbf5d5ec6	-0.8647274
57	0x3dae17cc	0.08500633
58	0xbeb30a0d	-0.34968606
59	0x3e7da964	0.24771649
60	0xbdf8f3f6	-0.12155907
61	0xbe4ea86f	-0.2018144
62	0xbe84a5f9	-0.25907877
63	0x3eb1a464	0.34695733
64	0x3dba77cf	0.09104883
65	0xbdea364f	-0.1143614
66	0xbefd6876	-0.4949376
67	0x3eb61279	0.3556097
68	0x3b993522	0.0046755234
69	0x3f1e400d	0.61816484
70	0x3e483882	0.19552806
71	0xbeeae810	-0.45880175
72	0x3cb3ab80	0.021932364
73	0xbef1fb4c	-0.47262037
74	0xbe28f625	-0.16500147
75	0xbf611c41	-0.8793374
76	0xbe043007	-0.12908946
77	0x3f1457da	0.5794655
78	0x3bbab794	0.0056981537
79	0xbe41e680	-0.18935585
80	0x3c78472d	0.015153688
81	0x3e3e4905	0.18582542
82	0x3d85e12a	0.06537087
83	0xbdd09042	-0.10183765
84	0x3ebbaa81	0.36653522
85	0x3ec111f1	0.37709
86	0xbecaf462	-0.39639574
87	0xbe5953b7	-0.21223341
88	0x3eaa9736	0.3331849
89	0xbe48d8a6	-0.19613895
90	0xbe81a78b	-0.25323138
91	0xbe31eea3	-0.17376189
92	0xbe7aec41	-0.24504186
93	0xbe744e03	-0.23857884
94	0xbe6f3f53	-0.23364
95	0x3ed721b4	0.420179
96	0xbeb46556	-0.35233563
97	0xbe10a5b3	-0.14125709
98	0xbf1813c5	-0.59405166
99	0xbd66b24b	-0.056322377
100	0x3e64df6f	0.22350858
101	0xbec5aa00	-0.38606262
102	0xbed628d5	-0.41828027
103	0x3e5ac7fd	0.21365352
104	0x3cc3b974	0.023892142
105	0xbede1b0a	-0.43380004
106	0xbe06e4d8	-0.13173234
107	0xbdd12160	-0.10211444
108	0xbec843fa	-0.39114362
109	0xbec96e5c	-0.3934201
110	0xbec1789b	-0.37787327
111	0xbe0b596e	-0.13608333
112	0xbddf10fe	-0.10891913
113	0xbe9055b6	-0.28190392
114	0x3e824842	0.25445753
115	0xbe7e034d	-0.24805947
116	0xbbd0aa22	-0.0063679377
117	0xbd68900d	-0.056778003
118	0xbdad6260	-0.08466029
119	0x3dd8f18a	0.10592945
120	0xbdcb24f3	-0.09919157
121	0xbe0a5fe0	-0.13513136
122	0x3e10523e	0.14093873
123	0xbdb6a9c7	-0.08919101
124	0xbe4b327b	-0.19843476
125	0xbd71b484	-0.059010044
126	0x3cd7057d	0.026247734
127	0x3f0073aa	0.5017649

shared.2.weight f4 [128, 128]
0	0x3c46e6b4	0.012139965
1	0xbda85e8b	-0.08221158
2	0xbda9a3d7	-0.08283203
3	0xbdc2896b	-0.09498867
4	0xba449fdc	-0.00075006275
5	0xbd8d8355	-0.06909815
6	0x3d110cd9	0.035412643
7	0xbdc72504	-0.09723857
8	0x3c97ce97	0.018531127
9	0xbda20fba	-0.07913156
10	0xbe152477	-0.14564691
11	0xbe159bb9	-0.14610185
12	0xbd57408f	-0.052551802
13	0xbdbac120	-0.09118867
14	0xbdc3b765	-0.09556464
15	0xbe0f5acc	-0.1399948
16	0xbdaf69d2	-0.085651055
17	0xbd99c0e6	-0.075074956
18	0xbb0905dc	-0.0020908033
19	0xbd8bd925	-0.068285264
20	0x3c9aaa68	0.018880084
21	0x3b9bd580	0.004755676
22	0xbd23f632	-0.040029712
23	0xbd956188	-0.07293993
24	0xbde343d4	-0.110969216
25	0xbdcc409a	-0.09973259
26	0xbdfe02e5	-0.12402896
27	0xbcd87b76	-0.026426058
28	0xbdc504ef	-0.09620082
29	0xbd895e37	-0.06707423
30	0xbdc59ef0	-0.096494555
31	0x39f804ad	0.0004730573
32	0xbdb8046c	-0.089852184
33	0xbcd85312	-0.026406799
34	0xbda769aa	-0.08174451
35	0xbdba76f4	-0.0910472
36	0xbda0e2e9	-0.0785578
37	0x3c4ff06e	0.0126916
38	0xbd806fbf	-0.06271314
39	0xbda5913c	-0.08084342
40	0xbd13228b	-0.035921615
41	0xbe0a42a4	-0.13501984
42	0x3c5d5531	0.013509081
43	0x3d875feb	0.06610092
44	0x3c1c8111	0.009552256
45	0xbd012d58	-0.031537384
46	0xbdb4e328	-0.08832389
47	0x3b42885e	0.0029683332
48	0xbdc3e90b	-0.09565934
49	0xbc71a0de	-0.014747826
50	0x3bc0b4b1	0.005880915
51	0xbbf30b02	-0.0074170837
52	0xbcd3a5ff	-0.025835989
53	0xbd74354e	-0.059621148
54	0x3b64d785	0.0034918499
55	0xbdff8120	-0.124758005
56	0xbd0117cd	-0.03151684
57	0xbe1518e1	-0.14560272
58	0xbdf2546a	-0.11832507
59	0x3c51f918	0.012815736
60	0xbbd0de6e	-0.006374172
61	0xbd949e4d	-0.07256756
62	0xbddcc23c	-0.10779235
63	0xbc617234	-0.013760138
64	0x3cca1eec	0.024672948
65	0xbd5ad06e	-0.05342143
66	0xbdf508b0	-0.11964548
67	0xbd36a98a	-0.04459528
68	0xbdb3232f	-0.08746945
69	0xbbedff76	-0.0072631193
70	0xbdcad296	-0.09903447
71	0xbdab2bef	-0.08357989
72	0xbe05b6c1	-0.13057996
73	0xbe09a32d	-0.13441153
74	0xbbfd3c24	-0.0077281166
75	0xbd774d5b	-0.060376506
76	0xbddf419e	-0.10901187
77	0xbd00e9f7	-0.031473126
78	0xbc1fe3be	-0.009758888
79	0xbbd1052f	-0.0063787918
80	0xbe05dfe2	-0.13073686
81	0xbe01dd31	-0.12682034
82	0xbe0f5639	-0.13997735
83	0xbe0d0fdf	-0.13775586
84	0xbd3de4c5	-0.04636075
85	0x3c67ca1e	0.01414731
86	0xbcf79b2a	-0.030225355
87	0xbd8fd8f6	-0.07023804
88	0x3c93e26e	0.018052306
89	0xbd5654eb	-0.052327078
90	0xbdd45fd0	-0.10369837
91	0xbc4ad73a	-0.012380416
92	0xbce6e88c	-0.028187059
93	0x3c582ec5	0.0131947445
94	0xbcca73ad	-0.024713362
95	0xbdd55d4a	-0.10418184
96	0xbdf35541	-0.11881495
97	0xbc953005	-0.018211374
98	0x3cada63e	0.021197435
99	0x3c3f4561	0.011674256
100	0xbd86765d	-0.06565545
101	0xbd87e76e	-0.066359386
102	0xbcd1ddd5	-0.025618473
103	0x3ce57939	0.028011905
104	0xbe13d336	-0.1443604
105	0xbde521cb	-0.11188086
106	0xbdd9336a	-0.106055096
107	0xbd9e4ece	-0.077298746
108	0xbda22599	-0.079173274
109	0xbd2cc51d	-0.04218017
110	0xbdbf415b	-0.093386374
111	0xbc50663d	-0.012719688
112	0x3c2531f1	0.010082708
113	0xbda38d8d	-0.07985983
114	0xbdac83db	-0.08423587
115	0xbdd96620	-0.10615182
116	0xbcbbdd4e	-0.022932675
117	0xbdb2752b	-0.08713754
118	0xbe073529	-0.13203873
119	0xbd3f4efa	-0.046706177
120	0xbddcb474	-0.10776606
121	0xbc8bde4e	-0.017073777
122	0xbd65d12e	-0.056107692
123	0xbd0dd404	-0.034626022
124	0xbd4eb2ef	-0.050463613
125	0xbd70784f	-0.058708485
126	0xbd8fe187	-0.07025438
127	0xbd3da272	-0.046297498
128	0x3c9391bd	0.01801383
129	0xbe10fe16	-0.14159426
130	0xbdc32205	-0.09527973
131	0xbda0cf53	-0.07852044
132	0xbdddc1d3	-0.10827985
133	0xbdb871cc	-0.0900608
134	0xbdbb36a9	-0.09141285
135	0x3c2b15cc	0.0104422085
136	0x3c360f0f	0.011111989
137	0x3deddc29	0.11614258
138	0x3d85236b	0.06500896
139	0xbd6b12fc	-0.05739115
140	0xbe03a5ef	-0.12856267
141	0xbca8a88b	-0.02058818
142	0xbda52820	-0.08064294
143	0x3d56aa0f	0.052408274
144	0x3b945c13	0.0045275777
145	0xbdea9c5a	-0.11455603
146	0x3c740952	0.0148948
147	0x3d0d9c21	0.034572724
148	0xbe3709ac	-0.17874783
149	0xbd27f48a	-0.041004695
150	0x3d298015	0.041381914
151	0xbd647013	-0.055770945
152	0x3d37cc74	0.044872716
153	0x3ce24688	0.027621523
154	0xbd5f0b5c	-0.054454193
155	0xbd35c25e	-0.044374816
156	0x39e11fed	0.0004293913
157	0xbe16c62a	-0.14724031
158	0x3d2d06e7	0.04224291
159	0xbd80fc02	-0.06298067
160	0xbb8a72e0	-0.00422512
161	0x3dbf3c97	0.093377285
162	0xbd8e23ac	-0.069403976
163	0x3c248e1e	0.010043649
164	0xbcd1ec3d	-0.025625343
165	0x3d00373c	0.031302676
166	0xbc068adf	-0.00821182
167	0x3c3e3f2f	0.011611744
168	0x3c06d5d1	0.008229689
169	0x3be0405f	0.006843611
170	0xbdb30d90	-0.08742821
171	0x3ccf8cb7	0.025335653
172	0x3cfb78fe	0.030697342
173	0x3d577fc0	0.052612066
174	0xbde5b099	-0.11215324
175	0xbe03694d	-0.12833138
176	0x3d867e95	0.06567112
177	0xbdac9435	-0.08426706
178	0xbe0353bf	-0.12824915
179	0xbe2244f6	-0.15846619
180	0x3deacd4c	0.114649385
181	0xbd97dd54	-0.07415262
182	0x3b08cf0b	0.002087536
183	0x3dbed5e8	0.09318143
184	0xbe06160c	-0.13094348
185	0xbde853fa	-0.11344142
186	0xbacf5379	-0.0015817723
187	0xbdef6967	-0.11690026
188	0xbe0f6c3c	-0.14006132
189	0xbd9806fb	-0.074232064
190	0xbc853f99	-0.016265677
191	0xbd51ef6d	-0.051253725
192	0xbd9b8a69	-0.07594759
193	0xbe0f040a	-0.13966385
194	0x39c996fb	0.00038450197
195	0xbce70653	-0.028201258
196	0xbd438efe	-0.04774379
197	0xbd8838c9	-0.06651456
198	0xbd8060b9	-0.062684484
199	0xbdf2e3db	-0.11859866
200	0xbd40fa2d	-0.047113586
201	0xbd9636a0	-0.07334638
202	0x3baba725	0.005238431
203	0xbd6fa45f	-0.058506366
204	0xbdee8149	-0.11645753
205	0xbddebd44	-0.10875943
206	0xbd80c32d	-0.06287227
207	0xbcecdf22	-0.028914992
208	0xbc79f712	-0.01525666
209	0xbd3ec0d0	-0.0465706
210	0xbdbb8c2c	-0.09157595
211	0xbdd123d5	-0.102119125
212	0x3d5e4bdd	0.054271568
213	0xbe31491a	-0.17313042
214	0x3d7aa60f	0.061193522
215	0xbdd6553a	-0.104654744
216	0x3dab2721	0.083570726
217	0xbd4359bf	-0.04769301
218	0xbd16f330	-0.036853015
219	0xbd2b8275	-0.04187246
220	0x3db81461	0.08988262
221	0xbe32dd2a	-0.1746718
222	0x3c8a47d3	0.016879952
223	0xbd1843f3	-0.037174176
224	0xbcc608ba	-0.024174083
225	0xbdef05a5	-0.116709985
226	0x3c981ec1	0.018569352
227	0x3d9780ce	0.073976144
228	0x3da62fd7	0.081145935
229	0xbc43538f	-0.011921777
230	0x3b1f08a1	0.0024266618
231	0xbddaa1d3	-0.10675397
232	0x3cbff7be	0.023433562
233	0x3e01d20f	0.12677787
234	0xbe00b535	-0.12569125
235	0xbd5643c1	-0.05231071
236	0xbd9a9065	-0.07547072
237	0xbe1c5fdf	-0.15270947
238	0x3d0a63de	0.033786647
239	0xbda67f83	-0.0812979
240	0xbd764858	-0.060127586
241	0x3d13a49d	0.03604566
242	0xbd0f8b17	-0.035044756
243	0xbdb4b5aa	-0.08823712
244	0xbd9b4c18	-0.07582873
245	0xbde85feb	-0.1134642
246	0xbd862955	-0.06550852
247	0xbd110a55	-0.035410244
248	0xbe16dbd4	-0.14732295
249	0x3da5a2a6	0.08087663
250	0x3db15b32	0.08659972
251	0xbd9d1907	-0.07670789
252	0xbd188667	-0.03723755
253	0xbe1b2221	-0.15149738
254	0xbe43c4ba	-0.19118014
255	0x3aceaba4	0.0015767706

shared.2.bias f4 [128]
0	0xbbc21eb4	-0.0059240703
1	0xbcdc7f93	-0.0269163
2	0xbddd1569	-0.10795099
3	0xbcd9a5c7	-0.026568307
4	0x3e22b9f3	0.15891246
5	0xbd60b52a	-0.05486027
6	0xbc200597	-0.009766958
7	0x3816951a	3.590165e-05
8	0x3e5fcd7b	0.21855728
9	0x3c9ca12c	0.019119821
10	0x3d24ea58	0.04026255
11	0xbd75e027	-0.06002822
12	0x3d987a6b	0.074452244
13	0xbd829758	-0.06376523
14	0x3d9f6dca	0.077846125
15	0xbda7d312	-0.08194555
16	0xbd7ce25d	-0.061739314
17	0xbd86b5af	-0.06577622
18	0xbd03601c	-0.03207408
19	0x3d768fa0	0.060195565
20	0xbe1deb9a	-0.15421906
21	0xbd955d93	-0.072932385
22	0xbe48048c	-0.19532984
23	0xbdbf8ea1	-0.09353376
24	0xbe0dc970	-0.13846374
25	0x3d99548f	0.074868314
26	0x3d20666a	0.03916017
27	0x3cfdf9e9	0.031002956
28	0xbdf626ef	-0.12019145
29	0x3ca11c1d	0.019666726
30	0xbddfb639	-0.10923428
31	0xbd6895d1	-0.0567835
32	0xbd66e747	-0.056372907
33	0x3c81cb19	0.015843915
34	0xbc87c368	-0.01657267
35	0xbe07c5d9	-0.13259067
36	0x3ccc1f68	0.02491732
37	0xbe1fb8f2	-0.15597895
38	0x3e378404	0.17921454
39	0x3e33f290	0.17572999
40	0xbd0d39f4	-0.034479097
41	0x3d017e4d	0.03161459
42	0x3d905bcd	0.070487596
43	0x3e569a1c	0.20957226
44	0x3e7e739e	0.24848792
45	0xbc60fe92	-0.013732569
46	0xbd76c71b	-0.060248476
47	0xbe0fc4c9	-0.14039911
48	0x3d988b23	0.07448413
49	0xbe1fbc9b	-0.15599291
50	0xbe21869f	-0.1577401
51	0xbe16b1e2	-0.14716294
52	0x3c601d28	0.013678826
53	0xbcd7038a	-0.026246805
54	0x3b9e78a4	0.004836159
55	0xbc8c49f0	-0.0171251
56	0xbd98314d	-0.074312784
57	0x3e42895e	0.18997714
58	0xbd2f8175	-0.04284807
59	0x3e2d4ee0	0.1692462
60	0x3e64bf53	0.2233861
61	0xbe010da8	-0.12602866
62	0xbd842d9e	-0.06454013
63	0x3dd82c00	0.10555267
64	0x3c175d58	0.0092385635
65	0x3e7ec554	0.24879962
66	0xbc294f45	-0.010333841
67	0xbe21432d	-0.15748282
68	0xbe2e5e2a	-0.17028108
69	0x3dc8e983	0.09810164
70	0x3e3b3d42	0.18285087
71	0xbd381ed5	-0.04495128
72	0xbca941bb	-0.020661226
73	0xbe082c35	-0.13298114
74	0xbb8c4c32	-0.004281544
75	0x3d339c81	0.043850426
76	0xbda9a9c5	-0.08284334
77	0xbe4f9c52	-0.20274475
78	0xbe1d2d52	-0.1534932
79	0xbd03c577	-0.03217074
80	0xbe036bfc	-0.12834162
81	0x3ce7a584	0.028277166
82	0x3ca05033	0.019569492
83	0xbe865b1e	-0.26241392
84	0x3e12fcc2	0.14354232
85	0xbe1677e1	-0.14694168
86	0xbd4bb11c	-0.04972945
87	0xbe059418	-0.13044775
88	0xbdc347a7	-0.09535151
89	0xbdd4a969	-0.10383875
90	0x3e81af93	0.25329265
91	0x3d2a40b0	0.041565597
92	0xbdfdac44	-0.12386373
93	0xbd000989	-0.031259093
94	0x3d2d8db8	0.04237148
95	0xbe93d30f	-0.28871962
96	0x3ddf3822	0.10899378
97	0xbdab600d	-0.083679296
98	0xbd3acfa9	-0.045608196
99	0xbdaa6eff	-0.08321952
100	0xbd31a365	-0.043368716
101	0xbe207a02	-0.15671542
102	0xbd6ab8e9	-0.05730525
103	0xbd3bf52e	-0.04588812
104	0x3c115ba8	0.00887195
105	0x3d06d971	0.032922212
106	0x3e63b6c5	0.2223769
107	0xbdad1844	-0.08451894
108	0x3d9f51ab	0.07779249
109	0x3e0c2655	0.13686498
110	0xbddabeeb	-0.10680946
111	0xbdace1de	-0.08441518
112	0x3e82ab6f	0.25521418
113	0x3d59fd10	0.053219855
114	0xbc6e43d1	-0.014542536
115	0xbdca10f6	-0.09866516
116	0x3d6b296d	0.057412554
117	0x3e6a23fa	0.22865286
118	0xbd56b645	-0.05241992
119	0x3e19fd5a	0.15038052
120	0xbde6f5a7	-0.11277323
121	0xbdd8c631	-0.10584677
122	0x3ba2c497	0.004967283
123	0xbdf3f472	-0.119118586
124	0xbdf9d3cf	-0.121986024
125	0xbe0b7174	-0.13617498
126	0xbe240cbb	-0.16020481
127	0xbe3758f9	-0.17905034

move_mean.weight f4 [2, 128]
0	0x3c5af526	0.013364112
1	0x3cc0744a	0.023492951
2	0x3ce2bbfd	0.02767753
3	0xbd16d4f2	-0.036824174
4	0x3ea50f63	0.32238302
5	0xbda30812	-0.07960524
6	0x3d661990	0.056176722
7	0xbe352e6d	-0.17693491
8	0x3e3b22b7	0.18274961
9	0x3e604138	0.21899879
10	0xbe10ac09	-0.14128126
11	0xbccc66f5	-0.024951437
12	0x3e870188	0.26368356
13	0x3dc815c0	0.097697735
14	0xbe134fe6	-0.14385948
15	0x3d923404	0.071388274
16	0xbe275b97	-0.16343533
17	0x3c327191	0.010891334
18	0x3e87a1b9	0.26490572
19	0xbc8da658	-0.017291233
20	0xbe1f7818	-0.15573156
21	0xbb41b814	-0.0029559182
22	0xbd906df5	-0.07052223
23	0x3d6bb19a	0.05754242
24	0x3d350075	0.04418989
25	0x3d4b8f2c	0.049697086
26	0x3d00907c	0.03138779
27	0xbe981e69	-0.297107
28	0xbc3659f3	-0.011129844
29	0x3c121b88	0.008917697
30	0xbcc6c4f7	-0.024263842
31	0x3d9295d0	0.07157481
32	0x3dbccfbf	0.09219312
33	0xbd005bd4	-0.031337574
34	0xbda27f68	-0.07934457
35	0x3cc3ba15	0.023892442
36	0xb9f3a59a	-0.00046471955
37	0xbde0e03b	-0.109802686
38	0x3e7ab566	0.2448326
39	0x3e6f1e9b	0.23351519
40	0xbd67d45b	-0.056599002
41	0x3d54b329	0.051928673
42	0x3ea53a56	0.3227107
43	0x3e8c9f51	0.274653
44	0x3e7f099d	0.24906011
45	0x3cd86586	0.026415598
46	0x3d388036	0.045044146
47	0x3cc25f6e	0.023727145
48	0x3e60dacf	0.21958469
49	0x3d14bc0f	0.03631216
50	0x3dc759e1	0.0973394
51	0x3d356984	0.04429008
52	0x3deef6db	0.11668178
53	0xbd11e59e	-0.03561937
54	0xbea1d48b	-0.3160747
55	0x3dbc1881	0.09184361
56	0x3e1679d8	0.14694917
57	0x3eb0fbbf	0.34567067
58	0x3df0bcaf	0.117547385
59	0x3e7a1135	0.24420626
60	0xbe20fd2b	-0.15721576
61	0x3e952d2b	0.29136023
62	0xbd9f7797	-0.07786482
63	0x3d18fe2e	0.03735178
64	0x3ca32a4c	0.01991763
65	0x3e9daf4e	0.3079781
66	0x3d49f235	0.049303252
67	0xbe09f632	-0.13472822
68	0xbd824ea7	-0.06362658
69	0x3c619db8	0.013770513
70	0xbe2a25c0	-0.16615963
71	0xbc00e54e	-0.0078671705
72	0xbd03cef5	-0.03217979
73	0xbc8c7194	-0.017144002
74	0xbda0e0db	-0.07855388
75	0xbd0b970e	-0.034079604
76	0xbd8166b8	-0.0631842
77	0xbdbaca0a	-0.09120567
78	0x3dcc07f5	0.09962455
79	0xbe94ab94	-0.29037154
80	0xbb077029	-0.0020666218
81	0x3d0ce0ba	0.034394003
82	0xbdc0af62	-0.094084516
83	0x3e9cb849	0.30609348
84	0x3e0dd1d0	0.13849568
85	0x3d526fcf	0.05137616
86	0x3c5de568	0.013543464
87	0x3dd13687	0.102154784
88	0xbdbaa9e3	-0.091144346
89	0x3dd1e1f2	0.10248174
90	0x3e395f72	0.18102816
91	0x3c53dd25	0.012931143
92	0x3e5cbeb4	0.21557122
93	0xbe2e2440	-0.17006016
94	0xbd1df29b	-0.038561445
95	0x3ccb40db	0.024811199
96	0x3dba3b2b	0.09093317
97	0x3cca5599	0.02469902
98	0x3daf07e1	0.08546425
99	0xbcde4931	-0.02713451
100	0xbc314bc0	-0.010821283
101	0x3dca9768	0.0989216
102	0x3cf1f37f	0.029535053
103	0xbd9f0b22	-0.07765795
104	0xbe6e184e	-0.23251459
105	0xbe8503d5	-0.25979486
106	0x3e86df78	0.26342368
107	0x3cf5318f	0.029930858
108	0x3d82de80	0.06390095
109	0x3e9ab4f0	0.3021617
110	0x3da8f8ce	0.08250581
111	0xbd2da6dd	-0.04239546
112	0x3e923b05	0.28560653
113	0xbe8cd456	-0.2750575
114	0x3dba7c1a	0.09105702
115	0x3baaa8fd	0.0052081333
116	0xbd1eb4ce	-0.038746648
117	0x3e9adbe0	0.30245876
118	0x3d6b8696	0.057501398
119	0xbe794c72	-0.24345568
120	0x3b273def	0.0025519093
121	0x3cde40f6	0.027130585
122	0x3be6812e	0.0070344424
123	0xbe3ece72	-0.1863344
124	0xbd76a251	-0.06021339
125	0x3cd204f5	0.02563713
126	0x3c95430b	0.018220445
127	0x3beada51	0.0071671386
128	0x3cd7fa00	0.026364326
129	0x3c176370	0.009240016
130	0xbb7126d0	-0.0036796816
131	0x3d544510	0.051823676
132	0xbe30445a	-0.17213574
133	0xbcbdd8cf	-0.023174671
134	0xbc9b1ce5	-0.018934676
135	0x3dbf58ef	0.093431346
136	0xbe63c17c	-0.22241777
137	0xbdd26c28	-0.102745354
138	0x3d0c36f8	0.03423211
139	0x3d4c261f	0.049841043
140	0xbe245242	-0.16047004
141	0x3c9e10bc	0.019295089
142	0x3d5c84c2	0.053837545
143	0x3bf34fde	0.0074252924
144	0x3dc55aab	0.09636434
145	0xbd728016	-0.059204184
146	0xbdf069fc	-0.11738965
147	0xbd019da9	-0.031644497
148	0x3cf501c8	0.029908076
149	0x3cd2c644	0.025729306
150	0x3dcb1083	0.09915259
151	0x3ab67582	0.0013920518
152	0xbda275b8	-0.07932609
153	0xbc58e22b	-0.013237516
154	0xbce7d76b	-0.028300961
155	0x3def3c46	0.11681418
156	0xbd2989d7	-0.04139122
157	0xbbb6681b	-0.0055666096
158	0xbd98509b	-0.07437249
159	0x3c062726	0.008188045
160	0x3d1a4270	0.037661016
161	0xbc04c828	-0.008104362
162	0x3c150a7b	0.009096737
163	0x3c71260d	0.014718545
164	0x3acc23e1	0.0015574658
165	0x3d95c9f8	0.07313913
166	0xbdbd18ba	-0.09233232
167	0xbdfcb3d3	-0.12338986
168	0xbdeb165e	-0.114788756
169	0x3ad22b79	0.0016034684
170	0xbe5bf16a	-0.21478811
171	0xbe09b725	-0.1344877
172	0xbe11f6ba	-0.14254275
173	0xbade836f	-0.0016976426
174	0x3d3ef1d5	0.046617348
175	0x3cbcfe93	0.02307061
176	0xbe826fee	-0.2547602
177	0xbd357b14	-0.04430683
178	0x3cbb2ea6	0.022849392
179	0xb9c52c95	-0.00037607984
180	0xbcd7f718	-0.02636294
181	0x3c985744	0.018596299
182	0x3d7c3f8e	0.061584048
183	0x3b8262e3	0.0039790734
184	0xbda6bc9a	-0.08141442
185	0xbeb8676c	-0.36016405
186	0xbb319347	-0.002709584
187	0xbdd55ef5	-0.10418502
188	0xbe2970b1	-0.16546895
189	0x3d992091	0.07476915
190	0x3cba3d6a	0.022734363
191	0xb94052fe	-0.00018341464
192	0xbc6aace1	-0.014323444
193	0xbeaa43df	-0.33254907
194	0xbd4a5a9d	-0.04940282
195	0x3d7b8c2d	0.06141298
196	0xbad11dfc	-0.0015954371
197	0xbcb685ab	-0.022280535
198	0xbe0416a6	-0.12899265
199	0x3cb0b92a	0.021572668
200	0xbbd7e774	-0.0065888707
201	0xbd681c86	-0.056667827
202	0xbbb46f93	-0.0055064647
203	0xbc42dc25	-0.011893307
204	0xbe487a04	-0.19577795
205	0x3d518df5	0.05116077
206	0x3e2edc69	0.17076267
207	0x3dbd3500	0.092386246
208	0xbca6c49f	-0.020357428
209	0xbd1bac81	-0.03800631
210	0x3cb0863a	0.02154838
211	0x3d22d17c	0.03975056
212	0xbd47e31c	-0.048800573
213	0xbcf9b34d	-0.030481005
214	0xbd7a181d	-0.061058152
215	0x3d76b248	0.060228616
216	0xbdcc5035	-0.09976236
217	0xbcf6d080	-0.030128717
218	0xbe80a8c5	-0.2512876
219	0xbd800536	-0.06250994
220	0x3e9953e4	0.29946816
221	0xbceb7c7a	-0.028745878
222	0x3d45414c	0.048157975
223	0xbd6eaefa	-0.05827234
224	0x3cfbd4b3	0.030741071
225	0xbcfb9879	-0.030712353
226	0x3c832f64	0.016013809
227	0xbd2fee0c	-0.04295163
228	0x3c997b44	0.018735535
229	0xbbe0eb02	-0.0068639526
230	0x3e117274	0.14203817
231	0xbd396941	-0.045266394
232	0x3de5941c	0.1120989
233	0x3d78a171	0.060700838
234	0xbe07413f	-0.13208483
235	0xb8d93ced	-0.00010358715
236	0xbdb537a2	-0.08848502
237	0xbe56a825	-0.2096258
238	0xbd2a5bae	-0.04159134
239	0xbb8aecc2	-0.0042396495
240	0xbe57dfaf	-0.21081422
241	0x3c652c3e	0.013987599
242	0xbcb1087a	-0.021610487
243	0xbd974583	-0.07386305
244	0x3b30a1f4	0.0026952
245	0xbe721326	-0.23640117
246	0xbd4aae6f	-0.04948276
247	0x3cce376f	0.025172917
248	0xbcef10df	-0.02918285
249	0x3de90a13	0.11378875
250	0x3a946c9b	0.0011323871
251	0x3d1d4d71	0.038403932
252	0xbe043251	-0.12909819
253	0x3b75c05b	0.0037498686
254	0xbd16d627	-0.036825325
255	0xbd8a8f0c	-0.06765565

move_mean.bias f4 [2]
0	0x3e3cc2f1	0.18433739
1	0xbe02d5ed	-0.12776919

food_logits.weight f4 [3, 128]
0	0x3d97edf5	0.074184336
1	0xbd44c63a	-0.048040606
2	0x3c33dbc1	0.010977686
3	0xbe30d8da	-0.17270222
4	0xbe73eeed	-0.23821612
5	0x3d9f3635	0.07774011
6	0x3e0de341	0.13856222
7	0xbdfd8173	-0.12378206
8	0xbe1e9487	-0.15486346
9	0xbe2d6079	-0.16931333
10	0xbe40a57c	-0.18813127
11	0xbe158e65	-0.146051
12	0x3c844333	0.016145324
13	0x3cd73054	0.026268162
14	0xbd8c5890	-0.068528295
15	0x3da2d355	0.07950465
16	0xbdc4d6a2	-0.096112505
17	0xbdeb7b80	-0.11498165
18	0xbdc8f350	-0.09812033
19	0x3d5812ea	0.052752413
20	0xbd895152	-0.06704964
21	0x3d61aa92	0.05509431
22	0xbe054e87	-0.13018237
23	0xbe20d56d	-0.15706415
24	0xbe0d7b9b	-0.13816683
25	0x3d890d61	0.06692005
26	0xbdb5f9f0	-0.088855624
27	0xbdae4c23	-0.08510616
28	0x3c8c1968	0.017101958
29	0x3d116fc1	0.035506967
30	0xbdcce66f	-0.10004889
31	0x3e0bfe08	0.13671124
32	0x3d376d42	0.04478193
33	0x3c62ad9a	0.013835335
34	0x3de42a6b	0.11140903
35	0x3c55bd2f	0.013045593
36	0xb9fbfb8a	-0.00048061862
37	0x3dc4930c	0.095983595
38	0xbdb54c46	-0.08852439
39	0xbe49d9f5	-0.1971205
40	0x3df63aa3	0.12022903
41	0xbd99c271	-0.0750779
42	0xbde31e43	-0.11089756
43	0xbdf5de41	-0.12005282
44	0xbd012488	-0.03152898
45	0x3de46e71	0.111538775
46	0xbe673386	-0.22578248
47	0x3caa3e20	0.020781577
48	0x39d0c1a2	0.0003981712
49	0xbe528ecd	-0.20562287
50	0xbdc054b6	-0.09391157
51	0xbc863216	-0.016381305
52	0x3b5a152c	0.003327678
53	0x3d25c4da	0.040470935
54	0x3d8c77a2	0.06858756
55	0x3dd878c2	0.10569908
56	0x3d3da3ba	0.04629872
57	0xbec6f2a3	-0.38856992
58	0xbe27fb3d	-0.16404434
59	0x3db4d9f0	0.08830631
60	0xbe7580eb	-0.2397496
61	0xbd831872	-0.06401147
62	0x3d691ce8	0.056912333
63	0x3d59ec43	0.053203832
64	0x3e0e21f8	0.13880146
65	0x3e050b1a	0.12992516
66	0x3ce687c3	0.028140908
67	0xbe08885b	-0.13333265
68	0x3cdca0d5	0.02693216
69	0xbd80df3b	-0.06292578
70	0x3d747aa5	0.059687275
71	0xbe14a990	-0.14517808
72	0xbe05cf0c	-0.13067263
73	0xbd86f56a	-0.06589778
74	0x3cc4ab6e	0.024007525
75	0x3be535c9	0.006994937
76	0xbc3da1ba	-0.011574203
77	0xbdae0dee	-0.084987506
78	0x3d0744e5	0.033024687
79	0x3cdfaa59	0.027302908
80	0x3d71aaea	0.059000887
81	0xbe0adf42	-0.13561729
82	0x3d9332c4	0.07187417
83	0x3e0c98e6	0.13730201
84	0xbe829e1c	-0.25511253
85	0x3cf3c222	0.029755656
86	0xbda9f81b	-0.082992755
87	0xbe07b390	-0.13252091
88	0xbdde49bd	-0.10853908
89	0x3d1a613b	0.037690382
90	0xbd8c8f91	-0.068633206
91	0x3d79bb23	0.060969483
92	0xbd77909f	-0.060440656
93	0xbc27c766	-0.010240411
94	0x3d3717a7	0.04470029
95	0x3e1958d7	0.14975296
96	0x3d99fa6b	0.075184666
97	0xbdd77989	-0.10521228
98	0x3c0360e9	0.008018711
99	0x3dd4be4c	0.10387859
100	0x3df8db5a	0.12151213
101	0xbe0d3e4c	-0.13793296
102	0xbd6320a8	-0.055451065
103	0x3da429ce	0.08015786
104	0x3cc70da1	0.024298491
105	0x3dc99231	0.09842337
106	0xbe266674	-0.1625002
107	0x3deeb246	0.11655097
108	0xbe1936d6	-0.14962325
109	0xbdd500d6	-0.1040055
110	0x3cb9b8ec	0.022671185
111	0xbd681f6a	-0.056670584
112	0xbcbb685b	-0.022876909
113	0xbde75d52	-0.11297096
114	0x3d6396a3	0.05556358
115	0x3c62f8da	0.013853276
116	0xbda4bdb0	-0.080439925
117	0x3bb778c0	0.0055991113
118	0xbe452cfc	-0.19255441
119	0xbd9bbf4b	-0.076048456
120	0x3cbc48b7	0.022983892
121	0xbdb8ae47	-0.09017616
122	0xbd8e1dfd	-0.069393136
123	0x3dcaca18	0.099018276
124	0xbe51a6df	-0.20473813
125	0x3d7e3d6d	0.0620703
126	0x3e014bcd	0.12626572
127	0xbdc6533e	-0.09683846
128	0xbcacf00e	-0.02111056
129	0xbd0b14fc	-0.03395556
130	0xbd7cc00f	-0.0617066
131	0x3ce91375	0.02845166
132	0x3e1bdb51	0.15220381
133	0x3b0093fe	0.001961946
134	0x3d463d94	0.04839857
135	0x3e063c50	0.13108945
136	0x390ce364	0.0001343615
137	0x3d6b60df	0.05746543
138	0x3e0d18ed	0.1377904
139	0xbcd8c571	-0.026461335
140	0x3e0c8886	0.13723955
141	0x3e147829	0.14498962
142	0x3dae2899	0.08503837
143	0xbdfc6dc9	-0.12325627
144	0x3c90dca1	0.017683329
145	0x3e90e763	0.28301534
146	0x3cdb24ae	0.026750889
147	0xbc3e2e2a	-0.011607686
148	0x3dbc46ec	0.09193215
149	0x3b1ab904	0.0023608813
150	0x3e3de74d	0.18545265
151	0x3d663f14	0.0562125
152	0x3da6c70c	0.08143434
153	0xbd07f8f4	-0.033196405
154	0x3c851455	0.016245047
155	0x3def6098	0.11688346
156	0xbe1b818a	-0.15186134
157	0xbd809b63	-0.06279638
158	0x3e17da30	0.14829326
159	0xbd50a4de	-0.05093848
160	0xbdca4fbc	-0.098784894
161	0xbd1c8bd1	-0.038219277
162	0xbc9c042b	-0.019044956
163	0x3dbc5df3	0.09197607
164	0xbdfb38b2	-0.12266673
165	0x3cf57028	0.029960707
166	0x3debf88b	0.11522015
167	0x3ddf2bb2	0.10897006
168	0xbddb96bb	-0.10722109
169	0x3d68c9ff	0.056833263
170	0x3d8c1b63	0.06841161
171	0x3e0f4d07	0.13994227
172	0x3d136b95	0.03599127
173	0xbdf87c35	-0.121330656
174	0x3e18684b	0.14883535
175	0x3da4a73f	0.08039712
176	0x3d6653a1	0.0562321
177	0x3e38b152	0.18036392
178	0xb997a2c3	-0.0002892223
179	0x3e2679cd	0.16257401
180	0xbbbc3898	-0.005744051
181	0x3cacee1f	0.021109639
182	0x3db52b0c	0.08846101
183	0xbc8dae0b	-0.017294904
184	0xbdcc9de7	-0.09991055
185	0x3ea9a511	0.33133748
186	0x3e513c68	0.204332
187	0xbd6b1606	-0.05739405
188	0x3e9d66a7	0.3074238
189	0x3d76a3b6	0.06021472
190	0x3d228e18	0.039686292
191	0x3d6cf70b	0.057852786
192	0xbd84a8fd	-0.064775445
193	0xbdf8ea53	-0.12154069
194	0x3ce4da90	0.02793625
195	0x3befb82b	0.0073156557
196	0xbc585f50	-0.013206318
197	0x3dca95eb	0.09891876
198	0xbdc85f24	-0.09783772
199	0x3de402f3	0.11133375
200	0x3e071b5e	0.13194034
201	0x3d23c832	0.039985843
202	0x3bb32578	0.005467113
203	0x3dae63c8	0.085151255
204	0xbc9dec9c	-0.019277863
205	0x3dad98be	0.08476399
206	0xbd5e8a24	-0.05433096
207	0xbdc42071	-0.095765
208	0xbcce6250	-0.025193363
209	0x3e12e1af	0.14343904
210	0xbdf3a905	-0.11897472
211	0xbdfd3134	-0.123629004
212	0x3eaf789b	0.34271702
213	0xbd78126a	-0.060564436
214	0x3c389d56	0.011267981
215	0x3d204ca4	0.03913559
216	0x3d492155	0.049104054
217	0x3d06b65b	0.03288875
218	0xbc3dde7f	-0.011588692
219	0xbca9d902	-0.02073336
220	0x3dae4b59	0.08510465
221	0x3cb42d1a	0.021994162
222	0xbe177b17	-0.14793049
223	0xbe1b4378	-0.15162456
224	0xbdbd7b1a	-0.092519954
225	0x3d9b907d	0.07595918
226	0xbc849879	-0.016185986
227	0xbe0632df	-0.13105343
228	0x3bfed191	0.007776447
229	0x3e6500dd	0.2236361
230	0x3cec71e1	0.028862895
231	0xbd1f3f04	-0.038878456
232	0xbc17e931	-0.009271906
233	0xbcfdcc8f	-0.03098133
234	0x3ddf027e	0.10889147
235	0xbc03d3e3	-0.008046123
236	0x3dca0db7	0.09865897
237	0x3de06789	0.10957248
238	0xbddd6367	-0.10809975
239	0x3d0ca203	0.034334194
240	0x3e3b6496	0.18300089
241	0xbc625804	-0.01381493
242	0x3cb723ea	0.022355992
243	0xbbf532ba	-0.0074828537
244	0xbbcce113	-0.006252417
245	0x3debd229	0.11514694
246	0x3e88e78c	0.26739156
247	0x3d2ccf27	0.042189743
248	0x3da3c677	0.079968385
249	0x3db4c610	0.0882684
250	0x3c7adf79	0.015312069
251	0xbd54dd06	-0.051968597
252	0x3dff271c	0.124586314
253	0x3d87a30b	0.06622895
254	0x3cc481f2	0.023987744
255	0x3dd4c1e3	0.103885435

food_logits.bias f4 [3]
0	0xbcf03e41	-0.02932656
1	0x3e05fbb9	0.13084306
2	0xbdead514	-0.11466423

net.0.weight f4 [128, 17]
0	0xbdeb03d5	-0.1147534
1	0xbd8057cc	-0.06266746
2	0x3dc5d49e	0.09659694
3	0x3e759182	0.23981288
4	0x3ece285d	0.4026517
5	0xbeb23fc3	-0.3481427
6	0xbf1dd5b2	-0.616542
7	0x3c75e797	0.015008829
8	0xbe8b3ba8	-0.27193952
9	0xbc62df45	-0.013847177
10	0x3d6bfa3a	0.05761168
11	0xbdc73635	-0.09727136
12	0x3e91f9dd	0.28510943
13	0xbd6f0d34	-0.0583622
14	0xbe00063c	-0.12502378
15	0x3e2284c1	0.15870954
16	0x3d900109	0.070314474
17	0xbd9d4062	-0.07678296
18	0x3de01657	0.10941761
19	0xbea05fb5	-0.3132302
20	0xbf9955dc	-1.1979327
21	0xbe80eaca	-0.2517913
22	0xbc68f83e	-0.014219342
23	0x3e4811d4	0.19538051
24	0x3d4762c2	0.048678167
25	0xbdb38952	-0.08766426
26	0x3e444196	0.19165644
27	0x3cf7ae4a	0.030234475
28	0xbd745585	-0.05965187
29	0xbe4cfe5e	-0.20018908
30	0x3d917e47	0.071041636
31	0x3b820945	0.00396839
32	0x3e32841e	0.17433211
33	0x3ccfb0c4	0.025352843
34	0x3dd3ef3b	0.10348364
35	0xbd8170d9	-0.06320352
36	0xbd751188	-0.059831172
37	0x3fecba50	1.8494358
38	0xbf17f5d8	-0.593595
39	0x3e613f50	0.21996808
40	0xbe7fe75c	-0.249906
41	0xbcf355d4	-0.029704012
42	0xbe4dd51d	-0.20100828
43	0xbc0191b7	-0.007908276
44	0xbd67377b	-0.056449395
45	0x3bb3fe21	0.005492941
46	0xbcb84216	-0.02249245
47	0x3edee566	0.43534392
48	0x3e14b244	0.14521128
49	0xbd4eec31	-0.05051822
50	0x3d98f8d0	0.07469332
51	0x3d899846	0.06718497
52	0xbe8996a6	-0.26872748
53	0xbdf005c8	-0.11719853
54	0xbfef419e	-1.86919
55	0x3de6ab8d	0.112631895
56	0xbd8edcb6	-0.06975691
57	0x3daff63d	0.08591888
58	0xbb1fc361	-0.002437793
59	0x3c8ef3a0	0.017450154
60	0x3dc74671	0.097302325
61	0xbcb5ba15	-0.022183457
62	0xbdfc7adf	-0.12328123
63	0xbe3a885c	-0.1821608
64	0xbe0dfe7c	-0.1386661
65	0x3d7eb8eb	0.06218807
66	0xbb76affb	-0.0037641514
67	0x3ba3e00a	0.005001073
68	0xbe15dbf3	-0.14634685
69	0xbd5fb334	-0.05461426
70	0xbd09bb93	-0.03362615
71	0x3faa2eb4	1.3295503
72	0xbfb1035d	-1.3829151
73	0x3e6cf99a	0.2314209
74	0x3f30fcdf	0.6913585
75	0x3e1bf205	0.15229042
76	0xbf434edf	-0.7629222
77	0xbee32b2d	-0.44368878
78	0xbcf00615	-0.029299775
79	0xbead9230	-0.33900595
80	0x3ec96db3	0.39341506
81	0xbd74f09e	-0.059799783
82	0x3f075ef8	0.52879286
83	0xbe41c96a	-0.1892449
84	0x3d908c8b	0.070580564
85	0x3dbd8ba5	0.09255151
86	0x3e504d09	0.20341887
87	0xbe17c8e2	-0.14822724
88	0x3bb80ea7	0.005616981
89	0xbf0e615a	-0.55617297
90	0x3e89841f	0.26858613
91	0x3dab6c1d	0.0837023
92	0xbe28f9f1	-0.16501595
93	0xbe47768e	-0.19478819
94	0x3d3b5656	0.045736633
95	0xbdd8ba8c	-0.10582456
96	0xbd0285a2	-0.031865723
97	0xbba74c3f	-0.005105525
98	0xbd4facc7	-0.050701883
99	0xbdca4a8b	-0.09877499
100	0x3dc2a71b	0.09504529
101	0xbe97b72a	-0.2963193
102	0x3dde1aba	0.108449414
103	0xbc377330	-0.011196896
104	0xbed28b19	-0.41121748
105	0xc023513b	-2.551833
106	0xbe31e8fa	-0.1737403
107	0xbe0479e6	-0.12937126
108	0xbf1d7b3a	-0.61516154
109	0x3ea8c822	0.3296519
110	0xbcf5a7a8	-0.029987171
111	0xbe914f59	-0.2838085
112	0x3daa6cd0	0.083215356
113	0xbe5172f6	-0.2045401
114	0x3e9652c2	0.29360014
115	0xbe97784d	-0.2958397
116	0xbe2db161	-0.16962196
117	0x3e513f93	0.20434408
118	0x3d4cc7e2	0.04999531
119	0x3da7ee70	0.08199775
120	0x3d725d5b	0.059171062
121	0xbe173732	-0.14767149
122	0x3fc4c7ef	1.5373515
123	0xbedeb250	-0.43495417
124	0x3f0f4a16	0.5597242
125	0xbf17077f	-0.58995813
126	0x3e3255c7	0.17415534
127	0x3e2bb471	0.16768052
128	0x3ec2ce1a	0.38047868
129	0x3d93435f	0.071905844
130	0xbe005eaa	-0.12536111
131	0x3e1f0de0	0.15532637
132	0xbd91e4f0	-0.071237445
133	0xbe4d42d0	-0.20045018
134	0xbe01ab91	-0.12663104
135	0x3e6dc37a	0.232191
136	0xbe55e1a2	-0.20886853
137	0xbe0ea23c	-0.13929075
138	0xbe424ff2	-0.18975809
139	0x3d13a133	0.036042403
140	0xbee0d6eb	-0.4391397
141	0x3ea998a0	0.33124256
142	0x3eb754d9	0.3580692
143	0x3ec46509	0.38358334
144	0x3e0a8e64	0.1353088
145	0xbeb6e481	-0.3572121
146	0x3e809a65	0.25117794
147	0xbe30e53a	-0.17274943
148	0x3e910b1b	0.28328785
149	0x3e69f641	0.22847845
150	0xbb72b234	-0.0037032487
151	0xbddadef3	-0.106870554
152	0xbd869a90	-0.06572449
153	0xbdbe122c	-0.0928081
154	0x3df597e9	0.11991865
155	0x3d26e369	0.04074422
156	0x3e8f163f	0.2794666
157	0xbe83b8da	-0.25726968
158	0xbdefbd3e	-0.11706017
159	0xbcb46220	-0.022019446
160	0x3e319709	0.17342772
161	0x3dc7cb8f	0.097556226
162	0x3e5ae8e8	0.21377909
163	0x3bcfe2e0	0.0063441843
164	0xbd46320d	-0.048387576
165	0xbdaf1dde	-0.085506186
166	0x3de50389	0.11182315
167	0x3d90f8f3	0.07078733
168	0x3dff497a	0.124651864
169	0xbd6f98b6	-0.058495246
170	0x3e1d0704	0.15334707
171	0xbe2daab6	-0.16959652
172	0x3d98d87b	0.074631654
173	0xbe8c6cde	-0.2742681
174	0xbf9b6a87	-1.2141885
175	0x3eb993d4	0.36245596
176	0xbeae36eb	-0.34026274
177	0x3e47a48e	0.19496366
178	0x3e094bbe	0.134078
179	0xbc272950	-0.010202721
180	0xbd18e45f	-0.037327167
181	0x3dde7738	0.10862583
182	0x3e26bdf2	0.16283396
183	0x3e773a06	0.24143228
184	0xbe81d834	-0.25360262
185	0x3e713442	0.23555091
186	0x3df4bb0d	0.119497396
187	0x3d174a98	0.036936373
188	0x3d1baf1a	0.038008787
189	0xbdb1c8d8	-0.08680886
190	0x3fcbea95	1.5930964
191	0xbe912df1	-0.28355363
192	0x3ddf7dbf	0.10912656
193	0xbe89caa7	-0.26912424
194	0x3eda5690	0.42644167
195	0xbdc91dc7	-0.09820133
196	0xbe6ec7f1	-0.23318459
197	0xbdb2f6e0	-0.08738494
198	0xbdbec4e3	-0.09314897
199	0xbd6ed5c2	-0.058309324
200	0x3e51933a	0.20466319
201	0xbe57da51	-0.21079375
202	0x3da0ccde	0.07851575
203	0x3d4d3f98	0.050109476
204	0xbd0777cc	-0.03307323
205	0x3e678b61	0.22611763
206	0x3dbd9ede	0.09258817
207	0xbcde0985	-0.027104149
208	0xbf26440d	-0.6494759
209	0xbe43d2f8	-0.19123447
210	0xbd30636c	-0.043063566
211	0x3ce5082f	0.027958004
212	0xbe2ac1e8	-0.16675532
213	0x3ce2cf5f	0.027686773
214	0xbe9bf4af	-0.30460116
215	0xbe0e9813	-0.13925199
216	0xbe29ef64	-0.16595227
217	0xbd24b49d	-0.04021131
218	0x3acb27b9	0.0015499509
219	0x3a8fdad9	0.0010975256
220	0xbd4872ff	-0.048937794
221	0xbdde70cc	-0.10861358
222	0x3b36a4cf	0.002786923
223	0xbd2d64b2	-0.04233236
224	0x3eef9e7c	0.468006
225	0xbf0a9408	-0.5413213
226	0xbd18d1ad	-0.037309337
227	0xbe8ba324	-0.27272904
228	0xbe12d1fc	-0.14337915
229	0xbd9d4526	-0.07679205
230	0xbda0b8fe	-0.078477845
231	0xbcd7be18	-0.026335761
232	0xbd97c804	-0.07411197
233	0x3cfe61cf	0.031052498
234	0x3d9378dd	0.07200787
235	0x3ded3b9b	0.115836345
236	0x3dae7dee	0.08520113
237	0xbcff61d0	-0.03117457
238	0xbc8fe522	-0.017565314
239	0xbc1f1be3	-0.009711239
240	0xbdfbbbf7	-0.12291711
241	0xbe552601	-0.20815279
242	0xbef1e2e9	-0.4724343
243	0x3e73c2ed	0.23804827
244	0xbcb03b21	-0.02151257
245	0x3dc91817	0.09819048
246	0xbe607ad0	-0.21921849
247	0x3df3a37c	0.118964165
248	0xbc645ede	-0.013938634
249	0x3c9efccc	0.019407652
250	0x3c4bc0c9	0.0124361
251	0x3e9134a5	0.28360477
252	0xbe0fd252	-0.14045075
253	0x3e0f989e	0.14023063
254	0x3d31d8b5	0.04341956
255	0xbea02cfb	-0.31284317

net.0.bias f4 [128]
0	0xbe20ff60	-0.15722418
1	0xbeac03d2	-0.33596665
2	0x3d428191	0.047486845
3	0xbe67da34	-0.22641832
4	0xbdd0227c	-0.101628274
5	0xbdc205a5	-0.09473733
6	0xbd1406bd	-0.03613924
7	0xbd851b78	-0.0649938
8	0xbe84758f	-0.2587094
9	0x3cac324e	0.02102008
10	0xbef18403	-0.4717103
11	0xbe93dc9d	-0.28879252
12	0xbe976325	-0.2956783
13	0x3d94281e	0.07234214
14	0xbd0d16dd	-0.034445632
15	0xbe704eb0	-0.23467517
16	0x3da3c036	0.07995646
17	0xbdc1148b	-0.094277464
18	0xbeb796b8	-0.35857177
19	0x3d09897d	0.033578385
20	0xbd69a07a	-0.057037808
21	0xbdf1fccb	-0.118157946
22	0xbde66b38	-0.11250919
23	0xbed6ab4b	-0.4192756
24	0x3de0dd57	0.10979717
25	0xbd909771	-0.07060135
26	0xbf00402f	-0.50097936
27	0xbdd9f6c0	-0.10642767
28	0x3e4d6479	0.20057859
29	0xbd1b5656	-0.037924133
30	0x3d9e0643	0.07716038
31	0xbe90c21c	-0.28273094
32	0x3dc066c4	0.09394601
33	0xbe0df667	-0.13863526
34	0xbf57077b	-0.8399579
35	0xbe92f313	-0.28701076
36	0xbec725a1	-0.38895896
37	0xbedbf2cf	-0.42958686
38	0xbd645285	-0.05574276
39	0x3da5b4d0	0.08091128
40	0xbe18a9b4	-0.14908487
41	0xbc6af6b5	-0.014341046
42	0xbe6ee1b2	-0.23328283
43	0xbe27ee09	-0.16399397
44	0xbf1235c7	-0.5711331
45	0xbdd9e099	-0.10638542
46	0x3e49f3b9	0.19721879
47	0x3cb13393	0.021631038
48	0xbe2af7ec	-0.16696137
49	0xbd9c687b	-0.076371156
50	0xbc08c061	-0.008346648
51	0x3da6982a	0.08134492
52	0xbf1b7c2c	-0.60736346
53	0xbc8cd453	-0.017191088
54	0xbe1c426a	-0.1525971
55	0xbde21032	-0.11038245
56	0xbf10a21b	-0.56497353
57	0x3dc0fa7a	0.094227746
58	0xbf269c01	-0.65081793
59	0xbd374071	-0.04473919
60	0xbd58c213	-0.05291946
61	0x3e18cde9	0.14922298
62	0xbdfb0cda	-0.122583106
63	0xbf113ae9	-0.56730515
64	0xbdec09fc	-0.11525342
65	0xbe822f80	-0.25426865
66	0xbebd74b8	-0.37003112
67	0xbe9763d9	-0.29568365
68	0x3d844afc	0.06459615
69	0xbe77f49c	-0.24214405
70	0xbe68bff9	-0.22729482
71	0xbe700b7c	-0.23441881
72	0xbea7b0f5	-0.32752195
73	0xbe69b0d7	-0.22821365
74	0x3eba872a	0.36431247
75	0xbeef1fd1	-0.46703961
76	0xbe9be90b	-0.30451235
77	0xbecc662a	-0.39921695
78	0xbea068d1	-0.3132997
79	0xbdda2aa9	-0.10652668
80	0xbeaf5eb0	-0.34251928
81	0xbe3f00db	-0.1865267
82	0xbea43fdf	-0.3207998
83	0x3da736cd	0.08164749
84	0xbe9e14d5	-0.3087527
85	0x3e1b7940	0.15182972
86	0xbef86e13	-0.4852148
87	0x3e6c3d90	0.23070359
88	0xbe257ba3	-0.16160445
89	0x3e0dd93b	0.13852398
90	0xbe045071	-0.12921311
91	0x3e0a5bef	0.13511632
92	0xbefe7a53	-0.497027
93	0x3ccae305	0.024766454
94	0xbdcebd93	-0.10094752
95	0xbd652336	-0.055941783
96	0xbed27275	-0.4110295
97	0x3dbc3dcc	0.09191474
98	0xbf165dba	-0.58736765
99	0xbc06b0ec	-0.008220892
100	0xbf084203	-0.53225726
101	0xbe02cdd8	-0.12773836
102	0xbd5f6c4d	-0.054546643
103	0xbf06e18b	-0.526879
104	0xbee458b1	-0.44598916
105	0xbe42bd07	-0.1901742
106	0xbefa646c	-0.4890474
107	0xbd8b5b50	-0.06804526
108	0xbd814734	-0.06312409
109	0xbdd67b1a	-0.104726985
110	0x3d0df6e6	0.03465929
111	0xbe4545b8	-0.19264877
112	0xbe91712b	-0.28406653
113	0xbe277a84	-0.1635533
114	0xbd890637	-0.066906385
115	0xbef4b991	-0.47797826
116	0xbe8c513b	-0.27405724
117	0xbefa39ae	-0.4887213
118	0xbdb0969c	-0.086224765
119	0xbe8e249f	-0.27762315
120	0xbcbc18c0	-0.02296102
121	0xbd9fd407	-0.07804113
122	0xbe5c1144	-0.21490961
123	0xbea54559	-0.3227947
124	0x3e742b78	0.23844707
125	0xbeb3533c	-0.3502444
126	0xbde80a72	-0.11330117
127	0x3dd88b2e	0.105734214
